…
I1130 10:22:55.657166 22323 solver.cpp:91] Creating training net from net file: experiments_py/exper_cuhk/cuhk01/singleNet/train_val.prototxt
I1130 10:22:55.687779 22323 net.cpp:322] The NetState phase (0) differed from the phase (1) specified by a rule in layer data
I1130 10:22:55.689286 22323 net.cpp:58] Initializing net from parameters: 
name: "AlexNet"
state {
  phase: TRAIN
  level: 0
  stage: ""
}
layer {
  name: "data"
  type: "Python"
  top: "data"
  top: "data_p"
  top: "label"
  include {
    phase: TRAIN
  }
  python_param {
    module: "cuhk01_SeqIn_layer"
    layer: "videoReadTrain"
  }
}
layer {
  name: "conv1/7x7_s2"
  type: "Convolution"
  bottom: "data"
  top: "conv1/7x7_s2"
  param {
    name: "conv1/7x7_s2_w"
    lr_mult: 1
    decay_mult: 1
  }
  param {
    name: "conv1/7x7_s2_b"
    lr_mult: 2
    decay_mult: 0
  }
  convolution_param {
    num_output: 64
    pad: 3
    kernel_size: 7
    stride: 2
    weight_filler {
      type: "xavier"
    }
    bias_filler {
      type: "constant"
      value: 0.2
    }
  }
}
layer {
  name: "conv1/relu_7x7"
  type: "ReLU"
  bottom: "conv1/7x7_s2"
  top: "conv1/7x7_s2"
}
layer {
  name: "pool1/3x3_s2"
  type: "Pooling"
  bottom: "conv1/7x7_s2"
  top: "pool1/3x3_s2"
  pooling_param {
    pool: MAX
    kernel_size: 3
    stride: 2
  }
}
layer {
  name: "pool1/norm1"
  type: "LRN"
  bottom: "pool1/3x3_s2"
  top: "pool1/norm1"
  lrn_param {
    local_size: 5
    alpha: 0.0001
    beta: 0.75
  }
}
layer {
  name: "conv2/3x3_reduce"
  type: "Convolution"
  bottom: "pool1/norm1"
  top: "conv2/3x3_reduce"
  param {
    name: "conv2/3x3_reduce_w"
    lr_mult: 1
    decay_mult: 1
  }
  param {
    name: "conv2/3x3_reduce_b"
    lr_mult: 2
    decay_mult: 0
  }
  convolution_param {
    num_output: 64
    kernel_size: 1
    weight_filler {
      type: "xavier"
    }
    bias_filler {
      type: "constant"
      value: 0.2
    }
  }
}
layer {
  name: "conv2/relu_3x3_reduce"
  type: "ReLU"
  bottom: "conv2/3x3_reduce"
  top: "conv2/3x3_reduce"
}
layer {
  name: "conv2/3x3"
  type: "Convolution"
  bottom: "conv2/3x3_reduce"
  top: "conv2/3x3"
  param {
    name: "conv2/3x3_w"
    lr_mult: 1
    decay_mult: 1
  }
  param {
    name: "conv2/3x3_b"
    lr_mult: 2
    decay_mult: 0
  }
  convolution_param {
    num_output: 192
    pad: 1
    kernel_size: 3
    weight_filler {
      type: "xavier"
    }
    bias_filler {
      type: "constant"
      value: 0.2
    }
  }
}
layer {
  name: "conv2/relu_3x3"
  type: "ReLU"
  bottom: "conv2/3x3"
  top: "conv2/3x3"
}
layer {
  name: "pool2/3x3_s2"
  type: "Pooling"
  bottom: "conv2/3x3"
  top: "pool2/3x3_s2"
  pooling_param {
    pool: MAX
    kernel_size: 3
    stride: 2
  }
}
layer {
  name: "inception_3a/1x1"
  type: "Convolution"
  bottom: "pool2/3x3_s2"
  top: "inception_3a/1x1"
  param {
    name: "inception_3a/1x1_w"
    lr_mult: 1
    decay_mult: 1
  }
  param {
    name: "inception_3a/1x1_b"
    lr_mult: 2
    decay_mult: 0
  }
  convolution_param {
    num_output: 64
    kernel_size: 1
    weight_filler {
      type: "xavier"
    }
    bias_filler {
      type: "constant"
      value: 0.2
    }
  }
}
layer {
  name: "inception_3a/relu_1x1"
  type: "ReLU"
  bottom: "inception_3a/1x1"
  top: "inception_3a/1x1"
}
layer {
  name: "inception_3a/3x3_reduce"
  type: "Convolution"
  bottom: "pool2/3x3_s2"
  top: "inception_3a/3x3_reduce"
  param {
    name: "inception_3a/3x3_reduce_w"
    lr_mult: 1
    decay_mult: 1
  }
  param {
    name: "inception_3a/3x3_reduce_b"
    lr_mult: 2
    decay_mult: 0
  }
  convolution_param {
    num_output: 96
    kernel_size: 1
    weight_filler {
      type: "xavier"
    }
    bias_filler {
      type: "constant"
      value: 0.2
    }
  }
}
layer {
  name: "inception_3a/relu_3x3_reduce"
  type: "ReLU"
  bottom: "inception_3a/3x3_reduce"
  top: "inception_3a/3x3_reduce"
}
layer {
  name: "inception_3a/3x3"
  type: "Convolution"
  bottom: "inception_3a/3x3_reduce"
  top: "inception_3a/3x3"
  param {
    name: "inception_3a/3x3_w"
    lr_mult: 1
    decay_mult: 1
  }
  param {
    name: "inception_3a/3x3_b"
    lr_mult: 2
    decay_mult: 0
  }
  convolution_param {
    num_output: 128
    pad: 1
    kernel_size: 3
    weight_filler {
      type: "xavier"
    }
    bias_filler {
      type: "constant"
      value: 0.2
    }
  }
}
layer {
  name: "inception_3a/relu_3x3"
  type: "ReLU"
  bottom: "inception_3a/3x3"
  top: "inception_3a/3x3"
}
layer {
  name: "inception_3a/5x5_reduce"
  type: "Convolution"
  bottom: "pool2/3x3_s2"
  top: "inception_3a/5x5_reduce"
  param {
    name: "inception_3a/5x5_reduce_w"
    lr_mult: 1
    decay_mult: 1
  }
  param {
    name: "inception_3a/5x5_reduce_b"
    lr_mult: 2
    decay_mult: 0
  }
  convolution_param {
    num_output: 16
    kernel_size: 1
    weight_filler {
      type: "xavier"
    }
    bias_filler {
      type: "constant"
      value: 0.2
    }
  }
}
layer {
  name: "inception_3a/relu_5x5_reduce"
  type: "ReLU"
  bottom: "inception_3a/5x5_reduce"
  top: "inception_3a/5x5_reduce"
}
layer {
  name: "inception_3a/5x5"
  type: "Convolution"
  bottom: "inception_3a/5x5_reduce"
  top: "inception_3a/5x5"
  param {
    name: "inception_3a/5x5_w"
    lr_mult: 1
    decay_mult: 1
  }
  param {
    name: "inception_3a/5x5_b"
    lr_mult: 2
    decay_mult: 0
  }
  convolution_param {
    num_output: 32
    pad: 2
    kernel_size: 5
    weight_filler {
      type: "xavier"
    }
    bias_filler {
      type: "constant"
      value: 0.2
    }
  }
}
layer {
  name: "inception_3a/relu_5x5"
  type: "ReLU"
  bottom: "inception_3a/5x5"
  top: "inception_3a/5x5"
}
layer {
  name: "inception_3a/pool"
  type: "Pooling"
  bottom: "pool2/3x3_s2"
  top: "inception_3a/pool"
  pooling_param {
    pool: MAX
    kernel_size: 3
    stride: 1
    pad: 1
  }
}
layer {
  name: "inception_3a/pool_proj"
  type: "Convolution"
  bottom: "inception_3a/pool"
  top: "inception_3a/pool_proj"
  param {
    name: "inception_3a/pool_proj_w"
    lr_mult: 1
    decay_mult: 1
  }
  param {
    name: "inception_3a/pool_proj_b"
    lr_mult: 2
    decay_mult: 0
  }
  convolution_param {
    num_output: 32
    kernel_size: 1
    weight_filler {
      type: "xavier"
    }
    bias_filler {
      type: "constant"
      value: 0.2
    }
  }
}
layer {
  name: "inception_3a/relu_pool_proj"
  type: "ReLU"
  bottom: "inception_3a/pool_proj"
  top: "inception_3a/pool_proj"
}
layer {
  name: "inception_3a/output"
  type: "Concat"
  bottom: "inception_3a/1x1"
  bottom: "inception_3a/3x3"
  bottom: "inception_3a/5x5"
  bottom: "inception_3a/pool_proj"
  top: "inception_3a/output"
}
layer {
  name: "inception_3b/1x1"
  type: "Convolution"
  bottom: "inception_3a/output"
  top: "inception_3b/1x1"
  param {
    name: "inception_3b/1x1_w"
    lr_mult: 1
    decay_mult: 1
  }
  param {
    name: "inception_3b/1x1_b"
    lr_mult: 2
    decay_mult: 0
  }
  convolution_param {
    num_output: 128
    kernel_size: 1
    weight_filler {
      type: "xavier"
    }
    bias_filler {
      type: "constant"
      value: 0.2
    }
  }
}
layer {
  name: "inception_3b/relu_1x1"
  type: "ReLU"
  bottom: "inception_3b/1x1"
  top: "inception_3b/1x1"
}
layer {
  name: "inception_3b/3x3_reduce"
  type: "Convolution"
  bottom: "inception_3a/output"
  top: "inception_3b/3x3_reduce"
  param {
    name: "inception_3b/3x3_reduce_w"
    lr_mult: 1
    decay_mult: 1
  }
  param {
    name: "inception_3b/3x3_reduce_b"
    lr_mult: 2
    decay_mult: 0
  }
  convolution_param {
    num_output: 128
    kernel_size: 1
    weight_filler {
      type: "xavier"
    }
    bias_filler {
      type: "constant"
      value: 0.2
    }
  }
}
layer {
  name: "inception_3b/relu_3x3_reduce"
  type: "ReLU"
  bottom: "inception_3b/3x3_reduce"
  top: "inception_3b/3x3_reduce"
}
layer {
  name: "inception_3b/3x3"
  type: "Convolution"
  bottom: "inception_3b/3x3_reduce"
  top: "inception_3b/3x3"
  param {
    name: "inception_3b/3x3_w"
    lr_mult: 1
    decay_mult: 1
  }
  param {
    name: "inception_3b/3x3_b"
    lr_mult: 2
    decay_mult: 0
  }
  convolution_param {
    num_output: 192
    pad: 1
    kernel_size: 3
    weight_filler {
      type: "xavier"
    }
    bias_filler {
      type: "constant"
      value: 0.2
    }
  }
}
layer {
  name: "inception_3b/relu_3x3"
  type: "ReLU"
  bottom: "inception_3b/3x3"
  top: "inception_3b/3x3"
}
layer {
  name: "inception_3b/5x5_reduce"
  type: "Convolution"
  bottom: "inception_3a/output"
  top: "inception_3b/5x5_reduce"
  param {
    name: "inception_3b/5x5_reduce_w"
    lr_mult: 1
    decay_mult: 1
  }
  param {
    name: "inception_3b/5x5_reduce_b"
    lr_mult: 2
    decay_mult: 0
  }
  convolution_param {
    num_output: 32
    kernel_size: 1
    weight_filler {
      type: "xavier"
    }
    bias_filler {
      type: "constant"
      value: 0.2
    }
  }
}
layer {
  name: "inception_3b/relu_5x5_reduce"
  type: "ReLU"
  bottom: "inception_3b/5x5_reduce"
  top: "inception_3b/5x5_reduce"
}
layer {
  name: "inception_3b/5x5"
  type: "Convolution"
  bottom: "inception_3b/5x5_reduce"
  top: "inception_3b/5x5"
  param {
    name: "inception_3b/5x5_w"
    lr_mult: 1
    decay_mult: 1
  }
  param {
    name: "inception_3b/5x5_b"
    lr_mult: 2
    decay_mult: 0
  }
  convolution_param {
    num_output: 96
    pad: 2
    kernel_size: 5
    weight_filler {
      type: "xavier"
    }
    bias_filler {
      type: "constant"
      value: 0.2
    }
  }
}
layer {
  name: "inception_3b/relu_5x5"
  type: "ReLU"
  bottom: "inception_3b/5x5"
  top: "inception_3b/5x5"
}
layer {
  name: "inception_3b/pool"
  type: "Pooling"
  bottom: "inception_3a/output"
  top: "inception_3b/pool"
  pooling_param {
    pool: MAX
    kernel_size: 3
    stride: 1
    pad: 1
  }
}
layer {
  name: "inception_3b/pool_proj"
  type: "Convolution"
  bottom: "inception_3b/pool"
  top: "inception_3b/pool_proj"
  param {
    name: "inception_3b/pool_proj_w"
    lr_mult: 1
    decay_mult: 1
  }
  param {
    name: "inception_3b/pool_proj_b"
    lr_mult: 2
    decay_mult: 0
  }
  convolution_param {
    num_output: 64
    kernel_size: 1
    weight_filler {
      type: "xavier"
    }
    bias_filler {
      type: "constant"
      value: 0.2
    }
  }
}
layer {
  name: "inception_3b/relu_pool_proj"
  type: "ReLU"
  bottom: "inception_3b/pool_proj"
  top: "inception_3b/pool_proj"
}
layer {
  name: "inception_3b/output"
  type: "Concat"
  bottom: "inception_3b/1x1"
  bottom: "inception_3b/3x3"
  bottom: "inception_3b/5x5"
  bottom: "inception_3b/pool_proj"
  top: "inception_3b/output"
}
layer {
  name: "pool3/3x3_s2"
  type: "Pooling"
  bottom: "inception_3b/output"
  top: "pool3/3x3_s2"
  pooling_param {
    pool: MAX
    kernel_size: 3
    stride: 2
  }
}
layer {
  name: "inception_4a/1x1"
  type: "Convolution"
  bottom: "pool3/3x3_s2"
  top: "inception_4a/1x1"
  param {
    name: "inception_4a/1x1_w"
    lr_mult: 1
    decay_mult: 1
  }
  param {
    name: "inception_4a/1x1_b"
    lr_mult: 2
    decay_mult: 0
  }
  convolution_param {
    num_output: 192
    kernel_size: 1
    weight_filler {
      type: "xavier"
    }
    bias_filler {
      type: "constant"
      value: 0.2
    }
  }
}
layer {
  name: "inception_4a/relu_1x1"
  type: "ReLU"
  bottom: "inception_4a/1x1"
  top: "inception_4a/1x1"
}
layer {
  name: "inception_4a/3x3_reduce"
  type: "Convolution"
  bottom: "pool3/3x3_s2"
  top: "inception_4a/3x3_reduce"
  param {
    name: "inception_4a/3x3_reduce_w"
    lr_mult: 1
    decay_mult: 1
  }
  param {
    name: "inception_4a/3x3_reduce_b"
    lr_mult: 2
    decay_mult: 0
  }
  convolution_param {
    num_output: 96
    kernel_size: 1
    weight_filler {
      type: "xavier"
    }
    bias_filler {
      type: "constant"
      value: 0.2
    }
  }
}
layer {
  name: "inception_4a/relu_3x3_reduce"
  type: "ReLU"
  bottom: "inception_4a/3x3_reduce"
  top: "inception_4a/3x3_reduce"
}
layer {
  name: "inception_4a/3x3"
  type: "Convolution"
  bottom: "inception_4a/3x3_reduce"
  top: "inception_4a/3x3"
  param {
    name: "inception_4a/3x3_w"
    lr_mult: 1
    decay_mult: 1
  }
  param {
    name: "inception_4a/3x3_b"
    lr_mult: 2
    decay_mult: 0
  }
  convolution_param {
    num_output: 208
    pad: 1
    kernel_size: 3
    weight_filler {
      type: "xavier"
    }
    bias_filler {
      type: "constant"
      value: 0.2
    }
  }
}
layer {
  name: "inception_4a/relu_3x3"
  type: "ReLU"
  bottom: "inception_4a/3x3"
  top: "inception_4a/3x3"
}
layer {
  name: "inception_4a/5x5_reduce"
  type: "Convolution"
  bottom: "pool3/3x3_s2"
  top: "inception_4a/5x5_reduce"
  param {
    name: "inception_4a/5x5_reduce_w"
    lr_mult: 1
    decay_mult: 1
  }
  param {
    name: "inception_4a/5x5_reduce_b"
    lr_mult: 2
    decay_mult: 0
  }
  convolution_param {
    num_output: 16
    kernel_size: 1
    weight_filler {
      type: "xavier"
    }
    bias_filler {
      type: "constant"
      value: 0.2
    }
  }
}
layer {
  name: "inception_4a/relu_5x5_reduce"
  type: "ReLU"
  bottom: "inception_4a/5x5_reduce"
  top: "inception_4a/5x5_reduce"
}
layer {
  name: "inception_4a/5x5"
  type: "Convolution"
  bottom: "inception_4a/5x5_reduce"
  top: "inception_4a/5x5"
  param {
    name: "inception_4a/5x5_w"
    lr_mult: 1
    decay_mult: 1
  }
  param {
    name: "inception_4a/5x5_b"
    lr_mult: 2
    decay_mult: 0
  }
  convolution_param {
    num_output: 48
    pad: 2
    kernel_size: 5
    weight_filler {
      type: "xavier"
    }
    bias_filler {
      type: "constant"
      value: 0.2
    }
  }
}
layer {
  name: "inception_4a/relu_5x5"
  type: "ReLU"
  bottom: "inception_4a/5x5"
  top: "inception_4a/5x5"
}
layer {
  name: "inception_4a/pool"
  type: "Pooling"
  bottom: "pool3/3x3_s2"
  top: "inception_4a/pool"
  pooling_param {
    pool: MAX
    kernel_size: 3
    stride: 1
    pad: 1
  }
}
layer {
  name: "inception_4a/pool_proj"
  type: "Convolution"
  bottom: "inception_4a/pool"
  top: "inception_4a/pool_proj"
  param {
    name: "inception_4a/pool_proj_w"
    lr_mult: 1
    decay_mult: 1
  }
  param {
    name: "inception_4a/pool_proj_b"
    lr_mult: 2
    decay_mult: 0
  }
  convolution_param {
    num_output: 64
    kernel_size: 1
    weight_filler {
      type: "xavier"
    }
    bias_filler {
      type: "constant"
      value: 0.2
    }
  }
}
layer {
  name: "inception_4a/relu_pool_proj"
  type: "ReLU"
  bottom: "inception_4a/pool_proj"
  top: "inception_4a/pool_proj"
}
layer {
  name: "inception_4a/output"
  type: "Concat"
  bottom: "inception_4a/1x1"
  bottom: "inception_4a/3x3"
  bottom: "inception_4a/5x5"
  bottom: "inception_4a/pool_proj"
  top: "inception_4a/output"
}
layer {
  name: "inception_4b/1x1"
  type: "Convolution"
  bottom: "inception_4a/output"
  top: "inception_4b/1x1"
  param {
    name: "inception_4b/1x1_w"
    lr_mult: 1
    decay_mult: 1
  }
  param {
    name: "inception_4b/1x1_b"
    lr_mult: 2
    decay_mult: 0
  }
  convolution_param {
    num_output: 160
    kernel_size: 1
    weight_filler {
      type: "xavier"
    }
    bias_filler {
      type: "constant"
      value: 0.2
    }
  }
}
layer {
  name: "inception_4b/relu_1x1"
  type: "ReLU"
  bottom: "inception_4b/1x1"
  top: "inception_4b/1x1"
}
layer {
  name: "inception_4b/3x3_reduce"
  type: "Convolution"
  bottom: "inception_4a/output"
  top: "inception_4b/3x3_reduce"
  param {
    name: "inception_4b/3x3_reduce_w"
    lr_mult: 1
    decay_mult: 1
  }
  param {
    name: "inception_4b/3x3_reduce_b"
    lr_mult: 2
    decay_mult: 0
  }
  convolution_param {
    num_output: 112
    kernel_size: 1
    weight_filler {
      type: "xavier"
    }
    bias_filler {
      type: "constant"
      value: 0.2
    }
  }
}
layer {
  name: "inception_4b/relu_3x3_reduce"
  type: "ReLU"
  bottom: "inception_4b/3x3_reduce"
  top: "inception_4b/3x3_reduce"
}
layer {
  name: "inception_4b/3x3"
  type: "Convolution"
  bottom: "inception_4b/3x3_reduce"
  top: "inception_4b/3x3"
  param {
    name: "inception_4b/3x3_w"
    lr_mult: 1
    decay_mult: 1
  }
  param {
    name: "inception_4b/3x3_b"
    lr_mult: 2
    decay_mult: 0
  }
  convolution_param {
    num_output: 224
    pad: 1
    kernel_size: 3
    weight_filler {
      type: "xavier"
    }
    bias_filler {
      type: "constant"
      value: 0.2
    }
  }
}
layer {
  name: "inception_4b/relu_3x3"
  type: "ReLU"
  bottom: "inception_4b/3x3"
  top: "inception_4b/3x3"
}
layer {
  name: "inception_4b/5x5_reduce"
  type: "Convolution"
  bottom: "inception_4a/output"
  top: "inception_4b/5x5_reduce"
  param {
    name: "inception_4b/5x5_reduce_w"
    lr_mult: 1
    decay_mult: 1
  }
  param {
    name: "inception_4b/5x5_reduce_b"
    lr_mult: 2
    decay_mult: 0
  }
  convolution_param {
    num_output: 24
    kernel_size: 1
    weight_filler {
      type: "xavier"
    }
    bias_filler {
      type: "constant"
      value: 0.2
    }
  }
}
layer {
  name: "inception_4b/relu_5x5_reduce"
  type: "ReLU"
  bottom: "inception_4b/5x5_reduce"
  top: "inception_4b/5x5_reduce"
}
layer {
  name: "inception_4b/5x5"
  type: "Convolution"
  bottom: "inception_4b/5x5_reduce"
  top: "inception_4b/5x5"
  param {
    name: "inception_4b/5x5_w"
    lr_mult: 1
    decay_mult: 1
  }
  param {
    name: "inception_4b/5x5_b"
    lr_mult: 2
    decay_mult: 0
  }
  convolution_param {
    num_output: 64
    pad: 2
    kernel_size: 5
    weight_filler {
      type: "xavier"
    }
    bias_filler {
      type: "constant"
      value: 0.2
    }
  }
}
layer {
  name: "inception_4b/relu_5x5"
  type: "ReLU"
  bottom: "inception_4b/5x5"
  top: "inception_4b/5x5"
}
layer {
  name: "inception_4b/pool"
  type: "Pooling"
  bottom: "inception_4a/output"
  top: "inception_4b/pool"
  pooling_param {
    pool: MAX
    kernel_size: 3
    stride: 1
    pad: 1
  }
}
layer {
  name: "inception_4b/pool_proj"
  type: "Convolution"
  bottom: "inception_4b/pool"
  top: "inception_4b/pool_proj"
  param {
    name: "inception_4b/pool_proj_w"
    lr_mult: 1
    decay_mult: 1
  }
  param {
    name: "inception_4b/pool_proj_b"
    lr_mult: 2
    decay_mult: 0
  }
  convolution_param {
    num_output: 64
    kernel_size: 1
    weight_filler {
      type: "xavier"
    }
    bias_filler {
      type: "constant"
      value: 0.2
    }
  }
}
layer {
  name: "inception_4b/relu_pool_proj"
  type: "ReLU"
  bottom: "inception_4b/pool_proj"
  top: "inception_4b/pool_proj"
}
layer {
  name: "inception_4b/output"
  type: "Concat"
  bottom: "inception_4b/1x1"
  bottom: "inception_4b/3x3"
  bottom: "inception_4b/5x5"
  bottom: "inception_4b/pool_proj"
  top: "inception_4b/output"
}
layer {
  name: "inception_4c/1x1"
  type: "Convolution"
  bottom: "inception_4b/output"
  top: "inception_4c/1x1"
  param {
    name: "inception_4c/1x1_w"
    lr_mult: 1
    decay_mult: 1
  }
  param {
    name: "inception_4c/1x1_b"
    lr_mult: 2
    decay_mult: 0
  }
  convolution_param {
    num_output: 128
    kernel_size: 1
    weight_filler {
      type: "xavier"
    }
    bias_filler {
      type: "constant"
      value: 0.2
    }
  }
}
layer {
  name: "inception_4c/relu_1x1"
  type: "ReLU"
  bottom: "inception_4c/1x1"
  top: "inception_4c/1x1"
}
layer {
  name: "inception_4c/3x3_reduce"
  type: "Convolution"
  bottom: "inception_4b/output"
  top: "inception_4c/3x3_reduce"
  param {
    name: "inception_4c/3x3_reduce_w"
    lr_mult: 1
    decay_mult: 1
  }
  param {
    name: "inception_4c/3x3_reduce_b"
    lr_mult: 2
    decay_mult: 0
  }
  convolution_param {
    num_output: 128
    kernel_size: 1
    weight_filler {
      type: "xavier"
    }
    bias_filler {
      type: "constant"
      value: 0.2
    }
  }
}
layer {
  name: "inception_4c/relu_3x3_reduce"
  type: "ReLU"
  bottom: "inception_4c/3x3_reduce"
  top: "inception_4c/3x3_reduce"
}
layer {
  name: "inception_4c/3x3"
  type: "Convolution"
  bottom: "inception_4c/3x3_reduce"
  top: "inception_4c/3x3"
  param {
    name: "inception_4c/3x3_w"
    lr_mult: 1
    decay_mult: 1
  }
  param {
    name: "inception_4c/3x3_b"
    lr_mult: 2
    decay_mult: 0
  }
  convolution_param {
    num_output: 256
    pad: 1
    kernel_size: 3
    weight_filler {
      type: "xavier"
    }
    bias_filler {
      type: "constant"
      value: 0.2
    }
  }
}
layer {
  name: "inception_4c/relu_3x3"
  type: "ReLU"
  bottom: "inception_4c/3x3"
  top: "inception_4c/3x3"
}
layer {
  name: "inception_4c/5x5_reduce"
  type: "Convolution"
  bottom: "inception_4b/output"
  top: "inception_4c/5x5_reduce"
  param {
    name: "inception_4c/5x5_reduce_w"
    lr_mult: 1
    decay_mult: 1
  }
  param {
    name: "inception_4c/5x5_reduce_b"
    lr_mult: 2
    decay_mult: 0
  }
  convolution_param {
    num_output: 24
    kernel_size: 1
    weight_filler {
      type: "xavier"
    }
    bias_filler {
      type: "constant"
      value: 0.2
    }
  }
}
layer {
  name: "inception_4c/relu_5x5_reduce"
  type: "ReLU"
  bottom: "inception_4c/5x5_reduce"
  top: "inception_4c/5x5_reduce"
}
layer {
  name: "inception_4c/5x5"
  type: "Convolution"
  bottom: "inception_4c/5x5_reduce"
  top: "inception_4c/5x5"
  param {
    name: "inception_4c/5x5_w"
    lr_mult: 1
    decay_mult: 1
  }
  param {
    name: "inception_4c/5x5_b"
    lr_mult: 2
    decay_mult: 0
  }
  convolution_param {
    num_output: 64
    pad: 2
    kernel_size: 5
    weight_filler {
      type: "xavier"
    }
    bias_filler {
      type: "constant"
      value: 0.2
    }
  }
}
layer {
  name: "inception_4c/relu_5x5"
  type: "ReLU"
  bottom: "inception_4c/5x5"
  top: "inception_4c/5x5"
}
layer {
  name: "inception_4c/pool"
  type: "Pooling"
  bottom: "inception_4b/output"
  top: "inception_4c/pool"
  pooling_param {
    pool: MAX
    kernel_size: 3
    stride: 1
    pad: 1
  }
}
layer {
  name: "inception_4c/pool_proj"
  type: "Convolution"
  bottom: "inception_4c/pool"
  top: "inception_4c/pool_proj"
  param {
    name: "inception_4c/pool_proj_w"
    lr_mult: 1
    decay_mult: 1
  }
  param {
    name: "inception_4c/pool_proj_b"
    lr_mult: 2
    decay_mult: 0
  }
  convolution_param {
    num_output: 64
    kernel_size: 1
    weight_filler {
      type: "xavier"
    }
    bias_filler {
      type: "constant"
      value: 0.2
    }
  }
}
layer {
  name: "inception_4c/relu_pool_proj"
  type: "ReLU"
  bottom: "inception_4c/pool_proj"
  top: "inception_4c/pool_proj"
}
layer {
  name: "inception_4c/output"
  type: "Concat"
  bottom: "inception_4c/1x1"
  bottom: "inception_4c/3x3"
  bottom: "inception_4c/5x5"
  bottom: "inception_4c/pool_proj"
  top: "inception_4c/output"
}
layer {
  name: "inception_4d/1x1"
  type: "Convolution"
  bottom: "inception_4c/output"
  top: "inception_4d/1x1"
  param {
    name: "inception_4d/1x1_w"
    lr_mult: 1
    decay_mult: 1
  }
  param {
    name: "inception_4d/1x1_b"
    lr_mult: 2
    decay_mult: 0
  }
  convolution_param {
    num_output: 112
    kernel_size: 1
    weight_filler {
      type: "xavier"
    }
    bias_filler {
      type: "constant"
      value: 0.2
    }
  }
}
layer {
  name: "inception_4d/relu_1x1"
  type: "ReLU"
  bottom: "inception_4d/1x1"
  top: "inception_4d/1x1"
}
layer {
  name: "inception_4d/3x3_reduce"
  type: "Convolution"
  bottom: "inception_4c/output"
  top: "inception_4d/3x3_reduce"
  param {
    name: "inception_4d/3x3_reduce_w"
    lr_mult: 1
    decay_mult: 1
  }
  param {
    name: "inception_4d/3x3_reduce_b"
    lr_mult: 2
    decay_mult: 0
  }
  convolution_param {
    num_output: 144
    kernel_size: 1
    weight_filler {
      type: "xavier"
    }
    bias_filler {
      type: "constant"
      value: 0.2
    }
  }
}
layer {
  name: "inception_4d/relu_3x3_reduce"
  type: "ReLU"
  bottom: "inception_4d/3x3_reduce"
  top: "inception_4d/3x3_reduce"
}
layer {
  name: "inception_4d/3x3"
  type: "Convolution"
  bottom: "inception_4d/3x3_reduce"
  top: "inception_4d/3x3"
  param {
    name: "inception_4d/3x3_w"
    lr_mult: 1
    decay_mult: 1
  }
  param {
    name: "inception_4d/3x3_b"
    lr_mult: 2
    decay_mult: 0
  }
  convolution_param {
    num_output: 288
    pad: 1
    kernel_size: 3
    weight_filler {
      type: "xavier"
    }
    bias_filler {
      type: "constant"
      value: 0.2
    }
  }
}
layer {
  name: "inception_4d/relu_3x3"
  type: "ReLU"
  bottom: "inception_4d/3x3"
  top: "inception_4d/3x3"
}
layer {
  name: "inception_4d/5x5_reduce"
  type: "Convolution"
  bottom: "inception_4c/output"
  top: "inception_4d/5x5_reduce"
  param {
    name: "inception_4d/5x5_reduce_w"
    lr_mult: 1
    decay_mult: 1
  }
  param {
    name: "inception_4d/5x5_reduce_b"
    lr_mult: 2
    decay_mult: 0
  }
  convolution_param {
    num_output: 32
    kernel_size: 1
    weight_filler {
      type: "xavier"
    }
    bias_filler {
      type: "constant"
      value: 0.2
    }
  }
}
layer {
  name: "inception_4d/relu_5x5_reduce"
  type: "ReLU"
  bottom: "inception_4d/5x5_reduce"
  top: "inception_4d/5x5_reduce"
}
layer {
  name: "inception_4d/5x5"
  type: "Convolution"
  bottom: "inception_4d/5x5_reduce"
  top: "inception_4d/5x5"
  param {
    name: "inception_4d/5x5_w"
    lr_mult: 1
    decay_mult: 1
  }
  param {
    name: "inception_4d/5x5_b"
    lr_mult: 2
    decay_mult: 0
  }
  convolution_param {
    num_output: 64
    pad: 2
    kernel_size: 5
    weight_filler {
      type: "xavier"
    }
    bias_filler {
      type: "constant"
      value: 0.2
    }
  }
}
layer {
  name: "inception_4d/relu_5x5"
  type: "ReLU"
  bottom: "inception_4d/5x5"
  top: "inception_4d/5x5"
}
layer {
  name: "inception_4d/pool"
  type: "Pooling"
  bottom: "inception_4c/output"
  top: "inception_4d/pool"
  pooling_param {
    pool: MAX
    kernel_size: 3
    stride: 1
    pad: 1
  }
}
layer {
  name: "inception_4d/pool_proj"
  type: "Convolution"
  bottom: "inception_4d/pool"
  top: "inception_4d/pool_proj"
  param {
    name: "inception_4d/pool_proj_w"
    lr_mult: 1
    decay_mult: 1
  }
  param {
    name: "inception_4d/pool_proj_b"
    lr_mult: 2
    decay_mult: 0
  }
  convolution_param {
    num_output: 64
    kernel_size: 1
    weight_filler {
      type: "xavier"
    }
    bias_filler {
      type: "constant"
      value: 0.2
    }
  }
}
layer {
  name: "inception_4d/relu_pool_proj"
  type: "ReLU"
  bottom: "inception_4d/pool_proj"
  top: "inception_4d/pool_proj"
}
layer {
  name: "inception_4d/output"
  type: "Concat"
  bottom: "inception_4d/1x1"
  bottom: "inception_4d/3x3"
  bottom: "inception_4d/5x5"
  bottom: "inception_4d/pool_proj"
  top: "inception_4d/output"
}
layer {
  name: "inception_4e/1x1"
  type: "Convolution"
  bottom: "inception_4d/output"
  top: "inception_4e/1x1"
  param {
    name: "inception_4e/1x1_w"
    lr_mult: 1
    decay_mult: 1
  }
  param {
    name: "inception_4e/1x1_b"
    lr_mult: 2
    decay_mult: 0
  }
  convolution_param {
    num_output: 256
    kernel_size: 1
    weight_filler {
      type: "xavier"
    }
    bias_filler {
      type: "constant"
      value: 0.2
    }
  }
}
layer {
  name: "inception_4e/relu_1x1"
  type: "ReLU"
  bottom: "inception_4e/1x1"
  top: "inception_4e/1x1"
}
layer {
  name: "inception_4e/3x3_reduce"
  type: "Convolution"
  bottom: "inception_4d/output"
  top: "inception_4e/3x3_reduce"
  param {
    name: "inception_4e/3x3_reduce_w"
    lr_mult: 1
    decay_mult: 1
  }
  param {
    name: "inception_4e/3x3_reduce_b"
    lr_mult: 2
    decay_mult: 0
  }
  convolution_param {
    num_output: 160
    kernel_size: 1
    weight_filler {
      type: "xavier"
    }
    bias_filler {
      type: "constant"
      value: 0.2
    }
  }
}
layer {
  name: "inception_4e/relu_3x3_reduce"
  type: "ReLU"
  bottom: "inception_4e/3x3_reduce"
  top: "inception_4e/3x3_reduce"
}
layer {
  name: "inception_4e/3x3"
  type: "Convolution"
  bottom: "inception_4e/3x3_reduce"
  top: "inception_4e/3x3"
  param {
    name: "inception_4e/3x3_w"
    lr_mult: 1
    decay_mult: 1
  }
  param {
    name: "inception_4e/3x3_b"
    lr_mult: 2
    decay_mult: 0
  }
  convolution_param {
    num_output: 320
    pad: 1
    kernel_size: 3
    weight_filler {
      type: "xavier"
    }
    bias_filler {
      type: "constant"
      value: 0.2
    }
  }
}
layer {
  name: "inception_4e/relu_3x3"
  type: "ReLU"
  bottom: "inception_4e/3x3"
  top: "inception_4e/3x3"
}
layer {
  name: "inception_4e/5x5_reduce"
  type: "Convolution"
  bottom: "inception_4d/output"
  top: "inception_4e/5x5_reduce"
  param {
    name: "inception_4e/5x5_reduce_w"
    lr_mult: 1
    decay_mult: 1
  }
  param {
    name: "inception_4e/5x5_reduce_b"
    lr_mult: 2
    decay_mult: 0
  }
  convolution_param {
    num_output: 32
    kernel_size: 1
    weight_filler {
      type: "xavier"
    }
    bias_filler {
      type: "constant"
      value: 0.2
    }
  }
}
layer {
  name: "inception_4e/relu_5x5_reduce"
  type: "ReLU"
  bottom: "inception_4e/5x5_reduce"
  top: "inception_4e/5x5_reduce"
}
layer {
  name: "inception_4e/5x5"
  type: "Convolution"
  bottom: "inception_4e/5x5_reduce"
  top: "inception_4e/5x5"
  param {
    name: "inception_4e/5x5_w"
    lr_mult: 1
    decay_mult: 1
  }
  param {
    name: "inception_4e/5x5_b"
    lr_mult: 2
    decay_mult: 0
  }
  convolution_param {
    num_output: 128
    pad: 2
    kernel_size: 5
    weight_filler {
      type: "xavier"
    }
    bias_filler {
      type: "constant"
      value: 0.2
    }
  }
}
layer {
  name: "inception_4e/relu_5x5"
  type: "ReLU"
  bottom: "inception_4e/5x5"
  top: "inception_4e/5x5"
}
layer {
  name: "inception_4e/pool"
  type: "Pooling"
  bottom: "inception_4d/output"
  top: "inception_4e/pool"
  pooling_param {
    pool: MAX
    kernel_size: 3
    stride: 1
    pad: 1
  }
}
layer {
  name: "inception_4e/pool_proj"
  type: "Convolution"
  bottom: "inception_4e/pool"
  top: "inception_4e/pool_proj"
  param {
    name: "inception_4e/pool_proj_w"
    lr_mult: 1
    decay_mult: 1
  }
  param {
    name: "inception_4e/pool_proj_b"
    lr_mult: 2
    decay_mult: 0
  }
  convolution_param {
    num_output: 128
    kernel_size: 1
    weight_filler {
      type: "xavier"
    }
    bias_filler {
      type: "constant"
      value: 0.2
    }
  }
}
layer {
  name: "inception_4e/relu_pool_proj"
  type: "ReLU"
  bottom: "inception_4e/pool_proj"
  top: "inception_4e/pool_proj"
}
layer {
  name: "inception_4e/output"
  type: "Concat"
  bottom: "inception_4e/1x1"
  bottom: "inception_4e
I1130 10:22:55.690414 22323 layer_factory.hpp:77] Creating layer data
I1130 10:22:56.829596 22323 net.cpp:100] Creating Layer data
I1130 10:22:56.829646 22323 net.cpp:408] data -> data
I1130 10:22:56.829682 22323 net.cpp:408] data -> data_p
I1130 10:22:56.829696 22323 net.cpp:408] data -> label
data list is loading:  0/100:->data list is loading:  1/100:->data list is loading:  2/10
…
#############->data list is loading: 98/100:#################################################->data list is loading: 99/100:#################################################->data list is loading:100/100:##################################################->video_list:dataset/cuhk01/split/img_seq/testid486_set02_train_pair.txt
list eaxample:
{'frames': ['dataset/cuhk01/cuhk01/0600003.png'], 'reshape': (160, 80), 'label': [0], 'crop': (160, 80), 'frames_p': ['dataset/cuhk01/cuhk01/0237001.png']}
I1130 10:23:02.517863 22323 net.cpp:150] Setting up data
I1130 10:23:02.520900 22323 net.cpp:157] Top shape: 100 3 160 80 (3840000)
I1130 10:23:02.520941 22323 net.cpp:157] Top shape: 100 3 160 80 (3840000)
I1130 10:23:02.520949 22323 net.cpp:157] Top shape: 100 (100)
I1130 10:23:02.520956 22323 net.cpp:165] Memory required for data: 30720400
I1130 10:23:02.520977 22323 layer_factory.hpp:77] Creating layer label_data_2_split
I1130 10:23:02.521013 22323 net.cpp:100] Creating Layer label_data_2_split
I1130 10:23:02.521023 22323 net.cpp:434] label_data_2_split <- label
I1130 10:23:02.521057 22323 net.cpp:408] label_data_2_split -> label_data_2_split_0
I1130 10:23:02.521080 22323 net.cpp:408] label_data_2_split -> label_data_2_split_1
I1130 10:23:02.521150 22323 net.cpp:150] Setting up label_data_2_split
I1130 10:23:02.521162 22323 net.cpp:157] Top shape: 100 (100)
I1130 10:23:02.521236 22323 net.cpp:157] Top shape: 100 (100)
I1130 10:23:02.521241 22323 net.cpp:165] Memory required for data: 30721200
I1130 10:23:02.521248 22323 layer_factory.hpp:77] Creating layer conv1/7x7_s2
I1130 10:23:02.521289 22323 net.cpp:100] Creating Layer conv1/7x7_s2
I1130 10:23:02.521299 22323 net.cpp:434] conv1/7x7_s2 <- data
I1130 10:23:02.521324 22323 net.cpp:408] conv1/7x7_s2 -> conv1/7x7_s2
I1130 10:23:02.897845 22323 net.cpp:150] Setting up conv1/7x7_s2
I1130 10:23:02.897913 22323 net.cpp:157] Top shape: 100 64 80 40 (20480000)
I1130 10:23:02.897922 22323 net.cpp:165] Memory required for data: 112641200
I1130 10:23:02.897965 22323 layer_factory.hpp:77] Creating layer conv1/relu_7x7
I1130 10:23:02.897981 22323 net.cpp:100] Creating Layer conv1/relu_7x7
I1130 10:23:02.897989 22323 net.cpp:434] conv1/relu_7x7 <- conv1/7x7_s2
I1130 10:23:02.898020 22323 net.cpp:395] conv1/relu_7x7 -> conv1/7x7_s2 (in-place)
I1130 10:23:02.898331 22323 net.cpp:150] Setting up conv1/relu_7x7
I1130 10:23:02.898361 22323 net.cpp:157] Top shape: 100 64 80 40 (20480000)
I1130 10:23:02.898367 22323 net.cpp:165] Memory required for data: 194561200
I1130 10:23:02.898373 22323 layer_factory.hpp:77] Creating layer pool1/3x3_s2
I1130 10:23:02.898394 22323 net.cpp:100] Creating Layer pool1/3x3_s2
I1130 10:23:02.898401 22323 net.cpp:434] pool1/3x3_s2 <- conv1/7x7_s2
I1130 10:23:02.898416 22323 net.cpp:408] pool1/3x3_s2 -> pool1/3x3_s2
I1130 10:23:02.898478 22323 net.cpp:150] Setting up pool1/3x3_s2
I1130 10:23:02.898497 22323 net.cpp:157] Top shape: 100 64 40 20 (5120000)
I1130 10:23:02.898504 22323 net.cpp:165] Memory required for data: 215041200
I1130 10:23:02.898509 22323 layer_factory.hpp:77] Creating layer pool1/norm1
I1130 10:23:02.898526 22323 net.cpp:100] Creating Layer pool1/norm1
I1130 10:23:02.898533 22323 net.cpp:434] pool1/norm1 <- pool1/3x3_s2
I1130 10:23:02.898551 22323 net.cpp:408] pool1/norm1 -> pool1/norm1
I1130 10:23:02.899406 22323 net.cpp:150] Setting up pool1/norm1
I1130 10:23:02.899442 22323 net.cpp:157] Top shape: 100 64 40 20 (5120000)
I1130 10:23:02.899448 22323 net.cpp:165] Memory required for data: 235521200
I1130 10:23:02.899454 22323 layer_factory.hpp:77] Creating layer conv2/3x3_reduce
I1130 10:23:02.899477 22323 net.cpp:100] Creating Layer conv2/3x3_reduce
I1130 10:23:02.899483 22323 net.cpp:434] conv2/3x3_reduce <- pool1/norm1
I1130 10:23:02.899492 22323 net.cpp:408] conv2/3x3_reduce -> conv2/3x3_reduce
I1130 10:23:02.903300 22323 net.cpp:150] Setting up conv2/3x3_reduce
I1130 10:23:02.903342 22323 net.cpp:157] Top shape: 100 64 40 20 (5120000)
I1130 10:23:02.903349 22323 net.cpp:165] Memory required for data: 256001200
I1130 10:23:02.903367 22323 layer_factory.hpp:77] Creating layer conv2/relu_3x3_reduce
I1130 10:23:02.903383 22323 net.cpp:100] Creating Layer conv2/relu_3x3_reduce
I1130 10:23:02.903390 22323 net.cpp:434] conv2/relu_3x3_reduce <- conv2/3x3_reduce
I1130 10:23:02.903404 22323 net.cpp:395] conv2/relu_3x3_reduce -> conv2/3x3_reduce (in-place)
I1130 10:23:02.903940 22323 net.cpp:150] Setting up conv2/relu_3x3_reduce
I1130 10:23:02.903957 22323 net.cpp:157] Top shape: 100 64 40 20 (5120000)
I1130 10:23:02.903964 22323 net.cpp:165] Memory required for data: 276481200
I1130 10:23:02.903970 22323 layer_factory.hpp:77] Creating layer conv2/3x3
I1130 10:23:02.903985 22323 net.cpp:100] Creating Layer conv2/3x3
I1130 10:23:02.903991 22323 net.cpp:434] conv2/3x3 <- conv2/3x3_reduce
I1130 10:23:02.904000 22323 net.cpp:408] conv2/3x3 -> conv2/3x3
I1130 10:23:02.907675 22323 net.cpp:150] Setting up conv2/3x3
I1130 10:23:02.907719 22323 net.cpp:157] Top shape: 100 192 40 20 (15360000)
I1130 10:23:02.907727 22323 net.cpp:165] Memory required for data: 337921200
I1130 10:23:02.907750 22323 layer_factory.hpp:77] Creating layer conv2/relu_3x3
I1130 10:23:02.907764 22323 net.cpp:100] Creating Layer conv2/relu_3x3
I1130 10:23:02.907771 22323 net.cpp:434] conv2/relu_3x3 <- conv2/3x3
I1130 10:23:02.907783 22323 net.cpp:395] conv2/relu_3x3 -> conv2/3x3 (in-place)
I1130 10:23:02.908547 22323 net.cpp:150] Setting up conv2/relu_3x3
I1130 10:23:02.908565 22323 net.cpp:157] Top shape: 100 192 40 20 (15360000)
I1130 10:23:02.908571 22323 net.cpp:165] Memory required for data: 399361200
I1130 10:23:02.908577 22323 layer_factory.hpp:77] Creating layer pool2/3x3_s2
I1130 10:23:02.908591 22323 net.cpp:100] Creating Layer pool2/3x3_s2
I1130 10:23:02.908597 22323 net.cpp:434] pool2/3x3_s2 <- conv2/3x3
I1130 10:23:02.908607 22323 net.cpp:408] pool2/3x3_s2 -> pool2/3x3_s2
I1130 10:23:02.908648 22323 net.cpp:150] Setting up pool2/3x3_s2
I1130 10:23:02.908658 22323 net.cpp:157] Top shape: 100 192 20 10 (3840000)
I1130 10:23:02.908663 22323 net.cpp:165] Memory required for data: 414721200
I1130 10:23:02.908669 22323 layer_factory.hpp:77] Creating layer pool2/3x3_s2_pool2/3x3_s2_0_split
I1130 10:23:02.908680 22323 net.cpp:100] Creating Layer pool2/3x3_s2_pool2/3x3_s2_0_split
I1130 10:23:02.908702 22323 net.cpp:434] pool2/3x3_s2_pool2/3x3_s2_0_split <- pool2/3x3_s2
I1130 10:23:02.908711 22323 net.cpp:408] pool2/3x3_s2_pool2/3x3_s2_0_split -> pool2/3x3_s2_pool2/3x3_s2_0_split_0
I1130 10:23:02.908720 22323 net.cpp:408] pool2/3x3_s2_pool2/3x3_s2_0_split -> pool2/3x3_s2_pool2/3x3_s2_0_split_1
I1130 10:23:02.908727 22323 net.cpp:408] pool2/3x3_s2_pool2/3x3_s2_0_split -> pool2/3x3_s2_pool2/3x3_s2_0_split_2
I1130 10:23:02.908737 22323 net.cpp:408] pool2/3x3_s2_pool2/3x3_s2_0_split -> pool2/3x3_s2_pool2/3x3_s2_0_split_3
I1130 10:23:02.908787 22323 net.cpp:150] Setting up pool2/3x3_s2_pool2/3x3_s2_0_split
I1130 10:23:02.908798 22323 net.cpp:157] Top shape: 100 192 20 10 (3840000)
I1130 10:23:02.908804 22323 net.cpp:157] Top shape: 100 192 20 10 (3840000)
I1130 10:23:02.908810 22323 net.cpp:157] Top shape: 100 192 20 10 (3840000)
I1130 10:23:02.908818 22323 net.cpp:157] Top shape: 100 192 20 10 (3840000)
I1130 10:23:02.908823 22323 net.cpp:165] Memory required for data: 476161200
I1130 10:23:02.908829 22323 layer_factory.hpp:77] Creating layer inception_3a/1x1
I1130 10:23:02.908843 22323 net.cpp:100] Creating Layer inception_3a/1x1
I1130 10:23:02.908849 22323 net.cpp:434] inception_3a/1x1 <- pool2/3x3_s2_pool2/3x3_s2_0_split_0
I1130 10:23:02.908859 22323 net.cpp:408] inception_3a/1x1 -> inception_3a/1x1
I1130 10:23:02.912389 22323 net.cpp:150] Setting up inception_3a/1x1
I1130 10:23:02.912428 22323 net.cpp:157] Top shape: 100 64 20 10 (1280000)
I1130 10:23:02.912436 22323 net.cpp:165] Memory required for data: 481281200
I1130 10:23:02.912449 22323 layer_factory.hpp:77] Creating layer inception_3a/relu_1x1
I1130 10:23:02.912461 22323 net.cpp:100] Creating Layer inception_3a/relu_1x1
I1130 10:23:02.912468 22323 net.cpp:434] inception_3a/relu_1x1 <- inception_3a/1x1
I1130 10:23:02.912479 22323 net.cpp:395] inception_3a/relu_1x1 -> inception_3a/1x1 (in-place)
I1130 10:23:02.913342 22323 net.cpp:150] Setting up inception_3a/relu_1x1
I1130 10:23:02.913358 22323 net.cpp:157] Top shape: 100 64 20 10 (1280000)
I1130 10:23:02.913364 22323 net.cpp:165] Memory required for data: 486401200
I1130 10:23:02.913378 22323 layer_factory.hpp:77] Creating layer inception_3a/3x3_reduce
I1130 10:23:02.913395 22323 net.cpp:100] Creating Layer inception_3a/3x3_reduce
I1130 10:23:02.913403 22323 net.cpp:434] inception_3a/3x3_reduce <- pool2/3x3_s2_pool2/3x3_s2_0_split_1
I1130 10:23:02.913413 22323 net.cpp:408] inception_3a/3x3_reduce -> inception_3a/3x3_reduce
I1130 10:23:02.917012 22323 net.cpp:150] Setting up inception_3a/3x3_reduce
I1130 10:23:02.917055 22323 net.cpp:157] Top shape: 100 96 20 10 (1920000)
I1130 10:23:02.917063 22323 net.cpp:165] Memory required for data: 494081200
I1130 10:23:02.917080 22323 layer_factory.hpp:77] Creating layer inception_3a/relu_3x3_reduce
I1130 10:23:02.917094 22323 net.cpp:100] Creating Layer inception_3a/relu_3x3_reduce
I1130 10:23:02.917103 22323 net.cpp:434] inception_3a/relu_3x3_reduce <- inception_3a/3x3_reduce
I1130 10:23:02.917114 22323 net.cpp:395] inception_3a/relu_3x3_reduce -> inception_3a/3x3_reduce (in-place)
I1130 10:23:02.918030 22323 net.cpp:150] Setting up inception_3a/relu_3x3_reduce
I1130 10:23:02.918050 22323 net.cpp:157] Top shape: 100 96 20 10 (1920000)
I1130 10:23:02.918056 22323 net.cpp:165] Memory required for data: 501761200
I1130 10:23:02.918064 22323 layer_factory.hpp:77] Creating layer inception_3a/3x3
I1130 10:23:02.918081 22323 net.cpp:100] Creating Layer inception_3a/3x3
I1130 10:23:02.918087 22323 net.cpp:434] inception_3a/3x3 <- inception_3a/3x3_reduce
I1130 10:23:02.918098 22323 net.cpp:408] inception_3a/3x3 -> inception_3a/3x3
I1130 10:23:02.921882 22323 net.cpp:150] Setting up inception_3a/3x3
I1130 10:23:02.921924 22323 net.cpp:157] Top shape: 100 128 20 10 (2560000)
I1130 10:23:02.921932 22323 net.cpp:165] Memory required for data: 512001200
I1130 10:23:02.921946 22323 layer_factory.hpp:77] Creating layer inception_3a/relu_3x3
I1130 10:23:02.921963 22323 net.cpp:100] Creating Layer inception_3a/relu_3x3
I1130 10:23:02.921986 22323 net.cpp:434] inception_3a/relu_3x3 <- inception_3a/3x3
I1130 10:23:02.921998 22323 net.cpp:395] inception_3a/relu_3x3 -> inception_3a/3x3 (in-place)
I1130 10:23:02.922767 22323 net.cpp:150] Setting up inception_3a/relu_3x3
I1130 10:23:02.922785 22323 net.cpp:157] Top shape: 100 128 20 10 (2560000)
I1130 10:23:02.922791 22323 net.cpp:165] Memory required for data: 522241200
I1130 10:23:02.922797 22323 layer_factory.hpp:77] Creating layer inception_3a/5x5_reduce
I1130 10:23:02.922814 22323 net.cpp:100] Creating Layer inception_3a/5x5_reduce
I1130 10:23:02.922821 22323 net.cpp:434] inception_3a/5x5_reduce <- pool2/3x3_s2_pool2/3x3_s2_0_split_2
I1130 10:23:02.922830 22323 net.cpp:408] inception_3a/5x5_reduce -> inception_3a/5x5_reduce
I1130 10:23:02.926647 22323 net.cpp:150] Setting up inception_3a/5x5_reduce
I1130 10:23:02.926687 22323 net.cpp:157] Top shape: 100 16 20 10 (320000)
I1130 10:23:02.926694 22323 net.cpp:165] Memory required for data: 523521200
I1130 10:23:02.926707 22323 layer_factory.hpp:77] Creating layer inception_3a/relu_5x5_reduce
I1130 10:23:02.926722 22323 net.cpp:100] Creating Layer inception_3a/relu_5x5_reduce
I1130 10:23:02.926729 22323 net.cpp:434] inception_3a/relu_5x5_reduce <- inception_3a/5x5_reduce
I1130 10:23:02.926741 22323 net.cpp:395] inception_3a/relu_5x5_reduce -> inception_3a/5x5_reduce (in-place)
I1130 10:23:02.927675 22323 net.cpp:150] Setting up inception_3a/relu_5x5_reduce
I1130 10:23:02.927692 22323 net.cpp:157] Top shape: 100 16 20 10 (320000)
I1130 10:23:02.927700 22323 net.cpp:165] Memory required for data: 524801200
I1130 10:23:02.927706 22323 layer_factory.hpp:77] Creating layer inception_3a/5x5
I1130 10:23:02.927723 22323 net.cpp:100] Creating Layer inception_3a/5x5
I1130 10:23:02.927731 22323 net.cpp:434] inception_3a/5x5 <- inception_3a/5x5_reduce
I1130 10:23:02.927741 22323 net.cpp:408] inception_3a/5x5 -> inception_3a/5x5
I1130 10:23:02.929431 22323 net.cpp:150] Setting up inception_3a/5x5
I1130 10:23:02.929461 22323 net.cpp:157] Top shape: 100 32 20 10 (640000)
I1130 10:23:02.929468 22323 net.cpp:165] Memory required for data: 527361200
I1130 10:23:02.929478 22323 layer_factory.hpp:77] Creating layer inception_3a/relu_5x5
I1130 10:23:02.929503 22323 net.cpp:100] Creating Layer inception_3a/relu_5x5
I1130 10:23:02.929510 22323 net.cpp:434] inception_3a/relu_5x5 <- inception_3a/5x5
I1130 10:23:02.929527 22323 net.cpp:395] inception_3a/relu_5x5 -> inception_3a/5x5 (in-place)
I1130 10:23:02.929806 22323 net.cpp:150] Setting up inception_3a/relu_5x5
I1130 10:23:02.929836 22323 net.cpp:157] Top shape: 100 32 20 10 (640000)
I1130 10:23:02.929842 22323 net.cpp:165] Memory required for data: 529921200
I1130 10:23:02.929848 22323 layer_factory.hpp:77] Creating layer inception_3a/pool
I1130 10:23:02.929870 22323 net.cpp:100] Creating Layer inception_3a/pool
I1130 10:23:02.929877 22323 net.cpp:434] inception_3a/pool <- pool2/3x3_s2_pool2/3x3_s2_0_split_3
I1130 10:23:02.929885 22323 net.cpp:408] inception_3a/pool -> inception_3a/pool
I1130 10:23:02.929944 22323 net.cpp:150] Setting up inception_3a/pool
I1130 10:23:02.929960 22323 net.cpp:157] Top shape: 100 192 20 10 (3840000)
I1130 10:23:02.929966 22323 net.cpp:165] Memory required for data: 545281200
I1130 10:23:02.929975 22323 layer_factory.hpp:77] Creating layer inception_3a/pool_proj
I1130 10:23:02.929991 22323 net.cpp:100] Creating Layer inception_3a/pool_proj
I1130 10:23:02.929996 22323 net.cpp:434] inception_3a/pool_proj <- inception_3a/pool
I1130 10:23:02.930014 22323 net.cpp:408] inception_3a/pool_proj -> inception_3a/pool_proj
I1130 10:23:02.933121 22323 net.cpp:150] Setting up inception_3a/pool_proj
I1130 10:23:02.933181 22323 net.cpp:157] Top shape: 100 32 20 10 (640000)
I1130 10:23:02.933189 22323 net.cpp:165] Memory required for data: 547841200
I1130 10:23:02.933208 22323 layer_factory.hpp:77] Creating layer inception_3a/relu_pool_proj
I1130 10:23:02.933223 22323 net.cpp:100] Creating Layer inception_3a/relu_pool_proj
I1130 10:23:02.933231 22323 net.cpp:434] inception_3a/relu_pool_proj <- inception_3a/pool_proj
I1130 10:23:02.933260 22323 net.cpp:395] inception_3a/relu_pool_proj -> inception_3a/pool_proj (in-place)
I1130 10:23:02.934144 22323 net.cpp:150] Setting up inception_3a/relu_pool_proj
I1130 10:23:02.934165 22323 net.cpp:157] Top shape: 100 32 20 10 (640000)
I1130 10:23:02.934172 22323 net.cpp:165] Memory required for data: 550401200
I1130 10:23:02.934180 22323 layer_factory.hpp:77] Creating layer inception_3a/output
I1130 10:23:02.934198 22323 net.cpp:100] Creating Layer inception_3a/output
I1130 10:23:02.934206 22323 net.cpp:434] inception_3a/output <- inception_3a/1x1
I1130 10:23:02.934216 22323 net.cpp:434] inception_3a/output <- inception_3a/3x3
I1130 10:23:02.934223 22323 net.cpp:434] inception_3a/output <- inception_3a/5x5
I1130 10:23:02.934229 22323 net.cpp:434] inception_3a/output <- inception_3a/pool_proj
I1130 10:23:02.934237 22323 net.cpp:408] inception_3a/output -> inception_3a/output
I1130 10:23:02.934285 22323 net.cpp:150] Setting up inception_3a/output
I1130 10:23:02.934296 22323 net.cpp:157] Top shape: 100 256 20 10 (5120000)
I1130 10:23:02.934303 22323 net.cpp:165] Memory required for data: 570881200
I1130 10:23:02.934309 22323 layer_factory.hpp:77] Creating layer inception_3a/output_inception_3a/output_0_split
I1130 10:23:02.934317 22323 net.cpp:100] Creating Layer inception_3a/output_inception_3a/output_0_split
I1130 10:23:02.934326 22323 net.cpp:434] inception_3a/output_inception_3a/output_0_split <- inception_3a/output
I1130 10:23:02.934334 22323 net.cpp:408] inception_3a/output_inception_3a/output_0_split -> inception_3a/output_inception_3a/output_0_split_0
I1130 10:23:02.934342 22323 net.cpp:408] inception_3a/output_inception_3a/output_0_split -> inception_3a/output_inception_3a/output_0_split_1
I1130 10:23:02.934351 22323 net.cpp:408] inception_3a/output_inception_3a/output_0_split -> inception_3a/output_inception_3a/output_0_split_2
I1130 10:23:02.934360 22323 net.cpp:408] inception_3a/output_inception_3a/output_0_split -> inception_3a/output_inception_3a/output_0_split_3
I1130 10:23:02.934414 22323 net.cpp:150] Setting up inception_3a/output_inception_3a/output_0_split
I1130 10:23:02.934429 22323 net.cpp:157] Top shape: 100 256 20 10 (5120000)
I1130 10:23:02.934437 22323 net.cpp:157] Top shape: 100 256 20 10 (5120000)
I1130 10:23:02.934443 22323 net.cpp:157] Top shape: 100 256 20 10 (5120000)
I1130 10:23:02.934449 22323 net.cpp:157] Top shape: 100 256 20 10 (5120000)
I1130 10:23:02.934454 22323 net.cpp:165] Memory required for data: 652801200
I1130 10:23:02.934459 22323 layer_factory.hpp:77] Creating layer inception_3b/1x1
I1130 10:23:02.934473 22323 net.cpp:100] Creating Layer inception_3b/1x1
I1130 10:23:02.934480 22323 net.cpp:434] inception_3b/1x1 <- inception_3a/output_inception_3a/output_0_split_0
I1130 10:23:02.934489 22323 net.cpp:408] inception_3b/1x1 -> inception_3b/1x1
I1130 10:23:02.937690 22323 net.cpp:150] Setting up inception_3b/1x1
I1130 10:23:02.937723 22323 net.cpp:157] Top shape: 100 128 20 10 (2560000)
I1130 10:23:02.937731 22323 net.cpp:165] Memory required for data: 663041200
I1130 10:23:02.937743 22323 layer_factory.hpp:77] Creating layer inception_3b/relu_1x1
I1130 10:23:02.937757 22323 net.cpp:100] Creating Layer inception_3b/relu_1x1
I1130 10:23:02.937763 22323 net.cpp:434] inception_3b/relu_1x1 <- inception_3b/1x1
I1130 10:23:02.937772 22323 net.cpp:395] inception_3b/relu_1x1 -> inception_3b/1x1 (in-place)
I1130 10:23:02.938827 22323 net.cpp:150] Setting up inception_3b/relu_1x1
I1130 10:23:02.938846 22323 net.cpp:157] Top shape: 100 128 20 10 (2560000)
I1130 10:23:02.938853 22323 net.cpp:165] Memory required for data: 673281200
I1130 10:23:02.938860 22323 layer_factory.hpp:77] Creating layer inception_3b/3x3_reduce
I1130 10:23:02.938877 22323 net.cpp:100] Creating Layer inception_3b/3x3_reduce
I1130 10:23:02.938885 22323 net.cpp:434] inception_3b/3x3_reduce <- inception_3a/output_inception_3a/output_0_split_1
I1130 10:23:02.938899 22323 net.cpp:408] inception_3b/3x3_reduce -> inception_3b/3x3_reduce
I1130 10:23:02.942365 22323 net.cpp:150] Setting up inception_3b/3x3_reduce
I1130 10:23:02.942423 22323 net.cpp:157] Top shape: 100 128 20 10 (2560000)
I1130 10:23:02.942430 22323 net.cpp:165] Memory required for data: 683521200
I1130 10:23:02.942448 22323 layer_factory.hpp:77] Creating layer inception_3b/relu_3x3_reduce
I1130 10:23:02.942462 22323 net.cpp:100] Creating Layer inception_3b/relu_3x3_reduce
I1130 10:23:02.942471 22323 net.cpp:434] inception_3b/relu_3x3_reduce <- inception_3b/3x3_reduce
I1130 10:23:02.942479 22323 net.cpp:395] inception_3b/relu_3x3_reduce -> inception_3b/3x3_reduce (in-place)
I1130 10:23:02.943429 22323 net.cpp:150] Setting up inception_3b/relu_3x3_reduce
I1130 10:23:02.943445 22323 net.cpp:157] Top shape: 100 128 20 10 (2560000)
I1130 10:23:02.943452 22323 net.cpp:165] Memory required for data: 693761200
I1130 10:23:02.943459 22323 layer_factory.hpp:77] Creating layer inception_3b/3x3
I1130 10:23:02.943475 22323 net.cpp:100] Creating Layer inception_3b/3x3
I1130 10:23:02.943481 22323 net.cpp:434] inception_3b/3x3 <- inception_3b/3x3_reduce
I1130 10:23:02.943491 22323 net.cpp:408] inception_3b/3x3 -> inception_3b/3x3
I1130 10:23:02.947357 22323 net.cpp:150] Setting up inception_3b/3x3
I1130 10:23:02.947407 22323 net.cpp:157] Top shape: 100 192 20 10 (3840000)
I1130 10:23:02.947414 22323 net.cpp:165] Memory required for data: 709121200
I1130 10:23:02.947428 22323 layer_factory.hpp:77] Creating layer inception_3b/relu_3x3
I1130 10:23:02.947450 22323 net.cpp:100] Creating Layer inception_3b/relu_3x3
I1130 10:23:02.947459 22323 net.cpp:434] inception_3b/relu_3x3 <- inception_3b/3x3
I1130 10:23:02.947468 22323 net.cpp:395] inception_3b/relu_3x3 -> inception_3b/3x3 (in-place)
I1130 10:23:02.948279 22323 net.cpp:150] Setting up inception_3b/relu_3x3
I1130 10:23:02.948295 22323 net.cpp:157] Top shape: 100 192 20 10 (3840000)
I1130 10:23:02.948302 22323 net.cpp:165] Memory required for data: 724481200
I1130 10:23:02.948308 22323 layer_factory.hpp:77] Creating layer inception_3b/5x5_reduce
I1130 10:23:02.948324 22323 net.cpp:100] Creating Layer inception_3b/5x5_reduce
I1130 10:23:02.948331 22323 net.cpp:434] inception_3b/5x5_reduce <- inception_3a/output_inception_3a/output_0_split_2
I1130 10:23:02.948348 22323 net.cpp:408] inception_3b/5x5_reduce -> inception_3b/5x5_reduce
I1130 10:23:02.953990 22323 net.cpp:150] Setting up inception_3b/5x5_reduce
I1130 10:23:02.954032 22323 net.cpp:157] Top shape: 100 32 20 10 (640000)
I1130 10:23:02.954041 22323 net.cpp:165] Memory required for data: 727041200
I1130 10:23:02.954054 22323 layer_factory.hpp:77] Creating layer inception_3b/relu_5x5_reduce
I1130 10:23:02.954067 22323 net.cpp:100] Creating Layer inception_3b/relu_5x5_reduce
I1130 10:23:02.954076 22323 net.cpp:434] inception_3b/relu_5x5_reduce <- inception_3b/5x5_reduce
I1130 10:23:02.954083 22323 net.cpp:395] inception_3b/relu_5x5_reduce -> inception_3b/5x5_reduce (in-place)
I1130 10:23:02.954259 22323 net.cpp:150] Setting up inception_3b/relu_5x5_reduce
I1130 10:23:02.954278 22323 net.cpp:157] Top shape: 100 32 20 10 (640000)
I1130 10:23:02.954284 22323 net.cpp:165] Memory required for data: 729601200
I1130 10:23:02.954290 22323 layer_factory.hpp:77] Creating layer inception_3b/5x5
I1130 10:23:02.954310 22323 net.cpp:100] Creating Layer inception_3b/5x5
I1130 10:23:02.954318 22323 net.cpp:434] inception_3b/5x5 <- inception_3b/5x5_reduce
I1130 10:23:02.954335 22323 net.cpp:408] inception_3b/5x5 -> inception_3b/5x5
I1130 10:23:02.956272 22323 net.cpp:150] Setting up inception_3b/5x5
I1130 10:23:02.956328 22323 net.cpp:157] Top shape: 100 96 20 10 (1920000)
I1130 10:23:02.956336 22323 net.cpp:165] Memory required for data: 737281200
I1130 10:23:02.956362 22323 layer_factory.hpp:77] Creating layer inception_3b/relu_5x5
I1130 10:23:02.956380 22323 net.cpp:100] Creating Layer inception_3b/relu_5x5
I1130 10:23:02.956396 22323 net.cpp:434] inception_3b/relu_5x5 <- inception_3b/5x5
I1130 10:23:02.956405 22323 net.cpp:395] inception_3b/relu_5x5 -> inception_3b/5x5 (in-place)
I1130 10:23:02.956689 22323 net.cpp:150] Setting up inception_3b/relu_5x5
I1130 10:23:02.956710 22323 net.cpp:157] Top shape: 100 96 20 10 (1920000)
I1130 10:23:02.956737 22323 net.cpp:165] Memory required for data: 744961200
I1130 10:23:02.956743 22323 layer_factory.hpp:77] Creating layer inception_3b/pool
I1130 10:23:02.956758 22323 net.cpp:100] Creating Layer inception_3b/pool
I1130 10:23:02.956765 22323 net.cpp:434] inception_3b/pool <- inception_3a/output_inception_3a/output_0_split_3
I1130 10:23:02.956781 22323 net.cpp:408] inception_3b/pool -> inception_3b/pool
I1130 10:23:02.956840 22323 net.cpp:150] Setting up inception_3b/pool
I1130 10:23:02.956851 22323 net.cpp:157] Top shape: 100 256 20 10 (5120000)
I1130 10:23:02.956856 22323 net.cpp:165] Memory required for data: 765441200
I1130 10:23:02.956862 22323 layer_factory.hpp:77] Creating layer inception_3b/pool_proj
I1130 10:23:02.956883 22323 net.cpp:100] Creating Layer inception_3b/pool_proj
I1130 10:23:02.956890 22323 net.cpp:434] inception_3b/pool_proj <- inception_3b/pool
I1130 10:23:02.956913 22323 net.cpp:408] inception_3b/pool_proj -> inception_3b/pool_proj
I1130 10:23:02.957834 22323 net.cpp:150] Setting up inception_3b/pool_proj
I1130 10:23:02.957868 22323 net.cpp:157] Top shape: 100 64 20 10 (1280000)
I1130 10:23:02.957875 22323 net.cpp:165] Memory required for data: 770561200
I1130 10:23:02.957885 22323 layer_factory.hpp:77] Creating layer inception_3b/relu_pool_proj
I1130 10:23:02.957895 22323 net.cpp:100] Creating Layer inception_3b/relu_pool_proj
I1130 10:23:02.957901 22323 net.cpp:434] inception_3b/relu_pool_proj <- inception_3b/pool_proj
I1130 10:23:02.957916 22323 net.cpp:395] inception_3b/relu_pool_proj -> inception_3b/pool_proj (in-place)
I1130 10:23:02.958194 22323 net.cpp:150] Setting up inception_3b/relu_pool_proj
I1130 10:23:02.958222 22323 net.cpp:157] Top shape: 100 64 20 10 (1280000)
I1130 10:23:02.958228 22323 net.cpp:165] Memory required for data: 775681200
I1130 10:23:02.958235 22323 layer_factory.hpp:77] Creating layer inception_3b/output
I1130 10:23:02.958251 22323 net.cpp:100] Creating Layer inception_3b/output
I1130 10:23:02.958258 22323 net.cpp:434] inception_3b/output <- inception_3b/1x1
I1130 10:23:02.958272 22323 net.cpp:434] inception_3b/output <- inception_3b/3x3
I1130 10:23:02.958289 22323 net.cpp:434] inception_3b/output <- inception_3b/5x5
I1130 10:23:02.958295 22323 net.cpp:434] inception_3b/output <- inception_3b/pool_proj
I1130 10:23:02.958312 22323 net.cpp:408] inception_3b/output -> inception_3b/output
I1130 10:23:02.958353 22323 net.cpp:150] Setting up inception_3b/output
I1130 10:23:02.958362 22323 net.cpp:157] Top shape: 100 480 20 10 (9600000)
I1130 10:23:02.958369 22323 net.cpp:165] Memory required for data: 814081200
I1130 10:23:02.958374 22323 layer_factory.hpp:77] Creating layer pool3/3x3_s2
I1130 10:23:02.958394 22323 net.cpp:100] Creating Layer pool3/3x3_s2
I1130 10:23:02.958400 22323 net.cpp:434] pool3/3x3_s2 <- inception_3b/output
I1130 10:23:02.958407 22323 net.cpp:408] pool3/3x3_s2 -> pool3/3x3_s2
I1130 10:23:02.958448 22323 net.cpp:150] Setting up pool3/3x3_s2
I1130 10:23:02.958457 22323 net.cpp:157] Top shape: 100 480 10 5 (2400000)
I1130 10:23:02.958462 22323 net.cpp:165] Memory required for data: 823681200
I1130 10:23:02.958468 22323 layer_factory.hpp:77] Creating layer pool3/3x3_s2_pool3/3x3_s2_0_split
I1130 10:23:02.958477 22323 net.cpp:100] Creating Layer pool3/3x3_s2_pool3/3x3_s2_0_split
I1130 10:23:02.958484 22323 net.cpp:434] pool3/3x3_s2_pool3/3x3_s2_0_split <- pool3/3x3_s2
I1130 10:23:02.958492 22323 net.cpp:408] pool3/3x3_s2_pool3/3x3_s2_0_split -> pool3/3x3_s2_pool3/3x3_s2_0_split_0
I1130 10:23:02.958499 22323 net.cpp:408] pool3/3x3_s2_pool3/3x3_s2_0_split -> pool3/3x3_s2_pool3/3x3_s2_0_split_1
I1130 10:23:02.958508 22323 net.cpp:408] pool3/3x3_s2_pool3/3x3_s2_0_split -> pool3/3x3_s2_pool3/3x3_s2_0_split_2
I1130 10:23:02.958516 22323 net.cpp:408] pool3/3x3_s2_pool3/3x3_s2_0_split -> pool3/3x3_s2_pool3/3x3_s2_0_split_3
I1130 10:23:02.958570 22323 net.cpp:150] Setting up pool3/3x3_s2_pool3/3x3_s2_0_split
I1130 10:23:02.958581 22323 net.cpp:157] Top shape: 100 480 10 5 (2400000)
I1130 10:23:02.958603 22323 net.cpp:157] Top shape: 100 480 10 5 (2400000)
I1130 10:23:02.958611 22323 net.cpp:157] Top shape: 100 480 10 5 (2400000)
I1130 10:23:02.958616 22323 net.cpp:157] Top shape: 100 480 10 5 (2400000)
I1130 10:23:02.958621 22323 net.cpp:165] Memory required for data: 862081200
I1130 10:23:02.958636 22323 layer_factory.hpp:77] Creating layer inception_4a/1x1
I1130 10:23:02.958657 22323 net.cpp:100] Creating Layer inception_4a/1x1
I1130 10:23:02.958664 22323 net.cpp:434] inception_4a/1x1 <- pool3/3x3_s2_pool3/3x3_s2_0_split_0
I1130 10:23:02.958676 22323 net.cpp:408] inception_4a/1x1 -> inception_4a/1x1
I1130 10:23:02.960222 22323 net.cpp:150] Setting up inception_4a/1x1
I1130 10:23:02.960260 22323 net.cpp:157] Top shape: 100 192 10 5 (960000)
I1130 10:23:02.960268 22323 net.cpp:165] Memory required for data: 865921200
I1130 10:23:02.960284 22323 layer_factory.hpp:77] Creating layer inception_4a/relu_1x1
I1130 10:23:02.960302 22323 net.cpp:100] Creating Layer inception_4a/relu_1x1
I1130 10:23:02.960309 22323 net.cpp:434] inception_4a/relu_1x1 <- inception_4a/1x1
I1130 10:23:02.960315 22323 net.cpp:395] inception_4a/relu_1x1 -> inception_4a/1x1 (in-place)
I1130 10:23:02.960475 22323 net.cpp:150] Setting up inception_4a/relu_1x1
I1130 10:23:02.960494 22323 net.cpp:157] Top shape: 100 192 10 5 (960000)
I1130 10:23:02.960500 22323 net.cpp:165] Memory required for data: 869761200
I1130 10:23:02.960506 22323 layer_factory.hpp:77] Creating layer inception_4a/3x3_reduce
I1130 10:23:02.960526 22323 net.cpp:100] Creating Layer inception_4a/3x3_reduce
I1130 10:23:02.960533 22323 net.cpp:434] inception_4a/3x3_reduce <- pool3/3x3_s2_pool3/3x3_s2_0_split_1
I1130 10:23:02.960552 22323 net.cpp:408] inception_4a/3x3_reduce -> inception_4a/3x3_reduce
I1130 10:23:02.961745 22323 net.cpp:150] Setting up inception_4a/3x3_reduce
I1130 10:23:02.961783 22323 net.cpp:157] Top shape: 100 96 10 5 (480000)
I1130 10:23:02.961789 22323 net.cpp:165] Memory required for data: 871681200
I1130 10:23:02.961817 22323 layer_factory.hpp:77] Creating layer inception_4a/relu_3x3_reduce
I1130 10:23:02.961836 22323 net.cpp:100] Creating Layer inception_4a/relu_3x3_reduce
I1130 10:23:02.961855 22323 net.cpp:434] inception_4a/relu_3x3_reduce <- inception_4a/3x3_reduce
I1130 10:23:02.961863 22323 net.cpp:395] inception_4a/relu_3x3_reduce -> inception_4a/3x3_reduce (in-place)
I1130 10:23:02.962142 22323 net.cpp:150] Setting up inception_4a/relu_3x3_reduce
I1130 10:23:02.962173 22323 net.cpp:157] Top shape: 100 96 10 5 (480000)
I1130 10:23:02.962179 22323 net.cpp:165] Memory required for data: 873601200
I1130 10:23:02.962185 22323 layer_factory.hpp:77] Creating layer inception_4a/3x3
I1130 10:23:02.962208 22323 net.cpp:100] Creating Layer inception_4a/3x3
I1130 10:23:02.962214 22323 net.cpp:434] inception_4a/3x3 <- inception_4a/3x3_reduce
I1130 10:23:02.962224 22323 net.cpp:408] inception_4a/3x3 -> inception_4a/3x3
I1130 10:23:02.964598 22323 net.cpp:150] Setting up inception_4a/3x3
I1130 10:23:02.964655 22323 net.cpp:157] Top shape: 100 208 10 5 (1040000)
I1130 10:23:02.964664 22323 net.cpp:165] Memory required for data: 877761200
I1130 10:23:02.964685 22323 layer_factory.hpp:77] Creating layer inception_4a/relu_3x3
I1130 10:23:02.964704 22323 net.cpp:100] Creating Layer inception_4a/relu_3x3
I1130 10:23:02.964712 22323 net.cpp:434] inception_4a/relu_3x3 <- inception_4a/3x3
I1130 10:23:02.964727 22323 net.cpp:395] inception_4a/relu_3x3 -> inception_4a/3x3 (in-place)
I1130 10:23:02.965021 22323 net.cpp:150] Setting up inception_4a/relu_3x3
I1130 10:23:02.965050 22323 net.cpp:157] Top shape: 100 208 10 5 (1040000)
I1130 10:23:02.965056 22323 net.cpp:165] Memory required for data: 881921200
I1130 10:23:02.965062 22323 layer_factory.hpp:77] Creating layer inception_4a/5x5_reduce
I1130 10:23:02.965082 22323 net.cpp:100] Creating Layer inception_4a/5x5_reduce
I1130 10:23:02.965090 22323 net.cpp:434] inception_4a/5x5_reduce <- pool3/3x3_s2_pool3/3x3_s2_0_split_2
I1130 10:23:02.965098 22323 net.cpp:408] inception_4a/5x5_reduce -> inception_4a/5x5_reduce
I1130 10:23:02.966112 22323 net.cpp:150] Setting up inception_4a/5x5_reduce
I1130 10:23:02.966140 22323 net.cpp:157] Top shape: 100 16 10 5 (80000)
I1130 10:23:02.966146 22323 net.cpp:165] Memory required for data: 882241200
I1130 10:23:02.966159 22323 layer_factory.hpp:77] Creating layer inception_4a/relu_5x5_reduce
I1130 10:23:02.966187 22323 net.cpp:100] Creating Layer inception_4a/relu_5x5_reduce
I1130 10:23:02.966193 22323 net.cpp:434] inception_4a/relu_5x5_reduce <- inception_4a/5x5_reduce
I1130 10:23:02.966200 22323 net.cpp:395] inception_4a/relu_5x5_reduce -> inception_4a/5x5_reduce (in-place)
I1130 10:23:02.966351 22323 net.cpp:150] Setting up inception_4a/relu_5x5_reduce
I1130 10:23:02.966363 22323 net.cpp:157] Top shape: 100 16 10 5 (80000)
I1130 10:23:02.966369 22323 net.cpp:165] Memory required for data: 882561200
I1130 10:23:02.966374 22323 layer_factory.hpp:77] Creating layer inception_4a/5x5
I1130 10:23:02.966388 22323 net.cpp:100] Creating Layer inception_4a/5x5
I1130 10:23:02.966395 22323 net.cpp:434] inception_4a/5x5 <- inception_4a/5x5_reduce
I1130 10:23:02.966410 22323 net.cpp:408] inception_4a/5x5 -> inception_4a/5x5
I1130 10:23:02.967469 22323 net.cpp:150] Setting up inception_4a/5x5
I1130 10:23:02.967510 22323 net.cpp:157] Top shape: 100 48 10 5 (240000)
I1130 10:23:02.967517 22323 net.cpp:165] Memory required for data: 883521200
I1130 10:23:02.967528 22323 layer_factory.hpp:77] Creating layer inception_4a/relu_5x5
I1130 10:23:02.967547 22323 net.cpp:100] Creating Layer inception_4a/relu_5x5
I1130 10:23:02.967555 22323 net.cpp:434] inception_4a/relu_5x5 <- inception_4a/5x5
I1130 10:23:02.967571 22323 net.cpp:395] inception_4a/relu_5x5 -> inception_4a/5x5 (in-place)
I1130 10:23:02.967862 22323 net.cpp:150] Setting up inception_4a/relu_5x5
I1130 10:23:02.967893 22323 net.cpp:157] Top shape: 100 48 10 5 (240000)
I1130 10:23:02.967900 22323 net.cpp:165] Memory required for data: 884481200
I1130 10:23:02.967905 22323 layer_factory.hpp:77] Creating layer inception_4a/pool
I1130 10:23:02.967926 22323 net.cpp:100] Creating Layer inception_4a/pool
I1130 10:23:02.967936 22323 net.cpp:434] inception_4a/pool <- pool3/3x3_s2_pool3/3x3_s2_0_split_3
I1130 10:23:02.967954 22323 net.cpp:408] inception_4a/pool -> inception_4a/pool
I1130 10:23:02.968022 22323 net.cpp:150] Setting up inception_4a/pool
I1130 10:23:02.968041 22323 net.cpp:157] Top shape: 100 480 10 5 (2400000)
I1130 10:23:02.968047 22323 net.cpp:165] Memory required for data: 894081200
I1130 10:23:02.968053 22323 layer_factory.hpp:77] Creating layer inception_4a/pool_proj
I1130 10:23:02.968065 22323 net.cpp:100] Creating Layer inception_4a/pool_proj
I1130 10:23:02.968072 22323 net.cpp:434] inception_4a/pool_proj <- inception_4a/pool
I1130 10:23:02.968081 22323 net.cpp:408] inception_4a/pool_proj -> inception_4a/pool_proj
I1130 10:23:02.972100 22323 net.cpp:150] Setting up inception_4a/pool_proj
I1130 10:23:02.972154 22323 net.cpp:157] Top shape: 100 64 10 5 (320000)
I1130 10:23:02.972162 22323 net.cpp:165] Memory required for data: 895361200
I1130 10:23:02.972182 22323 layer_factory.hpp:77] Creating layer inception_4a/relu_pool_proj
I1130 10:23:02.972200 22323 net.cpp:100] Creating Layer inception_4a/relu_pool_proj
I1130 10:23:02.972216 22323 net.cpp:434] inception_4a/relu_pool_proj <- inception_4a/pool_proj
I1130 10:23:02.972235 22323 net.cpp:395] inception_4a/relu_pool_proj -> inception_4a/pool_proj (in-place)
I1130 10:23:02.973147 22323 net.cpp:150] Setting up inception_4a/relu_pool_proj
I1130 10:23:02.973179 22323 net.cpp:157] Top shape: 100 64 10 5 (320000)
I1130 10:23:02.973186 22323 net.cpp:165] Memory required for data: 896641200
I1130 10:23:02.973194 22323 layer_factory.hpp:77] Creating layer inception_4a/output
I1130 10:23:02.973214 22323 net.cpp:100] Creating Layer inception_4a/output
I1130 10:23:02.973222 22323 net.cpp:434] inception_4a/output <- inception_4a/1x1
I1130 10:23:02.973237 22323 net.cpp:434] inception_4a/output <- inception_4a/3x3
I1130 10:23:02.973243 22323 net.cpp:434] inception_4a/output <- inception_4a/5x5
I1130 10:23:02.973249 22323 net.cpp:434] inception_4a/output <- inception_4a/pool_proj
I1130 10:23:02.973271 22323 net.cpp:408] inception_4a/output -> inception_4a/output
I1130 10:23:02.973332 22323 net.cpp:150] Setting up inception_4a/output
I1130 10:23:02.973351 22323 net.cpp:157] Top shape: 100 512 10 5 (2560000)
I1130 10:23:02.973357 22323 net.cpp:165] Memory required for data: 906881200
I1130 10:23:02.973362 22323 layer_factory.hpp:77] Creating layer inception_4a/output_inception_4a/output_0_split
I1130 10:23:02.973379 22323 net.cpp:100] Creating Layer inception_4a/output_inception_4a/output_0_split
I1130 10:23:02.973387 22323 net.cpp:434] inception_4a/output_inception_4a/output_0_split <- inception_4a/output
I1130 10:23:02.973405 22323 net.cpp:408] inception_4a/output_inception_4a/output_0_split -> inception_4a/output_inception_4a/output_0_split_0
I1130 10:23:02.973422 22323 net.cpp:408] inception_4a/output_inception_4a/output_0_split -> inception_4a/output_inception_4a/output_0_split_1
I1130 10:23:02.973429 22323 net.cpp:408] inception_4a/output_inception_4a/output_0_split -> inception_4a/output_inception_4a/output_0_split_2
I1130 10:23:02.973448 22323 net.cpp:408] inception_4a/output_inception_4a/output_0_split -> inception_4a/output_inception_4a/output_0_split_3
I1130 10:23:02.973520 22323 net.cpp:150] Setting up inception_4a/output_inception_4a/output_0_split
I1130 10:23:02.973531 22323 net.cpp:157] Top shape: 100 512 10 5 (2560000)
I1130 10:23:02.973536 22323 net.cpp:157] Top shape: 100 512 10 5 (2560000)
I1130 10:23:02.973542 22323 net.cpp:157] Top shape: 100 512 10 5 (2560000)
I1130 10:23:02.973548 22323 net.cpp:157] Top shape: 100 512 10 5 (2560000)
I1130 10:23:02.973554 22323 net.cpp:165] Memory required for data: 947841200
I1130 10:23:02.973559 22323 layer_factory.hpp:77] Creating layer inception_4b/1x1
I1130 10:23:02.973577 22323 net.cpp:100] Creating Layer inception_4b/1x1
I1130 10:23:02.973583 22323 net.cpp:434] inception_4b/1x1 <- inception_4a/output_inception_4a/output_0_split_0
I1130 10:23:02.973600 22323 net.cpp:408] inception_4b/1x1 -> inception_4b/1x1
I1130 10:23:02.978842 22323 net.cpp:150] Setting up inception_4b/1x1
I1130 10:23:02.978886 22323 net.cpp:157] Top shape: 100 160 10 5 (800000)
I1130 10:23:02.978893 22323 net.cpp:165] Memory required for data: 951041200
I1130 10:23:02.978904 22323 layer_factory.hpp:77] Creating layer inception_4b/relu_1x1
I1130 10:23:02.978914 22323 net.cpp:100] Creating Layer inception_4b/relu_1x1
I1130 10:23:02.978922 22323 net.cpp:434] inception_4b/relu_1x1 <- inception_4b/1x1
I1130 10:23:02.978938 22323 net.cpp:395] inception_4b/relu_1x1 -> inception_4b/1x1 (in-place)
I1130 10:23:02.979852 22323 net.cpp:150] Setting up inception_4b/relu_1x1
I1130 10:23:02.979882 22323 net.cpp:157] Top shape: 100 160 10 5 (800000)
I1130 10:23:02.979887 22323 net.cpp:165] Memory required for data: 954241200
I1130 10:23:02.979892 22323 layer_factory.hpp:77] Creating layer inception_4b/3x3_reduce
I1130 10:23:02.979918 22323 net.cpp:100] Creating Layer inception_4b/3x3_reduce
I1130 10:23:02.979924 22323 net.cpp:434] inception_4b/3x3_reduce <- inception_4a/output_inception_4a/output_0_split_1
I1130 10:23:02.979941 22323 net.cpp:408] inception_4b/3x3_reduce -> inception_4b/3x3_reduce
I1130 10:23:02.983438 22323 net.cpp:150] Setting up inception_4b/3x3_reduce
I1130 10:23:02.983466 22323 net.cpp:157] Top shape: 100 112 10 5 (560000)
I1130 10:23:02.983474 22323 net.cpp:165] Memory required for data: 956481200
I1130 10:23:02.983486 22323 layer_factory.hpp:77] Creating layer inception_4b/relu_3x3_reduce
I1130 10:23:02.983506 22323 net.cpp:100] Creating Layer inception_4b/relu_3x3_reduce
I1130 10:23:02.983515 22323 net.cpp:434] inception_4b/relu_3x3_reduce <- inception_4b/3x3_reduce
I1130 10:23:02.983523 22323 net.cpp:395] inception_4b/relu_3x3_reduce -> inception_4b/3x3_reduce (in-place)
I1130 10:23:02.984503 22323 net.cpp:150] Setting up inception_4b/relu_3x3_reduce
I1130 10:23:02.984534 22323 net.cpp:157] Top shape: 100 112 10 5 (560000)
I1130 10:23:02.984540 22323 net.cpp:165] Memory required for data: 958721200
I1130 10:23:02.984565 22323 layer_factory.hpp:77] Creating layer inception_4b/3x3
I1130 10:23:02.984587 22323 net.cpp:100] Creating Layer inception_4b/3x3
I1130 10:23:02.984594 22323 net.cpp:434] inception_4b/3x3 <- inception_4b/3x3_reduce
I1130 10:23:02.984612 22323 net.cpp:408] inception_4b/3x3 -> inception_4b/3x3
I1130 10:23:02.988641 22323 net.cpp:150] Setting up inception_4b/3x3
I1130 10:23:02.988692 22323 net.cpp:157] Top shape: 100 224 10 5 (1120000)
I1130 10:23:02.988699 22323 net.cpp:165] Memory required for data: 963201200
I1130 10:23:02.988721 22323 layer_factory.hpp:77] Creating layer inception_4b/relu_3x3
I1130 10:23:02.988732 22323 net.cpp:100] Creating Layer inception_4b/relu_3x3
I1130 10:23:02.988749 22323 net.cpp:434] inception_4b/relu_3x3 <- inception_4b/3x3
I1130 10:23:02.988756 22323 net.cpp:395] inception_4b/relu_3x3 -> inception_4b/3x3 (in-place)
I1130 10:23:02.989639 22323 net.cpp:150] Setting up inception_4b/relu_3x3
I1130 10:23:02.989678 22323 net.cpp:157] Top shape: 100 224 10 5 (1120000)
I1130 10:23:02.989684 22323 net.cpp:165] Memory required for data: 967681200
I1130 10:23:02.989691 22323 layer_factory.hpp:77] Creating layer inception_4b/5x5_reduce
I1130 10:23:02.989711 22323 net.cpp:100] Creating Layer inception_4b/5x5_reduce
I1130 10:23:02.989727 22323 net.cpp:434] inception_4b/5x5_reduce <- inception_4a/output_inception_4a/output_0_split_2
I1130 10:23:02.989742 22323 net.cpp:408] inception_4b/5x5_reduce -> inception_4b/5x5_reduce
I1130 10:23:02.993549 22323 net.cpp:150] Setting up inception_4b/5x5_reduce
I1130 10:23:02.993602 22323 net.cpp:157] Top shape: 100 24 10 5 (120000)
I1130 10:23:02.993609 22323 net.cpp:165] Memory required for data: 968161200
I1130 10:23:02.993630 22323 layer_factory.hpp:77] Creating layer inception_4b/relu_5x5_reduce
I1130 10:23:02.993651 22323 net.cpp:100] Creating Layer inception_4b/relu_5x5_reduce
I1130 10:23:02.993669 22323 net.cpp:434] inception_4b/relu_5x5_reduce <- inception_4b/5x5_reduce
I1130 10:23:02.993685 22323 net.cpp:395] inception_4b/relu_5x5_reduce -> inception_4b/5x5_reduce (in-place)
I1130 10:23:02.994554 22323 net.cpp:150] Setting up inception_4b/relu_5x5_reduce
I1130 10:23:02.994596 22323 net.cpp:157] Top shape: 100 24 10 5 (120000)
I1130 10:23:02.994602 22323 net.cpp:165] Memory required for data: 968641200
I1130 10:23:02.994609 22323 layer_factory.hpp:77] Creating layer inception_4b/5x5
I1130 10:23:02.994634 22323 net.cpp:100] Creating Layer inception_4b/5x5
I1130 10:23:02.994642 22323 net.cpp:434] inception_4b/5x5 <- inception_4b/5x5_reduce
I1130 10:23:02.994665 22323 net.cpp:408] inception_4b/5x5 -> inception_4b/5x5
I1130 10:23:02.998179 22323 net.cpp:150] Setting up inception_4b/5x5
I1130 10:23:02.998245 22323 net.cpp:157] Top shape: 100 64 10 5 (320000)
I1130 10:23:02.998253 22323 net.cpp:165] Memory required for data: 969921200
I1130 10:23:02.998281 22323 layer_factory.hpp:77] Creating layer inception_4b/relu_5x5
I1130 10:23:02.998304 22323 net.cpp:100] Creating Layer inception_4b/relu_5x5
I1130 10:23:02.998322 22323 net.cpp:434] inception_4b/relu_5x5 <- inception_4b/5x5
I1130 10:23:02.998330 22323 net.cpp:395] inception_4b/relu_5x5 -> inception_4b/5x5 (in-place)
I1130 10:23:02.999109 22323 net.cpp:150] Setting up inception_4b/relu_5x5
I1130 10:23:02.999140 22323 net.cpp:157] Top shape: 100 64 10 5 (320000)
I1130 10:23:02.999146 22323 net.cpp:165] Memory required for data: 971201200
I1130 10:23:02.999155 22323 layer_factory.hpp:77] Creating layer inception_4b/pool
I1130 10:23:02.999169 22323 net.cpp:100] Creating Layer inception_4b/pool
I1130 10:23:02.999177 22323 net.cpp:434] inception_4b/pool <- inception_4a/output_inception_4a/output_0_split_3
I1130 10:23:02.999187 22323 net.cpp:408] inception_4b/pool -> inception_4b/pool
I1130 10:23:02.999255 22323 net.cpp:150] Setting up inception_4b/pool
I1130 10:23:02.999267 22323 net.cpp:157] Top shape: 100 512 10 5 (2560000)
I1130 10:23:02.999274 22323 net.cpp:165] Memory required for data: 981441200
I1130 10:23:02.999279 22323 layer_factory.hpp:77] Creating layer inception_4b/pool_proj
I1130 10:23:02.999308 22323 net.cpp:100] Creating Layer inception_4b/pool_proj
I1130 10:23:02.999316 22323 net.cpp:434] inception_4b/pool_proj <- inception_4b/pool
I1130 10:23:02.999326 22323 net.cpp:408] inception_4b/pool_proj -> inception_4b/pool_proj
I1130 10:23:03.002671 22323 net.cpp:150] Setting up inception_4b/pool_proj
I1130 10:23:03.002701 22323 net.cpp:157] Top shape: 100 64 10 5 (320000)
I1130 10:23:03.002708 22323 net.cpp:165] Memory required for data: 982721200
I1130 10:23:03.002725 22323 layer_factory.hpp:77] Creating layer inception_4b/relu_pool_proj
I1130 10:23:03.002739 22323 net.cpp:100] Creating Layer inception_4b/relu_pool_proj
I1130 10:23:03.002746 22323 net.cpp:434] inception_4b/relu_pool_proj <- inception_4b/pool_proj
I1130 10:23:03.002755 22323 net.cpp:395] inception_4b/relu_pool_proj -> inception_4b/pool_proj (in-place)
I1130 10:23:03.003746 22323 net.cpp:150] Setting up inception_4b/relu_pool_proj
I1130 10:23:03.003765 22323 net.cpp:157] Top shape: 100 64 10 5 (320000)
I1130 10:23:03.003772 22323 net.cpp:165] Memory required for data: 984001200
I1130 10:23:03.003778 22323 layer_factory.hpp:77] Creating layer inception_4b/output
I1130 10:23:03.003787 22323 net.cpp:100] Creating Layer inception_4b/output
I1130 10:23:03.003794 22323 net.cpp:434] inception_4b/output <- inception_4b/1x1
I1130 10:23:03.003803 22323 net.cpp:434] inception_4b/output <- inception_4b/3x3
I1130 10:23:03.003808 22323 net.cpp:434] inception_4b/output <- inception_4b/5x5
I1130 10:23:03.003814 22323 net.cpp:434] inception_4b/output <- inception_4b/pool_proj
I1130 10:23:03.003821 22323 net.cpp:408] inception_4b/output -> inception_4b/output
I1130 10:23:03.003857 22323 net.cpp:150] Setting up inception_4b/output
I1130 10:23:03.003868 22323 net.cpp:157] Top shape: 100 512 10 5 (2560000)
I1130 10:23:03.003875 22323 net.cpp:165] Memory required for data: 994241200
I1130 10:23:03.003881 22323 layer_factory.hpp:77] Creating layer inception_4b/output_inception_4b/output_0_split
I1130 10:23:03.003891 22323 net.cpp:100] Creating Layer inception_4b/output_inception_4b/output_0_split
I1130 10:23:03.003898 22323 net.cpp:434] inception_4b/output_inception_4b/output_0_split <- inception_4b/output
I1130 10:23:03.003916 22323 net.cpp:408] inception_4b/output_inception_4b/output_0_split -> inception_4b/output_inception_4b/output_0_split_0
I1130 10:23:03.003926 22323 net.cpp:408] inception_4b/output_inception_4b/output_0_split -> inception_4b/output_inception_4b/output_0_split_1
I1130 10:23:03.003934 22323 net.cpp:408] inception_4b/output_inception_4b/output_0_split -> inception_4b/output_inception_4b/output_0_split_2
I1130 10:23:03.003942 22323 net.cpp:408] inception_4b/output_inception_4b/output_0_split -> inception_4b/output_inception_4b/output_0_split_3
I1130 10:23:03.004004 22323 net.cpp:150] Setting up inception_4b/output_inception_4b/output_0_split
I1130 10:23:03.004016 22323 net.cpp:157] Top shape: 100 512 10 5 (2560000)
I1130 10:23:03.004024 22323 net.cpp:157] Top shape: 100 512 10 5 (2560000)
I1130 10:23:03.004029 22323 net.cpp:157] Top shape: 100 512 10 5 (2560000)
I1130 10:23:03.004034 22323 net.cpp:157] Top shape: 100 512 10 5 (2560000)
I1130 10:23:03.004040 22323 net.cpp:165] Memory required for data: 1035201200
I1130 10:23:03.004045 22323 layer_factory.hpp:77] Creating layer inception_4c/1x1
I1130 10:23:03.004060 22323 net.cpp:100] Creating Layer inception_4c/1x1
I1130 10:23:03.004066 22323 net.cpp:434] inception_4c/1x1 <- inception_4b/output_inception_4b/output_0_split_0
I1130 10:23:03.004076 22323 net.cpp:408] inception_4c/1x1 -> inception_4c/1x1
I1130 10:23:03.007335 22323 net.cpp:150] Setting up inception_4c/1x1
I1130 10:23:03.007362 22323 net.cpp:157] Top shape: 100 128 10 5 (640000)
I1130 10:23:03.007370 22323 net.cpp:165] Memory required for data: 1037761200
I1130 10:23:03.007383 22323 layer_factory.hpp:77] Creating layer inception_4c/relu_1x1
I1130 10:23:03.007396 22323 net.cpp:100] Creating Layer inception_4c/relu_1x1
I1130 10:23:03.007403 22323 net.cpp:434] inception_4c/relu_1x1 <- inception_4c/1x1
I1130 10:23:03.007412 22323 net.cpp:395] inception_4c/relu_1x1 -> inception_4c/1x1 (in-place)
I1130 10:23:03.008383 22323 net.cpp:150] Setting up inception_4c/relu_1x1
I1130 10:23:03.008395 22323 net.cpp:157] Top shape: 100 128 10 5 (640000)
I1130 10:23:03.008401 22323 net.cpp:165] Memory required for data: 1040321200
I1130 10:23:03.008407 22323 layer_factory.hpp:77] Creating layer inception_4c/3x3_reduce
I1130 10:23:03.008421 22323 net.cpp:100] Creating Layer inception_4c/3x3_reduce
I1130 10:23:03.008429 22323 net.cpp:434] inception_4c/3x3_reduce <- inception_4b/output_inception_4b/output_0_split_1
I1130 10:23:03.008437 22323 net.cpp:408] inception_4c/3x3_reduce -> inception_4c/3x3_reduce
I1130 10:23:03.011968 22323 net.cpp:150] Setting up inception_4c/3x3_reduce
I1130 10:23:03.011986 22323 net.cpp:157] Top shape: 100 128 10 5 (640000)
I1130 10:23:03.011993 22323 net.cpp:165] Memory required for data: 1042881200
I1130 10:23:03.012003 22323 layer_factory.hpp:77] Creating layer inception_4c/relu_3x3_reduce
I1130 10:23:03.012011 22323 net.cpp:100] Creating Layer inception_4c/relu_3x3_reduce
I1130 10:23:03.012019 22323 net.cpp:434] inception_4c/relu_3x3_reduce <- inception_4c/3x3_reduce
I1130 10:23:03.012027 22323 net.cpp:395] inception_4c/relu_3x3_reduce -> inception_4c/3x3_reduce (in-place)
I1130 10:23:03.013021 22323 net.cpp:150] Setting up inception_4c/relu_3x3_reduce
I1130 10:23:03.013039 22323 net.cpp:157] Top shape: 100 128 10 5 (640000)
I1130 10:23:03.013046 22323 net.cpp:165] Memory required for data: 1045441200
I1130 10:23:03.013056 22323 layer_factory.hpp:77] Creating layer inception_4c/3x3
I1130 10:23:03.013069 22323 net.cpp:100] Creating Layer inception_4c/3x3
I1130 10:23:03.013077 22323 net.cpp:434] inception_4c/3x3 <- inception_4c/3x3_reduce
I1130 10:23:03.013087 22323 net.cpp:408] inception_4c/3x3 -> inception_4c/3x3
I1130 10:23:03.017760 22323 net.cpp:150] Setting up inception_4c/3x3
I1130 10:23:03.017778 22323 net.cpp:157] Top shape: 100 256 10 5 (1280000)
I1130 10:23:03.017786 22323 net.cpp:165] Memory required for data: 1050561200
I1130 10:23:03.017796 22323 layer_factory.hpp:77] Creating layer inception_4c/relu_3x3
I1130 10:23:03.017809 22323 net.cpp:100] Creating Layer inception_4c/relu_3x3
I1130 10:23:03.017817 22323 net.cpp:434] inception_4c/relu_3x3 <- inception_4c/3x3
I1130 10:23:03.017827 22323 net.cpp:395] inception_4c/relu_3x3 -> inception_4c/3x3 (in-place)
I1130 10:23:03.018700 22323 net.cpp:150] Setting up inception_4c/relu_3x3
I1130 10:23:03.018717 22323 net.cpp:157] Top shape: 100 256 10 5 (1280000)
I1130 10:23:03.018723 22323 net.cpp:165] Memory required for data: 1055681200
I1130 10:23:03.018728 22323 layer_factory.hpp:77] Creating layer inception_4c/5x5_reduce
I1130 10:23:03.018743 22323 net.cpp:100] Creating Layer inception_4c/5x5_reduce
I1130 10:23:03.018750 22323 net.cpp:434] inception_4c/5x5_reduce <- inception_4b/output_inception_4b/output_0_split_2
I1130 10:23:03.018759 22323 net.cpp:408] inception_4c/5x5_reduce -> inception_4c/5x5_reduce
I1130 10:23:03.022536 22323 net.cpp:150] Setting up inception_4c/5x5_reduce
I1130 10:23:03.022555 22323 net.cpp:157] Top shape: 100 24 10 5 (120000)
I1130 10:23:03.022562 22323 net.cpp:165] Memory required for data: 1056161200
I1130 10:23:03.022572 22323 layer_factory.hpp:77] Creating layer inception_4c/relu_5x5_reduce
I1130 10:23:03.022581 22323 net.cpp:100] Creating Layer inception_4c/relu_5x5_reduce
I1130 10:23:03.022589 22323 net.cpp:434] inception_4c/relu_5x5_reduce <- inception_4c/5x5_reduce
I1130 10:23:03.022596 22323 net.cpp:395] inception_4c/relu_5x5_reduce -> inception_4c/5x5_reduce (in-place)
I1130 10:23:03.023562 22323 net.cpp:150] Setting up inception_4c/relu_5x5_reduce
I1130 10:23:03.023576 22323 net.cpp:157] Top shape: 100 24 10 5 (120000)
I1130 10:23:03.023582 22323 net.cpp:165] Memory required for data: 1056641200
I1130 10:23:03.023591 22323 layer_factory.hpp:77] Creating layer inception_4c/5x5
I1130 10:23:03.023604 22323 net.cpp:100] Creating Layer inception_4c/5x5
I1130 10:23:03.023612 22323 net.cpp:434] inception_4c/5x5 <- inception_4c/5x5_reduce
I1130 10:23:03.023628 22323 net.cpp:408] inception_4c/5x5 -> inception_4c/5x5
I1130 10:23:03.025276 22323 net.cpp:150] Setting up inception_4c/5x5
I1130 10:23:03.025293 22323 net.cpp:157] Top shape: 100 64 10 5 (320000)
I1130 10:23:03.025301 22323 net.cpp:165] Memory required for data: 1057921200
I1130 10:23:03.025321 22323 layer_factory.hpp:77] Creating layer inception_4c/relu_5x5
I1130 10:23:03.025341 22323 net.cpp:100] Creating Layer inception_4c/relu_5x5
I1130 10:23:03.025349 22323 net.cpp:434] inception_4c/relu_5x5 <- inception_4c/5x5
I1130 10:23:03.025365 22323 net.cpp:395] inception_4c/relu_5x5 -> inception_4c/5x5 (in-place)
I1130 10:23:03.025656 22323 net.cpp:150] Setting up inception_4c/relu_5x5
I1130 10:23:03.025686 22323 net.cpp:157] Top shape: 100 64 10 5 (320000)
I1130 10:23:03.025692 22323 net.cpp:165] Memory required for data: 1059201200
I1130 10:23:03.025698 22323 layer_factory.hpp:77] Creating layer inception_4c/pool
I1130 10:23:03.025717 22323 net.cpp:100] Creating Layer inception_4c/pool
I1130 10:23:03.025723 22323 net.cpp:434] inception_4c/pool <- inception_4b/output_inception_4b/output_0_split_3
I1130 10:23:03.025739 22323 net.cpp:408] inception_4c/pool -> inception_4c/pool
I1130 10:23:03.025789 22323 net.cpp:150] Setting up inception_4c/pool
I1130 10:23:03.025799 22323 net.cpp:157] Top shape: 100 512 10 5 (2560000)
I1130 10:23:03.025804 22323 net.cpp:165] Memory required for data: 1069441200
I1130 10:23:03.025810 22323 layer_factory.hpp:77] Creating layer inception_4c/pool_proj
I1130 10:23:03.025820 22323 net.cpp:100] Creating Layer inception_4c/pool_proj
I1130 10:23:03.025827 22323 net.cpp:434] inception_4c/pool_proj <- inception_4c/pool
I1130 10:23:03.025836 22323 net.cpp:408] inception_4c/pool_proj -> inception_4c/pool_proj
I1130 10:23:03.028993 22323 net.cpp:150] Setting up inception_4c/pool_proj
I1130 10:23:03.029047 22323 net.cpp:157] Top shape: 100 64 10 5 (320000)
I1130 10:23:03.029054 22323 net.cpp:165] Memory required for data: 1070721200
I1130 10:23:03.029089 22323 layer_factory.hpp:77] Creating layer inception_4c/relu_pool_proj
I1130 10:23:03.029111 22323 net.cpp:100] Creating Layer inception_4c/relu_pool_proj
I1130 10:23:03.029127 22323 net.cpp:434] inception_4c/relu_pool_proj <- inception_4c/pool_proj
I1130 10:23:03.029136 22323 net.cpp:395] inception_4c/relu_pool_proj -> inception_4c/pool_proj (in-place)
I1130 10:23:03.030035 22323 net.cpp:150] Setting up inception_4c/relu_pool_proj
I1130 10:23:03.030067 22323 net.cpp:157] Top shape: 100 64 10 5 (320000)
I1130 10:23:03.030074 22323 net.cpp:165] Memory required for data: 1072001200
I1130 10:23:03.030081 22323 layer_factory.hpp:77] Creating layer inception_4c/output
I1130 10:23:03.030092 22323 net.cpp:100] Creating Layer inception_4c/output
I1130 10:23:03.030100 22323 net.cpp:434] inception_4c/output <- inception_4c/1x1
I1130 10:23:03.030109 22323 net.cpp:434] inception_4c/output <- inception_4c/3x3
I1130 10:23:03.030115 22323 net.cpp:434] inception_4c/output <- inception_4c/5x5
I1130 10:23:03.030122 22323 net.cpp:434] inception_4c/output <- inception_4c/pool_proj
I1130 10:23:03.030129 22323 net.cpp:408] inception_4c/output -> inception_4c/output
I1130 10:23:03.030184 22323 net.cpp:150] Setting up inception_4c/output
I1130 10:23:03.030200 22323 net.cpp:157] Top shape: 100 512 10 5 (2560000)
I1130 10:23:03.030206 22323 net.cpp:165] Memory required for data: 1082241200
I1130 10:23:03.030211 22323 layer_factory.hpp:77] Creating layer inception_4c/output_inception_4c/output_0_split
I1130 10:23:03.030220 22323 net.cpp:100] Creating Layer inception_4c/output_inception_4c/output_0_split
I1130 10:23:03.030228 22323 net.cpp:434] inception_4c/output_inception_4c/output_0_split <- inception_4c/output
I1130 10:23:03.030236 22323 net.cpp:408] inception_4c/output_inception_4c/output_0_split -> inception_4c/output_inception_4c/output_0_split_0
I1130 10:23:03.030246 22323 net.cpp:408] inception_4c/output_inception_4c/output_0_split -> inception_4c/output_inception_4c/output_0_split_1
I1130 10:23:03.030254 22323 net.cpp:408] inception_4c/output_inception_4c/output_0_split -> inception_4c/output_inception_4c/output_0_split_2
I1130 10:23:03.030275 22323 net.cpp:408] inception_4c/output_inception_4c/output_0_split -> inception_4c/output_inception_4c/output_0_split_3
I1130 10:23:03.030344 22323 net.cpp:150] Setting up inception_4c/output_inception_4c/output_0_split
I1130 10:23:03.030354 22323 net.cpp:157] Top shape: 100 512 10 5 (2560000)
I1130 10:23:03.030361 22323 net.cpp:157] Top shape: 100 512 10 5 (2560000)
I1130 10:23:03.030367 22323 net.cpp:157] Top shape: 100 512 10 5 (2560000)
I1130 10:23:03.030374 22323 net.cpp:157] Top shape: 100 512 10 5 (2560000)
I1130 10:23:03.030380 22323 net.cpp:165] Memory required for data: 1123201200
I1130 10:23:03.030388 22323 layer_factory.hpp:77] Creating layer inception_4d/1x1
I1130 10:23:03.030403 22323 net.cpp:100] Creating Layer inception_4d/1x1
I1130 10:23:03.030410 22323 net.cpp:434] inception_4d/1x1 <- inception_4c/output_inception_4c/output_0_split_0
I1130 10:23:03.030419 22323 net.cpp:408] inception_4d/1x1 -> inception_4d/1x1
I1130 10:23:03.033637 22323 net.cpp:150] Setting up inception_4d/1x1
I1130 10:23:03.033685 22323 net.cpp:157] Top shape: 100 112 10 5 (560000)
I1130 10:23:03.033694 22323 net.cpp:165] Memory required for data: 1125441200
I1130 10:23:03.033711 22323 layer_factory.hpp:77] Creating layer inception_4d/relu_1x1
I1130 10:23:03.033730 22323 net.cpp:100] Creating Layer inception_4d/relu_1x1
I1130 10:23:03.033740 22323 net.cpp:434] inception_4d/relu_1x1 <- inception_4d/1x1
I1130 10:23:03.033748 22323 net.cpp:395] inception_4d/relu_1x1 -> inception_4d/1x1 (in-place)
I1130 10:23:03.034615 22323 net.cpp:150] Setting up inception_4d/relu_1x1
I1130 10:23:03.034632 22323 net.cpp:157] Top shape: 100 112 10 5 (560000)
I1130 10:23:03.034639 22323 net.cpp:165] Memory required for data: 1127681200
I1130 10:23:03.034646 22323 layer_factory.hpp:77] Creating layer inception_4d/3x3_reduce
I1130 10:23:03.034663 22323 net.cpp:100] Creating Layer inception_4d/3x3_reduce
I1130 10:23:03.034672 22323 net.cpp:434] inception_4d/3x3_reduce <- inception_4c/output_inception_4c/output_0_split_1
I1130 10:23:03.034682 22323 net.cpp:408] inception_4d/3x3_reduce -> inception_4d/3x3_reduce
I1130 10:23:03.038275 22323 net.cpp:150] Setting up inception_4d/3x3_reduce
I1130 10:23:03.038311 22323 net.cpp:157] Top shape: 100 144 10 5 (720000)
I1130 10:23:03.038318 22323 net.cpp:165] Memory required for data: 1130561200
I1130 10:23:03.038332 22323 layer_factory.hpp:77] Creating layer inception_4d/relu_3x3_reduce
I1130 10:23:03.038346 22323 net.cpp:100] Creating Layer inception_4d/relu_3x3_reduce
I1130 10:23:03.038353 22323 net.cpp:434] inception_4d/relu_3x3_reduce <- inception_4d/3x3_reduce
I1130 10:23:03.038362 22323 net.cpp:395] inception_4d/relu_3x3_reduce -> inception_4d/3x3_reduce (in-place)
I1130 10:23:03.039355 22323 net.cpp:150] Setting up inception_4d/relu_3x3_reduce
I1130 10:23:03.039371 22323 net.cpp:157] Top shape: 100 144 10 5 (720000)
I1130 10:23:03.039377 22323 net.cpp:165] Memory required for data: 1133441200
I1130 10:23:03.039386 22323 layer_factory.hpp:77] Creating layer inception_4d/3x3
I1130 10:23:03.039402 22323 net.cpp:100] Creating Layer inception_4d/3x3
I1130 10:23:03.039409 22323 net.cpp:434] inception_4d/3x3 <- inception_4d/3x3_reduce
I1130 10:23:03.039419 22323 net.cpp:408] inception_4d/3x3 -> inception_4d/3x3
I1130 10:23:03.044122 22323 net.cpp:150] Setting up inception_4d/3x3
I1130 10:23:03.044162 22323 net.cpp:157] Top shape: 100 288 10 5 (1440000)
I1130 10:23:03.044170 22323 net.cpp:165] Memory required for data: 1139201200
I1130 10:23:03.044185 22323 layer_factory.hpp:77] Creating layer inception_4d/relu_3x3
I1130 10:23:03.044198 22323 net.cpp:100] Creating Layer inception_4d/relu_3x3
I1130 10:23:03.044208 22323 net.cpp:434] inception_4d/relu_3x3 <- inception_4d/3x3
I1130 10:23:03.044216 22323 net.cpp:395] inception_4d/relu_3x3 -> inception_4d/3x3 (in-place)
I1130 10:23:03.045173 22323 net.cpp:150] Setting up inception_4d/relu_3x3
I1130 10:23:03.045189 22323 net.cpp:157] Top shape: 100 288 10 5 (1440000)
I1130 10:23:03.045195 22323 net.cpp:165] Memory required for data: 1144961200
I1130 10:23:03.045214 22323 layer_factory.hpp:77] Creating layer inception_4d/5x5_reduce
I1130 10:23:03.045233 22323 net.cpp:100] Creating Layer inception_4d/5x5_reduce
I1130 10:23:03.045243 22323 net.cpp:434] inception_4d/5x5_reduce <- inception_4c/output_inception_4c/output_0_split_2
I1130 10:23:03.045253 22323 net.cpp:408] inception_4d/5x5_reduce -> inception_4d/5x5_reduce
I1130 10:23:03.050945 22323 net.cpp:150] Setting up inception_4d/5x5_reduce
I1130 10:23:03.050981 22323 net.cpp:157] Top shape: 100 32 10 5 (160000)
I1130 10:23:03.050988 22323 net.cpp:165] Memory required for data: 1145601200
I1130 10:23:03.051002 22323 layer_factory.hpp:77] Creating layer inception_4d/relu_5x5_reduce
I1130 10:23:03.051013 22323 net.cpp:100] Creating Layer inception_4d/relu_5x5_reduce
I1130 10:23:03.051021 22323 net.cpp:434] inception_4d/relu_5x5_reduce <- inception_4d/5x5_reduce
I1130 10:23:03.051029 22323 net.cpp:395] inception_4d/relu_5x5_reduce -> inception_4d/5x5_reduce (in-place)
I1130 10:23:03.051220 22323 net.cpp:150] Setting up inception_4d/relu_5x5_reduce
I1130 10:23:03.051240 22323 net.cpp:157] Top shape: 100 32 10 5 (160000)
I1130 10:23:03.051246 22323 net.cpp:165] Memory required for data: 1146241200
I1130 10:23:03.051255 22323 layer_factory.hpp:77] Creating layer inception_4d/5x5
I1130 10:23:03.051271 22323 net.cpp:100] Creating Layer inception_4d/5x5
I1130 10:23:03.051278 22323 net.cpp:434] inception_4d/5x5 <- inception_4d/5x5_reduce
I1130 10:23:03.051296 22323 net.cpp:408] inception_4d/5x5 -> inception_4d/5x5
I1130 10:23:03.052649 22323 net.cpp:150] Setting up inception_4d/5x5
I1130 10:23:03.052693 22323 net.cpp:157] Top shape: 100 64 10 5 (320000)
I1130 10:23:03.052700 22323 net.cpp:165] Memory required for data: 1147521200
I1130 10:23:03.052719 22323 layer_factory.hpp:77] Creating layer inception_4d/relu_5x5
I1130 10:23:03.052739 22323 net.cpp:100] Creating Layer inception_4d/relu_5x5
I1130 10:23:03.052747 22323 net.cpp:434] inception_4d/relu_5x5 <- inception_4d/5x5
I1130 10:23:03.052762 22323 net.cpp:395] inception_4d/relu_5x5 -> inception_4d/5x5 (in-place)
I1130 10:23:03.053074 22323 net.cpp:150] Setting up inception_4d/relu_5x5
I1130 10:23:03.053107 22323 net.cpp:157] Top shape: 100 64 10 5 (320000)
I1130 10:23:03.053113 22323 net.cpp:165] Memory required for data: 1148801200
I1130 10:23:03.053119 22323 layer_factory.hpp:77] Creating layer inception_4d/pool
I1130 10:23:03.053138 22323 net.cpp:100] Creating Layer inception_4d/pool
I1130 10:23:03.053145 22323 net.cpp:434] inception_4d/pool <- inception_4c/output_inception_4c/output_0_split_3
I1130 10:23:03.053164 22323 net.cpp:408] inception_4d/pool -> inception_4d/pool
I1130 10:23:03.053218 22323 net.cpp:150] Setting up inception_4d/pool
I1130 10:23:03.053237 22323 net.cpp:157] Top shape: 100 512 10 5 (2560000)
I1130 10:23:03.053243 22323 net.cpp:165] Memory required for data: 1159041200
I1130 10:23:03.053251 22323 layer_factory.hpp:77] Creating layer inception_4d/pool_proj
I1130 10:23:03.053267 22323 net.cpp:100] Creating Layer inception_4d/pool_proj
I1130 10:23:03.053273 22323 net.cpp:434] inception_4d/pool_proj <- inception_4d/pool
I1130 10:23:03.053289 22323 net.cpp:408] inception_4d/pool_proj -> inception_4d/pool_proj
I1130 10:23:03.054342 22323 net.cpp:150] Setting up inception_4d/pool_proj
I1130 10:23:03.054363 22323 net.cpp:157] Top shape: 100 64 10 5 (320000)
I1130 10:23:03.054369 22323 net.cpp:165] Memory required for data: 1160321200
I1130 10:23:03.054379 22323 layer_factory.hpp:77] Creating layer inception_4d/relu_pool_proj
I1130 10:23:03.054399 22323 net.cpp:100] Creating Layer inception_4d/relu_pool_proj
I1130 10:23:03.054405 22323 net.cpp:434] inception_4d/relu_pool_proj <- inception_4d/pool_proj
I1130 10:23:03.054421 22323 net.cpp:395] inception_4d/relu_pool_proj -> inception_4d/pool_proj (in-place)
I1130 10:23:03.054699 22323 net.cpp:150] Setting up inception_4d/relu_pool_proj
I1130 10:23:03.054729 22323 net.cpp:157] Top shape: 100 64 10 5 (320000)
I1130 10:23:03.054736 22323 net.cpp:165] Memory required for data: 1161601200
I1130 10:23:03.054754 22323 layer_factory.hpp:77] Creating layer inception_4d/output
I1130 10:23:03.054770 22323 net.cpp:100] Creating Layer inception_4d/output
I1130 10:23:03.054778 22323 net.cpp:434] inception_4d/output <- inception_4d/1x1
I1130 10:23:03.054793 22323 net.cpp:434] inception_4d/output <- inception_4d/3x3
I1130 10:23:03.054800 22323 net.cpp:434] inception_4d/output <- inception_4d/5x5
I1130 10:23:03.054806 22323 net.cpp:434] inception_4d/output <- inception_4d/pool_proj
I1130 10:23:03.054813 22323 net.cpp:408] inception_4d/output -> inception_4d/output
I1130 10:23:03.054854 22323 net.cpp:150] Setting up inception_4d/output
I1130 10:23:03.054863 22323 net.cpp:157] Top shape: 100 528 10 5 (2640000)
I1130 10:23:03.054869 22323 net.cpp:165] Memory required for data: 1172161200
I1130 10:23:03.054875 22323 layer_factory.hpp:77] Creating layer inception_4d/output_inception_4d/output_0_split
I1130 10:23:03.054885 22323 net.cpp:100] Creating Layer inception_4d/output_inception_4d/output_0_split
I1130 10:23:03.054891 22323 net.cpp:434] inception_4d/output_inception_4d/output_0_split <- inception_4d/output
I1130 10:23:03.054899 22323 net.cpp:408] inception_4d/output_inception_4d/output_0_split -> inception_4d/output_inception_4d/output_0_split_0
I1130 10:23:03.054915 22323 net.cpp:408] inception_4d/output_inception_4d/output_0_split -> inception_4d/output_inception_4d/output_0_split_1
I1130 10:23:03.054931 22323 net.cpp:408] inception_4d/output_inception_4d/output_0_split -> inception_4d/output_inception_4d/output_0_split_2
I1130 10:23:03.054949 22323 net.cpp:408] inception_4d/output_inception_4d/output_0_split -> inception_4d/output_inception_4d/output_0_split_3
I1130 10:23:03.055016 22323 net.cpp:150] Setting up inception_4d/output_inception_4d/output_0_split
I1130 10:23:03.055027 22323 net.cpp:157] Top shape: 100 528 10 5 (2640000)
I1130 10:23:03.055032 22323 net.cpp:157] Top shape: 100 528 10 5 (2640000)
I1130 10:23:03.055038 22323 net.cpp:157] Top shape: 100 528 10 5 (2640000)
I1130 10:23:03.055044 22323 net.cpp:157] Top shape: 100 528 10 5 (2640000)
I1130 10:23:03.055049 22323 net.cpp:165] Memory required for data: 1214401200
I1130 10:23:03.055069 22323 layer_factory.hpp:77] Creating layer inception_4e/1x1
I1130 10:23:03.055085 22323 net.cpp:100] Creating Layer inception_4e/1x1
I1130 10:23:03.055093 22323 net.cpp:434] inception_4e/1x1 <- inception_4d/output_inception_4d/output_0_split_0
I1130 10:23:03.055102 22323 net.cpp:408] inception_4e/1x1 -> inception_4e/1x1
I1130 10:23:03.057390 22323 net.cpp:150] Setting up inception_4e/1x1
I1130 10:23:03.057426 22323 net.cpp:157] Top shape: 100 256 10 5 (1280000)
I1130 10:23:03.057433 22323 net.cpp:165] Memory required for data: 1219521200
I1130 10:23:03.057451 22323 layer_factory.hpp:77] Creating layer inception_4e/relu_1x1
I1130 10:23:03.057472 22323 net.cpp:100] Creating Layer inception_4e/relu_1x1
I1130 10:23:03.057479 22323 net.cpp:434] inception_4e/relu_1x1 <- inception_4e/1x1
I1130 10:23:03.057495 22323 net.cpp:395] inception_4e/relu_1x1 -> inception_4e/1x1 (in-place)
I1130 10:23:03.057656 22323 net.cpp:150] Setting up inception_4e/relu_1x1
I1130 10:23:03.057675 22323 net.cpp:157] Top shape: 100 256 10 5 (1280000)
I1130 10:23:03.057682 22323 net.cpp:165] Memory required for data: 1224641200
I1130 10:23:03.057687 22323 layer_factory.hpp:77] Creating layer inception_4e/3x3_reduce
I1130 10:23:03.057708 22323 net.cpp:100] Creating Layer inception_4e/3x3_reduce
I1130 10:23:03.057715 22323 net.cpp:434] inception_4e/3x3_reduce <- inception_4d/output_inception_4d/output_0_split_1
I1130 10:23:03.057724 22323 net.cpp:408] inception_4e/3x3_reduce -> inception_4e/3x3_reduce
I1130 10:23:03.059170 22323 net.cpp:150] Setting up inception_4e/3x3_reduce
I1130 10:23:03.059212 22323 net.cpp:157] Top shape: 100 160 10 5 (800000)
I1130 10:23:03.059219 22323 net.cpp:165] Memory required for data: 1227841200
I1130 10:23:03.059237 22323 layer_factory.hpp:77] Creating layer inception_4e/relu_3x3_reduce
I1130 10:23:03.059257 22323 net.cpp:100] Creating Layer inception_4e/relu_3x3_reduce
I1130 10:23:03.059286 22323 net.cpp:434] inception_4e/relu_3x3_reduce <- inception_4e/3x3_reduce
I1130 10:23:03.059294 22323 net.cpp:395] inception_4e/relu_3x3_reduce -> inception_4e/3x3_reduce (in-place)
I1130 10:23:03.059605 22323 net.cpp:150] Setting up inception_4e/relu_3x3_reduce
I1130 10:23:03.059638 22323 net.cpp:157] Top shape: 100 160 10 5 (800000)
I1130 10:23:03.059645 22323 net.cpp:165] Memory required for data: 1231041200
I1130 10:23:03.059654 22323 layer_factory.hpp:77] Creating layer inception_4e/3x3
I1130 10:23:03.059672 22323 net.cpp:100] Creating Layer inception_4e/3x3
I1130 10:23:03.059679 22323 net.cpp:434] inception_4e/3x3 <- inception_4e/3x3_reduce
I1130 10:23:03.059698 22323 net.cpp:408] inception_4e/3x3 -> inception_4e/3x3
I1130 10:23:03.067452 22323 net.cpp:150] Setting up inception_4e/3x3
I1130 10:23:03.067509 22323 net.cpp:157] Top shape: 100 320 10 5 (1600000)
I1130 10:23:03.067517 22323 net.cpp:165] Memory required for data: 1237441200
I1130 10:23:03.067539 22323 layer_factory.hpp:77] Creating layer inception_4e/relu_3x3
I1130 10:23:03.067551 22323 net.cpp:100] Creating Layer inception_4e/relu_3x3
I1130 10:23:03.067560 22323 net.cpp:434] inception_4e/relu_3x3 <- inception_4e/3x3
I1130 10:23:03.067569 22323 net.cpp:395] inception_4e/relu_3x3 -> inception_4e/3x3 (in-place)
I1130 10:23:03.068219 22323 net.cpp:150] Setting up inception_4e/relu_3x3
I1130 10:23:03.068248 22323 net.cpp:157] Top shape: 100 320 10 5 (1600000)
I1130 10:23:03.068255 22323 net.cpp:165] Memory required for data: 1243841200
I1130 10:23:03.068262 22323 layer_factory.hpp:77] Creating layer inception_4e/5x5_reduce
I1130 10:23:03.068279 22323 net.cpp:100] Creating Layer inception_4e/5x5_reduce
I1130 10:23:03.068295 22323 net.cpp:434] inception_4e/5x5_reduce <- inception_4d/output_inception_4d/output_0_split_2
I1130 10:23:03.068305 22323 net.cpp:408] inception_4e/5x5_reduce -> inception_4e/5x5_reduce
I1130 10:23:03.071862 22323 net.cpp:150] Setting up inception_4e/5x5_reduce
I1130 10:23:03.071912 22323 net.cpp:157] Top shape: 100 32 10 5 (160000)
I1130 10:23:03.071918 22323 net.cpp:165] Memory required for data: 1244481200
I1130 10:23:03.071951 22323 layer_factory.hpp:77] Creating layer inception_4e/relu_5x5_reduce
I1130 10:23:03.071974 22323 net.cpp:100] Creating Layer inception_4e/relu_5x5_reduce
I1130 10:23:03.071981 22323 net.cpp:434] inception_4e/relu_5x5_reduce <- inception_4e/5x5_reduce
I1130 10:23:03.071988 22323 net.cpp:395] inception_4e/relu_5x5_reduce -> inception_4e/5x5_reduce (in-place)
I1130 10:23:03.072872 22323 net.cpp:150] Setting up inception_4e/relu_5x5_reduce
I1130 10:23:03.072895 22323 net.cpp:157] Top shape: 100 32 10 5 (160000)
I1130 10:23:03.072901 22323 net.cpp:165] Memory required for data: 1245121200
I1130 10:23:03.072906 22323 layer_factory.hpp:77] Creating layer inception_4e/5x5
I1130 10:23:03.072927 22323 net.cpp:100] Creating Layer inception_4e/5x5
I1130 10:23:03.072934 22323 net.cpp:434] inception_4e/5x5 <- inception_4e/5x5_reduce
I1130 10:23:03.072952 22323 net.cpp:408] inception_4e/5x5 -> inception_4e/5x5
I1130 10:23:03.076439 22323 net.cpp:150] Setting up inception_4e/5x5
I1130 10:23:03.076490 22323 net.cpp:157] Top shape: 100 128 10 5 (640000)
I1130 10:23:03.076498 22323 net.cpp:165] Memory required for data: 1247681200
I1130 10:23:03.076517 22323 layer_factory.hpp:77] Creating layer inception_4e/relu_5x5
I1130 10:23:03.076539 22323 net.cpp:100] Creating Layer inception_4e/relu_5x5
I1130 10:23:03.076557 22323 net.cpp:434] inception_4e/relu_5x5 <- inception_4e/5x5
I1130 10:23:03.076565 22323 net.cpp:395] inception_4e/relu_5x5 -> inception_4e/5x5 (in-place)
I1130 10:23:03.077481 22323 net.cpp:150] Setting up inception_4e/relu_5x5
I1130 10:23:03.077512 22323 net.cpp:157] Top shape: 100 128 10 5 (640000)
I1130 10:23:03.077519 22323 net.cpp:165] Memory required for data: 1250241200
I1130 10:23:03.077525 22323 layer_factory.hpp:77] Creating layer inception_4e/pool
I1130 10:23:03.077543 22323 net.cpp:100] Creating Layer inception_4e/pool
I1130 10:23:03.077550 22323 net.cpp:434] inception_4e/pool <- inception_4d/output_inception_4d/output_0_split_3
I1130 10:23:03.077579 22323 net.cpp:408] inception_4e/pool -> inception_4e/pool
I1130 10:23:03.077639 22323 net.cpp:150] Setting up inception_4e/pool
I1130 10:23:03.077656 22323 net.cpp:157] Top shape: 100 528 10 5 (2640000)
I1130 10:23:03.077663 22323 net.cpp:165] Memory required for data: 1260801200
I1130 10:23:03.077672 22323 layer_factory.hpp:77] Creating layer inception_4e/pool_proj
I1130 10:23:03.077688 22323 net.cpp:100] Creating Layer inception_4e/pool_proj
I1130 10:23:03.077695 22323 net.cpp:434] inception_4e/pool_proj <- inception_4e/pool
I1130 10:23:03.077705 22323 net.cpp:408] inception_4e/pool_proj -> inception_4e/pool_proj
I1130 10:23:03.081111 22323 net.cpp:150] Setting up inception_4e/pool_proj
I1130 10:23:03.081163 22323 net.cpp:157] Top shape: 100 128 10 5 (640000)
I1130 10:23:03.081178 22323 net.cpp:165] Memory required for data: 1263361200
I1130 10:23:03.081202 22323 layer_factory.hpp:77] Creating layer inception_4e/relu_pool_proj
I1130 10:23:03.081225 22323 net.cpp:100] Creating Layer inception_4e/relu_pool_proj
I1130 10:23:03.081243 22323 net.cpp:434] inception_4e/relu_pool_proj <- inception_4e/pool_proj
I1130 10:23:03.081260 22323 net.cpp:395] inception_4e/relu_pool_proj -> inception_4e/pool_proj (in-place)
I1130 10:23:03.082330 22323 net.cpp:150] Setting up inception_4e/relu_pool_proj
I1130 10:23:03.082368 22323 net.cpp:157] Top shape: 100 128 10 5 (640000)
I1130 10:23:03.082376 22323 net.cpp:165] Memory required for data: 1265921200
I1130 10:23:03.082381 22323 layer_factory.hpp:77] Creating layer inception_4e/output
I1130 10:23:03.082398 22323 net.cpp:100] Creating Layer inception_4e/output
I1130 10:23:03.082406 22323 net.cpp:434] inception_4e/output <- inception_4e/1x1
I1130 10:23:03.082422 22323 net.cpp:434] inception_4e/output <- inception_4e/3x3
I1130 10:23:03.082428 22323 net.cpp:434] inception_4e/output <- inception_4e/5x5
I1130 10:23:03.082434 22323 net.cpp:434] inception_4e/output <- inception_4e/pool_proj
I1130 10:23:03.082450 22323 net.cpp:408] inception_4e/output -> inception_4e/output
I1130 10:23:03.082505 22323 net.cpp:150] Setting up inception_4e/output
I1130 10:23:03.082527 22323 net.cpp:157] Top shape: 100 832 10 5 (4160000)
I1130 10:23:03.082533 22323 net.cpp:165] Memory required for data: 1282561200
I1130 10:23:03.082551 22323 layer_factory.hpp:77] Creating layer inception_4e/output_inception_4e/output_0_split
I1130 10:23:03.082561 22323 net.cpp:100] Creating Layer inception_4e/output_inception_4e/output_0_split
I1130 10:23:03.082567 22323 net.cpp:434] inception_4e/output_inception_4e/output_0_split <- inception_4e/output
I1130 10:23:03.082574 22323 net.cpp:408] inception_4e/output_inception_4e/output_0_split -> inception_4e/output_inception_4e/output_0_split_0
I1130 10:23:03.082592 22323 net.cpp:408] inception_4e/output_inception_4e/output_0_split -> inception_4e/output_inception_4e/output_0_split_1
I1130 10:23:03.082609 22323 net.cpp:408] inception_4e/output_inception_4e/output_0_split -> inception_4e/output_inception_4e/output_0_split_2
I1130 10:23:03.082617 22323 net.cpp:408] inception_4e/output_inception_4e/output_0_split -> inception_4e/output_inception_4e/output_0_split_3
I1130 10:23:03.082690 22323 net.cpp:150] Setting up inception_4e/output_inception_4e/output_0_split
I1130 10:23:03.082700 22323 net.cpp:157] Top shape: 100 832 10 5 (4160000)
I1130 10:23:03.082707 22323 net.cpp:157] Top shape: 100 832 10 5 (4160000)
I1130 10:23:03.082713 22323 net.cpp:157] Top shape: 100 832 10 5 (4160000)
I1130 10:23:03.082720 22323 net.cpp:157] Top shape: 100 832 10 5 (4160000)
I1130 10:23:03.082725 22323 net.cpp:165] Memory required for data: 1349121200
I1130 10:23:03.082729 22323 layer_factory.hpp:77] Creating layer inception_5a/1x1
I1130 10:23:03.082746 22323 net.cpp:100] Creating Layer inception_5a/1x1
I1130 10:23:03.082753 22323 net.cpp:434] inception_5a/1x1 <- inception_4e/output_inception_4e/output_0_split_0
I1130 10:23:03.082770 22323 net.cpp:408] inception_5a/1x1 -> inception_5a/1x1
I1130 10:23:03.087019 22323 net.cpp:150] Setting up inception_5a/1x1
I1130 10:23:03.087079 22323 net.cpp:157] Top shape: 100 256 10 5 (1280000)
I1130 10:23:03.087085 22323 net.cpp:165] Memory required for data: 1354241200
I1130 10:23:03.087108 22323 layer_factory.hpp:77] Creating layer inception_5a/relu_1x1
I1130 10:23:03.087128 22323 net.cpp:100] Creating Layer inception_5a/relu_1x1
I1130 10:23:03.087146 22323 net.cpp:434] inception_5a/relu_1x1 <- inception_5a/1x1
I1130 10:23:03.087162 22323 net.cpp:395] inception_5a/relu_1x1 -> inception_5a/1x1 (in-place)
I1130 10:23:03.088042 22323 net.cpp:150] Setting up inception_5a/relu_1x1
I1130 10:23:03.088073 22323 net.cpp:157] Top shape: 100 256 10 5 (1280000)
I1130 10:23:03.088078 22323 net.cpp:165] Memory required for data: 1359361200
I1130 10:23:03.088085 22323 layer_factory.hpp:77] Creating layer inception_5a/3x3_reduce
I1130 10:23:03.088100 22323 net.cpp:100] Creating Layer inception_5a/3x3_reduce
I1130 10:23:03.088115 22323 net.cpp:434] inception_5a/3x3_reduce <- inception_4e/output_inception_4e/output_0_split_1
I1130 10:23:03.088132 22323 net.cpp:408] inception_5a/3x3_reduce -> inception_5a/3x3_reduce
I1130 10:23:03.091707 22323 net.cpp:150] Setting up inception_5a/3x3_reduce
I1130 10:23:03.091771 22323 net.cpp:157] Top shape: 100 160 10 5 (800000)
I1130 10:23:03.091779 22323 net.cpp:165] Memory required for data: 1362561200
I1130 10:23:03.091799 22323 layer_factory.hpp:77] Creating layer inception_5a/relu_3x3_reduce
I1130 10:23:03.091814 22323 net.cpp:100] Creating Layer inception_5a/relu_3x3_reduce
I1130 10:23:03.091821 22323 net.cpp:434] inception_5a/relu_3x3_reduce <- inception_5a/3x3_reduce
I1130 10:23:03.091830 22323 net.cpp:395] inception_5a/relu_3x3_reduce -> inception_5a/3x3_reduce (in-place)
I1130 10:23:03.092811 22323 net.cpp:150] Setting up inception_5a/relu_3x3_reduce
I1130 10:23:03.092833 22323 net.cpp:157] Top shape: 100 160 10 5 (800000)
I1130 10:23:03.092840 22323 net.cpp:165] Memory required for data: 1365761200
I1130 10:23:03.092847 22323 layer_factory.hpp:77] Creating layer inception_5a/3x3
I1130 10:23:03.092864 22323 net.cpp:100] Creating Layer inception_5a/3x3
I1130 10:23:03.092878 22323 net.cpp:434] inception_5a/3x3 <- inception_5a/3x3_reduce
I1130 10:23:03.092890 22323 net.cpp:408] inception_5a/3x3 -> inception_5a/3x3
I1130 10:23:03.098646 22323 net.cpp:150] Setting up inception_5a/3x3
I1130 10:23:03.098686 22323 net.cpp:157] Top shape: 100 320 10 5 (1600000)
I1130 10:23:03.098696 22323 net.cpp:165] Memory required for data: 1372161200
I1130 10:23:03.098711 22323 layer_factory.hpp:77] Creating layer inception_5a/relu_3x3
I1130 10:23:03.098724 22323 net.cpp:100] Creating Layer inception_5a/relu_3x3
I1130 10:23:03.098732 22323 net.cpp:434] inception_5a/relu_3x3 <- inception_5a/3x3
I1130 10:23:03.098740 22323 net.cpp:395] inception_5a/relu_3x3 -> inception_5a/3x3 (in-place)
I1130 10:23:03.099531 22323 net.cpp:150] Setting up inception_5a/relu_3x3
I1130 10:23:03.099548 22323 net.cpp:157] Top shape: 100 320 10 5 (1600000)
I1130 10:23:03.099557 22323 net.cpp:165] Memory required for data: 1378561200
I1130 10:23:03.099567 22323 layer_factory.hpp:77] Creating layer inception_5a/5x5_reduce
I1130 10:23:03.099582 22323 net.cpp:100] Creating Layer inception_5a/5x5_reduce
I1130 10:23:03.099589 22323 net.cpp:434] inception_5a/5x5_reduce <- inception_4e/output_inception_4e/output_0_split_2
I1130 10:23:03.099601 22323 net.cpp:408] inception_5a/5x5_reduce -> inception_5a/5x5_reduce
I1130 10:23:03.103129 22323 net.cpp:150] Setting up inception_5a/5x5_reduce
I1130 10:23:03.103168 22323 net.cpp:157] Top shape: 100 32 10 5 (160000)
I1130 10:23:03.103174 22323 net.cpp:165] Memory required for data: 1379201200
I1130 10:23:03.103189 22323 layer_factory.hpp:77] Creating layer inception_5a/relu_5x5_reduce
I1130 10:23:03.103201 22323 net.cpp:100] Creating Layer inception_5a/relu_5x5_reduce
I1130 10:23:03.103209 22323 net.cpp:434] inception_5a/relu_5x5_reduce <- inception_5a/5x5_reduce
I1130 10:23:03.103219 22323 net.cpp:395] inception_5a/relu_5x5_reduce -> inception_5a/5x5_reduce (in-place)
I1130 10:23:03.104352 22323 net.cpp:150] Setting up inception_5a/relu_5x5_reduce
I1130 10:23:03.104367 22323 net.cpp:157] Top shape: 100 32 10 5 (160000)
I1130 10:23:03.104375 22323 net.cpp:165] Memory required for data: 1379841200
I1130 10:23:03.104382 22323 layer_factory.hpp:77] Creating layer inception_5a/5x5
I1130 10:23:03.104396 22323 net.cpp:100] Creating Layer inception_5a/5x5
I1130 10:23:03.104403 22323 net.cpp:434] inception_5a/5x5 <- inception_5a/5x5_reduce
I1130 10:23:03.104413 22323 net.cpp:408] inception_5a/5x5 -> inception_5a/5x5
I1130 10:23:03.108114 22323 net.cpp:150] Setting up inception_5a/5x5
I1130 10:23:03.108152 22323 net.cpp:157] Top shape: 100 128 10 5 (640000)
I1130 10:23:03.108160 22323 net.cpp:165] Memory required for data: 1382401200
I1130 10:23:03.108172 22323 layer_factory.hpp:77] Creating layer inception_5a/relu_5x5
I1130 10:23:03.108187 22323 net.cpp:100] Creating Layer inception_5a/relu_5x5
I1130 10:23:03.108196 22323 net.cpp:434] inception_5a/relu_5x5 <- inception_5a/5x5
I1130 10:23:03.108206 22323 net.cpp:395] inception_5a/relu_5x5 -> inception_5a/5x5 (in-place)
I1130 10:23:03.109123 22323 net.cpp:150] Setting up inception_5a/relu_5x5
I1130 10:23:03.109143 22323 net.cpp:157] Top shape: 100 128 10 5 (640000)
I1130 10:23:03.109149 22323 net.cpp:165] Memory required for data: 1384961200
I1130 10:23:03.109159 22323 layer_factory.hpp:77] Creating layer inception_5a/pool
I1130 10:23:03.109184 22323 net.cpp:100] Creating Layer inception_5a/pool
I1130 10:23:03.109192 22323 net.cpp:434] inception_5a/pool <- inception_4e/output_inception_4e/output_0_split_3
I1130 10:23:03.109203 22323 net.cpp:408] inception_5a/pool -> inception_5a/pool
I1130 10:23:03.109266 22323 net.cpp:150] Setting up inception_5a/pool
I1130 10:23:03.109277 22323 net.cpp:157] Top shape: 100 832 10 5 (4160000)
I1130 10:23:03.109283 22323 net.cpp:165] Memory required for data: 1401601200
I1130 10:23:03.109290 22323 layer_factory.hpp:77] Creating layer inception_5a/pool_proj
I1130 10:23:03.109323 22323 net.cpp:100] Creating Layer inception_5a/pool_proj
I1130 10:23:03.109331 22323 net.cpp:434] inception_5a/pool_proj <- inception_5a/pool
I1130 10:23:03.109347 22323 net.cpp:408] inception_5a/pool_proj -> inception_5a/pool_proj
I1130 10:23:03.113293 22323 net.cpp:150] Setting up inception_5a/pool_proj
I1130 10:23:03.113355 22323 net.cpp:157] Top shape: 100 128 10 5 (640000)
I1130 10:23:03.113363 22323 net.cpp:165] Memory required for data: 1404161200
I1130 10:23:03.113376 22323 layer_factory.hpp:77] Creating layer inception_5a/relu_pool_proj
I1130 10:23:03.113394 22323 net.cpp:100] Creating Layer inception_5a/relu_pool_proj
I1130 10:23:03.113404 22323 net.cpp:434] inception_5a/relu_pool_proj <- inception_5a/pool_proj
I1130 10:23:03.113414 22323 net.cpp:395] inception_5a/relu_pool_proj -> inception_5a/pool_proj (in-place)
I1130 10:23:03.115170 22323 net.cpp:150] Setting up inception_5a/relu_pool_proj
I1130 10:23:03.115190 22323 net.cpp:157] Top shape: 100 128 10 5 (640000)
I1130 10:23:03.115196 22323 net.cpp:165] Memory required for data: 1406721200
I1130 10:23:03.115203 22323 layer_factory.hpp:77] Creating layer inception_5a/output
I1130 10:23:03.115213 22323 net.cpp:100] Creating Layer inception_5a/output
I1130 10:23:03.115221 22323 net.cpp:434] inception_5a/output <- inception_5a/1x1
I1130 10:23:03.115229 22323 net.cpp:434] inception_5a/output <- inception_5a/3x3
I1130 10:23:03.115236 22323 net.cpp:434] inception_5a/output <- inception_5a/5x5
I1130 10:23:03.115242 22323 net.cpp:434] inception_5a/output <- inception_5a/pool_proj
I1130 10:23:03.115248 22323 net.cpp:408] inception_5a/output -> inception_5a/output
I1130 10:23:03.115294 22323 net.cpp:150] Setting up inception_5a/output
I1130 10:23:03.115306 22323 net.cpp:157] Top shape: 100 832 10 5 (4160000)
I1130 10:23:03.115314 22323 net.cpp:165] Memory required for data: 1423361200
I1130 10:23:03.115322 22323 layer_factory.hpp:77] Creating layer inception_5a/output_inception_5a/output_0_split
I1130 10:23:03.115331 22323 net.cpp:100] Creating Layer inception_5a/output_inception_5a/output_0_split
I1130 10:23:03.115351 22323 net.cpp:434] inception_5a/output_inception_5a/output_0_split <- inception_5a/output
I1130 10:23:03.115360 22323 net.cpp:408] inception_5a/output_inception_5a/output_0_split -> inception_5a/output_inception_5a/output_0_split_0
I1130 10:23:03.115368 22323 net.cpp:408] inception_5a/output_inception_5a/output_0_split -> inception_5a/output_inception_5a/output_0_split_1
I1130 10:23:03.115377 22323 net.cpp:408] inception_5a/output_inception_5a/output_0_split -> inception_5a/output_inception_5a/output_0_split_2
I1130 10:23:03.115386 22323 net.cpp:408] inception_5a/output_inception_5a/output_0_split -> inception_5a/output_inception_5a/output_0_split_3
I1130 10:23:03.115455 22323 net.cpp:150] Setting up inception_5a/output_inception_5a/output_0_split
I1130 10:23:03.115468 22323 net.cpp:157] Top shape: 100 832 10 5 (4160000)
I1130 10:23:03.115474 22323 net.cpp:157] Top shape: 100 832 10 5 (4160000)
I1130 10:23:03.115480 22323 net.cpp:157] Top shape: 100 832 10 5 (4160000)
I1130 10:23:03.115487 22323 net.cpp:157] Top shape: 100 832 10 5 (4160000)
I1130 10:23:03.115492 22323 net.cpp:165] Memory required for data: 1489921200
I1130 10:23:03.115499 22323 layer_factory.hpp:77] Creating layer inception_5b/1x1
I1130 10:23:03.115515 22323 net.cpp:100] Creating Layer inception_5b/1x1
I1130 10:23:03.115521 22323 net.cpp:434] inception_5b/1x1 <- inception_5a/output_inception_5a/output_0_split_0
I1130 10:23:03.115532 22323 net.cpp:408] inception_5b/1x1 -> inception_5b/1x1
I1130 10:23:03.119901 22323 net.cpp:150] Setting up inception_5b/1x1
I1130 10:23:03.119940 22323 net.cpp:157] Top shape: 100 384 10 5 (1920000)
I1130 10:23:03.119947 22323 net.cpp:165] Memory required for data: 1497601200
I1130 10:23:03.119961 22323 layer_factory.hpp:77] Creating layer inception_5b/relu_1x1
I1130 10:23:03.119978 22323 net.cpp:100] Creating Layer inception_5b/relu_1x1
I1130 10:23:03.119987 22323 net.cpp:434] inception_5b/relu_1x1 <- inception_5b/1x1
I1130 10:23:03.119995 22323 net.cpp:395] inception_5b/relu_1x1 -> inception_5b/1x1 (in-place)
I1130 10:23:03.120612 22323 net.cpp:150] Setting up inception_5b/relu_1x1
I1130 10:23:03.120633 22323 net.cpp:157] Top shape: 100 384 10 5 (1920000)
I1130 10:23:03.120640 22323 net.cpp:165] Memory required for data: 1505281200
I1130 10:23:03.120651 22323 layer_factory.hpp:77] Creating layer inception_5b/3x3_reduce
I1130 10:23:03.120666 22323 net.cpp:100] Creating Layer inception_5b/3x3_reduce
I1130 10:23:03.120674 22323 net.cpp:434] inception_5b/3x3_reduce <- inception_5a/output_inception_5a/output_0_split_1
I1130 10:23:03.120682 22323 net.cpp:408] inception_5b/3x3_reduce -> inception_5b/3x3_reduce
I1130 10:23:03.124702 22323 net.cpp:150] Setting up inception_5b/3x3_reduce
I1130 10:23:03.124760 22323 net.cpp:157] Top shape: 100 192 10 5 (960000)
I1130 10:23:03.124768 22323 net.cpp:165] Memory required for data: 1509121200
I1130 10:23:03.124790 22323 layer_factory.hpp:77] Creating layer inception_5b/relu_3x3_reduce
I1130 10:23:03.124811 22323 net.cpp:100] Creating Layer inception_5b/relu_3x3_reduce
I1130 10:23:03.124828 22323 net.cpp:434] inception_5b/relu_3x3_reduce <- inception_5b/3x3_reduce
I1130 10:23:03.124837 22323 net.cpp:395] inception_5b/relu_3x3_reduce -> inception_5b/3x3_reduce (in-place)
I1130 10:23:03.125692 22323 net.cpp:150] Setting up inception_5b/relu_3x3_reduce
I1130 10:23:03.125710 22323 net.cpp:157] Top shape: 100 192 10 5 (960000)
I1130 10:23:03.125717 22323 net.cpp:165] Memory required for data: 1512961200
I1130 10:23:03.125725 22323 layer_factory.hpp:77] Creating layer inception_5b/3x3
I1130 10:23:03.125741 22323 net.cpp:100] Creating Layer inception_5b/3x3
I1130 10:23:03.125749 22323 net.cpp:434] inception_5b/3x3 <- inception_5b/3x3_reduce
I1130 10:23:03.125761 22323 net.cpp:408] inception_5b/3x3 -> inception_5b/3x3
I1130 10:23:03.132489 22323 net.cpp:150] Setting up inception_5b/3x3
I1130 10:23:03.132529 22323 net.cpp:157] Top shape: 100 384 10 5 (1920000)
I1130 10:23:03.132536 22323 net.cpp:165] Memory required for data: 1520641200
I1130 10:23:03.132563 22323 layer_factory.hpp:77] Creating layer inception_5b/relu_3x3
I1130 10:23:03.132580 22323 net.cpp:100] Creating Layer inception_5b/relu_3x3
I1130 10:23:03.132588 22323 net.cpp:434] inception_5b/relu_3x3 <- inception_5b/3x3
I1130 10:23:03.132597 22323 net.cpp:395] inception_5b/relu_3x3 -> inception_5b/3x3 (in-place)
I1130 10:23:03.133379 22323 net.cpp:150] Setting up inception_5b/relu_3x3
I1130 10:23:03.133397 22323 net.cpp:157] Top shape: 100 384 10 5 (1920000)
I1130 10:23:03.133404 22323 net.cpp:165] Memory required for data: 1528321200
I1130 10:23:03.133420 22323 layer_factory.hpp:77] Creating layer inception_5b/5x5_reduce
I1130 10:23:03.133435 22323 net.cpp:100] Creating Layer inception_5b/5x5_reduce
I1130 10:23:03.133442 22323 net.cpp:434] inception_5b/5x5_reduce <- inception_5a/output_inception_5a/output_0_split_2
I1130 10:23:03.133453 22323 net.cpp:408] inception_5b/5x5_reduce -> inception_5b/5x5_reduce
I1130 10:23:03.137233 22323 net.cpp:150] Setting up inception_5b/5x5_reduce
I1130 10:23:03.137266 22323 net.cpp:157] Top shape: 100 48 10 5 (240000)
I1130 10:23:03.137274 22323 net.cpp:165] Memory required for data: 1529281200
I1130 10:23:03.137286 22323 layer_factory.hpp:77] Creating layer inception_5b/relu_5x5_reduce
I1130 10:23:03.137300 22323 net.cpp:100] Creating Layer inception_5b/relu_5x5_reduce
I1130 10:23:03.137332 22323 net.cpp:434] inception_5b/relu_5x5_reduce <- inception_5b/5x5_reduce
I1130 10:23:03.137342 22323 net.cpp:395] inception_5b/relu_5x5_reduce -> inception_5b/5x5_reduce (in-place)
I1130 10:23:03.138218 22323 net.cpp:150] Setting up inception_5b/relu_5x5_reduce
I1130 10:23:03.138231 22323 net.cpp:157] Top shape: 100 48 10 5 (240000)
I1130 10:23:03.138237 22323 net.cpp:165] Memory required for data: 1530241200
I1130 10:23:03.138243 22323 layer_factory.hpp:77] Creating layer inception_5b/5x5
I1130 10:23:03.138260 22323 net.cpp:100] Creating Layer inception_5b/5x5
I1130 10:23:03.138267 22323 net.cpp:434] inception_5b/5x5 <- inception_5b/5x5_reduce
I1130 10:23:03.138279 22323 net.cpp:408] inception_5b/5x5 -> inception_5b/5x5
I1130 10:23:03.142191 22323 net.cpp:150] Setting up inception_5b/5x5
I1130 10:23:03.142257 22323 net.cpp:157] Top shape: 100 128 10 5 (640000)
I1130 10:23:03.142266 22323 net.cpp:165] Memory required for data: 1532801200
I1130 10:23:03.142287 22323 layer_factory.hpp:77] Creating layer inception_5b/relu_5x5
I1130 10:23:03.142305 22323 net.cpp:100] Creating Layer inception_5b/relu_5x5
I1130 10:23:03.142323 22323 net.cpp:434] inception_5b/relu_5x5 <- inception_5b/5x5
I1130 10:23:03.142338 22323 net.cpp:395] inception_5b/relu_5x5 -> inception_5b/5x5 (in-place)
I1130 10:23:03.142653 22323 net.cpp:150] Setting up inception_5b/relu_5x5
I1130 10:23:03.142673 22323 net.cpp:157] Top shape: 100 128 10 5 (640000)
I1130 10:23:03.142679 22323 net.cpp:165] Memory required for data: 1535361200
I1130 10:23:03.142696 22323 layer_factory.hpp:77] Creating layer inception_5b/pool
I1130 10:23:03.142707 22323 net.cpp:100] Creating Layer inception_5b/pool
I1130 10:23:03.142714 22323 net.cpp:434] inception_5b/pool <- inception_5a/output_inception_5a/output_0_split_3
I1130 10:23:03.142724 22323 net.cpp:408] inception_5b/pool -> inception_5b/pool
I1130 10:23:03.142784 22323 net.cpp:150] Setting up inception_5b/pool
I1130 10:23:03.142796 22323 net.cpp:157] Top shape: 100 832 10 5 (4160000)
I1130 10:23:03.142802 22323 net.cpp:165] Memory required for data: 1552001200
I1130 10:23:03.142807 22323 layer_factory.hpp:77] Creating layer inception_5b/pool_proj
I1130 10:23:03.142824 22323 net.cpp:100] Creating Layer inception_5b/pool_proj
I1130 10:23:03.142832 22323 net.cpp:434] inception_5b/pool_proj <- inception_5b/pool
I1130 10:23:03.142849 22323 net.cpp:408] inception_5b/pool_proj -> inception_5b/pool_proj
I1130 10:23:03.144743 22323 net.cpp:150] Setting up inception_5b/pool_proj
I1130 10:23:03.144781 22323 net.cpp:157] Top shape: 100 128 10 5 (640000)
I1130 10:23:03.144788 22323 net.cpp:165] Memory required for data: 1554561200
I1130 10:23:03.144809 22323 layer_factory.hpp:77] Creating layer inception_5b/relu_pool_proj
I1130 10:23:03.144845 22323 net.cpp:100] Creating Layer inception_5b/relu_pool_proj
I1130 10:23:03.144853 22323 net.cpp:434] inception_5b/relu_pool_proj <- inception_5b/pool_proj
I1130 10:23:03.144865 22323 net.cpp:395] inception_5b/relu_pool_proj -> inception_5b/pool_proj (in-place)
I1130 10:23:03.145165 22323 net.cpp:150] Setting up inception_5b/relu_pool_proj
I1130 10:23:03.145197 22323 net.cpp:157] Top shape: 100 128 10 5 (640000)
I1130 10:23:03.145205 22323 net.cpp:165] Memory required for data: 1557121200
I1130 10:23:03.145210 22323 layer_factory.hpp:77] Creating layer inception_5b/output
I1130 10:23:03.145220 22323 net.cpp:100] Creating Layer inception_5b/output
I1130 10:23:03.145226 22323 net.cpp:434] inception_5b/output <- inception_5b/1x1
I1130 10:23:03.145234 22323 net.cpp:434] inception_5b/output <- inception_5b/3x3
I1130 10:23:03.145241 22323 net.cpp:434] inception_5b/output <- inception_5b/5x5
I1130 10:23:03.145247 22323 net.cpp:434] inception_5b/output <- inception_5b/pool_proj
I1130 10:23:03.145256 22323 net.cpp:408] inception_5b/output -> inception_5b/output
I1130 10:23:03.145318 22323 net.cpp:150] Setting up inception_5b/output
I1130 10:23:03.145330 22323 net.cpp:157] Top shape: 100 1024 10 5 (5120000)
I1130 10:23:03.145337 22323 net.cpp:165] Memory required for data: 1577601200
I1130 10:23:03.145345 22323 layer_factory.hpp:77] Creating layer conv1/7x7_s2_p
I1130 10:23:03.145361 22323 net.cpp:100] Creating Layer conv1/7x7_s2_p
I1130 10:23:03.145370 22323 net.cpp:434] conv1/7x7_s2_p <- data_p
I1130 10:23:03.145377 22323 net.cpp:408] conv1/7x7_s2_p -> conv1/7x7_s2_p
I1130 10:23:03.149785 22323 net.cpp:150] Setting up conv1/7x7_s2_p
I1130 10:23:03.149832 22323 net.cpp:157] Top shape: 100 64 80 40 (20480000)
I1130 10:23:03.149838 22323 net.cpp:165] Memory required for data: 1659521200
I1130 10:23:03.149854 22323 net.cpp:493] Sharing parameters 'conv1/7x7_s2_w' owned by layer 'conv1/7x7_s2', param index 0
I1130 10:23:03.149863 22323 net.cpp:493] Sharing parameters 'conv1/7x7_s2_b' owned by layer 'conv1/7x7_s2', param index 1
I1130 10:23:03.149869 22323 layer_factory.hpp:77] Creating layer conv1/relu_7x7_p
I1130 10:23:03.149894 22323 net.cpp:100] Creating Layer conv1/relu_7x7_p
I1130 10:23:03.149902 22323 net.cpp:434] conv1/relu_7x7_p <- conv1/7x7_s2_p
I1130 10:23:03.149920 22323 net.cpp:395] conv1/relu_7x7_p -> conv1/7x7_s2_p (in-place)
I1130 10:23:03.150771 22323 net.cpp:150] Setting up conv1/relu_7x7_p
I1130 10:23:03.150794 22323 net.cpp:157] Top shape: 100 64 80 40 (20480000)
I1130 10:23:03.150799 22323 net.cpp:165] Memory required for data: 1741441200
I1130 10:23:03.150805 22323 layer_factory.hpp:77] Creating layer pool1/3x3_s2_p
I1130 10:23:03.150823 22323 net.cpp:100] Creating Layer pool1/3x3_s2_p
I1130 10:23:03.150830 22323 net.cpp:434] pool1/3x3_s2_p <- conv1/7x7_s2_p
I1130 10:23:03.150847 22323 net.cpp:408] pool1/3x3_s2_p -> pool1/3x3_s2_p
I1130 10:23:03.150903 22323 net.cpp:150] Setting up pool1/3x3_s2_p
I1130 10:23:03.150928 22323 net.cpp:157] Top shape: 100 64 40 20 (5120000)
I1130 10:23:03.150934 22323 net.cpp:165] Memory required for data: 1761921200
I1130 10:23:03.150950 22323 layer_factory.hpp:77] Creating layer pool1/norm1_p
I1130 10:23:03.150964 22323 net.cpp:100] Creating Layer pool1/norm1_p
I1130 10:23:03.150971 22323 net.cpp:434] pool1/norm1_p <- pool1/3x3_s2_p
I1130 10:23:03.150979 22323 net.cpp:408] pool1/norm1_p -> pool1/norm1_p
I1130 10:23:03.153041 22323 net.cpp:150] Setting up pool1/norm1_p
I1130 10:23:03.153079 22323 net.cpp:157] Top shape: 100 64 40 20 (5120000)
I1130 10:23:03.153085 22323 net.cpp:165] Memory required for data: 1782401200
I1130 10:23:03.153091 22323 layer_factory.hpp:77] Creating layer conv2/3x3_reduce_p
I1130 10:23:03.153106 22323 net.cpp:100] Creating Layer conv2/3x3_reduce_p
I1130 10:23:03.153113 22323 net.cpp:434] conv2/3x3_reduce_p <- pool1/norm1_p
I1130 10:23:03.153131 22323 net.cpp:408] conv2/3x3_reduce_p -> conv2/3x3_reduce_p
I1130 10:23:03.156687 22323 net.cpp:150] Setting up conv2/3x3_reduce_p
I1130 10:23:03.156739 22323 net.cpp:157] Top shape: 100 64 40 20 (5120000)
I1130 10:23:03.156759 22323 net.cpp:165] Memory required for data: 1802881200
I1130 10:23:03.156779 22323 net.cpp:493] Sharing parameters 'conv2/3x3_reduce_w' owned by layer 'conv2/3x3_reduce', param index 0
I1130 10:23:03.156786 22323 net.cpp:493] Sharing parameters 'conv2/3x3_reduce_b' owned by layer 'conv2/3x3_reduce', param index 1
I1130 10:23:03.156792 22323 layer_factory.hpp:77] Creating layer conv2/relu_3x3_reduce_p
I1130 10:23:03.156813 22323 net.cpp:100] Creating Layer conv2/relu_3x3_reduce_p
I1130 10:23:03.156821 22323 net.cpp:434] conv2/relu_3x3_reduce_p <- conv2/3x3_reduce_p
I1130 10:23:03.156839 22323 net.cpp:395] conv2/relu_3x3_reduce_p -> conv2/3x3_reduce_p (in-place)
I1130 10:23:03.157668 22323 net.cpp:150] Setting up conv2/relu_3x3_reduce_p
I1130 10:23:03.157696 22323 net.cpp:157] Top shape: 100 64 40 20 (5120000)
I1130 10:23:03.157702 22323 net.cpp:165] Memory required for data: 1823361200
I1130 10:23:03.157708 22323 layer_factory.hpp:77] Creating layer conv2/3x3_p
I1130 10:23:03.157732 22323 net.cpp:100] Creating Layer conv2/3x3_p
I1130 10:23:03.157739 22323 net.cpp:434] conv2/3x3_p <- conv2/3x3_reduce_p
I1130 10:23:03.157757 22323 net.cpp:408] conv2/3x3_p -> conv2/3x3_p
I1130 10:23:03.161669 22323 net.cpp:150] Setting up conv2/3x3_p
I1130 10:23:03.161725 22323 net.cpp:157] Top shape: 100 192 40 20 (15360000)
I1130 10:23:03.161731 22323 net.cpp:165] Memory required for data: 1884801200
I1130 10:23:03.161748 22323 net.cpp:493] Sharing parameters 'conv2/3x3_w' owned by layer 'conv2/3x3', param index 0
I1130 10:23:03.161756 22323 net.cpp:493] Sharing parameters 'conv2/3x3_b' owned by layer 'conv2/3x3', param index 1
I1130 10:23:03.161774 22323 layer_factory.hpp:77] Creating layer conv2/relu_3x3_p
I1130 10:23:03.161794 22323 net.cpp:100] Creating Layer conv2/relu_3x3_p
I1130 10:23:03.161809 22323 net.cpp:434] conv2/relu_3x3_p <- conv2/3x3_p
I1130 10:23:03.161828 22323 net.cpp:395] conv2/relu_3x3_p -> conv2/3x3_p (in-place)
I1130 10:23:03.162485 22323 net.cpp:150] Setting up conv2/relu_3x3_p
I1130 10:23:03.162514 22323 net.cpp:157] Top shape: 100 192 40 20 (15360000)
I1130 10:23:03.162535 22323 net.cpp:165] Memory required for data: 1946241200
I1130 10:23:03.162542 22323 layer_factory.hpp:77] Creating layer pool2/3x3_s2_p
I1130 10:23:03.162561 22323 net.cpp:100] Creating Layer pool2/3x3_s2_p
I1130 10:23:03.162569 22323 net.cpp:434] pool2/3x3_s2_p <- conv2/3x3_p
I1130 10:23:03.162585 22323 net.cpp:408] pool2/3x3_s2_p -> pool2/3x3_s2_p
I1130 10:23:03.162658 22323 net.cpp:150] Setting up pool2/3x3_s2_p
I1130 10:23:03.162669 22323 net.cpp:157] Top shape: 100 192 20 10 (3840000)
I1130 10:23:03.162675 22323 net.cpp:165] Memory required for data: 1961601200
I1130 10:23:03.162681 22323 layer_factory.hpp:77] Creating layer pool2/3x3_s2_p_pool2/3x3_s2_p_0_split
I1130 10:23:03.162698 22323 net.cpp:100] Creating Layer pool2/3x3_s2_p_pool2/3x3_s2_p_0_split
I1130 10:23:03.162704 22323 net.cpp:434] pool2/3x3_s2_p_pool2/3x3_s2_p_0_split <- pool2/3x3_s2_p
I1130 10:23:03.162720 22323 net.cpp:408] pool2/3x3_s2_p_pool2/3x3_s2_p_0_split -> pool2/3x3_s2_p_pool2/3x3_s2_p_0_split_0
I1130 10:23:03.162737 22323 net.cpp:408] pool2/3x3_s2_p_pool2/3x3_s2_p_0_split -> pool2/3x3_s2_p_pool2/3x3_s2_p_0_split_1
I1130 10:23:03.162753 22323 net.cpp:408] pool2/3x3_s2_p_pool2/3x3_s2_p_0_split -> pool2/3x3_s2_p_pool2/3x3_s2_p_0_split_2
I1130 10:23:03.162783 22323 net.cpp:408] pool2/3x3_s2_p_pool2/3x3_s2_p_0_split -> pool2/3x3_s2_p_pool2/3x3_s2_p_0_split_3
I1130 10:23:03.162871 22323 net.cpp:150] Setting up pool2/3x3_s2_p_pool2/3x3_s2_p_0_split
I1130 10:23:03.162883 22323 net.cpp:157] Top shape: 100 192 20 10 (3840000)
I1130 10:23:03.162889 22323 net.cpp:157] Top shape: 100 192 20 10 (3840000)
I1130 10:23:03.162904 22323 net.cpp:157] Top shape: 100 192 20 10 (3840000)
I1130 10:23:03.162911 22323 net.cpp:157] Top shape: 100 192 20 10 (3840000)
I1130 10:23:03.162919 22323 net.cpp:165] Memory required for data: 2023041200
I1130 10:23:03.162931 22323 layer_factory.hpp:77] Creating layer inception_3a/1x1_p
I1130 10:23:03.162967 22323 net.cpp:100] Creating Layer inception_3a/1x1_p
I1130 10:23:03.162974 22323 net.cpp:434] inception_3a/1x1_p <- pool2/3x3_s2_p_pool2/3x3_s2_p_0_split_0
I1130 10:23:03.162983 22323 net.cpp:408] inception_3a/1x1_p -> inception_3a/1x1_p
I1130 10:23:03.166092 22323 net.cpp:150] Setting up inception_3a/1x1_p
I1130 10:23:03.166146 22323 net.cpp:157] Top shape: 100 64 20 10 (1280000)
I1130 10:23:03.166153 22323 net.cpp:165] Memory required for data: 2028161200
I1130 10:23:03.166162 22323 net.cpp:493] Sharing parameters 'inception_3a/1x1_w' owned by layer 'inception_3a/1x1', param index 0
I1130 10:23:03.166170 22323 net.cpp:493] Sharing parameters 'inception_3a/1x1_b' owned by layer 'inception_3a/1x1', param index 1
I1130 10:23:03.166189 22323 layer_factory.hpp:77] Creating layer inception_3a/relu_1x1_p
I1130 10:23:03.166203 22323 net.cpp:100] Creating Layer inception_3a/relu_1x1_p
I1130 10:23:03.166210 22323 net.cpp:434] inception_3a/relu_1x1_p <- inception_3a/1x1_p
I1130 10:23:03.166218 22323 net.cpp:395] inception_3a/relu_1x1_p -> inception_3a/1x1_p (in-place)
I1130 10:23:03.167125 22323 net.cpp:150] Setting up inception_3a/relu_1x1_p
I1130 10:23:03.167162 22323 net.cpp:157] Top shape: 100 64 20 10 (1280000)
I1130 10:23:03.167168 22323 net.cpp:165] Memory required for data: 2033281200
I1130 10:23:03.167176 22323 layer_factory.hpp:77] Creating layer inception_3a/3x3_reduce_p
I1130 10:23:03.167203 22323 net.cpp:100] Creating Layer inception_3a/3x3_reduce_p
I1130 10:23:03.167218 22323 net.cpp:434] inception_3a/3x3_reduce_p <- pool2/3x3_s2_p_pool2/3x3_s2_p_0_split_1
I1130 10:23:03.167234 22323 net.cpp:408] inception_3a/3x3_reduce_p -> inception_3a/3x3_reduce_p
I1130 10:23:03.170749 22323 net.cpp:150] Setting up inception_3a/3x3_reduce_p
I1130 10:23:03.170811 22323 net.cpp:157] Top shape: 100 96 20 10 (1920000)
I1130 10:23:03.170819 22323 net.cpp:165] Memory required for data: 2040961200
I1130 10:23:03.170837 22323 net.cpp:493] Sharing parameters 'inception_3a/3x3_reduce_w' owned by layer 'inception_3a/3x3_reduce', param index 0
I1130 10:23:03.170855 22323 net.cpp:493] Sharing parameters 'inception_3a/3x3_reduce_b' owned by layer 'inception_3a/3x3_reduce', param index 1
I1130 10:23:03.170881 22323 layer_factory.hpp:77] Creating layer inception_3a/relu_3x3_reduce_p
I1130 10:23:03.170893 22323 net.cpp:100] Creating Layer inception_3a/relu_3x3_reduce_p
I1130 10:23:03.170910 22323 net.cpp:434] inception_3a/relu_3x3_reduce_p <- inception_3a/3x3_reduce_p
I1130 10:23:03.170925 22323 net.cpp:395] inception_3a/relu_3x3_reduce_p -> inception_3a/3x3_reduce_p (in-place)
I1130 10:23:03.171706 22323 net.cpp:150] Setting up inception_3a/relu_3x3_reduce_p
I1130 10:23:03.171741 22323 net.cpp:157] Top shape: 100 96 20 10 (1920000)
I1130 10:23:03.171746 22323 net.cpp:165] Memory required for data: 2048641200
I1130 10:23:03.171756 22323 layer_factory.hpp:77] Creating layer inception_3a/3x3_p
I1130 10:23:03.171779 22323 net.cpp:100] Creating Layer inception_3a/3x3_p
I1130 10:23:03.171787 22323 net.cpp:434] inception_3a/3x3_p <- inception_3a/3x3_reduce_p
I1130 10:23:03.171804 22323 net.cpp:408] inception_3a/3x3_p -> inception_3a/3x3_p
I1130 10:23:03.175453 22323 net.cpp:150] Setting up inception_3a/3x3_p
I1130 10:23:03.175496 22323 net.cpp:157] Top shape: 100 128 20 10 (2560000)
I1130 10:23:03.175504 22323 net.cpp:165] Memory required for data: 2058881200
I1130 10:23:03.175514 22323 net.cpp:493] Sharing parameters 'inception_3a/3x3_w' owned by layer 'inception_3a/3x3', param index 0
I1130 10:23:03.175523 22323 net.cpp:493] Sharing parameters 'inception_3a/3x3_b' owned by layer 'inception_3a/3x3', param index 1
I1130 10:23:03.175529 22323 layer_factory.hpp:77] Creating layer inception_3a/relu_3x3_p
I1130 10:23:03.175546 22323 net.cpp:100] Creating Layer inception_3a/relu_3x3_p
I1130 10:23:03.175555 22323 net.cpp:434] inception_3a/relu_3x3_p <- inception_3a/3x3_p
I1130 10:23:03.175565 22323 net.cpp:395] inception_3a/relu_3x3_p -> inception_3a/3x3_p (in-place)
I1130 10:23:03.176445 22323 net.cpp:150] Setting up inception_3a/relu_3x3_p
I1130 10:23:03.176477 22323 net.cpp:157] Top shape: 100 128 20 10 (2560000)
I1130 10:23:03.176486 22323 net.cpp:165] Memory required for data: 2069121200
I1130 10:23:03.176493 22323 layer_factory.hpp:77] Creating layer inception_3a/5x5_reduce_p
I1130 10:23:03.176509 22323 net.cpp:100] Creating Layer inception_3a/5x5_reduce_p
I1130 10:23:03.176517 22323 net.cpp:434] inception_3a/5x5_reduce_p <- pool2/3x3_s2_p_pool2/3x3_s2_p_0_split_2
I1130 10:23:03.176529 22323 net.cpp:408] inception_3a/5x5_reduce_p -> inception_3a/5x5_reduce_p
I1130 10:23:03.180011 22323 net.cpp:150] Setting up inception_3a/5x5_reduce_p
I1130 10:23:03.180052 22323 net.cpp:157] Top shape: 100 16 20 10 (320000)
I1130 10:23:03.180059 22323 net.cpp:165] Memory required for data: 2070401200
I1130 10:23:03.180068 22323 net.cpp:493] Sharing parameters 'inception_3a/5x5_reduce_w' owned by layer 'inception_3a/5x5_reduce', param index 0
I1130 10:23:03.180078 22323 net.cpp:493] Sharing parameters 'inception_3a/5x5_reduce_b' owned by layer 'inception_3a/5x5_reduce', param index 1
I1130 10:23:03.180083 22323 layer_factory.hpp:77] Creating layer inception_3a/relu_5x5_reduce_p
I1130 10:23:03.180099 22323 net.cpp:100] Creating Layer inception_3a/relu_5x5_reduce_p
I1130 10:23:03.180109 22323 net.cpp:434] inception_3a/relu_5x5_reduce_p <- inception_3a/5x5_reduce_p
I1130 10:23:03.180117 22323 net.cpp:395] inception_3a/relu_5x5_reduce_p -> inception_3a/5x5_reduce_p (in-place)
I1130 10:23:03.181008 22323 net.cpp:150] Setting up inception_3a/relu_5x5_reduce_p
I1130 10:23:03.181025 22323 net.cpp:157] Top shape: 100 16 20 10 (320000)
I1130 10:23:03.181031 22323 net.cpp:165] Memory required for data: 2071681200
I1130 10:23:03.181041 22323 layer_factory.hpp:77] Creating layer inception_3a/5x5_p
I1130 10:23:03.181056 22323 net.cpp:100] Creating Layer inception_3a/5x5_p
I1130 10:23:03.181063 22323 net.cpp:434] inception_3a/5x5_p <- inception_3a/5x5_reduce_p
I1130 10:23:03.181074 22323 net.cpp:408] inception_3a/5x5_p -> inception_3a/5x5_p
I1130 10:23:03.184623 22323 net.cpp:150] Setting up inception_3a/5x5_p
I1130 10:23:03.184656 22323 net.cpp:157] Top shape: 100 32 20 10 (640000)
I1130 10:23:03.184671 22323 net.cpp:165] Memory required for data: 2074241200
I1130 10:23:03.184698 22323 net.cpp:493] Sharing parameters 'inception_3a/5x5_w' owned by layer 'inception_3a/5x5', param index 0
I1130 10:23:03.184707 22323 net.cpp:493] Sharing parameters 'inception_3a/5x5_b' owned by layer 'inception_3a/5x5', param index 1
I1130 10:23:03.184715 22323 layer_factory.hpp:77] Creating layer inception_3a/relu_5x5_p
I1130 10:23:03.184725 22323 net.cpp:100] Creating Layer inception_3a/relu_5x5_p
I1130 10:23:03.184733 22323 net.cpp:434] inception_3a/relu_5x5_p <- inception_3a/5x5_p
I1130 10:23:03.184746 22323 net.cpp:395] inception_3a/relu_5x5_p -> inception_3a/5x5_p (in-place)
I1130 10:23:03.185601 22323 net.cpp:150] Setting up inception_3a/relu_5x5_p
I1130 10:23:03.185622 22323 net.cpp:157] Top shape: 100 32 20 10 (640000)
I1130 10:23:03.185628 22323 net.cpp:165] Memory required for data: 2076801200
I1130 10:23:03.185636 22323 layer_factory.hpp:77] Creating layer inception_3a/pool_p
I1130 10:23:03.185647 22323 net.cpp:100] Creating Layer inception_3a/pool_p
I1130 10:23:03.185655 22323 net.cpp:434] inception_3a/pool_p <- pool2/3x3_s2_p_pool2/3x3_s2_p_0_split_3
I1130 10:23:03.185663 22323 net.cpp:408] inception_3a/pool_p -> inception_3a/pool_p
I1130 10:23:03.185734 22323 net.cpp:150] Setting up inception_3a/pool_p
I1130 10:23:03.185746 22323 net.cpp:157] Top shape: 100 192 20 10 (3840000)
I1130 10:23:03.185752 22323 net.cpp:165] Memory required for data: 2092161200
I1130 10:23:03.185761 22323 layer_factory.hpp:77] Creating layer inception_3a/pool_proj_p
I1130 10:23:03.185777 22323 net.cpp:100] Creating Layer inception_3a/pool_proj_p
I1130 10:23:03.185786 22323 net.cpp:434] inception_3a/pool_proj_p <- inception_3a/pool_p
I1130 10:23:03.185796 22323 net.cpp:408] inception_3a/pool_proj_p -> inception_3a/pool_proj_p
I1130 10:23:03.189263 22323 net.cpp:150] Setting up inception_3a/pool_proj_p
I1130 10:23:03.189293 22323 net.cpp:157] Top shape: 100 32 20 10 (640000)
I1130 10:23:03.189332 22323 net.cpp:165] Memory required for data: 2094721200
I1130 10:23:03.189342 22323 net.cpp:493] Sharing parameters 'inception_3a/pool_proj_w' owned by layer 'inception_3a/pool_proj', param index 0
I1130 10:23:03.189349 22323 net.cpp:493] Sharing parameters 'inception_3a/pool_proj_b' owned by layer 'inception_3a/pool_proj', param index 1
I1130 10:23:03.189357 22323 layer_factory.hpp:77] Creating layer inception_3a/relu_pool_proj_p
I1130 10:23:03.189368 22323 net.cpp:100] Creating Layer inception_3a/relu_pool_proj_p
I1130 10:23:03.189375 22323 net.cpp:434] inception_3a/relu_pool_proj_p <- inception_3a/pool_proj_p
I1130 10:23:03.189386 22323 net.cpp:395] inception_3a/relu_pool_proj_p -> inception_3a/pool_proj_p (in-place)
I1130 10:23:03.190407 22323 net.cpp:150] Setting up inception_3a/relu_pool_proj_p
I1130 10:23:03.190424 22323 net.cpp:157] Top shape: 100 32 20 10 (640000)
I1130 10:23:03.190431 22323 net.cpp:165] Memory required for data: 2097281200
I1130 10:23:03.190438 22323 layer_factory.hpp:77] Creating layer inception_3a/output_p
I1130 10:23:03.190449 22323 net.cpp:100] Creating Layer inception_3a/output_p
I1130 10:23:03.190459 22323 net.cpp:434] inception_3a/output_p <- inception_3a/1x1_p
I1130 10:23:03.190466 22323 net.cpp:434] inception_3a/output_p <- inception_3a/3x3_p
I1130 10:23:03.190472 22323 net.cpp:434] inception_3a/output_p <- inception_3a/5x5_p
I1130 10:23:03.190479 22323 net.cpp:434] inception_3a/output_p <- inception_3a/pool_proj_p
I1130 10:23:03.190486 22323 net.cpp:408] inception_3a/output_p -> inception_3a/output_p
I1130 10:23:03.190536 22323 net.cpp:150] Setting up inception_3a/output_p
I1130 10:23:03.190548 22323 net.cpp:157] Top shape: 100 256 20 10 (5120000)
I1130 10:23:03.190553 22323 net.cpp:165] Memory required for data: 2117761200
I1130 10:23:03.190559 22323 layer_factory.hpp:77] Creating layer inception_3a/output_p_inception_3a/output_p_0_split
I1130 10:23:03.190568 22323 net.cpp:100] Creating Layer inception_3a/output_p_inception_3a/output_p_0_split
I1130 10:23:03.190574 22323 net.cpp:434] inception_3a/output_p_inception_3a/output_p_0_split <- inception_3a/output_p
I1130 10:23:03.190592 22323 net.cpp:408] inception_3a/output_p_inception_3a/output_p_0_split -> inception_3a/output_p_inception_3a/output_p_0_split_0
I1130 10:23:03.190600 22323 net.cpp:408] inception_3a/output_p_inception_3a/output_p_0_split -> inception_3a/output_p_inception_3a/output_p_0_split_1
I1130 10:23:03.190609 22323 net.cpp:408] inception_3a/output_p_inception_3a/output_p_0_split -> inception_3a/output_p_inception_3a/output_p_0_split_2
I1130 10:23:03.190618 22323 net.cpp:408] inception_3a/output_p_inception_3a/output_p_0_split -> inception_3a/output_p_inception_3a/output_p_0_split_3
I1130 10:23:03.190697 22323 net.cpp:150] Setting up inception_3a/output_p_inception_3a/output_p_0_split
I1130 10:23:03.190709 22323 net.cpp:157] Top shape: 100 256 20 10 (5120000)
I1130 10:23:03.190716 22323 net.cpp:157] Top shape: 100 256 20 10 (5120000)
I1130 10:23:03.190722 22323 net.cpp:157] Top shape: 100 256 20 10 (5120000)
I1130 10:23:03.190729 22323 net.cpp:157] Top shape: 100 256 20 10 (5120000)
I1130 10:23:03.190735 22323 net.cpp:165] Memory required for data: 2199681200
I1130 10:23:03.190744 22323 layer_factory.hpp:77] Creating layer inception_3b/1x1_p
I1130 10:23:03.190757 22323 net.cpp:100] Creating Layer inception_3b/1x1_p
I1130 10:23:03.190764 22323 net.cpp:434] inception_3b/1x1_p <- inception_3a/output_p_inception_3a/output_p_0_split_0
I1130 10:23:03.190775 22323 net.cpp:408] inception_3b/1x1_p -> inception_3b/1x1_p
I1130 10:23:03.193953 22323 net.cpp:150] Setting up inception_3b/1x1_p
I1130 10:23:03.193986 22323 net.cpp:157] Top shape: 100 128 20 10 (2560000)
I1130 10:23:03.193994 22323 net.cpp:165] Memory required for data: 2209921200
I1130 10:23:03.194001 22323 net.cpp:493] Sharing parameters 'inception_3b/1x1_w' owned by layer 'inception_3b/1x1', param index 0
I1130 10:23:03.194010 22323 net.cpp:493] Sharing parameters 'inception_3b/1x1_b' owned by layer 'inception_3b/1x1', param index 1
I1130 10:23:03.194027 22323 layer_factory.hpp:77] Creating layer inception_3b/relu_1x1_p
I1130 10:23:03.194041 22323 net.cpp:100] Creating Layer inception_3b/relu_1x1_p
I1130 10:23:03.194054 22323 net.cpp:434] inception_3b/relu_1x1_p <- inception_3b/1x1_p
I1130 10:23:03.194064 22323 net.cpp:395] inception_3b/relu_1x1_p -> inception_3b/1x1_p (in-place)
I1130 10:23:03.194496 22323 net.cpp:150] Setting up inception_3b/relu_1x1_p
I1130 10:23:03.194514 22323 net.cpp:157] Top shape: 100 128 20 10 (2560000)
I1130 10:23:03.194521 22323 net.cpp:165] Memory required for data: 2220161200
I1130 10:23:03.194527 22323 layer_factory.hpp:77] Creating layer inception_3b/3x3_reduce_p
I1130 10:23:03.194541 22323 net.cpp:100] Creating Layer inception_3b/3x3_reduce_p
I1130 10:23:03.194550 22323 net.cpp:434] inception_3b/3x3_reduce_p <- inception_3a/output_p_inception_3a/output_p_0_split_1
I1130 10:23:03.194560 22323 net.cpp:408] inception_3b/3x3_reduce_p -> inception_3b/3x3_reduce_p
I1130 10:23:03.197600 22323 net.cpp:150] Setting up inception_3b/3x3_reduce_p
I1130 10:23:03.197654 22323 net.cpp:157] Top shape: 100 128 20 10 (2560000)
I1130 10:23:03.197661 22323 net.cpp:165] Memory required for data: 2230401200
I1130 10:23:03.197679 22323 net.cpp:493] Sharing parameters 'inception_3b/3x3_reduce_w' owned by layer 'inception_3b/3x3_reduce', param index 0
I1130 10:23:03.197695 22323 net.cpp:493] Sharing parameters 'inception_3b/3x3_reduce_b' owned by layer 'inception_3b/3x3_reduce', param index 1
I1130 10:23:03.197702 22323 layer_factory.hpp:77] Creating layer inception_3b/relu_3x3_reduce_p
I1130 10:23:03.197713 22323 net.cpp:100] Creating Layer inception_3b/relu_3x3_reduce_p
I1130 10:23:03.197721 22323 net.cpp:434] inception_3b/relu_3x3_reduce_p <- inception_3b/3x3_reduce_p
I1130 10:23:03.197729 22323 net.cpp:395] inception_3b/relu_3x3_reduce_p -> inception_3b/3x3_reduce_p (in-place)
I1130 10:23:03.198604 22323 net.cpp:150] Setting up inception_3b/relu_3x3_reduce_p
I1130 10:23:03.198637 22323 net.cpp:157] Top shape: 100 128 20 10 (2560000)
I1130 10:23:03.198643 22323 net.cpp:165] Memory required for data: 2240641200
I1130 10:23:03.198660 22323 layer_factory.hpp:77] Creating layer inception_3b/3x3_p
I1130 10:23:03.198678 22323 net.cpp:100] Creating Layer inception_3b/3x3_p
I1130 10:23:03.198685 22323 net.cpp:434] inception_3b/3x3_p <- inception_3b/3x3_reduce_p
I1130 10:23:03.198695 22323 net.cpp:408] inception_3b/3x3_p -> inception_3b/3x3_p
I1130 10:23:03.202347 22323 net.cpp:150] Setting up inception_3b/3x3_p
I1130 10:23:03.202389 22323 net.cpp:157] Top shape: 100 192 20 10 (3840000)
I1130 10:23:03.202397 22323 net.cpp:165] Memory required for data: 2256001200
I1130 10:23:03.202407 22323 net.cpp:493] Sharing parameters 'inception_3b/3x3_w' owned by layer 'inception_3b/3x3', param index 0
I1130 10:23:03.202416 22323 net.cpp:493] Sharing parameters 'inception_3b/3x3_b' owned by layer 'inception_3b/3x3', param index 1
I1130 10:23:03.202424 22323 layer_factory.hpp:77] Creating layer inception_3b/relu_3x3_p
I1130 10:23:03.202438 22323 net.cpp:100] Creating Layer inception_3b/relu_3x3_p
I1130 10:23:03.202446 22323 net.cpp:434] inception_3b/relu_3x3_p <- inception_3b/3x3_p
I1130 10:23:03.202455 22323 net.cpp:395] inception_3b/relu_3x3_p -> inception_3b/3x3_p (in-place)
I1130 10:23:03.203269 22323 net.cpp:150] Setting up inception_3b/relu_3x3_p
I1130 10:23:03.203286 22323 net.cpp:157] Top shape: 100 192 20 10 (3840000)
I1130 10:23:03.203292 22323 net.cpp:165] Memory required for data: 2271361200
I1130 10:23:03.203299 22323 layer_factory.hpp:77] Creating layer inception_3b/5x5_reduce_p
I1130 10:23:03.203315 22323 net.cpp:100] Creating Layer inception_3b/5x5_reduce_p
I1130 10:23:03.203322 22323 net.cpp:434] inception_3b/5x5_reduce_p <- inception_3a/output_p_inception_3a/output_p_0_split_2
I1130 10:23:03.203335 22323 net.cpp:408] inception_3b/5x5_reduce_p -> inception_3b/5x5_reduce_p
I1130 10:23:03.206894 22323 net.cpp:150] Setting up inception_3b/5x5_reduce_p
I1130 10:23:03.206933 22323 net.cpp:157] Top shape: 100 32 20 10 (640000)
I1130 10:23:03.206954 22323 net.cpp:165] Memory required for data: 2273921200
I1130 10:23:03.206962 22323 net.cpp:493] Sharing parameters 'inception_3b/5x5_reduce_w' owned by layer 'inception_3b/5x5_reduce', param index 0
I1130 10:23:03.206970 22323 net.cpp:493] Sharing parameters 'inception_3b/5x5_reduce_b' owned by layer 'inception_3b/5x5_reduce', param index 1
I1130 10:23:03.206977 22323 layer_factory.hpp:77] Creating layer inception_3b/relu_5x5_reduce_p
I1130 10:23:03.206992 22323 net.cpp:100] Creating Layer inception_3b/relu_5x5_reduce_p
I1130 10:23:03.207015 22323 net.cpp:434] inception_3b/relu_5x5_reduce_p <- inception_3b/5x5_reduce_p
I1130 10:23:03.207023 22323 net.cpp:395] inception_3b/relu_5x5_reduce_p -> inception_3b/5x5_reduce_p (in-place)
I1130 10:23:03.207916 22323 net.cpp:150] Setting up inception_3b/relu_5x5_reduce_p
I1130 10:23:03.207937 22323 net.cpp:157] Top shape: 100 32 20 10 (640000)
I1130 10:23:03.207943 22323 net.cpp:165] Memory required for data: 2276481200
I1130 10:23:03.207953 22323 layer_factory.hpp:77] Creating layer inception_3b/5x5_p
I1130 10:23:03.207969 22323 net.cpp:100] Creating Layer inception_3b/5x5_p
I1130 10:23:03.207978 22323 net.cpp:434] inception_3b/5x5_p <- inception_3b/5x5_reduce_p
I1130 10:23:03.207989 22323 net.cpp:408] inception_3b/5x5_p -> inception_3b/5x5_p
I1130 10:23:03.211716 22323 net.cpp:150] Setting up inception_3b/5x5_p
I1130 10:23:03.211751 22323 net.cpp:157] Top shape: 100 96 20 10 (1920000)
I1130 10:23:03.211760 22323 net.cpp:165] Memory required for data: 2284161200
I1130 10:23:03.211767 22323 net.cpp:493] Sharing parameters 'inception_3b/5x5_w' owned by layer 'inception_3b/5x5', param index 0
I1130 10:23:03.211776 22323 net.cpp:493] Sharing parameters 'inception_3b/5x5_b' owned by layer 'inception_3b/5x5', param index 1
I1130 10:23:03.211782 22323 layer_factory.hpp:77] Creating layer inception_3b/relu_5x5_p
I1130 10:23:03.211792 22323 net.cpp:100] Creating Layer inception_3b/relu_5x5_p
I1130 10:23:03.211799 22323 net.cpp:434] inception_3b/relu_5x5_p <- inception_3b/5x5_p
I1130 10:23:03.211810 22323 net.cpp:395] inception_3b/relu_5x5_p -> inception_3b/5x5_p (in-place)
I1130 10:23:03.212858 22323 net.cpp:150] Setting up inception_3b/relu_5x5_p
I1130 10:23:03.212887 22323 net.cpp:157] Top shape: 100 96 20 10 (1920000)
I1130 10:23:03.212893 22323 net.cpp:165] Memory required for data: 2291841200
…
I1130 10:23:10.870299 22323 net.cpp:165] Memory required for data: 267744120
I1130 10:23:10.870308 22323 net.cpp:493] Sharing parameters 'inception_4d/3x3_reduce_w' owned by layer 'inception_4d/3x3_reduce', param index 0
I1130 10:23:10.870324 22323 net.cpp:493] Sharing parameters 'inception_4d/3x3_reduce_b' owned by layer 'inception_4d/3x3_reduce', param index 1
I1130 10:23:10.870331 22323 layer_factory.hpp:77] Creating layer inception_4d/relu_3x3_reduce_p
I1130 10:23:10.870342 22323 net.cpp:100] Creating Layer inception_4d/relu_3x3_reduce_p
I1130 10:23:10.870349 22323 net.cpp:434] inception_4d/relu_3x3_reduce_p <- inception_4d/3x3_reduce_p
I1130 10:23:10.870357 22323 net.cpp:395] inception_4d/relu_3x3_reduce_p -> inception_4d/3x3_reduce_p (in-place)
I1130 10:23:10.870523 22323 net.cpp:150] Setting up inception_4d/relu_3x3_reduce_p
I1130 10:23:10.870537 22323 net.cpp:157] Top shape: 10 144 10 5 (72000)
I1130 10:23:10.870543 22323 net.cpp:165] Memory required for data: 268032120
I1130 10:23:10.870549 22323 layer_factory.hpp:77] Creating layer inception_4d/3x3_p
I1130 10:23:10.870563 22323 net.cpp:100] Creating Layer inception_4d/3x3_p
I1130 10:23:10.870570 22323 net.cpp:434] inception_4d/3x3_p <- inception_4d/3x3_reduce_p
I1130 10:23:10.870580 22323 net.cpp:408] inception_4d/3x3_p -> inception_4d/3x3_p
I1130 10:23:10.876482 22323 net.cpp:150] Setting up inception_4d/3x3_p
I1130 10:23:10.876526 22323 net.cpp:157] Top shape: 10 288 10 5 (144000)
I1130 10:23:10.876533 22323 net.cpp:165] Memory required for data: 268608120
I1130 10:23:10.876543 22323 net.cpp:493] Sharing parameters 'inception_4d/3x3_w' owned by layer 'inception_4d/3x3', param index 0
I1130 10:23:10.876567 22323 net.cpp:493] Sharing parameters 'inception_4d/3x3_b' owned by layer 'inception_4d/3x3', param index 1
I1130 10:23:10.876577 22323 layer_factory.hpp:77] Creating layer inception_4d/relu_3x3_p
I1130 10:23:10.876587 22323 net.cpp:100] Creating Layer inception_4d/relu_3x3_p
I1130 10:23:10.876596 22323 net.cpp:434] inception_4d/relu_3x3_p <- inception_4d/3x3_p
I1130 10:23:10.876606 22323 net.cpp:395] inception_4d/relu_3x3_p -> inception_4d/3x3_p (in-place)
I1130 10:23:10.877355 22323 net.cpp:150] Setting up inception_4d/relu_3x3_p
I1130 10:23:10.877388 22323 net.cpp:157] Top shape: 10 288 10 5 (144000)
I1130 10:23:10.877393 22323 net.cpp:165] Memory required for data: 269184120
I1130 10:23:10.877399 22323 layer_factory.hpp:77] Creating layer inception_4d/5x5_reduce_p
I1130 10:23:10.877423 22323 net.cpp:100] Creating Layer inception_4d/5x5_reduce_p
I1130 10:23:10.877430 22323 net.cpp:434] inception_4d/5x5_reduce_p <- inception_4c/output_p_inception_4c/output_p_0_split_2
I1130 10:23:10.877441 22323 net.cpp:408] inception_4d/5x5_reduce_p -> inception_4d/5x5_reduce_p
I1130 10:23:10.880976 22323 net.cpp:150] Setting up inception_4d/5x5_reduce_p
I1130 10:23:10.881014 22323 net.cpp:157] Top shape: 10 32 10 5 (16000)
I1130 10:23:10.881021 22323 net.cpp:165] Memory required for data: 269248120
I1130 10:23:10.881036 22323 net.cpp:493] Sharing parameters 'inception_4d/5x5_reduce_w' owned by layer 'inception_4d/5x5_reduce', param index 0
I1130 10:23:10.881044 22323 net.cpp:493] Sharing parameters 'inception_4d/5x5_reduce_b' owned by layer 'inception_4d/5x5_reduce', param index 1
I1130 10:23:10.881050 22323 layer_factory.hpp:77] Creating layer inception_4d/relu_5x5_reduce_p
I1130 10:23:10.881059 22323 net.cpp:100] Creating Layer inception_4d/relu_5x5_reduce_p
I1130 10:23:10.881067 22323 net.cpp:434] inception_4d/relu_5x5_reduce_p <- inception_4d/5x5_reduce_p
I1130 10:23:10.881084 22323 net.cpp:395] inception_4d/relu_5x5_reduce_p -> inception_4d/5x5_reduce_p (in-place)
I1130 10:23:10.883018 22323 net.cpp:150] Setting up inception_4d/relu_5x5_reduce_p
I1130 10:23:10.883040 22323 net.cpp:157] Top shape: 10 32 10 5 (16000)
I1130 10:23:10.883046 22323 net.cpp:165] Memory required for data: 269312120
I1130 10:23:10.883052 22323 layer_factory.hpp:77] Creating layer inception_4d/5x5_p
I1130 10:23:10.883069 22323 net.cpp:100] Creating Layer inception_4d/5x5_p
I1130 10:23:10.883075 22323 net.cpp:434] inception_4d/5x5_p <- inception_4d/5x5_reduce_p
I1130 10:23:10.883091 22323 net.cpp:408] inception_4d/5x5_p -> inception_4d/5x5_p
I1130 10:23:10.886605 22323 net.cpp:150] Setting up inception_4d/5x5_p
I1130 10:23:10.886628 22323 net.cpp:157] Top shape: 10 64 10 5 (32000)
I1130 10:23:10.886636 22323 net.cpp:165] Memory required for data: 269440120
I1130 10:23:10.886656 22323 net.cpp:493] Sharing parameters 'inception_4d/5x5_w' owned by layer 'inception_4d/5x5', param index 0
I1130 10:23:10.886663 22323 net.cpp:493] Sharing parameters 'inception_4d/5x5_b' owned by layer 'inception_4d/5x5', param index 1
I1130 10:23:10.886679 22323 layer_factory.hpp:77] Creating layer inception_4d/relu_5x5_p
I1130 10:23:10.886696 22323 net.cpp:100] Creating Layer inception_4d/relu_5x5_p
I1130 10:23:10.886703 22323 net.cpp:434] inception_4d/relu_5x5_p <- inception_4d/5x5_p
I1130 10:23:10.886710 22323 net.cpp:395] inception_4d/relu_5x5_p -> inception_4d/5x5_p (in-place)
I1130 10:23:10.887596 22323 net.cpp:150] Setting up inception_4d/relu_5x5_p
I1130 10:23:10.887626 22323 net.cpp:157] Top shape: 10 64 10 5 (32000)
I1130 10:23:10.887632 22323 net.cpp:165] Memory required for data: 269568120
I1130 10:23:10.887637 22323 layer_factory.hpp:77] Creating layer inception_4d/pool_p
I1130 10:23:10.887646 22323 net.cpp:100] Creating Layer inception_4d/pool_p
I1130 10:23:10.887655 22323 net.cpp:434] inception_4d/pool_p <- inception_4c/output_p_inception_4c/output_p_0_split_3
I1130 10:23:10.887670 22323 net.cpp:408] inception_4d/pool_p -> inception_4d/pool_p
I1130 10:23:10.887748 22323 net.cpp:150] Setting up inception_4d/pool_p
I1130 10:23:10.887764 22323 net.cpp:157] Top shape: 10 512 10 5 (256000)
I1130 10:23:10.887787 22323 net.cpp:165] Memory required for data: 270592120
I1130 10:23:10.887794 22323 layer_factory.hpp:77] Creating layer inception_4d/pool_proj_p
I1130 10:23:10.887804 22323 net.cpp:100] Creating Layer inception_4d/pool_proj_p
I1130 10:23:10.887821 22323 net.cpp:434] inception_4d/pool_proj_p <- inception_4d/pool_p
I1130 10:23:10.887836 22323 net.cpp:408] inception_4d/pool_proj_p -> inception_4d/pool_proj_p
I1130 10:23:10.891206 22323 net.cpp:150] Setting up inception_4d/pool_proj_p
I1130 10:23:10.891243 22323 net.cpp:157] Top shape: 10 64 10 5 (32000)
I1130 10:23:10.891250 22323 net.cpp:165] Memory required for data: 270720120
I1130 10:23:10.891259 22323 net.cpp:493] Sharing parameters 'inception_4d/pool_proj_w' owned by layer 'inception_4d/pool_proj', param index 0
I1130 10:23:10.891268 22323 net.cpp:493] Sharing parameters 'inception_4d/pool_proj_b' owned by layer 'inception_4d/pool_proj', param index 1
I1130 10:23:10.891274 22323 layer_factory.hpp:77] Creating layer inception_4d/relu_pool_proj_p
I1130 10:23:10.891291 22323 net.cpp:100] Creating Layer inception_4d/relu_pool_proj_p
I1130 10:23:10.891299 22323 net.cpp:434] inception_4d/relu_pool_proj_p <- inception_4d/pool_proj_p
I1130 10:23:10.891307 22323 net.cpp:395] inception_4d/relu_pool_proj_p -> inception_4d/pool_proj_p (in-place)
I1130 10:23:10.892343 22323 net.cpp:150] Setting up inception_4d/relu_pool_proj_p
I1130 10:23:10.892374 22323 net.cpp:157] Top shape: 10 64 10 5 (32000)
I1130 10:23:10.892381 22323 net.cpp:165] Memory required for data: 270848120
I1130 10:23:10.892398 22323 layer_factory.hpp:77] Creating layer inception_4d/output_p
I1130 10:23:10.892415 22323 net.cpp:100] Creating Layer inception_4d/output_p
I1130 10:23:10.892422 22323 net.cpp:434] inception_4d/output_p <- inception_4d/1x1_p
I1130 10:23:10.892431 22323 net.cpp:434] inception_4d/output_p <- inception_4d/3x3_p
I1130 10:23:10.892436 22323 net.cpp:434] inception_4d/output_p <- inception_4d/5x5_p
I1130 10:23:10.892443 22323 net.cpp:434] inception_4d/output_p <- inception_4d/pool_proj_p
I1130 10:23:10.892452 22323 net.cpp:408] inception_4d/output_p -> inception_4d/output_p
I1130 10:23:10.892518 22323 net.cpp:150] Setting up inception_4d/output_p
I1130 10:23:10.892529 22323 net.cpp:157] Top shape: 10 528 10 5 (264000)
I1130 10:23:10.892534 22323 net.cpp:165] Memory required for data: 271904120
I1130 10:23:10.892540 22323 layer_factory.hpp:77] Creating layer inception_4d/output_p_inception_4d/output_p_0_split
I1130 10:23:10.892550 22323 net.cpp:100] Creating Layer inception_4d/output_p_inception_4d/output_p_0_split
I1130 10:23:10.892556 22323 net.cpp:434] inception_4d/output_p_inception_4d/output_p_0_split <- inception_4d/output_p
I1130 10:23:10.892563 22323 net.cpp:408] inception_4d/output_p_inception_4d/output_p_0_split -> inception_4d/output_p_inception_4d/output_p_0_split_0
I1130 10:23:10.892572 22323 net.cpp:408] inception_4d/output_p_inception_4d/output_p_0_split -> inception_4d/output_p_inception_4d/output_p_0_split_1
I1130 10:23:10.892581 22323 net.cpp:408] inception_4d/output_p_inception_4d/output_p_0_split -> inception_4d/output_p_inception_4d/output_p_0_split_2
I1130 10:23:10.892590 22323 net.cpp:408] inception_4d/output_p_inception_4d/output_p_0_split -> inception_4d/output_p_inception_4d/output_p_0_split_3
I1130 10:23:10.892679 22323 net.cpp:150] Setting up inception_4d/output_p_inception_4d/output_p_0_split
I1130 10:23:10.892696 22323 net.cpp:157] Top shape: 10 528 10 5 (264000)
I1130 10:23:10.892702 22323 net.cpp:157] Top shape: 10 528 10 5 (264000)
I1130 10:23:10.892709 22323 net.cpp:157] Top shape: 10 528 10 5 (264000)
I1130 10:23:10.892714 22323 net.cpp:157] Top shape: 10 528 10 5 (264000)
I1130 10:23:10.892720 22323 net.cpp:165] Memory required for data: 276128120
I1130 10:23:10.892725 22323 layer_factory.hpp:77] Creating layer inception_4e/1x1_p
I1130 10:23:10.892746 22323 net.cpp:100] Creating Layer inception_4e/1x1_p
I1130 10:23:10.892753 22323 net.cpp:434] inception_4e/1x1_p <- inception_4d/output_p_inception_4d/output_p_0_split_0
I1130 10:23:10.892782 22323 net.cpp:408] inception_4e/1x1_p -> inception_4e/1x1_p
I1130 10:23:10.895912 22323 net.cpp:150] Setting up inception_4e/1x1_p
I1130 10:23:10.895968 22323 net.cpp:157] Top shape: 10 256 10 5 (128000)
I1130 10:23:10.895989 22323 net.cpp:165] Memory required for data: 276640120
I1130 10:23:10.896008 22323 net.cpp:493] Sharing parameters 'inception_4e/1x1_w' owned by layer 'inception_4e/1x1', param index 0
I1130 10:23:10.896015 22323 net.cpp:493] Sharing parameters 'inception_4e/1x1_b' owned by layer 'inception_4e/1x1', param index 1
I1130 10:23:10.896021 22323 layer_factory.hpp:77] Creating layer inception_4e/relu_1x1_p
I1130 10:23:10.896034 22323 net.cpp:100] Creating Layer inception_4e/relu_1x1_p
I1130 10:23:10.896050 22323 net.cpp:434] inception_4e/relu_1x1_p <- inception_4e/1x1_p
I1130 10:23:10.896059 22323 net.cpp:395] inception_4e/relu_1x1_p -> inception_4e/1x1_p (in-place)
I1130 10:23:10.896903 22323 net.cpp:150] Setting up inception_4e/relu_1x1_p
I1130 10:23:10.896932 22323 net.cpp:157] Top shape: 10 256 10 5 (128000)
I1130 10:23:10.896939 22323 net.cpp:165] Memory required for data: 277152120
I1130 10:23:10.896956 22323 layer_factory.hpp:77] Creating layer inception_4e/3x3_reduce_p
I1130 10:23:10.896978 22323 net.cpp:100] Creating Layer inception_4e/3x3_reduce_p
I1130 10:23:10.896987 22323 net.cpp:434] inception_4e/3x3_reduce_p <- inception_4d/output_p_inception_4d/output_p_0_split_1
I1130 10:23:10.897006 22323 net.cpp:408] inception_4e/3x3_reduce_p -> inception_4e/3x3_reduce_p
I1130 10:23:10.900563 22323 net.cpp:150] Setting up inception_4e/3x3_reduce_p
I1130 10:23:10.900605 22323 net.cpp:157] Top shape: 10 160 10 5 (80000)
I1130 10:23:10.900612 22323 net.cpp:165] Memory required for data: 277472120
I1130 10:23:10.900624 22323 net.cpp:493] Sharing parameters 'inception_4e/3x3_reduce_w' owned by layer 'inception_4e/3x3_reduce', param index 0
I1130 10:23:10.900631 22323 net.cpp:493] Sharing parameters 'inception_4e/3x3_reduce_b' owned by layer 'inception_4e/3x3_reduce', param index 1
I1130 10:23:10.900638 22323 layer_factory.hpp:77] Creating layer inception_4e/relu_3x3_reduce_p
I1130 10:23:10.900650 22323 net.cpp:100] Creating Layer inception_4e/relu_3x3_reduce_p
I1130 10:23:10.900657 22323 net.cpp:434] inception_4e/relu_3x3_reduce_p <- inception_4e/3x3_reduce_p
I1130 10:23:10.900668 22323 net.cpp:395] inception_4e/relu_3x3_reduce_p -> inception_4e/3x3_reduce_p (in-place)
I1130 10:23:10.901469 22323 net.cpp:150] Setting up inception_4e/relu_3x3_reduce_p
I1130 10:23:10.901487 22323 net.cpp:157] Top shape: 10 160 10 5 (80000)
I1130 10:23:10.901494 22323 net.cpp:165] Memory required for data: 277792120
I1130 10:23:10.901500 22323 layer_factory.hpp:77] Creating layer inception_4e/3x3_p
I1130 10:23:10.901516 22323 net.cpp:100] Creating Layer inception_4e/3x3_p
I1130 10:23:10.901525 22323 net.cpp:434] inception_4e/3x3_p <- inception_4e/3x3_reduce_p
I1130 10:23:10.901533 22323 net.cpp:408] inception_4e/3x3_p -> inception_4e/3x3_p
I1130 10:23:10.907508 22323 net.cpp:150] Setting up inception_4e/3x3_p
I1130 10:23:10.907562 22323 net.cpp:157] Top shape: 10 320 10 5 (160000)
I1130 10:23:10.907578 22323 net.cpp:165] Memory required for data: 278432120
I1130 10:23:10.907593 22323 net.cpp:493] Sharing parameters 'inception_4e/3x3_w' owned by layer 'inception_4e/3x3', param index 0
I1130 10:23:10.907609 22323 net.cpp:493] Sharing parameters 'inception_4e/3x3_b' owned by layer 'inception_4e/3x3', param index 1
I1130 10:23:10.907625 22323 layer_factory.hpp:77] Creating layer inception_4e/relu_3x3_p
I1130 10:23:10.907645 22323 net.cpp:100] Creating Layer inception_4e/relu_3x3_p
I1130 10:23:10.907660 22323 net.cpp:434] inception_4e/relu_3x3_p <- inception_4e/3x3_p
I1130 10:23:10.907675 22323 net.cpp:395] inception_4e/relu_3x3_p -> inception_4e/3x3_p (in-place)
I1130 10:23:10.908175 22323 net.cpp:150] Setting up inception_4e/relu_3x3_p
I1130 10:23:10.908195 22323 net.cpp:157] Top shape: 10 320 10 5 (160000)
I1130 10:23:10.908201 22323 net.cpp:165] Memory required for data: 279072120
I1130 10:23:10.908221 22323 layer_factory.hpp:77] Creating layer inception_4e/5x5_reduce_p
I1130 10:23:10.908241 22323 net.cpp:100] Creating Layer inception_4e/5x5_reduce_p
I1130 10:23:10.908249 22323 net.cpp:434] inception_4e/5x5_reduce_p <- inception_4d/output_p_inception_4d/output_p_0_split_2
I1130 10:23:10.908262 22323 net.cpp:408] inception_4e/5x5_reduce_p -> inception_4e/5x5_reduce_p
I1130 10:23:10.912063 22323 net.cpp:150] Setting up inception_4e/5x5_reduce_p
I1130 10:23:10.912096 22323 net.cpp:157] Top shape: 10 32 10 5 (16000)
I1130 10:23:10.912103 22323 net.cpp:165] Memory required for data: 279136120
I1130 10:23:10.912113 22323 net.cpp:493] Sharing parameters 'inception_4e/5x5_reduce_w' owned by layer 'inception_4e/5x5_reduce', param index 0
I1130 10:23:10.912122 22323 net.cpp:493] Sharing parameters 'inception_4e/5x5_reduce_b' owned by layer 'inception_4e/5x5_reduce', param index 1
I1130 10:23:10.912128 22323 layer_factory.hpp:77] Creating layer inception_4e/relu_5x5_reduce_p
I1130 10:23:10.912140 22323 net.cpp:100] Creating Layer inception_4e/relu_5x5_reduce_p
I1130 10:23:10.912148 22323 net.cpp:434] inception_4e/relu_5x5_reduce_p <- inception_4e/5x5_reduce_p
I1130 10:23:10.912156 22323 net.cpp:395] inception_4e/relu_5x5_reduce_p -> inception_4e/5x5_reduce_p (in-place)
I1130 10:23:10.913007 22323 net.cpp:150] Setting up inception_4e/relu_5x5_reduce_p
I1130 10:23:10.913022 22323 net.cpp:157] Top shape: 10 32 10 5 (16000)
I1130 10:23:10.913028 22323 net.cpp:165] Memory required for data: 279200120
I1130 10:23:10.913034 22323 layer_factory.hpp:77] Creating layer inception_4e/5x5_p
I1130 10:23:10.913074 22323 net.cpp:100] Creating Layer inception_4e/5x5_p
I1130 10:23:10.913089 22323 net.cpp:434] inception_4e/5x5_p <- inception_4e/5x5_reduce_p
I1130 10:23:10.913099 22323 net.cpp:408] inception_4e/5x5_p -> inception_4e/5x5_p
I1130 10:23:10.916896 22323 net.cpp:150] Setting up inception_4e/5x5_p
I1130 10:23:10.916915 22323 net.cpp:157] Top shape: 10 128 10 5 (64000)
I1130 10:23:10.916923 22323 net.cpp:165] Memory required for data: 279456120
I1130 10:23:10.916931 22323 net.cpp:493] Sharing parameters 'inception_4e/5x5_w' owned by layer 'inception_4e/5x5', param index 0
I1130 10:23:10.916939 22323 net.cpp:493] Sharing parameters 'inception_4e/5x5_b' owned by layer 'inception_4e/5x5', param index 1
I1130 10:23:10.916949 22323 layer_factory.hpp:77] Creating layer inception_4e/relu_5x5_p
I1130 10:23:10.916959 22323 net.cpp:100] Creating Layer inception_4e/relu_5x5_p
I1130 10:23:10.916965 22323 net.cpp:434] inception_4e/relu_5x5_p <- inception_4e/5x5_p
I1130 10:23:10.916973 22323 net.cpp:395] inception_4e/relu_5x5_p -> inception_4e/5x5_p (in-place)
I1130 10:23:10.917904 22323 net.cpp:150] Setting up inception_4e/relu_5x5_p
I1130 10:23:10.917920 22323 net.cpp:157] Top shape: 10 128 10 5 (64000)
I1130 10:23:10.917927 22323 net.cpp:165] Memory required for data: 279712120
I1130 10:23:10.917932 22323 layer_factory.hpp:77] Creating layer inception_4e/pool_p
I1130 10:23:10.917943 22323 net.cpp:100] Creating Layer inception_4e/pool_p
I1130 10:23:10.917953 22323 net.cpp:434] inception_4e/pool_p <- inception_4d/output_p_inception_4d/output_p_0_split_3
I1130 10:23:10.917960 22323 net.cpp:408] inception_4e/pool_p -> inception_4e/pool_p
I1130 10:23:10.918041 22323 net.cpp:150] Setting up inception_4e/pool_p
I1130 10:23:10.918052 22323 net.cpp:157] Top shape: 10 528 10 5 (264000)
I1130 10:23:10.918057 22323 net.cpp:165] Memory required for data: 280768120
I1130 10:23:10.918063 22323 layer_factory.hpp:77] Creating layer inception_4e/pool_proj_p
I1130 10:23:10.918077 22323 net.cpp:100] Creating Layer inception_4e/pool_proj_p
I1130 10:23:10.918084 22323 net.cpp:434] inception_4e/pool_proj_p <- inception_4e/pool_p
I1130 10:23:10.918095 22323 net.cpp:408] inception_4e/pool_proj_p -> inception_4e/pool_proj_p
I1130 10:23:10.921667 22323 net.cpp:150] Setting up inception_4e/pool_proj_p
I1130 10:23:10.921694 22323 net.cpp:157] Top shape: 10 128 10 5 (64000)
I1130 10:23:10.921700 22323 net.cpp:165] Memory required for data: 281024120
I1130 10:23:10.921723 22323 net.cpp:493] Sharing parameters 'inception_4e/pool_proj_w' owned by layer 'inception_4e/pool_proj', param index 0
I1130 10:23:10.921732 22323 net.cpp:493] Sharing parameters 'inception_4e/pool_proj_b' owned by layer 'inception_4e/pool_proj', param index 1
I1130 10:23:10.921744 22323 layer_factory.hpp:77] Creating layer inception_4e/relu_pool_proj_p
I1130 10:23:10.921754 22323 net.cpp:100] Creating Layer inception_4e/relu_pool_proj_p
I1130 10:23:10.921761 22323 net.cpp:434] inception_4e/relu_pool_proj_p <- inception_4e/pool_proj_p
I1130 10:23:10.921771 22323 net.cpp:395] inception_4e/relu_pool_proj_p -> inception_4e/pool_proj_p (in-place)
I1130 10:23:10.922679 22323 net.cpp:150] Setting up inception_4e/relu_pool_proj_p
I1130 10:23:10.922698 22323 net.cpp:157] Top shape: 10 128 10 5 (64000)
I1130 10:23:10.922703 22323 net.cpp:165] Memory required for data: 281280120
I1130 10:23:10.922710 22323 layer_factory.hpp:77] Creating layer inception_4e/output_p
I1130 10:23:10.922724 22323 net.cpp:100] Creating Layer inception_4e/output_p
I1130 10:23:10.922730 22323 net.cpp:434] inception_4e/output_p <- inception_4e/1x1_p
I1130 10:23:10.922739 22323 net.cpp:434] inception_4e/output_p <- inception_4e/3x3_p
I1130 10:23:10.922746 22323 net.cpp:434] inception_4e/output_p <- inception_4e/5x5_p
I1130 10:23:10.922754 22323 net.cpp:434] inception_4e/output_p <- inception_4e/pool_proj_p
I1130 10:23:10.922762 22323 net.cpp:408] inception_4e/output_p -> inception_4e/output_p
I1130 10:23:10.922816 22323 net.cpp:150] Setting up inception_4e/output_p
I1130 10:23:10.922829 22323 net.cpp:157] Top shape: 10 832 10 5 (416000)
I1130 10:23:10.922837 22323 net.cpp:165] Memory required for data: 282944120
I1130 10:23:10.922842 22323 layer_factory.hpp:77] Creating layer inception_4e/output_p_inception_4e/output_p_0_split
I1130 10:23:10.922852 22323 net.cpp:100] Creating Layer inception_4e/output_p_inception_4e/output_p_0_split
I1130 10:23:10.922860 22323 net.cpp:434] inception_4e/output_p_inception_4e/output_p_0_split <- inception_4e/output_p
I1130 10:23:10.922868 22323 net.cpp:408] inception_4e/output_p_inception_4e/output_p_0_split -> inception_4e/output_p_inception_4e/output_p_0_split_0
I1130 10:23:10.922878 22323 net.cpp:408] inception_4e/output_p_inception_4e/output_p_0_split -> inception_4e/output_p_inception_4e/output_p_0_split_1
I1130 10:23:10.922886 22323 net.cpp:408] inception_4e/output_p_inception_4e/output_p_0_split -> inception_4e/output_p_inception_4e/output_p_0_split_2
I1130 10:23:10.922895 22323 net.cpp:408] inception_4e/output_p_inception_4e/output_p_0_split -> inception_4e/output_p_inception_4e/output_p_0_split_3
I1130 10:23:10.923008 22323 net.cpp:150] Setting up inception_4e/output_p_inception_4e/output_p_0_split
I1130 10:23:10.923020 22323 net.cpp:157] Top shape: 10 832 10 5 (416000)
I1130 10:23:10.923027 22323 net.cpp:157] Top shape: 10 832 10 5 (416000)
I1130 10:23:10.923034 22323 net.cpp:157] Top shape: 10 832 10 5 (416000)
I1130 10:23:10.923040 22323 net.cpp:157] Top shape: 10 832 10 5 (416000)
I1130 10:23:10.923045 22323 net.cpp:165] Memory required for data: 289600120
I1130 10:23:10.923053 22323 layer_factory.hpp:77] Creating layer inception_5a/1x1_p
I1130 10:23:10.923064 22323 net.cpp:100] Creating Layer inception_5a/1x1_p
I1130 10:23:10.923072 22323 net.cpp:434] inception_5a/1x1_p <- inception_4e/output_p_inception_4e/output_p_0_split_0
I1130 10:23:10.923082 22323 net.cpp:408] inception_5a/1x1_p -> inception_5a/1x1_p
I1130 10:23:10.927811 22323 net.cpp:150] Setting up inception_5a/1x1_p
I1130 10:23:10.927836 22323 net.cpp:157] Top shape: 10 256 10 5 (128000)
I1130 10:23:10.927844 22323 net.cpp:165] Memory required for data: 290112120
I1130 10:23:10.927853 22323 net.cpp:493] Sharing parameters 'inception_5a/1x1_w' owned by layer 'inception_5a/1x1', param index 0
I1130 10:23:10.927860 22323 net.cpp:493] Sharing parameters 'inception_5a/1x1_b' owned by layer 'inception_5a/1x1', param index 1
I1130 10:23:10.927870 22323 layer_factory.hpp:77] Creating layer inception_5a/relu_1x1_p
I1130 10:23:10.927881 22323 net.cpp:100] Creating Layer inception_5a/relu_1x1_p
I1130 10:23:10.927898 22323 net.cpp:434] inception_5a/relu_1x1_p <- inception_5a/1x1_p
I1130 10:23:10.927907 22323 net.cpp:395] inception_5a/relu_1x1_p -> inception_5a/1x1_p (in-place)
I1130 10:23:10.928467 22323 net.cpp:150] Setting up inception_5a/relu_1x1_p
I1130 10:23:10.928481 22323 net.cpp:157] Top shape: 10 256 10 5 (128000)
I1130 10:23:10.928488 22323 net.cpp:165] Memory required for data: 290624120
I1130 10:23:10.928494 22323 layer_factory.hpp:77] Creating layer inception_5a/3x3_reduce_p
I1130 10:23:10.928506 22323 net.cpp:100] Creating Layer inception_5a/3x3_reduce_p
I1130 10:23:10.928514 22323 net.cpp:434] inception_5a/3x3_reduce_p <- inception_4e/output_p_inception_4e/output_p_0_split_1
I1130 10:23:10.928522 22323 net.cpp:408] inception_5a/3x3_reduce_p -> inception_5a/3x3_reduce_p
I1130 10:23:10.932006 22323 net.cpp:150] Setting up inception_5a/3x3_reduce_p
I1130 10:23:10.932050 22323 net.cpp:157] Top shape: 10 160 10 5 (80000)
I1130 10:23:10.932056 22323 net.cpp:165] Memory required for data: 290944120
I1130 10:23:10.932075 22323 net.cpp:493] Sharing parameters 'inception_5a/3x3_reduce_w' owned by layer 'inception_5a/3x3_reduce', param index 0
I1130 10:23:10.932090 22323 net.cpp:493] Sharing parameters 'inception_5a/3x3_reduce_b' owned by layer 'inception_5a/3x3_reduce', param index 1
I1130 10:23:10.932096 22323 layer_factory.hpp:77] Creating layer inception_5a/relu_3x3_reduce_p
I1130 10:23:10.932107 22323 net.cpp:100] Creating Layer inception_5a/relu_3x3_reduce_p
I1130 10:23:10.932114 22323 net.cpp:434] inception_5a/relu_3x3_reduce_p <- inception_5a/3x3_reduce_p
I1130 10:23:10.932124 22323 net.cpp:395] inception_5a/relu_3x3_reduce_p -> inception_5a/3x3_reduce_p (in-place)
I1130 10:23:10.932469 22323 net.cpp:150] Setting up inception_5a/relu_3x3_reduce_p
I1130 10:23:10.932500 22323 net.cpp:157] Top shape: 10 160 10 5 (80000)
I1130 10:23:10.932507 22323 net.cpp:165] Memory required for data: 291264120
I1130 10:23:10.932513 22323 layer_factory.hpp:77] Creating layer inception_5a/3x3_p
I1130 10:23:10.932533 22323 net.cpp:100] Creating Layer inception_5a/3x3_p
I1130 10:23:10.932541 22323 net.cpp:434] inception_5a/3x3_p <- inception_5a/3x3_reduce_p
I1130 10:23:10.932559 22323 net.cpp:408] inception_5a/3x3_p -> inception_5a/3x3_p
I1130 10:23:10.938978 22323 net.cpp:150] Setting up inception_5a/3x3_p
I1130 10:23:10.939019 22323 net.cpp:157] Top shape: 10 320 10 5 (160000)
I1130 10:23:10.939028 22323 net.cpp:165] Memory required for data: 291904120
I1130 10:23:10.939038 22323 net.cpp:493] Sharing parameters 'inception_5a/3x3_w' owned by layer 'inception_5a/3x3', param index 0
I1130 10:23:10.939045 22323 net.cpp:493] Sharing parameters 'inception_5a/3x3_b' owned by layer 'inception_5a/3x3', param index 1
I1130 10:23:10.939055 22323 layer_factory.hpp:77] Creating layer inception_5a/relu_3x3_p
I1130 10:23:10.939072 22323 net.cpp:100] Creating Layer inception_5a/relu_3x3_p
I1130 10:23:10.939081 22323 net.cpp:434] inception_5a/relu_3x3_p <- inception_5a/3x3_p
I1130 10:23:10.939091 22323 net.cpp:395] inception_5a/relu_3x3_p -> inception_5a/3x3_p (in-place)
I1130 10:23:10.939539 22323 net.cpp:150] Setting up inception_5a/relu_3x3_p
I1130 10:23:10.939555 22323 net.cpp:157] Top shape: 10 320 10 5 (160000)
I1130 10:23:10.939563 22323 net.cpp:165] Memory required for data: 292544120
I1130 10:23:10.939568 22323 layer_factory.hpp:77] Creating layer inception_5a/5x5_reduce_p
I1130 10:23:10.939585 22323 net.cpp:100] Creating Layer inception_5a/5x5_reduce_p
I1130 10:23:10.939594 22323 net.cpp:434] inception_5a/5x5_reduce_p <- inception_4e/output_p_inception_4e/output_p_0_split_2
I1130 10:23:10.939604 22323 net.cpp:408] inception_5a/5x5_reduce_p -> inception_5a/5x5_reduce_p
I1130 10:23:10.943322 22323 net.cpp:150] Setting up inception_5a/5x5_reduce_p
I1130 10:23:10.943344 22323 net.cpp:157] Top shape: 10 32 10 5 (16000)
I1130 10:23:10.943351 22323 net.cpp:165] Memory required for data: 292608120
I1130 10:23:10.943359 22323 net.cpp:493] Sharing parameters 'inception_5a/5x5_reduce_w' owned by layer 'inception_5a/5x5_reduce', param index 0
I1130 10:23:10.943378 22323 net.cpp:493] Sharing parameters 'inception_5a/5x5_reduce_b' owned by layer 'inception_5a/5x5_reduce', param index 1
I1130 10:23:10.943385 22323 layer_factory.hpp:77] Creating layer inception_5a/relu_5x5_reduce_p
I1130 10:23:10.943398 22323 net.cpp:100] Creating Layer inception_5a/relu_5x5_reduce_p
I1130 10:23:10.943406 22323 net.cpp:434] inception_5a/relu_5x5_reduce_p <- inception_5a/5x5_reduce_p
I1130 10:23:10.943413 22323 net.cpp:395] inception_5a/relu_5x5_reduce_p -> inception_5a/5x5_reduce_p (in-place)
I1130 10:23:10.944072 22323 net.cpp:150] Setting up inception_5a/relu_5x5_reduce_p
I1130 10:23:10.944085 22323 net.cpp:157] Top shape: 10 32 10 5 (16000)
I1130 10:23:10.944092 22323 net.cpp:165] Memory required for data: 292672120
I1130 10:23:10.944100 22323 layer_factory.hpp:77] Creating layer inception_5a/5x5_p
I1130 10:23:10.944113 22323 net.cpp:100] Creating Layer inception_5a/5x5_p
I1130 10:23:10.944120 22323 net.cpp:434] inception_5a/5x5_p <- inception_5a/5x5_reduce_p
I1130 10:23:10.944130 22323 net.cpp:408] inception_5a/5x5_p -> inception_5a/5x5_p
I1130 10:23:10.947602 22323 net.cpp:150] Setting up inception_5a/5x5_p
I1130 10:23:10.947626 22323 net.cpp:157] Top shape: 10 128 10 5 (64000)
I1130 10:23:10.947633 22323 net.cpp:165] Memory required for data: 292928120
I1130 10:23:10.947641 22323 net.cpp:493] Sharing parameters 'inception_5a/5x5_w' owned by layer 'inception_5a/5x5', param index 0
I1130 10:23:10.947649 22323 net.cpp:493] Sharing parameters 'inception_5a/5x5_b' owned by layer 'inception_5a/5x5', param index 1
I1130 10:23:10.947655 22323 layer_factory.hpp:77] Creating layer inception_5a/relu_5x5_p
I1130 10:23:10.947666 22323 net.cpp:100] Creating Layer inception_5a/relu_5x5_p
I1130 10:23:10.947674 22323 net.cpp:434] inception_5a/relu_5x5_p <- inception_5a/5x5_p
I1130 10:23:10.947682 22323 net.cpp:395] inception_5a/relu_5x5_p -> inception_5a/5x5_p (in-place)
I1130 10:23:10.948629 22323 net.cpp:150] Setting up inception_5a/relu_5x5_p
I1130 10:23:10.948643 22323 net.cpp:157] Top shape: 10 128 10 5 (64000)
I1130 10:23:10.948650 22323 net.cpp:165] Memory required for data: 293184120
I1130 10:23:10.948657 22323 layer_factory.hpp:77] Creating layer inception_5a/pool_p
I1130 10:23:10.948667 22323 net.cpp:100] Creating Layer inception_5a/pool_p
I1130 10:23:10.948673 22323 net.cpp:434] inception_5a/pool_p <- inception_4e/output_p_inception_4e/output_p_0_split_3
I1130 10:23:10.948683 22323 net.cpp:408] inception_5a/pool_p -> inception_5a/pool_p
I1130 10:23:10.948731 22323 net.cpp:150] Setting up inception_5a/pool_p
I1130 10:23:10.948740 22323 net.cpp:157] Top shape: 10 832 10 5 (416000)
I1130 10:23:10.948747 22323 net.cpp:165] Memory required for data: 294848120
I1130 10:23:10.948752 22323 layer_factory.hpp:77] Creating layer inception_5a/pool_proj_p
I1130 10:23:10.948767 22323 net.cpp:100] Creating Layer inception_5a/pool_proj_p
I1130 10:23:10.948774 22323 net.cpp:434] inception_5a/pool_proj_p <- inception_5a/pool_p
I1130 10:23:10.948784 22323 net.cpp:408] inception_5a/pool_proj_p -> inception_5a/pool_proj_p
I1130 10:23:10.953748 22323 net.cpp:150] Setting up inception_5a/pool_proj_p
I1130 10:23:10.953773 22323 net.cpp:157] Top shape: 10 128 10 5 (64000)
I1130 10:23:10.953780 22323 net.cpp:165] Memory required for data: 295104120
I1130 10:23:10.953788 22323 net.cpp:493] Sharing parameters 'inception_5a/pool_proj_w' owned by layer 'inception_5a/pool_proj', param index 0
I1130 10:23:10.953796 22323 net.cpp:493] Sharing parameters 'inception_5a/pool_proj_b' owned by layer 'inception_5a/pool_proj', param index 1
I1130 10:23:10.953805 22323 layer_factory.hpp:77] Creating layer inception_5a/relu_pool_proj_p
I1130 10:23:10.953827 22323 net.cpp:100] Creating Layer inception_5a/relu_pool_proj_p
I1130 10:23:10.953835 22323 net.cpp:434] inception_5a/relu_pool_proj_p <- inception_5a/pool_proj_p
I1130 10:23:10.953845 22323 net.cpp:395] inception_5a/relu_pool_proj_p -> inception_5a/pool_proj_p (in-place)
I1130 10:23:10.955173 22323 net.cpp:150] Setting up inception_5a/relu_pool_proj_p
I1130 10:23:10.955199 22323 net.cpp:157] Top shape: 10 128 10 5 (64000)
I1130 10:23:10.955205 22323 net.cpp:165] Memory required for data: 295360120
I1130 10:23:10.955211 22323 layer_factory.hpp:77] Creating layer inception_5a/output_p
I1130 10:23:10.955224 22323 net.cpp:100] Creating Layer inception_5a/output_p
I1130 10:23:10.955231 22323 net.cpp:434] inception_5a/output_p <- inception_5a/1x1_p
I1130 10:23:10.955240 22323 net.cpp:434] inception_5a/output_p <- inception_5a/3x3_p
I1130 10:23:10.955247 22323 net.cpp:434] inception_5a/output_p <- inception_5a/5x5_p
I1130 10:23:10.955253 22323 net.cpp:434] inception_5a/output_p <- inception_5a/pool_proj_p
I1130 10:23:10.955261 22323 net.cpp:408] inception_5a/output_p -> inception_5a/output_p
I1130 10:23:10.955296 22323 net.cpp:150] Setting up inception_5a/output_p
I1130 10:23:10.955307 22323 net.cpp:157] Top shape: 10 832 10 5 (416000)
I1130 10:23:10.955313 22323 net.cpp:165] Memory required for data: 297024120
I1130 10:23:10.955319 22323 layer_factory.hpp:77] Creating layer inception_5a/output_p_inception_5a/output_p_0_split
I1130 10:23:10.955327 22323 net.cpp:100] Creating Layer inception_5a/output_p_inception_5a/output_p_0_split
I1130 10:23:10.955334 22323 net.cpp:434] inception_5a/output_p_inception_5a/output_p_0_split <- inception_5a/output_p
I1130 10:23:10.955343 22323 net.cpp:408] inception_5a/output_p_inception_5a/output_p_0_split -> inception_5a/output_p_inception_5a/output_p_0_split_0
I1130 10:23:10.955353 22323 net.cpp:408] inception_5a/output_p_inception_5a/output_p_0_split -> inception_5a/output_p_inception_5a/output_p_0_split_1
I1130 10:23:10.955361 22323 net.cpp:408] inception_5a/output_p_inception_5a/output_p_0_split -> inception_5a/output_p_inception_5a/output_p_0_split_2
I1130 10:23:10.955368 22323 net.cpp:408] inception_5a/output_p_inception_5a/output_p_0_split -> inception_5a/output_p_inception_5a/output_p_0_split_3
I1130 10:23:10.955425 22323 net.cpp:150] Setting up inception_5a/output_p_inception_5a/output_p_0_split
I1130 10:23:10.955435 22323 net.cpp:157] Top shape: 10 832 10 5 (416000)
I1130 10:23:10.955441 22323 net.cpp:157] Top shape: 10 832 10 5 (416000)
I1130 10:23:10.955447 22323 net.cpp:157] Top shape: 10 832 10 5 (416000)
I1130 10:23:10.955453 22323 net.cpp:157] Top shape: 10 832 10 5 (416000)
I1130 10:23:10.955459 22323 net.cpp:165] Memory required for data: 303680120
I1130 10:23:10.955466 22323 layer_factory.hpp:77] Creating layer inception_5b/1x1_p
I1130 10:23:10.955480 22323 net.cpp:100] Creating Layer inception_5b/1x1_p
I1130 10:23:10.955488 22323 net.cpp:434] inception_5b/1x1_p <- inception_5a/output_p_inception_5a/output_p_0_split_0
I1130 10:23:10.955498 22323 net.cpp:408] inception_5b/1x1_p -> inception_5b/1x1_p
I1130 10:23:10.958999 22323 net.cpp:150] Setting up inception_5b/1x1_p
I1130 10:23:10.959050 22323 net.cpp:157] Top shape: 10 384 10 5 (192000)
I1130 10:23:10.959058 22323 net.cpp:165] Memory required for data: 304448120
I1130 10:23:10.959075 22323 net.cpp:493] Sharing parameters 'inception_5b/1x1_w' owned by layer 'inception_5b/1x1', param index 0
I1130 10:23:10.959084 22323 net.cpp:493] Sharing parameters 'inception_5b/1x1_b' owned by layer 'inception_5b/1x1', param index 1
I1130 10:23:10.959094 22323 layer_factory.hpp:77] Creating layer inception_5b/relu_1x1_p
I1130 10:23:10.959103 22323 net.cpp:100] Creating Layer inception_5b/relu_1x1_p
I1130 10:23:10.959111 22323 net.cpp:434] inception_5b/relu_1x1_p <- inception_5b/1x1_p
I1130 10:23:10.959127 22323 net.cpp:395] inception_5b/relu_1x1_p -> inception_5b/1x1_p (in-place)
I1130 10:23:10.959303 22323 net.cpp:150] Setting up inception_5b/relu_1x1_p
I1130 10:23:10.959317 22323 net.cpp:157] Top shape: 10 384 10 5 (192000)
I1130 10:23:10.959323 22323 net.cpp:165] Memory required for data: 305216120
I1130 10:23:10.959329 22323 layer_factory.hpp:77] Creating layer inception_5b/3x3_reduce_p
I1130 10:23:10.959342 22323 net.cpp:100] Creating Layer inception_5b/3x3_reduce_p
I1130 10:23:10.959348 22323 net.cpp:434] inception_5b/3x3_reduce_p <- inception_5a/output_p_inception_5a/output_p_0_split_1
I1130 10:23:10.959372 22323 net.cpp:408] inception_5b/3x3_reduce_p -> inception_5b/3x3_reduce_p
I1130 10:23:10.961858 22323 net.cpp:150] Setting up inception_5b/3x3_reduce_p
I1130 10:23:10.961891 22323 net.cpp:157] Top shape: 10 192 10 5 (96000)
I1130 10:23:10.961905 22323 net.cpp:165] Memory required for data: 305600120
I1130 10:23:10.961913 22323 net.cpp:493] Sharing parameters 'inception_5b/3x3_reduce_w' owned by layer 'inception_5b/3x3_reduce', param index 0
I1130 10:23:10.961921 22323 net.cpp:493] Sharing parameters 'inception_5b/3x3_reduce_b' owned by layer 'inception_5b/3x3_reduce', param index 1
I1130 10:23:10.961928 22323 layer_factory.hpp:77] Creating layer inception_5b/relu_3x3_reduce_p
I1130 10:23:10.961940 22323 net.cpp:100] Creating Layer inception_5b/relu_3x3_reduce_p
I1130 10:23:10.961946 22323 net.cpp:434] inception_5b/relu_3x3_reduce_p <- inception_5b/3x3_reduce_p
I1130 10:23:10.961956 22323 net.cpp:395] inception_5b/relu_3x3_reduce_p -> inception_5b/3x3_reduce_p (in-place)
I1130 10:23:10.962137 22323 net.cpp:150] Setting up inception_5b/relu_3x3_reduce_p
I1130 10:23:10.962157 22323 net.cpp:157] Top shape: 10 192 10 5 (96000)
I1130 10:23:10.962163 22323 net.cpp:165] Memory required for data: 305984120
I1130 10:23:10.962169 22323 layer_factory.hpp:77] Creating layer inception_5b/3x3_p
I1130 10:23:10.962187 22323 net.cpp:100] Creating Layer inception_5b/3x3_p
I1130 10:23:10.962193 22323 net.cpp:434] inception_5b/3x3_p <- inception_5b/3x3_reduce_p
I1130 10:23:10.962216 22323 net.cpp:408] inception_5b/3x3_p -> inception_5b/3x3_p
I1130 10:23:10.969867 22323 net.cpp:150] Setting up inception_5b/3x3_p
I1130 10:23:10.969919 22323 net.cpp:157] Top shape: 10 384 10 5 (192000)
I1130 10:23:10.969926 22323 net.cpp:165] Memory required for data: 306752120
I1130 10:23:10.969935 22323 net.cpp:493] Sharing parameters 'inception_5b/3x3_w' owned by layer 'inception_5b/3x3', param index 0
I1130 10:23:10.969944 22323 net.cpp:493] Sharing parameters 'inception_5b/3x3_b' owned by layer 'inception_5b/3x3', param index 1
I1130 10:23:10.969961 22323 layer_factory.hpp:77] Creating layer inception_5b/relu_3x3_p
I1130 10:23:10.969974 22323 net.cpp:100] Creating Layer inception_5b/relu_3x3_p
I1130 10:23:10.969982 22323 net.cpp:434] inception_5b/relu_3x3_p <- inception_5b/3x3_p
I1130 10:23:10.969991 22323 net.cpp:395] inception_5b/relu_3x3_p -> inception_5b/3x3_p (in-place)
I1130 10:23:10.971796 22323 net.cpp:150] Setting up inception_5b/relu_3x3_p
I1130 10:23:10.971830 22323 net.cpp:157] Top shape: 10 384 10 5 (192000)
I1130 10:23:10.971837 22323 net.cpp:165] Memory required for data: 307520120
I1130 10:23:10.971843 22323 layer_factory.hpp:77] Creating layer inception_5b/5x5_reduce_p
I1130 10:23:10.971864 22323 net.cpp:100] Creating Layer inception_5b/5x5_reduce_p
I1130 10:23:10.971873 22323 net.cpp:434] inception_5b/5x5_reduce_p <- inception_5a/output_p_inception_5a/output_p_0_split_2
I1130 10:23:10.971889 22323 net.cpp:408] inception_5b/5x5_reduce_p -> inception_5b/5x5_reduce_p
I1130 10:23:10.975642 22323 net.cpp:150] Setting up inception_5b/5x5_reduce_p
I1130 10:23:10.975679 22323 net.cpp:157] Top shape: 10 48 10 5 (24000)
I1130 10:23:10.975687 22323 net.cpp:165] Memory required for data: 307616120
I1130 10:23:10.975703 22323 net.cpp:493] Sharing parameters 'inception_5b/5x5_reduce_w' owned by layer 'inception_5b/5x5_reduce', param index 0
I1130 10:23:10.975718 22323 net.cpp:493] Sharing parameters 'inception_5b/5x5_reduce_b' owned by layer 'inception_5b/5x5_reduce', param index 1
I1130 10:23:10.975723 22323 layer_factory.hpp:77] Creating layer inception_5b/relu_5x5_reduce_p
I1130 10:23:10.975733 22323 net.cpp:100] Creating Layer inception_5b/relu_5x5_reduce_p
I1130 10:23:10.975740 22323 net.cpp:434] inception_5b/relu_5x5_reduce_p <- inception_5b/5x5_reduce_p
I1130 10:23:10.975749 22323 net.cpp:395] inception_5b/relu_5x5_reduce_p -> inception_5b/5x5_reduce_p (in-place)
I1130 10:23:10.976846 22323 net.cpp:150] Setting up inception_5b/relu_5x5_reduce_p
I1130 10:23:10.976879 22323 net.cpp:157] Top shape: 10 48 10 5 (24000)
I1130 10:23:10.976896 22323 net.cpp:165] Memory required for data: 307712120
I1130 10:23:10.976902 22323 layer_factory.hpp:77] Creating layer inception_5b/5x5_p
I1130 10:23:10.976914 22323 net.cpp:100] Creating Layer inception_5b/5x5_p
I1130 10:23:10.976924 22323 net.cpp:434] inception_5b/5x5_p <- inception_5b/5x5_reduce_p
I1130 10:23:10.976933 22323 net.cpp:408] inception_5b/5x5_p -> inception_5b/5x5_p
I1130 10:23:10.980329 22323 net.cpp:150] Setting up inception_5b/5x5_p
I1130 10:23:10.980372 22323 net.cpp:157] Top shape: 10 128 10 5 (64000)
I1130 10:23:10.980379 22323 net.cpp:165] Memory required for data: 307968120
I1130 10:23:10.980387 22323 net.cpp:493] Sharing parameters 'inception_5b/5x5_w' owned by layer 'inception_5b/5x5', param index 0
I1130 10:23:10.980396 22323 net.cpp:493] Sharing parameters 'inception_5b/5x5_b' owned by layer 'inception_5b/5x5', param index 1
I1130 10:23:10.980402 22323 layer_factory.hpp:77] Creating layer inception_5b/relu_5x5_p
I1130 10:23:10.980412 22323 net.cpp:100] Creating Layer inception_5b/relu_5x5_p
I1130 10:23:10.980420 22323 net.cpp:434] inception_5b/relu_5x5_p <- inception_5b/5x5_p
I1130 10:23:10.980429 22323 net.cpp:395] inception_5b/relu_5x5_p -> inception_5b/5x5_p (in-place)
I1130 10:23:10.981353 22323 net.cpp:150] Setting up inception_5b/relu_5x5_p
I1130 10:23:10.981376 22323 net.cpp:157] Top shape: 10 128 10 5 (64000)
I1130 10:23:10.981382 22323 net.cpp:165] Memory required for data: 308224120
I1130 10:23:10.981389 22323 layer_factory.hpp:77] Creating layer inception_5b/pool_p
I1130 10:23:10.981398 22323 net.cpp:100] Creating Layer inception_5b/pool_p
I1130 10:23:10.981413 22323 net.cpp:434] inception_5b/pool_p <- inception_5a/output_p_inception_5a/output_p_0_split_3
I1130 10:23:10.981421 22323 net.cpp:408] inception_5b/pool_p -> inception_5b/pool_p
I1130 10:23:10.981477 22323 net.cpp:150] Setting up inception_5b/pool_p
I1130 10:23:10.981487 22323 net.cpp:157] Top shape: 10 832 10 5 (416000)
I1130 10:23:10.981492 22323 net.cpp:165] Memory required for data: 309888120
I1130 10:23:10.981499 22323 layer_factory.hpp:77] Creating layer inception_5b/pool_proj_p
I1130 10:23:10.981513 22323 net.cpp:100] Creating Layer inception_5b/pool_proj_p
I1130 10:23:10.981520 22323 net.cpp:434] inception_5b/pool_proj_p <- inception_5b/pool_p
I1130 10:23:10.981529 22323 net.cpp:408] inception_5b/pool_proj_p -> inception_5b/pool_proj_p
I1130 10:23:10.984982 22323 net.cpp:150] Setting up inception_5b/pool_proj_p
I1130 10:23:10.985038 22323 net.cpp:157] Top shape: 10 128 10 5 (64000)
I1130 10:23:10.985044 22323 net.cpp:165] Memory required for data: 310144120
I1130 10:23:10.985062 22323 net.cpp:493] Sharing parameters 'inception_5b/pool_proj_w' owned by layer 'inception_5b/pool_proj', param index 0
I1130 10:23:10.985079 22323 net.cpp:493] Sharing parameters 'inception_5b/pool_proj_b' owned by layer 'inception_5b/pool_proj', param index 1
I1130 10:23:10.985085 22323 layer_factory.hpp:77] Creating layer inception_5b/relu_pool_proj_p
I1130 10:23:10.985105 22323 net.cpp:100] Creating Layer inception_5b/relu_pool_proj_p
I1130 10:23:10.985113 22323 net.cpp:434] inception_5b/relu_pool_proj_p <- inception_5b/pool_proj_p
I1130 10:23:10.985122 22323 net.cpp:395] inception_5b/relu_pool_proj_p -> inception_5b/pool_proj_p (in-place)
I1130 10:23:10.986003 22323 net.cpp:150] Setting up inception_5b/relu_pool_proj_p
I1130 10:23:10.986037 22323 net.cpp:157] Top shape: 10 128 10 5 (64000)
I1130 10:23:10.986042 22323 net.cpp:165] Memory required for data: 310400120
I1130 10:23:10.986049 22323 layer_factory.hpp:77] Creating layer inception_5b/output_p
I1130 10:23:10.986064 22323 net.cpp:100] Creating Layer inception_5b/output_p
I1130 10:23:10.986073 22323 net.cpp:434] inception_5b/output_p <- inception_5b/1x1_p
I1130 10:23:10.986081 22323 net.cpp:434] inception_5b/output_p <- inception_5b/3x3_p
I1130 10:23:10.986096 22323 net.cpp:434] inception_5b/output_p <- inception_5b/5x5_p
I1130 10:23:10.986104 22323 net.cpp:434] inception_5b/output_p <- inception_5b/pool_proj_p
I1130 10:23:10.986136 22323 net.cpp:408] inception_5b/output_p -> inception_5b/output_p
I1130 10:23:10.986194 22323 net.cpp:150] Setting up inception_5b/output_p
I1130 10:23:10.986205 22323 net.cpp:157] Top shape: 10 1024 10 5 (512000)
I1130 10:23:10.986214 22323 net.cpp:165] Memory required for data: 312448120
I1130 10:23:10.986227 22323 layer_factory.hpp:77] Creating layer conv2-all
I1130 10:23:10.986235 22323 net.cpp:100] Creating Layer conv2-all
I1130 10:23:10.986241 22323 net.cpp:434] conv2-all <- inception_5b/output
I1130 10:23:10.986248 22323 net.cpp:434] conv2-all <- inception_5b/output_p
I1130 10:23:10.986256 22323 net.cpp:408] conv2-all -> conv2-all
I1130 10:23:10.986287 22323 net.cpp:150] Setting up conv2-all
I1130 10:23:10.986297 22323 net.cpp:157] Top shape: 10 2048 10 5 (1024000)
I1130 10:23:10.986302 22323 net.cpp:165] Memory required for data: 316544120
I1130 10:23:10.986310 22323 layer_factory.hpp:77] Creating layer conv3-sm
I1130 10:23:10.986323 22323 net.cpp:100] Creating Layer conv3-sm
I1130 10:23:10.986330 22323 net.cpp:434] conv3-sm <- conv2-all
I1130 10:23:10.986340 22323 net.cpp:408] conv3-sm -> conv3
I1130 10:23:11.475311 22323 net.cpp:150] Setting up conv3-sm
I1130 10:23:11.475358 22323 net.cpp:157] Top shape: 10 1024 10 5 (512000)
I1130 10:23:11.475366 22323 net.cpp:165] Memory required for data: 318592120
I1130 10:23:11.475380 22323 layer_factory.hpp:77] Creating layer relu3
I1130 10:23:11.475394 22323 net.cpp:100] Creating Layer relu3
I1130 10:23:11.475402 22323 net.cpp:434] relu3 <- conv3
I1130 10:23:11.475412 22323 net.cpp:395] relu3 -> conv3 (in-place)
I1130 10:23:11.476343 22323 net.cpp:150] Setting up relu3
I1130 10:23:11.476368 22323 net.cpp:157] Top shape: 10 1024 10 5 (512000)
I1130 10:23:11.476378 22323 net.cpp:165] Memory required for data: 320640120
I1130 10:23:11.476389 22323 layer_factory.hpp:77] Creating layer conv4-sm
I1130 10:23:11.476409 22323 net.cpp:100] Creating Layer conv4-sm
I1130 10:23:11.476421 22323 net.cpp:434] conv4-sm <- conv3
I1130 10:23:11.476436 22323 net.cpp:408] conv4-sm -> conv4
I1130 10:23:11.773465 22323 net.cpp:150] Setting up conv4-sm
I1130 10:23:11.773520 22323 net.cpp:157] Top shape: 10 1024 10 5 (512000)
I1130 10:23:11.773528 22323 net.cpp:165] Memory required for data: 322688120
I1130 10:23:11.773550 22323 layer_factory.hpp:77] Creating layer relu4
I1130 10:23:11.773571 22323 net.cpp:100] Creating Layer relu4
I1130 10:23:11.773592 22323 net.cpp:434] relu4 <- conv4
I1130 10:23:11.773602 22323 net.cpp:395] relu4 -> conv4 (in-place)
I1130 10:23:11.774417 22323 net.cpp:150] Setting up relu4
I1130 10:23:11.774440 22323 net.cpp:157] Top shape: 10 1024 10 5 (512000)
I1130 10:23:11.774446 22323 net.cpp:165] Memory required for data: 324736120
I1130 10:23:11.774452 22323 layer_factory.hpp:77] Creating layer pool5
I1130 10:23:11.774471 22323 net.cpp:100] Creating Layer pool5
I1130 10:23:11.774477 22323 net.cpp:434] pool5 <- conv4
I1130 10:23:11.774494 22323 net.cpp:408] pool5 -> pool5
I1130 10:23:11.774551 22323 net.cpp:150] Setting up pool5
I1130 10:23:11.774561 22323 net.cpp:157] Top shape: 10 1024 5 2 (102400)
I1130 10:23:11.774567 22323 net.cpp:165] Memory required for data: 325145720
I1130 10:23:11.774572 22323 layer_factory.hpp:77] Creating layer fc6-sm
I1130 10:23:11.774588 22323 net.cpp:100] Creating Layer fc6-sm
I1130 10:23:11.774595 22323 net.cpp:434] fc6-sm <- pool5
I1130 10:23:11.774603 22323 net.cpp:408] fc6-sm -> fc6
I1130 10:23:12.036520 22323 net.cpp:150] Setting up fc6-sm
I1130 10:23:12.036577 22323 net.cpp:157] Top shape: 10 1024 (10240)
I1130 10:23:12.036586 22323 net.cpp:165] Memory required for data: 325186680
I1130 10:23:12.036607 22323 layer_factory.hpp:77] Creating layer relu6
I1130 10:23:12.036623 22323 net.cpp:100] Creating Layer relu6
I1130 10:23:12.036631 22323 net.cpp:434] relu6 <- fc6
I1130 10:23:12.036639 22323 net.cpp:395] relu6 -> fc6 (in-place)
I1130 10:23:12.037251 22323 net.cpp:150] Setting up relu6
I1130 10:23:12.037276 22323 net.cpp:157] Top shape: 10 1024 (10240)
I1130 10:23:12.037281 22323 net.cpp:165] Memory required for data: 325227640
I1130 10:23:12.037300 22323 layer_factory.hpp:77] Creating layer drop6
I1130 10:23:12.037327 22323 net.cpp:100] Creating Layer drop6
I1130 10:23:12.037334 22323 net.cpp:434] drop6 <- fc6
I1130 10:23:12.037341 22323 net.cpp:395] drop6 -> fc6 (in-place)
I1130 10:23:12.037376 22323 net.cpp:150] Setting up drop6
I1130 10:23:12.037389 22323 net.cpp:157] Top shape: 10 1024 (10240)
I1130 10:23:12.037394 22323 net.cpp:165] Memory required for data: 325268600
I1130 10:23:12.037400 22323 layer_factory.hpp:77] Creating layer fc7-sm
I1130 10:23:12.037411 22323 net.cpp:100] Creating Layer fc7-sm
I1130 10:23:12.037417 22323 net.cpp:434] fc7-sm <- fc6
I1130 10:23:12.037426 22323 net.cpp:408] fc7-sm -> fc7
I1130 10:23:12.063949 22323 net.cpp:150] Setting up fc7-sm
I1130 10:23:12.063994 22323 net.cpp:157] Top shape: 10 1024 (10240)
I1130 10:23:12.064002 22323 net.cpp:165] Memory required for data: 325309560
I1130 10:23:12.064016 22323 layer_factory.hpp:77] Creating layer relu7
I1130 10:23:12.064028 22323 net.cpp:100] Creating Layer relu7
I1130 10:23:12.064036 22323 net.cpp:434] relu7 <- fc7
I1130 10:23:12.064045 22323 net.cpp:395] relu7 -> fc7 (in-place)
I1130 10:23:12.064537 22323 net.cpp:150] Setting up relu7
I1130 10:23:12.064551 22323 net.cpp:157] Top shape: 10 1024 (10240)
I1130 10:23:12.064558 22323 net.cpp:165] Memory required for data: 325350520
I1130 10:23:12.064565 22323 layer_factory.hpp:77] Creating layer drop7
I1130 10:23:12.064574 22323 net.cpp:100] Creating Layer drop7
I1130 10:23:12.064581 22323 net.cpp:434] drop7 <- fc7
I1130 10:23:12.064589 22323 net.cpp:395] drop7 -> fc7 (in-place)
I1130 10:23:12.064618 22323 net.cpp:150] Setting up drop7
I1130 10:23:12.064628 22323 net.cpp:157] Top shape: 10 1024 (10240)
I1130 10:23:12.064635 22323 net.cpp:165] Memory required for data: 325391480
I1130 10:23:12.064641 22323 layer_factory.hpp:77] Creating layer fc7-all
I1130 10:23:12.064651 22323 net.cpp:100] Creating Layer fc7-all
I1130 10:23:12.064659 22323 net.cpp:434] fc7-all <- fc7
I1130 10:23:12.064667 22323 net.cpp:408] fc7-all -> fc7-all
I1130 10:23:12.064847 22323 net.cpp:150] Setting up fc7-all
I1130 10:23:12.064859 22323 net.cpp:157] Top shape: 10 2 (20)
I1130 10:23:12.064865 22323 net.cpp:165] Memory required for data: 325391560
I1130 10:23:12.064874 22323 layer_factory.hpp:77] Creating layer fc7-all_fc7-all_0_split
I1130 10:23:12.064882 22323 net.cpp:100] Creating Layer fc7-all_fc7-all_0_split
I1130 10:23:12.064889 22323 net.cpp:434] fc7-all_fc7-all_0_split <- fc7-all
I1130 10:23:12.064898 22323 net.cpp:408] fc7-all_fc7-all_0_split -> fc7-all_fc7-all_0_split_0
I1130 10:23:12.064906 22323 net.cpp:408] fc7-all_fc7-all_0_split -> fc7-all_fc7-all_0_split_1
I1130 10:23:12.064941 22323 net.cpp:150] Setting up fc7-all_fc7-all_0_split
I1130 10:23:12.064951 22323 net.cpp:157] Top shape: 10 2 (20)
I1130 10:23:12.064957 22323 net.cpp:157] Top shape: 10 2 (20)
I1130 10:23:12.064963 22323 net.cpp:165] Memory required for data: 325391720
I1130 10:23:12.064970 22323 layer_factory.hpp:77] Creating layer accuracy
I1130 10:23:12.064977 22323 net.cpp:100] Creating Layer accuracy
I1130 10:23:12.064985 22323 net.cpp:434] accuracy <- fc7-all_fc7-all_0_split_0
I1130 10:23:12.064992 22323 net.cpp:434] accuracy <- label_data_2_split_0
I1130 10:23:12.065001 22323 net.cpp:408] accuracy -> accuracy
…
