…
I1206 21:20:22.024572  8666 net.cpp:322] The NetState phase (0) differed from the phase (1) specified by a rule in layer data
I1206 21:20:22.026186  8666 net.cpp:58] Initializing net from parameters: 
name: "AlexNet"
state {
  phase: TRAIN
  level: 0
  stage: ""
}
layer {
  name: "data"
  type: "Python"
  top: "data"
  top: "data_p"
  top: "label"
  include {
    phase: TRAIN
  }
  python_param {
    module: "cuhk01_SeqIn_layer"
    layer: "videoReadTrain"
    param_str: "{\'Train_batch_size\':\'100\',\'Train_frames_l\':\'1\',\'multylabel\':\'False\',\'balance\':\'True\'}"
  }
}
layer {
  name: "conv1/7x7_s2"
  type: "Convolution"
  bottom: "data"
  top: "conv1/7x7_s2"
  param {
    name: "conv1/7x7_s2_w"
    lr_mult: 1
    decay_mult: 1
  }
  param {
    name: "conv1/7x7_s2_b"
    lr_mult: 2
    decay_mult: 0
  }
  convolution_param {
    num_output: 64
    pad: 3
    kernel_size: 7
    stride: 2
    weight_filler {
      type: "xavier"
    }
    bias_filler {
      type: "constant"
      value: 0.2
    }
  }
}
layer {
  name: "conv1/relu_7x7"
  type: "ReLU"
  bottom: "conv1/7x7_s2"
  top: "conv1/7x7_s2"
}
layer {
  name: "pool1/3x3_s2"
  type: "Pooling"
  bottom: "conv1/7x7_s2"
  top: "pool1/3x3_s2"
  pooling_param {
    pool: MAX
    kernel_size: 3
    stride: 2
  }
}
layer {
  name: "pool1/norm1"
  type: "LRN"
  bottom: "pool1/3x3_s2"
  top: "pool1/norm1"
  lrn_param {
    local_size: 5
    alpha: 0.0001
    beta: 0.75
  }
}
layer {
  name: "conv2/3x3_reduce"
  type: "Convolution"
  bottom: "pool1/norm1"
  top: "conv2/3x3_reduce"
  param {
    name: "conv2/3x3_reduce_w"
    lr_mult: 1
    decay_mult: 1
  }
  param {
    name: "conv2/3x3_reduce_b"
    lr_mult: 2
    decay_mult: 0
  }
  convolution_param {
    num_output: 64
    kernel_size: 1
    weight_filler {
      type: "xavier"
    }
    bias_filler {
      type: "constant"
      value: 0.2
    }
  }
}
layer {
  name: "conv2/relu_3x3_reduce"
  type: "ReLU"
  bottom: "conv2/3x3_reduce"
  top: "conv2/3x3_reduce"
}
layer {
  name: "conv2/3x3"
  type: "Convolution"
  bottom: "conv2/3x3_reduce"
  top: "conv2/3x3"
  param {
    name: "conv2/3x3_w"
    lr_mult: 1
    decay_mult: 1
  }
  param {
    name: "conv2/3x3_b"
    lr_mult: 2
    decay_mult: 0
  }
  convolution_param {
    num_output: 192
    pad: 1
    kernel_size: 3
    weight_filler {
      type: "xavier"
    }
    bias_filler {
      type: "constant"
      value: 0.2
    }
  }
}
layer {
  name: "conv2/relu_3x3"
  type: "ReLU"
  bottom: "conv2/3x3"
  top: "conv2/3x3"
}
layer {
  name: "pool2/3x3_s2"
  type: "Pooling"
  bottom: "conv2/3x3"
  top: "pool2/3x3_s2"
  pooling_param {
    pool: MAX
    kernel_size: 3
    stride: 2
  }
}
layer {
  name: "inception_3a/1x1"
  type: "Convolution"
  bottom: "pool2/3x3_s2"
  top: "inception_3a/1x1"
  param {
    name: "inception_3a/1x1_w"
    lr_mult: 1
    decay_mult: 1
  }
  param {
    name: "inception_3a/1x1_b"
    lr_mult: 2
    decay_mult: 0
  }
  convolution_param {
    num_output: 64
    kernel_size: 1
    weight_filler {
      type: "xavier"
    }
    bias_filler {
      type: "constant"
      value: 0.2
    }
  }
}
layer {
  name: "inception_3a/relu_1x1"
  type: "ReLU"
  bottom: "inception_3a/1x1"
  top: "inception_3a/1x1"
}
layer {
  name: "inception_3a/3x3_reduce"
  type: "Convolution"
  bottom: "pool2/3x3_s2"
  top: "inception_3a/3x3_reduce"
  param {
    name: "inception_3a/3x3_reduce_w"
    lr_mult: 1
    decay_mult: 1
  }
  param {
    name: "inception_3a/3x3_reduce_b"
    lr_mult: 2
    decay_mult: 0
  }
  convolution_param {
    num_output: 96
    kernel_size: 1
    weight_filler {
      type: "xavier"
    }
    bias_filler {
      type: "constant"
      value: 0.2
    }
  }
}
layer {
  name: "inception_3a/relu_3x3_reduce"
  type: "ReLU"
  bottom: "inception_3a/3x3_reduce"
  top: "inception_3a/3x3_reduce"
}
layer {
  name: "inception_3a/3x3"
  type: "Convolution"
  bottom: "inception_3a/3x3_reduce"
  top: "inception_3a/3x3"
  param {
    name: "inception_3a/3x3_w"
    lr_mult: 1
    decay_mult: 1
  }
  param {
    name: "inception_3a/3x3_b"
    lr_mult: 2
    decay_mult: 0
  }
  convolution_param {
    num_output: 128
    pad: 1
    kernel_size: 3
    weight_filler {
      type: "xavier"
    }
    bias_filler {
      type: "constant"
      value: 0.2
    }
  }
}
layer {
  name: "inception_3a/relu_3x3"
  type: "ReLU"
  bottom: "inception_3a/3x3"
  top: "inception_3a/3x3"
}
layer {
  name: "inception_3a/5x5_reduce"
  type: "Convolution"
  bottom: "pool2/3x3_s2"
  top: "inception_3a/5x5_reduce"
  param {
    name: "inception_3a/5x5_reduce_w"
    lr_mult: 1
    decay_mult: 1
  }
  param {
    name: "inception_3a/5x5_reduce_b"
    lr_mult: 2
    decay_mult: 0
  }
  convolution_param {
    num_output: 16
    kernel_size: 1
    weight_filler {
      type: "xavier"
    }
    bias_filler {
      type: "constant"
      value: 0.2
    }
  }
}
layer {
  name: "inception_3a/relu_5x5_reduce"
  type: "ReLU"
  bottom: "inception_3a/5x5_reduce"
  top: "inception_3a/5x5_reduce"
}
layer {
  name: "inception_3a/5x5"
  type: "Convolution"
  bottom: "inception_3a/5x5_reduce"
  top: "inception_3a/5x5"
  param {
    name: "inception_3a/5x5_w"
    lr_mult: 1
    decay_mult: 1
  }
  param {
    name: "inception_3a/5x5_b"
    lr_mult: 2
    decay_mult: 0
  }
  convolution_param {
    num_output: 32
    pad: 2
    kernel_size: 5
    weight_filler {
      type: "xavier"
    }
    bias_filler {
      type: "constant"
      value: 0.2
    }
  }
}
layer {
  name: "inception_3a/relu_5x5"
  type: "ReLU"
  bottom: "inception_3a/5x5"
  top: "inception_3a/5x5"
}
layer {
  name: "inception_3a/pool"
  type: "Pooling"
  bottom: "pool2/3x3_s2"
  top: "inception_3a/pool"
  pooling_param {
    pool: MAX
    kernel_size: 3
    stride: 1
    pad: 1
  }
}
layer {
  name: "inception_3a/pool_proj"
  type: "Convolution"
  bottom: "inception_3a/pool"
  top: "inception_3a/pool_proj"
  param {
    name: "inception_3a/pool_proj_w"
    lr_mult: 1
    decay_mult: 1
  }
  param {
    name: "inception_3a/pool_proj_b"
    lr_mult: 2
    decay_mult: 0
  }
  convolution_param {
    num_output: 32
    kernel_size: 1
    weight_filler {
      type: "xavier"
    }
    bias_filler {
      type: "constant"
      value: 0.2
    }
  }
}
layer {
  name: "inception_3a/relu_pool_proj"
  type: "ReLU"
  bottom: "inception_3a/pool_proj"
  top: "inception_3a/pool_proj"
}
layer {
  name: "inception_3a/output"
  type: "Concat"
  bottom: "inception_3a/1x1"
  bottom: "inception_3a/3x3"
  bottom: "inception_3a/5x5"
  bottom: "inception_3a/pool_proj"
  top: "inception_3a/output"
}
layer {
  name: "inception_3b/1x1"
  type: "Convolution"
  bottom: "inception_3a/output"
  top: "inception_3b/1x1"
  param {
    name: "inception_3b/1x1_w"
    lr_mult: 1
    decay_mult: 1
  }
  param {
    name: "inception_3b/1x1_b"
    lr_mult: 2
    decay_mult: 0
  }
  convolution_param {
    num_output: 128
    kernel_size: 1
    weight_filler {
      type: "xavier"
    }
    bias_filler {
      type: "constant"
      value: 0.2
    }
  }
}
layer {
  name: "inception_3b/relu_1x1"
  type: "ReLU"
  bottom: "inception_3b/1x1"
  top: "inception_3b/1x1"
}
layer {
  name: "inception_3b/3x3_reduce"
  type: "Convolution"
  bottom: "inception_3a/output"
  top: "inception_3b/3x3_reduce"
  param {
    name: "inception_3b/3x3_reduce_w"
    lr_mult: 1
    decay_mult: 1
  }
  param {
    name: "inception_3b/3x3_reduce_b"
    lr_mult: 2
    decay_mult: 0
  }
  convolution_param {
    num_output: 128
    kernel_size: 1
    weight_filler {
      type: "xavier"
    }
    bias_filler {
      type: "constant"
      value: 0.2
    }
  }
}
layer {
  name: "inception_3b/relu_3x3_reduce"
  type: "ReLU"
  bottom: "inception_3b/3x3_reduce"
  top: "inception_3b/3x3_reduce"
}
layer {
  name: "inception_3b/3x3"
  type: "Convolution"
  bottom: "inception_3b/3x3_reduce"
  top: "inception_3b/3x3"
  param {
    name: "inception_3b/3x3_w"
    lr_mult: 1
    decay_mult: 1
  }
  param {
    name: "inception_3b/3x3_b"
    lr_mult: 2
    decay_mult: 0
  }
  convolution_param {
    num_output: 192
    pad: 1
    kernel_size: 3
    weight_filler {
      type: "xavier"
    }
    bias_filler {
      type: "constant"
      value: 0.2
    }
  }
}
layer {
  name: "inception_3b/relu_3x3"
  type: "ReLU"
  bottom: "inception_3b/3x3"
  top: "inception_3b/3x3"
}
layer {
  name: "inception_3b/5x5_reduce"
  type: "Convolution"
  bottom: "inception_3a/output"
  top: "inception_3b/5x5_reduce"
  param {
    name: "inception_3b/5x5_reduce_w"
    lr_mult: 1
    decay_mult: 1
  }
  param {
    name: "inception_3b/5x5_reduce_b"
    lr_mult: 2
    decay_mult: 0
  }
  convolution_param {
    num_output: 32
    kernel_size: 1
    weight_filler {
      type: "xavier"
    }
    bias_filler {
      type: "constant"
      value: 0.2
    }
  }
}
layer {
  name: "inception_3b/relu_5x5_reduce"
  type: "ReLU"
  bottom: "inception_3b/5x5_reduce"
  top: "inception_3b/5x5_reduce"
}
layer {
  name: "inception_3b/5x5"
  type: "Convolution"
  bottom: "inception_3b/5x5_reduce"
  top: "inception_3b/5x5"
  param {
    name: "inception_3b/5x5_w"
    lr_mult: 1
    decay_mult: 1
  }
  param {
    name: "inception_3b/5x5_b"
    lr_mult: 2
    decay_mult: 0
  }
  convolution_param {
    num_output: 96
    pad: 2
    kernel_size: 5
    weight_filler {
      type: "xavier"
    }
    bias_filler {
      type: "constant"
      value: 0.2
    }
  }
}
layer {
  name: "inception_3b/relu_5x5"
  type: "ReLU"
  bottom: "inception_3b/5x5"
  top: "inception_3b/5x5"
}
layer {
  name: "inception_3b/pool"
  type: "Pooling"
  bottom: "inception_3a/output"
  top: "inception_3b/pool"
  pooling_param {
    pool: MAX
    kernel_size: 3
    stride: 1
    pad: 1
  }
}
layer {
  name: "inception_3b/pool_proj"
  type: "Convolution"
  bottom: "inception_3b/pool"
  top: "inception_3b/pool_proj"
  param {
    name: "inception_3b/pool_proj_w"
    lr_mult: 1
    decay_mult: 1
  }
  param {
    name: "inception_3b/pool_proj_b"
    lr_mult: 2
    decay_mult: 0
  }
  convolution_param {
    num_output: 64
    kernel_size: 1
    weight_filler {
      type: "xavier"
    }
    bias_filler {
      type: "constant"
      value: 0.2
    }
  }
}
layer {
  name: "inception_3b/relu_pool_proj"
  type: "ReLU"
  bottom: "inception_3b/pool_proj"
  top: "inception_3b/pool_proj"
}
layer {
  name: "inception_3b/output"
  type: "Concat"
  bottom: "inception_3b/1x1"
  bottom: "inception_3b/3x3"
  bottom: "inception_3b/5x5"
  bottom: "inception_3b/pool_proj"
  top: "inception_3b/output"
}
layer {
  name: "pool3/3x3_s2"
  type: "Pooling"
  bottom: "inception_3b/output"
  top: "pool3/3x3_s2"
  pooling_param {
    pool: MAX
    kernel_size: 3
    stride: 2
  }
}
layer {
  name: "inception_4a/1x1"
  type: "Convolution"
  bottom: "pool3/3x3_s2"
  top: "inception_4a/1x1"
  param {
    name: "inception_4a/1x1_w"
    lr_mult: 1
    decay_mult: 1
  }
  param {
    name: "inception_4a/1x1_b"
    lr_mult: 2
    decay_mult: 0
  }
  convolution_param {
    num_output: 192
    kernel_size: 1
    weight_filler {
      type: "xavier"
    }
    bias_filler {
      type: "constant"
      value: 0.2
    }
  }
}
layer {
  name: "inception_4a/relu_1x1"
  type: "ReLU"
  bottom: "inception_4a/1x1"
  top: "inception_4a/1x1"
}
layer {
  name: "inception_4a/3x3_reduce"
  type: "Convolution"
  bottom: "pool3/3x3_s2"
  top: "inception_4a/3x3_reduce"
  param {
    name: "inception_4a/3x3_reduce_w"
    lr_mult: 1
    decay_mult: 1
  }
  param {
    name: "inception_4a/3x3_reduce_b"
    lr_mult: 2
    decay_mult: 0
  }
  convolution_param {
    num_output: 96
    kernel_size: 1
    weight_filler {
      type: "xavier"
    }
    bias_filler {
      type: "constant"
      value: 0.2
    }
  }
}
layer {
  name: "inception_4a/relu_3x3_reduce"
  type: "ReLU"
  bottom: "inception_4a/3x3_reduce"
  top: "inception_4a/3x3_reduce"
}
layer {
  name: "inception_4a/3x3"
  type: "Convolution"
  bottom: "inception_4a/3x3_reduce"
  top: "inception_4a/3x3"
  param {
    name: "inception_4a/3x3_w"
    lr_mult: 1
    decay_mult: 1
  }
  param {
    name: "inception_4a/3x3_b"
    lr_mult: 2
    decay_mult: 0
  }
  convolution_param {
    num_output: 208
    pad: 1
    kernel_size: 3
    weight_filler {
      type: "xavier"
    }
    bias_filler {
      type: "constant"
      value: 0.2
    }
  }
}
layer {
  name: "inception_4a/relu_3x3"
  type: "ReLU"
  bottom: "inception_4a/3x3"
  top: "inception_4a/3x3"
}
layer {
  name: "inception_4a/5x5_reduce"
  type: "Convolution"
  bottom: "pool3/3x3_s2"
  top: "inception_4a/5x5_reduce"
  param {
    name: "inception_4a/5x5_reduce_w"
    lr_mult: 1
    decay_mult: 1
  }
  param {
    name: "inception_4a/5x5_reduce_b"
    lr_mult: 2
    decay_mult: 0
  }
  convolution_param {
    num_output: 16
    kernel_size: 1
    weight_filler {
      type: "xavier"
    }
    bias_filler {
      type: "constant"
      value: 0.2
    }
  }
}
layer {
  name: "inception_4a/relu_5x5_reduce"
  type: "ReLU"
  bottom: "inception_4a/5x5_reduce"
  top: "inception_4a/5x5_reduce"
}
layer {
  name: "inception_4a/5x5"
  type: "Convolution"
  bottom: "inception_4a/5x5_reduce"
  top: "inception_4a/5x5"
  param {
    name: "inception_4a/5x5_w"
    lr_mult: 1
    decay_mult: 1
  }
  param {
    name: "inception_4a/5x5_b"
    lr_mult: 2
    decay_mult: 0
  }
  convolution_param {
    num_output: 48
    pad: 2
    kernel_size: 5
    weight_filler {
      type: "xavier"
    }
    bias_filler {
      type: "constant"
      value: 0.2
    }
  }
}
layer {
  name: "inception_4a/relu_5x5"
  type: "ReLU"
  bottom: "inception_4a/5x5"
  top: "inception_4a/5x5"
}
layer {
  name: "inception_4a/pool"
  type: "Pooling"
  bottom: "pool3/3x3_s2"
  top: "inception_4a/pool"
  pooling_param {
    pool: MAX
    kernel_size: 3
    stride: 1
    pad: 1
  }
}
layer {
  name: "inception_4a/pool_proj"
  type: "Convolution"
  bottom: "inception_4a/pool"
  top: "inception_4a/pool_proj"
  param {
    name: "inception_4a/pool_proj_w"
    lr_mult: 1
    decay_mult: 1
  }
  param {
    name: "inception_4a/pool_proj_b"
    lr_mult: 2
    decay_mult: 0
  }
  convolution_param {
    num_output: 64
    kernel_size: 1
    weight_filler {
      type: "xavier"
    }
    bias_filler {
      type: "constant"
      value: 0.2
    }
  }
}
layer {
  name: "inception_4a/relu_pool_proj"
  type: "ReLU"
  bottom: "inception_4a/pool_proj"
  top: "inception_4a/pool_proj"
}
layer {
  name: "inception_4a/output"
  type: "Concat"
  bottom: "inception_4a/1x1"
  bottom: "inception_4a/3x3"
  bottom: "inception_4a/5x5"
  bottom: "inception_4a/pool_proj"
  top: "inception_4a/output"
}
layer {
  name: "inception_4b/1x1"
  type: "Convolution"
  bottom: "inception_4a/output"
  top: "inception_4b/1x1"
  param {
    name: "inception_4b/1x1_w"
    lr_mult: 1
    decay_mult: 1
  }
  param {
    name: "inception_4b/1x1_b"
    lr_mult: 2
    decay_mult: 0
  }
  convolution_param {
    num_output: 160
    kernel_size: 1
    weight_filler {
      type: "xavier"
    }
    bias_filler {
      type: "constant"
      value: 0.2
    }
  }
}
layer {
  name: "inception_4b/relu_1x1"
  type: "ReLU"
  bottom: "inception_4b/1x1"
  top: "inception_4b/1x1"
}
layer {
  name: "inception_4b/3x3_reduce"
  type: "Convolution"
  bottom: "inception_4a/output"
  top: "inception_4b/3x3_reduce"
  param {
    name: "inception_4b/3x3_reduce_w"
    lr_mult: 1
    decay_mult: 1
  }
  param {
    name: "inception_4b/3x3_reduce_b"
    lr_mult: 2
    decay_mult: 0
  }
  convolution_param {
    num_output: 112
    kernel_size: 1
    weight_filler {
      type: "xavier"
    }
    bias_filler {
      type: "constant"
      value: 0.2
    }
  }
}
layer {
  name: "inception_4b/relu_3x3_reduce"
  type: "ReLU"
  bottom: "inception_4b/3x3_reduce"
  top: "inception_4b/3x3_reduce"
}
layer {
  name: "inception_4b/3x3"
  type: "Convolution"
  bottom: "inception_4b/3x3_reduce"
  top: "inception_4b/3x3"
  param {
    name: "inception_4b/3x3_w"
    lr_mult: 1
    decay_mult: 1
  }
  param {
    name: "inception_4b/3x3_b"
    lr_mult: 2
    decay_mult: 0
  }
  convolution_param {
    num_output: 224
    pad: 1
    kernel_size: 3
    weight_filler {
      type: "xavier"
    }
    bias_filler {
      type: "constant"
      value: 0.2
    }
  }
}
layer {
  name: "inception_4b/relu_3x3"
  type: "ReLU"
  bottom: "inception_4b/3x3"
  top: "inception_4b/3x3"
}
layer {
  name: "inception_4b/5x5_reduce"
  type: "Convolution"
  bottom: "inception_4a/output"
  top: "inception_4b/5x5_reduce"
  param {
    name: "inception_4b/5x5_reduce_w"
    lr_mult: 1
    decay_mult: 1
  }
  param {
    name: "inception_4b/5x5_reduce_b"
    lr_mult: 2
    decay_mult: 0
  }
  convolution_param {
    num_output: 24
    kernel_size: 1
    weight_filler {
      type: "xavier"
    }
    bias_filler {
      type: "constant"
      value: 0.2
    }
  }
}
layer {
  name: "inception_4b/relu_5x5_reduce"
  type: "ReLU"
  bottom: "inception_4b/5x5_reduce"
  top: "inception_4b/5x5_reduce"
}
layer {
  name: "inception_4b/5x5"
  type: "Convolution"
  bottom: "inception_4b/5x5_reduce"
  top: "inception_4b/5x5"
  param {
    name: "inception_4b/5x5_w"
    lr_mult: 1
    decay_mult: 1
  }
  param {
    name: "inception_4b/5x5_b"
    lr_mult: 2
    decay_mult: 0
  }
  convolution_param {
    num_output: 64
    pad: 2
    kernel_size: 5
    weight_filler {
      type: "xavier"
    }
    bias_filler {
      type: "constant"
      value: 0.2
    }
  }
}
layer {
  name: "inception_4b/relu_5x5"
  type: "ReLU"
  bottom: "inception_4b/5x5"
  top: "inception_4b/5x5"
}
layer {
  name: "inception_4b/pool"
  type: "Pooling"
  bottom: "inception_4a/output"
  top: "inception_4b/pool"
  pooling_param {
    pool: MAX
    kernel_size: 3
    stride: 1
    pad: 1
  }
}
layer {
  name: "inception_4b/pool_proj"
  type: "Convolution"
  bottom: "inception_4b/pool"
  top: "inception_4b/pool_proj"
  param {
    name: "inception_4b/pool_proj_w"
    lr_mult: 1
    decay_mult: 1
  }
  param {
    name: "inception_4b/pool_proj_b"
    lr_mult: 2
    decay_mult: 0
  }
  convolution_param {
    num_output: 64
    kernel_size: 1
    weight_filler {
      type: "xavier"
    }
    bias_filler {
      type: "constant"
      value: 0.2
    }
  }
}
layer {
  name: "inception_4b/relu_pool_proj"
  type: "ReLU"
  bottom: "inception_4b/pool_proj"
  top: "inception_4b/pool_proj"
}
layer {
  name: "inception_4b/output"
  type: "Concat"
  bottom: "inception_4b/1x1"
  bottom: "inception_4b/3x3"
  bottom: "inception_4b/5x5"
  bottom: "inception_4b/pool_proj"
  top: "inception_4b/output"
}
layer {
  name: "inception_4c/1x1"
  type: "Convolution"
  bottom: "inception_4b/output"
  top: "inception_4c/1x1"
  param {
    name: "inception_4c/1x1_w"
    lr_mult: 1
    decay_mult: 1
  }
  param {
    name: "inception_4c/1x1_b"
    lr_mult: 2
    decay_mult: 0
  }
  convolution_param {
    num_output: 128
    kernel_size: 1
    weight_filler {
      type: "xavier"
    }
    bias_filler {
      type: "constant"
      value: 0.2
    }
  }
}
layer {
  name: "inception_4c/relu_1x1"
  type: "ReLU"
  bottom: "inception_4c/1x1"
  top: "inception_4c/1x1"
}
layer {
  name: "inception_4c/3x3_reduce"
  type: "Convolution"
  bottom: "inception_4b/output"
  top: "inception_4c/3x3_reduce"
  param {
    name: "inception_4c/3x3_reduce_w"
    lr_mult: 1
    decay_mult: 1
  }
  param {
    name: "inception_4c/3x3_reduce_b"
    lr_mult: 2
    decay_mult: 0
  }
  convolution_param {
    num_output: 128
    kernel_size: 1
    weight_filler {
      type: "xavier"
    }
    bias_filler {
      type: "constant"
      value: 0.2
    }
  }
}
layer {
  name: "inception_4c/relu_3x3_reduce"
  type: "ReLU"
  bottom: "inception_4c/3x3_reduce"
  top: "inception_4c/3x3_reduce"
}
layer {
  name: "inception_4c/3x3"
  type: "Convolution"
  bottom: "inception_4c/3x3_reduce"
  top: "inception_4c/3x3"
  param {
    name: "inception_4c/3x3_w"
    lr_mult: 1
    decay_mult: 1
  }
  param {
    name: "inception_4c/3x3_b"
    lr_mult: 2
    decay_mult: 0
  }
  convolution_param {
    num_output: 256
    pad: 1
    kernel_size: 3
    weight_filler {
      type: "xavier"
    }
    bias_filler {
      type: "constant"
      value: 0.2
    }
  }
}
layer {
  name: "inception_4c/relu_3x3"
  type: "ReLU"
  bottom: "inception_4c/3x3"
  top: "inception_4c/3x3"
}
layer {
  name: "inception_4c/5x5_reduce"
  type: "Convolution"
  bottom: "inception_4b/output"
  top: "inception_4c/5x5_reduce"
  param {
    name: "inception_4c/5x5_reduce_w"
    lr_mult: 1
    decay_mult: 1
  }
  param {
    name: "inception_4c/5x5_reduce_b"
    lr_mult: 2
    decay_mult: 0
  }
  convolution_param {
    num_output: 24
    kernel_size: 1
    weight_filler {
      type: "xavier"
    }
    bias_filler {
      type: "constant"
      value: 0.2
    }
  }
}
layer {
  name: "inception_4c/relu_5x5_reduce"
  type: "ReLU"
  bottom: "inception_4c/5x5_reduce"
  top: "inception_4c/5x5_reduce"
}
layer {
  name: "inception_4c/5x5"
  type: "Convolution"
  bottom: "inception_4c/5x5_reduce"
  top: "inception_4c/5x5"
  param {
    name: "inception_4c/5x5_w"
    lr_mult: 1
    decay_mult: 1
  }
  param {
    name: "inception_4c/5x5_b"
    lr_mult: 2
    decay_mult: 0
  }
  convolution_param {
    num_output: 64
    pad: 2
    kernel_size: 5
    weight_filler {
      type: "xavier"
    }
    bias_filler {
      type: "constant"
      value: 0.2
    }
  }
}
layer {
  name: "inception_4c/relu_5x5"
  type: "ReLU"
  bottom: "inception_4c/5x5"
  top: "inception_4c/5x5"
}
layer {
  name: "inception_4c/pool"
  type: "Pooling"
  bottom: "inception_4b/output"
  top: "inception_4c/pool"
  pooling_param {
    pool: MAX
    kernel_size: 3
    stride: 1
    pad: 1
  }
}
layer {
  name: "inception_4c/pool_proj"
  type: "Convolution"
  bottom: "inception_4c/pool"
  top: "inception_4c/pool_proj"
  param {
    name: "inception_4c/pool_proj_w"
    lr_mult: 1
    decay_mult: 1
  }
  param {
    name: "inception_4c/pool_proj_b"
    lr_mult: 2
    decay_mult: 0
  }
  convolution_param {
    num_output: 64
    kernel_size: 1
    weight_filler {
      type: "xavier"
    }
    bias_filler {
      type: "constant"
      value: 0.2
    }
  }
}
layer {
  name: "inception_4c/relu_pool_proj"
  type: "ReLU"
  bottom: "inception_4c/pool_proj"
  top: "inception_4c/pool_proj"
}
layer {
  name: "inception_4c/output"
  type: "Concat"
  bottom: "inception_4c/1x1"
  bottom: "inception_4c/3x3"
  bottom: "inception_4c/5x5"
  bottom: "inception_4c/pool_proj"
  top: "inception_4c/output"
}
layer {
  name: "inception_4d/1x1"
  type: "Convolution"
  bottom: "inception_4c/output"
  top: "inception_4d/1x1"
  param {
    name: "inception_4d/1x1_w"
    lr_mult: 1
    decay_mult: 1
  }
  param {
    name: "inception_4d/1x1_b"
    lr_mult: 2
    decay_mult: 0
  }
  convolution_param {
    num_output: 112
    kernel_size: 1
    weight_filler {
      type: "xavier"
    }
    bias_filler {
      type: "constant"
      value: 0.2
    }
  }
}
layer {
  name: "inception_4d/relu_1x1"
  type: "ReLU"
  bottom: "inception_4d/1x1"
  top: "inception_4d/1x1"
}
layer {
  name: "inception_4d/3x3_reduce"
  type: "Convolution"
  bottom: "inception_4c/output"
  top: "inception_4d/3x3_reduce"
  param {
    name: "inception_4d/3x3_reduce_w"
    lr_mult: 1
    decay_mult: 1
  }
  param {
    name: "inception_4d/3x3_reduce_b"
    lr_mult: 2
    decay_mult: 0
  }
  convolution_param {
    num_output: 144
    kernel_size: 1
    weight_filler {
      type: "xavier"
    }
    bias_filler {
      type: "constant"
      value: 0.2
    }
  }
}
layer {
  name: "inception_4d/relu_3x3_reduce"
  type: "ReLU"
  bottom: "inception_4d/3x3_reduce"
  top: "inception_4d/3x3_reduce"
}
layer {
  name: "inception_4d/3x3"
  type: "Convolution"
  bottom: "inception_4d/3x3_reduce"
  top: "inception_4d/3x3"
  param {
    name: "inception_4d/3x3_w"
    lr_mult: 1
    decay_mult: 1
  }
  param {
    name: "inception_4d/3x3_b"
    lr_mult: 2
    decay_mult: 0
  }
  convolution_param {
    num_output: 288
    pad: 1
    kernel_size: 3
    weight_filler {
      type: "xavier"
    }
    bias_filler {
      type: "constant"
      value: 0.2
    }
  }
}
layer {
  name: "inception_4d/relu_3x3"
  type: "ReLU"
  bottom: "inception_4d/3x3"
  top: "inception_4d/3x3"
}
layer {
  name: "inception_4d/5x5_reduce"
  type: "Convolution"
  bottom: "inception_4c/output"
  top: "inception_4d/5x5_reduce"
  param {
    name: "inception_4d/5x5_reduce_w"
    lr_mult: 1
    decay_mult: 1
  }
  param {
    name: "inception_4d/5x5_reduce_b"
    lr_mult: 2
    decay_mult: 0
  }
  convolution_param {
    num_output: 32
    kernel_size: 1
    weight_filler {
      type: "xavier"
    }
    bias_filler {
      type: "constant"
      value: 0.2
    }
  }
}
layer {
  name: "inception_4d/relu_5x5_reduce"
  type: "ReLU"
  bottom: "inception_4d/5x5_reduce"
  top: "inception_4d/5x5_reduce"
}
layer {
  name: "inception_4d/5x5"
  type: "Convolution"
  bottom: "inception_4d/5x5_reduce"
  top: "inception_4d/5x5"
  param {
    name: "inception_4d/5x5_w"
    lr_mult: 1
    decay_mult: 1
  }
  param {
    name: "inception_4d/5x5_b"
    lr_mult: 2
    decay_mult: 0
  }
  convolution_param {
    num_output: 64
    pad: 2
    kernel_size: 5
    weight_filler {
      type: "xavier"
    }
    bias_filler {
      type: "constant"
      value: 0.2
    }
  }
}
layer {
  name: "inception_4d/relu_5x5"
  type: "ReLU"
  bottom: "inception_4d/5x5"
  top: "inception_4d/5x5"
}
layer {
  name: "inception_4d/pool"
  type: "Pooling"
  bottom: "inception_4c/output"
  top: "inception_4d/pool"
  pooling_param {
    pool: MAX
    kernel_size: 3
    stride: 1
    pad: 1
  }
}
layer {
  name: "inception_4d/pool_proj"
  type: "Convolution"
  bottom: "inception_4d/pool"
  top: "inception_4d/pool_proj"
  param {
    name: "inception_4d/pool_proj_w"
    lr_mult: 1
    decay_mult: 1
  }
  param {
    name: "inception_4d/pool_proj_b"
    lr_mult: 2
    decay_mult: 0
  }
  convolution_param {
    num_output: 64
    kernel_size: 1
    weight_filler {
      type: "xavier"
    }
    bias_filler {
      type: "constant"
      value: 0.2
    }
  }
}
layer {
  name: "inception_4d/relu_pool_proj"
  type: "ReLU"
  bottom: "inception_4d/pool_proj"
  top: "inception_4d/pool_proj"
}
layer {
  name: "inception_4d/output"
  type: "Concat"
  bottom: "inception_4d/1x1"
  bottom: "inception_4d/3x3"
  bottom: "inception_4d/5x5"
  bottom: "inception_4d/pool_proj"
  top: "inception_4d/output"
}
layer {
  name: "inception_4e/1x1"
  type: "Convolution"
  bottom: "inception_4d/output"
  top: "inception_4e/1x1"
  param {
    name: "inception_4e/1x1_w"
    lr_mult: 1
    decay_mult: 1
  }
  param {
    name: "inception_4e/1x1_b"
    lr_mult: 2
    decay_mult: 0
  }
  convolution_param {
    num_output: 256
    kernel_size: 1
    weight_filler {
      type: "xavier"
    }
    bias_filler {
      type: "constant"
      value: 0.2
    }
  }
}
layer {
  name: "inception_4e/relu_1x1"
  type: "ReLU"
  bottom: "inception_4e/1x1"
  top: "inception_4e/1x1"
}
layer {
  name: "inception_4e/3x3_reduce"
  type: "Convolution"
  bottom: "inception_4d/output"
  top: "inception_4e/3x3_reduce"
  param {
    name: "inception_4e/3x3_reduce_w"
    lr_mult: 1
    decay_mult: 1
  }
  param {
    name: "inception_4e/3x3_reduce_b"
    lr_mult: 2
    decay_mult: 0
  }
  convolution_param {
    num_output: 160
    kernel_size: 1
    weight_filler {
      type: "xavier"
    }
    bias_filler {
      type: "constant"
      value: 0.2
    }
  }
}
layer {
  name: "inception_4e/relu_3x3_reduce"
  type: "ReLU"
  bottom: "inception_4e/3x3_reduce"
  top: "inception_4e/3x3_reduce"
}
layer {
  name: "inception_4e/3x3"
  type: "Convolution"
  bottom: "inception_4e/3x3_reduce"
  top: "inception_4e/3x3"
  param {
    name: "inception_4e/3x3_w"
    lr_mult: 1
    decay_mult: 1
  }
  param {
    name: "inception_4e/3x3_b"
    lr_mult: 2
    decay_mult: 0
  }
  convolution_param {
    num_output: 320
    pad: 1
    kernel_size: 3
    weight_filler {
      type: "xavier"
    }
    bias_filler {
      type: "constant"
      value: 0.2
    }
  }
}
layer {
  name: "inception_4e/relu_3x3"
  type: "ReLU"
  bottom: "inception_4e/3x3"
  top: "inception_4e/3x3"
}
layer {
  name: "inception_4e/5x5_reduce"
  type: "Convolution"
  bottom: "inception_4d/output"
  top: "inception_4e/5x5_reduce"
  param {
    name: "inception_4e/5x5_reduce_w"
    lr_mult: 1
    decay_mult: 1
  }
  param {
    name: "inception_4e/5x5_reduce_b"
    lr_mult: 2
    decay_mult: 0
  }
  convolution_param {
    num_output: 32
    kernel_size: 1
    weight_filler {
      type: "xavier"
    }
    bias_filler {
      type: "constant"
      value: 0.2
    }
  }
}
layer {
  name: "inception_4e/relu_5x5_reduce"
  type: "ReLU"
  bottom: "inception_4e/5x5_reduce"
  top: "inception_4e/5x5_reduce"
}
layer {
  name: "inception_4e/5x5"
  type: "Convolution"
  bottom: "inception_4e/5x5_reduce"
  top: "inception_4e/5x5"
  param {
    name: "inception_4e/5x5_w"
    lr_mult: 1
    decay_mult: 1
  }
  param {
    name: "inception_4e/5x5_b"
    lr_mult: 2
    decay_mult: 0
  }
  convolution_param {
    num_output: 128
    pad: 2
    kernel_size: 5
    weight_filler {
      type: "xavier"
    }
    bias_filler {
      type: "constant"
      value: 0.2
    }
  }
}
layer {
  name: "inception_4e/relu_5x5"
  type: "ReLU"
  bottom: "inception_4e/5x5"
  top: "inception_4e/5x5"
}
layer {
  name: "inception_4e/pool"
  type: "Pooling"
  bottom: "inception_4d/output"
  top: "inception_4e/pool"
  pooling_param {
    pool: MAX
    kernel_size: 3
    stride: 1
    pad: 1
  }
}
layer {
  name: "inception_4e/pool_proj"
  type: "Convolution"
  bottom: "inception_4e/pool"
  top: "inception_4e/pool_proj"
  param {
    name: "inception_4e/pool_proj_w"
    lr_mult: 1
    decay_mult: 1
  }
  param {
    name: "inception_4e/pool_proj_b"
    lr_mult: 2
    decay_mult: 0
  }
  convolution_param {
    num_output: 128
    kernel_size: 1
    weight_filler {
      type: "xavier"
    }
    bias_filler {
      type: "constant"
      value: 0.2
    }
  }
}
layer {
  name: "inception_4e/relu_pool_proj"
  type: "ReLU"
  bottom: "inception_4e/pool_proj"
  top: "inception_4e/p
I1206 21:20:22.027467  8666 layer_factory.hpp:77] Creating layer data
I1206 21:20:22.560190  8666 net.cpp:100] Creating Layer data
I1206 21:20:22.560259  8666 net.cpp:408] data -> data
I1206 21:20:22.560302  8666 net.cpp:408] data -> data_p
I1206 21:20:22.560317  8666 net.cpp:408] data -> label
data list is loading:  0/100:->data list is loading:  1/
…
#############->data list is loading: 98/100:#################################################->data list is loading: 99/100:#################################################->data list is loading:100/100:##################################################->video_list:dataset/cuhk01/split/img_seq/testid486_set02_train_pair.txt
list eaxample:
{'frames': ['dataset/cuhk01/cuhk01/0600003.png'], 'reshape': (160, 80), 'label': [0], 'crop': (160, 80), 'frames_p': ['dataset/cuhk01/cuhk01/0237001.png']}
I1206 21:20:30.287170  8666 net.cpp:150] Setting up data
I1206 21:20:30.287257  8666 net.cpp:157] Top shape: 100 3 160 80 (3840000)
I1206 21:20:30.287278  8666 net.cpp:157] Top shape: 100 3 160 80 (3840000)
I1206 21:20:30.287293  8666 net.cpp:157] Top shape: 100 (100)
I1206 21:20:30.287307  8666 net.cpp:165] Memory required for data: 30720400
I1206 21:20:30.287330  8666 layer_factory.hpp:77] Creating layer label_data_2_split
I1206 21:20:30.287375  8666 net.cpp:100] Creating Layer label_data_2_split
I1206 21:20:30.287395  8666 net.cpp:434] label_data_2_split <- label
I1206 21:20:30.287431  8666 net.cpp:408] label_data_2_split -> label_data_2_split_0
I1206 21:20:30.287463  8666 net.cpp:408] label_data_2_split -> label_data_2_split_1
I1206 21:20:30.287525  8666 net.cpp:150] Setting up label_data_2_split
I1206 21:20:30.287546  8666 net.cpp:157] Top shape: 100 (100)
I1206 21:20:30.287559  8666 net.cpp:157] Top shape: 100 (100)
I1206 21:20:30.287569  8666 net.cpp:165] Memory required for data: 30721200
I1206 21:20:30.287578  8666 layer_factory.hpp:77] Creating layer conv1/7x7_s2
I1206 21:20:30.287617  8666 net.cpp:100] Creating Layer conv1/7x7_s2
I1206 21:20:30.287636  8666 net.cpp:434] conv1/7x7_s2 <- data
I1206 21:20:30.287652  8666 net.cpp:408] conv1/7x7_s2 -> conv1/7x7_s2
I1206 21:20:30.454530  8666 net.cpp:150] Setting up conv1/7x7_s2
I1206 21:20:30.454584  8666 net.cpp:157] Top shape: 100 64 80 40 (20480000)
I1206 21:20:30.454593  8666 net.cpp:165] Memory required for data: 112641200
I1206 21:20:30.454618  8666 layer_factory.hpp:77] Creating layer conv1/relu_7x7
I1206 21:20:30.454640  8666 net.cpp:100] Creating Layer conv1/relu_7x7
I1206 21:20:30.454648  8666 net.cpp:434] conv1/relu_7x7 <- conv1/7x7_s2
I1206 21:20:30.454674  8666 net.cpp:395] conv1/relu_7x7 -> conv1/7x7_s2 (in-place)
I1206 21:20:30.454965  8666 net.cpp:150] Setting up conv1/relu_7x7
I1206 21:20:30.454999  8666 net.cpp:157] Top shape: 100 64 80 40 (20480000)
I1206 21:20:30.455006  8666 net.cpp:165] Memory required for data: 194561200
I1206 21:20:30.455016  8666 layer_factory.hpp:77] Creating layer pool1/3x3_s2
I1206 21:20:30.455036  8666 net.cpp:100] Creating Layer pool1/3x3_s2
I1206 21:20:30.455044  8666 net.cpp:434] pool1/3x3_s2 <- conv1/7x7_s2
I1206 21:20:30.455052  8666 net.cpp:408] pool1/3x3_s2 -> pool1/3x3_s2
I1206 21:20:30.455114  8666 net.cpp:150] Setting up pool1/3x3_s2
I1206 21:20:30.455127  8666 net.cpp:157] Top shape: 100 64 40 20 (5120000)
I1206 21:20:30.455134  8666 net.cpp:165] Memory required for data: 215041200
I1206 21:20:30.455140  8666 layer_factory.hpp:77] Creating layer pool1/norm1
I1206 21:20:30.455153  8666 net.cpp:100] Creating Layer pool1/norm1
I1206 21:20:30.455159  8666 net.cpp:434] pool1/norm1 <- pool1/3x3_s2
I1206 21:20:30.455168  8666 net.cpp:408] pool1/norm1 -> pool1/norm1
I1206 21:20:30.455332  8666 net.cpp:150] Setting up pool1/norm1
I1206 21:20:30.455355  8666 net.cpp:157] Top shape: 100 64 40 20 (5120000)
I1206 21:20:30.455361  8666 net.cpp:165] Memory required for data: 235521200
I1206 21:20:30.455368  8666 layer_factory.hpp:77] Creating layer conv2/3x3_reduce
I1206 21:20:30.455384  8666 net.cpp:100] Creating Layer conv2/3x3_reduce
I1206 21:20:30.455392  8666 net.cpp:434] conv2/3x3_reduce <- pool1/norm1
I1206 21:20:30.455400  8666 net.cpp:408] conv2/3x3_reduce -> conv2/3x3_reduce
I1206 21:20:30.456635  8666 net.cpp:150] Setting up conv2/3x3_reduce
I1206 21:20:30.456672  8666 net.cpp:157] Top shape: 100 64 40 20 (5120000)
I1206 21:20:30.456681  8666 net.cpp:165] Memory required for data: 256001200
I1206 21:20:30.456692  8666 layer_factory.hpp:77] Creating layer conv2/relu_3x3_reduce
I1206 21:20:30.456703  8666 net.cpp:100] Creating Layer conv2/relu_3x3_reduce
I1206 21:20:30.456710  8666 net.cpp:434] conv2/relu_3x3_reduce <- conv2/3x3_reduce
I1206 21:20:30.456722  8666 net.cpp:395] conv2/relu_3x3_reduce -> conv2/3x3_reduce (in-place)
I1206 21:20:30.457015  8666 net.cpp:150] Setting up conv2/relu_3x3_reduce
I1206 21:20:30.457041  8666 net.cpp:157] Top shape: 100 64 40 20 (5120000)
I1206 21:20:30.457047  8666 net.cpp:165] Memory required for data: 276481200
I1206 21:20:30.457053  8666 layer_factory.hpp:77] Creating layer conv2/3x3
I1206 21:20:30.457075  8666 net.cpp:100] Creating Layer conv2/3x3
I1206 21:20:30.457083  8666 net.cpp:434] conv2/3x3 <- conv2/3x3_reduce
I1206 21:20:30.457093  8666 net.cpp:408] conv2/3x3 -> conv2/3x3
I1206 21:20:30.458956  8666 net.cpp:150] Setting up conv2/3x3
I1206 21:20:30.459000  8666 net.cpp:157] Top shape: 100 192 40 20 (15360000)
I1206 21:20:30.459017  8666 net.cpp:165] Memory required for data: 337921200
I1206 21:20:30.459039  8666 layer_factory.hpp:77] Creating layer conv2/relu_3x3
I1206 21:20:30.459055  8666 net.cpp:100] Creating Layer conv2/relu_3x3
I1206 21:20:30.459062  8666 net.cpp:434] conv2/relu_3x3 <- conv2/3x3
I1206 21:20:30.459070  8666 net.cpp:395] conv2/relu_3x3 -> conv2/3x3 (in-place)
I1206 21:20:30.459337  8666 net.cpp:150] Setting up conv2/relu_3x3
I1206 21:20:30.459363  8666 net.cpp:157] Top shape: 100 192 40 20 (15360000)
I1206 21:20:30.459370  8666 net.cpp:165] Memory required for data: 399361200
I1206 21:20:30.459377  8666 layer_factory.hpp:77] Creating layer pool2/3x3_s2
I1206 21:20:30.459388  8666 net.cpp:100] Creating Layer pool2/3x3_s2
I1206 21:20:30.459394  8666 net.cpp:434] pool2/3x3_s2 <- conv2/3x3
I1206 21:20:30.459410  8666 net.cpp:408] pool2/3x3_s2 -> pool2/3x3_s2
I1206 21:20:30.459463  8666 net.cpp:150] Setting up pool2/3x3_s2
I1206 21:20:30.459481  8666 net.cpp:157] Top shape: 100 192 20 10 (3840000)
I1206 21:20:30.459486  8666 net.cpp:165] Memory required for data: 414721200
I1206 21:20:30.459503  8666 layer_factory.hpp:77] Creating layer pool2/3x3_s2_pool2/3x3_s2_0_split
I1206 21:20:30.459516  8666 net.cpp:100] Creating Layer pool2/3x3_s2_pool2/3x3_s2_0_split
I1206 21:20:30.459539  8666 net.cpp:434] pool2/3x3_s2_pool2/3x3_s2_0_split <- pool2/3x3_s2
I1206 21:20:30.459552  8666 net.cpp:408] pool2/3x3_s2_pool2/3x3_s2_0_split -> pool2/3x3_s2_pool2/3x3_s2_0_split_0
I1206 21:20:30.459560  8666 net.cpp:408] pool2/3x3_s2_pool2/3x3_s2_0_split -> pool2/3x3_s2_pool2/3x3_s2_0_split_1
I1206 21:20:30.459569  8666 net.cpp:408] pool2/3x3_s2_pool2/3x3_s2_0_split -> pool2/3x3_s2_pool2/3x3_s2_0_split_2
I1206 21:20:30.459578  8666 net.cpp:408] pool2/3x3_s2_pool2/3x3_s2_0_split -> pool2/3x3_s2_pool2/3x3_s2_0_split_3
I1206 21:20:30.459640  8666 net.cpp:150] Setting up pool2/3x3_s2_pool2/3x3_s2_0_split
I1206 21:20:30.459651  8666 net.cpp:157] Top shape: 100 192 20 10 (3840000)
I1206 21:20:30.459658  8666 net.cpp:157] Top shape: 100 192 20 10 (3840000)
I1206 21:20:30.459666  8666 net.cpp:157] Top shape: 100 192 20 10 (3840000)
I1206 21:20:30.459671  8666 net.cpp:157] Top shape: 100 192 20 10 (3840000)
I1206 21:20:30.459678  8666 net.cpp:165] Memory required for data: 476161200
I1206 21:20:30.459684  8666 layer_factory.hpp:77] Creating layer inception_3a/1x1
I1206 21:20:30.459697  8666 net.cpp:100] Creating Layer inception_3a/1x1
I1206 21:20:30.459703  8666 net.cpp:434] inception_3a/1x1 <- pool2/3x3_s2_pool2/3x3_s2_0_split_0
I1206 21:20:30.459712  8666 net.cpp:408] inception_3a/1x1 -> inception_3a/1x1
I1206 21:20:30.460737  8666 net.cpp:150] Setting up inception_3a/1x1
I1206 21:20:30.460772  8666 net.cpp:157] Top shape: 100 64 20 10 (1280000)
I1206 21:20:30.460778  8666 net.cpp:165] Memory required for data: 481281200
I1206 21:20:30.460788  8666 layer_factory.hpp:77] Creating layer inception_3a/relu_1x1
I1206 21:20:30.460803  8666 net.cpp:100] Creating Layer inception_3a/relu_1x1
I1206 21:20:30.460811  8666 net.cpp:434] inception_3a/relu_1x1 <- inception_3a/1x1
I1206 21:20:30.460819  8666 net.cpp:395] inception_3a/relu_1x1 -> inception_3a/1x1 (in-place)
I1206 21:20:30.460966  8666 net.cpp:150] Setting up inception_3a/relu_1x1
I1206 21:20:30.460989  8666 net.cpp:157] Top shape: 100 64 20 10 (1280000)
I1206 21:20:30.460996  8666 net.cpp:165] Memory required for data: 486401200
I1206 21:20:30.461009  8666 layer_factory.hpp:77] Creating layer inception_3a/3x3_reduce
I1206 21:20:30.461021  8666 net.cpp:100] Creating Layer inception_3a/3x3_reduce
I1206 21:20:30.461030  8666 net.cpp:434] inception_3a/3x3_reduce <- pool2/3x3_s2_pool2/3x3_s2_0_split_1
I1206 21:20:30.461037  8666 net.cpp:408] inception_3a/3x3_reduce -> inception_3a/3x3_reduce
I1206 21:20:30.462435  8666 net.cpp:150] Setting up inception_3a/3x3_reduce
I1206 21:20:30.462471  8666 net.cpp:157] Top shape: 100 96 20 10 (1920000)
I1206 21:20:30.462478  8666 net.cpp:165] Memory required for data: 494081200
I1206 21:20:30.462492  8666 layer_factory.hpp:77] Creating layer inception_3a/relu_3x3_reduce
I1206 21:20:30.462502  8666 net.cpp:100] Creating Layer inception_3a/relu_3x3_reduce
I1206 21:20:30.462508  8666 net.cpp:434] inception_3a/relu_3x3_reduce <- inception_3a/3x3_reduce
I1206 21:20:30.462517  8666 net.cpp:395] inception_3a/relu_3x3_reduce -> inception_3a/3x3_reduce (in-place)
I1206 21:20:30.462853  8666 net.cpp:150] Setting up inception_3a/relu_3x3_reduce
I1206 21:20:30.462884  8666 net.cpp:157] Top shape: 100 96 20 10 (1920000)
I1206 21:20:30.462891  8666 net.cpp:165] Memory required for data: 501761200
I1206 21:20:30.462898  8666 layer_factory.hpp:77] Creating layer inception_3a/3x3
I1206 21:20:30.462918  8666 net.cpp:100] Creating Layer inception_3a/3x3
I1206 21:20:30.462926  8666 net.cpp:434] inception_3a/3x3 <- inception_3a/3x3_reduce
I1206 21:20:30.462935  8666 net.cpp:408] inception_3a/3x3 -> inception_3a/3x3
I1206 21:20:30.464411  8666 net.cpp:150] Setting up inception_3a/3x3
I1206 21:20:30.464447  8666 net.cpp:157] Top shape: 100 128 20 10 (2560000)
I1206 21:20:30.464454  8666 net.cpp:165] Memory required for data: 512001200
I1206 21:20:30.464464  8666 layer_factory.hpp:77] Creating layer inception_3a/relu_3x3
I1206 21:20:30.464473  8666 net.cpp:100] Creating Layer inception_3a/relu_3x3
I1206 21:20:30.464493  8666 net.cpp:434] inception_3a/relu_3x3 <- inception_3a/3x3
I1206 21:20:30.464507  8666 net.cpp:395] inception_3a/relu_3x3 -> inception_3a/3x3 (in-place)
I1206 21:20:30.464767  8666 net.cpp:150] Setting up inception_3a/relu_3x3
I1206 21:20:30.464794  8666 net.cpp:157] Top shape: 100 128 20 10 (2560000)
I1206 21:20:30.464802  8666 net.cpp:165] Memory required for data: 522241200
I1206 21:20:30.464818  8666 layer_factory.hpp:77] Creating layer inception_3a/5x5_reduce
I1206 21:20:30.464836  8666 net.cpp:100] Creating Layer inception_3a/5x5_reduce
I1206 21:20:30.464845  8666 net.cpp:434] inception_3a/5x5_reduce <- pool2/3x3_s2_pool2/3x3_s2_0_split_2
I1206 21:20:30.464855  8666 net.cpp:408] inception_3a/5x5_reduce -> inception_3a/5x5_reduce
I1206 21:20:30.465742  8666 net.cpp:150] Setting up inception_3a/5x5_reduce
I1206 21:20:30.465775  8666 net.cpp:157] Top shape: 100 16 20 10 (320000)
I1206 21:20:30.465781  8666 net.cpp:165] Memory required for data: 523521200
I1206 21:20:30.465791  8666 layer_factory.hpp:77] Creating layer inception_3a/relu_5x5_reduce
I1206 21:20:30.465801  8666 net.cpp:100] Creating Layer inception_3a/relu_5x5_reduce
I1206 21:20:30.465807  8666 net.cpp:434] inception_3a/relu_5x5_reduce <- inception_3a/5x5_reduce
I1206 21:20:30.465827  8666 net.cpp:395] inception_3a/relu_5x5_reduce -> inception_3a/5x5_reduce (in-place)
I1206 21:20:30.465981  8666 net.cpp:150] Setting up inception_3a/relu_5x5_reduce
I1206 21:20:30.466012  8666 net.cpp:157] Top shape: 100 16 20 10 (320000)
I1206 21:20:30.466017  8666 net.cpp:165] Memory required for data: 524801200
I1206 21:20:30.466024  8666 layer_factory.hpp:77] Creating layer inception_3a/5x5
I1206 21:20:30.466037  8666 net.cpp:100] Creating Layer inception_3a/5x5
I1206 21:20:30.466043  8666 net.cpp:434] inception_3a/5x5 <- inception_3a/5x5_reduce
I1206 21:20:30.466053  8666 net.cpp:408] inception_3a/5x5 -> inception_3a/5x5
I1206 21:20:30.467092  8666 net.cpp:150] Setting up inception_3a/5x5
I1206 21:20:30.467120  8666 net.cpp:157] Top shape: 100 32 20 10 (640000)
I1206 21:20:30.467128  8666 net.cpp:165] Memory required for data: 527361200
I1206 21:20:30.467145  8666 layer_factory.hpp:77] Creating layer inception_3a/relu_5x5
I1206 21:20:30.467164  8666 net.cpp:100] Creating Layer inception_3a/relu_5x5
I1206 21:20:30.467171  8666 net.cpp:434] inception_3a/relu_5x5 <- inception_3a/5x5
I1206 21:20:30.467181  8666 net.cpp:395] inception_3a/relu_5x5 -> inception_3a/5x5 (in-place)
I1206 21:20:30.467439  8666 net.cpp:150] Setting up inception_3a/relu_5x5
I1206 21:20:30.467458  8666 net.cpp:157] Top shape: 100 32 20 10 (640000)
I1206 21:20:30.467464  8666 net.cpp:165] Memory required for data: 529921200
I1206 21:20:30.467471  8666 layer_factory.hpp:77] Creating layer inception_3a/pool
I1206 21:20:30.467489  8666 net.cpp:100] Creating Layer inception_3a/pool
I1206 21:20:30.467497  8666 net.cpp:434] inception_3a/pool <- pool2/3x3_s2_pool2/3x3_s2_0_split_3
I1206 21:20:30.467506  8666 net.cpp:408] inception_3a/pool -> inception_3a/pool
I1206 21:20:30.467555  8666 net.cpp:150] Setting up inception_3a/pool
I1206 21:20:30.467566  8666 net.cpp:157] Top shape: 100 192 20 10 (3840000)
I1206 21:20:30.467572  8666 net.cpp:165] Memory required for data: 545281200
I1206 21:20:30.467579  8666 layer_factory.hpp:77] Creating layer inception_3a/pool_proj
I1206 21:20:30.467591  8666 net.cpp:100] Creating Layer inception_3a/pool_proj
I1206 21:20:30.467597  8666 net.cpp:434] inception_3a/pool_proj <- inception_3a/pool
I1206 21:20:30.467609  8666 net.cpp:408] inception_3a/pool_proj -> inception_3a/pool_proj
I1206 21:20:30.468349  8666 net.cpp:150] Setting up inception_3a/pool_proj
I1206 21:20:30.468384  8666 net.cpp:157] Top shape: 100 32 20 10 (640000)
I1206 21:20:30.468391  8666 net.cpp:165] Memory required for data: 547841200
I1206 21:20:30.468408  8666 layer_factory.hpp:77] Creating layer inception_3a/relu_pool_proj
I1206 21:20:30.468427  8666 net.cpp:100] Creating Layer inception_3a/relu_pool_proj
I1206 21:20:30.468436  8666 net.cpp:434] inception_3a/relu_pool_proj <- inception_3a/pool_proj
I1206 21:20:30.468452  8666 net.cpp:395] inception_3a/relu_pool_proj -> inception_3a/pool_proj (in-place)
I1206 21:20:30.468729  8666 net.cpp:150] Setting up inception_3a/relu_pool_proj
I1206 21:20:30.468762  8666 net.cpp:157] Top shape: 100 32 20 10 (640000)
I1206 21:20:30.468770  8666 net.cpp:165] Memory required for data: 550401200
I1206 21:20:30.468781  8666 layer_factory.hpp:77] Creating layer inception_3a/output
I1206 21:20:30.468796  8666 net.cpp:100] Creating Layer inception_3a/output
I1206 21:20:30.468802  8666 net.cpp:434] inception_3a/output <- inception_3a/1x1
I1206 21:20:30.468821  8666 net.cpp:434] inception_3a/output <- inception_3a/3x3
I1206 21:20:30.468828  8666 net.cpp:434] inception_3a/output <- inception_3a/5x5
I1206 21:20:30.468835  8666 net.cpp:434] inception_3a/output <- inception_3a/pool_proj
I1206 21:20:30.468842  8666 net.cpp:408] inception_3a/output -> inception_3a/output
I1206 21:20:30.468878  8666 net.cpp:150] Setting up inception_3a/output
I1206 21:20:30.468888  8666 net.cpp:157] Top shape: 100 256 20 10 (5120000)
I1206 21:20:30.468894  8666 net.cpp:165] Memory required for data: 570881200
I1206 21:20:30.468900  8666 layer_factory.hpp:77] Creating layer inception_3a/output_inception_3a/output_0_split
I1206 21:20:30.468909  8666 net.cpp:100] Creating Layer inception_3a/output_inception_3a/output_0_split
I1206 21:20:30.468916  8666 net.cpp:434] inception_3a/output_inception_3a/output_0_split <- inception_3a/output
I1206 21:20:30.468924  8666 net.cpp:408] inception_3a/output_inception_3a/output_0_split -> inception_3a/output_inception_3a/output_0_split_0
I1206 21:20:30.468935  8666 net.cpp:408] inception_3a/output_inception_3a/output_0_split -> inception_3a/output_inception_3a/output_0_split_1
I1206 21:20:30.468943  8666 net.cpp:408] inception_3a/output_inception_3a/output_0_split -> inception_3a/output_inception_3a/output_0_split_2
I1206 21:20:30.468951  8666 net.cpp:408] inception_3a/output_inception_3a/output_0_split -> inception_3a/output_inception_3a/output_0_split_3
I1206 21:20:30.469022  8666 net.cpp:150] Setting up inception_3a/output_inception_3a/output_0_split
I1206 21:20:30.469045  8666 net.cpp:157] Top shape: 100 256 20 10 (5120000)
I1206 21:20:30.469053  8666 net.cpp:157] Top shape: 100 256 20 10 (5120000)
I1206 21:20:30.469059  8666 net.cpp:157] Top shape: 100 256 20 10 (5120000)
I1206 21:20:30.469066  8666 net.cpp:157] Top shape: 100 256 20 10 (5120000)
I1206 21:20:30.469072  8666 net.cpp:165] Memory required for data: 652801200
I1206 21:20:30.469079  8666 layer_factory.hpp:77] Creating layer inception_3b/1x1
I1206 21:20:30.469090  8666 net.cpp:100] Creating Layer inception_3b/1x1
I1206 21:20:30.469099  8666 net.cpp:434] inception_3b/1x1 <- inception_3a/output_inception_3a/output_0_split_0
I1206 21:20:30.469117  8666 net.cpp:408] inception_3b/1x1 -> inception_3b/1x1
I1206 21:20:30.470229  8666 net.cpp:150] Setting up inception_3b/1x1
I1206 21:20:30.470264  8666 net.cpp:157] Top shape: 100 128 20 10 (2560000)
I1206 21:20:30.470273  8666 net.cpp:165] Memory required for data: 663041200
I1206 21:20:30.470281  8666 layer_factory.hpp:77] Creating layer inception_3b/relu_1x1
I1206 21:20:30.470293  8666 net.cpp:100] Creating Layer inception_3b/relu_1x1
I1206 21:20:30.470300  8666 net.cpp:434] inception_3b/relu_1x1 <- inception_3b/1x1
I1206 21:20:30.470309  8666 net.cpp:395] inception_3b/relu_1x1 -> inception_3b/1x1 (in-place)
I1206 21:20:30.470469  8666 net.cpp:150] Setting up inception_3b/relu_1x1
I1206 21:20:30.470499  8666 net.cpp:157] Top shape: 100 128 20 10 (2560000)
I1206 21:20:30.470505  8666 net.cpp:165] Memory required for data: 673281200
I1206 21:20:30.470513  8666 layer_factory.hpp:77] Creating layer inception_3b/3x3_reduce
I1206 21:20:30.470525  8666 net.cpp:100] Creating Layer inception_3b/3x3_reduce
I1206 21:20:30.470533  8666 net.cpp:434] inception_3b/3x3_reduce <- inception_3a/output_inception_3a/output_0_split_1
I1206 21:20:30.470546  8666 net.cpp:408] inception_3b/3x3_reduce -> inception_3b/3x3_reduce
I1206 21:20:30.471667  8666 net.cpp:150] Setting up inception_3b/3x3_reduce
I1206 21:20:30.471724  8666 net.cpp:157] Top shape: 100 128 20 10 (2560000)
I1206 21:20:30.471732  8666 net.cpp:165] Memory required for data: 683521200
I1206 21:20:30.471743  8666 layer_factory.hpp:77] Creating layer inception_3b/relu_3x3_reduce
I1206 21:20:30.471762  8666 net.cpp:100] Creating Layer inception_3b/relu_3x3_reduce
I1206 21:20:30.471771  8666 net.cpp:434] inception_3b/relu_3x3_reduce <- inception_3b/3x3_reduce
I1206 21:20:30.471778  8666 net.cpp:395] inception_3b/relu_3x3_reduce -> inception_3b/3x3_reduce (in-place)
I1206 21:20:30.472076  8666 net.cpp:150] Setting up inception_3b/relu_3x3_reduce
I1206 21:20:30.472101  8666 net.cpp:157] Top shape: 100 128 20 10 (2560000)
I1206 21:20:30.472108  8666 net.cpp:165] Memory required for data: 693761200
I1206 21:20:30.472120  8666 layer_factory.hpp:77] Creating layer inception_3b/3x3
I1206 21:20:30.472133  8666 net.cpp:100] Creating Layer inception_3b/3x3
I1206 21:20:30.472141  8666 net.cpp:434] inception_3b/3x3 <- inception_3b/3x3_reduce
I1206 21:20:30.472154  8666 net.cpp:408] inception_3b/3x3 -> inception_3b/3x3
I1206 21:20:30.475003  8666 net.cpp:150] Setting up inception_3b/3x3
I1206 21:20:30.475057  8666 net.cpp:157] Top shape: 100 192 20 10 (3840000)
I1206 21:20:30.475075  8666 net.cpp:165] Memory required for data: 709121200
I1206 21:20:30.475093  8666 layer_factory.hpp:77] Creating layer inception_3b/relu_3x3
I1206 21:20:30.475112  8666 net.cpp:100] Creating Layer inception_3b/relu_3x3
I1206 21:20:30.475121  8666 net.cpp:434] inception_3b/relu_3x3 <- inception_3b/3x3
I1206 21:20:30.475131  8666 net.cpp:395] inception_3b/relu_3x3 -> inception_3b/3x3 (in-place)
I1206 21:20:30.475433  8666 net.cpp:150] Setting up inception_3b/relu_3x3
I1206 21:20:30.475467  8666 net.cpp:157] Top shape: 100 192 20 10 (3840000)
I1206 21:20:30.475474  8666 net.cpp:165] Memory required for data: 724481200
I1206 21:20:30.475481  8666 layer_factory.hpp:77] Creating layer inception_3b/5x5_reduce
I1206 21:20:30.475505  8666 net.cpp:100] Creating Layer inception_3b/5x5_reduce
I1206 21:20:30.475514  8666 net.cpp:434] inception_3b/5x5_reduce <- inception_3a/output_inception_3a/output_0_split_2
I1206 21:20:30.475535  8666 net.cpp:408] inception_3b/5x5_reduce -> inception_3b/5x5_reduce
I1206 21:20:30.476589  8666 net.cpp:150] Setting up inception_3b/5x5_reduce
I1206 21:20:30.476637  8666 net.cpp:157] Top shape: 100 32 20 10 (640000)
I1206 21:20:30.476644  8666 net.cpp:165] Memory required for data: 727041200
I1206 21:20:30.476665  8666 layer_factory.hpp:77] Creating layer inception_3b/relu_5x5_reduce
I1206 21:20:30.476687  8666 net.cpp:100] Creating Layer inception_3b/relu_5x5_reduce
I1206 21:20:30.476696  8666 net.cpp:434] inception_3b/relu_5x5_reduce <- inception_3b/5x5_reduce
I1206 21:20:30.476704  8666 net.cpp:395] inception_3b/relu_5x5_reduce -> inception_3b/5x5_reduce (in-place)
I1206 21:20:30.476866  8666 net.cpp:150] Setting up inception_3b/relu_5x5_reduce
I1206 21:20:30.476888  8666 net.cpp:157] Top shape: 100 32 20 10 (640000)
I1206 21:20:30.476894  8666 net.cpp:165] Memory required for data: 729601200
I1206 21:20:30.476902  8666 layer_factory.hpp:77] Creating layer inception_3b/5x5
I1206 21:20:30.476917  8666 net.cpp:100] Creating Layer inception_3b/5x5
I1206 21:20:30.476924  8666 net.cpp:434] inception_3b/5x5 <- inception_3b/5x5_reduce
I1206 21:20:30.476938  8666 net.cpp:408] inception_3b/5x5 -> inception_3b/5x5
I1206 21:20:30.478886  8666 net.cpp:150] Setting up inception_3b/5x5
I1206 21:20:30.478937  8666 net.cpp:157] Top shape: 100 96 20 10 (1920000)
I1206 21:20:30.478945  8666 net.cpp:165] Memory required for data: 737281200
I1206 21:20:30.478966  8666 layer_factory.hpp:77] Creating layer inception_3b/relu_5x5
I1206 21:20:30.478982  8666 net.cpp:100] Creating Layer inception_3b/relu_5x5
I1206 21:20:30.478991  8666 net.cpp:434] inception_3b/relu_5x5 <- inception_3b/5x5
I1206 21:20:30.479001  8666 net.cpp:395] inception_3b/relu_5x5 -> inception_3b/5x5 (in-place)
I1206 21:20:30.479308  8666 net.cpp:150] Setting up inception_3b/relu_5x5
I1206 21:20:30.479347  8666 net.cpp:157] Top shape: 100 96 20 10 (1920000)
I1206 21:20:30.479354  8666 net.cpp:165] Memory required for data: 744961200
I1206 21:20:30.479362  8666 layer_factory.hpp:77] Creating layer inception_3b/pool
I1206 21:20:30.479372  8666 net.cpp:100] Creating Layer inception_3b/pool
I1206 21:20:30.479379  8666 net.cpp:434] inception_3b/pool <- inception_3a/output_inception_3a/output_0_split_3
I1206 21:20:30.479396  8666 net.cpp:408] inception_3b/pool -> inception_3b/pool
I1206 21:20:30.479457  8666 net.cpp:150] Setting up inception_3b/pool
I1206 21:20:30.479470  8666 net.cpp:157] Top shape: 100 256 20 10 (5120000)
I1206 21:20:30.479476  8666 net.cpp:165] Memory required for data: 765441200
I1206 21:20:30.479485  8666 layer_factory.hpp:77] Creating layer inception_3b/pool_proj
I1206 21:20:30.479504  8666 net.cpp:100] Creating Layer inception_3b/pool_proj
I1206 21:20:30.479512  8666 net.cpp:434] inception_3b/pool_proj <- inception_3b/pool
I1206 21:20:30.479522  8666 net.cpp:408] inception_3b/pool_proj -> inception_3b/pool_proj
I1206 21:20:30.480443  8666 net.cpp:150] Setting up inception_3b/pool_proj
I1206 21:20:30.480475  8666 net.cpp:157] Top shape: 100 64 20 10 (1280000)
I1206 21:20:30.480482  8666 net.cpp:165] Memory required for data: 770561200
I1206 21:20:30.480495  8666 layer_factory.hpp:77] Creating layer inception_3b/relu_pool_proj
I1206 21:20:30.480505  8666 net.cpp:100] Creating Layer inception_3b/relu_pool_proj
I1206 21:20:30.480514  8666 net.cpp:434] inception_3b/relu_pool_proj <- inception_3b/pool_proj
I1206 21:20:30.480522  8666 net.cpp:395] inception_3b/relu_pool_proj -> inception_3b/pool_proj (in-place)
I1206 21:20:30.480823  8666 net.cpp:150] Setting up inception_3b/relu_pool_proj
I1206 21:20:30.480855  8666 net.cpp:157] Top shape: 100 64 20 10 (1280000)
I1206 21:20:30.480862  8666 net.cpp:165] Memory required for data: 775681200
I1206 21:20:30.480870  8666 layer_factory.hpp:77] Creating layer inception_3b/output
I1206 21:20:30.480880  8666 net.cpp:100] Creating Layer inception_3b/output
I1206 21:20:30.480887  8666 net.cpp:434] inception_3b/output <- inception_3b/1x1
I1206 21:20:30.480895  8666 net.cpp:434] inception_3b/output <- inception_3b/3x3
I1206 21:20:30.480909  8666 net.cpp:434] inception_3b/output <- inception_3b/5x5
I1206 21:20:30.480917  8666 net.cpp:434] inception_3b/output <- inception_3b/pool_proj
I1206 21:20:30.480926  8666 net.cpp:408] inception_3b/output -> inception_3b/output
I1206 21:20:30.480967  8666 net.cpp:150] Setting up inception_3b/output
I1206 21:20:30.480979  8666 net.cpp:157] Top shape: 100 480 20 10 (9600000)
I1206 21:20:30.480985  8666 net.cpp:165] Memory required for data: 814081200
I1206 21:20:30.480993  8666 layer_factory.hpp:77] Creating layer pool3/3x3_s2
I1206 21:20:30.481003  8666 net.cpp:100] Creating Layer pool3/3x3_s2
I1206 21:20:30.481011  8666 net.cpp:434] pool3/3x3_s2 <- inception_3b/output
I1206 21:20:30.481020  8666 net.cpp:408] pool3/3x3_s2 -> pool3/3x3_s2
I1206 21:20:30.481070  8666 net.cpp:150] Setting up pool3/3x3_s2
I1206 21:20:30.481087  8666 net.cpp:157] Top shape: 100 480 10 5 (2400000)
I1206 21:20:30.481093  8666 net.cpp:165] Memory required for data: 823681200
I1206 21:20:30.481099  8666 layer_factory.hpp:77] Creating layer pool3/3x3_s2_pool3/3x3_s2_0_split
I1206 21:20:30.481117  8666 net.cpp:100] Creating Layer pool3/3x3_s2_pool3/3x3_s2_0_split
I1206 21:20:30.481125  8666 net.cpp:434] pool3/3x3_s2_pool3/3x3_s2_0_split <- pool3/3x3_s2
I1206 21:20:30.481132  8666 net.cpp:408] pool3/3x3_s2_pool3/3x3_s2_0_split -> pool3/3x3_s2_pool3/3x3_s2_0_split_0
I1206 21:20:30.481142  8666 net.cpp:408] pool3/3x3_s2_pool3/3x3_s2_0_split -> pool3/3x3_s2_pool3/3x3_s2_0_split_1
I1206 21:20:30.481151  8666 net.cpp:408] pool3/3x3_s2_pool3/3x3_s2_0_split -> pool3/3x3_s2_pool3/3x3_s2_0_split_2
I1206 21:20:30.481166  8666 net.cpp:408] pool3/3x3_s2_pool3/3x3_s2_0_split -> pool3/3x3_s2_pool3/3x3_s2_0_split_3
I1206 21:20:30.481227  8666 net.cpp:150] Setting up pool3/3x3_s2_pool3/3x3_s2_0_split
I1206 21:20:30.481240  8666 net.cpp:157] Top shape: 100 480 10 5 (2400000)
I1206 21:20:30.481261  8666 net.cpp:157] Top shape: 100 480 10 5 (2400000)
I1206 21:20:30.481276  8666 net.cpp:157] Top shape: 100 480 10 5 (2400000)
I1206 21:20:30.481282  8666 net.cpp:157] Top shape: 100 480 10 5 (2400000)
I1206 21:20:30.481288  8666 net.cpp:165] Memory required for data: 862081200
I1206 21:20:30.481294  8666 layer_factory.hpp:77] Creating layer inception_4a/1x1
I1206 21:20:30.481333  8666 net.cpp:100] Creating Layer inception_4a/1x1
I1206 21:20:30.481343  8666 net.cpp:434] inception_4a/1x1 <- pool3/3x3_s2_pool3/3x3_s2_0_split_0
I1206 21:20:30.481356  8666 net.cpp:408] inception_4a/1x1 -> inception_4a/1x1
I1206 21:20:30.482998  8666 net.cpp:150] Setting up inception_4a/1x1
I1206 21:20:30.483041  8666 net.cpp:157] Top shape: 100 192 10 5 (960000)
I1206 21:20:30.483048  8666 net.cpp:165] Memory required for data: 865921200
I1206 21:20:30.483059  8666 layer_factory.hpp:77] Creating layer inception_4a/relu_1x1
I1206 21:20:30.483070  8666 net.cpp:100] Creating Layer inception_4a/relu_1x1
I1206 21:20:30.483078  8666 net.cpp:434] inception_4a/relu_1x1 <- inception_4a/1x1
I1206 21:20:30.483085  8666 net.cpp:395] inception_4a/relu_1x1 -> inception_4a/1x1 (in-place)
I1206 21:20:30.483248  8666 net.cpp:150] Setting up inception_4a/relu_1x1
I1206 21:20:30.483278  8666 net.cpp:157] Top shape: 100 192 10 5 (960000)
I1206 21:20:30.483285  8666 net.cpp:165] Memory required for data: 869761200
I1206 21:20:30.483295  8666 layer_factory.hpp:77] Creating layer inception_4a/3x3_reduce
I1206 21:20:30.483312  8666 net.cpp:100] Creating Layer inception_4a/3x3_reduce
I1206 21:20:30.483320  8666 net.cpp:434] inception_4a/3x3_reduce <- pool3/3x3_s2_pool3/3x3_s2_0_split_1
I1206 21:20:30.483331  8666 net.cpp:408] inception_4a/3x3_reduce -> inception_4a/3x3_reduce
I1206 21:20:30.484518  8666 net.cpp:150] Setting up inception_4a/3x3_reduce
I1206 21:20:30.484549  8666 net.cpp:157] Top shape: 100 96 10 5 (480000)
I1206 21:20:30.484556  8666 net.cpp:165] Memory required for data: 871681200
I1206 21:20:30.484572  8666 layer_factory.hpp:77] Creating layer inception_4a/relu_3x3_reduce
I1206 21:20:30.484585  8666 net.cpp:100] Creating Layer inception_4a/relu_3x3_reduce
I1206 21:20:30.484599  8666 net.cpp:434] inception_4a/relu_3x3_reduce <- inception_4a/3x3_reduce
I1206 21:20:30.484608  8666 net.cpp:395] inception_4a/relu_3x3_reduce -> inception_4a/3x3_reduce (in-place)
I1206 21:20:30.484894  8666 net.cpp:150] Setting up inception_4a/relu_3x3_reduce
I1206 21:20:30.484927  8666 net.cpp:157] Top shape: 100 96 10 5 (480000)
I1206 21:20:30.484933  8666 net.cpp:165] Memory required for data: 873601200
I1206 21:20:30.484941  8666 layer_factory.hpp:77] Creating layer inception_4a/3x3
I1206 21:20:30.484954  8666 net.cpp:100] Creating Layer inception_4a/3x3
I1206 21:20:30.484962  8666 net.cpp:434] inception_4a/3x3 <- inception_4a/3x3_reduce
I1206 21:20:30.484972  8666 net.cpp:408] inception_4a/3x3 -> inception_4a/3x3
I1206 21:20:30.487380  8666 net.cpp:150] Setting up inception_4a/3x3
I1206 21:20:30.487429  8666 net.cpp:157] Top shape: 100 208 10 5 (1040000)
I1206 21:20:30.487437  8666 net.cpp:165] Memory required for data: 877761200
I1206 21:20:30.487457  8666 layer_factory.hpp:77] Creating layer inception_4a/relu_3x3
I1206 21:20:30.487478  8666 net.cpp:100] Creating Layer inception_4a/relu_3x3
I1206 21:20:30.487484  8666 net.cpp:434] inception_4a/relu_3x3 <- inception_4a/3x3
I1206 21:20:30.487493  8666 net.cpp:395] inception_4a/relu_3x3 -> inception_4a/3x3 (in-place)
I1206 21:20:30.487781  8666 net.cpp:150] Setting up inception_4a/relu_3x3
I1206 21:20:30.487813  8666 net.cpp:157] Top shape: 100 208 10 5 (1040000)
I1206 21:20:30.487820  8666 net.cpp:165] Memory required for data: 881921200
I1206 21:20:30.487826  8666 layer_factory.hpp:77] Creating layer inception_4a/5x5_reduce
I1206 21:20:30.487848  8666 net.cpp:100] Creating Layer inception_4a/5x5_reduce
I1206 21:20:30.487857  8666 net.cpp:434] inception_4a/5x5_reduce <- pool3/3x3_s2_pool3/3x3_s2_0_split_2
I1206 21:20:30.487869  8666 net.cpp:408] inception_4a/5x5_reduce -> inception_4a/5x5_reduce
I1206 21:20:30.488878  8666 net.cpp:150] Setting up inception_4a/5x5_reduce
I1206 21:20:30.488912  8666 net.cpp:157] Top shape: 100 16 10 5 (80000)
I1206 21:20:30.488920  8666 net.cpp:165] Memory required for data: 882241200
I1206 21:20:30.488931  8666 layer_factory.hpp:77] Creating layer inception_4a/relu_5x5_reduce
I1206 21:20:30.488941  8666 net.cpp:100] Creating Layer inception_4a/relu_5x5_reduce
I1206 21:20:30.488948  8666 net.cpp:434] inception_4a/relu_5x5_reduce <- inception_4a/5x5_reduce
I1206 21:20:30.488955  8666 net.cpp:395] inception_4a/relu_5x5_reduce -> inception_4a/5x5_reduce (in-place)
I1206 21:20:30.489122  8666 net.cpp:150] Setting up inception_4a/relu_5x5_reduce
I1206 21:20:30.489137  8666 net.cpp:157] Top shape: 100 16 10 5 (80000)
I1206 21:20:30.489145  8666 net.cpp:165] Memory required for data: 882561200
I1206 21:20:30.489152  8666 layer_factory.hpp:77] Creating layer inception_4a/5x5
I1206 21:20:30.489167  8666 net.cpp:100] Creating Layer inception_4a/5x5
I1206 21:20:30.489176  8666 net.cpp:434] inception_4a/5x5 <- inception_4a/5x5_reduce
I1206 21:20:30.489187  8666 net.cpp:408] inception_4a/5x5 -> inception_4a/5x5
I1206 21:20:30.490262  8666 net.cpp:150] Setting up inception_4a/5x5
I1206 21:20:30.490299  8666 net.cpp:157] Top shape: 100 48 10 5 (240000)
I1206 21:20:30.490306  8666 net.cpp:165] Memory required for data: 883521200
I1206 21:20:30.490325  8666 layer_factory.hpp:77] Creating layer inception_4a/relu_5x5
I1206 21:20:30.490335  8666 net.cpp:100] Creating Layer inception_4a/relu_5x5
I1206 21:20:30.490342  8666 net.cpp:434] inception_4a/relu_5x5 <- inception_4a/5x5
I1206 21:20:30.490350  8666 net.cpp:395] inception_4a/relu_5x5 -> inception_4a/5x5 (in-place)
I1206 21:20:30.490633  8666 net.cpp:150] Setting up inception_4a/relu_5x5
I1206 21:20:30.490665  8666 net.cpp:157] Top shape: 100 48 10 5 (240000)
I1206 21:20:30.490671  8666 net.cpp:165] Memory required for data: 884481200
I1206 21:20:30.490679  8666 layer_factory.hpp:77] Creating layer inception_4a/pool
I1206 21:20:30.490689  8666 net.cpp:100] Creating Layer inception_4a/pool
I1206 21:20:30.490697  8666 net.cpp:434] inception_4a/pool <- pool3/3x3_s2_pool3/3x3_s2_0_split_3
I1206 21:20:30.490715  8666 net.cpp:408] inception_4a/pool -> inception_4a/pool
I1206 21:20:30.490772  8666 net.cpp:150] Setting up inception_4a/pool
I1206 21:20:30.490790  8666 net.cpp:157] Top shape: 100 480 10 5 (2400000)
I1206 21:20:30.490797  8666 net.cpp:165] Memory required for data: 894081200
I1206 21:20:30.490803  8666 layer_factory.hpp:77] Creating layer inception_4a/pool_proj
I1206 21:20:30.490821  8666 net.cpp:100] Creating Layer inception_4a/pool_proj
I1206 21:20:30.490829  8666 net.cpp:434] inception_4a/pool_proj <- inception_4a/pool
I1206 21:20:30.490839  8666 net.cpp:408] inception_4a/pool_proj -> inception_4a/pool_proj
I1206 21:20:30.491852  8666 net.cpp:150] Setting up inception_4a/pool_proj
I1206 21:20:30.491888  8666 net.cpp:157] Top shape: 100 64 10 5 (320000)
I1206 21:20:30.491895  8666 net.cpp:165] Memory required for data: 895361200
I1206 21:20:30.491906  8666 layer_factory.hpp:77] Creating layer inception_4a/relu_pool_proj
I1206 21:20:30.491917  8666 net.cpp:100] Creating Layer inception_4a/relu_pool_proj
I1206 21:20:30.491925  8666 net.cpp:434] inception_4a/relu_pool_proj <- inception_4a/pool_proj
I1206 21:20:30.491932  8666 net.cpp:395] inception_4a/relu_pool_proj -> inception_4a/pool_proj (in-place)
I1206 21:20:30.492240  8666 net.cpp:150] Setting up inception_4a/relu_pool_proj
I1206 21:20:30.492259  8666 net.cpp:157] Top shape: 100 64 10 5 (320000)
I1206 21:20:30.492266  8666 net.cpp:165] Memory required for data: 896641200
I1206 21:20:30.492274  8666 layer_factory.hpp:77] Creating layer inception_4a/output
I1206 21:20:30.492283  8666 net.cpp:100] Creating Layer inception_4a/output
I1206 21:20:30.492290  8666 net.cpp:434] inception_4a/output <- inception_4a/1x1
I1206 21:20:30.492298  8666 net.cpp:434] inception_4a/output <- inception_4a/3x3
I1206 21:20:30.492305  8666 net.cpp:434] inception_4a/output <- inception_4a/5x5
I1206 21:20:30.492326  8666 net.cpp:434] inception_4a/output <- inception_4a/pool_proj
I1206 21:20:30.492336  8666 net.cpp:408] inception_4a/output -> inception_4a/output
I1206 21:20:30.492375  8666 net.cpp:150] Setting up inception_4a/output
I1206 21:20:30.492385  8666 net.cpp:157] Top shape: 100 512 10 5 (2560000)
I1206 21:20:30.492393  8666 net.cpp:165] Memory required for data: 906881200
I1206 21:20:30.492398  8666 layer_factory.hpp:77] Creating layer inception_4a/output_inception_4a/output_0_split
I1206 21:20:30.492411  8666 net.cpp:100] Creating Layer inception_4a/output_inception_4a/output_0_split
I1206 21:20:30.492419  8666 net.cpp:434] inception_4a/output_inception_4a/output_0_split <- inception_4a/output
I1206 21:20:30.492426  8666 net.cpp:408] inception_4a/output_inception_4a/output_0_split -> inception_4a/output_inception_4a/output_0_split_0
I1206 21:20:30.492435  8666 net.cpp:408] inception_4a/output_inception_4a/output_0_split -> inception_4a/output_inception_4a/output_0_split_1
I1206 21:20:30.492455  8666 net.cpp:408] inception_4a/output_inception_4a/output_0_split -> inception_4a/output_inception_4a/output_0_split_2
I1206 21:20:30.492463  8666 net.cpp:408] inception_4a/output_inception_4a/output_0_split -> inception_4a/output_inception_4a/output_0_split_3
I1206 21:20:30.492537  8666 net.cpp:150] Setting up inception_4a/output_inception_4a/output_0_split
I1206 21:20:30.492557  8666 net.cpp:157] Top shape: 100 512 10 5 (2560000)
I1206 21:20:30.492563  8666 net.cpp:157] Top shape: 100 512 10 5 (2560000)
I1206 21:20:30.492570  8666 net.cpp:157] Top shape: 100 512 10 5 (2560000)
I1206 21:20:30.492578  8666 net.cpp:157] Top shape: 100 512 10 5 (2560000)
I1206 21:20:30.492583  8666 net.cpp:165] Memory required for data: 947841200
I1206 21:20:30.492593  8666 layer_factory.hpp:77] Creating layer inception_4b/1x1
I1206 21:20:30.492616  8666 net.cpp:100] Creating Layer inception_4b/1x1
I1206 21:20:30.492624  8666 net.cpp:434] inception_4b/1x1 <- inception_4a/output_inception_4a/output_0_split_0
I1206 21:20:30.492633  8666 net.cpp:408] inception_4b/1x1 -> inception_4b/1x1
I1206 21:20:30.494143  8666 net.cpp:150] Setting up inception_4b/1x1
I1206 21:20:30.494191  8666 net.cpp:157] Top shape: 100 160 10 5 (800000)
I1206 21:20:30.494199  8666 net.cpp:165] Memory required for data: 951041200
I1206 21:20:30.494210  8666 layer_factory.hpp:77] Creating layer inception_4b/relu_1x1
I1206 21:20:30.494220  8666 net.cpp:100] Creating Layer inception_4b/relu_1x1
I1206 21:20:30.494228  8666 net.cpp:434] inception_4b/relu_1x1 <- inception_4b/1x1
I1206 21:20:30.494238  8666 net.cpp:395] inception_4b/relu_1x1 -> inception_4b/1x1 (in-place)
I1206 21:20:30.494403  8666 net.cpp:150] Setting up inception_4b/relu_1x1
I1206 21:20:30.494426  8666 net.cpp:157] Top shape: 100 160 10 5 (800000)
I1206 21:20:30.494432  8666 net.cpp:165] Memory required for data: 954241200
I1206 21:20:30.494438  8666 layer_factory.hpp:77] Creating layer inception_4b/3x3_reduce
I1206 21:20:30.494455  8666 net.cpp:100] Creating Layer inception_4b/3x3_reduce
I1206 21:20:30.494464  8666 net.cpp:434] inception_4b/3x3_reduce <- inception_4a/output_inception_4a/output_0_split_1
I1206 21:20:30.494477  8666 net.cpp:408] inception_4b/3x3_reduce -> inception_4b/3x3_reduce
I1206 21:20:30.495818  8666 net.cpp:150] Setting up inception_4b/3x3_reduce
I1206 21:20:30.495863  8666 net.cpp:157] Top shape: 100 112 10 5 (560000)
I1206 21:20:30.495870  8666 net.cpp:165] Memory required for data: 956481200
I1206 21:20:30.495882  8666 layer_factory.hpp:77] Creating layer inception_4b/relu_3x3_reduce
I1206 21:20:30.495900  8666 net.cpp:100] Creating Layer inception_4b/relu_3x3_reduce
I1206 21:20:30.495908  8666 net.cpp:434] inception_4b/relu_3x3_reduce <- inception_4b/3x3_reduce
I1206 21:20:30.495918  8666 net.cpp:395] inception_4b/relu_3x3_reduce -> inception_4b/3x3_reduce (in-place)
I1206 21:20:30.496227  8666 net.cpp:150] Setting up inception_4b/relu_3x3_reduce
I1206 21:20:30.496261  8666 net.cpp:157] Top shape: 100 112 10 5 (560000)
I1206 21:20:30.496268  8666 net.cpp:165] Memory required for data: 958721200
I1206 21:20:30.496294  8666 layer_factory.hpp:77] Creating layer inception_4b/3x3
I1206 21:20:30.496312  8666 net.cpp:100] Creating Layer inception_4b/3x3
I1206 21:20:30.496320  8666 net.cpp:434] inception_4b/3x3 <- inception_4b/3x3_reduce
I1206 21:20:30.496330  8666 net.cpp:408] inception_4b/3x3 -> inception_4b/3x3
I1206 21:20:30.499236  8666 net.cpp:150] Setting up inception_4b/3x3
I1206 21:20:30.499289  8666 net.cpp:157] Top shape: 100 224 10 5 (1120000)
I1206 21:20:30.499295  8666 net.cpp:165] Memory required for data: 963201200
I1206 21:20:30.499310  8666 layer_factory.hpp:77] Creating layer inception_4b/relu_3x3
I1206 21:20:30.499330  8666 net.cpp:100] Creating Layer inception_4b/relu_3x3
I1206 21:20:30.499339  8666 net.cpp:434] inception_4b/relu_3x3 <- inception_4b/3x3
I1206 21:20:30.499351  8666 net.cpp:395] inception_4b/relu_3x3 -> inception_4b/3x3 (in-place)
I1206 21:20:30.499662  8666 net.cpp:150] Setting up inception_4b/relu_3x3
I1206 21:20:30.499696  8666 net.cpp:157] Top shape: 100 224 10 5 (1120000)
I1206 21:20:30.499702  8666 net.cpp:165] Memory required for data: 967681200
I1206 21:20:30.499709  8666 layer_factory.hpp:77] Creating layer inception_4b/5x5_reduce
I1206 21:20:30.499738  8666 net.cpp:100] Creating Layer inception_4b/5x5_reduce
I1206 21:20:30.499747  8666 net.cpp:434] inception_4b/5x5_reduce <- inception_4a/output_inception_4a/output_0_split_2
I1206 21:20:30.499758  8666 net.cpp:408] inception_4b/5x5_reduce -> inception_4b/5x5_reduce
I1206 21:20:30.500844  8666 net.cpp:150] Setting up inception_4b/5x5_reduce
I1206 21:20:30.500893  8666 net.cpp:157] Top shape: 100 24 10 5 (120000)
I1206 21:20:30.500901  8666 net.cpp:165] Memory required for data: 968161200
I1206 21:20:30.500927  8666 layer_factory.hpp:77] Creating layer inception_4b/relu_5x5_reduce
I1206 21:20:30.500949  8666 net.cpp:100] Creating Layer inception_4b/relu_5x5_reduce
I1206 21:20:30.500958  8666 net.cpp:434] inception_4b/relu_5x5_reduce <- inception_4b/5x5_reduce
I1206 21:20:30.500968  8666 net.cpp:395] inception_4b/relu_5x5_reduce -> inception_4b/5x5_reduce (in-place)
I1206 21:20:30.501137  8666 net.cpp:150] Setting up inception_4b/relu_5x5_reduce
I1206 21:20:30.501175  8666 net.cpp:157] Top shape: 100 24 10 5 (120000)
I1206 21:20:30.501184  8666 net.cpp:165] Memory required for data: 968641200
I1206 21:20:30.501190  8666 layer_factory.hpp:77] Creating layer inception_4b/5x5
I1206 21:20:30.501207  8666 net.cpp:100] Creating Layer inception_4b/5x5
I1206 21:20:30.501216  8666 net.cpp:434] inception_4b/5x5 <- inception_4b/5x5_reduce
I1206 21:20:30.501227  8666 net.cpp:408] inception_4b/5x5 -> inception_4b/5x5
I1206 21:20:30.502923  8666 net.cpp:150] Setting up inception_4b/5x5
I1206 21:20:30.502969  8666 net.cpp:157] Top shape: 100 64 10 5 (320000)
I1206 21:20:30.502976  8666 net.cpp:165] Memory required for data: 969921200
I1206 21:20:30.502990  8666 layer_factory.hpp:77] Creating layer inception_4b/relu_5x5
I1206 21:20:30.503008  8666 net.cpp:100] Creating Layer inception_4b/relu_5x5
I1206 21:20:30.503015  8666 net.cpp:434] inception_4b/relu_5x5 <- inception_4b/5x5
I1206 21:20:30.503024  8666 net.cpp:395] inception_4b/relu_5x5 -> inception_4b/5x5 (in-place)
I1206 21:20:30.503331  8666 net.cpp:150] Setting up inception_4b/relu_5x5
I1206 21:20:30.503365  8666 net.cpp:157] Top shape: 100 64 10 5 (320000)
I1206 21:20:30.503373  8666 net.cpp:165] Memory required for data: 971201200
I1206 21:20:30.503379  8666 layer_factory.hpp:77] Creating layer inception_4b/pool
I1206 21:20:30.503394  8666 net.cpp:100] Creating Layer inception_4b/pool
I1206 21:20:30.503402  8666 net.cpp:434] inception_4b/pool <- inception_4a/output_inception_4a/output_0_split_3
I1206 21:20:30.503412  8666 net.cpp:408] inception_4b/pool -> inception_4b/pool
I1206 21:20:30.503479  8666 net.cpp:150] Setting up inception_4b/pool
I1206 21:20:30.503499  8666 net.cpp:157] Top shape: 100 512 10 5 (2560000)
I1206 21:20:30.503504  8666 net.cpp:165] Memory required for data: 981441200
I1206 21:20:30.503510  8666 layer_factory.hpp:77] Creating layer inception_4b/pool_proj
I1206 21:20:30.503548  8666 net.cpp:100] Creating Layer inception_4b/pool_proj
I1206 21:20:30.503556  8666 net.cpp:434] inception_4b/pool_proj <- inception_4b/pool
I1206 21:20:30.503572  8666 net.cpp:408] inception_4b/pool_proj -> inception_4b/pool_proj
I1206 21:20:30.504606  8666 net.cpp:150] Setting up inception_4b/pool_proj
I1206 21:20:30.504647  8666 net.cpp:157] Top shape: 100 64 10 5 (320000)
I1206 21:20:30.504654  8666 net.cpp:165] Memory required for data: 982721200
I1206 21:20:30.504667  8666 layer_factory.hpp:77] Creating layer inception_4b/relu_pool_proj
I1206 21:20:30.504678  8666 net.cpp:100] Creating Layer inception_4b/relu_pool_proj
I1206 21:20:30.504693  8666 net.cpp:434] inception_4b/relu_pool_proj <- inception_4b/pool_proj
I1206 21:20:30.504701  8666 net.cpp:395] inception_4b/relu_pool_proj -> inception_4b/pool_proj (in-place)
I1206 21:20:30.505003  8666 net.cpp:150] Setting up inception_4b/relu_pool_proj
I1206 21:20:30.505038  8666 net.cpp:157] Top shape: 100 64 10 5 (320000)
I1206 21:20:30.505044  8666 net.cpp:165] Memory required for data: 984001200
I1206 21:20:30.505051  8666 layer_factory.hpp:77] Creating layer inception_4b/output
I1206 21:20:30.505072  8666 net.cpp:100] Creating Layer inception_4b/output
I1206 21:20:30.505080  8666 net.cpp:434] inception_4b/output <- inception_4b/1x1
I1206 21:20:30.505089  8666 net.cpp:434] inception_4b/output <- inception_4b/3x3
I1206 21:20:30.505096  8666 net.cpp:434] inception_4b/output <- inception_4b/5x5
I1206 21:20:30.505102  8666 net.cpp:434] inception_4b/output <- inception_4b/pool_proj
I1206 21:20:30.505110  8666 net.cpp:408] inception_4b/output -> inception_4b/output
I1206 21:20:30.505151  8666 net.cpp:150] Setting up inception_4b/output
I1206 21:20:30.505163  8666 net.cpp:157] Top shape: 100 512 10 5 (2560000)
I1206 21:20:30.505170  8666 net.cpp:165] Memory required for data: 994241200
I1206 21:20:30.505182  8666 layer_factory.hpp:77] Creating layer inception_4b/output_inception_4b/output_0_split
I1206 21:20:30.505190  8666 net.cpp:100] Creating Layer inception_4b/output_inception_4b/output_0_split
I1206 21:20:30.505198  8666 net.cpp:434] inception_4b/output_inception_4b/output_0_split <- inception_4b/output
I1206 21:20:30.505213  8666 net.cpp:408] inception_4b/output_inception_4b/output_0_split -> inception_4b/output_inception_4b/output_0_split_0
I1206 21:20:30.505223  8666 net.cpp:408] inception_4b/output_inception_4b/output_0_split -> inception_4b/output_inception_4b/output_0_split_1
I1206 21:20:30.505233  8666 net.cpp:408] inception_4b/output_inception_4b/output_0_split -> inception_4b/output_inception_4b/output_0_split_2
I1206 21:20:30.505241  8666 net.cpp:408] inception_4b/output_inception_4b/output_0_split -> inception_4b/output_inception_4b/output_0_split_3
I1206 21:20:30.505321  8666 net.cpp:150] Setting up inception_4b/output_inception_4b/output_0_split
I1206 21:20:30.505343  8666 net.cpp:157] Top shape: 100 512 10 5 (2560000)
I1206 21:20:30.505352  8666 net.cpp:157] Top shape: 100 512 10 5 (2560000)
I1206 21:20:30.505357  8666 net.cpp:157] Top shape: 100 512 10 5 (2560000)
I1206 21:20:30.505364  8666 net.cpp:157] Top shape: 100 512 10 5 (2560000)
I1206 21:20:30.505370  8666 net.cpp:165] Memory required for data: 1035201200
I1206 21:20:30.505376  8666 layer_factory.hpp:77] Creating layer inception_4c/1x1
I1206 21:20:30.505393  8666 net.cpp:100] Creating Layer inception_4c/1x1
I1206 21:20:30.505399  8666 net.cpp:434] inception_4c/1x1 <- inception_4b/output_inception_4b/output_0_split_0
I1206 21:20:30.505410  8666 net.cpp:408] inception_4c/1x1 -> inception_4c/1x1
I1206 21:20:30.506804  8666 net.cpp:150] Setting up inception_4c/1x1
I1206 21:20:30.506844  8666 net.cpp:157] Top shape: 100 128 10 5 (640000)
I1206 21:20:30.506852  8666 net.cpp:165] Memory required for data: 1037761200
I1206 21:20:30.506862  8666 layer_factory.hpp:77] Creating layer inception_4c/relu_1x1
I1206 21:20:30.506872  8666 net.cpp:100] Creating Layer inception_4c/relu_1x1
I1206 21:20:30.506880  8666 net.cpp:434] inception_4c/relu_1x1 <- inception_4c/1x1
I1206 21:20:30.506906  8666 net.cpp:395] inception_4c/relu_1x1 -> inception_4c/1x1 (in-place)
I1206 21:20:30.507066  8666 net.cpp:150] Setting up inception_4c/relu_1x1
I1206 21:20:30.507088  8666 net.cpp:157] Top shape: 100 128 10 5 (640000)
I1206 21:20:30.507097  8666 net.cpp:165] Memory required for data: 1040321200
I1206 21:20:30.507103  8666 layer_factory.hpp:77] Creating layer inception_4c/3x3_reduce
I1206 21:20:30.507118  8666 net.cpp:100] Creating Layer inception_4c/3x3_reduce
I1206 21:20:30.507127  8666 net.cpp:434] inception_4c/3x3_reduce <- inception_4b/output_inception_4b/output_0_split_1
I1206 21:20:30.507136  8666 net.cpp:408] inception_4c/3x3_reduce -> inception_4c/3x3_reduce
I1206 21:20:30.508474  8666 net.cpp:150] Setting up inception_4c/3x3_reduce
I1206 21:20:30.508512  8666 net.cpp:157] Top shape: 100 128 10 5 (640000)
I1206 21:20:30.508518  8666 net.cpp:165] Memory required for data: 1042881200
I1206 21:20:30.508529  8666 layer_factory.hpp:77] Creating layer inception_4c/relu_3x3_reduce
I1206 21:20:30.508539  8666 net.cpp:100] Creating Layer inception_4c/relu_3x3_reduce
I1206 21:20:30.508546  8666 net.cpp:434] inception_4c/relu_3x3_reduce <- inception_4c/3x3_reduce
I1206 21:20:30.508555  8666 net.cpp:395] inception_4c/relu_3x3_reduce -> inception_4c/3x3_reduce (in-place)
I1206 21:20:30.508894  8666 net.cpp:150] Setting up inception_4c/relu_3x3_reduce
I1206 21:20:30.508924  8666 net.cpp:157] Top shape: 100 128 10 5 (640000)
I1206 21:20:30.508931  8666 net.cpp:165] Memory required for data: 1045441200
I1206 21:20:30.508939  8666 layer_factory.hpp:77] Creating layer inception_4c/3x3
I1206 21:20:30.508955  8666 net.cpp:100] Creating Layer inception_4c/3x3
I1206 21:20:30.508963  8666 net.cpp:434] inception_4c/3x3 <- inception_4c/3x3_reduce
I1206 21:20:30.508975  8666 net.cpp:408] inception_4c/3x3 -> inception_4c/3x3
I1206 21:20:30.512168  8666 net.cpp:150] Setting up inception_4c/3x3
I1206 21:20:30.512228  8666 net.cpp:157] Top shape: 100 256 10 5 (1280000)
I1206 21:20:30.512234  8666 net.cpp:165] Memory required for data: 1050561200
I1206 21:20:30.512264  8666 layer_factory.hpp:77] Creating layer inception_4c/relu_3x3
I1206 21:20:30.512284  8666 net.cpp:100] Creating Layer inception_4c/relu_3x3
I1206 21:20:30.512293  8666 net.cpp:434] inception_4c/relu_3x3 <- inception_4c/3x3
I1206 21:20:30.512302  8666 net.cpp:395] inception_4c/relu_3x3 -> inception_4c/3x3 (in-place)
I1206 21:20:30.512603  8666 net.cpp:150] Setting up inception_4c/relu_3x3
I1206 21:20:30.512634  8666 net.cpp:157] Top shape: 100 256 10 5 (1280000)
I1206 21:20:30.512640  8666 net.cpp:165] Memory required for data: 1055681200
I1206 21:20:30.512646  8666 layer_factory.hpp:77] Creating layer inception_4c/5x5_reduce
I1206 21:20:30.512661  8666 net.cpp:100] Creating Layer inception_4c/5x5_reduce
I1206 21:20:30.512670  8666 net.cpp:434] inception_4c/5x5_reduce <- inception_4b/output_inception_4b/output_0_split_2
I1206 21:20:30.512681  8666 net.cpp:408] inception_4c/5x5_reduce -> inception_4c/5x5_reduce
I1206 21:20:30.513792  8666 net.cpp:150] Setting up inception_4c/5x5_reduce
I1206 21:20:30.513834  8666 net.cpp:157] Top shape: 100 24 10 5 (120000)
I1206 21:20:30.513841  8666 net.cpp:165] Memory required for data: 1056161200
I1206 21:20:30.513854  8666 layer_factory.hpp:77] Creating layer inception_4c/relu_5x5_reduce
I1206 21:20:30.513872  8666 net.cpp:100] Creating Layer inception_4c/relu_5x5_reduce
I1206 21:20:30.513880  8666 net.cpp:434] inception_4c/relu_5x5_reduce <- inception_4c/5x5_reduce
I1206 21:20:30.513890  8666 net.cpp:395] inception_4c/relu_5x5_reduce -> inception_4c/5x5_reduce (in-place)
I1206 21:20:30.514055  8666 net.cpp:150] Setting up inception_4c/relu_5x5_reduce
I1206 21:20:30.514076  8666 net.cpp:157] Top shape: 100 24 10 5 (120000)
I1206 21:20:30.514083  8666 net.cpp:165] Memory required for data: 1056641200
I1206 21:20:30.514091  8666 layer_factory.hpp:77] Creating layer inception_4c/5x5
I1206 21:20:30.514113  8666 net.cpp:100] Creating Layer inception_4c/5x5
I1206 21:20:30.514122  8666 net.cpp:434] inception_4c/5x5 <- inception_4c/5x5_reduce
I1206 21:20:30.514153  8666 net.cpp:408] inception_4c/5x5 -> inception_4c/5x5
I1206 21:20:30.515493  8666 net.cpp:150] Setting up inception_4c/5x5
I1206 21:20:30.515530  8666 net.cpp:157] Top shape: 100 64 10 5 (320000)
I1206 21:20:30.515537  8666 net.cpp:165] Memory required for data: 1057921200
I1206 21:20:30.515548  8666 layer_factory.hpp:77] Creating layer inception_4c/relu_5x5
I1206 21:20:30.515559  8666 net.cpp:100] Creating Layer inception_4c/relu_5x5
I1206 21:20:30.515566  8666 net.cpp:434] inception_4c/relu_5x5 <- inception_4c/5x5
I1206 21:20:30.515583  8666 net.cpp:395] inception_4c/relu_5x5 -> inception_4c/5x5 (in-place)
I1206 21:20:30.515877  8666 net.cpp:150] Setting up inception_4c/relu_5x5
I1206 21:20:30.515902  8666 net.cpp:157] Top shape: 100 64 10 5 (320000)
I1206 21:20:30.515911  8666 net.cpp:165] Memory required for data: 1059201200
I1206 21:20:30.515918  8666 layer_factory.hpp:77] Creating layer inception_4c/pool
I1206 21:20:30.515936  8666 net.cpp:100] Creating Layer inception_4c/pool
I1206 21:20:30.515944  8666 net.cpp:434] inception_4c/pool <- inception_4b/output_inception_4b/output_0_split_3
I1206 21:20:30.515954  8666 net.cpp:408] inception_4c/pool -> inception_4c/pool
I1206 21:20:30.516019  8666 net.cpp:150] Setting up inception_4c/pool
I1206 21:20:30.516032  8666 net.cpp:157] Top shape: 100 512 10 5 (2560000)
I1206 21:20:30.516038  8666 net.cpp:165] Memory required for data: 1069441200
I1206 21:20:30.516044  8666 layer_factory.hpp:77] Creating layer inception_4c/pool_proj
I1206 21:20:30.516058  8666 net.cpp:100] Creating Layer inception_4c/pool_proj
I1206 21:20:30.516065  8666 net.cpp:434] inception_4c/pool_proj <- inception_4c/pool
I1206 21:20:30.516083  8666 net.cpp:408] inception_4c/pool_proj -> inception_4c/pool_proj
I1206 21:20:30.517601  8666 net.cpp:150] Setting up inception_4c/pool_proj
I1206 21:20:30.517650  8666 net.cpp:157] Top shape: 100 64 10 5 (320000)
I1206 21:20:30.517658  8666 net.cpp:165] Memory required for data: 1070721200
I1206 21:20:30.517689  8666 layer_factory.hpp:77] Creating layer inception_4c/relu_pool_proj
I1206 21:20:30.517704  8666 net.cpp:100] Creating Layer inception_4c/relu_pool_proj
I1206 21:20:30.517720  8666 net.cpp:434] inception_4c/relu_pool_proj <- inception_4c/pool_proj
I1206 21:20:30.517730  8666 net.cpp:395] inception_4c/relu_pool_proj -> inception_4c/pool_proj (in-place)
I1206 21:20:30.518038  8666 net.cpp:150] Setting up inception_4c/relu_pool_proj
I1206 21:20:30.518062  8666 net.cpp:157] Top shape: 100 64 10 5 (320000)
I1206 21:20:30.518069  8666 net.cpp:165] Memory required for data: 1072001200
I1206 21:20:30.518075  8666 layer_factory.hpp:77] Creating layer inception_4c/output
I1206 21:20:30.518095  8666 net.cpp:100] Creating Layer inception_4c/output
I1206 21:20:30.518102  8666 net.cpp:434] inception_4c/output <- inception_4c/1x1
I1206 21:20:30.518111  8666 net.cpp:434] inception_4c/output <- inception_4c/3x3
I1206 21:20:30.518120  8666 net.cpp:434] inception_4c/output <- inception_4c/5x5
I1206 21:20:30.518126  8666 net.cpp:434] inception_4c/output <- inception_4c/pool_proj
I1206 21:20:30.518134  8666 net.cpp:408] inception_4c/output -> inception_4c/output
I1206 21:20:30.518173  8666 net.cpp:150] Setting up inception_4c/output
I1206 21:20:30.518185  8666 net.cpp:157] Top shape: 100 512 10 5 (2560000)
I1206 21:20:30.518191  8666 net.cpp:165] Memory required for data: 1082241200
I1206 21:20:30.518198  8666 layer_factory.hpp:77] Creating layer inception_4c/output_inception_4c/output_0_split
I1206 21:20:30.518218  8666 net.cpp:100] Creating Layer inception_4c/output_inception_4c/output_0_split
I1206 21:20:30.518225  8666 net.cpp:434] inception_4c/output_inception_4c/output_0_split <- inception_4c/output
I1206 21:20:30.518242  8666 net.cpp:408] inception_4c/output_inception_4c/output_0_split -> inception_4c/output_inception_4c/output_0_split_0
I1206 21:20:30.518252  8666 net.cpp:408] inception_4c/output_inception_4c/output_0_split -> inception_4c/output_inception_4c/output_0_split_1
I1206 21:20:30.518261  8666 net.cpp:408] inception_4c/output_inception_4c/output_0_split -> inception_4c/output_inception_4c/output_0_split_2
I1206 21:20:30.518283  8666 net.cpp:408] inception_4c/output_inception_4c/output_0_split -> inception_4c/output_inception_4c/output_0_split_3
I1206 21:20:30.518355  8666 net.cpp:150] Setting up inception_4c/output_inception_4c/output_0_split
I1206 21:20:30.518380  8666 net.cpp:157] Top shape: 100 512 10 5 (2560000)
I1206 21:20:30.518388  8666 net.cpp:157] Top shape: 100 512 10 5 (2560000)
I1206 21:20:30.518393  8666 net.cpp:157] Top shape: 100 512 10 5 (2560000)
I1206 21:20:30.518400  8666 net.cpp:157] Top shape: 100 512 10 5 (2560000)
I1206 21:20:30.518406  8666 net.cpp:165] Memory required for data: 1123201200
I1206 21:20:30.518412  8666 layer_factory.hpp:77] Creating layer inception_4d/1x1
I1206 21:20:30.518429  8666 net.cpp:100] Creating Layer inception_4d/1x1
I1206 21:20:30.518437  8666 net.cpp:434] inception_4d/1x1 <- inception_4c/output_inception_4c/output_0_split_0
I1206 21:20:30.518447  8666 net.cpp:408] inception_4d/1x1 -> inception_4d/1x1
I1206 21:20:30.519819  8666 net.cpp:150] Setting up inception_4d/1x1
I1206 21:20:30.519861  8666 net.cpp:157] Top shape: 100 112 10 5 (560000)
I1206 21:20:30.519870  8666 net.cpp:165] Memory required for data: 1125441200
I1206 21:20:30.519881  8666 layer_factory.hpp:77] Creating layer inception_4d/relu_1x1
I1206 21:20:30.519898  8666 net.cpp:100] Creating Layer inception_4d/relu_1x1
I1206 21:20:30.519906  8666 net.cpp:434] inception_4d/relu_1x1 <- inception_4d/1x1
I1206 21:20:30.519914  8666 net.cpp:395] inception_4d/relu_1x1 -> inception_4d/1x1 (in-place)
I1206 21:20:30.520084  8666 net.cpp:150] Setting up inception_4d/relu_1x1
I1206 21:20:30.520107  8666 net.cpp:157] Top shape: 100 112 10 5 (560000)
I1206 21:20:30.520112  8666 net.cpp:165] Memory required for data: 1127681200
I1206 21:20:30.520119  8666 layer_factory.hpp:77] Creating layer inception_4d/3x3_reduce
I1206 21:20:30.520141  8666 net.cpp:100] Creating Layer inception_4d/3x3_reduce
I1206 21:20:30.520149  8666 net.cpp:434] inception_4d/3x3_reduce <- inception_4c/output_inception_4c/output_0_split_1
I1206 21:20:30.520160  8666 net.cpp:408] inception_4d/3x3_reduce -> inception_4d/3x3_reduce
I1206 21:20:30.521641  8666 net.cpp:150] Setting up inception_4d/3x3_reduce
I1206 21:20:30.521682  8666 net.cpp:157] Top shape: 100 144 10 5 (720000)
I1206 21:20:30.521690  8666 net.cpp:165] Memory required for data: 1130561200
I1206 21:20:30.521703  8666 layer_factory.hpp:77] Creating layer inception_4d/relu_3x3_reduce
I1206 21:20:30.521720  8666 net.cpp:100] Creating Layer inception_4d/relu_3x3_reduce
I1206 21:20:30.521728  8666 net.cpp:434] inception_4d/relu_3x3_reduce <- inception_4d/3x3_reduce
I1206 21:20:30.521737  8666 net.cpp:395] inception_4d/relu_3x3_reduce -> inception_4d/3x3_reduce (in-place)
I1206 21:20:30.522047  8666 net.cpp:150] Setting up inception_4d/relu_3x3_reduce
I1206 21:20:30.522071  8666 net.cpp:157] Top shape: 100 144 10 5 (720000)
I1206 21:20:30.522078  8666 net.cpp:165] Memory required for data: 1133441200
I1206 21:20:30.522089  8666 layer_factory.hpp:77] Creating layer inception_4d/3x3
I1206 21:20:30.522114  8666 net.cpp:100] Creating Layer inception_4d/3x3
I1206 21:20:30.522120  8666 net.cpp:434] inception_4d/3x3 <- inception_4d/3x3_reduce
I1206 21:20:30.522130  8666 net.cpp:408] inception_4d/3x3 -> inception_4d/3x3
I1206 21:20:30.525910  8666 net.cpp:150] Setting up inception_4d/3x3
I1206 21:20:30.525970  8666 net.cpp:157] Top shape: 100 288 10 5 (1440000)
I1206 21:20:30.525979  8666 net.cpp:165] Memory required for data: 1139201200
I1206 21:20:30.526007  8666 layer_factory.hpp:77] Creating layer inception_4d/relu_3x3
I1206 21:20:30.526028  8666 net.cpp:100] Creating Layer inception_4d/relu_3x3
I1206 21:20:30.526038  8666 net.cpp:434] inception_4d/relu_3x3 <- inception_4d/3x3
I1206 21:20:30.526047  8666 net.cpp:395] inception_4d/relu_3x3 -> inception_4d/3x3 (in-place)
I1206 21:20:30.526366  8666 net.cpp:150] Setting up inception_4d/relu_3x3
I1206 21:20:30.526399  8666 net.cpp:157] Top shape: 100 288 10 5 (1440000)
I1206 21:20:30.526422  8666 net.cpp:165] Memory required for data: 1144961200
I1206 21:20:30.526429  8666 layer_factory.hpp:77] Creating layer inception_4d/5x5_reduce
I1206 21:20:30.526445  8666 net.cpp:100] Creating Layer inception_4d/5x5_reduce
I1206 21:20:30.526453  8666 net.cpp:434] inception_4d/5x5_reduce <- inception_4c/output_inception_4c/output_0_split_2
I1206 21:20:30.526464  8666 net.cpp:408] inception_4d/5x5_reduce -> inception_4d/5x5_reduce
I1206 21:20:30.527618  8666 net.cpp:150] Setting up inception_4d/5x5_reduce
I1206 21:20:30.527662  8666 net.cpp:157] Top shape: 100 32 10 5 (160000)
I1206 21:20:30.527668  8666 net.cpp:165] Memory required for data: 1145601200
I1206 21:20:30.527688  8666 layer_factory.hpp:77] Creating layer inception_4d/relu_5x5_reduce
I1206 21:20:30.527709  8666 net.cpp:100] Creating Layer inception_4d/relu_5x5_reduce
I1206 21:20:30.527716  8666 net.cpp:434] inception_4d/relu_5x5_reduce <- inception_4d/5x5_reduce
I1206 21:20:30.527734  8666 net.cpp:395] inception_4d/relu_5x5_reduce -> inception_4d/5x5_reduce (in-place)
I1206 21:20:30.527906  8666 net.cpp:150] Setting up inception_4d/relu_5x5_reduce
I1206 21:20:30.527927  8666 net.cpp:157] Top shape: 100 32 10 5 (160000)
I1206 21:20:30.527935  8666 net.cpp:165] Memory required for data: 1146241200
I1206 21:20:30.527943  8666 layer_factory.hpp:77] Creating layer inception_4d/5x5
I1206 21:20:30.527966  8666 net.cpp:100] Creating Layer inception_4d/5x5
I1206 21:20:30.527974  8666 net.cpp:434] inception_4d/5x5 <- inception_4d/5x5_reduce
I1206 21:20:30.529445  8666 net.cpp:408] inception_4d/5x5 -> inception_4d/5x5
I1206 21:20:30.530999  8666 net.cpp:150] Setting up inception_4d/5x5
I1206 21:20:30.531042  8666 net.cpp:157] Top shape: 100 64 10 5 (320000)
I1206 21:20:30.531050  8666 net.cpp:165] Memory required for data: 1147521200
I1206 21:20:30.531080  8666 layer_factory.hpp:77] Creating layer inception_4d/relu_5x5
I1206 21:20:30.531093  8666 net.cpp:100] Creating Layer inception_4d/relu_5x5
I1206 21:20:30.531102  8666 net.cpp:434] inception_4d/relu_5x5 <- inception_4d/5x5
I1206 21:20:30.531111  8666 net.cpp:395] inception_4d/relu_5x5 -> inception_4d/5x5 (in-place)
I1206 21:20:30.531471  8666 net.cpp:150] Setting up inception_4d/relu_5x5
I1206 21:20:30.531502  8666 net.cpp:157] Top shape: 100 64 10 5 (320000)
I1206 21:20:30.531509  8666 net.cpp:165] Memory required for data: 1148801200
I1206 21:20:30.531517  8666 layer_factory.hpp:77] Creating layer inception_4d/pool
I1206 21:20:30.531545  8666 net.cpp:100] Creating Layer inception_4d/pool
I1206 21:20:30.531559  8666 net.cpp:434] inception_4d/pool <- inception_4c/output_inception_4c/output_0_split_3
I1206 21:20:30.531572  8666 net.cpp:408] inception_4d/pool -> inception_4d/pool
I1206 21:20:30.531651  8666 net.cpp:150] Setting up inception_4d/pool
I1206 21:20:30.531664  8666 net.cpp:157] Top shape: 100 512 10 5 (2560000)
I1206 21:20:30.531671  8666 net.cpp:165] Memory required for data: 1159041200
I1206 21:20:30.531677  8666 layer_factory.hpp:77] Creating layer inception_4d/pool_proj
I1206 21:20:30.531692  8666 net.cpp:100] Creating Layer inception_4d/pool_proj
I1206 21:20:30.531699  8666 net.cpp:434] inception_4d/pool_proj <- inception_4d/pool
I1206 21:20:30.531718  8666 net.cpp:408] inception_4d/pool_proj -> inception_4d/pool_proj
I1206 21:20:30.532847  8666 net.cpp:150] Setting up inception_4d/pool_proj
I1206 21:20:30.532884  8666 net.cpp:157] Top shape: 100 64 10 5 (320000)
I1206 21:20:30.532891  8666 net.cpp:165] Memory required for data: 1160321200
I1206 21:20:30.532905  8666 layer_factory.hpp:77] Creating layer inception_4d/relu_pool_proj
I1206 21:20:30.532914  8666 net.cpp:100] Creating Layer inception_4d/relu_pool_proj
I1206 21:20:30.532922  8666 net.cpp:434] inception_4d/relu_pool_proj <- inception_4d/pool_proj
I1206 21:20:30.532930  8666 net.cpp:395] inception_4d/relu_pool_proj -> inception_4d/pool_proj (in-place)
I1206 21:20:30.533246  8666 net.cpp:150] Setting up inception_4d/relu_pool_proj
I1206 21:20:30.533279  8666 net.cpp:157] Top shape: 100 64 10 5 (320000)
I1206 21:20:30.533287  8666 net.cpp:165] Memory required for data: 1161601200
I1206 21:20:30.533342  8666 layer_factory.hpp:77] Creating layer inception_4d/output
I1206 21:20:30.533356  8666 net.cpp:100] Creating Layer inception_4d/output
I1206 21:20:30.533365  8666 net.cpp:434] inception_4d/output <- inception_4d/1x1
I1206 21:20:30.533380  8666 net.cpp:434] inception_4d/output <- inception_4d/3x3
I1206 21:20:30.533387  8666 net.cpp:434] inception_4d/output <- inception_4d/5x5
I1206 21:20:30.533395  8666 net.cpp:434] inception_4d/output <- inception_4d/pool_proj
I1206 21:20:30.533404  8666 net.cpp:408] inception_4d/output -> inception_4d/output
I1206 21:20:30.533445  8666 net.cpp:150] Setting up inception_4d/output
I1206 21:20:30.533458  8666 net.cpp:157] Top shape: 100 528 10 5 (2640000)
I1206 21:20:30.533465  8666 net.cpp:165] Memory required for data: 1172161200
I1206 21:20:30.533471  8666 layer_factory.hpp:77] Creating layer inception_4d/output_inception_4d/output_0_split
I1206 21:20:30.533480  8666 net.cpp:100] Creating Layer inception_4d/output_inception_4d/output_0_split
I1206 21:20:30.533488  8666 net.cpp:434] inception_4d/output_inception_4d/output_0_split <- inception_4d/output
I1206 21:20:30.533495  8666 net.cpp:408] inception_4d/output_inception_4d/output_0_split -> inception_4d/output_inception_4d/output_0_split_0
I1206 21:20:30.533506  8666 net.cpp:408] inception_4d/output_inception_4d/output_0_split -> inception_4d/output_inception_4d/output_0_split_1
I1206 21:20:30.533515  8666 net.cpp:408] inception_4d/output_inception_4d/output_0_split -> inception_4d/output_inception_4d/output_0_split_2
I1206 21:20:30.533524  8666 net.cpp:408] inception_4d/output_inception_4d/output_0_split -> inception_4d/output_inception_4d/output_0_split_3
I1206 21:20:30.533589  8666 net.cpp:150] Setting up inception_4d/output_inception_4d/output_0_split
I1206 21:20:30.533609  8666 net.cpp:157] Top shape: 100 528 10 5 (2640000)
I1206 21:20:30.533617  8666 net.cpp:157] Top shape: 100 528 10 5 (2640000)
I1206 21:20:30.533622  8666 net.cpp:157] Top shape: 100 528 10 5 (2640000)
I1206 21:20:30.533629  8666 net.cpp:157] Top shape: 100 528 10 5 (2640000)
I1206 21:20:30.533635  8666 net.cpp:165] Memory required for data: 1214401200
I1206 21:20:30.533644  8666 layer_factory.hpp:77] Creating layer inception_4e/1x1
I1206 21:20:30.533659  8666 net.cpp:100] Creating Layer inception_4e/1x1
I1206 21:20:30.533668  8666 net.cpp:434] inception_4e/1x1 <- inception_4d/output_inception_4d/output_0_split_0
I1206 21:20:30.533677  8666 net.cpp:408] inception_4e/1x1 -> inception_4e/1x1
I1206 21:20:30.536164  8666 net.cpp:150] Setting up inception_4e/1x1
I1206 21:20:30.536222  8666 net.cpp:157] Top shape: 100 256 10 5 (1280000)
I1206 21:20:30.536231  8666 net.cpp:165] Memory required for data: 1219521200
I1206 21:20:30.536257  8666 layer_factory.hpp:77] Creating layer inception_4e/relu_1x1
I1206 21:20:30.536273  8666 net.cpp:100] Creating Layer inception_4e/relu_1x1
I1206 21:20:30.536281  8666 net.cpp:434] inception_4e/relu_1x1 <- inception_4e/1x1
I1206 21:20:30.536291  8666 net.cpp:395] inception_4e/relu_1x1 -> inception_4e/1x1 (in-place)
I1206 21:20:30.536468  8666 net.cpp:150] Setting up inception_4e/relu_1x1
I1206 21:20:30.536499  8666 net.cpp:157] Top shape: 100 256 10 5 (1280000)
I1206 21:20:30.536505  8666 net.cpp:165] Memory required for data: 1224641200
I1206 21:20:30.536514  8666 layer_factory.hpp:77] Creating layer inception_4e/3x3_reduce
I1206 21:20:30.536537  8666 net.cpp:100] Creating Layer inception_4e/3x3_reduce
I1206 21:20:30.536545  8666 net.cpp:434] inception_4e/3x3_reduce <- inception_4d/output_inception_4d/output_0_split_1
I1206 21:20:30.536556  8666 net.cpp:408] inception_4e/3x3_reduce -> inception_4e/3x3_reduce
I1206 21:20:30.538128  8666 net.cpp:150] Setting up inception_4e/3x3_reduce
I1206 21:20:30.538162  8666 net.cpp:157] Top shape: 100 160 10 5 (800000)
I1206 21:20:30.538169  8666 net.cpp:165] Memory required for data: 1227841200
I1206 21:20:30.538187  8666 layer_factory.hpp:77] Creating layer inception_4e/relu_3x3_reduce
I1206 21:20:30.538198  8666 net.cpp:100] Creating Layer inception_4e/relu_3x3_reduce
I1206 21:20:30.538221  8666 net.cpp:434] inception_4e/relu_3x3_reduce <- inception_4e/3x3_reduce
I1206 21:20:30.538231  8666 net.cpp:395] inception_4e/relu_3x3_reduce -> inception_4e/3x3_reduce (in-place)
I1206 21:20:30.538539  8666 net.cpp:150] Setting up inception_4e/relu_3x3_reduce
I1206 21:20:30.538573  8666 net.cpp:157] Top shape: 100 160 10 5 (800000)
I1206 21:20:30.538580  8666 net.cpp:165] Memory required for data: 1231041200
I1206 21:20:30.538590  8666 layer_factory.hpp:77] Creating layer inception_4e/3x3
I1206 21:20:30.538614  8666 net.cpp:100] Creating Layer inception_4e/3x3
I1206 21:20:30.538622  8666 net.cpp:434] inception_4e/3x3 <- inception_4e/3x3_reduce
I1206 21:20:30.538631  8666 net.cpp:408] inception_4e/3x3 -> inception_4e/3x3
I1206 21:20:30.543169  8666 net.cpp:150] Setting up inception_4e/3x3
I1206 21:20:30.543233  8666 net.cpp:157] Top shape: 100 320 10 5 (1600000)
I1206 21:20:30.543242  8666 net.cpp:165] Memory required for data: 1237441200
I1206 21:20:30.543268  8666 layer_factory.hpp:77] Creating layer inception_4e/relu_3x3
I1206 21:20:30.543292  8666 net.cpp:100] Creating Layer inception_4e/relu_3x3
I1206 21:20:30.543301  8666 net.cpp:434] inception_4e/relu_3x3 <- inception_4e/3x3
I1206 21:20:30.543323  8666 net.cpp:395] inception_4e/relu_3x3 -> inception_4e/3x3 (in-place)
I1206 21:20:30.543689  8666 net.cpp:150] Setting up inception_4e/relu_3x3
I1206 21:20:30.543715  8666 net.cpp:157] Top shape: 100 320 10 5 (1600000)
I1206 21:20:30.543722  8666 net.cpp:165] Memory required for data: 1243841200
I1206 21:20:30.543728  8666 layer_factory.hpp:77] Creating layer inception_4e/5x5_reduce
I1206 21:20:30.543753  8666 net.cpp:100] Creating Layer inception_4e/5x5_reduce
I1206 21:20:30.543761  8666 net.cpp:434] inception_4e/5x5_reduce <- inception_4d/output_inception_4d/output_0_split_2
I1206 21:20:30.543771  8666 net.cpp:408] inception_4e/5x5_reduce -> inception_4e/5x5_reduce
I1206 21:20:30.544984  8666 net.cpp:150] Setting up inception_4e/5x5_reduce
I1206 21:20:30.545024  8666 net.cpp:157] Top shape: 100 32 10 5 (160000)
I1206 21:20:30.545033  8666 net.cpp:165] Memory required for data: 1244481200
I1206 21:20:30.545056  8666 layer_factory.hpp:77] Creating layer inception_4e/relu_5x5_reduce
I1206 21:20:30.545075  8666 net.cpp:100] Creating Layer inception_4e/relu_5x5_reduce
I1206 21:20:30.545083  8666 net.cpp:434] inception_4e/relu_5x5_reduce <- inception_4e/5x5_reduce
I1206 21:20:30.545092  8666 net.cpp:395] inception_4e/relu_5x5_reduce -> inception_4e/5x5_reduce (in-place)
I1206 21:20:30.545267  8666 net.cpp:150] Setting up inception_4e/relu_5x5_reduce
I1206 21:20:30.545297  8666 net.cpp:157] Top shape: 100 32 10 5 (160000)
I1206 21:20:30.545331  8666 net.cpp:165] Memory required for data: 1245121200
I1206 21:20:30.545343  8666 layer_factory.hpp:77] Creating layer inception_4e/5x5
I1206 21:20:30.545357  8666 net.cpp:100] Creating Layer inception_4e/5x5
I1206 21:20:30.545366  8666 net.cpp:434] inception_4e/5x5 <- inception_4e/5x5_reduce
I1206 21:20:30.545383  8666 net.cpp:408] inception_4e/5x5 -> inception_4e/5x5
I1206 21:20:30.547487  8666 net.cpp:150] Setting up inception_4e/5x5
I1206 21:20:30.547536  8666 net.cpp:157] Top shape: 100 128 10 5 (640000)
I1206 21:20:30.547544  8666 net.cpp:165] Memory required for data: 1247681200
I1206 21:20:30.547565  8666 layer_factory.hpp:77] Creating layer inception_4e/relu_5x5
I1206 21:20:30.547588  8666 net.cpp:100] Creating Layer inception_4e/relu_5x5
I1206 21:20:30.547598  8666 net.cpp:434] inception_4e/relu_5x5 <- inception_4e/5x5
I1206 21:20:30.547610  8666 net.cpp:395] inception_4e/relu_5x5 -> inception_4e/5x5 (in-place)
I1206 21:20:30.547927  8666 net.cpp:150] Setting up inception_4e/relu_5x5
I1206 21:20:30.547963  8666 net.cpp:157] Top shape: 100 128 10 5 (640000)
I1206 21:20:30.547971  8666 net.cpp:165] Memory required for data: 1250241200
I1206 21:20:30.547977  8666 layer_factory.hpp:77] Creating layer inception_4e/pool
I1206 21:20:30.547998  8666 net.cpp:100] Creating Layer inception_4e/pool
I1206 21:20:30.548022  8666 net.cpp:434] inception_4e/pool <- inception_4d/output_inception_4d/output_0_split_3
I1206 21:20:30.548032  8666 net.cpp:408] inception_4e/pool -> inception_4e/pool
I1206 21:20:30.548104  8666 net.cpp:150] Setting up inception_4e/pool
I1206 21:20:30.548123  8666 net.cpp:157] Top shape: 100 528 10 5 (2640000)
I1206 21:20:30.548130  8666 net.cpp:165] Memory required for data: 1260801200
I1206 21:20:30.548140  8666 layer_factory.hpp:77] Creating layer inception_4e/pool_proj
I1206 21:20:30.548154  8666 net.cpp:100] Creating Layer inception_4e/pool_proj
I1206 21:20:30.548163  8666 net.cpp:434] inception_4e/pool_proj <- inception_4e/pool
I1206 21:20:30.548174  8666 net.cpp:408] inception_4e/pool_proj -> inception_4e/pool_proj
I1206 21:20:30.549515  8666 net.cpp:150] Setting up inception_4e/pool_proj
I1206 21:20:30.549556  8666 net.cpp:157] Top shape: 100 128 10 5 (640000)
I1206 21:20:30.549563  8666 net.cpp:165] Memory required for data: 1263361200
I1206 21:20:30.549583  8666 layer_factory.hpp:77] Creating layer inception_4e/relu_pool_proj
I1206 21:20:30.549597  8666 net.cpp:100] Creating Layer inception_4e/relu_pool_proj
I1206 21:20:30.549604  8666 net.cpp:434] inception_4e/relu_pool_proj <- inception_4e/pool_proj
I1206 21:20:30.549613  8666 net.cpp:395] inception_4e/relu_pool_proj -> inception_4e/pool_proj (in-place)
I1206 21:20:30.549948  8666 net.cpp:150] Setting up inception_4e/relu_pool_proj
I1206 21:20:30.549980  8666 net.cpp:157] Top shape: 100 128 10 5 (640000)
I1206 21:20:30.549988  8666 net.cpp:165] Memory required for data: 1265921200
I1206 21:20:30.549993  8666 layer_factory.hpp:77] Creating layer inception_4e/output
I1206 21:20:30.550003  8666 net.cpp:100] Creating Layer inception_4e/output
I1206 21:20:30.550011  8666 net.cpp:434] inception_4e/output <- inception_4e/1x1
I1206 21:20:30.550020  8666 net.cpp:434] inception_4e/output <- inception_4e/3x3
I1206 21:20:30.550029  8666 net.cpp:434] inception_4e/output <- inception_4e/5x5
I1206 21:20:30.550035  8666 net.cpp:434] inception_4e/output <- inception_4e/pool_proj
I1206 21:20:30.550043  8666 net.cpp:408] inception_4e/output -> inception_4e/output
I1206 21:20:30.550098  8666 net.cpp:150] Setting up inception_4e/output
I1206 21:20:30.550117  8666 net.cpp:157] Top shape: 100 832 10 5 (4160000)
I1206 21:20:30.550122  8666 net.cpp:165] Memory required for data: 1282561200
I1206 21:20:30.550128  8666 layer_factory.hpp:77] Creating layer inception_4e/output_inception_4e/output_0_split
I1206 21:20:30.550140  8666 net.cpp:100] Creating Layer inception_4e/output_inception_4e/output_0_split
I1206 21:20:30.550148  8666 net.cpp:434] inception_4e/output_inception_4e/output_0_split <- inception_4e/output
I1206 21:20:30.550156  8666 net.cpp:408] inception_4e/output_inception_4e/output_0_split -> inception_4e/output_inception_4e/output_0_split_0
I1206 21:20:30.550166  8666 net.cpp:408] inception_4e/output_inception_4e/output_0_split -> inception_4e/output_inception_4e/output_0_split_1
I1206 21:20:30.550174  8666 net.cpp:408] inception_4e/output_inception_4e/output_0_split -> inception_4e/output_inception_4e/output_0_split_2
I1206 21:20:30.550184  8666 net.cpp:408] inception_4e/output_inception_4e/output_0_split -> inception_4e/output_inception_4e/output_0_split_3
I1206 21:20:30.550261  8666 net.cpp:150] Setting up inception_4e/output_inception_4e/output_0_split
I1206 21:20:30.550281  8666 net.cpp:157] Top shape: 100 832 10 5 (4160000)
I1206 21:20:30.550287  8666 net.cpp:157] Top shape: 100 832 10 5 (4160000)
I1206 21:20:30.550294  8666 net.cpp:157] Top shape: 100 832 10 5 (4160000)
I1206 21:20:30.550302  8666 net.cpp:157] Top shape: 100 832 10 5 (4160000)
I1206 21:20:30.550307  8666 net.cpp:165] Memory required for data: 1349121200
I1206 21:20:30.550317  8666 layer_factory.hpp:77] Creating layer inception_5a/1x1
I1206 21:20:30.550329  8666 net.cpp:100] Creating Layer inception_5a/1x1
I1206 21:20:30.550338  8666 net.cpp:434] inception_5a/1x1 <- inception_4e/output_inception_4e/output_0_split_0
I1206 21:20:30.550348  8666 net.cpp:408] inception_5a/1x1 -> inception_5a/1x1
I1206 21:20:30.553169  8666 net.cpp:150] Setting up inception_5a/1x1
I1206 21:20:30.553225  8666 net.cpp:157] Top shape: 100 256 10 5 (1280000)
I1206 21:20:30.553232  8666 net.cpp:165] Memory required for data: 1354241200
I1206 21:20:30.553253  8666 layer_factory.hpp:77] Creating layer inception_5a/relu_1x1
I1206 21:20:30.553278  8666 net.cpp:100] Creating Layer inception_5a/relu_1x1
I1206 21:20:30.553288  8666 net.cpp:434] inception_5a/relu_1x1 <- inception_5a/1x1
I1206 21:20:30.553323  8666 net.cpp:395] inception_5a/relu_1x1 -> inception_5a/1x1 (in-place)
I1206 21:20:30.553505  8666 net.cpp:150] Setting up inception_5a/relu_1x1
I1206 21:20:30.553527  8666 net.cpp:157] Top shape: 100 256 10 5 (1280000)
I1206 21:20:30.553534  8666 net.cpp:165] Memory required for data: 1359361200
I1206 21:20:30.553541  8666 layer_factory.hpp:77] Creating layer inception_5a/3x3_reduce
I1206 21:20:30.553562  8666 net.cpp:100] Creating Layer inception_5a/3x3_reduce
I1206 21:20:30.553571  8666 net.cpp:434] inception_5a/3x3_reduce <- inception_4e/output_inception_4e/output_0_split_1
I1206 21:20:30.553580  8666 net.cpp:408] inception_5a/3x3_reduce -> inception_5a/3x3_reduce
I1206 21:20:30.555939  8666 net.cpp:150] Setting up inception_5a/3x3_reduce
I1206 21:20:30.555992  8666 net.cpp:157] Top shape: 100 160 10 5 (800000)
I1206 21:20:30.555999  8666 net.cpp:165] Memory required for data: 1362561200
I1206 21:20:30.556020  8666 layer_factory.hpp:77] Creating layer inception_5a/relu_3x3_reduce
I1206 21:20:30.556031  8666 net.cpp:100] Creating Layer inception_5a/relu_3x3_reduce
I1206 21:20:30.556041  8666 net.cpp:434] inception_5a/relu_3x3_reduce <- inception_5a/3x3_reduce
I1206 21:20:30.556056  8666 net.cpp:395] inception_5a/relu_3x3_reduce -> inception_5a/3x3_reduce (in-place)
I1206 21:20:30.556401  8666 net.cpp:150] Setting up inception_5a/relu_3x3_reduce
I1206 21:20:30.556437  8666 net.cpp:157] Top shape: 100 160 10 5 (800000)
I1206 21:20:30.556443  8666 net.cpp:165] Memory required for data: 1365761200
I1206 21:20:30.556453  8666 layer_factory.hpp:77] Creating layer inception_5a/3x3
I1206 21:20:30.556471  8666 net.cpp:100] Creating Layer inception_5a/3x3
I1206 21:20:30.556488  8666 net.cpp:434] inception_5a/3x3 <- inception_5a/3x3_reduce
I1206 21:20:30.556499  8666 net.cpp:408] inception_5a/3x3 -> inception_5a/3x3
I1206 21:20:30.561134  8666 net.cpp:150] Setting up inception_5a/3x3
I1206 21:20:30.561199  8666 net.cpp:157] Top shape: 100 320 10 5 (1600000)
I1206 21:20:30.561208  8666 net.cpp:165] Memory required for data: 1372161200
I1206 21:20:30.561231  8666 layer_factory.hpp:77] Creating layer inception_5a/relu_3x3
I1206 21:20:30.561254  8666 net.cpp:100] Creating Layer inception_5a/relu_3x3
I1206 21:20:30.561264  8666 net.cpp:434] inception_5a/relu_3x3 <- inception_5a/3x3
I1206 21:20:30.561272  8666 net.cpp:395] inception_5a/relu_3x3 -> inception_5a/3x3 (in-place)
I1206 21:20:30.561620  8666 net.cpp:150] Setting up inception_5a/relu_3x3
I1206 21:20:30.561660  8666 net.cpp:157] Top shape: 100 320 10 5 (1600000)
I1206 21:20:30.561666  8666 net.cpp:165] Memory required for data: 1378561200
I1206 21:20:30.561673  8666 layer_factory.hpp:77] Creating layer inception_5a/5x5_reduce
I1206 21:20:30.561698  8666 net.cpp:100] Creating Layer inception_5a/5x5_reduce
I1206 21:20:30.561707  8666 net.cpp:434] inception_5a/5x5_reduce <- inception_4e/output_inception_4e/output_0_split_2
I1206 21:20:30.561717  8666 net.cpp:408] inception_5a/5x5_reduce -> inception_5a/5x5_reduce
I1206 21:20:30.563055  8666 net.cpp:150] Setting up inception_5a/5x5_reduce
I1206 21:20:30.563107  8666 net.cpp:157] Top shape: 100 32 10 5 (160000)
I1206 21:20:30.563114  8666 net.cpp:165] Memory required for data: 1379201200
I1206 21:20:30.563135  8666 layer_factory.hpp:77] Creating layer inception_5a/relu_5x5_reduce
I1206 21:20:30.563158  8666 net.cpp:100] Creating Layer inception_5a/relu_5x5_reduce
I1206 21:20:30.563175  8666 net.cpp:434] inception_5a/relu_5x5_reduce <- inception_5a/5x5_reduce
I1206 21:20:30.563194  8666 net.cpp:395] inception_5a/relu_5x5_reduce -> inception_5a/5x5_reduce (in-place)
I1206 21:20:30.563390  8666 net.cpp:150] Setting up inception_5a/relu_5x5_reduce
I1206 21:20:30.563419  8666 net.cpp:157] Top shape: 100 32 10 5 (160000)
I1206 21:20:30.563426  8666 net.cpp:165] Memory required for data: 1379841200
I1206 21:20:30.563442  8666 layer_factory.hpp:77] Creating layer inception_5a/5x5
I1206 21:20:30.563459  8666 net.cpp:100] Creating Layer inception_5a/5x5
I1206 21:20:30.563467  8666 net.cpp:434] inception_5a/5x5 <- inception_5a/5x5_reduce
I1206 21:20:30.563482  8666 net.cpp:408] inception_5a/5x5 -> inception_5a/5x5
I1206 21:20:30.565351  8666 net.cpp:150] Setting up inception_5a/5x5
I1206 21:20:30.565409  8666 net.cpp:157] Top shape: 100 128 10 5 (640000)
I1206 21:20:30.565418  8666 net.cpp:165] Memory required for data: 1382401200
I1206 21:20:30.565433  8666 layer_factory.hpp:77] Creating layer inception_5a/relu_5x5
I1206 21:20:30.565455  8666 net.cpp:100] Creating Layer inception_5a/relu_5x5
I1206 21:20:30.565466  8666 net.cpp:434] inception_5a/relu_5x5 <- inception_5a/5x5
I1206 21:20:30.565475  8666 net.cpp:395] inception_5a/relu_5x5 -> inception_5a/5x5 (in-place)
I1206 21:20:30.565865  8666 net.cpp:150] Setting up inception_5a/relu_5x5
I1206 21:20:30.565899  8666 net.cpp:157] Top shape: 100 128 10 5 (640000)
I1206 21:20:30.565907  8666 net.cpp:165] Memory required for data: 1384961200
I1206 21:20:30.565912  8666 layer_factory.hpp:77] Creating layer inception_5a/pool
I1206 21:20:30.565943  8666 net.cpp:100] Creating Layer inception_5a/pool
I1206 21:20:30.565951  8666 net.cpp:434] inception_5a/pool <- inception_4e/output_inception_4e/output_0_split_3
I1206 21:20:30.565961  8666 net.cpp:408] inception_5a/pool -> inception_5a/pool
I1206 21:20:30.566033  8666 net.cpp:150] Setting up inception_5a/pool
I1206 21:20:30.566054  8666 net.cpp:157] Top shape: 100 832 10 5 (4160000)
I1206 21:20:30.566061  8666 net.cpp:165] Memory required for data: 1401601200
I1206 21:20:30.566077  8666 layer_factory.hpp:77] Creating layer inception_5a/pool_proj
I1206 21:20:30.566099  8666 net.cpp:100] Creating Layer inception_5a/pool_proj
I1206 21:20:30.566107  8666 net.cpp:434] inception_5a/pool_proj <- inception_5a/pool
I1206 21:20:30.566125  8666 net.cpp:408] inception_5a/pool_proj -> inception_5a/pool_proj
I1206 21:20:30.568248  8666 net.cpp:150] Setting up inception_5a/pool_proj
I1206 21:20:30.568295  8666 net.cpp:157] Top shape: 100 128 10 5 (640000)
I1206 21:20:30.568302  8666 net.cpp:165] Memory required for data: 1404161200
I1206 21:20:30.568315  8666 layer_factory.hpp:77] Creating layer inception_5a/relu_pool_proj
I1206 21:20:30.568332  8666 net.cpp:100] Creating Layer inception_5a/relu_pool_proj
I1206 21:20:30.568341  8666 net.cpp:434] inception_5a/relu_pool_proj <- inception_5a/pool_proj
I1206 21:20:30.568348  8666 net.cpp:395] inception_5a/relu_pool_proj -> inception_5a/pool_proj (in-place)
I1206 21:20:30.568651  8666 net.cpp:150] Setting up inception_5a/relu_pool_proj
I1206 21:20:30.568686  8666 net.cpp:157] Top shape: 100 128 10 5 (640000)
I1206 21:20:30.568691  8666 net.cpp:165] Memory required for data: 1406721200
I1206 21:20:30.568698  8666 layer_factory.hpp:77] Creating layer inception_5a/output
I1206 21:20:30.568709  8666 net.cpp:100] Creating Layer inception_5a/output
I1206 21:20:30.568717  8666 net.cpp:434] inception_5a/output <- inception_5a/1x1
I1206 21:20:30.568725  8666 net.cpp:434] inception_5a/output <- inception_5a/3x3
I1206 21:20:30.568732  8666 net.cpp:434] inception_5a/output <- inception_5a/5x5
I1206 21:20:30.568739  8666 net.cpp:434] inception_5a/output <- inception_5a/pool_proj
I1206 21:20:30.568747  8666 net.cpp:408] inception_5a/output -> inception_5a/output
I1206 21:20:30.568801  8666 net.cpp:150] Setting up inception_5a/output
I1206 21:20:30.568814  8666 net.cpp:157] Top shape: 100 832 10 5 (4160000)
I1206 21:20:30.568819  8666 net.cpp:165] Memory required for data: 1423361200
I1206 21:20:30.568828  8666 layer_factory.hpp:77] Creating layer inception_5a/output_inception_5a/output_0_split
I1206 21:20:30.568840  8666 net.cpp:100] Creating Layer inception_5a/output_inception_5a/output_0_split
I1206 21:20:30.568866  8666 net.cpp:434] inception_5a/output_inception_5a/output_0_split <- inception_5a/output
I1206 21:20:30.568879  8666 net.cpp:408] inception_5a/output_inception_5a/output_0_split -> inception_5a/output_inception_5a/output_0_split_0
I1206 21:20:30.568889  8666 net.cpp:408] inception_5a/output_inception_5a/output_0_split -> inception_5a/output_inception_5a/output_0_split_1
I1206 21:20:30.568898  8666 net.cpp:408] inception_5a/output_inception_5a/output_0_split -> inception_5a/output_inception_5a/output_0_split_2
I1206 21:20:30.568907  8666 net.cpp:408] inception_5a/output_inception_5a/output_0_split -> inception_5a/output_inception_5a/output_0_split_3
I1206 21:20:30.568986  8666 net.cpp:150] Setting up inception_5a/output_inception_5a/output_0_split
I1206 21:20:30.569006  8666 net.cpp:157] Top shape: 100 832 10 5 (4160000)
I1206 21:20:30.569013  8666 net.cpp:157] Top shape: 100 832 10 5 (4160000)
I1206 21:20:30.569020  8666 net.cpp:157] Top shape: 100 832 10 5 (4160000)
I1206 21:20:30.569026  8666 net.cpp:157] Top shape: 100 832 10 5 (4160000)
I1206 21:20:30.569032  8666 net.cpp:165] Memory required for data: 1489921200
I1206 21:20:30.569039  8666 layer_factory.hpp:77] Creating layer inception_5b/1x1
I1206 21:20:30.569052  8666 net.cpp:100] Creating Layer inception_5b/1x1
I1206 21:20:30.569059  8666 net.cpp:434] inception_5b/1x1 <- inception_5a/output_inception_5a/output_0_split_0
I1206 21:20:30.569079  8666 net.cpp:408] inception_5b/1x1 -> inception_5b/1x1
I1206 21:20:30.572582  8666 net.cpp:150] Setting up inception_5b/1x1
I1206 21:20:30.572624  8666 net.cpp:157] Top shape: 100 384 10 5 (1920000)
I1206 21:20:30.572633  8666 net.cpp:165] Memory required for data: 1497601200
I1206 21:20:30.572654  8666 layer_factory.hpp:77] Creating layer inception_5b/relu_1x1
I1206 21:20:30.572669  8666 net.cpp:100] Creating Layer inception_5b/relu_1x1
I1206 21:20:30.572676  8666 net.cpp:434] inception_5b/relu_1x1 <- inception_5b/1x1
I1206 21:20:30.572688  8666 net.cpp:395] inception_5b/relu_1x1 -> inception_5b/1x1 (in-place)
I1206 21:20:30.572868  8666 net.cpp:150] Setting up inception_5b/relu_1x1
I1206 21:20:30.572906  8666 net.cpp:157] Top shape: 100 384 10 5 (1920000)
I1206 21:20:30.572912  8666 net.cpp:165] Memory required for data: 1505281200
I1206 21:20:30.572919  8666 layer_factory.hpp:77] Creating layer inception_5b/3x3_reduce
I1206 21:20:30.572933  8666 net.cpp:100] Creating Layer inception_5b/3x3_reduce
I1206 21:20:30.572942  8666 net.cpp:434] inception_5b/3x3_reduce <- inception_5a/output_inception_5a/output_0_split_1
I1206 21:20:30.572952  8666 net.cpp:408] inception_5b/3x3_reduce -> inception_5b/3x3_reduce
I1206 21:20:30.575464  8666 net.cpp:150] Setting up inception_5b/3x3_reduce
I1206 21:20:30.575513  8666 net.cpp:157] Top shape: 100 192 10 5 (960000)
I1206 21:20:30.575521  8666 net.cpp:165] Memory required for data: 1509121200
I1206 21:20:30.575541  8666 layer_factory.hpp:77] Creating layer inception_5b/relu_3x3_reduce
I1206 21:20:30.575559  8666 net.cpp:100] Creating Layer inception_5b/relu_3x3_reduce
I1206 21:20:30.575567  8666 net.cpp:434] inception_5b/relu_3x3_reduce <- inception_5b/3x3_reduce
I1206 21:20:30.575577  8666 net.cpp:395] inception_5b/relu_3x3_reduce -> inception_5b/3x3_reduce (in-place)
I1206 21:20:30.575891  8666 net.cpp:150] Setting up inception_5b/relu_3x3_reduce
I1206 21:20:30.575922  8666 net.cpp:157] Top shape: 100 192 10 5 (960000)
I1206 21:20:30.575929  8666 net.cpp:165] Memory required for data: 1512961200
I1206 21:20:30.575935  8666 layer_factory.hpp:77] Creating layer inception_5b/3x3
I1206 21:20:30.575948  8666 net.cpp:100] Creating Layer inception_5b/3x3
I1206 21:20:30.575956  8666 net.cpp:434] inception_5b/3x3 <- inception_5b/3x3_reduce
I1206 21:20:30.575966  8666 net.cpp:408] inception_5b/3x3 -> inception_5b/3x3
I1206 21:20:30.581743  8666 net.cpp:150] Setting up inception_5b/3x3
I1206 21:20:30.581799  8666 net.cpp:157] Top shape: 100 384 10 5 (1920000)
I1206 21:20:30.581807  8666 net.cpp:165] Memory required for data: 1520641200
I1206 21:20:30.581852  8666 layer_factory.hpp:77] Creating layer inception_5b/relu_3x3
I1206 21:20:30.581871  8666 net.cpp:100] Creating Layer inception_5b/relu_3x3
I1206 21:20:30.581881  8666 net.cpp:434] inception_5b/relu_3x3 <- inception_5b/3x3
I1206 21:20:30.581889  8666 net.cpp:395] inception_5b/relu_3x3 -> inception_5b/3x3 (in-place)
I1206 21:20:30.582231  8666 net.cpp:150] Setting up inception_5b/relu_3x3
I1206 21:20:30.582262  8666 net.cpp:157] Top shape: 100 384 10 5 (1920000)
I1206 21:20:30.582268  8666 net.cpp:165] Memory required for data: 1528321200
I1206 21:20:30.582275  8666 layer_factory.hpp:77] Creating layer inception_5b/5x5_reduce
I1206 21:20:30.582299  8666 net.cpp:100] Creating Layer inception_5b/5x5_reduce
I1206 21:20:30.582309  8666 net.cpp:434] inception_5b/5x5_reduce <- inception_5a/output_inception_5a/output_0_split_2
I1206 21:20:30.582319  8666 net.cpp:408] inception_5b/5x5_reduce -> inception_5b/5x5_reduce
I1206 21:20:30.583684  8666 net.cpp:150] Setting up inception_5b/5x5_reduce
I1206 21:20:30.583724  8666 net.cpp:157] Top shape: 100 48 10 5 (240000)
I1206 21:20:30.583730  8666 net.cpp:165] Memory required for data: 1529281200
I1206 21:20:30.583745  8666 layer_factory.hpp:77] Creating layer inception_5b/relu_5x5_reduce
I1206 21:20:30.583762  8666 net.cpp:100] Creating Layer inception_5b/relu_5x5_reduce
I1206 21:20:30.583770  8666 net.cpp:434] inception_5b/relu_5x5_reduce <- inception_5b/5x5_reduce
I1206 21:20:30.583778  8666 net.cpp:395] inception_5b/relu_5x5_reduce -> inception_5b/5x5_reduce (in-place)
I1206 21:20:30.583946  8666 net.cpp:150] Setting up inception_5b/relu_5x5_reduce
I1206 21:20:30.583976  8666 net.cpp:157] Top shape: 100 48 10 5 (240000)
I1206 21:20:30.583982  8666 net.cpp:165] Memory required for data: 1530241200
I1206 21:20:30.583988  8666 layer_factory.hpp:77] Creating layer inception_5b/5x5
I1206 21:20:30.584012  8666 net.cpp:100] Creating Layer inception_5b/5x5
I1206 21:20:30.584019  8666 net.cpp:434] inception_5b/5x5 <- inception_5b/5x5_reduce
I1206 21:20:30.584029  8666 net.cpp:408] inception_5b/5x5 -> inception_5b/5x5
I1206 21:20:30.586149  8666 net.cpp:150] Setting up inception_5b/5x5
I1206 21:20:30.586197  8666 net.cpp:157] Top shape: 100 128 10 5 (640000)
I1206 21:20:30.586205  8666 net.cpp:165] Memory required for data: 1532801200
I1206 21:20:30.586217  8666 layer_factory.hpp:77] Creating layer inception_5b/relu_5x5
I1206 21:20:30.586232  8666 net.cpp:100] Creating Layer inception_5b/relu_5x5
I1206 21:20:30.586241  8666 net.cpp:434] inception_5b/relu_5x5 <- inception_5b/5x5
I1206 21:20:30.586249  8666 net.cpp:395] inception_5b/relu_5x5 -> inception_5b/5x5 (in-place)
I1206 21:20:30.586577  8666 net.cpp:150] Setting up inception_5b/relu_5x5
I1206 21:20:30.586608  8666 net.cpp:157] Top shape: 100 128 10 5 (640000)
I1206 21:20:30.586616  8666 net.cpp:165] Memory required for data: 1535361200
I1206 21:20:30.586621  8666 layer_factory.hpp:77] Creating layer inception_5b/pool
I1206 21:20:30.586633  8666 net.cpp:100] Creating Layer inception_5b/pool
I1206 21:20:30.586642  8666 net.cpp:434] inception_5b/pool <- inception_5a/output_inception_5a/output_0_split_3
I1206 21:20:30.586661  8666 net.cpp:408] inception_5b/pool -> inception_5b/pool
I1206 21:20:30.586735  8666 net.cpp:150] Setting up inception_5b/pool
I1206 21:20:30.586753  8666 net.cpp:157] Top shape: 100 832 10 5 (4160000)
I1206 21:20:30.586760  8666 net.cpp:165] Memory required for data: 1552001200
I1206 21:20:30.586768  8666 layer_factory.hpp:77] Creating layer inception_5b/pool_proj
I1206 21:20:30.586786  8666 net.cpp:100] Creating Layer inception_5b/pool_proj
I1206 21:20:30.586792  8666 net.cpp:434] inception_5b/pool_proj <- inception_5b/pool
I1206 21:20:30.586802  8666 net.cpp:408] inception_5b/pool_proj -> inception_5b/pool_proj
I1206 21:20:30.588802  8666 net.cpp:150] Setting up inception_5b/pool_proj
I1206 21:20:30.588843  8666 net.cpp:157] Top shape: 100 128 10 5 (640000)
I1206 21:20:30.588850  8666 net.cpp:165] Memory required for data: 1554561200
I1206 21:20:30.588862  8666 layer_factory.hpp:77] Creating layer inception_5b/relu_pool_proj
I1206 21:20:30.588891  8666 net.cpp:100] Creating Layer inception_5b/relu_pool_proj
I1206 21:20:30.588899  8666 net.cpp:434] inception_5b/relu_pool_proj <- inception_5b/pool_proj
I1206 21:20:30.588908  8666 net.cpp:395] inception_5b/relu_pool_proj -> inception_5b/pool_proj (in-place)
I1206 21:20:30.589226  8666 net.cpp:150] Setting up inception_5b/relu_pool_proj
I1206 21:20:30.589257  8666 net.cpp:157] Top shape: 100 128 10 5 (640000)
I1206 21:20:30.589263  8666 net.cpp:165] Memory required for data: 1557121200
I1206 21:20:30.589269  8666 layer_factory.hpp:77] Creating layer inception_5b/output
I1206 21:20:30.589278  8666 net.cpp:100] Creating Layer inception_5b/output
I1206 21:20:30.589285  8666 net.cpp:434] inception_5b/output <- inception_5b/1x1
I1206 21:20:30.589293  8666 net.cpp:434] inception_5b/output <- inception_5b/3x3
I1206 21:20:30.589300  8666 net.cpp:434] inception_5b/output <- inception_5b/5x5
I1206 21:20:30.589334  8666 net.cpp:434] inception_5b/output <- inception_5b/pool_proj
I1206 21:20:30.589344  8666 net.cpp:408] inception_5b/output -> inception_5b/output
I1206 21:20:30.589390  8666 net.cpp:150] Setting up inception_5b/output
I1206 21:20:30.589403  8666 net.cpp:157] Top shape: 100 1024 10 5 (5120000)
I1206 21:20:30.589411  8666 net.cpp:165] Memory required for data: 1577601200
I1206 21:20:30.589419  8666 layer_factory.hpp:77] Creating layer conv1/7x7_s2_p
I1206 21:20:30.589437  8666 net.cpp:100] Creating Layer conv1/7x7_s2_p
I1206 21:20:30.589447  8666 net.cpp:434] conv1/7x7_s2_p <- data_p
I1206 21:20:30.589455  8666 net.cpp:408] conv1/7x7_s2_p -> conv1/7x7_s2_p
I1206 21:20:30.590596  8666 net.cpp:150] Setting up conv1/7x7_s2_p
I1206 21:20:30.590628  8666 net.cpp:157] Top shape: 100 64 80 40 (20480000)
I1206 21:20:30.590636  8666 net.cpp:165] Memory required for data: 1659521200
I1206 21:20:30.590644  8666 net.cpp:493] Sharing parameters 'conv1/7x7_s2_w' owned by layer 'conv1/7x7_s2', param index 0
I1206 21:20:30.590652  8666 net.cpp:493] Sharing parameters 'conv1/7x7_s2_b' owned by layer 'conv1/7x7_s2', param index 1
I1206 21:20:30.590658  8666 layer_factory.hpp:77] Creating layer conv1/relu_7x7_p
I1206 21:20:30.590674  8666 net.cpp:100] Creating Layer conv1/relu_7x7_p
I1206 21:20:30.590682  8666 net.cpp:434] conv1/relu_7x7_p <- conv1/7x7_s2_p
I1206 21:20:30.590693  8666 net.cpp:395] conv1/relu_7x7_p -> conv1/7x7_s2_p (in-place)
I1206 21:20:30.590869  8666 net.cpp:150] Setting up conv1/relu_7x7_p
I1206 21:20:30.590891  8666 net.cpp:157] Top shape: 100 64 80 40 (20480000)
I1206 21:20:30.590898  8666 net.cpp:165] Memory required for data: 1741441200
I1206 21:20:30.590905  8666 layer_factory.hpp:77] Creating layer pool1/3x3_s2_p
I1206 21:20:30.590915  8666 net.cpp:100] Creating Layer pool1/3x3_s2_p
I1206 21:20:30.590922  8666 net.cpp:434] pool1/3x3_s2_p <- conv1/7x7_s2_p
I1206 21:20:30.590931  8666 net.cpp:408] pool1/3x3_s2_p -> pool1/3x3_s2_p
I1206 21:20:30.591001  8666 net.cpp:150] Setting up pool1/3x3_s2_p
I1206 21:20:30.591015  8666 net.cpp:157] Top shape: 100 64 40 20 (5120000)
I1206 21:20:30.591022  8666 net.cpp:165] Memory required for data: 1761921200
I1206 21:20:30.591027  8666 layer_factory.hpp:77] Creating layer pool1/norm1_p
I1206 21:20:30.591038  8666 net.cpp:100] Creating Layer pool1/norm1_p
I1206 21:20:30.591047  8666 net.cpp:434] pool1/norm1_p <- pool1/3x3_s2_p
I1206 21:20:30.591055  8666 net.cpp:408] pool1/norm1_p -> pool1/norm1_p
I1206 21:20:30.591477  8666 net.cpp:150] Setting up pool1/norm1_p
I1206 21:20:30.591502  8666 net.cpp:157] Top shape: 100 64 40 20 (5120000)
I1206 21:20:30.591509  8666 net.cpp:165] Memory required for data: 1782401200
I1206 21:20:30.591526  8666 layer_factory.hpp:77] Creating layer conv2/3x3_reduce_p
I1206 21:20:30.591547  8666 net.cpp:100] Creating Layer conv2/3x3_reduce_p
I1206 21:20:30.591555  8666 net.cpp:434] conv2/3x3_reduce_p <- pool1/norm1_p
I1206 21:20:30.591565  8666 net.cpp:408] conv2/3x3_reduce_p -> conv2/3x3_reduce_p
I1206 21:20:30.592655  8666 net.cpp:150] Setting up conv2/3x3_reduce_p
I1206 21:20:30.592689  8666 net.cpp:157] Top shape: 100 64 40 20 (5120000)
I1206 21:20:30.592715  8666 net.cpp:165] Memory required for data: 1802881200
I1206 21:20:30.592723  8666 net.cpp:493] Sharing parameters 'conv2/3x3_reduce_w' owned by layer 'conv2/3x3_reduce', param index 0
I1206 21:20:30.592731  8666 net.cpp:493] Sharing parameters 'conv2/3x3_reduce_b' owned by layer 'conv2/3x3_reduce', param index 1
I1206 21:20:30.592737  8666 layer_factory.hpp:77] Creating layer conv2/relu_3x3_reduce_p
I1206 21:20:30.592747  8666 net.cpp:100] Creating Layer conv2/relu_3x3_reduce_p
I1206 21:20:30.592756  8666 net.cpp:434] conv2/relu_3x3_reduce_p <- conv2/3x3_reduce_p
I1206 21:20:30.592762  8666 net.cpp:395] conv2/relu_3x3_reduce_p -> conv2/3x3_reduce_p (in-place)
I1206 21:20:30.592947  8666 net.cpp:150] Setting up conv2/relu_3x3_reduce_p
I1206 21:20:30.592969  8666 net.cpp:157] Top shape: 100 64 40 20 (5120000)
I1206 21:20:30.592975  8666 net.cpp:165] Memory required for data: 1823361200
I1206 21:20:30.592983  8666 layer_factory.hpp:77] Creating layer conv2/3x3_p
I1206 21:20:30.593004  8666 net.cpp:100] Creating Layer conv2/3x3_p
I1206 21:20:30.593014  8666 net.cpp:434] conv2/3x3_p <- conv2/3x3_reduce_p
I1206 21:20:30.593024  8666 net.cpp:408] conv2/3x3_p -> conv2/3x3_p
I1206 21:20:30.594952  8666 net.cpp:150] Setting up conv2/3x3_p
I1206 21:20:30.594993  8666 net.cpp:157] Top shape: 100 192 40 20 (15360000)
I1206 21:20:30.595000  8666 net.cpp:165] Memory required for data: 1884801200
I1206 21:20:30.595010  8666 net.cpp:493] Sharing parameters 'conv2/3x3_w' owned by layer 'conv2/3x3', param index 0
I1206 21:20:30.595026  8666 net.cpp:493] Sharing parameters 'conv2/3x3_b' owned by layer 'conv2/3x3', param index 1
I1206 21:20:30.595031  8666 layer_factory.hpp:77] Creating layer conv2/relu_3x3_p
I1206 21:20:30.595041  8666 net.cpp:100] Creating Layer conv2/relu_3x3_p
I1206 21:20:30.595047  8666 net.cpp:434] conv2/relu_3x3_p <- conv2/3x3_p
I1206 21:20:30.595058  8666 net.cpp:395] conv2/relu_3x3_p -> conv2/3x3_p (in-place)
I1206 21:20:30.595255  8666 net.cpp:150] Setting up conv2/relu_3x3_p
I1206 21:20:30.595286  8666 net.cpp:157] Top shape: 100 192 40 20 (15360000)
I1206 21:20:30.595304  8666 net.cpp:165] Memory required for data: 1946241200
I1206 21:20:30.595314  8666 layer_factory.hpp:77] Creating layer pool2/3x3_s2_p
I1206 21:20:30.595324  8666 net.cpp:100] Creating Layer pool2/3x3_s2_p
I1206 21:20:30.595332  8666 net.cpp:434] pool2/3x3_s2_p <- conv2/3x3_p
I1206 21:20:30.595340  8666 net.cpp:408] pool2/3x3_s2_p -> pool2/3x3_s2_p
I1206 21:20:30.595407  8666 net.cpp:150] Setting up pool2/3x3_s2_p
I1206 21:20:30.595427  8666 net.cpp:157] Top shape: 100 192 20 10 (3840000)
I1206 21:20:30.595433  8666 net.cpp:165] Memory required for data: 1961601200
I1206 21:20:30.595440  8666 layer_factory.hpp:77] Creating layer pool2/3x3_s2_p_pool2/3x3_s2_p_0_split
I1206 21:20:30.595451  8666 net.cpp:100] Creating Layer pool2/3x3_s2_p_pool2/3x3_s2_p_0_split
I1206 21:20:30.595458  8666 net.cpp:434] pool2/3x3_s2_p_pool2/3x3_s2_p_0_split <- pool2/3x3_s2_p
I1206 21:20:30.595476  8666 net.cpp:408] pool2/3x3_s2_p_pool2/3x3_s2_p_0_split -> pool2/3x3_s2_p_pool2/3x3_s2_p_0_split_0
I1206 21:20:30.595486  8666 net.cpp:408] pool2/3x3_s2_p_pool2/3x3_s2_p_0_split -> pool2/3x3_s2_p_pool2/3x3_s2_p_0_split_1
I1206 21:20:30.595496  8666 net.cpp:408] pool2/3x3_s2_p_pool2/3x3_s2_p_0_split -> pool2/3x3_s2_p_pool2/3x3_s2_p_0_split_2
I1206 21:20:30.595523  8666 net.cpp:408] pool2/3x3_s2_p_pool2/3x3_s2_p_0_split -> pool2/3x3_s2_p_pool2/3x3_s2_p_0_split_3
I1206 21:20:30.595615  8666 net.cpp:150] Setting up pool2/3x3_s2_p_pool2/3x3_s2_p_0_split
I1206 21:20:30.595635  8666 net.cpp:157] Top shape: 100 192 20 10 (3840000)
I1206 21:20:30.595643  8666 net.cpp:157] Top shape: 100 192 20 10 (3840000)
I1206 21:20:30.595650  8666 net.cpp:157] Top shape: 100 192 20 10 (3840000)
I1206 21:20:30.595657  8666 net.cpp:157] Top shape: 100 192 20 10 (3840000)
I1206 21:20:30.595664  8666 net.cpp:165] Memory required for data: 2023041200
I1206 21:20:30.595669  8666 layer_factory.hpp:77] Creating layer inception_3a/1x1_p
I1206 21:20:30.595698  8666 net.cpp:100] Creating Layer inception_3a/1x1_p
I1206 21:20:30.595706  8666 net.cpp:434] inception_3a/1x1_p <- pool2/3x3_s2_p_pool2/3x3_s2_p_0_split_0
I1206 21:20:30.595715  8666 net.cpp:408] inception_3a/1x1_p -> inception_3a/1x1_p
I1206 21:20:30.596889  8666 net.cpp:150] Setting up inception_3a/1x1_p
I1206 21:20:30.596922  8666 net.cpp:157] Top shape: 100 64 20 10 (1280000)
I1206 21:20:30.596930  8666 net.cpp:165] Memory required for data: 2028161200
I1206 21:20:30.596937  8666 net.cpp:493] Sharing parameters 'inception_3a/1x1_w' owned by layer 'inception_3a/1x1', param index 0
I1206 21:20:30.596946  8666 net.cpp:493] Sharing parameters 'inception_3a/1x1_b' owned by layer 'inception_3a/1x1', param index 1
I1206 21:20:30.596954  8666 layer_factory.hpp:77] Creating layer inception_3a/relu_1x1_p
I1206 21:20:30.596964  8666 net.cpp:100] Creating Layer inception_3a/relu_1x1_p
I1206 21:20:30.596971  8666 net.cpp:434] inception_3a/relu_1x1_p <- inception_3a/1x1_p
I1206 21:20:30.596979  8666 net.cpp:395] inception_3a/relu_1x1_p -> inception_3a/1x1_p (in-place)
I1206 21:20:30.597319  8666 net.cpp:150] Setting up inception_3a/relu_1x1_p
I1206 21:20:30.597352  8666 net.cpp:157] Top shape: 100 64 20 10 (1280000)
I1206 21:20:30.597358  8666 net.cpp:165] Memory required for data: 2033281200
I1206 21:20:30.597367  8666 layer_factory.hpp:77] Creating layer inception_3a/3x3_reduce_p
I1206 21:20:30.597394  8666 net.cpp:100] Creating Layer inception_3a/3x3_reduce_p
I1206 21:20:30.597403  8666 net.cpp:434] inception_3a/3x3_reduce_p <- pool2/3x3_s2_p_pool2/3x3_s2_p_0_split_1
I1206 21:20:30.597414  8666 net.cpp:408] inception_3a/3x3_reduce_p -> inception_3a/3x3_reduce_p
I1206 21:20:30.598665  8666 net.cpp:150] Setting up inception_3a/3x3_reduce_p
I1206 21:20:30.598716  8666 net.cpp:157] Top shape: 100 96 20 10 (1920000)
I1206 21:20:30.598723  8666 net.cpp:165] Memory required for data: 2040961200
I1206 21:20:30.598740  8666 net.cpp:493] Sharing parameters 'inception_3a/3x3_reduce_w' owned by layer 'inception_3a/3x3_reduce', param index 0
I1206 21:20:30.598757  8666 net.cpp:493] Sharing parameters 'inception_3a/3x3_reduce_b' owned by layer 'inception_3a/3x3_reduce', param index 1
I1206 21:20:30.598772  8666 layer_factory.hpp:77] Creating layer inception_3a/relu_3x3_reduce_p
I1206 21:20:30.598789  8666 net.cpp:100] Creating Layer inception_3a/relu_3x3_reduce_p
I1206 21:20:30.598798  8666 net.cpp:434] inception_3a/relu_3x3_reduce_p <- inception_3a/3x3_reduce_p
I1206 21:20:30.598808  8666 net.cpp:395] inception_3a/relu_3x3_reduce_p -> inception_3a/3x3_reduce_p (in-place)
I1206 21:20:30.598989  8666 net.cpp:150] Setting up inception_3a/relu_3x3_reduce_p
I1206 21:20:30.599019  8666 net.cpp:157] Top shape: 100 96 20 10 (1920000)
I1206 21:20:30.599025  8666 net.cpp:165] Memory required for data: 2048641200
I1206 21:20:30.599031  8666 layer_factory.hpp:77] Creating layer inception_3a/3x3_p
I1206 21:20:30.599055  8666 net.cpp:100] Creating Layer inception_3a/3x3_p
I1206 21:20:30.599061  8666 net.cpp:434] inception_3a/3x3_p <- inception_3a/3x3_reduce_p
I1206 21:20:30.599073  8666 net.cpp:408] inception_3a/3x3_p -> inception_3a/3x3_p
I1206 21:20:30.601523  8666 net.cpp:150] Setting up inception_3a/3x3_p
I1206 21:20:30.601572  8666 net.cpp:157] Top shape: 100 128 20 10 (2560000)
I1206 21:20:30.601578  8666 net.cpp:165] Memory required for data: 2058881200
I1206 21:20:30.601588  8666 net.cpp:493] Sharing parameters 'inception_3a/3x3_w' owned by layer 'inception_3a/3x3', param index 0
I1206 21:20:30.601596  8666 net.cpp:493] Sharing parameters 'inception_3a/3x3_b' owned by layer 'inception_3a/3x3', param index 1
I1206 21:20:30.601614  8666 layer_factory.hpp:77] Creating layer inception_3a/relu_3x3_p
I1206 21:20:30.601624  8666 net.cpp:100] Creating Layer inception_3a/relu_3x3_p
I1206 21:20:30.601640  8666 net.cpp:434] inception_3a/relu_3x3_p <- inception_3a/3x3_p
I1206 21:20:30.601650  8666 net.cpp:395] inception_3a/relu_3x3_p -> inception_3a/3x3_p (in-place)
I1206 21:20:30.601974  8666 net.cpp:150] Setting up inception_3a/relu_3x3_p
I1206 21:20:30.602015  8666 net.cpp:157] Top shape: 100 128 20 10 (2560000)
I1206 21:20:30.602021  8666 net.cpp:165] Memory required for data: 2069121200
I1206 21:20:30.602030  8666 layer_factory.hpp:77] Creating layer inception_3a/5x5_reduce_p
I1206 21:20:30.602054  8666 net.cpp:100] Creating Layer inception_3a/5x5_reduce_p
I1206 21:20:30.602063  8666 net.cpp:434] inception_3a/5x5_reduce_p <- pool2/3x3_s2_p_pool2/3x3_s2_p_0_split_2
I1206 21:20:30.602077  8666 net.cpp:408] inception_3a/5x5_reduce_p -> inception_3a/5x5_reduce_p
I1206 21:20:30.603237  8666 net.cpp:150] Setting up inception_3a/5x5_reduce_p
I1206 21:20:30.603271  8666 net.cpp:157] Top shape: 100 16 20 10 (320000)
I1206 21:20:30.603278  8666 net.cpp:165] Memory required for data: 2070401200
I1206 21:20:30.603286  8666 net.cpp:493] Sharing parameters 'inception_3a/5x5_reduce_w' owned by layer 'inception_3a/5x5_reduce', param index 0
I1206 21:20:30.603296  8666 net.cpp:493] Sharing parameters 'inception_3a/5x5_reduce_b' owned by layer 'inception_3a/5x5_reduce', param index 1
I1206 21:20:30.603302  8666 layer_factory.hpp:77] Creating layer inception_3a/relu_5x5_reduce_p
I1206 21:20:30.603312  8666 net.cpp:100] Creating Layer inception_3a/relu_5x5_reduce_p
I1206 21:20:30.603318  8666 net.cpp:434] inception_3a/relu_5x5_reduce_p <- inception_3a/5x5_reduce_p
I1206 21:20:30.603328  8666 net.cpp:395] inception_3a/relu_5x5_reduce_p -> inception_3a/5x5_reduce_p (in-place)
I1206 21:20:30.603662  8666 net.cpp:150] Setting up inception_3a/relu_5x5_reduce_p
I1206 21:20:30.603691  8666 net.cpp:157] Top shape: 100 16 20 10 (320000)
I1206 21:20:30.603698  8666 net.cpp:165] Memory required for data: 2071681200
I1206 21:20:30.603708  8666 layer_factory.hpp:77] Creating layer inception_3a/5x5_p
I1206 21:20:30.603724  8666 net.cpp:100] Creating Layer inception_3a/5x5_p
I1206 21:20:30.603732  8666 net.cpp:434] inception_3a/5x5_p <- inception_3a/5x5_reduce_p
I1206 21:20:30.603745  8666 net.cpp:408] inception_3a/5x5_p -> inception_3a/5x5_p
I1206 21:20:30.604941  8666 net.cpp:150] Setting up inception_3a/5x5_p
I1206 21:20:30.604975  8666 net.cpp:157] Top shape: 100 32 20 10 (640000)
I1206 21:20:30.604996  8666 net.cpp:165] Memory required for data: 2074241200
I1206 21:20:30.605024  8666 net.cpp:493] Sharing parameters 'inception_3a/5x5_w' owned by layer 'inception_3a/5x5', param index 0
I1206 21:20:30.605034  8666 net.cpp:493] Sharing parameters 'inception_3a/5x5_b' owned by layer 'inception_3a/5x5', param index 1
I1206 21:20:30.605041  8666 layer_factory.hpp:77] Creating layer inception_3a/relu_5x5_p
I1206 21:20:30.605051  8666 net.cpp:100] Creating Layer inception_3a/relu_5x5_p
I1206 21:20:30.605058  8666 net.cpp:434] inception_3a/relu_5x5_p <- inception_3a/5x5_p
I1206 21:20:30.605068  8666 net.cpp:395] inception_3a/relu_5x5_p -> inception_3a/5x5_p (in-place)
I1206 21:20:30.605248  8666 net.cpp:150] Setting up inception_3a/relu_5x5_p
I1206 21:20:30.605263  8666 net.cpp:157] Top shape: 100 32 20 10 (640000)
I1206 21:20:30.605271  8666 net.cpp:165] Memory required for data: 2076801200
I1206 21:20:30.605278  8666 layer_factory.hpp:77] Creating layer inception_3a/pool_p
I1206 21:20:30.605288  8666 net.cpp:100] Creating Layer inception_3a/pool_p
I1206 21:20:30.605295  8666 net.cpp:434] inception_3a/pool_p <- pool2/3x3_s2_p_pool2/3x3_s2_p_0_split_3
I1206 21:20:30.605332  8666 net.cpp:408] inception_3a/pool_p -> inception_3a/pool_p
I1206 21:20:30.605406  8666 net.cpp:150] Setting up inception_3a/pool_p
I1206 21:20:30.605417  8666 net.cpp:157] Top shape: 100 192 20 10 (3840000)
I1206 21:20:30.605424  8666 net.cpp:165] Memory required for data: 2092161200
I1206 21:20:30.605430  8666 layer_factory.hpp:77] Creating layer inception_3a/pool_proj_p
I1206 21:20:30.605445  8666 net.cpp:100] Creating Layer inception_3a/pool_proj_p
I1206 21:20:30.605453  8666 net.cpp:434] inception_3a/pool_proj_p <- inception_3a/pool_p
I1206 21:20:30.605463  8666 net.cpp:408] inception_3a/pool_proj_p -> inception_3a/pool_proj_p
I1206 21:20:30.606597  8666 net.cpp:150] Setting up inception_3a/pool_proj_p
I1206 21:20:30.606642  8666 net.cpp:157] Top shape: 100 32 20 10 (640000)
I1206 21:20:30.606649  8666 net.cpp:165] Memory required for data: 2094721200
I1206 21:20:30.606658  8666 net.cpp:493] Sharing parameters 'inception_3a/pool_proj_w' owned by layer 'inception_3a/pool_proj', param index 0
I1206 21:20:30.606667  8666 net.cpp:493] Sharing parameters 'inception_3a/pool_proj_b' owned by layer 'inception_3a/pool_proj', param index 1
I1206 21:20:30.606676  8666 layer_factory.hpp:77] Creating layer inception_3a/relu_pool_proj_p
I1206 21:20:30.606685  8666 net.cpp:100] Creating Layer inception_3a/relu_pool_proj_p
I1206 21:20:30.606693  8666 net.cpp:434] inception_3a/relu_pool_proj_p <- inception_3a/pool_proj_p
I1206 21:20:30.606701  8666 net.cpp:395] inception_3a/relu_pool_proj_p -> inception_3a/pool_proj_p (in-place)
I1206 21:20:30.606876  8666 net.cpp:150] Setting up inception_3a/relu_pool_proj_p
I1206 21:20:30.606899  8666 net.cpp:157] Top shape: 100 32 20 10 (640000)
I1206 21:20:30.606905  8666 net.cpp:165] Memory required for data: 2097281200
I1206 21:20:30.606911  8666 layer_factory.hpp:77] Creating layer inception_3a/output_p
I1206 21:20:30.606921  8666 net.cpp:100] Creating Layer inception_3a/output_p
I1206 21:20:30.606930  8666 net.cpp:434] inception_3a/output_p <- inception_3a/1x1_p
I1206 21:20:30.606946  8666 net.cpp:434] inception_3a/output_p <- inception_3a/3x3_p
I1206 21:20:30.606955  8666 net.cpp:434] inception_3a/output_p <- inception_3a/5x5_p
I1206 21:20:30.606961  8666 net.cpp:434] inception_3a/output_p <- inception_3a/pool_proj_p
I1206 21:20:30.606969  8666 net.cpp:408] inception_3a/output_p -> inception_3a/output_p
I1206 21:20:30.607028  8666 net.cpp:150] Setting up inception_3a/output_p
I1206 21:20:30.607041  8666 net.cpp:157] Top shape: 100 256 20 10 (5120000)
I1206 21:20:30.607048  8666 net.cpp:165] Memory required for data: 2117761200
I1206 21:20:30.607054  8666 layer_factory.hpp:77] Creating layer inception_3a/output_p_inception_3a/output_p_0_split
I1206 21:20:30.607064  8666 net.cpp:100] Creating Layer inception_3a/output_p_inception_3a/output_p_0_split
I1206 21:20:30.607070  8666 net.cpp:434] inception_3a/output_p_inception_3a/output_p_0_split <- inception_3a/output_p
I1206 21:20:30.607090  8666 net.cpp:408] inception_3a/output_p_inception_3a/output_p_0_split -> inception_3a/output_p_inception_3a/output_p_0_split_0
I1206 21:20:30.607100  8666 net.cpp:408] inception_3a/output_p_inception_3a/output_p_0_split -> inception_3a/output_p_inception_3a/output_p_0_split_1
I1206 21:20:30.607110  8666 net.cpp:408] inception_3a/output_p_inception_3a/output_p_0_split -> inception_3a/output_p_inception_3a/output_p_0_split_2
I1206 21:20:30.607118  8666 net.cpp:408] inception_3a/output_p_inception_3a/output_p_0_split -> inception_3a/output_p_inception_3a/output_p_0_split_3
I1206 21:20:30.607205  8666 net.cpp:150] Setting up inception_3a/output_p_inception_3a/output_p_0_split
I1206 21:20:30.607224  8666 net.cpp:157] Top shape: 100 256 20 10 (5120000)
I1206 21:20:30.607231  8666 net.cpp:157] Top shape: 100 256 20 10 (5120000)
I1206 21:20:30.607239  8666 net.cpp:157] Top shape: 100 256 20 10 (5120000)
I1206 21:20:30.607245  8666 net.cpp:157] Top shape: 100 256 20 10 (5120000)
I1206 21:20:30.607251  8666 net.cpp:165] Memory required for data: 2199681200
I1206 21:20:30.607259  8666 layer_factory.hpp:77] Creating layer inception_3b/1x1_p
I1206 21:20:30.607275  8666 net.cpp:100] Creating Layer inception_3b/1x1_p
I1206 21:20:30.607283  8666 net.cpp:434] inception_3b/1x1_p <- inception_3a/output_p_inception_3a/output_p_0_split_0
I1206 21:20:30.607292  8666 net.cpp:408] inception_3b/1x1_p -> inception_3b/1x1_p
I1206 21:20:30.609127  8666 net.cpp:150] Setting up inception_3b/1x1_p
I1206 21:20:30.609166  8666 net.cpp:157] Top shape: 100 128 20 10 (2560000)
I1206 21:20:30.609174  8666 net.cpp:165] Memory required for data: 2209921200
I1206 21:20:30.609200  8666 net.cpp:493] Sharing parameters 'inception_3b/1x1_w' owned by layer 'inception_3b/1x1', param index 0
I1206 21:20:30.609208  8666 net.cpp:493] Sharing parameters 'inception_3b/1x1_b' owned by layer 'inception_3b/1x1', param index 1
I1206 21:20:30.609237  8666 layer_factory.hpp:77] Creating layer inception_3b/relu_1x1_p
I1206 21:20:30.609249  8666 net.cpp:100] Creating Layer inception_3b/relu_1x1_p
I1206 21:20:30.609257  8666 net.cpp:434] inception_3b/relu_1x1_p <- inception_3b/1x1_p
I1206 21:20:30.609267  8666 net.cpp:395] inception_3b/relu_1x1_p -> inception_3b/1x1_p (in-place)
I1206 21:20:30.609618  8666 net.cpp:150] Setting up inception_3b/relu_1x1_p
I1206 21:20:30.609645  8666 net.cpp:157] Top shape: 100 128 20 10 (2560000)
I1206 21:20:30.609652  8666 net.cpp:165] Memory required for data: 2220161200
I1206 21:20:30.609659  8666 layer_factory.hpp:77] Creating layer inception_3b/3x3_reduce_p
I1206 21:20:30.609680  8666 net.cpp:100] Creating Layer inception_3b/3x3_reduce_p
I1206 21:20:30.609688  8666 net.cpp:434] inception_3b/3x3_reduce_p <- inception_3a/output_p_inception_3a/output_p_0_split_1
I1206 21:20:30.609699  8666 net.cpp:408] inception_3b/3x3_reduce_p -> inception_3b/3x3_reduce_p
I1206 21:20:30.610971  8666 net.cpp:150] Setting up inception_3b/3x3_reduce_p
I1206 21:20:30.611009  8666 net.cpp:157] Top shape: 100 128 20 10 (2560000)
I1206 21:20:30.611016  8666 net.cpp:165] Memory required for data: 2230401200
I1206 21:20:30.611033  8666 net.cpp:493] Sharing parameters 'inception_3b/3x3_reduce_w' owned by layer 'inception_3b/3x3_reduce', param index 0
I1206 21:20:30.611043  8666 net.cpp:493] Sharing parameters 'inception_3b/3x3_reduce_b' owned by layer 'inception_3b/3x3_reduce', param index 1
I1206 21:20:30.611050  8666 layer_factory.hpp:77] Creating layer inception_3b/relu_3x3_reduce_p
I1206 21:20:30.611063  8666 net.cpp:100] Creating Layer inception_3b/relu_3x3_reduce_p
I1206 21:20:30.611073  8666 net.cpp:434] inception_3b/relu_3x3_reduce_p <- inception_3b/3x3_reduce_p
I1206 21:20:30.611081  8666 net.cpp:395] inception_3b/relu_3x3_reduce_p -> inception_3b/3x3_reduce_p (in-place)
I1206 21:20:30.611268  8666 net.cpp:150] Setting up inception_3b/relu_3x3_reduce_p
I1206 21:20:30.611299  8666 net.cpp:157] Top shape: 100 128 20 10 (2560000)
I1206 21:20:30.611305  8666 net.cpp:165] Memory required for data: 2240641200
I1206 21:20:30.611325  8666 layer_factory.hpp:77] Creating layer inception_3b/3x3_p
I1206 21:20:30.611343  8666 net.cpp:100] Creating Layer inception_3b/3x3_p
I1206 21:20:30.611351  8666 net.cpp:434] inception_3b/3x3_p <- inception_3b/3x3_reduce_p
I1206 21:20:30.611361  8666 net.cpp:408] inception_3b/3x3_p -> inception_3b/3x3_p
I1206 21:20:30.614501  8666 net.cpp:150] Setting up inception_3b/3x3_p
I1206 21:20:30.614557  8666 net.cpp:157] Top shape: 100 192 20 10 (3840000)
I1206 21:20:30.614565  8666 net.cpp:165] Memory required for data: 2256001200
I1206 21:20:30.614575  8666 net.cpp:493] Sharing parameters 'inception_3b/3x3_w' owned by layer 'inception_3b/3x3', param index 0
I1206 21:20:30.614584  8666 net.cpp:493] Sharing parameters 'inception_3b/3x3_b' owned by layer 'inception_3b/3x3', param index 1
I1206 21:20:30.614603  8666 layer_factory.hpp:77] Creating layer inception_3b/relu_3x3_p
I1206 21:20:30.614617  8666 net.cpp:100] Creating Layer inception_3b/relu_3x3_p
I1206 21:20:30.614627  8666 net.cpp:434] inception_3b/relu_3x3_p <- inception_3b/3x3_p
I1206 21:20:30.614645  8666 net.cpp:395] inception_3b/relu_3x3_p -> inception_3b/3x3_p (in-place)
I1206 21:20:30.614843  8666 net.cpp:150] Setting up inception_3b/relu_3x3_p
I1206 21:20:30.614876  8666 net.cpp:157] Top shape: 100 192 20 10 (3840000)
I1206 21:20:30.614882  8666 net.cpp:165] Memory required for data: 2271361200
I1206 21:20:30.614889  8666 layer_factory.hpp:77] Creating layer inception_3b/5x5_reduce_p
I1206 21:20:30.614903  8666 net.cpp:100] Creating Layer inception_3b/5x5_reduce_p
I1206 21:20:30.614912  8666 net.cpp:434] inception_3b/5x5_reduce_p <- inception_3a/output_p_inception_3a/output_p_0_split_2
I1206 21:20:30.614931  8666 net.cpp:408] inception_3b/5x5_reduce_p -> inception_3b/5x5_reduce_p
I1206 21:20:30.616318  8666 net.cpp:150] Setting up inception_3b/5x5_reduce_p
I1206 21:20:30.616364  8666 net.cpp:157] Top shape: 100 32 20 10 (640000)
I1206 21:20:30.616389  8666 net.cpp:165] Memory required for data: 2273921200
I1206 21:20:30.616399  8666 net.cpp:493] Sharing parameters 'inception_3b/5x5_reduce_w' owned by layer 'inception_3b/5x5_reduce', param index 0
I1206 21:20:30.616406  8666 net.cpp:493] Sharing parameters 'inception_3b/5x5_reduce_b' owned by layer 'inception_3b/5x5_reduce', param index 1
I1206 21:20:30.616413  8666 layer_factory.hpp:77] Creating layer inception_3b/relu_5x5_reduce_p
I1206 21:20:30.616425  8666 net.cpp:100] Creating Layer inception_3b/relu_5x5_reduce_p
I1206 21:20:30.616433  8666 net.cpp:434] inception_3b/relu_5x5_reduce_p <- inception_3b/5x5_reduce_p
I1206 21:20:30.616443  8666 net.cpp:395] inception_3b/relu_5x5_reduce_p -> inception_3b/5x5_reduce_p (in-place)
I1206 21:20:30.616788  8666 net.cpp:150] Setting up inception_3b/relu_5x5_reduce_p
I1206 21:20:30.616816  8666 net.cpp:157] Top shape: 100 32 20 10 (640000)
I1206 21:20:30.616822  8666 net.cpp:165] Memory required for data: 2276481200
I1206 21:20:30.616832  8666 layer_factory.hpp:77] Creating layer inception_3b/5x5_p
I1206 21:20:30.616848  8666 net.cpp:100] Creating Layer inception_3b/5x5_p
I1206 21:20:30.616857  8666 net.cpp:434] inception_3b/5x5_p <- inception_3b/5x5_reduce_p
I1206 21:20:30.616871  8666 net.cpp:408] inception_3b/5x5_p -> inception_3b/5x5_p
I1206 21:20:30.618491  8666 net.cpp:150] Setting up inception_3b/5x5_p
I1206 21:20:30.618530  8666 net.cpp:157] Top shape: 100 96 20 10 (1920000)
I1206 21:20:30.618536  8666 net.cpp:165] Memory required for data: 2284161200
I1206 21:20:30.618553  8666 net.cpp:493] Sharing parameters 'inception_3b/5x5_w' owned by layer 'inception_3b/5x5', param index 0
I1206 21:20:30.618562  8666 net.cpp:493] Sharing parameters 'inception_3b/5x5_b' owned by layer 'inception_3b/5x5', param index 1
I1206 21:20:30.618569  8666 layer_factory.hpp:77] Creating layer inception_3b/relu_5x5_p
I1206 21:20:30.618578  8666 net.cpp:100] Creating Layer inception_3b/relu_5x5_p
I1206 21:20:30.618585  8666 net.cpp:434] inception_3b/relu_5x5_p <- inception_3b/5x5_p
I1206 21:20:30.618594  8666 net.cpp:395] inception_3b/relu_5x5_p -> inception_3b/5x5_p (in-place)
I1206 21:20:30.618928  8666 net.cpp:150] Setting up inception_3b/relu_5x5_p
I1206 21:20:30.618962  8666 net.cpp:157] Top shape: 100 96 20 10 (1920000)
I1206 21:20:30.618969  8666 net.cpp:165] Memory required for data: 2291841200
I1206 21:20:30.618978  8666 layer_factory.hpp:77] Creating layer inception_3b/pool_p
I1206 21:20:30.618988  8666 net.cpp:100] Creating Layer inception_3b/pool_p
…
I1206 21:20:30.669636  8666 net.cpp:493] Sharing parameters 'inception_4d/3x3_reduce_b' owned by layer 'inception_4d/3x3_reduce', param index 1
I1206 21:20:30.669643  8666 layer_factory.hpp:77] Creating layer inception_4d/relu_3x3_reduce_p
I1206 21:20:30.669652  8666 net.cpp:100] Creating Layer inception_4d/relu_3x3_reduce_p
I1206 21:20:30.669661  8666 net.cpp:434] inception_4d/relu_3x3_reduce_p <- inception_4d/3x3_reduce_p
I1206 21:20:30.669669  8666 net.cpp:395] inception_4d/relu_3x3_reduce_p -> inception_4d/3x3_reduce_p (in-place)
I1206 21:20:30.669859  8666 net.cpp:150] Setting up inception_4d/relu_3x3_reduce_p
I1206 21:20:30.669889  8666 net.cpp:157] Top shape: 100 144 10 5 (720000)
I1206 21:20:30.669895  8666 net.cpp:165] Memory required for data: 2680321200
I1206 21:20:30.669903  8666 layer_factory.hpp:77] Creating layer inception_4d/3x3_p
I1206 21:20:30.669919  8666 net.cpp:100] Creating Layer inception_4d/3x3_p
I1206 21:20:30.669942  8666 net.cpp:434] inception_4d/3x3_p <- inception_4d/3x3_reduce_p
I1206 21:20:30.669955  8666 net.cpp:408] inception_4d/3x3_p -> inception_4d/3x3_p
I1206 21:20:30.674135  8666 net.cpp:150] Setting up inception_4d/3x3_p
I1206 21:20:30.674192  8666 net.cpp:157] Top shape: 100 288 10 5 (1440000)
I1206 21:20:30.674201  8666 net.cpp:165] Memory required for data: 2686081200
I1206 21:20:30.674219  8666 net.cpp:493] Sharing parameters 'inception_4d/3x3_w' owned by layer 'inception_4d/3x3', param index 0
I1206 21:20:30.674228  8666 net.cpp:493] Sharing parameters 'inception_4d/3x3_b' owned by layer 'inception_4d/3x3', param index 1
I1206 21:20:30.674239  8666 layer_factory.hpp:77] Creating layer inception_4d/relu_3x3_p
I1206 21:20:30.674250  8666 net.cpp:100] Creating Layer inception_4d/relu_3x3_p
I1206 21:20:30.674259  8666 net.cpp:434] inception_4d/relu_3x3_p <- inception_4d/3x3_p
I1206 21:20:30.674269  8666 net.cpp:395] inception_4d/relu_3x3_p -> inception_4d/3x3_p (in-place)
I1206 21:20:30.674468  8666 net.cpp:150] Setting up inception_4d/relu_3x3_p
I1206 21:20:30.674499  8666 net.cpp:157] Top shape: 100 288 10 5 (1440000)
I1206 21:20:30.674505  8666 net.cpp:165] Memory required for data: 2691841200
I1206 21:20:30.674511  8666 layer_factory.hpp:77] Creating layer inception_4d/5x5_reduce_p
I1206 21:20:30.674527  8666 net.cpp:100] Creating Layer inception_4d/5x5_reduce_p
I1206 21:20:30.674538  8666 net.cpp:434] inception_4d/5x5_reduce_p <- inception_4c/output_p_inception_4c/output_p_0_split_2
I1206 21:20:30.674549  8666 net.cpp:408] inception_4d/5x5_reduce_p -> inception_4d/5x5_reduce_p
I1206 21:20:30.675956  8666 net.cpp:150] Setting up inception_4d/5x5_reduce_p
I1206 21:20:30.676002  8666 net.cpp:157] Top shape: 100 32 10 5 (160000)
I1206 21:20:30.676009  8666 net.cpp:165] Memory required for data: 2692481200
I1206 21:20:30.676020  8666 net.cpp:493] Sharing parameters 'inception_4d/5x5_reduce_w' owned by layer 'inception_4d/5x5_reduce', param index 0
I1206 21:20:30.676045  8666 net.cpp:493] Sharing parameters 'inception_4d/5x5_reduce_b' owned by layer 'inception_4d/5x5_reduce', param index 1
I1206 21:20:30.676053  8666 layer_factory.hpp:77] Creating layer inception_4d/relu_5x5_reduce_p
I1206 21:20:30.676079  8666 net.cpp:100] Creating Layer inception_4d/relu_5x5_reduce_p
I1206 21:20:30.676089  8666 net.cpp:434] inception_4d/relu_5x5_reduce_p <- inception_4d/5x5_reduce_p
I1206 21:20:30.676098  8666 net.cpp:395] inception_4d/relu_5x5_reduce_p -> inception_4d/5x5_reduce_p (in-place)
I1206 21:20:30.676461  8666 net.cpp:150] Setting up inception_4d/relu_5x5_reduce_p
I1206 21:20:30.676492  8666 net.cpp:157] Top shape: 100 32 10 5 (160000)
I1206 21:20:30.676498  8666 net.cpp:165] Memory required for data: 2693121200
I1206 21:20:30.676506  8666 layer_factory.hpp:77] Creating layer inception_4d/5x5_p
I1206 21:20:30.676529  8666 net.cpp:100] Creating Layer inception_4d/5x5_p
I1206 21:20:30.676537  8666 net.cpp:434] inception_4d/5x5_p <- inception_4d/5x5_reduce_p
I1206 21:20:30.676553  8666 net.cpp:408] inception_4d/5x5_p -> inception_4d/5x5_p
I1206 21:20:30.678122  8666 net.cpp:150] Setting up inception_4d/5x5_p
I1206 21:20:30.678148  8666 net.cpp:157] Top shape: 100 64 10 5 (320000)
I1206 21:20:30.678154  8666 net.cpp:165] Memory required for data: 2694401200
I1206 21:20:30.678163  8666 net.cpp:493] Sharing parameters 'inception_4d/5x5_w' owned by layer 'inception_4d/5x5', param index 0
I1206 21:20:30.678171  8666 net.cpp:493] Sharing parameters 'inception_4d/5x5_b' owned by layer 'inception_4d/5x5', param index 1
I1206 21:20:30.678181  8666 layer_factory.hpp:77] Creating layer inception_4d/relu_5x5_p
I1206 21:20:30.678194  8666 net.cpp:100] Creating Layer inception_4d/relu_5x5_p
I1206 21:20:30.678202  8666 net.cpp:434] inception_4d/relu_5x5_p <- inception_4d/5x5_p
I1206 21:20:30.678211  8666 net.cpp:395] inception_4d/relu_5x5_p -> inception_4d/5x5_p (in-place)
I1206 21:20:30.678531  8666 net.cpp:150] Setting up inception_4d/relu_5x5_p
I1206 21:20:30.678556  8666 net.cpp:157] Top shape: 100 64 10 5 (320000)
I1206 21:20:30.678576  8666 net.cpp:165] Memory required for data: 2695681200
I1206 21:20:30.678584  8666 layer_factory.hpp:77] Creating layer inception_4d/pool_p
I1206 21:20:30.678596  8666 net.cpp:100] Creating Layer inception_4d/pool_p
I1206 21:20:30.678606  8666 net.cpp:434] inception_4d/pool_p <- inception_4c/output_p_inception_4c/output_p_0_split_3
I1206 21:20:30.678617  8666 net.cpp:408] inception_4d/pool_p -> inception_4d/pool_p
I1206 21:20:30.678699  8666 net.cpp:150] Setting up inception_4d/pool_p
I1206 21:20:30.678712  8666 net.cpp:157] Top shape: 100 512 10 5 (2560000)
I1206 21:20:30.678719  8666 net.cpp:165] Memory required for data: 2705921200
I1206 21:20:30.678725  8666 layer_factory.hpp:77] Creating layer inception_4d/pool_proj_p
I1206 21:20:30.678740  8666 net.cpp:100] Creating Layer inception_4d/pool_proj_p
I1206 21:20:30.678747  8666 net.cpp:434] inception_4d/pool_proj_p <- inception_4d/pool_p
I1206 21:20:30.678758  8666 net.cpp:408] inception_4d/pool_proj_p -> inception_4d/pool_proj_p
I1206 21:20:30.680207  8666 net.cpp:150] Setting up inception_4d/pool_proj_p
I1206 21:20:30.680241  8666 net.cpp:157] Top shape: 100 64 10 5 (320000)
I1206 21:20:30.680249  8666 net.cpp:165] Memory required for data: 2707201200
I1206 21:20:30.680258  8666 net.cpp:493] Sharing parameters 'inception_4d/pool_proj_w' owned by layer 'inception_4d/pool_proj', param index 0
I1206 21:20:30.680268  8666 net.cpp:493] Sharing parameters 'inception_4d/pool_proj_b' owned by layer 'inception_4d/pool_proj', param index 1
I1206 21:20:30.680274  8666 layer_factory.hpp:77] Creating layer inception_4d/relu_pool_proj_p
I1206 21:20:30.680287  8666 net.cpp:100] Creating Layer inception_4d/relu_pool_proj_p
I1206 21:20:30.680295  8666 net.cpp:434] inception_4d/relu_pool_proj_p <- inception_4d/pool_proj_p
I1206 21:20:30.680305  8666 net.cpp:395] inception_4d/relu_pool_proj_p -> inception_4d/pool_proj_p (in-place)
I1206 21:20:30.680490  8666 net.cpp:150] Setting up inception_4d/relu_pool_proj_p
I1206 21:20:30.680512  8666 net.cpp:157] Top shape: 100 64 10 5 (320000)
I1206 21:20:30.680518  8666 net.cpp:165] Memory required for data: 2708481200
I1206 21:20:30.680527  8666 layer_factory.hpp:77] Creating layer inception_4d/output_p
I1206 21:20:30.680543  8666 net.cpp:100] Creating Layer inception_4d/output_p
I1206 21:20:30.680552  8666 net.cpp:434] inception_4d/output_p <- inception_4d/1x1_p
I1206 21:20:30.680559  8666 net.cpp:434] inception_4d/output_p <- inception_4d/3x3_p
I1206 21:20:30.680567  8666 net.cpp:434] inception_4d/output_p <- inception_4d/5x5_p
I1206 21:20:30.680574  8666 net.cpp:434] inception_4d/output_p <- inception_4d/pool_proj_p
I1206 21:20:30.680582  8666 net.cpp:408] inception_4d/output_p -> inception_4d/output_p
I1206 21:20:30.680632  8666 net.cpp:150] Setting up inception_4d/output_p
I1206 21:20:30.680652  8666 net.cpp:157] Top shape: 100 528 10 5 (2640000)
I1206 21:20:30.680658  8666 net.cpp:165] Memory required for data: 2719041200
I1206 21:20:30.680665  8666 layer_factory.hpp:77] Creating layer inception_4d/output_p_inception_4d/output_p_0_split
I1206 21:20:30.680675  8666 net.cpp:100] Creating Layer inception_4d/output_p_inception_4d/output_p_0_split
I1206 21:20:30.680682  8666 net.cpp:434] inception_4d/output_p_inception_4d/output_p_0_split <- inception_4d/output_p
I1206 21:20:30.680691  8666 net.cpp:408] inception_4d/output_p_inception_4d/output_p_0_split -> inception_4d/output_p_inception_4d/output_p_0_split_0
I1206 21:20:30.680699  8666 net.cpp:408] inception_4d/output_p_inception_4d/output_p_0_split -> inception_4d/output_p_inception_4d/output_p_0_split_1
I1206 21:20:30.680708  8666 net.cpp:408] inception_4d/output_p_inception_4d/output_p_0_split -> inception_4d/output_p_inception_4d/output_p_0_split_2
I1206 21:20:30.680717  8666 net.cpp:408] inception_4d/output_p_inception_4d/output_p_0_split -> inception_4d/output_p_inception_4d/output_p_0_split_3
I1206 21:20:30.680816  8666 net.cpp:150] Setting up inception_4d/output_p_inception_4d/output_p_0_split
I1206 21:20:30.680830  8666 net.cpp:157] Top shape: 100 528 10 5 (2640000)
I1206 21:20:30.680845  8666 net.cpp:157] Top shape: 100 528 10 5 (2640000)
I1206 21:20:30.680852  8666 net.cpp:157] Top shape: 100 528 10 5 (2640000)
I1206 21:20:30.680860  8666 net.cpp:157] Top shape: 100 528 10 5 (2640000)
I1206 21:20:30.680866  8666 net.cpp:165] Memory required for data: 2761281200
I1206 21:20:30.680871  8666 layer_factory.hpp:77] Creating layer inception_4e/1x1_p
I1206 21:20:30.680886  8666 net.cpp:100] Creating Layer inception_4e/1x1_p
I1206 21:20:30.680893  8666 net.cpp:434] inception_4e/1x1_p <- inception_4d/output_p_inception_4d/output_p_0_split_0
I1206 21:20:30.680904  8666 net.cpp:408] inception_4e/1x1_p -> inception_4e/1x1_p
I1206 21:20:30.683527  8666 net.cpp:150] Setting up inception_4e/1x1_p
I1206 21:20:30.683588  8666 net.cpp:157] Top shape: 100 256 10 5 (1280000)
I1206 21:20:30.683596  8666 net.cpp:165] Memory required for data: 2766401200
I1206 21:20:30.683606  8666 net.cpp:493] Sharing parameters 'inception_4e/1x1_w' owned by layer 'inception_4e/1x1', param index 0
I1206 21:20:30.683614  8666 net.cpp:493] Sharing parameters 'inception_4e/1x1_b' owned by layer 'inception_4e/1x1', param index 1
I1206 21:20:30.683632  8666 layer_factory.hpp:77] Creating layer inception_4e/relu_1x1_p
I1206 21:20:30.683653  8666 net.cpp:100] Creating Layer inception_4e/relu_1x1_p
I1206 21:20:30.683665  8666 net.cpp:434] inception_4e/relu_1x1_p <- inception_4e/1x1_p
I1206 21:20:30.683673  8666 net.cpp:395] inception_4e/relu_1x1_p -> inception_4e/1x1_p (in-place)
I1206 21:20:30.684018  8666 net.cpp:150] Setting up inception_4e/relu_1x1_p
I1206 21:20:30.684051  8666 net.cpp:157] Top shape: 100 256 10 5 (1280000)
I1206 21:20:30.684056  8666 net.cpp:165] Memory required for data: 2771521200
I1206 21:20:30.684063  8666 layer_factory.hpp:77] Creating layer inception_4e/3x3_reduce_p
I1206 21:20:30.684077  8666 net.cpp:100] Creating Layer inception_4e/3x3_reduce_p
I1206 21:20:30.684087  8666 net.cpp:434] inception_4e/3x3_reduce_p <- inception_4d/output_p_inception_4d/output_p_0_split_1
I1206 21:20:30.684098  8666 net.cpp:408] inception_4e/3x3_reduce_p -> inception_4e/3x3_reduce_p
I1206 21:20:30.685879  8666 net.cpp:150] Setting up inception_4e/3x3_reduce_p
I1206 21:20:30.685926  8666 net.cpp:157] Top shape: 100 160 10 5 (800000)
I1206 21:20:30.685935  8666 net.cpp:165] Memory required for data: 2774721200
I1206 21:20:30.685943  8666 net.cpp:493] Sharing parameters 'inception_4e/3x3_reduce_w' owned by layer 'inception_4e/3x3_reduce', param index 0
I1206 21:20:30.685952  8666 net.cpp:493] Sharing parameters 'inception_4e/3x3_reduce_b' owned by layer 'inception_4e/3x3_reduce', param index 1
I1206 21:20:30.685959  8666 layer_factory.hpp:77] Creating layer inception_4e/relu_3x3_reduce_p
I1206 21:20:30.685968  8666 net.cpp:100] Creating Layer inception_4e/relu_3x3_reduce_p
I1206 21:20:30.685976  8666 net.cpp:434] inception_4e/relu_3x3_reduce_p <- inception_4e/3x3_reduce_p
I1206 21:20:30.685986  8666 net.cpp:395] inception_4e/relu_3x3_reduce_p -> inception_4e/3x3_reduce_p (in-place)
I1206 21:20:30.686182  8666 net.cpp:150] Setting up inception_4e/relu_3x3_reduce_p
I1206 21:20:30.686204  8666 net.cpp:157] Top shape: 100 160 10 5 (800000)
I1206 21:20:30.686211  8666 net.cpp:165] Memory required for data: 2777921200
I1206 21:20:30.686220  8666 layer_factory.hpp:77] Creating layer inception_4e/3x3_p
I1206 21:20:30.686239  8666 net.cpp:100] Creating Layer inception_4e/3x3_p
I1206 21:20:30.686246  8666 net.cpp:434] inception_4e/3x3_p <- inception_4e/3x3_reduce_p
I1206 21:20:30.686257  8666 net.cpp:408] inception_4e/3x3_p -> inception_4e/3x3_p
I1206 21:20:30.691051  8666 net.cpp:150] Setting up inception_4e/3x3_p
I1206 21:20:30.691112  8666 net.cpp:157] Top shape: 100 320 10 5 (1600000)
I1206 21:20:30.691128  8666 net.cpp:165] Memory required for data: 2784321200
I1206 21:20:30.691139  8666 net.cpp:493] Sharing parameters 'inception_4e/3x3_w' owned by layer 'inception_4e/3x3', param index 0
I1206 21:20:30.691156  8666 net.cpp:493] Sharing parameters 'inception_4e/3x3_b' owned by layer 'inception_4e/3x3', param index 1
I1206 21:20:30.691164  8666 layer_factory.hpp:77] Creating layer inception_4e/relu_3x3_p
I1206 21:20:30.691189  8666 net.cpp:100] Creating Layer inception_4e/relu_3x3_p
I1206 21:20:30.691198  8666 net.cpp:434] inception_4e/relu_3x3_p <- inception_4e/3x3_p
I1206 21:20:30.691216  8666 net.cpp:395] inception_4e/relu_3x3_p -> inception_4e/3x3_p (in-place)
I1206 21:20:30.691424  8666 net.cpp:150] Setting up inception_4e/relu_3x3_p
I1206 21:20:30.691455  8666 net.cpp:157] Top shape: 100 320 10 5 (1600000)
I1206 21:20:30.691462  8666 net.cpp:165] Memory required for data: 2790721200
I1206 21:20:30.691469  8666 layer_factory.hpp:77] Creating layer inception_4e/5x5_reduce_p
I1206 21:20:30.691486  8666 net.cpp:100] Creating Layer inception_4e/5x5_reduce_p
I1206 21:20:30.691495  8666 net.cpp:434] inception_4e/5x5_reduce_p <- inception_4d/output_p_inception_4d/output_p_0_split_2
I1206 21:20:30.691514  8666 net.cpp:408] inception_4e/5x5_reduce_p -> inception_4e/5x5_reduce_p
I1206 21:20:30.692940  8666 net.cpp:150] Setting up inception_4e/5x5_reduce_p
I1206 21:20:30.692981  8666 net.cpp:157] Top shape: 100 32 10 5 (160000)
I1206 21:20:30.692987  8666 net.cpp:165] Memory required for data: 2791361200
I1206 21:20:30.692996  8666 net.cpp:493] Sharing parameters 'inception_4e/5x5_reduce_w' owned by layer 'inception_4e/5x5_reduce', param index 0
I1206 21:20:30.693004  8666 net.cpp:493] Sharing parameters 'inception_4e/5x5_reduce_b' owned by layer 'inception_4e/5x5_reduce', param index 1
I1206 21:20:30.693018  8666 layer_factory.hpp:77] Creating layer inception_4e/relu_5x5_reduce_p
I1206 21:20:30.693027  8666 net.cpp:100] Creating Layer inception_4e/relu_5x5_reduce_p
I1206 21:20:30.693035  8666 net.cpp:434] inception_4e/relu_5x5_reduce_p <- inception_4e/5x5_reduce_p
I1206 21:20:30.693044  8666 net.cpp:395] inception_4e/relu_5x5_reduce_p -> inception_4e/5x5_reduce_p (in-place)
I1206 21:20:30.693428  8666 net.cpp:150] Setting up inception_4e/relu_5x5_reduce_p
I1206 21:20:30.693459  8666 net.cpp:157] Top shape: 100 32 10 5 (160000)
I1206 21:20:30.693466  8666 net.cpp:165] Memory required for data: 2792001200
I1206 21:20:30.693476  8666 layer_factory.hpp:77] Creating layer inception_4e/5x5_p
I1206 21:20:30.693531  8666 net.cpp:100] Creating Layer inception_4e/5x5_p
I1206 21:20:30.693541  8666 net.cpp:434] inception_4e/5x5_p <- inception_4e/5x5_reduce_p
I1206 21:20:30.693550  8666 net.cpp:408] inception_4e/5x5_p -> inception_4e/5x5_p
I1206 21:20:30.695861  8666 net.cpp:150] Setting up inception_4e/5x5_p
I1206 21:20:30.695909  8666 net.cpp:157] Top shape: 100 128 10 5 (640000)
I1206 21:20:30.695916  8666 net.cpp:165] Memory required for data: 2794561200
I1206 21:20:30.695926  8666 net.cpp:493] Sharing parameters 'inception_4e/5x5_w' owned by layer 'inception_4e/5x5', param index 0
I1206 21:20:30.695942  8666 net.cpp:493] Sharing parameters 'inception_4e/5x5_b' owned by layer 'inception_4e/5x5', param index 1
I1206 21:20:30.695950  8666 layer_factory.hpp:77] Creating layer inception_4e/relu_5x5_p
I1206 21:20:30.695966  8666 net.cpp:100] Creating Layer inception_4e/relu_5x5_p
I1206 21:20:30.695974  8666 net.cpp:434] inception_4e/relu_5x5_p <- inception_4e/5x5_p
I1206 21:20:30.695983  8666 net.cpp:395] inception_4e/relu_5x5_p -> inception_4e/5x5_p (in-place)
I1206 21:20:30.696172  8666 net.cpp:150] Setting up inception_4e/relu_5x5_p
I1206 21:20:30.696189  8666 net.cpp:157] Top shape: 100 128 10 5 (640000)
I1206 21:20:30.696197  8666 net.cpp:165] Memory required for data: 2797121200
I1206 21:20:30.696202  8666 layer_factory.hpp:77] Creating layer inception_4e/pool_p
I1206 21:20:30.696213  8666 net.cpp:100] Creating Layer inception_4e/pool_p
I1206 21:20:30.696221  8666 net.cpp:434] inception_4e/pool_p <- inception_4d/output_p_inception_4d/output_p_0_split_3
I1206 21:20:30.696231  8666 net.cpp:408] inception_4e/pool_p -> inception_4e/pool_p
I1206 21:20:30.696315  8666 net.cpp:150] Setting up inception_4e/pool_p
I1206 21:20:30.696336  8666 net.cpp:157] Top shape: 100 528 10 5 (2640000)
I1206 21:20:30.696342  8666 net.cpp:165] Memory required for data: 2807681200
I1206 21:20:30.696367  8666 layer_factory.hpp:77] Creating layer inception_4e/pool_proj_p
I1206 21:20:30.696388  8666 net.cpp:100] Creating Layer inception_4e/pool_proj_p
I1206 21:20:30.696396  8666 net.cpp:434] inception_4e/pool_proj_p <- inception_4e/pool_p
I1206 21:20:30.696414  8666 net.cpp:408] inception_4e/pool_proj_p -> inception_4e/pool_proj_p
I1206 21:20:30.698108  8666 net.cpp:150] Setting up inception_4e/pool_proj_p
I1206 21:20:30.698144  8666 net.cpp:157] Top shape: 100 128 10 5 (640000)
I1206 21:20:30.698151  8666 net.cpp:165] Memory required for data: 2810241200
I1206 21:20:30.698161  8666 net.cpp:493] Sharing parameters 'inception_4e/pool_proj_w' owned by layer 'inception_4e/pool_proj', param index 0
I1206 21:20:30.698169  8666 net.cpp:493] Sharing parameters 'inception_4e/pool_proj_b' owned by layer 'inception_4e/pool_proj', param index 1
I1206 21:20:30.698187  8666 layer_factory.hpp:77] Creating layer inception_4e/relu_pool_proj_p
I1206 21:20:30.698200  8666 net.cpp:100] Creating Layer inception_4e/relu_pool_proj_p
I1206 21:20:30.698218  8666 net.cpp:434] inception_4e/relu_pool_proj_p <- inception_4e/pool_proj_p
I1206 21:20:30.698226  8666 net.cpp:395] inception_4e/relu_pool_proj_p -> inception_4e/pool_proj_p (in-place)
I1206 21:20:30.698421  8666 net.cpp:150] Setting up inception_4e/relu_pool_proj_p
I1206 21:20:30.698451  8666 net.cpp:157] Top shape: 100 128 10 5 (640000)
I1206 21:20:30.698457  8666 net.cpp:165] Memory required for data: 2812801200
I1206 21:20:30.698463  8666 layer_factory.hpp:77] Creating layer inception_4e/output_p
I1206 21:20:30.698473  8666 net.cpp:100] Creating Layer inception_4e/output_p
I1206 21:20:30.698480  8666 net.cpp:434] inception_4e/output_p <- inception_4e/1x1_p
I1206 21:20:30.698498  8666 net.cpp:434] inception_4e/output_p <- inception_4e/3x3_p
I1206 21:20:30.698505  8666 net.cpp:434] inception_4e/output_p <- inception_4e/5x5_p
I1206 21:20:30.698513  8666 net.cpp:434] inception_4e/output_p <- inception_4e/pool_proj_p
I1206 21:20:30.698530  8666 net.cpp:408] inception_4e/output_p -> inception_4e/output_p
I1206 21:20:30.698593  8666 net.cpp:150] Setting up inception_4e/output_p
I1206 21:20:30.698622  8666 net.cpp:157] Top shape: 100 832 10 5 (4160000)
I1206 21:20:30.698629  8666 net.cpp:165] Memory required for data: 2829441200
I1206 21:20:30.698635  8666 layer_factory.hpp:77] Creating layer inception_4e/output_p_inception_4e/output_p_0_split
I1206 21:20:30.698647  8666 net.cpp:100] Creating Layer inception_4e/output_p_inception_4e/output_p_0_split
I1206 21:20:30.698653  8666 net.cpp:434] inception_4e/output_p_inception_4e/output_p_0_split <- inception_4e/output_p
I1206 21:20:30.698662  8666 net.cpp:408] inception_4e/output_p_inception_4e/output_p_0_split -> inception_4e/output_p_inception_4e/output_p_0_split_0
I1206 21:20:30.698671  8666 net.cpp:408] inception_4e/output_p_inception_4e/output_p_0_split -> inception_4e/output_p_inception_4e/output_p_0_split_1
I1206 21:20:30.698680  8666 net.cpp:408] inception_4e/output_p_inception_4e/output_p_0_split -> inception_4e/output_p_inception_4e/output_p_0_split_2
I1206 21:20:30.698691  8666 net.cpp:408] inception_4e/output_p_inception_4e/output_p_0_split -> inception_4e/output_p_inception_4e/output_p_0_split_3
I1206 21:20:30.698796  8666 net.cpp:150] Setting up inception_4e/output_p_inception_4e/output_p_0_split
I1206 21:20:30.698815  8666 net.cpp:157] Top shape: 100 832 10 5 (4160000)
I1206 21:20:30.698822  8666 net.cpp:157] Top shape: 100 832 10 5 (4160000)
I1206 21:20:30.698828  8666 net.cpp:157] Top shape: 100 832 10 5 (4160000)
I1206 21:20:30.698835  8666 net.cpp:157] Top shape: 100 832 10 5 (4160000)
I1206 21:20:30.698842  8666 net.cpp:165] Memory required for data: 2896001200
I1206 21:20:30.698848  8666 layer_factory.hpp:77] Creating layer inception_5a/1x1_p
I1206 21:20:30.698864  8666 net.cpp:100] Creating Layer inception_5a/1x1_p
I1206 21:20:30.698871  8666 net.cpp:434] inception_5a/1x1_p <- inception_4e/output_p_inception_4e/output_p_0_split_0
I1206 21:20:30.698884  8666 net.cpp:408] inception_5a/1x1_p -> inception_5a/1x1_p
I1206 21:20:30.701995  8666 net.cpp:150] Setting up inception_5a/1x1_p
I1206 21:20:30.702051  8666 net.cpp:157] Top shape: 100 256 10 5 (1280000)
I1206 21:20:30.702059  8666 net.cpp:165] Memory required for data: 2901121200
I1206 21:20:30.702069  8666 net.cpp:493] Sharing parameters 'inception_5a/1x1_w' owned by layer 'inception_5a/1x1', param index 0
I1206 21:20:30.702078  8666 net.cpp:493] Sharing parameters 'inception_5a/1x1_b' owned by layer 'inception_5a/1x1', param index 1
I1206 21:20:30.702095  8666 layer_factory.hpp:77] Creating layer inception_5a/relu_1x1_p
I1206 21:20:30.702108  8666 net.cpp:100] Creating Layer inception_5a/relu_1x1_p
I1206 21:20:30.702118  8666 net.cpp:434] inception_5a/relu_1x1_p <- inception_5a/1x1_p
I1206 21:20:30.702129  8666 net.cpp:395] inception_5a/relu_1x1_p -> inception_5a/1x1_p (in-place)
I1206 21:20:30.702618  8666 net.cpp:150] Setting up inception_5a/relu_1x1_p
I1206 21:20:30.702648  8666 net.cpp:157] Top shape: 100 256 10 5 (1280000)
I1206 21:20:30.702656  8666 net.cpp:165] Memory required for data: 2906241200
I1206 21:20:30.702662  8666 layer_factory.hpp:77] Creating layer inception_5a/3x3_reduce_p
I1206 21:20:30.702677  8666 net.cpp:100] Creating Layer inception_5a/3x3_reduce_p
I1206 21:20:30.702692  8666 net.cpp:434] inception_5a/3x3_reduce_p <- inception_4e/output_p_inception_4e/output_p_0_split_1
I1206 21:20:30.702708  8666 net.cpp:408] inception_5a/3x3_reduce_p -> inception_5a/3x3_reduce_p
I1206 21:20:30.705464  8666 net.cpp:150] Setting up inception_5a/3x3_reduce_p
I1206 21:20:30.705518  8666 net.cpp:157] Top shape: 100 160 10 5 (800000)
I1206 21:20:30.705525  8666 net.cpp:165] Memory required for data: 2909441200
I1206 21:20:30.705536  8666 net.cpp:493] Sharing parameters 'inception_5a/3x3_reduce_w' owned by layer 'inception_5a/3x3_reduce', param index 0
I1206 21:20:30.705545  8666 net.cpp:493] Sharing parameters 'inception_5a/3x3_reduce_b' owned by layer 'inception_5a/3x3_reduce', param index 1
I1206 21:20:30.705551  8666 layer_factory.hpp:77] Creating layer inception_5a/relu_3x3_reduce_p
I1206 21:20:30.705570  8666 net.cpp:100] Creating Layer inception_5a/relu_3x3_reduce_p
I1206 21:20:30.705587  8666 net.cpp:434] inception_5a/relu_3x3_reduce_p <- inception_5a/3x3_reduce_p
I1206 21:20:30.705598  8666 net.cpp:395] inception_5a/relu_3x3_reduce_p -> inception_5a/3x3_reduce_p (in-place)
I1206 21:20:30.705797  8666 net.cpp:150] Setting up inception_5a/relu_3x3_reduce_p
I1206 21:20:30.705827  8666 net.cpp:157] Top shape: 100 160 10 5 (800000)
I1206 21:20:30.705834  8666 net.cpp:165] Memory required for data: 2912641200
I1206 21:20:30.705853  8666 layer_factory.hpp:77] Creating layer inception_5a/3x3_p
I1206 21:20:30.705869  8666 net.cpp:100] Creating Layer inception_5a/3x3_p
I1206 21:20:30.705879  8666 net.cpp:434] inception_5a/3x3_p <- inception_5a/3x3_reduce_p
I1206 21:20:30.705888  8666 net.cpp:408] inception_5a/3x3_p -> inception_5a/3x3_p
I1206 21:20:30.710729  8666 net.cpp:150] Setting up inception_5a/3x3_p
I1206 21:20:30.710775  8666 net.cpp:157] Top shape: 100 320 10 5 (1600000)
I1206 21:20:30.710783  8666 net.cpp:165] Memory required for data: 2919041200
I1206 21:20:30.710803  8666 net.cpp:493] Sharing parameters 'inception_5a/3x3_w' owned by layer 'inception_5a/3x3', param index 0
I1206 21:20:30.710819  8666 net.cpp:493] Sharing parameters 'inception_5a/3x3_b' owned by layer 'inception_5a/3x3', param index 1
I1206 21:20:30.710825  8666 layer_factory.hpp:77] Creating layer inception_5a/relu_3x3_p
I1206 21:20:30.710836  8666 net.cpp:100] Creating Layer inception_5a/relu_3x3_p
I1206 21:20:30.710845  8666 net.cpp:434] inception_5a/relu_3x3_p <- inception_5a/3x3_p
I1206 21:20:30.710857  8666 net.cpp:395] inception_5a/relu_3x3_p -> inception_5a/3x3_p (in-place)
I1206 21:20:30.711060  8666 net.cpp:150] Setting up inception_5a/relu_3x3_p
I1206 21:20:30.711076  8666 net.cpp:157] Top shape: 100 320 10 5 (1600000)
I1206 21:20:30.711083  8666 net.cpp:165] Memory required for data: 2925441200
I1206 21:20:30.711089  8666 layer_factory.hpp:77] Creating layer inception_5a/5x5_reduce_p
I1206 21:20:30.711133  8666 net.cpp:100] Creating Layer inception_5a/5x5_reduce_p
I1206 21:20:30.711141  8666 net.cpp:434] inception_5a/5x5_reduce_p <- inception_4e/output_p_inception_4e/output_p_0_split_2
I1206 21:20:30.711153  8666 net.cpp:408] inception_5a/5x5_reduce_p -> inception_5a/5x5_reduce_p
I1206 21:20:30.712616  8666 net.cpp:150] Setting up inception_5a/5x5_reduce_p
I1206 21:20:30.712652  8666 net.cpp:157] Top shape: 100 32 10 5 (160000)
I1206 21:20:30.712659  8666 net.cpp:165] Memory required for data: 2926081200
I1206 21:20:30.712669  8666 net.cpp:493] Sharing parameters 'inception_5a/5x5_reduce_w' owned by layer 'inception_5a/5x5_reduce', param index 0
I1206 21:20:30.712685  8666 net.cpp:493] Sharing parameters 'inception_5a/5x5_reduce_b' owned by layer 'inception_5a/5x5_reduce', param index 1
I1206 21:20:30.712692  8666 layer_factory.hpp:77] Creating layer inception_5a/relu_5x5_reduce_p
I1206 21:20:30.712704  8666 net.cpp:100] Creating Layer inception_5a/relu_5x5_reduce_p
I1206 21:20:30.712713  8666 net.cpp:434] inception_5a/relu_5x5_reduce_p <- inception_5a/5x5_reduce_p
I1206 21:20:30.712721  8666 net.cpp:395] inception_5a/relu_5x5_reduce_p -> inception_5a/5x5_reduce_p (in-place)
I1206 21:20:30.713073  8666 net.cpp:150] Setting up inception_5a/relu_5x5_reduce_p
I1206 21:20:30.713104  8666 net.cpp:157] Top shape: 100 32 10 5 (160000)
I1206 21:20:30.713110  8666 net.cpp:165] Memory required for data: 2926721200
I1206 21:20:30.713127  8666 layer_factory.hpp:77] Creating layer inception_5a/5x5_p
I1206 21:20:30.713150  8666 net.cpp:100] Creating Layer inception_5a/5x5_p
I1206 21:20:30.713158  8666 net.cpp:434] inception_5a/5x5_p <- inception_5a/5x5_reduce_p
I1206 21:20:30.713167  8666 net.cpp:408] inception_5a/5x5_p -> inception_5a/5x5_p
I1206 21:20:30.715100  8666 net.cpp:150] Setting up inception_5a/5x5_p
I1206 21:20:30.715139  8666 net.cpp:157] Top shape: 100 128 10 5 (640000)
I1206 21:20:30.715147  8666 net.cpp:165] Memory required for data: 2929281200
I1206 21:20:30.715155  8666 net.cpp:493] Sharing parameters 'inception_5a/5x5_w' owned by layer 'inception_5a/5x5', param index 0
I1206 21:20:30.715171  8666 net.cpp:493] Sharing parameters 'inception_5a/5x5_b' owned by layer 'inception_5a/5x5', param index 1
I1206 21:20:30.715193  8666 layer_factory.hpp:77] Creating layer inception_5a/relu_5x5_p
I1206 21:20:30.715214  8666 net.cpp:100] Creating Layer inception_5a/relu_5x5_p
I1206 21:20:30.715222  8666 net.cpp:434] inception_5a/relu_5x5_p <- inception_5a/5x5_p
I1206 21:20:30.715231  8666 net.cpp:395] inception_5a/relu_5x5_p -> inception_5a/5x5_p (in-place)
I1206 21:20:30.715432  8666 net.cpp:150] Setting up inception_5a/relu_5x5_p
I1206 21:20:30.715454  8666 net.cpp:157] Top shape: 100 128 10 5 (640000)
I1206 21:20:30.715461  8666 net.cpp:165] Memory required for data: 2931841200
I1206 21:20:30.715467  8666 layer_factory.hpp:77] Creating layer inception_5a/pool_p
I1206 21:20:30.715481  8666 net.cpp:100] Creating Layer inception_5a/pool_p
I1206 21:20:30.715488  8666 net.cpp:434] inception_5a/pool_p <- inception_4e/output_p_inception_4e/output_p_0_split_3
I1206 21:20:30.715499  8666 net.cpp:408] inception_5a/pool_p -> inception_5a/pool_p
I1206 21:20:30.715593  8666 net.cpp:150] Setting up inception_5a/pool_p
I1206 21:20:30.715615  8666 net.cpp:157] Top shape: 100 832 10 5 (4160000)
I1206 21:20:30.715620  8666 net.cpp:165] Memory required for data: 2948481200
I1206 21:20:30.715627  8666 layer_factory.hpp:77] Creating layer inception_5a/pool_proj_p
I1206 21:20:30.715641  8666 net.cpp:100] Creating Layer inception_5a/pool_proj_p
I1206 21:20:30.715647  8666 net.cpp:434] inception_5a/pool_proj_p <- inception_5a/pool_p
I1206 21:20:30.715658  8666 net.cpp:408] inception_5a/pool_proj_p -> inception_5a/pool_proj_p
I1206 21:20:30.718125  8666 net.cpp:150] Setting up inception_5a/pool_proj_p
I1206 21:20:30.718176  8666 net.cpp:157] Top shape: 100 128 10 5 (640000)
I1206 21:20:30.718184  8666 net.cpp:165] Memory required for data: 2951041200
I1206 21:20:30.718210  8666 net.cpp:493] Sharing parameters 'inception_5a/pool_proj_w' owned by layer 'inception_5a/pool_proj', param index 0
I1206 21:20:30.718241  8666 net.cpp:493] Sharing parameters 'inception_5a/pool_proj_b' owned by layer 'inception_5a/pool_proj', param index 1
I1206 21:20:30.718252  8666 layer_factory.hpp:77] Creating layer inception_5a/relu_pool_proj_p
I1206 21:20:30.718276  8666 net.cpp:100] Creating Layer inception_5a/relu_pool_proj_p
I1206 21:20:30.718284  8666 net.cpp:434] inception_5a/relu_pool_proj_p <- inception_5a/pool_proj_p
I1206 21:20:30.718307  8666 net.cpp:395] inception_5a/relu_pool_proj_p -> inception_5a/pool_proj_p (in-place)
I1206 21:20:30.718504  8666 net.cpp:150] Setting up inception_5a/relu_pool_proj_p
I1206 21:20:30.718533  8666 net.cpp:157] Top shape: 100 128 10 5 (640000)
I1206 21:20:30.718540  8666 net.cpp:165] Memory required for data: 2953601200
I1206 21:20:30.718546  8666 layer_factory.hpp:77] Creating layer inception_5a/output_p
I1206 21:20:30.718557  8666 net.cpp:100] Creating Layer inception_5a/output_p
I1206 21:20:30.718565  8666 net.cpp:434] inception_5a/output_p <- inception_5a/1x1_p
I1206 21:20:30.718583  8666 net.cpp:434] inception_5a/output_p <- inception_5a/3x3_p
I1206 21:20:30.718591  8666 net.cpp:434] inception_5a/output_p <- inception_5a/5x5_p
I1206 21:20:30.718598  8666 net.cpp:434] inception_5a/output_p <- inception_5a/pool_proj_p
I1206 21:20:30.718610  8666 net.cpp:408] inception_5a/output_p -> inception_5a/output_p
I1206 21:20:30.718663  8666 net.cpp:150] Setting up inception_5a/output_p
I1206 21:20:30.718686  8666 net.cpp:157] Top shape: 100 832 10 5 (4160000)
I1206 21:20:30.718693  8666 net.cpp:165] Memory required for data: 2970241200
I1206 21:20:30.718698  8666 layer_factory.hpp:77] Creating layer inception_5a/output_p_inception_5a/output_p_0_split
I1206 21:20:30.718708  8666 net.cpp:100] Creating Layer inception_5a/output_p_inception_5a/output_p_0_split
I1206 21:20:30.718716  8666 net.cpp:434] inception_5a/output_p_inception_5a/output_p_0_split <- inception_5a/output_p
I1206 21:20:30.718731  8666 net.cpp:408] inception_5a/output_p_inception_5a/output_p_0_split -> inception_5a/output_p_inception_5a/output_p_0_split_0
I1206 21:20:30.718741  8666 net.cpp:408] inception_5a/output_p_inception_5a/output_p_0_split -> inception_5a/output_p_inception_5a/output_p_0_split_1
I1206 21:20:30.718755  8666 net.cpp:408] inception_5a/output_p_inception_5a/output_p_0_split -> inception_5a/output_p_inception_5a/output_p_0_split_2
I1206 21:20:30.718765  8666 net.cpp:408] inception_5a/output_p_inception_5a/output_p_0_split -> inception_5a/output_p_inception_5a/output_p_0_split_3
I1206 21:20:30.718878  8666 net.cpp:150] Setting up inception_5a/output_p_inception_5a/output_p_0_split
I1206 21:20:30.718891  8666 net.cpp:157] Top shape: 100 832 10 5 (4160000)
I1206 21:20:30.718899  8666 net.cpp:157] Top shape: 100 832 10 5 (4160000)
I1206 21:20:30.718905  8666 net.cpp:157] Top shape: 100 832 10 5 (4160000)
I1206 21:20:30.718911  8666 net.cpp:157] Top shape: 100 832 10 5 (4160000)
I1206 21:20:30.718917  8666 net.cpp:165] Memory required for data: 3036801200
I1206 21:20:30.718926  8666 layer_factory.hpp:77] Creating layer inception_5b/1x1_p
I1206 21:20:30.718940  8666 net.cpp:100] Creating Layer inception_5b/1x1_p
I1206 21:20:30.718947  8666 net.cpp:434] inception_5b/1x1_p <- inception_5a/output_p_inception_5a/output_p_0_split_0
I1206 21:20:30.718958  8666 net.cpp:408] inception_5b/1x1_p -> inception_5b/1x1_p
I1206 21:20:30.722714  8666 net.cpp:150] Setting up inception_5b/1x1_p
I1206 21:20:30.722769  8666 net.cpp:157] Top shape: 100 384 10 5 (1920000)
I1206 21:20:30.722777  8666 net.cpp:165] Memory required for data: 3044481200
I1206 21:20:30.722787  8666 net.cpp:493] Sharing parameters 'inception_5b/1x1_w' owned by layer 'inception_5b/1x1', param index 0
I1206 21:20:30.722812  8666 net.cpp:493] Sharing parameters 'inception_5b/1x1_b' owned by layer 'inception_5b/1x1', param index 1
I1206 21:20:30.722820  8666 layer_factory.hpp:77] Creating layer inception_5b/relu_1x1_p
I1206 21:20:30.722831  8666 net.cpp:100] Creating Layer inception_5b/relu_1x1_p
I1206 21:20:30.722853  8666 net.cpp:434] inception_5b/relu_1x1_p <- inception_5b/1x1_p
I1206 21:20:30.722864  8666 net.cpp:395] inception_5b/relu_1x1_p -> inception_5b/1x1_p (in-place)
I1206 21:20:30.723228  8666 net.cpp:150] Setting up inception_5b/relu_1x1_p
I1206 21:20:30.723258  8666 net.cpp:157] Top shape: 100 384 10 5 (1920000)
I1206 21:20:30.723265  8666 net.cpp:165] Memory required for data: 3052161200
I1206 21:20:30.723271  8666 layer_factory.hpp:77] Creating layer inception_5b/3x3_reduce_p
I1206 21:20:30.723289  8666 net.cpp:100] Creating Layer inception_5b/3x3_reduce_p
I1206 21:20:30.723297  8666 net.cpp:434] inception_5b/3x3_reduce_p <- inception_5a/output_p_inception_5a/output_p_0_split_1
I1206 21:20:30.723317  8666 net.cpp:408] inception_5b/3x3_reduce_p -> inception_5b/3x3_reduce_p
I1206 21:20:30.726706  8666 net.cpp:150] Setting up inception_5b/3x3_reduce_p
I1206 21:20:30.726759  8666 net.cpp:157] Top shape: 100 192 10 5 (960000)
I1206 21:20:30.726768  8666 net.cpp:165] Memory required for data: 3056001200
I1206 21:20:30.726778  8666 net.cpp:493] Sharing parameters 'inception_5b/3x3_reduce_w' owned by layer 'inception_5b/3x3_reduce', param index 0
I1206 21:20:30.726788  8666 net.cpp:493] Sharing parameters 'inception_5b/3x3_reduce_b' owned by layer 'inception_5b/3x3_reduce', param index 1
I1206 21:20:30.726794  8666 layer_factory.hpp:77] Creating layer inception_5b/relu_3x3_reduce_p
I1206 21:20:30.726816  8666 net.cpp:100] Creating Layer inception_5b/relu_3x3_reduce_p
I1206 21:20:30.726827  8666 net.cpp:434] inception_5b/relu_3x3_reduce_p <- inception_5b/3x3_reduce_p
I1206 21:20:30.726845  8666 net.cpp:395] inception_5b/relu_3x3_reduce_p -> inception_5b/3x3_reduce_p (in-place)
I1206 21:20:30.727066  8666 net.cpp:150] Setting up inception_5b/relu_3x3_reduce_p
I1206 21:20:30.727097  8666 net.cpp:157] Top shape: 100 192 10 5 (960000)
I1206 21:20:30.727102  8666 net.cpp:165] Memory required for data: 3059841200
I1206 21:20:30.727108  8666 layer_factory.hpp:77] Creating layer inception_5b/3x3_p
I1206 21:20:30.727131  8666 net.cpp:100] Creating Layer inception_5b/3x3_p
I1206 21:20:30.727139  8666 net.cpp:434] inception_5b/3x3_p <- inception_5b/3x3_reduce_p
I1206 21:20:30.727157  8666 net.cpp:408] inception_5b/3x3_p -> inception_5b/3x3_p
I1206 21:20:30.735298  8666 net.cpp:150] Setting up inception_5b/3x3_p
I1206 21:20:30.735355  8666 net.cpp:157] Top shape: 100 384 10 5 (1920000)
I1206 21:20:30.735363  8666 net.cpp:165] Memory required for data: 3067521200
I1206 21:20:30.735381  8666 net.cpp:493] Sharing parameters 'inception_5b/3x3_w' owned by layer 'inception_5b/3x3', param index 0
I1206 21:20:30.735399  8666 net.cpp:493] Sharing parameters 'inception_5b/3x3_b' owned by layer 'inception_5b/3x3', param index 1
I1206 21:20:30.735414  8666 layer_factory.hpp:77] Creating layer inception_5b/relu_3x3_p
I1206 21:20:30.735430  8666 net.cpp:100] Creating Layer inception_5b/relu_3x3_p
I1206 21:20:30.735440  8666 net.cpp:434] inception_5b/relu_3x3_p <- inception_5b/3x3_p
I1206 21:20:30.735450  8666 net.cpp:395] inception_5b/relu_3x3_p -> inception_5b/3x3_p (in-place)
I1206 21:20:30.735800  8666 net.cpp:150] Setting up inception_5b/relu_3x3_p
I1206 21:20:30.735836  8666 net.cpp:157] Top shape: 100 384 10 5 (1920000)
I1206 21:20:30.735842  8666 net.cpp:165] Memory required for data: 3075201200
I1206 21:20:30.735849  8666 layer_factory.hpp:77] Creating layer inception_5b/5x5_reduce_p
I1206 21:20:30.735873  8666 net.cpp:100] Creating Layer inception_5b/5x5_reduce_p
I1206 21:20:30.735883  8666 net.cpp:434] inception_5b/5x5_reduce_p <- inception_5a/output_p_inception_5a/output_p_0_split_2
I1206 21:20:30.735893  8666 net.cpp:408] inception_5b/5x5_reduce_p -> inception_5b/5x5_reduce_p
I1206 21:20:30.737287  8666 net.cpp:150] Setting up inception_5b/5x5_reduce_p
I1206 21:20:30.737365  8666 net.cpp:157] Top shape: 100 48 10 5 (240000)
I1206 21:20:30.737372  8666 net.cpp:165] Memory required for data: 3076161200
I1206 21:20:30.737390  8666 net.cpp:493] Sharing parameters 'inception_5b/5x5_reduce_w' owned by layer 'inception_5b/5x5_reduce', param index 0
I1206 21:20:30.737413  8666 net.cpp:493] Sharing parameters 'inception_5b/5x5_reduce_b' owned by layer 'inception_5b/5x5_reduce', param index 1
I1206 21:20:30.737421  8666 layer_factory.hpp:77] Creating layer inception_5b/relu_5x5_reduce_p
I1206 21:20:30.737442  8666 net.cpp:100] Creating Layer inception_5b/relu_5x5_reduce_p
I1206 21:20:30.737449  8666 net.cpp:434] inception_5b/relu_5x5_reduce_p <- inception_5b/5x5_reduce_p
I1206 21:20:30.737467  8666 net.cpp:395] inception_5b/relu_5x5_reduce_p -> inception_5b/5x5_reduce_p (in-place)
I1206 21:20:30.737833  8666 net.cpp:150] Setting up inception_5b/relu_5x5_reduce_p
I1206 21:20:30.737864  8666 net.cpp:157] Top shape: 100 48 10 5 (240000)
I1206 21:20:30.737870  8666 net.cpp:165] Memory required for data: 3077121200
I1206 21:20:30.737877  8666 layer_factory.hpp:77] Creating layer inception_5b/5x5_p
I1206 21:20:30.737901  8666 net.cpp:100] Creating Layer inception_5b/5x5_p
I1206 21:20:30.737910  8666 net.cpp:434] inception_5b/5x5_p <- inception_5b/5x5_reduce_p
I1206 21:20:30.737926  8666 net.cpp:408] inception_5b/5x5_p -> inception_5b/5x5_p
I1206 21:20:30.740113  8666 net.cpp:150] Setting up inception_5b/5x5_p
I1206 21:20:30.740165  8666 net.cpp:157] Top shape: 100 128 10 5 (640000)
I1206 21:20:30.740175  8666 net.cpp:165] Memory required for data: 3079681200
I1206 21:20:30.740200  8666 net.cpp:493] Sharing parameters 'inception_5b/5x5_w' owned by layer 'inception_5b/5x5', param index 0
I1206 21:20:30.740209  8666 net.cpp:493] Sharing parameters 'inception_5b/5x5_b' owned by layer 'inception_5b/5x5', param index 1
I1206 21:20:30.740216  8666 layer_factory.hpp:77] Creating layer inception_5b/relu_5x5_p
I1206 21:20:30.740227  8666 net.cpp:100] Creating Layer inception_5b/relu_5x5_p
I1206 21:20:30.740236  8666 net.cpp:434] inception_5b/relu_5x5_p <- inception_5b/5x5_p
I1206 21:20:30.740247  8666 net.cpp:395] inception_5b/relu_5x5_p -> inception_5b/5x5_p (in-place)
I1206 21:20:30.740452  8666 net.cpp:150] Setting up inception_5b/relu_5x5_p
I1206 21:20:30.740481  8666 net.cpp:157] Top shape: 100 128 10 5 (640000)
I1206 21:20:30.740489  8666 net.cpp:165] Memory required for data: 3082241200
I1206 21:20:30.740504  8666 layer_factory.hpp:77] Creating layer inception_5b/pool_p
I1206 21:20:30.740526  8666 net.cpp:100] Creating Layer inception_5b/pool_p
I1206 21:20:30.740535  8666 net.cpp:434] inception_5b/pool_p <- inception_5a/output_p_inception_5a/output_p_0_split_3
I1206 21:20:30.740545  8666 net.cpp:408] inception_5b/pool_p -> inception_5b/pool_p
I1206 21:20:30.740603  8666 net.cpp:150] Setting up inception_5b/pool_p
I1206 21:20:30.740622  8666 net.cpp:157] Top shape: 100 832 10 5 (4160000)
I1206 21:20:30.740628  8666 net.cpp:165] Memory required for data: 3098881200
I1206 21:20:30.740634  8666 layer_factory.hpp:77] Creating layer inception_5b/pool_proj_p
I1206 21:20:30.740658  8666 net.cpp:100] Creating Layer inception_5b/pool_proj_p
I1206 21:20:30.740665  8666 net.cpp:434] inception_5b/pool_proj_p <- inception_5b/pool_p
I1206 21:20:30.740675  8666 net.cpp:408] inception_5b/pool_proj_p -> inception_5b/pool_proj_p
I1206 21:20:30.742983  8666 net.cpp:150] Setting up inception_5b/pool_proj_p
I1206 21:20:30.743041  8666 net.cpp:157] Top shape: 100 128 10 5 (640000)
I1206 21:20:30.743048  8666 net.cpp:165] Memory required for data: 3101441200
I1206 21:20:30.743059  8666 net.cpp:493] Sharing parameters 'inception_5b/pool_proj_w' owned by layer 'inception_5b/pool_proj', param index 0
I1206 21:20:30.743068  8666 net.cpp:493] Sharing parameters 'inception_5b/pool_proj_b' owned by layer 'inception_5b/pool_proj', param index 1
I1206 21:20:30.743083  8666 layer_factory.hpp:77] Creating layer inception_5b/relu_pool_proj_p
I1206 21:20:30.743103  8666 net.cpp:100] Creating Layer inception_5b/relu_pool_proj_p
I1206 21:20:30.743113  8666 net.cpp:434] inception_5b/relu_pool_proj_p <- inception_5b/pool_proj_p
I1206 21:20:30.743131  8666 net.cpp:395] inception_5b/relu_pool_proj_p -> inception_5b/pool_proj_p (in-place)
I1206 21:20:30.743333  8666 net.cpp:150] Setting up inception_5b/relu_pool_proj_p
I1206 21:20:30.743376  8666 net.cpp:157] Top shape: 100 128 10 5 (640000)
I1206 21:20:30.743383  8666 net.cpp:165] Memory required for data: 3104001200
I1206 21:20:30.743389  8666 layer_factory.hpp:77] Creating layer inception_5b/output_p
I1206 21:20:30.743410  8666 net.cpp:100] Creating Layer inception_5b/output_p
I1206 21:20:30.743418  8666 net.cpp:434] inception_5b/output_p <- inception_5b/1x1_p
I1206 21:20:30.743427  8666 net.cpp:434] inception_5b/output_p <- inception_5b/3x3_p
I1206 21:20:30.743434  8666 net.cpp:434] inception_5b/output_p <- inception_5b/5x5_p
I1206 21:20:30.743440  8666 net.cpp:434] inception_5b/output_p <- inception_5b/pool_proj_p
I1206 21:20:30.743450  8666 net.cpp:408] inception_5b/output_p -> inception_5b/output_p
I1206 21:20:30.743496  8666 net.cpp:150] Setting up inception_5b/output_p
I1206 21:20:30.743518  8666 net.cpp:157] Top shape: 100 1024 10 5 (5120000)
I1206 21:20:30.743525  8666 net.cpp:165] Memory required for data: 3124481200
I1206 21:20:30.743541  8666 layer_factory.hpp:77] Creating layer conv2-all
I1206 21:20:30.743549  8666 net.cpp:100] Creating Layer conv2-all
I1206 21:20:30.743556  8666 net.cpp:434] conv2-all <- inception_5b/output
I1206 21:20:30.743563  8666 net.cpp:434] conv2-all <- inception_5b/output_p
I1206 21:20:30.743571  8666 net.cpp:408] conv2-all -> conv2-all
I1206 21:20:30.743598  8666 net.cpp:150] Setting up conv2-all
I1206 21:20:30.743613  8666 net.cpp:157] Top shape: 100 2048 10 5 (10240000)
I1206 21:20:30.743619  8666 net.cpp:165] Memory required for data: 3165441200
I1206 21:20:30.743625  8666 layer_factory.hpp:77] Creating layer conv3-sm
I1206 21:20:30.743639  8666 net.cpp:100] Creating Layer conv3-sm
I1206 21:20:30.743649  8666 net.cpp:434] conv3-sm <- conv2-all
I1206 21:20:30.743659  8666 net.cpp:408] conv3-sm -> conv3
I1206 21:20:31.258810  8666 net.cpp:150] Setting up conv3-sm
I1206 21:20:31.258858  8666 net.cpp:157] Top shape: 100 1024 10 5 (5120000)
I1206 21:20:31.258867  8666 net.cpp:165] Memory required for data: 3185921200
I1206 21:20:31.258885  8666 layer_factory.hpp:77] Creating layer relu3
I1206 21:20:31.258899  8666 net.cpp:100] Creating Layer relu3
I1206 21:20:31.258916  8666 net.cpp:434] relu3 <- conv3
I1206 21:20:31.258926  8666 net.cpp:395] relu3 -> conv3 (in-place)
I1206 21:20:31.259263  8666 net.cpp:150] Setting up relu3
I1206 21:20:31.259281  8666 net.cpp:157] Top shape: 100 1024 10 5 (5120000)
I1206 21:20:31.259289  8666 net.cpp:165] Memory required for data: 3206401200
I1206 21:20:31.259297  8666 layer_factory.hpp:77] Creating layer conv4-sm
I1206 21:20:31.259315  8666 net.cpp:100] Creating Layer conv4-sm
I1206 21:20:31.259322  8666 net.cpp:434] conv4-sm <- conv3
I1206 21:20:31.259332  8666 net.cpp:408] conv4-sm -> conv4
I1206 21:20:31.496299  8666 net.cpp:150] Setting up conv4-sm
I1206 21:20:31.496361  8666 net.cpp:157] Top shape: 100 1024 10 5 (5120000)
I1206 21:20:31.496371  8666 net.cpp:165] Memory required for data: 3226881200
I1206 21:20:31.496389  8666 layer_factory.hpp:77] Creating layer relu4
I1206 21:20:31.496402  8666 net.cpp:100] Creating Layer relu4
I1206 21:20:31.496419  8666 net.cpp:434] relu4 <- conv4
I1206 21:20:31.496428  8666 net.cpp:395] relu4 -> conv4 (in-place)
I1206 21:20:31.496659  8666 net.cpp:150] Setting up relu4
I1206 21:20:31.496675  8666 net.cpp:157] Top shape: 100 1024 10 5 (5120000)
I1206 21:20:31.496681  8666 net.cpp:165] Memory required for data: 3247361200
I1206 21:20:31.496688  8666 layer_factory.hpp:77] Creating layer pool5
I1206 21:20:31.496703  8666 net.cpp:100] Creating Layer pool5
I1206 21:20:31.496711  8666 net.cpp:434] pool5 <- conv4
I1206 21:20:31.496721  8666 net.cpp:408] pool5 -> pool5
I1206 21:20:31.496778  8666 net.cpp:150] Setting up pool5
I1206 21:20:31.496789  8666 net.cpp:157] Top shape: 100 1024 5 2 (1024000)
I1206 21:20:31.496796  8666 net.cpp:165] Memory required for data: 3251457200
I1206 21:20:31.496805  8666 layer_factory.hpp:77] Creating layer fc6-sm
I1206 21:20:31.496827  8666 net.cpp:100] Creating Layer fc6-sm
I1206 21:20:31.496834  8666 net.cpp:434] fc6-sm <- pool5
I1206 21:20:31.496860  8666 net.cpp:408] fc6-sm -> fc6
I1206 21:20:31.776698  8666 net.cpp:150] Setting up fc6-sm
I1206 21:20:31.776789  8666 net.cpp:157] Top shape: 100 1024 (102400)
I1206 21:20:31.776813  8666 net.cpp:165] Memory required for data: 3251866800
I1206 21:20:31.776845  8666 layer_factory.hpp:77] Creating layer relu6
I1206 21:20:31.776870  8666 net.cpp:100] Creating Layer relu6
I1206 21:20:31.776892  8666 net.cpp:434] relu6 <- fc6
I1206 21:20:31.776916  8666 net.cpp:395] relu6 -> fc6 (in-place)
I1206 21:20:31.777794  8666 net.cpp:150] Setting up relu6
I1206 21:20:31.777856  8666 net.cpp:157] Top shape: 100 1024 (102400)
I1206 21:20:31.777879  8666 net.cpp:165] Memory required for data: 3252276400
I1206 21:20:31.777899  8666 layer_factory.hpp:77] Creating layer drop6
I1206 21:20:31.777935  8666 net.cpp:100] Creating Layer drop6
I1206 21:20:31.777971  8666 net.cpp:434] drop6 <- fc6
I1206 21:20:31.777995  8666 net.cpp:395] drop6 -> fc6 (in-place)
I1206 21:20:31.778069  8666 net.cpp:150] Setting up drop6
I1206 21:20:31.778107  8666 net.cpp:157] Top shape: 100 1024 (102400)
I1206 21:20:31.778118  8666 net.cpp:165] Memory required for data: 3252686000
I1206 21:20:31.778136  8666 layer_factory.hpp:77] Creating layer fc7-sm
I1206 21:20:31.778159  8666 net.cpp:100] Creating Layer fc7-sm
I1206 21:20:31.778172  8666 net.cpp:434] fc7-sm <- fc6
I1206 21:20:31.778198  8666 net.cpp:408] fc7-sm -> fc7
I1206 21:20:31.815676  8666 net.cpp:150] Setting up fc7-sm
I1206 21:20:31.815740  8666 net.cpp:157] Top shape: 100 1024 (102400)
I1206 21:20:31.815749  8666 net.cpp:165] Memory required for data: 3253095600
I1206 21:20:31.815767  8666 layer_factory.hpp:77] Creating layer relu7
I1206 21:20:31.815780  8666 net.cpp:100] Creating Layer relu7
I1206 21:20:31.815788  8666 net.cpp:434] relu7 <- fc7
I1206 21:20:31.815800  8666 net.cpp:395] relu7 -> fc7 (in-place)
I1206 21:20:31.816323  8666 net.cpp:150] Setting up relu7
I1206 21:20:31.816365  8666 net.cpp:157] Top shape: 100 1024 (102400)
I1206 21:20:31.816372  8666 net.cpp:165] Memory required for data: 3253505200
I1206 21:20:31.816388  8666 layer_factory.hpp:77] Creating layer drop7
I1206 21:20:31.816411  8666 net.cpp:100] Creating Layer drop7
I1206 21:20:31.816421  8666 net.cpp:434] drop7 <- fc7
I1206 21:20:31.816429  8666 net.cpp:395] drop7 -> fc7 (in-place)
I1206 21:20:31.816465  8666 net.cpp:150] Setting up drop7
I1206 21:20:31.816485  8666 net.cpp:157] Top shape: 100 1024 (102400)
I1206 21:20:31.816491  8666 net.cpp:165] Memory required for data: 3253914800
I1206 21:20:31.816498  8666 layer_factory.hpp:77] Creating layer fc7-all
I1206 21:20:31.816521  8666 net.cpp:100] Creating Layer fc7-all
I1206 21:20:31.816529  8666 net.cpp:434] fc7-all <- fc7
I1206 21:20:31.816536  8666 net.cpp:408] fc7-all -> fc7-all
I1206 21:20:31.816725  8666 net.cpp:150] Setting up fc7-all
I1206 21:20:31.816745  8666 net.cpp:157] Top shape: 100 2 (200)
I1206 21:20:31.816752  8666 net.cpp:165] Memory required for data: 3253915600
I1206 21:20:31.816771  8666 layer_factory.hpp:77] Creating layer fc7-all_fc7-all_0_split
I1206 21:20:31.816781  8666 net.cpp:100] Creating Layer fc7-all_fc7-all_0_split
I1206 21:20:31.816788  8666 net.cpp:434] fc7-all_fc7-all_0_split <- fc7-all
I1206 21:20:31.816797  8666 net.cpp:408] fc7-all_fc7-all_0_split -> fc7-all_fc7-all_0_split_0
I1206 21:20:31.816813  8666 net.cpp:408] fc7-all_fc7-all_0_split -> fc7-all_fc7-all_0_split_1
I1206 21:20:31.816855  8666 net.cpp:150] Setting up fc7-all_fc7-all_0_split
I1206 21:20:31.816864  8666 net.cpp:157] Top shape: 100 2 (200)
I1206 21:20:31.816871  8666 net.cpp:157] Top shape: 100 2 (200)
I1206 21:20:31.816877  8666 net.cpp:165] Memory required for data: 3253917200
I1206 21:20:31.816884  8666 layer_factory.hpp:77] Creating layer accuracy
I1206 21:20:31.816897  8666 net.cpp:100] Creating Layer accuracy
I1206 21:20:31.816905  8666 net.cpp:434] accuracy <- fc7-all_fc7-all_0_split_0
I1206 21:20:31.816913  8666 net.cpp:434] accuracy <- label_data_2_split_0
I1206 21:20:31.816921  8666 net.cpp:408] accuracy -> accuracy
…
