…
I1127 22:54:48.584655 10202 net.cpp:322] The NetState phase (0) differed from the phase (1) specified by a rule in layer reshape-label
I1127 22:54:48.584666 10202 net.cpp:322] The NetState phase (0) differed from the phase (1) specified by a rule in layer reshape-cm
I1127 22:54:48.587071 10202 net.cpp:58] Initializing net from parameters: 
name: "AlexNet"
state {
  phase: TRAIN
  level: 0
  stage: ""
}
layer {
  name: "data"
  type: "Python"
  top: "data"
  top: "data_p"
  top: "label"
  top: "clip_markers"
  include {
    phase: TRAIN
  }
  python_param {
    module: "prid_SeqIn_layer"
    layer: "videoReadTrain"
  }
}
layer {
  name: "conv1/7x7_s2"
  type: "Convolution"
  bottom: "data"
  top: "conv1/7x7_s2"
  param {
    name: "conv1/7x7_s2_w"
    lr_mult: 1
    decay_mult: 1
  }
  param {
    name: "conv1/7x7_s2_b"
    lr_mult: 2
    decay_mult: 0
  }
  convolution_param {
    num_output: 64
    pad: 3
    kernel_size: 7
    stride: 2
    weight_filler {
      type: "xavier"
    }
    bias_filler {
      type: "constant"
      value: 0.2
    }
  }
}
layer {
  name: "conv1/relu_7x7"
  type: "ReLU"
  bottom: "conv1/7x7_s2"
  top: "conv1/7x7_s2"
}
layer {
  name: "pool1/3x3_s2"
  type: "Pooling"
  bottom: "conv1/7x7_s2"
  top: "pool1/3x3_s2"
  pooling_param {
    pool: MAX
    kernel_size: 3
    stride: 2
  }
}
layer {
  name: "pool1/norm1"
  type: "LRN"
  bottom: "pool1/3x3_s2"
  top: "pool1/norm1"
  lrn_param {
    local_size: 5
    alpha: 0.0001
    beta: 0.75
  }
}
layer {
  name: "conv2/3x3_reduce"
  type: "Convolution"
  bottom: "pool1/norm1"
  top: "conv2/3x3_reduce"
  param {
    name: "conv2/3x3_reduce_w"
    lr_mult: 1
    decay_mult: 1
  }
  param {
    name: "conv2/3x3_reduce_b"
    lr_mult: 2
    decay_mult: 0
  }
  convolution_param {
    num_output: 64
    kernel_size: 1
    weight_filler {
      type: "xavier"
    }
    bias_filler {
      type: "constant"
      value: 0.2
    }
  }
}
layer {
  name: "conv2/relu_3x3_reduce"
  type: "ReLU"
  bottom: "conv2/3x3_reduce"
  top: "conv2/3x3_reduce"
}
layer {
  name: "conv2/3x3"
  type: "Convolution"
  bottom: "conv2/3x3_reduce"
  top: "conv2/3x3"
  param {
    name: "conv2/3x3_w"
    lr_mult: 1
    decay_mult: 1
  }
  param {
    name: "conv2/3x3_b"
    lr_mult: 2
    decay_mult: 0
  }
  convolution_param {
    num_output: 192
    pad: 1
    kernel_size: 3
    weight_filler {
      type: "xavier"
    }
    bias_filler {
      type: "constant"
      value: 0.2
    }
  }
}
layer {
  name: "conv2/relu_3x3"
  type: "ReLU"
  bottom: "conv2/3x3"
  top: "conv2/3x3"
}
layer {
  name: "pool2/3x3_s2"
  type: "Pooling"
  bottom: "conv2/3x3"
  top: "pool2/3x3_s2"
  pooling_param {
    pool: MAX
    kernel_size: 3
    stride: 2
  }
}
layer {
  name: "inception_3a/1x1"
  type: "Convolution"
  bottom: "pool2/3x3_s2"
  top: "inception_3a/1x1"
  param {
    name: "inception_3a/1x1_w"
    lr_mult: 1
    decay_mult: 1
  }
  param {
    name: "inception_3a/1x1_b"
    lr_mult: 2
    decay_mult: 0
  }
  convolution_param {
    num_output: 64
    kernel_size: 1
    weight_filler {
      type: "xavier"
    }
    bias_filler {
      type: "constant"
      value: 0.2
    }
  }
}
layer {
  name: "inception_3a/relu_1x1"
  type: "ReLU"
  bottom: "inception_3a/1x1"
  top: "inception_3a/1x1"
}
layer {
  name: "inception_3a/3x3_reduce"
  type: "Convolution"
  bottom: "pool2/3x3_s2"
  top: "inception_3a/3x3_reduce"
  param {
    name: "inception_3a/3x3_reduce_w"
    lr_mult: 1
    decay_mult: 1
  }
  param {
    name: "inception_3a/3x3_reduce_b"
    lr_mult: 2
    decay_mult: 0
  }
  convolution_param {
    num_output: 96
    kernel_size: 1
    weight_filler {
      type: "xavier"
    }
    bias_filler {
      type: "constant"
      value: 0.2
    }
  }
}
layer {
  name: "inception_3a/relu_3x3_reduce"
  type: "ReLU"
  bottom: "inception_3a/3x3_reduce"
  top: "inception_3a/3x3_reduce"
}
layer {
  name: "inception_3a/3x3"
  type: "Convolution"
  bottom: "inception_3a/3x3_reduce"
  top: "inception_3a/3x3"
  param {
    name: "inception_3a/3x3_w"
    lr_mult: 1
    decay_mult: 1
  }
  param {
    name: "inception_3a/3x3_b"
    lr_mult: 2
    decay_mult: 0
  }
  convolution_param {
    num_output: 128
    pad: 1
    kernel_size: 3
    weight_filler {
      type: "xavier"
    }
    bias_filler {
      type: "constant"
      value: 0.2
    }
  }
}
layer {
  name: "inception_3a/relu_3x3"
  type: "ReLU"
  bottom: "inception_3a/3x3"
  top: "inception_3a/3x3"
}
layer {
  name: "inception_3a/5x5_reduce"
  type: "Convolution"
  bottom: "pool2/3x3_s2"
  top: "inception_3a/5x5_reduce"
  param {
    name: "inception_3a/5x5_reduce_w"
    lr_mult: 1
    decay_mult: 1
  }
  param {
    name: "inception_3a/5x5_reduce_b"
    lr_mult: 2
    decay_mult: 0
  }
  convolution_param {
    num_output: 16
    kernel_size: 1
    weight_filler {
      type: "xavier"
    }
    bias_filler {
      type: "constant"
      value: 0.2
    }
  }
}
layer {
  name: "inception_3a/relu_5x5_reduce"
  type: "ReLU"
  bottom: "inception_3a/5x5_reduce"
  top: "inception_3a/5x5_reduce"
}
layer {
  name: "inception_3a/5x5"
  type: "Convolution"
  bottom: "inception_3a/5x5_reduce"
  top: "inception_3a/5x5"
  param {
    name: "inception_3a/5x5_w"
    lr_mult: 1
    decay_mult: 1
  }
  param {
    name: "inception_3a/5x5_b"
    lr_mult: 2
    decay_mult: 0
  }
  convolution_param {
    num_output: 32
    pad: 2
    kernel_size: 5
    weight_filler {
      type: "xavier"
    }
    bias_filler {
      type: "constant"
      value: 0.2
    }
  }
}
layer {
  name: "inception_3a/relu_5x5"
  type: "ReLU"
  bottom: "inception_3a/5x5"
  top: "inception_3a/5x5"
}
layer {
  name: "inception_3a/pool"
  type: "Pooling"
  bottom: "pool2/3x3_s2"
  top: "inception_3a/pool"
  pooling_param {
    pool: MAX
    kernel_size: 3
    stride: 1
    pad: 1
  }
}
layer {
  name: "inception_3a/pool_proj"
  type: "Convolution"
  bottom: "inception_3a/pool"
  top: "inception_3a/pool_proj"
  param {
    name: "inception_3a/pool_proj_w"
    lr_mult: 1
    decay_mult: 1
  }
  param {
    name: "inception_3a/pool_proj_b"
    lr_mult: 2
    decay_mult: 0
  }
  convolution_param {
    num_output: 32
    kernel_size: 1
    weight_filler {
      type: "xavier"
    }
    bias_filler {
      type: "constant"
      value: 0.2
    }
  }
}
layer {
  name: "inception_3a/relu_pool_proj"
  type: "ReLU"
  bottom: "inception_3a/pool_proj"
  top: "inception_3a/pool_proj"
}
layer {
  name: "inception_3a/output"
  type: "Concat"
  bottom: "inception_3a/1x1"
  bottom: "inception_3a/3x3"
  bottom: "inception_3a/5x5"
  bottom: "inception_3a/pool_proj"
  top: "inception_3a/output"
}
layer {
  name: "inception_3b/1x1"
  type: "Convolution"
  bottom: "inception_3a/output"
  top: "inception_3b/1x1"
  param {
    name: "inception_3b/1x1_w"
    lr_mult: 1
    decay_mult: 1
  }
  param {
    name: "inception_3b/1x1_b"
    lr_mult: 2
    decay_mult: 0
  }
  convolution_param {
    num_output: 128
    kernel_size: 1
    weight_filler {
      type: "xavier"
    }
    bias_filler {
      type: "constant"
      value: 0.2
    }
  }
}
layer {
  name: "inception_3b/relu_1x1"
  type: "ReLU"
  bottom: "inception_3b/1x1"
  top: "inception_3b/1x1"
}
layer {
  name: "inception_3b/3x3_reduce"
  type: "Convolution"
  bottom: "inception_3a/output"
  top: "inception_3b/3x3_reduce"
  param {
    name: "inception_3b/3x3_reduce_w"
    lr_mult: 1
    decay_mult: 1
  }
  param {
    name: "inception_3b/3x3_reduce_b"
    lr_mult: 2
    decay_mult: 0
  }
  convolution_param {
    num_output: 128
    kernel_size: 1
    weight_filler {
      type: "xavier"
    }
    bias_filler {
      type: "constant"
      value: 0.2
    }
  }
}
layer {
  name: "inception_3b/relu_3x3_reduce"
  type: "ReLU"
  bottom: "inception_3b/3x3_reduce"
  top: "inception_3b/3x3_reduce"
}
layer {
  name: "inception_3b/3x3"
  type: "Convolution"
  bottom: "inception_3b/3x3_reduce"
  top: "inception_3b/3x3"
  param {
    name: "inception_3b/3x3_w"
    lr_mult: 1
    decay_mult: 1
  }
  param {
    name: "inception_3b/3x3_b"
    lr_mult: 2
    decay_mult: 0
  }
  convolution_param {
    num_output: 192
    pad: 1
    kernel_size: 3
    weight_filler {
      type: "xavier"
    }
    bias_filler {
      type: "constant"
      value: 0.2
    }
  }
}
layer {
  name: "inception_3b/relu_3x3"
  type: "ReLU"
  bottom: "inception_3b/3x3"
  top: "inception_3b/3x3"
}
layer {
  name: "inception_3b/5x5_reduce"
  type: "Convolution"
  bottom: "inception_3a/output"
  top: "inception_3b/5x5_reduce"
  param {
    name: "inception_3b/5x5_reduce_w"
    lr_mult: 1
    decay_mult: 1
  }
  param {
    name: "inception_3b/5x5_reduce_b"
    lr_mult: 2
    decay_mult: 0
  }
  convolution_param {
    num_output: 32
    kernel_size: 1
    weight_filler {
      type: "xavier"
    }
    bias_filler {
      type: "constant"
      value: 0.2
    }
  }
}
layer {
  name: "inception_3b/relu_5x5_reduce"
  type: "ReLU"
  bottom: "inception_3b/5x5_reduce"
  top: "inception_3b/5x5_reduce"
}
layer {
  name: "inception_3b/5x5"
  type: "Convolution"
  bottom: "inception_3b/5x5_reduce"
  top: "inception_3b/5x5"
  param {
    name: "inception_3b/5x5_w"
    lr_mult: 1
    decay_mult: 1
  }
  param {
    name: "inception_3b/5x5_b"
    lr_mult: 2
    decay_mult: 0
  }
  convolution_param {
    num_output: 96
    pad: 2
    kernel_size: 5
    weight_filler {
      type: "xavier"
    }
    bias_filler {
      type: "constant"
      value: 0.2
    }
  }
}
layer {
  name: "inception_3b/relu_5x5"
  type: "ReLU"
  bottom: "inception_3b/5x5"
  top: "inception_3b/5x5"
}
layer {
  name: "inception_3b/pool"
  type: "Pooling"
  bottom: "inception_3a/output"
  top: "inception_3b/pool"
  pooling_param {
    pool: MAX
    kernel_size: 3
    stride: 1
    pad: 1
  }
}
layer {
  name: "inception_3b/pool_proj"
  type: "Convolution"
  bottom: "inception_3b/pool"
  top: "inception_3b/pool_proj"
  param {
    name: "inception_3b/pool_proj_w"
    lr_mult: 1
    decay_mult: 1
  }
  param {
    name: "inception_3b/pool_proj_b"
    lr_mult: 2
    decay_mult: 0
  }
  convolution_param {
    num_output: 64
    kernel_size: 1
    weight_filler {
      type: "xavier"
    }
    bias_filler {
      type: "constant"
      value: 0.2
    }
  }
}
layer {
  name: "inception_3b/relu_pool_proj"
  type: "ReLU"
  bottom: "inception_3b/pool_proj"
  top: "inception_3b/pool_proj"
}
layer {
  name: "inception_3b/output"
  type: "Concat"
  bottom: "inception_3b/1x1"
  bottom: "inception_3b/3x3"
  bottom: "inception_3b/5x5"
  bottom: "inception_3b/pool_proj"
  top: "inception_3b/output"
}
layer {
  name: "pool3/3x3_s2"
  type: "Pooling"
  bottom: "inception_3b/output"
  top: "pool3/3x3_s2"
  pooling_param {
    pool: MAX
    kernel_size: 3
    stride: 2
  }
}
layer {
  name: "inception_4a/1x1"
  type: "Convolution"
  bottom: "pool3/3x3_s2"
  top: "inception_4a/1x1"
  param {
    name: "inception_4a/1x1_w"
    lr_mult: 1
    decay_mult: 1
  }
  param {
    name: "inception_4a/1x1_b"
    lr_mult: 2
    decay_mult: 0
  }
  convolution_param {
    num_output: 192
    kernel_size: 1
    weight_filler {
      type: "xavier"
    }
    bias_filler {
      type: "constant"
      value: 0.2
    }
  }
}
layer {
  name: "inception_4a/relu_1x1"
  type: "ReLU"
  bottom: "inception_4a/1x1"
  top: "inception_4a/1x1"
}
layer {
  name: "inception_4a/3x3_reduce"
  type: "Convolution"
  bottom: "pool3/3x3_s2"
  top: "inception_4a/3x3_reduce"
  param {
    name: "inception_4a/3x3_reduce_w"
    lr_mult: 1
    decay_mult: 1
  }
  param {
    name: "inception_4a/3x3_reduce_b"
    lr_mult: 2
    decay_mult: 0
  }
  convolution_param {
    num_output: 96
    kernel_size: 1
    weight_filler {
      type: "xavier"
    }
    bias_filler {
      type: "constant"
      value: 0.2
    }
  }
}
layer {
  name: "inception_4a/relu_3x3_reduce"
  type: "ReLU"
  bottom: "inception_4a/3x3_reduce"
  top: "inception_4a/3x3_reduce"
}
layer {
  name: "inception_4a/3x3"
  type: "Convolution"
  bottom: "inception_4a/3x3_reduce"
  top: "inception_4a/3x3"
  param {
    name: "inception_4a/3x3_w"
    lr_mult: 1
    decay_mult: 1
  }
  param {
    name: "inception_4a/3x3_b"
    lr_mult: 2
    decay_mult: 0
  }
  convolution_param {
    num_output: 208
    pad: 1
    kernel_size: 3
    weight_filler {
      type: "xavier"
    }
    bias_filler {
      type: "constant"
      value: 0.2
    }
  }
}
layer {
  name: "inception_4a/relu_3x3"
  type: "ReLU"
  bottom: "inception_4a/3x3"
  top: "inception_4a/3x3"
}
layer {
  name: "inception_4a/5x5_reduce"
  type: "Convolution"
  bottom: "pool3/3x3_s2"
  top: "inception_4a/5x5_reduce"
  param {
    name: "inception_4a/5x5_reduce_w"
    lr_mult: 1
    decay_mult: 1
  }
  param {
    name: "inception_4a/5x5_reduce_b"
    lr_mult: 2
    decay_mult: 0
  }
  convolution_param {
    num_output: 16
    kernel_size: 1
    weight_filler {
      type: "xavier"
    }
    bias_filler {
      type: "constant"
      value: 0.2
    }
  }
}
layer {
  name: "inception_4a/relu_5x5_reduce"
  type: "ReLU"
  bottom: "inception_4a/5x5_reduce"
  top: "inception_4a/5x5_reduce"
}
layer {
  name: "inception_4a/5x5"
  type: "Convolution"
  bottom: "inception_4a/5x5_reduce"
  top: "inception_4a/5x5"
  param {
    name: "inception_4a/5x5_w"
    lr_mult: 1
    decay_mult: 1
  }
  param {
    name: "inception_4a/5x5_b"
    lr_mult: 2
    decay_mult: 0
  }
  convolution_param {
    num_output: 48
    pad: 2
    kernel_size: 5
    weight_filler {
      type: "xavier"
    }
    bias_filler {
      type: "constant"
      value: 0.2
    }
  }
}
layer {
  name: "inception_4a/relu_5x5"
  type: "ReLU"
  bottom: "inception_4a/5x5"
  top: "inception_4a/5x5"
}
layer {
  name: "inception_4a/pool"
  type: "Pooling"
  bottom: "pool3/3x3_s2"
  top: "inception_4a/pool"
  pooling_param {
    pool: MAX
    kernel_size: 3
    stride: 1
    pad: 1
  }
}
layer {
  name: "inception_4a/pool_proj"
  type: "Convolution"
  bottom: "inception_4a/pool"
  top: "inception_4a/pool_proj"
  param {
    name: "inception_4a/pool_proj_w"
    lr_mult: 1
    decay_mult: 1
  }
  param {
    name: "inception_4a/pool_proj_b"
    lr_mult: 2
    decay_mult: 0
  }
  convolution_param {
    num_output: 64
    kernel_size: 1
    weight_filler {
      type: "xavier"
    }
    bias_filler {
      type: "constant"
      value: 0.2
    }
  }
}
layer {
  name: "inception_4a/relu_pool_proj"
  type: "ReLU"
  bottom: "inception_4a/pool_proj"
  top: "inception_4a/pool_proj"
}
layer {
  name: "inception_4a/output"
  type: "Concat"
  bottom: "inception_4a/1x1"
  bottom: "inception_4a/3x3"
  bottom: "inception_4a/5x5"
  bottom: "inception_4a/pool_proj"
  top: "inception_4a/output"
}
layer {
  name: "inception_4b/1x1"
  type: "Convolution"
  bottom: "inception_4a/output"
  top: "inception_4b/1x1"
  param {
    name: "inception_4b/1x1_w"
    lr_mult: 1
    decay_mult: 1
  }
  param {
    name: "inception_4b/1x1_b"
    lr_mult: 2
    decay_mult: 0
  }
  convolution_param {
    num_output: 160
    kernel_size: 1
    weight_filler {
      type: "xavier"
    }
    bias_filler {
      type: "constant"
      value: 0.2
    }
  }
}
layer {
  name: "inception_4b/relu_1x1"
  type: "ReLU"
  bottom: "inception_4b/1x1"
  top: "inception_4b/1x1"
}
layer {
  name: "inception_4b/3x3_reduce"
  type: "Convolution"
  bottom: "inception_4a/output"
  top: "inception_4b/3x3_reduce"
  param {
    name: "inception_4b/3x3_reduce_w"
    lr_mult: 1
    decay_mult: 1
  }
  param {
    name: "inception_4b/3x3_reduce_b"
    lr_mult: 2
    decay_mult: 0
  }
  convolution_param {
    num_output: 112
    kernel_size: 1
    weight_filler {
      type: "xavier"
    }
    bias_filler {
      type: "constant"
      value: 0.2
    }
  }
}
layer {
  name: "inception_4b/relu_3x3_reduce"
  type: "ReLU"
  bottom: "inception_4b/3x3_reduce"
  top: "inception_4b/3x3_reduce"
}
layer {
  name: "inception_4b/3x3"
  type: "Convolution"
  bottom: "inception_4b/3x3_reduce"
  top: "inception_4b/3x3"
  param {
    name: "inception_4b/3x3_w"
    lr_mult: 1
    decay_mult: 1
  }
  param {
    name: "inception_4b/3x3_b"
    lr_mult: 2
    decay_mult: 0
  }
  convolution_param {
    num_output: 224
    pad: 1
    kernel_size: 3
    weight_filler {
      type: "xavier"
    }
    bias_filler {
      type: "constant"
      value: 0.2
    }
  }
}
layer {
  name: "inception_4b/relu_3x3"
  type: "ReLU"
  bottom: "inception_4b/3x3"
  top: "inception_4b/3x3"
}
layer {
  name: "inception_4b/5x5_reduce"
  type: "Convolution"
  bottom: "inception_4a/output"
  top: "inception_4b/5x5_reduce"
  param {
    name: "inception_4b/5x5_reduce_w"
    lr_mult: 1
    decay_mult: 1
  }
  param {
    name: "inception_4b/5x5_reduce_b"
    lr_mult: 2
    decay_mult: 0
  }
  convolution_param {
    num_output: 24
    kernel_size: 1
    weight_filler {
      type: "xavier"
    }
    bias_filler {
      type: "constant"
      value: 0.2
    }
  }
}
layer {
  name: "inception_4b/relu_5x5_reduce"
  type: "ReLU"
  bottom: "inception_4b/5x5_reduce"
  top: "inception_4b/5x5_reduce"
}
layer {
  name: "inception_4b/5x5"
  type: "Convolution"
  bottom: "inception_4b/5x5_reduce"
  top: "inception_4b/5x5"
  param {
    name: "inception_4b/5x5_w"
    lr_mult: 1
    decay_mult: 1
  }
  param {
    name: "inception_4b/5x5_b"
    lr_mult: 2
    decay_mult: 0
  }
  convolution_param {
    num_output: 64
    pad: 2
    kernel_size: 5
    weight_filler {
      type: "xavier"
    }
    bias_filler {
      type: "constant"
      value: 0.2
    }
  }
}
layer {
  name: "inception_4b/relu_5x5"
  type: "ReLU"
  bottom: "inception_4b/5x5"
  top: "inception_4b/5x5"
}
layer {
  name: "inception_4b/pool"
  type: "Pooling"
  bottom: "inception_4a/output"
  top: "inception_4b/pool"
  pooling_param {
    pool: MAX
    kernel_size: 3
    stride: 1
    pad: 1
  }
}
layer {
  name: "inception_4b/pool_proj"
  type: "Convolution"
  bottom: "inception_4b/pool"
  top: "inception_4b/pool_proj"
  param {
    name: "inception_4b/pool_proj_w"
    lr_mult: 1
    decay_mult: 1
  }
  param {
    name: "inception_4b/pool_proj_b"
    lr_mult: 2
    decay_mult: 0
  }
  convolution_param {
    num_output: 64
    kernel_size: 1
    weight_filler {
      type: "xavier"
    }
    bias_filler {
      type: "constant"
      value: 0.2
    }
  }
}
layer {
  name: "inception_4b/relu_pool_proj"
  type: "ReLU"
  bottom: "inception_4b/pool_proj"
  top: "inception_4b/pool_proj"
}
layer {
  name: "inception_4b/output"
  type: "Concat"
  bottom: "inception_4b/1x1"
  bottom: "inception_4b/3x3"
  bottom: "inception_4b/5x5"
  bottom: "inception_4b/pool_proj"
  top: "inception_4b/output"
}
layer {
  name: "inception_4c/1x1"
  type: "Convolution"
  bottom: "inception_4b/output"
  top: "inception_4c/1x1"
  param {
    name: "inception_4c/1x1_w"
    lr_mult: 1
    decay_mult: 1
  }
  param {
    name: "inception_4c/1x1_b"
    lr_mult: 2
    decay_mult: 0
  }
  convolution_param {
    num_output: 128
    kernel_size: 1
    weight_filler {
      type: "xavier"
    }
    bias_filler {
      type: "constant"
      value: 0.2
    }
  }
}
layer {
  name: "inception_4c/relu_1x1"
  type: "ReLU"
  bottom: "inception_4c/1x1"
  top: "inception_4c/1x1"
}
layer {
  name: "inception_4c/3x3_reduce"
  type: "Convolution"
  bottom: "inception_4b/output"
  top: "inception_4c/3x3_reduce"
  param {
    name: "inception_4c/3x3_reduce_w"
    lr_mult: 1
    decay_mult: 1
  }
  param {
    name: "inception_4c/3x3_reduce_b"
    lr_mult: 2
    decay_mult: 0
  }
  convolution_param {
    num_output: 128
    kernel_size: 1
    weight_filler {
      type: "xavier"
    }
    bias_filler {
      type: "constant"
      value: 0.2
    }
  }
}
layer {
  name: "inception_4c/relu_3x3_reduce"
  type: "ReLU"
  bottom: "inception_4c/3x3_reduce"
  top: "inception_4c/3x3_reduce"
}
layer {
  name: "inception_4c/3x3"
  type: "Convolution"
  bottom: "inception_4c/3x3_reduce"
  top: "inception_4c/3x3"
  param {
    name: "inception_4c/3x3_w"
    lr_mult: 1
    decay_mult: 1
  }
  param {
    name: "inception_4c/3x3_b"
    lr_mult: 2
    decay_mult: 0
  }
  convolution_param {
    num_output: 256
    pad: 1
    kernel_size: 3
    weight_filler {
      type: "xavier"
    }
    bias_filler {
      type: "constant"
      value: 0.2
    }
  }
}
layer {
  name: "inception_4c/relu_3x3"
  type: "ReLU"
  bottom: "inception_4c/3x3"
  top: "inception_4c/3x3"
}
layer {
  name: "inception_4c/5x5_reduce"
  type: "Convolution"
  bottom: "inception_4b/output"
  top: "inception_4c/5x5_reduce"
  param {
    name: "inception_4c/5x5_reduce_w"
    lr_mult: 1
    decay_mult: 1
  }
  param {
    name: "inception_4c/5x5_reduce_b"
    lr_mult: 2
    decay_mult: 0
  }
  convolution_param {
    num_output: 24
    kernel_size: 1
    weight_filler {
      type: "xavier"
    }
    bias_filler {
      type: "constant"
      value: 0.2
    }
  }
}
layer {
  name: "inception_4c/relu_5x5_reduce"
  type: "ReLU"
  bottom: "inception_4c/5x5_reduce"
  top: "inception_4c/5x5_reduce"
}
layer {
  name: "inception_4c/5x5"
  type: "Convolution"
  bottom: "inception_4c/5x5_reduce"
  top: "inception_4c/5x5"
  param {
    name: "inception_4c/5x5_w"
    lr_mult: 1
    decay_mult: 1
  }
  param {
    name: "inception_4c/5x5_b"
    lr_mult: 2
    decay_mult: 0
  }
  convolution_param {
    num_output: 64
    pad: 2
    kernel_size: 5
    weight_filler {
      type: "xavier"
    }
    bias_filler {
      type: "constant"
      value: 0.2
    }
  }
}
layer {
  name: "inception_4c/relu_5x5"
  type: "ReLU"
  bottom: "inception_4c/5x5"
  top: "inception_4c/5x5"
}
layer {
  name: "inception_4c/pool"
  type: "Pooling"
  bottom: "inception_4b/output"
  top: "inception_4c/pool"
  pooling_param {
    pool: MAX
    kernel_size: 3
    stride: 1
    pad: 1
  }
}
layer {
  name: "inception_4c/pool_proj"
  type: "Convolution"
  bottom: "inception_4c/pool"
  top: "inception_4c/pool_proj"
  param {
    name: "inception_4c/pool_proj_w"
    lr_mult: 1
    decay_mult: 1
  }
  param {
    name: "inception_4c/pool_proj_b"
    lr_mult: 2
    decay_mult: 0
  }
  convolution_param {
    num_output: 64
    kernel_size: 1
    weight_filler {
      type: "xavier"
    }
    bias_filler {
      type: "constant"
      value: 0.2
    }
  }
}
layer {
  name: "inception_4c/relu_pool_proj"
  type: "ReLU"
  bottom: "inception_4c/pool_proj"
  top: "inception_4c/pool_proj"
}
layer {
  name: "inception_4c/output"
  type: "Concat"
  bottom: "inception_4c/1x1"
  bottom: "inception_4c/3x3"
  bottom: "inception_4c/5x5"
  bottom: "inception_4c/pool_proj"
  top: "inception_4c/output"
}
layer {
  name: "inception_4d/1x1"
  type: "Convolution"
  bottom: "inception_4c/output"
  top: "inception_4d/1x1"
  param {
    name: "inception_4d/1x1_w"
    lr_mult: 1
    decay_mult: 1
  }
  param {
    name: "inception_4d/1x1_b"
    lr_mult: 2
    decay_mult: 0
  }
  convolution_param {
    num_output: 112
    kernel_size: 1
    weight_filler {
      type: "xavier"
    }
    bias_filler {
      type: "constant"
      value: 0.2
    }
  }
}
layer {
  name: "inception_4d/relu_1x1"
  type: "ReLU"
  bottom: "inception_4d/1x1"
  top: "inception_4d/1x1"
}
layer {
  name: "inception_4d/3x3_reduce"
  type: "Convolution"
  bottom: "inception_4c/output"
  top: "inception_4d/3x3_reduce"
  param {
    name: "inception_4d/3x3_reduce_w"
    lr_mult: 1
    decay_mult: 1
  }
  param {
    name: "inception_4d/3x3_reduce_b"
    lr_mult: 2
    decay_mult: 0
  }
  convolution_param {
    num_output: 144
    kernel_size: 1
    weight_filler {
      type: "xavier"
    }
    bias_filler {
      type: "constant"
      value: 0.2
    }
  }
}
layer {
  name: "inception_4d/relu_3x3_reduce"
  type: "ReLU"
  bottom: "inception_4d/3x3_reduce"
  top: "inception_4d/3x3_reduce"
}
layer {
  name: "inception_4d/3x3"
  type: "Convolution"
  bottom: "inception_4d/3x3_reduce"
  top: "inception_4d/3x3"
  param {
    name: "inception_4d/3x3_w"
    lr_mult: 1
    decay_mult: 1
  }
  param {
    name: "inception_4d/3x3_b"
    lr_mult: 2
    decay_mult: 0
  }
  convolution_param {
    num_output: 288
    pad: 1
    kernel_size: 3
    weight_filler {
      type: "xavier"
    }
    bias_filler {
      type: "constant"
      value: 0.2
    }
  }
}
layer {
  name: "inception_4d/relu_3x3"
  type: "ReLU"
  bottom: "inception_4d/3x3"
  top: "inception_4d/3x3"
}
layer {
  name: "inception_4d/5x5_reduce"
  type: "Convolution"
  bottom: "inception_4c/output"
  top: "inception_4d/5x5_reduce"
  param {
    name: "inception_4d/5x5_reduce_w"
    lr_mult: 1
    decay_mult: 1
  }
  param {
    name: "inception_4d/5x5_reduce_b"
    lr_mult: 2
    decay_mult: 0
  }
  convolution_param {
    num_output: 32
    kernel_size: 1
    weight_filler {
      type: "xavier"
    }
    bias_filler {
      type: "constant"
      value: 0.2
    }
  }
}
layer {
  name: "inception_4d/relu_5x5_reduce"
  type: "ReLU"
  bottom: "inception_4d/5x5_reduce"
  top: "inception_4d/5x5_reduce"
}
layer {
  name: "inception_4d/5x5"
  type: "Convolution"
  bottom: "inception_4d/5x5_reduce"
  top: "inception_4d/5x5"
  param {
    name: "inception_4d/5x5_w"
    lr_mult: 1
    decay_mult: 1
  }
  param {
    name: "inception_4d/5x5_b"
    lr_mult: 2
    decay_mult: 0
  }
  convolution_param {
    num_output: 64
    pad: 2
    kernel_size: 5
    weight_filler {
      type: "xavier"
    }
    bias_filler {
      type: "constant"
      value: 0.2
    }
  }
}
layer {
  name: "inception_4d/relu_5x5"
  type: "ReLU"
  bottom: "inception_4d/5x5"
  top: "inception_4d/5x5"
}
layer {
  name: "inception_4d/pool"
  type: "Pooling"
  bottom: "inception_4c/output"
  top: "inception_4d/pool"
  pooling_param {
    pool: MAX
    kernel_size: 3
    stride: 1
    pad: 1
  }
}
layer {
  name: "inception_4d/pool_proj"
  type: "Convolution"
  bottom: "inception_4d/pool"
  top: "inception_4d/pool_proj"
  param {
    name: "inception_4d/pool_proj_w"
    lr_mult: 1
    decay_mult: 1
  }
  param {
    name: "inception_4d/pool_proj_b"
    lr_mult: 2
    decay_mult: 0
  }
  convolution_param {
    num_output: 64
    kernel_size: 1
    weight_filler {
      type: "xavier"
    }
    bias_filler {
      type: "constant"
      value: 0.2
    }
  }
}
layer {
  name: "inception_4d/relu_pool_proj"
  type: "ReLU"
  bottom: "inception_4d/pool_proj"
  top: "inception_4d/pool_proj"
}
layer {
  name: "inception_4d/output"
  type: "Concat"
  bottom: "inception_4d/1x1"
  bottom: "inception_4d/3x3"
  bottom: "inception_4d/5x5"
  bottom: "inception_4d/pool_proj"
  top: "inception_4d/output"
}
layer {
  name: "inception_4e/1x1"
  type: "Convolution"
  bottom: "inception_4d/output"
  top: "inception_4e/1x1"
  param {
    name: "inception_4e/1x1_w"
    lr_mult: 1
    decay_mult: 1
  }
  param {
    name: "inception_4e/1x1_b"
    lr_mult: 2
    decay_mult: 0
  }
  convolution_param {
    num_output: 256
    kernel_size: 1
    weight_filler {
      type: "xavier"
    }
    bias_filler {
      type: "constant"
      value: 0.2
    }
  }
}
layer {
  name: "inception_4e/relu_1x1"
  type: "ReLU"
  bottom: "inception_4e/1x1"
  top: "inception_4e/1x1"
}
layer {
  name: "inception_4e/3x3_reduce"
  type: "Convolution"
  bottom: "inception_4d/output"
  top: "inception_4e/3x3_reduce"
  param {
    name: "inception_4e/3x3_reduce_w"
    lr_mult: 1
    decay_mult: 1
  }
  param {
    name: "inception_4e/3x3_reduce_b"
    lr_mult: 2
    decay_mult: 0
  }
  convolution_param {
    num_output: 160
    kernel_size: 1
    weight_filler {
      type: "xavier"
    }
    bias_filler {
      type: "constant"
      value: 0.2
    }
  }
}
layer {
  name: "inception_4e/relu_3x3_reduce"
  type: "ReLU"
  bottom: "inception_4e/3x3_reduce"
  top: "inception_4e/3x3_reduce"
}
layer {
  name: "inception_4e/3x3"
  type: "Convolution"
  bottom: "inception_4e/3x3_reduce"
  top: "inception_4e/3x3"
  param {
    name: "inception_4e/3x3_w"
    lr_mult: 1
    decay_mult: 1
  }
  param {
    name: "inception_4e/3x3_b"
    lr_mult: 2
    decay_mult: 0
  }
  convolution_param {
    num_output: 320
    pad: 1
    kernel_size: 3
    weight_filler {
      type: "xavier"
    }
    bias_filler {
      type: "constant"
      value: 0.2
    }
  }
}
layer {
  name: "inception_4e/relu_3x3"
  type: "ReLU"
  bottom: "inception_4e/3x3"
  top: "inception_4e/3x3"
}
layer {
  name: "inception_4e/5x5_reduce"
  type: "Convolution"
  bottom: "inception_4d/output"
  top: "inception_4e/5x5_reduce"
  param {
    name: "inception_4e/5x5_reduce_w"
    lr_mult: 1
    decay_mult: 1
  }
  param {
    name: "inception_4e/5x5_reduce_b"
    lr_mult: 2
    decay_mult: 0
  }
  convolution_param {
    num_output: 32
    kernel_size: 1
    weight_filler {
      type: "xavier"
    }
    bias_filler {
      type: "constant"
      value: 0.2
    }
  }
}
layer {
  name: "inception_4e/relu_5x5_reduce"
  type: "ReLU"
  bottom: "inception_4e/5x5_reduce"
  top: "inception_4e/5x5_reduce"
}
layer {
  name: "inception_4e/5x5"
  type: "Convolution"
  bottom: "inception_4e/5x5_reduce"
  top: "inception_4e/5x5"
  param {
    name: "inception_4e/5x5_w"
    lr_mult: 1
    decay_mult: 1
  }
  param {
    name: "inception_4e/5x5_b"
    lr_mult: 2
    decay_mult: 0
  }
  convolution_param {
    num_output: 128
    pad: 2
    kernel_size: 5
    weight_filler {
      type: "xavier"
    }
    bias_filler {
      type: "constant"
      value: 0.2
    }
  }
}
layer {
  name: "inception_4e/relu_5x5"
  type: "ReLU"
  bottom: "inception_4e/5x5"
  top: "inception_4e/5x5"
}
layer {
  name: "inception_4e/pool"
  type: "Pooling"
  bottom: "inception_4d/output"
  top: "inception_4e/pool"
  pooling_param {
    pool: MAX
    kernel_size: 3
    stride: 1
    pad: 1
  }
}
layer {
  name: "inception_4e/pool_proj"
  type: "Convolution"
  bottom: "inception_4e/pool"
  top: "inception_4e/pool_proj"
  param {
    name: "inception_4e/pool_proj_w"
    lr_mult: 1
    decay_mult: 1
  }
  param {
    name: "inception_4e/pool_proj_b"
    lr_mult: 2
    decay_mult: 0
  }
  convolution_param {
    num_output: 128
    kernel_size: 1
    weight_filler {
      type: "xavier"
    }
    bias_filler {
      type: "constant"
      value: 0.2
    }
  }
}
layer {
  name: "inception_4e/relu_pool_proj"
  type: "ReLU"
  bottom: "inception_4e/pool_proj"
  top: "inception_4e/pool_proj"
}
layer {
  name: "inception_4e/output"
  type: "Concat"
  bottom: "inception_4e/1x1"
  b
I1127 22:54:48.589099 10202 layer_factory.hpp:77] Creating layer data
I1127 22:54:51.927062 10202 net.cpp:100] Creating Layer data
I1127 22:54:51.927139 10202 net.cpp:408] data -> data
I1127 22:54:51.927178 10202 net.cpp:408] data -> data_p
I1127 22:54:51.927201 10202 net.cpp:408] data -> label
I1127 22:54:51.927219 10202 net.cpp:408] data -> clip_markers
data list is loading
…
:dataset/Prid2011/split/img_seq/MultiShot_set01_train.txt
list example:
{'frames': ['dataset/Prid2011/multi_shot/cam_a/person_0123/0014.png', 'dataset/Prid2011/multi_shot/cam_a/person_0123/0015.png', 'dataset/Prid2011/multi_shot/cam_a/person_0123/0016.png'], 'reshape': (160, 80), 'frames_p': ['dataset/Prid2011/multi_shot/cam_a/person_0123/0016.png', 'dataset/Prid2011/multi_shot/cam_a/person_0123/0017.png', 'dataset/Prid2011/multi_shot/cam_a/person_0123/0018.png'], 'crop': (160, 80), 'label': [1]}
I1127 22:55:24.304049 10202 net.cpp:150] Setting up data
I1127 22:55:24.313940 10202 net.cpp:157] Top shape: 36 3 160 80 (1382400)
I1127 22:55:24.313989 10202 net.cpp:157] Top shape: 36 3 160 80 (1382400)
I1127 22:55:24.314005 10202 net.cpp:157] Top shape: 36 (36)
I1127 22:55:24.314019 10202 net.cpp:157] Top shape: 36 (36)
I1127 22:55:24.314030 10202 net.cpp:165] Memory required for data: 11059488
I1127 22:55:24.314057 10202 layer_factory.hpp:77] Creating layer conv1/7x7_s2
I1127 22:55:24.314117 10202 net.cpp:100] Creating Layer conv1/7x7_s2
I1127 22:55:24.314136 10202 net.cpp:434] conv1/7x7_s2 <- data
I1127 22:55:24.314182 10202 net.cpp:408] conv1/7x7_s2 -> conv1/7x7_s2
I1127 22:55:24.881552 10202 net.cpp:150] Setting up conv1/7x7_s2
I1127 22:55:24.881636 10202 net.cpp:157] Top shape: 36 64 80 40 (7372800)
I1127 22:55:24.881660 10202 net.cpp:165] Memory required for data: 40550688
I1127 22:55:24.881705 10202 layer_factory.hpp:77] Creating layer conv1/relu_7x7
I1127 22:55:24.881731 10202 net.cpp:100] Creating Layer conv1/relu_7x7
I1127 22:55:24.881743 10202 net.cpp:434] conv1/relu_7x7 <- conv1/7x7_s2
I1127 22:55:24.881767 10202 net.cpp:395] conv1/relu_7x7 -> conv1/7x7_s2 (in-place)
I1127 22:55:24.882192 10202 net.cpp:150] Setting up conv1/relu_7x7
I1127 22:55:24.882215 10202 net.cpp:157] Top shape: 36 64 80 40 (7372800)
I1127 22:55:24.882225 10202 net.cpp:165] Memory required for data: 70041888
I1127 22:55:24.882232 10202 layer_factory.hpp:77] Creating layer pool1/3x3_s2
I1127 22:55:24.882261 10202 net.cpp:100] Creating Layer pool1/3x3_s2
I1127 22:55:24.882268 10202 net.cpp:434] pool1/3x3_s2 <- conv1/7x7_s2
I1127 22:55:24.882285 10202 net.cpp:408] pool1/3x3_s2 -> pool1/3x3_s2
I1127 22:55:24.882375 10202 net.cpp:150] Setting up pool1/3x3_s2
I1127 22:55:24.882407 10202 net.cpp:157] Top shape: 36 64 40 20 (1843200)
I1127 22:55:24.882436 10202 net.cpp:165] Memory required for data: 77414688
I1127 22:55:24.882453 10202 layer_factory.hpp:77] Creating layer pool1/norm1
I1127 22:55:24.882472 10202 net.cpp:100] Creating Layer pool1/norm1
I1127 22:55:24.882489 10202 net.cpp:434] pool1/norm1 <- pool1/3x3_s2
I1127 22:55:24.882503 10202 net.cpp:408] pool1/norm1 -> pool1/norm1
I1127 22:55:24.882725 10202 net.cpp:150] Setting up pool1/norm1
I1127 22:55:24.882743 10202 net.cpp:157] Top shape: 36 64 40 20 (1843200)
I1127 22:55:24.882751 10202 net.cpp:165] Memory required for data: 84787488
I1127 22:55:24.882760 10202 layer_factory.hpp:77] Creating layer conv2/3x3_reduce
I1127 22:55:24.882786 10202 net.cpp:100] Creating Layer conv2/3x3_reduce
I1127 22:55:24.882804 10202 net.cpp:434] conv2/3x3_reduce <- pool1/norm1
I1127 22:55:24.882822 10202 net.cpp:408] conv2/3x3_reduce -> conv2/3x3_reduce
I1127 22:55:24.884511 10202 net.cpp:150] Setting up conv2/3x3_reduce
I1127 22:55:24.884562 10202 net.cpp:157] Top shape: 36 64 40 20 (1843200)
I1127 22:55:24.884582 10202 net.cpp:165] Memory required for data: 92160288
I1127 22:55:24.884606 10202 layer_factory.hpp:77] Creating layer conv2/relu_3x3_reduce
I1127 22:55:24.884626 10202 net.cpp:100] Creating Layer conv2/relu_3x3_reduce
I1127 22:55:24.884657 10202 net.cpp:434] conv2/relu_3x3_reduce <- conv2/3x3_reduce
I1127 22:55:24.884691 10202 net.cpp:395] conv2/relu_3x3_reduce -> conv2/3x3_reduce (in-place)
I1127 22:55:24.885035 10202 net.cpp:150] Setting up conv2/relu_3x3_reduce
I1127 22:55:24.885072 10202 net.cpp:157] Top shape: 36 64 40 20 (1843200)
I1127 22:55:24.885084 10202 net.cpp:165] Memory required for data: 99533088
I1127 22:55:24.885094 10202 layer_factory.hpp:77] Creating layer conv2/3x3
I1127 22:55:24.885120 10202 net.cpp:100] Creating Layer conv2/3x3
I1127 22:55:24.885129 10202 net.cpp:434] conv2/3x3 <- conv2/3x3_reduce
I1127 22:55:24.885146 10202 net.cpp:408] conv2/3x3 -> conv2/3x3
I1127 22:55:24.887912 10202 net.cpp:150] Setting up conv2/3x3
I1127 22:55:24.887964 10202 net.cpp:157] Top shape: 36 192 40 20 (5529600)
I1127 22:55:24.887974 10202 net.cpp:165] Memory required for data: 121651488
I1127 22:55:24.888000 10202 layer_factory.hpp:77] Creating layer conv2/relu_3x3
I1127 22:55:24.888031 10202 net.cpp:100] Creating Layer conv2/relu_3x3
I1127 22:55:24.888059 10202 net.cpp:434] conv2/relu_3x3 <- conv2/3x3
I1127 22:55:24.888103 10202 net.cpp:395] conv2/relu_3x3 -> conv2/3x3 (in-place)
I1127 22:55:24.888502 10202 net.cpp:150] Setting up conv2/relu_3x3
I1127 22:55:24.888540 10202 net.cpp:157] Top shape: 36 192 40 20 (5529600)
I1127 22:55:24.888567 10202 net.cpp:165] Memory required for data: 143769888
I1127 22:55:24.888591 10202 layer_factory.hpp:77] Creating layer pool2/3x3_s2
I1127 22:55:24.888610 10202 net.cpp:100] Creating Layer pool2/3x3_s2
I1127 22:55:24.888622 10202 net.cpp:434] pool2/3x3_s2 <- conv2/3x3
I1127 22:55:24.888638 10202 net.cpp:408] pool2/3x3_s2 -> pool2/3x3_s2
I1127 22:55:24.888705 10202 net.cpp:150] Setting up pool2/3x3_s2
I1127 22:55:24.888725 10202 net.cpp:157] Top shape: 36 192 20 10 (1382400)
I1127 22:55:24.888734 10202 net.cpp:165] Memory required for data: 149299488
I1127 22:55:24.888743 10202 layer_factory.hpp:77] Creating layer pool2/3x3_s2_pool2/3x3_s2_0_split
I1127 22:55:24.888773 10202 net.cpp:100] Creating Layer pool2/3x3_s2_pool2/3x3_s2_0_split
I1127 22:55:24.888782 10202 net.cpp:434] pool2/3x3_s2_pool2/3x3_s2_0_split <- pool2/3x3_s2
I1127 22:55:24.888802 10202 net.cpp:408] pool2/3x3_s2_pool2/3x3_s2_0_split -> pool2/3x3_s2_pool2/3x3_s2_0_split_0
I1127 22:55:24.888825 10202 net.cpp:408] pool2/3x3_s2_pool2/3x3_s2_0_split -> pool2/3x3_s2_pool2/3x3_s2_0_split_1
I1127 22:55:24.888846 10202 net.cpp:408] pool2/3x3_s2_pool2/3x3_s2_0_split -> pool2/3x3_s2_pool2/3x3_s2_0_split_2
I1127 22:55:24.888865 10202 net.cpp:408] pool2/3x3_s2_pool2/3x3_s2_0_split -> pool2/3x3_s2_pool2/3x3_s2_0_split_3
I1127 22:55:24.888963 10202 net.cpp:150] Setting up pool2/3x3_s2_pool2/3x3_s2_0_split
I1127 22:55:24.888990 10202 net.cpp:157] Top shape: 36 192 20 10 (1382400)
I1127 22:55:24.889001 10202 net.cpp:157] Top shape: 36 192 20 10 (1382400)
I1127 22:55:24.889010 10202 net.cpp:157] Top shape: 36 192 20 10 (1382400)
I1127 22:55:24.889020 10202 net.cpp:157] Top shape: 36 192 20 10 (1382400)
I1127 22:55:24.889037 10202 net.cpp:165] Memory required for data: 171417888
I1127 22:55:24.889048 10202 layer_factory.hpp:77] Creating layer inception_3a/1x1
I1127 22:55:24.889068 10202 net.cpp:100] Creating Layer inception_3a/1x1
I1127 22:55:24.889078 10202 net.cpp:434] inception_3a/1x1 <- pool2/3x3_s2_pool2/3x3_s2_0_split_0
I1127 22:55:24.889099 10202 net.cpp:408] inception_3a/1x1 -> inception_3a/1x1
I1127 22:55:24.890661 10202 net.cpp:150] Setting up inception_3a/1x1
I1127 22:55:24.890697 10202 net.cpp:157] Top shape: 36 64 20 10 (460800)
I1127 22:55:24.890714 10202 net.cpp:165] Memory required for data: 173261088
I1127 22:55:24.890735 10202 layer_factory.hpp:77] Creating layer inception_3a/relu_1x1
I1127 22:55:24.890761 10202 net.cpp:100] Creating Layer inception_3a/relu_1x1
I1127 22:55:24.890780 10202 net.cpp:434] inception_3a/relu_1x1 <- inception_3a/1x1
I1127 22:55:24.890815 10202 net.cpp:395] inception_3a/relu_1x1 -> inception_3a/1x1 (in-place)
I1127 22:55:24.891024 10202 net.cpp:150] Setting up inception_3a/relu_1x1
I1127 22:55:24.891073 10202 net.cpp:157] Top shape: 36 64 20 10 (460800)
I1127 22:55:24.891099 10202 net.cpp:165] Memory required for data: 175104288
I1127 22:55:24.891119 10202 layer_factory.hpp:77] Creating layer inception_3a/3x3_reduce
I1127 22:55:24.891151 10202 net.cpp:100] Creating Layer inception_3a/3x3_reduce
I1127 22:55:24.891173 10202 net.cpp:434] inception_3a/3x3_reduce <- pool2/3x3_s2_pool2/3x3_s2_0_split_1
I1127 22:55:24.891198 10202 net.cpp:408] inception_3a/3x3_reduce -> inception_3a/3x3_reduce
I1127 22:55:24.905908 10202 net.cpp:150] Setting up inception_3a/3x3_reduce
I1127 22:55:24.905968 10202 net.cpp:157] Top shape: 36 96 20 10 (691200)
I1127 22:55:24.905988 10202 net.cpp:165] Memory required for data: 177869088
I1127 22:55:24.906024 10202 layer_factory.hpp:77] Creating layer inception_3a/relu_3x3_reduce
I1127 22:55:24.906062 10202 net.cpp:100] Creating Layer inception_3a/relu_3x3_reduce
I1127 22:55:24.906076 10202 net.cpp:434] inception_3a/relu_3x3_reduce <- inception_3a/3x3_reduce
I1127 22:55:24.906095 10202 net.cpp:395] inception_3a/relu_3x3_reduce -> inception_3a/3x3_reduce (in-place)
I1127 22:55:24.906630 10202 net.cpp:150] Setting up inception_3a/relu_3x3_reduce
I1127 22:55:24.906668 10202 net.cpp:157] Top shape: 36 96 20 10 (691200)
I1127 22:55:24.906687 10202 net.cpp:165] Memory required for data: 180633888
I1127 22:55:24.906704 10202 layer_factory.hpp:77] Creating layer inception_3a/3x3
I1127 22:55:24.906733 10202 net.cpp:100] Creating Layer inception_3a/3x3
I1127 22:55:24.906754 10202 net.cpp:434] inception_3a/3x3 <- inception_3a/3x3_reduce
I1127 22:55:24.906777 10202 net.cpp:408] inception_3a/3x3 -> inception_3a/3x3
I1127 22:55:24.909142 10202 net.cpp:150] Setting up inception_3a/3x3
I1127 22:55:24.909193 10202 net.cpp:157] Top shape: 36 128 20 10 (921600)
I1127 22:55:24.909219 10202 net.cpp:165] Memory required for data: 184320288
I1127 22:55:24.909247 10202 layer_factory.hpp:77] Creating layer inception_3a/relu_3x3
I1127 22:55:24.909273 10202 net.cpp:100] Creating Layer inception_3a/relu_3x3
I1127 22:55:24.909293 10202 net.cpp:434] inception_3a/relu_3x3 <- inception_3a/3x3
I1127 22:55:24.909312 10202 net.cpp:395] inception_3a/relu_3x3 -> inception_3a/3x3 (in-place)
I1127 22:55:24.909685 10202 net.cpp:150] Setting up inception_3a/relu_3x3
I1127 22:55:24.909716 10202 net.cpp:157] Top shape: 36 128 20 10 (921600)
I1127 22:55:24.909726 10202 net.cpp:165] Memory required for data: 188006688
I1127 22:55:24.909735 10202 layer_factory.hpp:77] Creating layer inception_3a/5x5_reduce
I1127 22:55:24.909759 10202 net.cpp:100] Creating Layer inception_3a/5x5_reduce
I1127 22:55:24.909772 10202 net.cpp:434] inception_3a/5x5_reduce <- pool2/3x3_s2_pool2/3x3_s2_0_split_2
I1127 22:55:24.909795 10202 net.cpp:408] inception_3a/5x5_reduce -> inception_3a/5x5_reduce
I1127 22:55:24.911227 10202 net.cpp:150] Setting up inception_3a/5x5_reduce
I1127 22:55:24.911257 10202 net.cpp:157] Top shape: 36 16 20 10 (115200)
I1127 22:55:24.911267 10202 net.cpp:165] Memory required for data: 188467488
I1127 22:55:24.911284 10202 layer_factory.hpp:77] Creating layer inception_3a/relu_5x5_reduce
I1127 22:55:24.911303 10202 net.cpp:100] Creating Layer inception_3a/relu_5x5_reduce
I1127 22:55:24.911315 10202 net.cpp:434] inception_3a/relu_5x5_reduce <- inception_3a/5x5_reduce
I1127 22:55:24.911330 10202 net.cpp:395] inception_3a/relu_5x5_reduce -> inception_3a/5x5_reduce (in-place)
I1127 22:55:24.911831 10202 net.cpp:150] Setting up inception_3a/relu_5x5_reduce
I1127 22:55:24.911859 10202 net.cpp:157] Top shape: 36 16 20 10 (115200)
I1127 22:55:24.911870 10202 net.cpp:165] Memory required for data: 188928288
I1127 22:55:24.911885 10202 layer_factory.hpp:77] Creating layer inception_3a/5x5
I1127 22:55:24.911906 10202 net.cpp:100] Creating Layer inception_3a/5x5
I1127 22:55:24.911916 10202 net.cpp:434] inception_3a/5x5 <- inception_3a/5x5_reduce
I1127 22:55:24.911934 10202 net.cpp:408] inception_3a/5x5 -> inception_3a/5x5
I1127 22:55:24.913383 10202 net.cpp:150] Setting up inception_3a/5x5
I1127 22:55:24.913416 10202 net.cpp:157] Top shape: 36 32 20 10 (230400)
I1127 22:55:24.913457 10202 net.cpp:165] Memory required for data: 189849888
I1127 22:55:24.913482 10202 layer_factory.hpp:77] Creating layer inception_3a/relu_5x5
I1127 22:55:24.913503 10202 net.cpp:100] Creating Layer inception_3a/relu_5x5
I1127 22:55:24.913511 10202 net.cpp:434] inception_3a/relu_5x5 <- inception_3a/5x5
I1127 22:55:24.913523 10202 net.cpp:395] inception_3a/relu_5x5 -> inception_3a/5x5 (in-place)
I1127 22:55:24.913935 10202 net.cpp:150] Setting up inception_3a/relu_5x5
I1127 22:55:24.913975 10202 net.cpp:157] Top shape: 36 32 20 10 (230400)
I1127 22:55:24.913995 10202 net.cpp:165] Memory required for data: 190771488
I1127 22:55:24.914005 10202 layer_factory.hpp:77] Creating layer inception_3a/pool
I1127 22:55:24.914026 10202 net.cpp:100] Creating Layer inception_3a/pool
I1127 22:55:24.914037 10202 net.cpp:434] inception_3a/pool <- pool2/3x3_s2_pool2/3x3_s2_0_split_3
I1127 22:55:24.914052 10202 net.cpp:408] inception_3a/pool -> inception_3a/pool
I1127 22:55:24.914129 10202 net.cpp:150] Setting up inception_3a/pool
I1127 22:55:24.914160 10202 net.cpp:157] Top shape: 36 192 20 10 (1382400)
I1127 22:55:24.914170 10202 net.cpp:165] Memory required for data: 196301088
I1127 22:55:24.914180 10202 layer_factory.hpp:77] Creating layer inception_3a/pool_proj
I1127 22:55:24.914206 10202 net.cpp:100] Creating Layer inception_3a/pool_proj
I1127 22:55:24.914224 10202 net.cpp:434] inception_3a/pool_proj <- inception_3a/pool
I1127 22:55:24.914247 10202 net.cpp:408] inception_3a/pool_proj -> inception_3a/pool_proj
I1127 22:55:24.915796 10202 net.cpp:150] Setting up inception_3a/pool_proj
I1127 22:55:24.915933 10202 net.cpp:157] Top shape: 36 32 20 10 (230400)
I1127 22:55:24.915942 10202 net.cpp:165] Memory required for data: 197222688
I1127 22:55:24.915967 10202 layer_factory.hpp:77] Creating layer inception_3a/relu_pool_proj
I1127 22:55:24.915988 10202 net.cpp:100] Creating Layer inception_3a/relu_pool_proj
I1127 22:55:24.916000 10202 net.cpp:434] inception_3a/relu_pool_proj <- inception_3a/pool_proj
I1127 22:55:24.916012 10202 net.cpp:395] inception_3a/relu_pool_proj -> inception_3a/pool_proj (in-place)
I1127 22:55:24.916630 10202 net.cpp:150] Setting up inception_3a/relu_pool_proj
I1127 22:55:24.916649 10202 net.cpp:157] Top shape: 36 32 20 10 (230400)
I1127 22:55:24.916657 10202 net.cpp:165] Memory required for data: 198144288
I1127 22:55:24.916668 10202 layer_factory.hpp:77] Creating layer inception_3a/output
I1127 22:55:24.916689 10202 net.cpp:100] Creating Layer inception_3a/output
I1127 22:55:24.916699 10202 net.cpp:434] inception_3a/output <- inception_3a/1x1
I1127 22:55:24.916710 10202 net.cpp:434] inception_3a/output <- inception_3a/3x3
I1127 22:55:24.916721 10202 net.cpp:434] inception_3a/output <- inception_3a/5x5
I1127 22:55:24.916730 10202 net.cpp:434] inception_3a/output <- inception_3a/pool_proj
I1127 22:55:24.916744 10202 net.cpp:408] inception_3a/output -> inception_3a/output
I1127 22:55:24.916800 10202 net.cpp:150] Setting up inception_3a/output
I1127 22:55:24.916822 10202 net.cpp:157] Top shape: 36 256 20 10 (1843200)
I1127 22:55:24.916831 10202 net.cpp:165] Memory required for data: 205517088
I1127 22:55:24.916841 10202 layer_factory.hpp:77] Creating layer inception_3a/output_inception_3a/output_0_split
I1127 22:55:24.916972 10202 net.cpp:100] Creating Layer inception_3a/output_inception_3a/output_0_split
I1127 22:55:24.916986 10202 net.cpp:434] inception_3a/output_inception_3a/output_0_split <- inception_3a/output
I1127 22:55:24.916996 10202 net.cpp:408] inception_3a/output_inception_3a/output_0_split -> inception_3a/output_inception_3a/output_0_split_0
I1127 22:55:24.917007 10202 net.cpp:408] inception_3a/output_inception_3a/output_0_split -> inception_3a/output_inception_3a/output_0_split_1
I1127 22:55:24.917018 10202 net.cpp:408] inception_3a/output_inception_3a/output_0_split -> inception_3a/output_inception_3a/output_0_split_2
I1127 22:55:24.917033 10202 net.cpp:408] inception_3a/output_inception_3a/output_0_split -> inception_3a/output_inception_3a/output_0_split_3
I1127 22:55:24.917145 10202 net.cpp:150] Setting up inception_3a/output_inception_3a/output_0_split
I1127 22:55:24.917163 10202 net.cpp:157] Top shape: 36 256 20 10 (1843200)
I1127 22:55:24.917176 10202 net.cpp:157] Top shape: 36 256 20 10 (1843200)
I1127 22:55:24.917186 10202 net.cpp:157] Top shape: 36 256 20 10 (1843200)
I1127 22:55:24.917196 10202 net.cpp:157] Top shape: 36 256 20 10 (1843200)
I1127 22:55:24.917325 10202 net.cpp:165] Memory required for data: 235008288
I1127 22:55:24.917336 10202 layer_factory.hpp:77] Creating layer inception_3b/1x1
I1127 22:55:24.917356 10202 net.cpp:100] Creating Layer inception_3b/1x1
I1127 22:55:24.917366 10202 net.cpp:434] inception_3b/1x1 <- inception_3a/output_inception_3a/output_0_split_0
I1127 22:55:24.917379 10202 net.cpp:408] inception_3b/1x1 -> inception_3b/1x1
I1127 22:55:24.919342 10202 net.cpp:150] Setting up inception_3b/1x1
I1127 22:55:24.919384 10202 net.cpp:157] Top shape: 36 128 20 10 (921600)
I1127 22:55:24.919406 10202 net.cpp:165] Memory required for data: 238694688
I1127 22:55:24.919435 10202 layer_factory.hpp:77] Creating layer inception_3b/relu_1x1
I1127 22:55:24.919481 10202 net.cpp:100] Creating Layer inception_3b/relu_1x1
I1127 22:55:24.919509 10202 net.cpp:434] inception_3b/relu_1x1 <- inception_3b/1x1
I1127 22:55:24.919543 10202 net.cpp:395] inception_3b/relu_1x1 -> inception_3b/1x1 (in-place)
I1127 22:55:24.919740 10202 net.cpp:150] Setting up inception_3b/relu_1x1
I1127 22:55:24.919769 10202 net.cpp:157] Top shape: 36 128 20 10 (921600)
I1127 22:55:24.919786 10202 net.cpp:165] Memory required for data: 242381088
I1127 22:55:24.919805 10202 layer_factory.hpp:77] Creating layer inception_3b/3x3_reduce
I1127 22:55:24.919837 10202 net.cpp:100] Creating Layer inception_3b/3x3_reduce
I1127 22:55:24.919857 10202 net.cpp:434] inception_3b/3x3_reduce <- inception_3a/output_inception_3a/output_0_split_1
I1127 22:55:24.919878 10202 net.cpp:408] inception_3b/3x3_reduce -> inception_3b/3x3_reduce
I1127 22:55:24.921396 10202 net.cpp:150] Setting up inception_3b/3x3_reduce
I1127 22:55:24.921440 10202 net.cpp:157] Top shape: 36 128 20 10 (921600)
I1127 22:55:24.921452 10202 net.cpp:165] Memory required for data: 246067488
I1127 22:55:24.921474 10202 layer_factory.hpp:77] Creating layer inception_3b/relu_3x3_reduce
I1127 22:55:24.921489 10202 net.cpp:100] Creating Layer inception_3b/relu_3x3_reduce
I1127 22:55:24.921499 10202 net.cpp:434] inception_3b/relu_3x3_reduce <- inception_3b/3x3_reduce
I1127 22:55:24.921519 10202 net.cpp:395] inception_3b/relu_3x3_reduce -> inception_3b/3x3_reduce (in-place)
I1127 22:55:24.926075 10202 net.cpp:150] Setting up inception_3b/relu_3x3_reduce
I1127 22:55:24.926133 10202 net.cpp:157] Top shape: 36 128 20 10 (921600)
I1127 22:55:24.926147 10202 net.cpp:165] Memory required for data: 249753888
I1127 22:55:24.926167 10202 layer_factory.hpp:77] Creating layer inception_3b/3x3
I1127 22:55:24.926204 10202 net.cpp:100] Creating Layer inception_3b/3x3
I1127 22:55:24.926223 10202 net.cpp:434] inception_3b/3x3 <- inception_3b/3x3_reduce
I1127 22:55:24.926247 10202 net.cpp:408] inception_3b/3x3 -> inception_3b/3x3
I1127 22:55:24.929944 10202 net.cpp:150] Setting up inception_3b/3x3
I1127 22:55:24.930008 10202 net.cpp:157] Top shape: 36 192 20 10 (1382400)
I1127 22:55:24.930021 10202 net.cpp:165] Memory required for data: 255283488
I1127 22:55:24.930048 10202 layer_factory.hpp:77] Creating layer inception_3b/relu_3x3
I1127 22:55:24.930078 10202 net.cpp:100] Creating Layer inception_3b/relu_3x3
I1127 22:55:24.930100 10202 net.cpp:434] inception_3b/relu_3x3 <- inception_3b/3x3
I1127 22:55:24.930126 10202 net.cpp:395] inception_3b/relu_3x3 -> inception_3b/3x3 (in-place)
I1127 22:55:24.930501 10202 net.cpp:150] Setting up inception_3b/relu_3x3
I1127 22:55:24.930524 10202 net.cpp:157] Top shape: 36 192 20 10 (1382400)
I1127 22:55:24.930542 10202 net.cpp:165] Memory required for data: 260813088
I1127 22:55:24.930552 10202 layer_factory.hpp:77] Creating layer inception_3b/5x5_reduce
I1127 22:55:24.930586 10202 net.cpp:100] Creating Layer inception_3b/5x5_reduce
I1127 22:55:24.930608 10202 net.cpp:434] inception_3b/5x5_reduce <- inception_3a/output_inception_3a/output_0_split_2
I1127 22:55:24.930629 10202 net.cpp:408] inception_3b/5x5_reduce -> inception_3b/5x5_reduce
I1127 22:55:24.932055 10202 net.cpp:150] Setting up inception_3b/5x5_reduce
I1127 22:55:24.932118 10202 net.cpp:157] Top shape: 36 32 20 10 (230400)
I1127 22:55:24.932147 10202 net.cpp:165] Memory required for data: 261734688
I1127 22:55:24.932174 10202 layer_factory.hpp:77] Creating layer inception_3b/relu_5x5_reduce
I1127 22:55:24.932210 10202 net.cpp:100] Creating Layer inception_3b/relu_5x5_reduce
I1127 22:55:24.932227 10202 net.cpp:434] inception_3b/relu_5x5_reduce <- inception_3b/5x5_reduce
I1127 22:55:24.932246 10202 net.cpp:395] inception_3b/relu_5x5_reduce -> inception_3b/5x5_reduce (in-place)
I1127 22:55:24.932489 10202 net.cpp:150] Setting up inception_3b/relu_5x5_reduce
I1127 22:55:24.932523 10202 net.cpp:157] Top shape: 36 32 20 10 (230400)
I1127 22:55:24.932543 10202 net.cpp:165] Memory required for data: 262656288
I1127 22:55:24.932564 10202 layer_factory.hpp:77] Creating layer inception_3b/5x5
I1127 22:55:24.932608 10202 net.cpp:100] Creating Layer inception_3b/5x5
I1127 22:55:24.932628 10202 net.cpp:434] inception_3b/5x5 <- inception_3b/5x5_reduce
I1127 22:55:24.932664 10202 net.cpp:408] inception_3b/5x5 -> inception_3b/5x5
I1127 22:55:24.935127 10202 net.cpp:150] Setting up inception_3b/5x5
I1127 22:55:24.935187 10202 net.cpp:157] Top shape: 36 96 20 10 (691200)
I1127 22:55:24.935196 10202 net.cpp:165] Memory required for data: 265421088
I1127 22:55:24.935225 10202 layer_factory.hpp:77] Creating layer inception_3b/relu_5x5
I1127 22:55:24.935256 10202 net.cpp:100] Creating Layer inception_3b/relu_5x5
I1127 22:55:24.935268 10202 net.cpp:434] inception_3b/relu_5x5 <- inception_3b/5x5
I1127 22:55:24.935293 10202 net.cpp:395] inception_3b/relu_5x5 -> inception_3b/5x5 (in-place)
I1127 22:55:24.935654 10202 net.cpp:150] Setting up inception_3b/relu_5x5
I1127 22:55:24.935694 10202 net.cpp:157] Top shape: 36 96 20 10 (691200)
I1127 22:55:24.935721 10202 net.cpp:165] Memory required for data: 268185888
I1127 22:55:24.935739 10202 layer_factory.hpp:77] Creating layer inception_3b/pool
I1127 22:55:24.935763 10202 net.cpp:100] Creating Layer inception_3b/pool
I1127 22:55:24.935781 10202 net.cpp:434] inception_3b/pool <- inception_3a/output_inception_3a/output_0_split_3
I1127 22:55:24.935801 10202 net.cpp:408] inception_3b/pool -> inception_3b/pool
I1127 22:55:24.935876 10202 net.cpp:150] Setting up inception_3b/pool
I1127 22:55:24.935897 10202 net.cpp:157] Top shape: 36 256 20 10 (1843200)
I1127 22:55:24.935905 10202 net.cpp:165] Memory required for data: 275558688
I1127 22:55:24.935923 10202 layer_factory.hpp:77] Creating layer inception_3b/pool_proj
I1127 22:55:24.935952 10202 net.cpp:100] Creating Layer inception_3b/pool_proj
I1127 22:55:24.935969 10202 net.cpp:434] inception_3b/pool_proj <- inception_3b/pool
I1127 22:55:24.935981 10202 net.cpp:408] inception_3b/pool_proj -> inception_3b/pool_proj
I1127 22:55:24.937352 10202 net.cpp:150] Setting up inception_3b/pool_proj
I1127 22:55:24.937404 10202 net.cpp:157] Top shape: 36 64 20 10 (460800)
I1127 22:55:24.937434 10202 net.cpp:165] Memory required for data: 277401888
I1127 22:55:24.937463 10202 layer_factory.hpp:77] Creating layer inception_3b/relu_pool_proj
I1127 22:55:24.937500 10202 net.cpp:100] Creating Layer inception_3b/relu_pool_proj
I1127 22:55:24.937521 10202 net.cpp:434] inception_3b/relu_pool_proj <- inception_3b/pool_proj
I1127 22:55:24.937548 10202 net.cpp:395] inception_3b/relu_pool_proj -> inception_3b/pool_proj (in-place)
I1127 22:55:24.938156 10202 net.cpp:150] Setting up inception_3b/relu_pool_proj
I1127 22:55:24.938197 10202 net.cpp:157] Top shape: 36 64 20 10 (460800)
I1127 22:55:24.938223 10202 net.cpp:165] Memory required for data: 279245088
I1127 22:55:24.938241 10202 layer_factory.hpp:77] Creating layer inception_3b/output
I1127 22:55:24.938264 10202 net.cpp:100] Creating Layer inception_3b/output
I1127 22:55:24.938292 10202 net.cpp:434] inception_3b/output <- inception_3b/1x1
I1127 22:55:24.938311 10202 net.cpp:434] inception_3b/output <- inception_3b/3x3
I1127 22:55:24.938330 10202 net.cpp:434] inception_3b/output <- inception_3b/5x5
I1127 22:55:24.938351 10202 net.cpp:434] inception_3b/output <- inception_3b/pool_proj
I1127 22:55:24.938370 10202 net.cpp:408] inception_3b/output -> inception_3b/output
I1127 22:55:24.938434 10202 net.cpp:150] Setting up inception_3b/output
I1127 22:55:24.938468 10202 net.cpp:157] Top shape: 36 480 20 10 (3456000)
I1127 22:55:24.938488 10202 net.cpp:165] Memory required for data: 293069088
I1127 22:55:24.938506 10202 layer_factory.hpp:77] Creating layer pool3/3x3_s2
I1127 22:55:24.938530 10202 net.cpp:100] Creating Layer pool3/3x3_s2
I1127 22:55:24.938549 10202 net.cpp:434] pool3/3x3_s2 <- inception_3b/output
I1127 22:55:24.938570 10202 net.cpp:408] pool3/3x3_s2 -> pool3/3x3_s2
I1127 22:55:24.938628 10202 net.cpp:150] Setting up pool3/3x3_s2
I1127 22:55:24.938649 10202 net.cpp:157] Top shape: 36 480 10 5 (864000)
I1127 22:55:24.938657 10202 net.cpp:165] Memory required for data: 296525088
I1127 22:55:24.938704 10202 layer_factory.hpp:77] Creating layer pool3/3x3_s2_pool3/3x3_s2_0_split
I1127 22:55:24.938736 10202 net.cpp:100] Creating Layer pool3/3x3_s2_pool3/3x3_s2_0_split
I1127 22:55:24.938745 10202 net.cpp:434] pool3/3x3_s2_pool3/3x3_s2_0_split <- pool3/3x3_s2
I1127 22:55:24.938765 10202 net.cpp:408] pool3/3x3_s2_pool3/3x3_s2_0_split -> pool3/3x3_s2_pool3/3x3_s2_0_split_0
I1127 22:55:24.938789 10202 net.cpp:408] pool3/3x3_s2_pool3/3x3_s2_0_split -> pool3/3x3_s2_pool3/3x3_s2_0_split_1
I1127 22:55:24.938810 10202 net.cpp:408] pool3/3x3_s2_pool3/3x3_s2_0_split -> pool3/3x3_s2_pool3/3x3_s2_0_split_2
I1127 22:55:24.938830 10202 net.cpp:408] pool3/3x3_s2_pool3/3x3_s2_0_split -> pool3/3x3_s2_pool3/3x3_s2_0_split_3
I1127 22:55:24.938932 10202 net.cpp:150] Setting up pool3/3x3_s2_pool3/3x3_s2_0_split
I1127 22:55:24.938963 10202 net.cpp:157] Top shape: 36 480 10 5 (864000)
I1127 22:55:24.938971 10202 net.cpp:157] Top shape: 36 480 10 5 (864000)
I1127 22:55:24.938987 10202 net.cpp:157] Top shape: 36 480 10 5 (864000)
I1127 22:55:24.939012 10202 net.cpp:157] Top shape: 36 480 10 5 (864000)
I1127 22:55:24.939029 10202 net.cpp:165] Memory required for data: 310349088
I1127 22:55:24.939050 10202 layer_factory.hpp:77] Creating layer inception_4a/1x1
I1127 22:55:24.939091 10202 net.cpp:100] Creating Layer inception_4a/1x1
I1127 22:55:24.939111 10202 net.cpp:434] inception_4a/1x1 <- pool3/3x3_s2_pool3/3x3_s2_0_split_0
I1127 22:55:24.939136 10202 net.cpp:408] inception_4a/1x1 -> inception_4a/1x1
I1127 22:55:24.941474 10202 net.cpp:150] Setting up inception_4a/1x1
I1127 22:55:24.941536 10202 net.cpp:157] Top shape: 36 192 10 5 (345600)
I1127 22:55:24.941550 10202 net.cpp:165] Memory required for data: 311731488
I1127 22:55:24.941573 10202 layer_factory.hpp:77] Creating layer inception_4a/relu_1x1
I1127 22:55:24.941592 10202 net.cpp:100] Creating Layer inception_4a/relu_1x1
I1127 22:55:24.941615 10202 net.cpp:434] inception_4a/relu_1x1 <- inception_4a/1x1
I1127 22:55:24.941639 10202 net.cpp:395] inception_4a/relu_1x1 -> inception_4a/1x1 (in-place)
I1127 22:55:24.941922 10202 net.cpp:150] Setting up inception_4a/relu_1x1
I1127 22:55:24.941944 10202 net.cpp:157] Top shape: 36 192 10 5 (345600)
I1127 22:55:24.941956 10202 net.cpp:165] Memory required for data: 313113888
I1127 22:55:24.941967 10202 layer_factory.hpp:77] Creating layer inception_4a/3x3_reduce
I1127 22:55:24.941989 10202 net.cpp:100] Creating Layer inception_4a/3x3_reduce
I1127 22:55:24.942008 10202 net.cpp:434] inception_4a/3x3_reduce <- pool3/3x3_s2_pool3/3x3_s2_0_split_1
I1127 22:55:24.942025 10202 net.cpp:408] inception_4a/3x3_reduce -> inception_4a/3x3_reduce
I1127 22:55:24.951930 10202 net.cpp:150] Setting up inception_4a/3x3_reduce
I1127 22:55:24.951987 10202 net.cpp:157] Top shape: 36 96 10 5 (172800)
I1127 22:55:24.952002 10202 net.cpp:165] Memory required for data: 313805088
I1127 22:55:24.952038 10202 layer_factory.hpp:77] Creating layer inception_4a/relu_3x3_reduce
I1127 22:55:24.952072 10202 net.cpp:100] Creating Layer inception_4a/relu_3x3_reduce
I1127 22:55:24.952087 10202 net.cpp:434] inception_4a/relu_3x3_reduce <- inception_4a/3x3_reduce
I1127 22:55:24.952102 10202 net.cpp:395] inception_4a/relu_3x3_reduce -> inception_4a/3x3_reduce (in-place)
I1127 22:55:24.953382 10202 net.cpp:150] Setting up inception_4a/relu_3x3_reduce
I1127 22:55:24.953409 10202 net.cpp:157] Top shape: 36 96 10 5 (172800)
I1127 22:55:24.953418 10202 net.cpp:165] Memory required for data: 314496288
I1127 22:55:24.953429 10202 layer_factory.hpp:77] Creating layer inception_4a/3x3
I1127 22:55:24.953454 10202 net.cpp:100] Creating Layer inception_4a/3x3
I1127 22:55:24.953466 10202 net.cpp:434] inception_4a/3x3 <- inception_4a/3x3_reduce
I1127 22:55:24.953481 10202 net.cpp:408] inception_4a/3x3 -> inception_4a/3x3
I1127 22:55:24.957139 10202 net.cpp:150] Setting up inception_4a/3x3
I1127 22:55:24.957206 10202 net.cpp:157] Top shape: 36 208 10 5 (374400)
I1127 22:55:24.957217 10202 net.cpp:165] Memory required for data: 315993888
I1127 22:55:24.957264 10202 layer_factory.hpp:77] Creating layer inception_4a/relu_3x3
I1127 22:55:24.957279 10202 net.cpp:100] Creating Layer inception_4a/relu_3x3
I1127 22:55:24.957294 10202 net.cpp:434] inception_4a/relu_3x3 <- inception_4a/3x3
I1127 22:55:24.957316 10202 net.cpp:395] inception_4a/relu_3x3 -> inception_4a/3x3 (in-place)
I1127 22:55:24.957756 10202 net.cpp:150] Setting up inception_4a/relu_3x3
I1127 22:55:24.957793 10202 net.cpp:157] Top shape: 36 208 10 5 (374400)
I1127 22:55:24.957860 10202 net.cpp:165] Memory required for data: 317491488
I1127 22:55:24.957886 10202 layer_factory.hpp:77] Creating layer inception_4a/5x5_reduce
I1127 22:55:24.957911 10202 net.cpp:100] Creating Layer inception_4a/5x5_reduce
I1127 22:55:24.957932 10202 net.cpp:434] inception_4a/5x5_reduce <- pool3/3x3_s2_pool3/3x3_s2_0_split_2
I1127 22:55:24.957958 10202 net.cpp:408] inception_4a/5x5_reduce -> inception_4a/5x5_reduce
I1127 22:55:24.959442 10202 net.cpp:150] Setting up inception_4a/5x5_reduce
I1127 22:55:24.959475 10202 net.cpp:157] Top shape: 36 16 10 5 (28800)
I1127 22:55:24.959486 10202 net.cpp:165] Memory required for data: 317606688
I1127 22:55:24.959509 10202 layer_factory.hpp:77] Creating layer inception_4a/relu_5x5_reduce
I1127 22:55:24.959530 10202 net.cpp:100] Creating Layer inception_4a/relu_5x5_reduce
I1127 22:55:24.959548 10202 net.cpp:434] inception_4a/relu_5x5_reduce <- inception_4a/5x5_reduce
I1127 22:55:24.959571 10202 net.cpp:395] inception_4a/relu_5x5_reduce -> inception_4a/5x5_reduce (in-place)
I1127 22:55:24.959805 10202 net.cpp:150] Setting up inception_4a/relu_5x5_reduce
I1127 22:55:24.959828 10202 net.cpp:157] Top shape: 36 16 10 5 (28800)
I1127 22:55:24.959837 10202 net.cpp:165] Memory required for data: 317721888
I1127 22:55:24.959847 10202 layer_factory.hpp:77] Creating layer inception_4a/5x5
I1127 22:55:24.959879 10202 net.cpp:100] Creating Layer inception_4a/5x5
I1127 22:55:24.959897 10202 net.cpp:434] inception_4a/5x5 <- inception_4a/5x5_reduce
I1127 22:55:24.959918 10202 net.cpp:408] inception_4a/5x5 -> inception_4a/5x5
I1127 22:55:24.961535 10202 net.cpp:150] Setting up inception_4a/5x5
I1127 22:55:24.961572 10202 net.cpp:157] Top shape: 36 48 10 5 (86400)
I1127 22:55:24.961591 10202 net.cpp:165] Memory required for data: 318067488
I1127 22:55:24.961606 10202 layer_factory.hpp:77] Creating layer inception_4a/relu_5x5
I1127 22:55:24.961627 10202 net.cpp:100] Creating Layer inception_4a/relu_5x5
I1127 22:55:24.961644 10202 net.cpp:434] inception_4a/relu_5x5 <- inception_4a/5x5
I1127 22:55:24.961668 10202 net.cpp:395] inception_4a/relu_5x5 -> inception_4a/5x5 (in-place)
I1127 22:55:24.962112 10202 net.cpp:150] Setting up inception_4a/relu_5x5
I1127 22:55:24.962144 10202 net.cpp:157] Top shape: 36 48 10 5 (86400)
I1127 22:55:24.962153 10202 net.cpp:165] Memory required for data: 318413088
I1127 22:55:24.962175 10202 layer_factory.hpp:77] Creating layer inception_4a/pool
I1127 22:55:24.962194 10202 net.cpp:100] Creating Layer inception_4a/pool
I1127 22:55:24.962219 10202 net.cpp:434] inception_4a/pool <- pool3/3x3_s2_pool3/3x3_s2_0_split_3
I1127 22:55:24.962232 10202 net.cpp:408] inception_4a/pool -> inception_4a/pool
I1127 22:55:24.962317 10202 net.cpp:150] Setting up inception_4a/pool
I1127 22:55:24.962335 10202 net.cpp:157] Top shape: 36 480 10 5 (864000)
I1127 22:55:24.962344 10202 net.cpp:165] Memory required for data: 321869088
I1127 22:55:24.962352 10202 layer_factory.hpp:77] Creating layer inception_4a/pool_proj
I1127 22:55:24.962383 10202 net.cpp:100] Creating Layer inception_4a/pool_proj
I1127 22:55:24.962404 10202 net.cpp:434] inception_4a/pool_proj <- inception_4a/pool
I1127 22:55:24.962429 10202 net.cpp:408] inception_4a/pool_proj -> inception_4a/pool_proj
I1127 22:55:24.964020 10202 net.cpp:150] Setting up inception_4a/pool_proj
I1127 22:55:24.964063 10202 net.cpp:157] Top shape: 36 64 10 5 (115200)
I1127 22:55:24.964083 10202 net.cpp:165] Memory required for data: 322329888
I1127 22:55:24.964102 10202 layer_factory.hpp:77] Creating layer inception_4a/relu_pool_proj
I1127 22:55:24.964123 10202 net.cpp:100] Creating Layer inception_4a/relu_pool_proj
I1127 22:55:24.964165 10202 net.cpp:434] inception_4a/relu_pool_proj <- inception_4a/pool_proj
I1127 22:55:24.964190 10202 net.cpp:395] inception_4a/relu_pool_proj -> inception_4a/pool_proj (in-place)
I1127 22:55:24.964624 10202 net.cpp:150] Setting up inception_4a/relu_pool_proj
I1127 22:55:24.964661 10202 net.cpp:157] Top shape: 36 64 10 5 (115200)
I1127 22:55:24.964679 10202 net.cpp:165] Memory required for data: 322790688
I1127 22:55:24.964696 10202 layer_factory.hpp:77] Creating layer inception_4a/output
I1127 22:55:24.964720 10202 net.cpp:100] Creating Layer inception_4a/output
I1127 22:55:24.964738 10202 net.cpp:434] inception_4a/output <- inception_4a/1x1
I1127 22:55:24.964757 10202 net.cpp:434] inception_4a/output <- inception_4a/3x3
I1127 22:55:24.964776 10202 net.cpp:434] inception_4a/output <- inception_4a/5x5
I1127 22:55:24.964792 10202 net.cpp:434] inception_4a/output <- inception_4a/pool_proj
I1127 22:55:24.964810 10202 net.cpp:408] inception_4a/output -> inception_4a/output
I1127 22:55:24.964874 10202 net.cpp:150] Setting up inception_4a/output
I1127 22:55:24.964906 10202 net.cpp:157] Top shape: 36 512 10 5 (921600)
I1127 22:55:24.964915 10202 net.cpp:165] Memory required for data: 326477088
I1127 22:55:24.964944 10202 layer_factory.hpp:77] Creating layer inception_4a/output_inception_4a/output_0_split
I1127 22:55:24.964977 10202 net.cpp:100] Creating Layer inception_4a/output_inception_4a/output_0_split
I1127 22:55:24.964996 10202 net.cpp:434] inception_4a/output_inception_4a/output_0_split <- inception_4a/output
I1127 22:55:24.965018 10202 net.cpp:408] inception_4a/output_inception_4a/output_0_split -> inception_4a/output_inception_4a/output_0_split_0
I1127 22:55:24.965039 10202 net.cpp:408] inception_4a/output_inception_4a/output_0_split -> inception_4a/output_inception_4a/output_0_split_1
I1127 22:55:24.965059 10202 net.cpp:408] inception_4a/output_inception_4a/output_0_split -> inception_4a/output_inception_4a/output_0_split_2
I1127 22:55:24.965077 10202 net.cpp:408] inception_4a/output_inception_4a/output_0_split -> inception_4a/output_inception_4a/output_0_split_3
I1127 22:55:24.965186 10202 net.cpp:150] Setting up inception_4a/output_inception_4a/output_0_split
I1127 22:55:24.965220 10202 net.cpp:157] Top shape: 36 512 10 5 (921600)
I1127 22:55:24.965239 10202 net.cpp:157] Top shape: 36 512 10 5 (921600)
I1127 22:55:24.965248 10202 net.cpp:157] Top shape: 36 512 10 5 (921600)
I1127 22:55:24.965265 10202 net.cpp:157] Top shape: 36 512 10 5 (921600)
I1127 22:55:24.965276 10202 net.cpp:165] Memory required for data: 341222688
I1127 22:55:24.965293 10202 layer_factory.hpp:77] Creating layer inception_4b/1x1
I1127 22:55:24.965324 10202 net.cpp:100] Creating Layer inception_4b/1x1
I1127 22:55:24.965342 10202 net.cpp:434] inception_4b/1x1 <- inception_4a/output_inception_4a/output_0_split_0
I1127 22:55:24.965363 10202 net.cpp:408] inception_4b/1x1 -> inception_4b/1x1
I1127 22:55:24.967576 10202 net.cpp:150] Setting up inception_4b/1x1
I1127 22:55:24.967638 10202 net.cpp:157] Top shape: 36 160 10 5 (288000)
I1127 22:55:24.967659 10202 net.cpp:165] Memory required for data: 342374688
I1127 22:55:24.967684 10202 layer_factory.hpp:77] Creating layer inception_4b/relu_1x1
I1127 22:55:24.967717 10202 net.cpp:100] Creating Layer inception_4b/relu_1x1
I1127 22:55:24.967737 10202 net.cpp:434] inception_4b/relu_1x1 <- inception_4b/1x1
I1127 22:55:24.967756 10202 net.cpp:395] inception_4b/relu_1x1 -> inception_4b/1x1 (in-place)
I1127 22:55:24.967996 10202 net.cpp:150] Setting up inception_4b/relu_1x1
I1127 22:55:24.968024 10202 net.cpp:157] Top shape: 36 160 10 5 (288000)
I1127 22:55:24.968034 10202 net.cpp:165] Memory required for data: 343526688
I1127 22:55:24.968042 10202 layer_factory.hpp:77] Creating layer inception_4b/3x3_reduce
I1127 22:55:24.968070 10202 net.cpp:100] Creating Layer inception_4b/3x3_reduce
I1127 22:55:24.968080 10202 net.cpp:434] inception_4b/3x3_reduce <- inception_4a/output_inception_4a/output_0_split_1
I1127 22:55:24.968106 10202 net.cpp:408] inception_4b/3x3_reduce -> inception_4b/3x3_reduce
I1127 22:55:24.970233 10202 net.cpp:150] Setting up inception_4b/3x3_reduce
I1127 22:55:24.970281 10202 net.cpp:157] Top shape: 36 112 10 5 (201600)
I1127 22:55:24.970302 10202 net.cpp:165] Memory required for data: 344333088
I1127 22:55:24.970332 10202 layer_factory.hpp:77] Creating layer inception_4b/relu_3x3_reduce
I1127 22:55:24.970371 10202 net.cpp:100] Creating Layer inception_4b/relu_3x3_reduce
I1127 22:55:24.970391 10202 net.cpp:434] inception_4b/relu_3x3_reduce <- inception_4b/3x3_reduce
I1127 22:55:24.970414 10202 net.cpp:395] inception_4b/relu_3x3_reduce -> inception_4b/3x3_reduce (in-place)
I1127 22:55:24.970993 10202 net.cpp:150] Setting up inception_4b/relu_3x3_reduce
I1127 22:55:24.971031 10202 net.cpp:157] Top shape: 36 112 10 5 (201600)
I1127 22:55:24.971050 10202 net.cpp:165] Memory required for data: 345139488
I1127 22:55:24.971058 10202 layer_factory.hpp:77] Creating layer inception_4b/3x3
I1127 22:55:24.971091 10202 net.cpp:100] Creating Layer inception_4b/3x3
I1127 22:55:24.971103 10202 net.cpp:434] inception_4b/3x3 <- inception_4b/3x3_reduce
I1127 22:55:24.971124 10202 net.cpp:408] inception_4b/3x3 -> inception_4b/3x3
I1127 22:55:24.975184 10202 net.cpp:150] Setting up inception_4b/3x3
I1127 22:55:24.975244 10202 net.cpp:157] Top shape: 36 224 10 5 (403200)
I1127 22:55:24.975266 10202 net.cpp:165] Memory required for data: 346752288
I1127 22:55:24.975294 10202 layer_factory.hpp:77] Creating layer inception_4b/relu_3x3
I1127 22:55:24.975327 10202 net.cpp:100] Creating Layer inception_4b/relu_3x3
I1127 22:55:24.975348 10202 net.cpp:434] inception_4b/relu_3x3 <- inception_4b/3x3
I1127 22:55:24.975374 10202 net.cpp:395] inception_4b/relu_3x3 -> inception_4b/3x3 (in-place)
I1127 22:55:24.975831 10202 net.cpp:150] Setting up inception_4b/relu_3x3
I1127 22:55:24.975872 10202 net.cpp:157] Top shape: 36 224 10 5 (403200)
I1127 22:55:24.975891 10202 net.cpp:165] Memory required for data: 348365088
I1127 22:55:24.975913 10202 layer_factory.hpp:77] Creating layer inception_4b/5x5_reduce
I1127 22:55:24.975941 10202 net.cpp:100] Creating Layer inception_4b/5x5_reduce
I1127 22:55:24.975961 10202 net.cpp:434] inception_4b/5x5_reduce <- inception_4a/output_inception_4a/output_0_split_2
I1127 22:55:24.975985 10202 net.cpp:408] inception_4b/5x5_reduce -> inception_4b/5x5_reduce
I1127 22:55:24.977742 10202 net.cpp:150] Setting up inception_4b/5x5_reduce
I1127 22:55:24.977840 10202 net.cpp:157] Top shape: 36 24 10 5 (43200)
I1127 22:55:24.977864 10202 net.cpp:165] Memory required for data: 348537888
I1127 22:55:24.977892 10202 layer_factory.hpp:77] Creating layer inception_4b/relu_5x5_reduce
I1127 22:55:24.977932 10202 net.cpp:100] Creating Layer inception_4b/relu_5x5_reduce
I1127 22:55:24.977964 10202 net.cpp:434] inception_4b/relu_5x5_reduce <- inception_4b/5x5_reduce
I1127 22:55:24.977985 10202 net.cpp:395] inception_4b/relu_5x5_reduce -> inception_4b/5x5_reduce (in-place)
I1127 22:55:24.978245 10202 net.cpp:150] Setting up inception_4b/relu_5x5_reduce
I1127 22:55:24.978281 10202 net.cpp:157] Top shape: 36 24 10 5 (43200)
I1127 22:55:24.978299 10202 net.cpp:165] Memory required for data: 348710688
I1127 22:55:24.978317 10202 layer_factory.hpp:77] Creating layer inception_4b/5x5
I1127 22:55:24.978350 10202 net.cpp:100] Creating Layer inception_4b/5x5
I1127 22:55:24.978380 10202 net.cpp:434] inception_4b/5x5 <- inception_4b/5x5_reduce
I1127 22:55:24.978404 10202 net.cpp:408] inception_4b/5x5 -> inception_4b/5x5
I1127 22:55:24.981009 10202 net.cpp:150] Setting up inception_4b/5x5
I1127 22:55:24.981067 10202 net.cpp:157] Top shape: 36 64 10 5 (115200)
I1127 22:55:24.981079 10202 net.cpp:165] Memory required for data: 349171488
I1127 22:55:24.981101 10202 layer_factory.hpp:77] Creating layer inception_4b/relu_5x5
I1127 22:55:24.981124 10202 net.cpp:100] Creating Layer inception_4b/relu_5x5
I1127 22:55:24.981138 10202 net.cpp:434] inception_4b/relu_5x5 <- inception_4b/5x5
I1127 22:55:24.981154 10202 net.cpp:395] inception_4b/relu_5x5 -> inception_4b/5x5 (in-place)
I1127 22:55:24.981607 10202 net.cpp:150] Setting up inception_4b/relu_5x5
I1127 22:55:24.981645 10202 net.cpp:157] Top shape: 36 64 10 5 (115200)
I1127 22:55:24.981673 10202 net.cpp:165] Memory required for data: 349632288
I1127 22:55:24.981698 10202 layer_factory.hpp:77] Creating layer inception_4b/pool
I1127 22:55:24.981729 10202 net.cpp:100] Creating Layer inception_4b/pool
I1127 22:55:24.981750 10202 net.cpp:434] inception_4b/pool <- inception_4a/output_inception_4a/output_0_split_3
I1127 22:55:24.981773 10202 net.cpp:408] inception_4b/pool -> inception_4b/pool
I1127 22:55:24.981919 10202 net.cpp:150] Setting up inception_4b/pool
I1127 22:55:24.981956 10202 net.cpp:157] Top shape: 36 512 10 5 (921600)
I1127 22:55:24.981976 10202 net.cpp:165] Memory required for data: 353318688
I1127 22:55:24.981993 10202 layer_factory.hpp:77] Creating layer inception_4b/pool_proj
I1127 22:55:24.982025 10202 net.cpp:100] Creating Layer inception_4b/pool_proj
I1127 22:55:24.982055 10202 net.cpp:434] inception_4b/pool_proj <- inception_4b/pool
I1127 22:55:24.982079 10202 net.cpp:408] inception_4b/pool_proj -> inception_4b/pool_proj
I1127 22:55:24.991271 10202 net.cpp:150] Setting up inception_4b/pool_proj
I1127 22:55:24.991333 10202 net.cpp:157] Top shape: 36 64 10 5 (115200)
I1127 22:55:24.991346 10202 net.cpp:165] Memory required for data: 353779488
I1127 22:55:24.991366 10202 layer_factory.hpp:77] Creating layer inception_4b/relu_pool_proj
I1127 22:55:24.991385 10202 net.cpp:100] Creating Layer inception_4b/relu_pool_proj
I1127 22:55:24.991400 10202 net.cpp:434] inception_4b/relu_pool_proj <- inception_4b/pool_proj
I1127 22:55:24.991420 10202 net.cpp:395] inception_4b/relu_pool_proj -> inception_4b/pool_proj (in-place)
I1127 22:55:24.992693 10202 net.cpp:150] Setting up inception_4b/relu_pool_proj
I1127 22:55:24.992719 10202 net.cpp:157] Top shape: 36 64 10 5 (115200)
I1127 22:55:24.992729 10202 net.cpp:165] Memory required for data: 354240288
I1127 22:55:24.992743 10202 layer_factory.hpp:77] Creating layer inception_4b/output
I1127 22:55:24.992758 10202 net.cpp:100] Creating Layer inception_4b/output
I1127 22:55:24.992769 10202 net.cpp:434] inception_4b/output <- inception_4b/1x1
I1127 22:55:24.992784 10202 net.cpp:434] inception_4b/output <- inception_4b/3x3
I1127 22:55:24.992797 10202 net.cpp:434] inception_4b/output <- inception_4b/5x5
I1127 22:55:24.992807 10202 net.cpp:434] inception_4b/output <- inception_4b/pool_proj
I1127 22:55:24.992821 10202 net.cpp:408] inception_4b/output -> inception_4b/output
I1127 22:55:24.992889 10202 net.cpp:150] Setting up inception_4b/output
I1127 22:55:24.992924 10202 net.cpp:157] Top shape: 36 512 10 5 (921600)
I1127 22:55:24.992952 10202 net.cpp:165] Memory required for data: 357926688
I1127 22:55:24.992970 10202 layer_factory.hpp:77] Creating layer inception_4b/output_inception_4b/output_0_split
I1127 22:55:24.992987 10202 net.cpp:100] Creating Layer inception_4b/output_inception_4b/output_0_split
I1127 22:55:24.993008 10202 net.cpp:434] inception_4b/output_inception_4b/output_0_split <- inception_4b/output
I1127 22:55:24.993021 10202 net.cpp:408] inception_4b/output_inception_4b/output_0_split -> inception_4b/output_inception_4b/output_0_split_0
I1127 22:55:24.993036 10202 net.cpp:408] inception_4b/output_inception_4b/output_0_split -> inception_4b/output_inception_4b/output_0_split_1
I1127 22:55:24.993054 10202 net.cpp:408] inception_4b/output_inception_4b/output_0_split -> inception_4b/output_inception_4b/output_0_split_2
I1127 22:55:24.993067 10202 net.cpp:408] inception_4b/output_inception_4b/output_0_split -> inception_4b/output_inception_4b/output_0_split_3
I1127 22:55:24.993177 10202 net.cpp:150] Setting up inception_4b/output_inception_4b/output_0_split
I1127 22:55:24.993202 10202 net.cpp:157] Top shape: 36 512 10 5 (921600)
I1127 22:55:24.993213 10202 net.cpp:157] Top shape: 36 512 10 5 (921600)
I1127 22:55:24.993230 10202 net.cpp:157] Top shape: 36 512 10 5 (921600)
I1127 22:55:24.993247 10202 net.cpp:157] Top shape: 36 512 10 5 (921600)
I1127 22:55:24.993265 10202 net.cpp:165] Memory required for data: 372672288
I1127 22:55:24.993295 10202 layer_factory.hpp:77] Creating layer inception_4c/1x1
I1127 22:55:24.993327 10202 net.cpp:100] Creating Layer inception_4c/1x1
I1127 22:55:24.993356 10202 net.cpp:434] inception_4c/1x1 <- inception_4b/output_inception_4b/output_0_split_0
I1127 22:55:24.993378 10202 net.cpp:408] inception_4c/1x1 -> inception_4c/1x1
I1127 22:55:24.995595 10202 net.cpp:150] Setting up inception_4c/1x1
I1127 22:55:24.995666 10202 net.cpp:157] Top shape: 36 128 10 5 (230400)
I1127 22:55:24.995687 10202 net.cpp:165] Memory required for data: 373593888
I1127 22:55:24.995714 10202 layer_factory.hpp:77] Creating layer inception_4c/relu_1x1
I1127 22:55:24.995754 10202 net.cpp:100] Creating Layer inception_4c/relu_1x1
I1127 22:55:24.995785 10202 net.cpp:434] inception_4c/relu_1x1 <- inception_4c/1x1
I1127 22:55:24.995807 10202 net.cpp:395] inception_4c/relu_1x1 -> inception_4c/1x1 (in-place)
I1127 22:55:24.996076 10202 net.cpp:150] Setting up inception_4c/relu_1x1
I1127 22:55:24.996112 10202 net.cpp:157] Top shape: 36 128 10 5 (230400)
I1127 22:55:24.996131 10202 net.cpp:165] Memory required for data: 374515488
I1127 22:55:24.996155 10202 layer_factory.hpp:77] Creating layer inception_4c/3x3_reduce
I1127 22:55:24.996186 10202 net.cpp:100] Creating Layer inception_4c/3x3_reduce
I1127 22:55:24.996215 10202 net.cpp:434] inception_4c/3x3_reduce <- inception_4b/output_inception_4b/output_0_split_1
I1127 22:55:24.996245 10202 net.cpp:408] inception_4c/3x3_reduce -> inception_4c/3x3_reduce
I1127 22:55:24.998463 10202 net.cpp:150] Setting up inception_4c/3x3_reduce
I1127 22:55:24.998525 10202 net.cpp:157] Top shape: 36 128 10 5 (230400)
I1127 22:55:24.998536 10202 net.cpp:165] Memory required for data: 375437088
I1127 22:55:24.998561 10202 layer_factory.hpp:77] Creating layer inception_4c/relu_3x3_reduce
I1127 22:55:24.998594 10202 net.cpp:100] Creating Layer inception_4c/relu_3x3_reduce
I1127 22:55:24.998616 10202 net.cpp:434] inception_4c/relu_3x3_reduce <- inception_4c/3x3_reduce
I1127 22:55:24.998636 10202 net.cpp:395] inception_4c/relu_3x3_reduce -> inception_4c/3x3_reduce (in-place)
I1127 22:55:24.999102 10202 net.cpp:150] Setting up inception_4c/relu_3x3_reduce
I1127 22:55:24.999138 10202 net.cpp:157] Top shape: 36 128 10 5 (230400)
I1127 22:55:24.999156 10202 net.cpp:165] Memory required for data: 376358688
I1127 22:55:24.999176 10202 layer_factory.hpp:77] Creating layer inception_4c/3x3
I1127 22:55:24.999204 10202 net.cpp:100] Creating Layer inception_4c/3x3
I1127 22:55:24.999222 10202 net.cpp:434] inception_4c/3x3 <- inception_4c/3x3_reduce
I1127 22:55:24.999241 10202 net.cpp:408] inception_4c/3x3 -> inception_4c/3x3
I1127 22:55:25.004021 10202 net.cpp:150] Setting up inception_4c/3x3
I1127 22:55:25.004098 10202 net.cpp:157] Top shape: 36 256 10 5 (460800)
I1127 22:55:25.004129 10202 net.cpp:165] Memory required for data: 378201888
I1127 22:55:25.004165 10202 layer_factory.hpp:77] Creating layer inception_4c/relu_3x3
I1127 22:55:25.004216 10202 net.cpp:100] Creating Layer inception_4c/relu_3x3
I1127 22:55:25.004250 10202 net.cpp:434] inception_4c/relu_3x3 <- inception_4c/3x3
I1127 22:55:25.004269 10202 net.cpp:395] inception_4c/relu_3x3 -> inception_4c/3x3 (in-place)
I1127 22:55:25.004737 10202 net.cpp:150] Setting up inception_4c/relu_3x3
I1127 22:55:25.004781 10202 net.cpp:157] Top shape: 36 256 10 5 (460800)
I1127 22:55:25.004807 10202 net.cpp:165] Memory required for data: 380045088
I1127 22:55:25.004827 10202 layer_factory.hpp:77] Creating layer inception_4c/5x5_reduce
I1127 22:55:25.004858 10202 net.cpp:100] Creating Layer inception_4c/5x5_reduce
I1127 22:55:25.004878 10202 net.cpp:434] inception_4c/5x5_reduce <- inception_4b/output_inception_4b/output_0_split_2
I1127 22:55:25.004904 10202 net.cpp:408] inception_4c/5x5_reduce -> inception_4c/5x5_reduce
I1127 22:55:25.006873 10202 net.cpp:150] Setting up inception_4c/5x5_reduce
I1127 22:55:25.006947 10202 net.cpp:157] Top shape: 36 24 10 5 (43200)
I1127 22:55:25.006976 10202 net.cpp:165] Memory required for data: 380217888
I1127 22:55:25.007032 10202 layer_factory.hpp:77] Creating layer inception_4c/relu_5x5_reduce
I1127 22:55:25.007071 10202 net.cpp:100] Creating Layer inception_4c/relu_5x5_reduce
I1127 22:55:25.007096 10202 net.cpp:434] inception_4c/relu_5x5_reduce <- inception_4c/5x5_reduce
I1127 22:55:25.007117 10202 net.cpp:395] inception_4c/relu_5x5_reduce -> inception_4c/5x5_reduce (in-place)
I1127 22:55:25.007572 10202 net.cpp:150] Setting up inception_4c/relu_5x5_reduce
I1127 22:55:25.007611 10202 net.cpp:157] Top shape: 36 24 10 5 (43200)
I1127 22:55:25.007629 10202 net.cpp:165] Memory required for data: 380390688
I1127 22:55:25.007648 10202 layer_factory.hpp:77] Creating layer inception_4c/5x5
I1127 22:55:25.007681 10202 net.cpp:100] Creating Layer inception_4c/5x5
I1127 22:55:25.007711 10202 net.cpp:434] inception_4c/5x5 <- inception_4c/5x5_reduce
I1127 22:55:25.007736 10202 net.cpp:408] inception_4c/5x5 -> inception_4c/5x5
I1127 22:55:25.009681 10202 net.cpp:150] Setting up inception_4c/5x5
I1127 22:55:25.009745 10202 net.cpp:157] Top shape: 36 64 10 5 (115200)
I1127 22:55:25.009774 10202 net.cpp:165] Memory required for data: 380851488
I1127 22:55:25.009836 10202 layer_factory.hpp:77] Creating layer inception_4c/relu_5x5
I1127 22:55:25.009872 10202 net.cpp:100] Creating Layer inception_4c/relu_5x5
I1127 22:55:25.009893 10202 net.cpp:434] inception_4c/relu_5x5 <- inception_4c/5x5
I1127 22:55:25.009914 10202 net.cpp:395] inception_4c/relu_5x5 -> inception_4c/5x5 (in-place)
I1127 22:55:25.010385 10202 net.cpp:150] Setting up inception_4c/relu_5x5
I1127 22:55:25.010421 10202 net.cpp:157] Top shape: 36 64 10 5 (115200)
I1127 22:55:25.010440 10202 net.cpp:165] Memory required for data: 381312288
I1127 22:55:25.010458 10202 layer_factory.hpp:77] Creating layer inception_4c/pool
I1127 22:55:25.010481 10202 net.cpp:100] Creating Layer inception_4c/pool
I1127 22:55:25.010501 10202 net.cpp:434] inception_4c/pool <- inception_4b/output_inception_4b/output_0_split_3
I1127 22:55:25.010527 10202 net.cpp:408] inception_4c/pool -> inception_4c/pool
I1127 22:55:25.010632 10202 net.cpp:150] Setting up inception_4c/pool
I1127 22:55:25.010666 10202 net.cpp:157] Top shape: 36 512 10 5 (921600)
I1127 22:55:25.010675 10202 net.cpp:165] Memory required for data: 384998688
I1127 22:55:25.010694 10202 layer_factory.hpp:77] Creating layer inception_4c/pool_proj
I1127 22:55:25.010725 10202 net.cpp:100] Creating Layer inception_4c/pool_proj
I1127 22:55:25.010746 10202 net.cpp:434] inception_4c/pool_proj <- inception_4c/pool
I1127 22:55:25.010766 10202 net.cpp:408] inception_4c/pool_proj -> inception_4c/pool_proj
I1127 22:55:25.013221 10202 net.cpp:150] Setting up inception_4c/pool_proj
I1127 22:55:25.013298 10202 net.cpp:157] Top shape: 36 64 10 5 (115200)
I1127 22:55:25.013326 10202 net.cpp:165] Memory required for data: 385459488
I1127 22:55:25.013372 10202 layer_factory.hpp:77] Creating layer inception_4c/relu_pool_proj
I1127 22:55:25.013411 10202 net.cpp:100] Creating Layer inception_4c/relu_pool_proj
I1127 22:55:25.013442 10202 net.cpp:434] inception_4c/relu_pool_proj <- inception_4c/pool_proj
I1127 22:55:25.013465 10202 net.cpp:395] inception_4c/relu_pool_proj -> inception_4c/pool_proj (in-place)
I1127 22:55:25.014014 10202 net.cpp:150] Setting up inception_4c/relu_pool_proj
I1127 22:55:25.014056 10202 net.cpp:157] Top shape: 36 64 10 5 (115200)
I1127 22:55:25.014075 10202 net.cpp:165] Memory required for data: 385920288
I1127 22:55:25.014096 10202 layer_factory.hpp:77] Creating layer inception_4c/output
I1127 22:55:25.014120 10202 net.cpp:100] Creating Layer inception_4c/output
I1127 22:55:25.014138 10202 net.cpp:434] inception_4c/output <- inception_4c/1x1
I1127 22:55:25.014158 10202 net.cpp:434] inception_4c/output <- inception_4c/3x3
I1127 22:55:25.014176 10202 net.cpp:434] inception_4c/output <- inception_4c/5x5
I1127 22:55:25.014196 10202 net.cpp:434] inception_4c/output <- inception_4c/pool_proj
I1127 22:55:25.014219 10202 net.cpp:408] inception_4c/output -> inception_4c/output
I1127 22:55:25.014284 10202 net.cpp:150] Setting up inception_4c/output
I1127 22:55:25.014317 10202 net.cpp:157] Top shape: 36 512 10 5 (921600)
I1127 22:55:25.014327 10202 net.cpp:165] Memory required for data: 389606688
I1127 22:55:25.014335 10202 layer_factory.hpp:77] Creating layer inception_4c/output_inception_4c/output_0_split
I1127 22:55:25.014351 10202 net.cpp:100] Creating Layer inception_4c/output_inception_4c/output_0_split
I1127 22:55:25.014364 10202 net.cpp:434] inception_4c/output_inception_4c/output_0_split <- inception_4c/output
I1127 22:55:25.014374 10202 net.cpp:408] inception_4c/output_inception_4c/output_0_split -> inception_4c/output_inception_4c/output_0_split_0
I1127 22:55:25.014389 10202 net.cpp:408] inception_4c/output_inception_4c/output_0_split -> inception_4c/output_inception_4c/output_0_split_1
I1127 22:55:25.014400 10202 net.cpp:408] inception_4c/output_inception_4c/output_0_split -> inception_4c/output_inception_4c/output_0_split_2
I1127 22:55:25.014415 10202 net.cpp:408] inception_4c/output_inception_4c/output_0_split -> inception_4c/output_inception_4c/output_0_split_3
I1127 22:55:25.014538 10202 net.cpp:150] Setting up inception_4c/output_inception_4c/output_0_split
I1127 22:55:25.014555 10202 net.cpp:157] Top shape: 36 512 10 5 (921600)
I1127 22:55:25.014574 10202 net.cpp:157] Top shape: 36 512 10 5 (921600)
I1127 22:55:25.014591 10202 net.cpp:157] Top shape: 36 512 10 5 (921600)
I1127 22:55:25.014602 10202 net.cpp:157] Top shape: 36 512 10 5 (921600)
I1127 22:55:25.014612 10202 net.cpp:165] Memory required for data: 404352288
I1127 22:55:25.014621 10202 layer_factory.hpp:77] Creating layer inception_4d/1x1
I1127 22:55:25.014641 10202 net.cpp:100] Creating Layer inception_4d/1x1
I1127 22:55:25.014652 10202 net.cpp:434] inception_4d/1x1 <- inception_4c/output_inception_4c/output_0_split_0
I1127 22:55:25.014672 10202 net.cpp:408] inception_4d/1x1 -> inception_4d/1x1
I1127 22:55:25.024523 10202 net.cpp:150] Setting up inception_4d/1x1
I1127 22:55:25.024590 10202 net.cpp:157] Top shape: 36 112 10 5 (201600)
I1127 22:55:25.024603 10202 net.cpp:165] Memory required for data: 405158688
I1127 22:55:25.024634 10202 layer_factory.hpp:77] Creating layer inception_4d/relu_1x1
I1127 22:55:25.024659 10202 net.cpp:100] Creating Layer inception_4d/relu_1x1
I1127 22:55:25.024673 10202 net.cpp:434] inception_4d/relu_1x1 <- inception_4d/1x1
I1127 22:55:25.024688 10202 net.cpp:395] inception_4d/relu_1x1 -> inception_4d/1x1 (in-place)
I1127 22:55:25.025939 10202 net.cpp:150] Setting up inception_4d/relu_1x1
I1127 22:55:25.025985 10202 net.cpp:157] Top shape: 36 112 10 5 (201600)
I1127 22:55:25.026000 10202 net.cpp:165] Memory required for data: 405965088
I1127 22:55:25.026012 10202 layer_factory.hpp:77] Creating layer inception_4d/3x3_reduce
I1127 22:55:25.026041 10202 net.cpp:100] Creating Layer inception_4d/3x3_reduce
I1127 22:55:25.026062 10202 net.cpp:434] inception_4d/3x3_reduce <- inception_4c/output_inception_4c/output_0_split_1
I1127 22:55:25.026087 10202 net.cpp:408] inception_4d/3x3_reduce -> inception_4d/3x3_reduce
I1127 22:55:25.028553 10202 net.cpp:150] Setting up inception_4d/3x3_reduce
I1127 22:55:25.028615 10202 net.cpp:157] Top shape: 36 144 10 5 (259200)
I1127 22:55:25.028645 10202 net.cpp:165] Memory required for data: 407001888
I1127 22:55:25.028682 10202 layer_factory.hpp:77] Creating layer inception_4d/relu_3x3_reduce
I1127 22:55:25.028707 10202 net.cpp:100] Creating Layer inception_4d/relu_3x3_reduce
I1127 22:55:25.028725 10202 net.cpp:434] inception_4d/relu_3x3_reduce <- inception_4d/3x3_reduce
I1127 22:55:25.028746 10202 net.cpp:395] inception_4d/relu_3x3_reduce -> inception_4d/3x3_reduce (in-place)
I1127 22:55:25.029201 10202 net.cpp:150] Setting up inception_4d/relu_3x3_reduce
I1127 22:55:25.029240 10202 net.cpp:157] Top shape: 36 144 10 5 (259200)
I1127 22:55:25.029259 10202 net.cpp:165] Memory required for data: 408038688
I1127 22:55:25.029278 10202 layer_factory.hpp:77] Creating layer inception_4d/3x3
I1127 22:55:25.029309 10202 net.cpp:100] Creating Layer inception_4d/3x3
I1127 22:55:25.029328 10202 net.cpp:434] inception_4d/3x3 <- inception_4d/3x3_reduce
I1127 22:55:25.029377 10202 net.cpp:408] inception_4d/3x3 -> inception_4d/3x3
I1127 22:55:25.036976 10202 net.cpp:150] Setting up inception_4d/3x3
I1127 22:55:25.037044 10202 net.cpp:157] Top shape: 36 288 10 5 (518400)
I1127 22:55:25.037122 10202 net.cpp:165] Memory required for data: 410112288
I1127 22:55:25.037170 10202 layer_factory.hpp:77] Creating layer inception_4d/relu_3x3
I1127 22:55:25.037210 10202 net.cpp:100] Creating Layer inception_4d/relu_3x3
I1127 22:55:25.037241 10202 net.cpp:434] inception_4d/relu_3x3 <- inception_4d/3x3
I1127 22:55:25.037262 10202 net.cpp:395] inception_4d/relu_3x3 -> inception_4d/3x3 (in-place)
I1127 22:55:25.037941 10202 net.cpp:150] Setting up inception_4d/relu_3x3
I1127 22:55:25.037981 10202 net.cpp:157] Top shape: 36 288 10 5 (518400)
I1127 22:55:25.038000 10202 net.cpp:165] Memory required for data: 412185888
I1127 22:55:25.038020 10202 layer_factory.hpp:77] Creating layer inception_4d/5x5_reduce
I1127 22:55:25.038053 10202 net.cpp:100] Creating Layer inception_4d/5x5_reduce
I1127 22:55:25.038084 10202 net.cpp:434] inception_4d/5x5_reduce <- inception_4c/output_inception_4c/output_0_split_2
I1127 22:55:25.038115 10202 net.cpp:408] inception_4d/5x5_reduce -> inception_4d/5x5_reduce
I1127 22:55:25.040073 10202 net.cpp:150] Setting up inception_4d/5x5_reduce
I1127 22:55:25.040140 10202 net.cpp:157] Top shape: 36 32 10 5 (57600)
I1127 22:55:25.040169 10202 net.cpp:165] Memory required for data: 412416288
I1127 22:55:25.040197 10202 layer_factory.hpp:77] Creating layer inception_4d/relu_5x5_reduce
I1127 22:55:25.040241 10202 net.cpp:100] Creating Layer inception_4d/relu_5x5_reduce
I1127 22:55:25.040261 10202 net.cpp:434] inception_4d/relu_5x5_reduce <- inception_4d/5x5_reduce
I1127 22:55:25.040287 10202 net.cpp:395] inception_4d/relu_5x5_reduce -> inception_4d/5x5_reduce (in-place)
I1127 22:55:25.040567 10202 net.cpp:150] Setting up inception_4d/relu_5x5_reduce
I1127 22:55:25.040596 10202 net.cpp:157] Top shape: 36 32 10 5 (57600)
I1127 22:55:25.040613 10202 net.cpp:165] Memory required for data: 412646688
I1127 22:55:25.040630 10202 layer_factory.hpp:77] Creating layer inception_4d/5x5
I1127 22:55:25.040659 10202 net.cpp:100] Creating Layer inception_4d/5x5
I1127 22:55:25.040688 10202 net.cpp:434] inception_4d/5x5 <- inception_4d/5x5_reduce
I1127 22:55:25.040714 10202 net.cpp:408] inception_4d/5x5 -> inception_4d/5x5
I1127 22:55:25.042968 10202 net.cpp:150] Setting up inception_4d/5x5
I1127 22:55:25.043027 10202 net.cpp:157] Top shape: 36 64 10 5 (115200)
I1127 22:55:25.043056 10202 net.cpp:165] Memory required for data: 413107488
I1127 22:55:25.043081 10202 layer_factory.hpp:77] Creating layer inception_4d/relu_5x5
I1127 22:55:25.043109 10202 net.cpp:100] Creating Layer inception_4d/relu_5x5
I1127 22:55:25.043133 10202 net.cpp:434] inception_4d/relu_5x5 <- inception_4d/5x5
I1127 22:55:25.043157 10202 net.cpp:395] inception_4d/relu_5x5 -> inception_4d/5x5 (in-place)
I1127 22:55:25.043597 10202 net.cpp:150] Setting up inception_4d/relu_5x5
I1127 22:55:25.043643 10202 net.cpp:157] Top shape: 36 64 10 5 (115200)
I1127 22:55:25.043673 10202 net.cpp:165] Memory required for data: 413568288
I1127 22:55:25.043689 10202 layer_factory.hpp:77] Creating layer inception_4d/pool
I1127 22:55:25.043709 10202 net.cpp:100] Creating Layer inception_4d/pool
I1127 22:55:25.043738 10202 net.cpp:434] inception_4d/pool <- inception_4c/output_inception_4c/output_0_split_3
I1127 22:55:25.043761 10202 net.cpp:408] inception_4d/pool -> inception_4d/pool
I1127 22:55:25.043856 10202 net.cpp:150] Setting up inception_4d/pool
I1127 22:55:25.043891 10202 net.cpp:157] Top shape: 36 512 10 5 (921600)
I1127 22:55:25.043910 10202 net.cpp:165] Memory required for data: 417254688
I1127 22:55:25.043928 10202 layer_factory.hpp:77] Creating layer inception_4d/pool_proj
I1127 22:55:25.043959 10202 net.cpp:100] Creating Layer inception_4d/pool_proj
I1127 22:55:25.043978 10202 net.cpp:434] inception_4d/pool_proj <- inception_4d/pool
I1127 22:55:25.043998 10202 net.cpp:408] inception_4d/pool_proj -> inception_4d/pool_proj
I1127 22:55:25.045701 10202 net.cpp:150] Setting up inception_4d/pool_proj
I1127 22:55:25.045750 10202 net.cpp:157] Top shape: 36 64 10 5 (115200)
I1127 22:55:25.045771 10202 net.cpp:165] Memory required for data: 417715488
I1127 22:55:25.045800 10202 layer_factory.hpp:77] Creating layer inception_4d/relu_pool_proj
I1127 22:55:25.045852 10202 net.cpp:100] Creating Layer inception_4d/relu_pool_proj
I1127 22:55:25.045881 10202 net.cpp:434] inception_4d/relu_pool_proj <- inception_4d/pool_proj
I1127 22:55:25.045902 10202 net.cpp:395] inception_4d/relu_pool_proj -> inception_4d/pool_proj (in-place)
I1127 22:55:25.046506 10202 net.cpp:150] Setting up inception_4d/relu_pool_proj
I1127 22:55:25.046545 10202 net.cpp:157] Top shape: 36 64 10 5 (115200)
I1127 22:55:25.046563 10202 net.cpp:165] Memory required for data: 418176288
I1127 22:55:25.046581 10202 layer_factory.hpp:77] Creating layer inception_4d/output
I1127 22:55:25.046607 10202 net.cpp:100] Creating Layer inception_4d/output
I1127 22:55:25.046636 10202 net.cpp:434] inception_4d/output <- inception_4d/1x1
I1127 22:55:25.046658 10202 net.cpp:434] inception_4d/output <- inception_4d/3x3
I1127 22:55:25.046676 10202 net.cpp:434] inception_4d/output <- inception_4d/5x5
I1127 22:55:25.046695 10202 net.cpp:434] inception_4d/output <- inception_4d/pool_proj
I1127 22:55:25.046718 10202 net.cpp:408] inception_4d/output -> inception_4d/output
I1127 22:55:25.046795 10202 net.cpp:150] Setting up inception_4d/output
I1127 22:55:25.046828 10202 net.cpp:157] Top shape: 36 528 10 5 (950400)
I1127 22:55:25.046838 10202 net.cpp:165] Memory required for data: 421977888
I1127 22:55:25.046862 10202 layer_factory.hpp:77] Creating layer inception_4d/output_inception_4d/output_0_split
I1127 22:55:25.046881 10202 net.cpp:100] Creating Layer inception_4d/output_inception_4d/output_0_split
I1127 22:55:25.046900 10202 net.cpp:434] inception_4d/output_inception_4d/output_0_split <- inception_4d/output
I1127 22:55:25.046919 10202 net.cpp:408] inception_4d/output_inception_4d/output_0_split -> inception_4d/output_inception_4d/output_0_split_0
I1127 22:55:25.046947 10202 net.cpp:408] inception_4d/output_inception_4d/output_0_split -> inception_4d/output_inception_4d/output_0_split_1
I1127 22:55:25.046979 10202 net.cpp:408] inception_4d/output_inception_4d/output_0_split -> inception_4d/output_inception_4d/output_0_split_2
I1127 22:55:25.047001 10202 net.cpp:408] inception_4d/output_inception_4d/output_0_split -> inception_4d/output_inception_4d/output_0_split_3
I1127 22:55:25.047139 10202 net.cpp:150] Setting up inception_4d/output_inception_4d/output_0_split
I1127 22:55:25.047165 10202 net.cpp:157] Top shape: 36 528 10 5 (950400)
I1127 22:55:25.047185 10202 net.cpp:157] Top shape: 36 528 10 5 (950400)
I1127 22:55:25.047204 10202 net.cpp:157] Top shape: 36 528 10 5 (950400)
I1127 22:55:25.047215 10202 net.cpp:157] Top shape: 36 528 10 5 (950400)
I1127 22:55:25.047224 10202 net.cpp:165] Memory required for data: 437184288
I1127 22:55:25.047258 10202 layer_factory.hpp:77] Creating layer inception_4e/1x1
I1127 22:55:25.047289 10202 net.cpp:100] Creating Layer inception_4e/1x1
I1127 22:55:25.047318 10202 net.cpp:434] inception_4e/1x1 <- inception_4d/output_inception_4d/output_0_split_0
I1127 22:55:25.047341 10202 net.cpp:408] inception_4e/1x1 -> inception_4e/1x1
I1127 22:55:25.050978 10202 net.cpp:150] Setting up inception_4e/1x1
I1127 22:55:25.051050 10202 net.cpp:157] Top shape: 36 256 10 5 (460800)
I1127 22:55:25.051071 10202 net.cpp:165] Memory required for data: 439027488
I1127 22:55:25.051103 10202 layer_factory.hpp:77] Creating layer inception_4e/relu_1x1
I1127 22:55:25.051128 10202 net.cpp:100] Creating Layer inception_4e/relu_1x1
I1127 22:55:25.051149 10202 net.cpp:434] inception_4e/relu_1x1 <- inception_4e/1x1
I1127 22:55:25.051174 10202 net.cpp:395] inception_4e/relu_1x1 -> inception_4e/1x1 (in-place)
I1127 22:55:25.051442 10202 net.cpp:150] Setting up inception_4e/relu_1x1
I1127 22:55:25.051481 10202 net.cpp:157] Top shape: 36 256 10 5 (460800)
I1127 22:55:25.051498 10202 net.cpp:165] Memory required for data: 440870688
I1127 22:55:25.051548 10202 layer_factory.hpp:77] Creating layer inception_4e/3x3_reduce
I1127 22:55:25.051590 10202 net.cpp:100] Creating Layer inception_4e/3x3_reduce
I1127 22:55:25.051610 10202 net.cpp:434] inception_4e/3x3_reduce <- inception_4d/output_inception_4d/output_0_split_1
I1127 22:55:25.051632 10202 net.cpp:408] inception_4e/3x3_reduce -> inception_4e/3x3_reduce
I1127 22:55:25.059715 10202 net.cpp:150] Setting up inception_4e/3x3_reduce
I1127 22:55:25.059783 10202 net.cpp:157] Top shape: 36 160 10 5 (288000)
I1127 22:55:25.059798 10202 net.cpp:165] Memory required for data: 442022688
I1127 22:55:25.059820 10202 layer_factory.hpp:77] Creating layer inception_4e/relu_3x3_reduce
I1127 22:55:25.059840 10202 net.cpp:100] Creating Layer inception_4e/relu_3x3_reduce
I1127 22:55:25.059854 10202 net.cpp:434] inception_4e/relu_3x3_reduce <- inception_4e/3x3_reduce
I1127 22:55:25.059870 10202 net.cpp:395] inception_4e/relu_3x3_reduce -> inception_4e/3x3_reduce (in-place)
I1127 22:55:25.062778 10202 net.cpp:150] Setting up inception_4e/relu_3x3_reduce
I1127 22:55:25.062826 10202 net.cpp:157] Top shape: 36 160 10 5 (288000)
I1127 22:55:25.062839 10202 net.cpp:165] Memory required for data: 443174688
I1127 22:55:25.062850 10202 layer_factory.hpp:77] Creating layer inception_4e/3x3
I1127 22:55:25.062877 10202 net.cpp:100] Creating Layer inception_4e/3x3
I1127 22:55:25.062896 10202 net.cpp:434] inception_4e/3x3 <- inception_4e/3x3_reduce
I1127 22:55:25.062918 10202 net.cpp:408] inception_4e/3x3 -> inception_4e/3x3
I1127 22:55:25.069578 10202 net.cpp:150] Setting up inception_4e/3x3
I1127 22:55:25.069650 10202 net.cpp:157] Top shape: 36 320 10 5 (576000)
I1127 22:55:25.069676 10202 net.cpp:165] Memory required for data: 445478688
I1127 22:55:25.069710 10202 layer_factory.hpp:77] Creating layer inception_4e/relu_3x3
I1127 22:55:25.069751 10202 net.cpp:100] Creating Layer inception_4e/relu_3x3
I1127 22:55:25.069780 10202 net.cpp:434] inception_4e/relu_3x3 <- inception_4e/3x3
I1127 22:55:25.069830 10202 net.cpp:395] inception_4e/relu_3x3 -> inception_4e/3x3 (in-place)
I1127 22:55:25.070288 10202 net.cpp:150] Setting up inception_4e/relu_3x3
I1127 22:55:25.070310 10202 net.cpp:157] Top shape: 36 320 10 5 (576000)
I1127 22:55:25.070320 10202 net.cpp:165] Memory required for data: 447782688
I1127 22:55:25.070329 10202 layer_factory.hpp:77] Creating layer inception_4e/5x5_reduce
I1127 22:55:25.070490 10202 net.cpp:100] Creating Layer inception_4e/5x5_reduce
I1127 22:55:25.070523 10202 net.cpp:434] inception_4e/5x5_reduce <- inception_4d/output_inception_4d/output_0_split_2
I1127 22:55:25.070549 10202 net.cpp:408] inception_4e/5x5_reduce -> inception_4e/5x5_reduce
I1127 22:55:25.073005 10202 net.cpp:150] Setting up inception_4e/5x5_reduce
I1127 22:55:25.073058 10202 net.cpp:157] Top shape: 36 32 10 5 (57600)
I1127 22:55:25.073072 10202 net.cpp:165] Memory required for data: 448013088
I1127 22:55:25.073099 10202 layer_factory.hpp:77] Creating layer inception_4e/relu_5x5_reduce
I1127 22:55:25.073132 10202 net.cpp:100] Creating Layer inception_4e/relu_5x5_reduce
I1127 22:55:25.073146 10202 net.cpp:434] inception_4e/relu_5x5_reduce <- inception_4e/5x5_reduce
I1127 22:55:25.073163 10202 net.cpp:395] inception_4e/relu_5x5_reduce -> inception_4e/5x5_reduce (in-place)
I1127 22:55:25.073560 10202 net.cpp:150] Setting up inception_4e/relu_5x5_reduce
I1127 22:55:25.073585 10202 net.cpp:157] Top shape: 36 32 10 5 (57600)
I1127 22:55:25.073595 10202 net.cpp:165] Memory required for data: 448243488
I1127 22:55:25.073608 10202 layer_factory.hpp:77] Creating layer inception_4e/5x5
I1127 22:55:25.073632 10202 net.cpp:100] Creating Layer inception_4e/5x5
I1127 22:55:25.073649 10202 net.cpp:434] inception_4e/5x5 <- inception_4e/5x5_reduce
I1127 22:55:25.073665 10202 net.cpp:408] inception_4e/5x5 -> inception_4e/5x5
I1127 22:55:25.078331 10202 net.cpp:150] Setting up inception_4e/5x5
I1127 22:55:25.078403 10202 net.cpp:157] Top shape: 36 128 10 5 (230400)
I1127 22:55:25.078418 10202 net.cpp:165] Memory required for data: 449165088
I1127 22:55:25.078465 10202 layer_factory.hpp:77] Creating layer inception_4e/relu_5x5
I1127 22:55:25.078501 10202 net.cpp:100] Creating Layer inception_4e/relu_5x5
I1127 22:55:25.078514 10202 net.cpp:434] inception_4e/relu_5x5 <- inception_4e/5x5
I1127 22:55:25.078532 10202 net.cpp:395] inception_4e/relu_5x5 -> inception_4e/5x5 (in-place)
I1127 22:55:25.078999 10202 net.cpp:150] Setting up inception_4e/relu_5x5
I1127 22:55:25.079027 10202 net.cpp:157] Top shape: 36 128 10 5 (230400)
I1127 22:55:25.079047 10202 net.cpp:165] Memory required for data: 450086688
I1127 22:55:25.079058 10202 layer_factory.hpp:77] Creating layer inception_4e/pool
I1127 22:55:25.079087 10202 net.cpp:100] Creating Layer inception_4e/pool
I1127 22:55:25.079107 10202 net.cpp:434] inception_4e/pool <- inception_4d/output_inception_4d/output_0_split_3
I1127 22:55:25.079124 10202 net.cpp:408] inception_4e/pool -> inception_4e/pool
I1127 22:55:25.079221 10202 net.cpp:150] Setting up inception_4e/pool
I1127 22:55:25.079252 10202 net.cpp:157] Top shape: 36 528 10 5 (950400)
I1127 22:55:25.079269 10202 net.cpp:165] Memory required for data: 453888288
I1127 22:55:25.079288 10202 layer_factory.hpp:77] Creating layer inception_4e/pool_proj
I1127 22:55:25.079320 10202 net.cpp:100] Creating Layer inception_4e/pool_proj
I1127 22:55:25.079341 10202 net.cpp:434] inception_4e/pool_proj <- inception_4e/pool
I1127 22:55:25.079365 10202 net.cpp:408] inception_4e/pool_proj -> inception_4e/pool_proj
I1127 22:55:25.081429 10202 net.cpp:150] Setting up inception_4e/pool_proj
I1127 22:55:25.081486 10202 net.cpp:157] Top shape: 36 128 10 5 (230400)
I1127 22:55:25.081496 10202 net.cpp:165] Memory required for data: 454809888
I1127 22:55:25.081521 10202 layer_factory.hpp:77] Creating layer inception_4e/relu_pool_proj
I1127 22:55:25.081547 10202 net.cpp:100] Creating Layer inception_4e/relu_pool_proj
I1127 22:55:25.081567 10202 net.cpp:434] inception_4e/relu_pool_proj <- inception_4e/pool_proj
I1127 22:55:25.081586 10202 net.cpp:395] inception_4e/relu_pool_proj -> inception_4e/pool_proj (in-place)
I1127 22:55:25.082046 10202 net.cpp:150] Setting up inception_4e/relu_pool_proj
I1127 22:55:25.082083 10202 net.cpp:157] Top shape: 36 128 10 5 (230400)
I1127 22:55:25.082095 10202 net.cpp:165] Memory required for data: 455731488
I1127 22:55:25.082113 10202 layer_factory.hpp:77] Creating layer inception_4e/output
I1127 22:55:25.082139 10202 net.cpp:100] Creating Layer inception_4e/output
I1127 22:55:25.082156 10202 net.cpp:434] inception_4e/output <- inception_4e/1x1
I1127 22:55:25.082166 10202 net.cpp:434] inception_4e/output <- inception_4e/3x3
I1127 22:55:25.082185 10202 net.cpp:434] inception_4e/output <- inception_4e/5x5
I1127 22:55:25.082201 10202 net.cpp:434] inception_4e/output <- inception_4e/pool_proj
I1127 22:55:25.082221 10202 net.cpp:408] inception_4e/output -> inception_4e/output
I1127 22:55:25.082290 10202 net.cpp:150] Setting up inception_4e/output
I1127 22:55:25.082315 10202 net.cpp:157] Top shape: 36 832 10 5 (1497600)
I1127 22:55:25.082341 10202 net.cpp:165] Memory required for data: 461721888
I1127 22:55:25.082352 10202 layer_factory.hpp:77] Creating layer inception_4e/output_inception_4e/output_0_split
I1127 22:55:25.082370 10202 net.cpp:100] Creating Layer inception_4e/output_inception_4e/output_0_split
I1127 22:55:25.082381 10202 net.cpp:434] inception_4e/output_inception_4e/output_0_split <- inception_4e/output
I1127 22:55:25.082396 10202 net.cpp:408] inception_4e/output_inception_4e/output_0_split -> inception_4e/output_inception_4e/output_0_split_0
I1127 22:55:25.082414 10202 net.cpp:408] inception_4e/output_inception_4e/output_0_split -> inception_4e/output_inception_4e/output_0_split_1
I1127 22:55:25.082427 10202 net.cpp:408] inception_4e/output_inception_4e/output_0_split -> inception_4e/output_inception_4e/output_0_split_2
I1127 22:55:25.082439 10202 net.cpp:408] inception_4e/output_inception_4e/output_0_split -> inception_4e/output_inception_4e/output_0_split_3
I1127 22:55:25.082571 10202 net.cpp:150] Setting up inception_4e/output_inception_4e/output_0_split
I1127 22:55:25.082599 10202 net.cpp:157] Top shape: 36 832 10 5 (1497600)
I1127 22:55:25.082617 10202 net.cpp:157] Top shape: 36 832 10 5 (1497600)
I1127 22:55:25.082628 10202 net.cpp:157] Top shape: 36 832 10 5 (1497600)
I1127 22:55:25.082644 10202 net.cpp:157] Top shape: 36 832 10 5 (1497600)
I1127 22:55:25.082654 10202 net.cpp:165] Memory required for data: 485683488
I1127 22:55:25.082669 10202 layer_factory.hpp:77] Creating layer inception_5a/1x1
I1127 22:55:25.082695 10202 net.cpp:100] Creating Layer inception_5a/1x1
I1127 22:55:25.082713 10202 net.cpp:434] inception_5a/1x1 <- inception_4e/output_inception_4e/output_0_split_0
I1127 22:55:25.082736 10202 net.cpp:408] inception_5a/1x1 -> inception_5a/1x1
I1127 22:55:25.086973 10202 net.cpp:150] Setting up inception_5a/1x1
I1127 22:55:25.087044 10202 net.cpp:157] Top shape: 36 256 10 5 (460800)
I1127 22:55:25.087072 10202 net.cpp:165] Memory required for data: 487526688
I1127 22:55:25.087100 10202 layer_factory.hpp:77] Creating layer inception_5a/relu_1x1
I1127 22:55:25.087127 10202 net.cpp:100] Creating Layer inception_5a/relu_1x1
I1127 22:55:25.087152 10202 net.cpp:434] inception_5a/relu_1x1 <- inception_5a/1x1
I1127 22:55:25.087173 10202 net.cpp:395] inception_5a/relu_1x1 -> inception_5a/1x1 (in-place)
I1127 22:55:25.087424 10202 net.cpp:150] Setting up inception_5a/relu_1x1
I1127 22:55:25.087445 10202 net.cpp:157] Top shape: 36 256 10 5 (460800)
I1127 22:55:25.087461 10202 net.cpp:165] Memory required for data: 489369888
I1127 22:55:25.087479 10202 layer_factory.hpp:77] Creating layer inception_5a/3x3_reduce
I1127 22:55:25.087514 10202 net.cpp:100] Creating Layer inception_5a/3x3_reduce
I1127 22:55:25.087537 10202 net.cpp:434] inception_5a/3x3_reduce <- inception_4e/output_inception_4e/output_0_split_1
I1127 22:55:25.087551 10202 net.cpp:408] inception_5a/3x3_reduce -> inception_5a/3x3_reduce
I1127 22:55:25.091120 10202 net.cpp:150] Setting up inception_5a/3x3_reduce
I1127 22:55:25.091192 10202 net.cpp:157] Top shape: 36 160 10 5 (288000)
I1127 22:55:25.091219 10202 net.cpp:165] Memory required for data: 490521888
I1127 22:55:25.091248 10202 layer_factory.hpp:77] Creating layer inception_5a/relu_3x3_reduce
I1127 22:55:25.091274 10202 net.cpp:100] Creating Layer inception_5a/relu_3x3_reduce
I1127 22:55:25.091310 10202 net.cpp:434] inception_5a/relu_3x3_reduce <- inception_5a/3x3_reduce
I1127 22:55:25.091331 10202 net.cpp:395] inception_5a/relu_3x3_reduce -> inception_5a/3x3_reduce (in-place)
I1127 22:55:25.091922 10202 net.cpp:150] Setting up inception_5a/relu_3x3_reduce
I1127 22:55:25.091960 10202 net.cpp:157] Top shape: 36 160 10 5 (288000)
I1127 22:55:25.091979 10202 net.cpp:165] Memory required for data: 491673888
I1127 22:55:25.092002 10202 layer_factory.hpp:77] Creating layer inception_5a/3x3
I1127 22:55:25.092033 10202 net.cpp:100] Creating Layer inception_5a/3x3
I1127 22:55:25.092053 10202 net.cpp:434] inception_5a/3x3 <- inception_5a/3x3_reduce
I1127 22:55:25.092090 10202 net.cpp:408] inception_5a/3x3 -> inception_5a/3x3
I1127 22:55:25.104002 10202 net.cpp:150] Setting up inception_5a/3x3
I1127 22:55:25.104060 10202 net.cpp:157] Top shape: 36 320 10 5 (576000)
I1127 22:55:25.104074 10202 net.cpp:165] Memory required for data: 493977888
I1127 22:55:25.104099 10202 layer_factory.hpp:77] Creating layer inception_5a/relu_3x3
I1127 22:55:25.104117 10202 net.cpp:100] Creating Layer inception_5a/relu_3x3
I1127 22:55:25.104132 10202 net.cpp:434] inception_5a/relu_3x3 <- inception_5a/3x3
I1127 22:55:25.104149 10202 net.cpp:395] inception_5a/relu_3x3 -> inception_5a/3x3 (in-place)
I1127 22:55:25.105131 10202 net.cpp:150] Setting up inception_5a/relu_3x3
I1127 22:55:25.105156 10202 net.cpp:157] Top shape: 36 320 10 5 (576000)
I1127 22:55:25.105168 10202 net.cpp:165] Memory required for data: 496281888
I1127 22:55:25.105180 10202 layer_factory.hpp:77] Creating layer inception_5a/5x5_reduce
I1127 22:55:25.105202 10202 net.cpp:100] Creating Layer inception_5a/5x5_reduce
I1127 22:55:25.105216 10202 net.cpp:434] inception_5a/5x5_reduce <- inception_4e/output_inception_4e/output_0_split_2
I1127 22:55:25.105249 10202 net.cpp:408] inception_5a/5x5_reduce -> inception_5a/5x5_reduce
I1127 22:55:25.107292 10202 net.cpp:150] Setting up inception_5a/5x5_reduce
I1127 22:55:25.107341 10202 net.cpp:157] Top shape: 36 32 10 5 (57600)
I1127 22:55:25.107352 10202 net.cpp:165] Memory required for data: 496512288
I1127 22:55:25.107386 10202 layer_factory.hpp:77] Creating layer inception_5a/relu_5x5_reduce
I1127 22:55:25.107416 10202 net.cpp:100] Creating Layer inception_5a/relu_5x5_reduce
I1127 22:55:25.107437 10202 net.cpp:434] inception_5a/relu_5x5_reduce <- inception_5a/5x5_reduce
I1127 22:55:25.107461 10202 net.cpp:395] inception_5a/relu_5x5_reduce -> inception_5a/5x5_reduce (in-place)
I1127 22:55:25.107723 10202 net.cpp:150] Setting up inception_5a/relu_5x5_reduce
I1127 22:55:25.107756 10202 net.cpp:157] Top shape: 36 32 10 5 (57600)
I1127 22:55:25.107775 10202 net.cpp:165] Memory required for data: 496742688
I1127 22:55:25.107796 10202 layer_factory.hpp:77] Creating layer inception_5a/5x5
I1127 22:55:25.107822 10202 net.cpp:100] Creating Layer inception_5a/5x5
I1127 22:55:25.107832 10202 net.cpp:434] inception_5a/5x5 <- inception_5a/5x5_reduce
I1127 22:55:25.107856 10202 net.cpp:408] inception_5a/5x5 -> inception_5a/5x5
I1127 22:55:25.110445 10202 net.cpp:150] Setting up inception_5a/5x5
I1127 22:55:25.110497 10202 net.cpp:157] Top shape: 36 128 10 5 (230400)
I1127 22:55:25.110517 10202 net.cpp:165] Memory required for data: 497664288
I1127 22:55:25.110538 10202 layer_factory.hpp:77] Creating layer inception_5a/relu_5x5
I1127 22:55:25.110553 10202 net.cpp:100] Creating Layer inception_5a/relu_5x5
I1127 22:55:25.110563 10202 net.cpp:434] inception_5a/relu_5x5 <- inception_5a/5x5
I1127 22:55:25.110579 10202 net.cpp:395] inception_5a/relu_5x5 -> inception_5a/5x5 (in-place)
I1127 22:55:25.110960 10202 net.cpp:150] Setting up inception_5a/relu_5x5
I1127 22:55:25.110996 10202 net.cpp:157] Top shape: 36 128 10 5 (230400)
I1127 22:55:25.111012 10202 net.cpp:165] Memory required for data: 498585888
I1127 22:55:25.111022 10202 layer_factory.hpp:77] Creating layer inception_5a/pool
I1127 22:55:25.111052 10202 net.cpp:100] Creating Layer inception_5a/pool
I1127 22:55:25.111064 10202 net.cpp:434] inception_5a/pool <- inception_4e/output_inception_4e/output_0_split_3
I1127 22:55:25.111085 10202 net.cpp:408] inception_5a/pool -> inception_5a/pool
I1127 22:55:25.111191 10202 net.cpp:150] Setting up inception_5a/pool
I1127 22:55:25.111225 10202 net.cpp:157] Top shape: 36 832 10 5 (1497600)
I1127 22:55:25.111233 10202 net.cpp:165] Memory required for data: 504576288
I1127 22:55:25.111260 10202 layer_factory.hpp:77] Creating layer inception_5a/pool_proj
I1127 22:55:25.111310 10202 net.cpp:100] Creating Layer inception_5a/pool_proj
I1127 22:55:25.111342 10202 net.cpp:434] inception_5a/pool_proj <- inception_5a/pool
I1127 22:55:25.111366 10202 net.cpp:408] inception_5a/pool_proj -> inception_5a/pool_proj
I1127 22:55:25.114843 10202 net.cpp:150] Setting up inception_5a/pool_proj
I1127 22:55:25.114904 10202 net.cpp:157] Top shape: 36 128 10 5 (230400)
I1127 22:55:25.114917 10202 net.cpp:165] Memory required for data: 505497888
I1127 22:55:25.114936 10202 layer_factory.hpp:77] Creating layer inception_5a/relu_pool_proj
I1127 22:55:25.114955 10202 net.cpp:100] Creating Layer inception_5a/relu_pool_proj
I1127 22:55:25.114967 10202 net.cpp:434] inception_5a/relu_pool_proj <- inception_5a/pool_proj
I1127 22:55:25.114980 10202 net.cpp:395] inception_5a/relu_pool_proj -> inception_5a/pool_proj (in-place)
I1127 22:55:25.115563 10202 net.cpp:150] Setting up inception_5a/relu_pool_proj
I1127 22:55:25.115708 10202 net.cpp:157] Top shape: 36 128 10 5 (230400)
I1127 22:55:25.115737 10202 net.cpp:165] Memory required for data: 506419488
I1127 22:55:25.115756 10202 layer_factory.hpp:77] Creating layer inception_5a/output
I1127 22:55:25.115782 10202 net.cpp:100] Creating Layer inception_5a/output
I1127 22:55:25.115800 10202 net.cpp:434] inception_5a/output <- inception_5a/1x1
I1127 22:55:25.115821 10202 net.cpp:434] inception_5a/output <- inception_5a/3x3
I1127 22:55:25.115856 10202 net.cpp:434] inception_5a/output <- inception_5a/5x5
I1127 22:55:25.115869 10202 net.cpp:434] inception_5a/output <- inception_5a/pool_proj
I1127 22:55:25.115883 10202 net.cpp:408] inception_5a/output -> inception_5a/output
I1127 22:55:25.115957 10202 net.cpp:150] Setting up inception_5a/output
I1127 22:55:25.115986 10202 net.cpp:157] Top shape: 36 832 10 5 (1497600)
I1127 22:55:25.115998 10202 net.cpp:165] Memory required for data: 512409888
I1127 22:55:25.116008 10202 layer_factory.hpp:77] Creating layer inception_5a/output_inception_5a/output_0_split
I1127 22:55:25.116020 10202 net.cpp:100] Creating Layer inception_5a/output_inception_5a/output_0_split
I1127 22:55:25.116030 10202 net.cpp:434] inception_5a/output_inception_5a/output_0_split <- inception_5a/output
I1127 22:55:25.116042 10202 net.cpp:408] inception_5a/output_inception_5a/output_0_split -> inception_5a/output_inception_5a/output_0_split_0
I1127 22:55:25.116055 10202 net.cpp:408] inception_5a/output_inception_5a/output_0_split -> inception_5a/output_inception_5a/output_0_split_1
I1127 22:55:25.116072 10202 net.cpp:408] inception_5a/output_inception_5a/output_0_split -> inception_5a/output_inception_5a/output_0_split_2
I1127 22:55:25.116089 10202 net.cpp:408] inception_5a/output_inception_5a/output_0_split -> inception_5a/output_inception_5a/output_0_split_3
I1127 22:55:25.116358 10202 net.cpp:150] Setting up inception_5a/output_inception_5a/output_0_split
I1127 22:55:25.116392 10202 net.cpp:157] Top shape: 36 832 10 5 (1497600)
I1127 22:55:25.116405 10202 net.cpp:157] Top shape: 36 832 10 5 (1497600)
I1127 22:55:25.116415 10202 net.cpp:157] Top shape: 36 832 10 5 (1497600)
I1127 22:55:25.116425 10202 net.cpp:157] Top shape: 36 832 10 5 (1497600)
I1127 22:55:25.116435 10202 net.cpp:165] Memory required for data: 536371488
I1127 22:55:25.116447 10202 layer_factory.hpp:77] Creating layer inception_5b/1x1
I1127 22:55:25.116468 10202 net.cpp:100] Creating Layer inception_5b/1x1
I1127 22:55:25.116487 10202 net.cpp:434] inception_5b/1x1 <- inception_5a/output_inception_5a/output_0_split_0
I1127 22:55:25.116505 10202 net.cpp:408] inception_5b/1x1 -> inception_5b/1x1
I1127 22:55:25.123111 10202 net.cpp:150] Setting up inception_5b/1x1
I1127 22:55:25.123167 10202 net.cpp:157] Top shape: 36 384 10 5 (691200)
I1127 22:55:25.123186 10202 net.cpp:165] Memory required for data: 539136288
I1127 22:55:25.123211 10202 layer_factory.hpp:77] Creating layer inception_5b/relu_1x1
I1127 22:55:25.123239 10202 net.cpp:100] Creating Layer inception_5b/relu_1x1
I1127 22:55:25.123258 10202 net.cpp:434] inception_5b/relu_1x1 <- inception_5b/1x1
I1127 22:55:25.123271 10202 net.cpp:395] inception_5b/relu_1x1 -> inception_5b/1x1 (in-place)
I1127 22:55:25.123533 10202 net.cpp:150] Setting up inception_5b/relu_1x1
I1127 22:55:25.123553 10202 net.cpp:157] Top shape: 36 384 10 5 (691200)
I1127 22:55:25.123563 10202 net.cpp:165] Memory required for data: 541901088
I1127 22:55:25.123582 10202 layer_factory.hpp:77] Creating layer inception_5b/3x3_reduce
I1127 22:55:25.123608 10202 net.cpp:100] Creating Layer inception_5b/3x3_reduce
I1127 22:55:25.123620 10202 net.cpp:434] inception_5b/3x3_reduce <- inception_5a/output_inception_5a/output_0_split_1
I1127 22:55:25.123636 10202 net.cpp:408] inception_5b/3x3_reduce -> inception_5b/3x3_reduce
I1127 22:55:25.127583 10202 net.cpp:150] Setting up inception_5b/3x3_reduce
I1127 22:55:25.127648 10202 net.cpp:157] Top shape: 36 192 10 5 (345600)
I1127 22:55:25.127670 10202 net.cpp:165] Memory required for data: 543283488
I1127 22:55:25.127703 10202 layer_factory.hpp:77] Creating layer inception_5b/relu_3x3_reduce
I1127 22:55:25.127723 10202 net.cpp:100] Creating Layer inception_5b/relu_3x3_reduce
I1127 22:55:25.127738 10202 net.cpp:434] inception_5b/relu_3x3_reduce <- inception_5b/3x3_reduce
I1127 22:55:25.127754 10202 net.cpp:395] inception_5b/relu_3x3_reduce -> inception_5b/3x3_reduce (in-place)
I1127 22:55:25.128226 10202 net.cpp:150] Setting up inception_5b/relu_3x3_reduce
I1127 22:55:25.128270 10202 net.cpp:157] Top shape: 36 192 10 5 (345600)
I1127 22:55:25.128298 10202 net.cpp:165] Memory required for data: 544665888
I1127 22:55:25.128315 10202 layer_factory.hpp:77] Creating layer inception_5b/3x3
I1127 22:55:25.128346 10202 net.cpp:100] Creating Layer inception_5b/3x3
I1127 22:55:25.128376 10202 net.cpp:434] inception_5b/3x3 <- inception_5b/3x3_reduce
I1127 22:55:25.128399 10202 net.cpp:408] inception_5b/3x3 -> inception_5b/3x3
I1127 22:55:25.137112 10202 net.cpp:150] Setting up inception_5b/3x3
I1127 22:55:25.137176 10202 net.cpp:157] Top shape: 36 384 10 5 (691200)
I1127 22:55:25.137192 10202 net.cpp:165] Memory required for data: 547430688
I1127 22:55:25.137212 10202 layer_factory.hpp:77] Creating layer inception_5b/relu_3x3
I1127 22:55:25.137238 10202 net.cpp:100] Creating Layer inception_5b/relu_3x3
I1127 22:55:25.137254 10202 net.cpp:434] inception_5b/relu_3x3 <- inception_5b/3x3
I1127 22:55:25.137267 10202 net.cpp:395] inception_5b/relu_3x3 -> inception_5b/3x3 (in-place)
I1127 22:55:25.137732 10202 net.cpp:150] Setting up inception_5b/relu_3x3
I1127 22:55:25.137753 10202 net.cpp:157] Top shape: 36 384 10 5 (691200)
I1127 22:55:25.137764 10202 net.cpp:165] Memory required for data: 550195488
I1127 22:55:25.137775 10202 layer_factory.hpp:77] Creating layer inception_5b/5x5_reduce
I1127 22:55:25.137801 10202 net.cpp:100] Creating Layer inception_5b/5x5_reduce
I1127 22:55:25.137856 10202 net.cpp:434] inception_5b/5x5_reduce <- inception_5a/output_inception_5a/output_0_split_2
I1127 22:55:25.137871 10202 net.cpp:408] inception_5b/5x5_reduce -> inception_5b/5x5_reduce
I1127 22:55:25.139910 10202 net.cpp:150] Setting up inception_5b/5x5_reduce
I1127 22:55:25.139950 10202 net.cpp:157] Top shape: 36 48 10 5 (86400)
I1127 22:55:25.139963 10202 net.cpp:165] Memory required for data: 550541088
I1127 22:55:25.139987 10202 layer_factory.hpp:77] Creating layer inception_5b/relu_5x5_reduce
I1127 22:55:25.140010 10202 net.cpp:100] Creating Layer inception_5b/relu_5x5_reduce
I1127 22:55:25.140033 10202 net.cpp:434] inception_5b/relu_5x5_reduce <- inception_5b/5x5_reduce
I1127 22:55:25.140051 10202 net.cpp:395] inception_5b/relu_5x5_reduce -> inception_5b/5x5_reduce (in-place)
I1127 22:55:25.140480 10202 net.cpp:150] Setting up inception_5b/relu_5x5_reduce
I1127 22:55:25.140516 10202 net.cpp:157] Top shape: 36 48 10 5 (86400)
I1127 22:55:25.140527 10202 net.cpp:165] Memory required for data: 550886688
I1127 22:55:25.140535 10202 layer_factory.hpp:77] Creating layer inception_5b/5x5
I1127 22:55:25.140558 10202 net.cpp:100] Creating Layer inception_5b/5x5
I1127 22:55:25.140570 10202 net.cpp:434] inception_5b/5x5 <- inception_5b/5x5_reduce
I1127 22:55:25.140586 10202 net.cpp:408] inception_5b/5x5 -> inception_5b/5x5
I1127 22:55:25.143561 10202 net.cpp:150] Setting up inception_5b/5x5
I1127 22:55:25.143610 10202 net.cpp:157] Top shape: 36 128 10 5 (230400)
I1127 22:55:25.143630 10202 net.cpp:165] Memory required for data: 551808288
I1127 22:55:25.143666 10202 layer_factory.hpp:77] Creating layer inception_5b/relu_5x5
I1127 22:55:25.143695 10202 net.cpp:100] Creating Layer inception_5b/relu_5x5
I1127 22:55:25.143718 10202 net.cpp:434] inception_5b/relu_5x5 <- inception_5b/5x5
I1127 22:55:25.143734 10202 net.cpp:395] inception_5b/relu_5x5 -> inception_5b/5x5 (in-place)
I1127 22:55:25.144143 10202 net.cpp:150] Setting up inception_5b/relu_5x5
I1127 22:55:25.144162 10202 net.cpp:157] Top shape: 36 128 10 5 (230400)
I1127 22:55:25.144170 10202 net.cpp:165] Memory required for data: 552729888
I1127 22:55:25.144177 10202 layer_factory.hpp:77] Creating layer inception_5b/pool
I1127 22:55:25.144189 10202 net.cpp:100] Creating Layer inception_5b/pool
I1127 22:55:25.144198 10202 net.cpp:434] inception_5b/pool <- inception_5a/output_inception_5a/output_0_split_3
I1127 22:55:25.144210 10202 net.cpp:408] inception_5b/pool -> inception_5b/pool
I1127 22:55:25.144304 10202 net.cpp:150] Setting up inception_5b/pool
I1127 22:55:25.144321 10202 net.cpp:157] Top shape: 36 832 10 5 (1497600)
I1127 22:55:25.144330 10202 net.cpp:165] Memory required for data: 558720288
I1127 22:55:25.144351 10202 layer_factory.hpp:77] Creating layer inception_5b/pool_proj
I1127 22:55:25.144371 10202 net.cpp:100] Creating Layer inception_5b/pool_proj
I1127 22:55:25.144379 10202 net.cpp:434] inception_5b/pool_proj <- inception_5b/pool
I1127 22:55:25.144395 10202 net.cpp:408] inception_5b/pool_proj -> inception_5b/pool_proj
I1127 22:55:25.159041 10202 net.cpp:150] Setting up inception_5b/pool_proj
I1127 22:55:25.159101 10202 net.cpp:157] Top shape: 36 128 10 5 (230400)
I1127 22:55:25.159116 10202 net.cpp:165] Memory required for data: 559641888
I1127 22:55:25.159138 10202 layer_factory.hpp:77] Creating layer inception_5b/relu_pool_proj
I1127 22:55:25.159169 10202 net.cpp:100] Creating Layer inception_5b/relu_pool_proj
I1127 22:55:25.159185 10202 net.cpp:434] inception_5b/relu_pool_proj <- inception_5b/pool_proj
I1127 22:55:25.159201 10202 net.cpp:395] inception_5b/relu_pool_proj -> inception_5b/pool_proj (in-place)
I1127 22:55:25.159795 10202 net.cpp:150] Setting up inception_5b/relu_pool_proj
I1127 22:55:25.159832 10202 net.cpp:157] Top shape: 36 128 10 5 (230400)
I1127 22:55:25.159858 10202 net.cpp:165] Memory required for data: 560563488
I1127 22:55:25.159875 10202 layer_factory.hpp:77] Creating layer inception_5b/output
I1127 22:55:25.159893 10202 net.cpp:100] Creating Layer inception_5b/output
I1127 22:55:25.159904 10202 net.cpp:434] inception_5b/output <- inception_5b/1x1
I1127 22:55:25.159914 10202 net.cpp:434] inception_5b/output <- inception_5b/3x3
I1127 22:55:25.159924 10202 net.cpp:434] inception_5b/output <- inception_5b/5x5
I1127 22:55:25.159934 10202 net.cpp:434] inception_5b/output <- inception_5b/pool_proj
I1127 22:55:25.159946 10202 net.cpp:408] inception_5b/output -> inception_5b/output
I1127 22:55:25.160019 10202 net.cpp:150] Setting up inception_5b/output
I1127 22:55:25.160037 10202 net.cpp:157] Top shape: 36 1024 10 5 (1843200)
I1127 22:55:25.160046 10202 net.cpp:165] Memory required for data: 567936288
I1127 22:55:25.160058 10202 layer_factory.hpp:77] Creating layer conv1/7x7_s2_p
I1127 22:55:25.160079 10202 net.cpp:100] Creating Layer conv1/7x7_s2_p
I1127 22:55:25.160090 10202 net.cpp:434] conv1/7x7_s2_p <- data_p
I1127 22:55:25.160104 10202 net.cpp:408] conv1/7x7_s2_p -> conv1/7x7_s2_p
I1127 22:55:25.162220 10202 net.cpp:150] Setting up conv1/7x7_s2_p
I1127 22:55:25.162266 10202 net.cpp:157] Top shape: 36 64 80 40 (7372800)
I1127 22:55:25.162287 10202 net.cpp:165] Memory required for data: 597427488
I1127 22:55:25.162300 10202 net.cpp:493] Sharing parameters 'conv1/7x7_s2_w' owned by layer 'conv1/7x7_s2', param index 0
I1127 22:55:25.162312 10202 net.cpp:493] Sharing parameters 'conv1/7x7_s2_b' owned by layer 'conv1/7x7_s2', param index 1
I1127 22:55:25.162327 10202 layer_factory.hpp:77] Creating layer conv1/relu_7x7_p
I1127 22:55:25.162345 10202 net.cpp:100] Creating Layer conv1/relu_7x7_p
I1127 22:55:25.162359 10202 net.cpp:434] conv1/relu_7x7_p <- conv1/7x7_s2_p
I1127 22:55:25.162382 10202 net.cpp:395] conv1/relu_7x7_p -> conv1/7x7_s2_p (in-place)
I1127 22:55:25.162783 10202 net.cpp:150] Setting up conv1/relu_7x7_p
I1127 22:55:25.162804 10202 net.cpp:157] Top shape: 36 64 80 40 (7372800)
I1127 22:55:25.162814 10202 net.cpp:165] Memory required for data: 626918688
I1127 22:55:25.162825 10202 layer_factory.hpp:77] Creating layer pool1/3x3_s2_p
I1127 22:55:25.162843 10202 net.cpp:100] Creating Layer pool1/3x3_s2_p
I1127 22:55:25.162853 10202 net.cpp:434] pool1/3x3_s2_p <- conv1/7x7_s2_p
I1127 22:55:25.162866 10202 net.cpp:408] pool1/3x3_s2_p -> pool1/3x3_s2_p
I1127 22:55:25.162961 10202 net.cpp:150] Setting up pool1/3x3_s2_p
I1127 22:55:25.162978 10202 net.cpp:157] Top shape: 36 64 40 20 (1843200)
I1127 22:55:25.162988 10202 net.cpp:165] Memory required for data: 634291488
I1127 22:55:25.162998 10202 layer_factory.hpp:77] Creating layer pool1/norm1_p
I1127 22:55:25.163012 10202 net.cpp:100] Creating Layer pool1/norm1_p
I1127 22:55:25.163022 10202 net.cpp:434] pool1/norm1_p <- pool1/3x3_s2_p
I1127 22:55:25.163038 10202 net.cpp:408] pool1/norm1_p -> pool1/norm1_p
I1127 22:55:25.163902 10202 net.cpp:150] Setting up pool1/norm1_p
I1127 22:55:25.163931 10202 net.cpp:157] Top shape: 36 64 40 20 (1843200)
I1127 22:55:25.163944 10202 net.cpp:165] Memory required for data: 641664288
I1127 22:55:25.163954 10202 layer_factory.hpp:77] Creating layer conv2/3x3_reduce_p
I1127 22:55:25.163978 10202 net.cpp:100] Creating Layer conv2/3x3_reduce_p
I1127 22:55:25.163993 10202 net.cpp:434] conv2/3x3_reduce_p <- pool1/norm1_p
I1127 22:55:25.164008 10202 net.cpp:408] conv2/3x3_reduce_p -> conv2/3x3_reduce_p
I1127 22:55:25.166930 10202 net.cpp:150] Setting up conv2/3x3_reduce_p
I1127 22:55:25.166990 10202 net.cpp:157] Top shape: 36 64 40 20 (1843200)
I1127 22:55:25.167003 10202 net.cpp:165] Memory required for data: 649037088
I1127 22:55:25.167018 10202 net.cpp:493] Sharing parameters 'conv2/3x3_reduce_w' owned by layer 'conv2/3x3_reduce', param index 0
I1127 22:55:25.167032 10202 net.cpp:493] Sharing parameters 'conv2/3x3_reduce_b' owned by layer 'conv2/3x3_reduce', param index 1
I1127 22:55:25.167052 10202 layer_factory.hpp:77] Creating layer conv2/relu_3x3_reduce_p
I1127 22:55:25.167074 10202 net.cpp:100] Creating Layer conv2/relu_3x3_reduce_p
I1127 22:55:25.167088 10202 net.cpp:434] conv2/relu_3x3_reduce_p <- conv2/3x3_reduce_p
I1127 22:55:25.167100 10202 net.cpp:395] conv2/relu_3x3_reduce_p -> conv2/3x3_reduce_p (in-place)
I1127 22:55:25.167639 10202 net.cpp:150] Setting up conv2/relu_3x3_reduce_p
I1127 22:55:25.167662 10202 net.cpp:157] Top shape: 36 64 40 20 (1843200)
I1127 22:55:25.167673 10202 net.cpp:165] Memory required for data: 656409888
I1127 22:55:25.167685 10202 layer_factory.hpp:77] Creating layer conv2/3x3_p
I1127 22:55:25.167709 10202 net.cpp:100] Creating Layer conv2/3x3_p
I1127 22:55:25.167724 10202 net.cpp:434] conv2/3x3_p <- conv2/3x3_reduce_p
I1127 22:55:25.167738 10202 net.cpp:408] conv2/3x3_p -> conv2/3x3_p
I1127 22:55:25.170904 10202 net.cpp:150] Setting up conv2/3x3_p
I1127 22:55:25.170967 10202 net.cpp:157] Top shape: 36 192 40 20 (5529600)
I1127 22:55:25.170981 10202 net.cpp:165] Memory required for data: 678528288
I1127 22:55:25.170995 10202 net.cpp:493] Sharing parameters 'conv2/3x3_w' owned by layer 'conv2/3x3', param index 0
I1127 22:55:25.171008 10202 net.cpp:493] Sharing parameters 'conv2/3x3_b' owned by layer 'conv2/3x3', param index 1
I1127 22:55:25.171018 10202 layer_factory.hpp:77] Creating layer conv2/relu_3x3_p
I1127 22:55:25.171041 10202 net.cpp:100] Creating Layer conv2/relu_3x3_p
I1127 22:55:25.171056 10202 net.cpp:434] conv2/relu_3x3_p <- conv2/3x3_p
I1127 22:55:25.171068 10202 net.cpp:395] conv2/relu_3x3_p -> conv2/3x3_p (in-place)
I1127 22:55:25.171349 10202 net.cpp:150] Setting up conv2/relu_3x3_p
I1127 22:55:25.171368 10202 net.cpp:157] Top shape: 36 192 40 20 (5529600)
I1127 22:55:25.171377 10202 net.cpp:165] Memory required for data: 700646688
I1127 22:55:25.171397 10202 layer_factory.hpp:77] Creating layer pool2/3x3_s2_p
I1127 22:55:25.171419 10202 net.cpp:100] Creating Layer pool2/3x3_s2_p
I1127 22:55:25.171448 10202 net.cpp:434] pool2/3x3_s2_p <- conv2/3x3_p
I1127 22:55:25.171475 10202 net.cpp:408] pool2/3x3_s2_p -> pool2/3x3_s2_p
I1127 22:55:25.171584 10202 net.cpp:150] Setting up pool2/3x3_s2_p
I1127 22:55:25.171617 10202 net.cpp:157] Top shape: 36 192 20 10 (1382400)
I1127 22:55:25.171634 10202 net.cpp:165] Memory required for data: 706176288
I1127 22:55:25.171644 10202 layer_factory.hpp:77] Creating layer pool2/3x3_s2_p_pool2/3x3_s2_p_0_split
I1127 22:55:25.171669 10202 net.cpp:100] Creating Layer pool2/3x3_s2_p_pool2/3x3_s2_p_0_split
I1127 22:55:25.171685 10202 net.cpp:434] pool2/3x3_s2_p_pool2/3x3_s2_p_0_split <- pool2/3x3_s2_p
I1127 22:55:25.171705 10202 net.cpp:408] pool2/3x3_s2_p_pool2/3x3_s2_p_0_split -> pool2/3x3_s2_p_pool2/3x3_s2_p_0_split_0
I1127 22:55:25.171728 10202 net.cpp:408] pool2/3x3_s2_p_pool2/3x3_s2_p_0_split -> pool2/3x3_s2_p_pool2/3x3_s2_p_0_split_1
I1127 22:55:25.171742 10202 net.cpp:408] pool2/3x3_s2_p_pool2/3x3_s2_p_0_split -> pool2/3x3_s2_p_pool2/3x3_s2_p_0_split_2
I1127 22:55:25.171766 10202 net.cpp:408] pool2/3x3_s2_p_pool2/3x3_s2_p_0_split -> pool2/3x3_s2_p_pool2/3x3_s2_p_0_split_3
I1127 22:55:25.171936 10202 net.cpp:150] Setting up pool2/3x3_s2_p_pool2/3x3_s2_p_0_split
I1127 22:55:25.171955 10202 net.cpp:157] Top shape: 36 192 20 10 (1382400)
I1127 22:55:25.171967 10202 net.cpp:157] Top shape: 36 192 20 10 (1382400)
I1127 22:55:25.171977 10202 net.cpp:157] Top shape: 36 192 20 10 (1382400)
I1127 22:55:25.171988 10202 net.cpp:157] Top shape: 36 192 20 10 (1382400)
I1127 22:55:25.171998 10202 net.cpp:165] Memory required for data: 728294688
I1127 22:55:25.172008 10202 layer_factory.hpp:77] Creating layer inception_3a/1x1_p
I1127 22:55:25.172031 10202 net.cpp:100] Creating Layer inception_3a/1x1_p
I1127 22:55:25.172049 10202 net.cpp:434] inception_3a/1x1_p <- pool2/3x3_s2_p_pool2/3x3_s2_p_0_split_0
I1127 22:55:25.172072 10202 net.cpp:408] inception_3a/1x1_p -> inception_3a/1x1_p
I1127 22:55:25.174135 10202 net.cpp:150] Setting up inception_3a/1x1_p
I1127 22:55:25.174178 10202 net.cpp:157] Top shape: 36 64 20 10 (460800)
I1127 22:55:25.174191 10202 net.cpp:165] Memory required for data: 730137888
I1127 22:55:25.174207 10202 net.cpp:493] Sharing parameters 'inception_3a/1x1_w' owned by layer 'inception_3a/1x1', param index 0
I1127 22:55:25.174228 10202 net.cpp:493] Sharing parameters 'inception_3a/1x1_b' owned by layer 'inception_3a/1x1', param index 1
I1127 22:55:25.174240 10202 layer_factory.hpp:77] Creating layer inception_3a/relu_1x1_p
I1127 22:55:25.174262 10202 net.cpp:100] Creating Layer inception_3a/relu_1x1_p
I1127 22:55:25.174283 10202 net.cpp:434] inception_3a/relu_1x1_p <- inception_3a/1x1_p
I1127 22:55:25.174299 10202 net.cpp:395] inception_3a/relu_1x1_p -> inception_3a/1x1_p (in-place)
I1127 22:55:25.174772 10202 net.cpp:150] Setting up inception_3a/relu_1x1_p
I1127 22:55:25.174801 10202 net.cpp:157] Top shape: 36 64 20 10 (460800)
I1127 22:55:25.174829 10202 net.cpp:165] Memory required for data: 731981088
I1127 22:55:25.174852 10202 layer_factory.hpp:77] Creating layer inception_3a/3x3_reduce_p
I1127 22:55:25.174875 10202 net.cpp:100] Creating Layer inception_3a/3x3_reduce_p
I1127 22:55:25.174890 10202 net.cpp:434] inception_3a/3x3_reduce_p <- pool2/3x3_s2_p_pool2/3x3_s2_p_0_split_1
I1127 22:55:25.174904 10202 net.cpp:408] inception_3a/3x3_reduce_p -> inception_3a/3x3_reduce_p
I1127 22:55:25.176890 10202 net.cpp:150] Setting up inception_3a/3x3_reduce_p
I1127 22:55:25.176939 10202 net.cpp:157] Top shape: 36 96 20 10 (691200)
I1127 22:55:25.176957 10202 net.cpp:165] Memory required for data: 734745888
I1127 22:55:25.176971 10202 net.cpp:493] Sharing parameters 'inception_3a/3x3_reduce_w' owned by layer 'inception_3a/3x3_reduce', param index 0
I1127 22:55:25.176986 10202 net.cpp:493] Sharing parameters 'inception_3a/3x3_reduce_b' owned by layer 'inception_3a/3x3_reduce', param index 1
I1127 22:55:25.176997 10202 layer_factory.hpp:77] Creating layer inception_3a/relu_3x3_reduce_p
I1127 22:55:25.177018 10202 net.cpp:100] Creating Layer inception_3a/relu_3x3_reduce_p
I1127 22:55:25.177039 10202 net.cpp:434] inception_3a/relu_3x3_reduce_p <- inception_3a/3x3_reduce_p
I1127 22:55:25.177055 10202 net.cpp:395] inception_3a/relu_3x3_reduce_p -> inception_3a/3x3_reduce_p (in-place)
I1127 22:55:25.177505 10202 net.cpp:150] Setting up inception_3a/relu_3x3_reduce_p
I1127 22:55:25.177526 10202 net.cpp:157] Top shape: 36 96 20 10 (691200)
I1127 22:55:25.177536 10202 net.cpp:165] Memory required for data: 737510688
I1127 22:55:25.177546 10202 layer_factory.hpp:77] Creating layer inception_3a/3x3_p
I1127 22:55:25.177568 10202 net.cpp:100] Creating Layer inception_3a/3x3_p
I1127 22:55:25.177580 10202 net.cpp:434] inception_3a/3x3_p <- inception_3a/3x3_reduce_p
I1127 22:55:25.177597 10202 net.cpp:408] inception_3a/3x3_p -> inception_3a/3x3_p
I1127 22:55:25.181205 10202 net.cpp:150] Setting up inception_3a/3x3_p
I1127 22:55:25.181258 10202 net.cpp:157] Top shape: 36 128 20 10 (921600)
I1127 22:55:25.181272 10202 net.cpp:165] Memory required for data: 741197088
I1127 22:55:25.181288 10202 net.cpp:493] Sharing parameters 'inception_3a/3x3_w' owned by layer 'inception_3a/3x3', param index 0
I1127 22:55:25.181318 10202 net.cpp:493] Sharing parameters 'inception_3a/3x3_b' owned by layer 'inception_3a/3x3', param index 1
I1127 22:55:25.181335 10202 layer_factory.hpp:77] Creating layer inception_3a/relu_3x3_p
I1127 22:55:25.181354 10202 net.cpp:100] Creating Layer inception_3a/relu_3x3_p
I1127 22:55:25.181367 10202 net.cpp:434] inception_3a/relu_3x3_p <- inception_3a/3x3_p
I1127 22:55:25.181382 10202 net.cpp:395] inception_3a/relu_3x3_p -> inception_3a/3x3_p (in-place)
I1127 22:55:25.181673 10202 net.cpp:150] Setting up inception_3a/relu_3x3_p
I1127 22:55:25.181706 10202 net.cpp:157] Top shape: 36 128 20 10 (921600)
I1127 22:55:25.181726 10202 net.cpp:165] Memory required for data: 744883488
I1127 22:55:25.181735 10202 layer_factory.hpp:77] Creating layer inception_3a/5x5_reduce_p
I1127 22:55:25.181767 10202 net.cpp:100] Creating Layer inception_3a/5x5_reduce_p
I1127 22:55:25.181782 10202 net.cpp:434] inception_3a/5x5_reduce_p <- pool2/3x3_s2_p_pool2/3x3_s2_p_0_split_2
I1127 22:55:25.181836 10202 net.cpp:408] inception_3a/5x5_reduce_p -> inception_3a/5x5_reduce_p
I1127 22:55:25.183713 10202 net.cpp:150] Setting up inception_3a/5x5_reduce_p
I1127 22:55:25.183768 10202 net.cpp:157] Top shape: 36 16 20 10 (115200)
I1127 22:55:25.183782 10202 net.cpp:165] Memory required for data: 745344288
I1127 22:55:25.183797 10202 net.cpp:493] Sharing parameters 'inception_3a/5x5_reduce_w' owned by layer 'inception_3a/5x5_reduce', param index 0
I1127 22:55:25.183812 10202 net.cpp:493] Sharing parameters 'inception_3a/5x5_reduce_b' owned by layer 'inception_3a/5x5_reduce', param index 1
I1127 22:55:25.183825 10202 layer_factory.hpp:77] Creating layer inception_3a/relu_5x5_reduce_p
I1127 22:55:25.183842 10202 net.cpp:100] Creating Layer inception_3a/relu_5x5_reduce_p
I1127 22:55:25.183857 10202 net.cpp:434] inception_3a/relu_5x5_reduce_p <- inception_3a/5x5_reduce_p
I1127 22:55:25.183876 10202 net.cpp:395] inception_3a/relu_5x5_reduce_p -> inception_3a/5x5_reduce_p (in-place)
I1127 22:55:25.184396 10202 net.cpp:150] Setting up inception_3a/relu_5x5_reduce_p
I1127 22:55:25.184419 10202 net.cpp:157] Top shape: 36 16 20 10 (115200)
I1127 22:55:25.184432 10202 net.cpp:165] Memory required for data: 745805088
I1127 22:55:25.184442 10202 layer_factory.hpp:77] Creating layer inception_3a/5x5_p
I1127 22:55:25.184468 10202 net.cpp:100] Creating Layer inception_3a/5x5_p
I1127 22:55:25.184480 10202 net.cpp:434] inception_3a/5x5_p <- inception_3a/5x5_reduce_p
I1127 22:55:25.184494 10202 net.cpp:408] inception_3a/5x5_p -> inception_3a/5x5_p
I1127 22:55:25.194264 10202 net.cpp:150] Setting up inception_3a/5x5_p
I1127 22:55:25.194317 10202 net.cpp:157] Top shape: 36 32 20 10 (230400)
I1127 22:55:25.194331 10202 net.cpp:165] Memory required for data: 746726688
I1127 22:55:25.194370 10202 net.cpp:493] Sharing parameters 'inception_3a/5x5_w' owned by layer 'inception_3a/5x5', param index 0
I1127 22:55:25.194399 10202 net.cpp:493] Sharing parameters 'inception_3a/5x5_b' owned by layer 'inception_3a/5x5', param index 1
I1127 22:55:25.194418 10202 layer_factory.hpp:77] Creating layer inception_3a/relu_5x5_p
I1127 22:55:25.194440 10202 net.cpp:100] Creating Layer inception_3a/relu_5x5_p
I1127 22:55:25.194455 10202 net.cpp:434] inception_3a/relu_5x5_p <- inception_3a/5x5_p
I1127 22:55:25.194471 10202 net.cpp:395] inception_3a/relu_5x5_p -> inception_3a/5x5_p (in-place)
I1127 22:55:25.195633 10202 net.cpp:150] Setting up inception_3a/relu_5x5_p
I1127 22:55:25.195677 10202 net.cpp:157] Top shape: 36 32 20 10 (230400)
I1127 22:55:25.195689 10202 net.cpp:165] Memory required for data: 747648288
I1127 22:55:25.195699 10202 layer_factory.hpp:77] Creating layer inception_3a/pool_p
I1127 22:55:25.195716 10202 net.cpp:100] Creating Layer inception_3a/pool_p
I1127 22:55:25.195729 10202 net.cpp:434] inception_3a/pool_p <- pool2/3x3_s2_p_pool2/3x3_s2_p_0_split_3
I1127 22:55:25.195757 10202 net.cpp:408] inception_3a/pool_p -> inception_3a/pool_p
I1127 22:55:25.195896 10202 net.cpp:150] Setting up inception_3a/pool_p
I1127 22:55:25.195932 10202 net.cpp:157] Top shape: 36 192 20 10 (1382400)
I1127 22:55:25.195945 10202 net.cpp:165] Memory required for data: 753177888
I1127 22:55:25.195956 10202 layer_factory.hpp:77] Creating layer inception_3a/pool_proj_p
I1127 22:55:25.195979 10202 net.cpp:100] Creating Layer inception_3a/pool_proj_p
I1127 22:55:25.195991 10202 net.cpp:434] inception_3a/pool_proj_p <- inception_3a/pool_p
I1127 22:55:25.196009 10202 net.cpp:408] inception_3a/pool_proj_p -> inception_3a/pool_proj_p
I1127 22:55:25.198177 10202 net.cpp:150] Setting up inception_3a/pool_proj_p
I1127 22:55:25.198235 10202 net.cpp:157] Top shape: 36 32 20 10 (230400)
I1127 22:55:25.198256 10202 net.cpp:165] Memory required for data: 754099488
I1127 22:55:25.198277 10202 net.cpp:493] Sharing parameters 'inception_3a/pool_proj_w' owned by layer 'inception_3a/pool_proj', param index 0
I1127 22:55:25.198297 10202 net.cpp:493] Sharing parameters 'inception_3a/pool_proj_b' owned by layer 'inception_3a/pool_proj', param index 1
I1127 22:55:25.198317 10202 layer_factory.hpp:77] Creating layer inception_3a/relu_pool_proj_p
I1127 22:55:25.198348 10202 net.cpp:100] Creating Layer inception_3a/relu_pool_proj_p
I1127 22:55:25.198361 10202 net.cpp:434] inception_3a/relu_pool_proj_p <- inception_3a/pool_proj_p
I1127 22:55:25.198384 10202 net.cpp:395] inception_3a/relu_pool_proj_p -> inception_3a/pool_proj_p (in-place)
I1127 22:55:25.198654 10202 net.cpp:150] Setting up inception_3a/relu_pool_proj_p
I1127 22:55:25.198696 10202 net.cpp:157] Top shape: 36 32 20 10 (230400)
I1127 22:55:25.198706 10202 net.cpp:165] Memory required for data: 755021088
I1127 22:55:25.198726 10202 layer_factory.hpp:77] Creating layer inception_3a/output_p
I1127 22:55:25.198750 10202 net.cpp:100] Creating Layer inception_3a/output_p
I1127 22:55:25.198761 10202 net.cpp:434] inception_3a/output_p <- inception_3a/1x1_p
I1127 22:55:25.198779 10202 net.cpp:434] inception_3a/output_p <- inception_3a/3x3_p
I1127 22:55:25.198798 10202 net.cpp:434] inception_3a/output_p <- inception_3a/5x5_p
I1127 22:55:25.198817 10202 net.cpp:434] inception_3a/output_p <- inception_3a/pool_proj_p
I1127 22:55:25.198840 10202 net.cpp:408] inception_3a/output_p -> inception_3a/output_p
I1127 22:55:25.198905 10202 net.cpp:150] Setting up inception_3a/output_p
I1127 22:55:25.198926 10202 net.cpp:157] Top shape: 36 256 20 10 (1843200)
I1127 22:55:25.198938 10202 net.cpp:165] Memory required for data: 762393888
I1127 22:55:25.198947 10202 layer_factory.hpp:77] Creating layer inception_3a/output_p_inception_3a/output_p_0_split
I1127 22:55:25.198961 10202 net.cpp:100] Creating Layer inception_3a/output_p_inception_3a/output_p_0_split
I1127 22:55:25.198971 10202 net.cpp:434] inception_3a/output_p_inception_3a/output_p_0_split <- inception_3a/output_p
I1127 22:55:25.198982 10202 net.cpp:408] inception_3a/output_p_inception_3a/output_p_0_split -> inception_3a/output_p_inception_3a/output_p_0_split_0
I1127 22:55:25.198997 10202 net.cpp:408] inception_3a/output_p_inception_3a/output_p_0_split -> inception_3a/output_p_inception_3a/output_p_0_split_1
I1127 22:55:25.199023 10202 net.cpp:408] inception_3a/output_p_inception_3a/output_p_0_split -> inception_3a/output_p_inception_3a/output_p_0_split_2
I1127 22:55:25.199041 10202 net.cpp:408] inception_3a/output_p_inception_3a/output_p_0_split -> inception_3a/output_p_inception_3a/output_p_0_split_3
I1127 22:55:25.199199 10202 net.cpp:150] Setting up inception_3a/output_p_inception_3a/output_p_0_split
I1127 22:55:25.199218 10202 net.cpp:157] Top shape: 36 256 20 10 (1843200)
I1127 22:55:25.199230 10202 net.cpp:157] Top shape: 36 256 20 10 (1843200)
I1127 22:55:25.199240 10202 net.cpp:157] Top shape: 36 256 20 10 (1843200)
I1127 22:55:25.199249 10202 net.cpp:157] Top shape: 36 256 20 10 (1843200)
I1127 22:55:25.199259 10202 net.cpp:165] Memory required for data: 791885088
I1127 22:55:25.199267 10202 layer_factory.hpp:77] Creating layer inception_3b/1x1_p
I1127 22:55:25.199295 10202 net.cpp:100] Creating Layer inception_3b/1x1_p
I1127 22:55:25.199307 10202 net.cpp:434] inception_3b/1x1_p <- inception_3a/output_p_inception_3a/output_p_0_split_0
I1127 22:55:25.199352 10202 net.cpp:408] inception_3b/1x1_p -> inception_3b/1x1_p
I1127 22:55:25.202241 10202 net.cpp:150] Setting up inception_3b/1x1_p
I1127 22:55:25.202294 10202 net.cpp:157] Top shape: 36 128 20 10 (921600)
I1127 22:55:25.202308 10202 net.cpp:165] Memory required for data: 795571488
I1127 22:55:25.202324 10202 net.cpp:493] Sharing parameters 'inception_3b/1x1_w' owned by layer 'inception_3b/1x1', param index 0
I1127 22:55:25.202339 10202 net.cpp:493] Sharing parameters 'inception_3b/1x1_b' owned by layer 'inception_3b/1x1', param index 1
I1127 22:55:25.202356 10202 layer_factory.hpp:77] Creating layer inception_3b/relu_1x1_p
I1127 22:55:25.202478 10202 net.cpp:100] Creating Layer inception_3b/relu_1x1_p
I1127 22:55:25.202500 10202 net.cpp:434] inception_3b/relu_1x1_p <- inception_3b/1x1_p
I1127 22:55:25.202515 10202 net.cpp:395] inception_3b/relu_1x1_p -> inception_3b/1x1_p (in-place)
I1127 22:55:25.203135 10202 net.cpp:150] Setting up inception_3b/relu_1x1_p
I1127 22:55:25.203176 10202 net.cpp:157] Top shape: 36 128 20 10 (921600)
I1127 22:55:25.203186 10202 net.cpp:165] Memory required for data: 799257888
I1127 22:55:25.203194 10202 layer_factory.hpp:77] Creating layer inception_3b/3x3_reduce_p
I1127 22:55:25.203217 10202 net.cpp:100] Creating Layer inception_3b/3x3_reduce_p
I1127 22:55:25.203229 10202 net.cpp:434] inception_3b/3x3_reduce_p <- inception_3a/output_p_inception_3a/output_p_0_split_1
I1127 22:55:25.203248 10202 net.cpp:408] inception_3b/3x3_reduce_p -> inception_3b/3x3_reduce_p
I1127 22:55:25.206275 10202 net.cpp:150] Setting up inception_3b/3x3_reduce_p
I1127 22:55:25.206336 10202 net.cpp:157] Top shape: 36 128 20 10 (921600)
I1127 22:55:25.206351 10202 net.cpp:165] Memory required for data: 802944288
I1127 22:55:25.206367 10202 net.cpp:493] Sharing parameters 'inception_3b/3x3_reduce_w' owned by layer 'inception_3b/3x3_reduce', param index 0
I1127 22:55:25.206382 10202 net.cpp:493] Sharing parameters 'inception_3b/3x3_reduce_b' owned by layer 'inception_3b/3x3_reduce', param index 1
I1127 22:55:25.206395 10202 layer_factory.hpp:77] Creating layer inception_3b/relu_3x3_reduce_p
I1127 22:55:25.206418 10202 net.cpp:100] Creating Layer inception_3b/relu_3x3_reduce_p
I1127 22:55:25.206436 10202 net.cpp:434] inception_3b/relu_3x3_reduce_p <- inception_3b/3x3_reduce_p
I1127 22:55:25.206459 10202 net.cpp:395] inception_3b/relu_3x3_reduce_p -> inception_3b/3x3_reduce_p (in-place)
I1127 22:55:25.206962 10202 net.cpp:150] Setting up inception_3b/relu_3x3_reduce_p
I1127 22:55:25.206986 10202 net.cpp:157] Top shape: 36 128 20 10 (921600)
I1127 22:55:25.206996 10202 net.cpp:165] Memory required for data: 806630688
I1127 22:55:25.207006 10202 layer_factory.hpp:77] Creating layer inception_3b/3x3_p
I1127 22:55:25.207027 10202 net.cpp:100] Creating Layer inception_3b/3x3_p
I1127 22:55:25.207037 10202 net.cpp:434] inception_3b/3x3_p <- inception_3b/3x3_reduce_p
I1127 22:55:25.207062 10202 net.cpp:408] inception_3b/3x3_p -> inception_3b/3x3_p
I1127 22:55:25.212095 10202 net.cpp:150] Setting up inception_3b/3x3_p
I1127 22:55:25.212164 10202 net.cpp:157] Top shape: 36 192 20 10 (1382400)
I1127 22:55:25.212179 10202 net.cpp:165] Memory required for data: 812160288
I1127 22:55:25.212193 10202 net.cpp:493] Sharing parameters 'inception_3b/3x3_w' owned by layer 'inception_3b/3x3', param index 0
I1127 22:55:25.212203 10202 net.cpp:493] Sharing parameters 'inception_3b/3x3_b' owned by layer 'inception_3b/3x3', param index 1
I1127 22:55:25.212215 10202 layer_factory.hpp:77] Creating layer inception_3b/relu_3x3_p
I1127 22:55:25.212229 10202 net.cpp:100] Creating Layer inception_3b/relu_3x3_p
I1127 22:55:25.212239 10202 net.cpp:434] inception_3b/relu_3x3_p <- inception_3b/3x3_p
I1127 22:55:25.212252 10202 net.cpp:395] inception_3b/relu_3x3_p -> inception_3b/3x3_p (in-place)
I1127 22:55:25.212543 10202 net.cpp:150] Setting up inception_3b/relu_3x3_p
I1127 22:55:25.212565 10202 net.cpp:157] Top shape: 36 192 20 10 (1382400)
I1127 22:55:25.212595 10202 net.cpp:165] Memory required for data: 817689888
I1127 22:55:25.212610 10202 layer_factory.hpp:77] Creating layer inception_3b/5x5_reduce_p
I1127 22:55:25.212640 10202 net.cpp:100] Creating Layer inception_3b/5x5_reduce_p
I1127 22:55:25.212661 10202 net.cpp:434] inception_3b/5x5_reduce_p <- inception_3a/output_p_inception_3a/output_p_0_split_2
I1127 22:55:25.212683 10202 net.cpp:408] inception_3b/5x5_reduce_p -> inception_3b/5x5_reduce_p
I1127 22:55:25.214521 10202 net.cpp:150] Setting up inception_3b/5x5_reduce_p
I1127 22:55:25.214560 10202 net.cpp:157] Top shape: 36 32 20 10 (230400)
I1127 22:55:25.214578 10202 net.cpp:165] Memory required for data: 818611488
I1127 22:55:25.214592 10202 net.cpp:493] Sharing parameters 'inception_3b/5x5_reduce_w' owned by layer 'inception_3b/5x5_reduce', param index 0
I1127 22:55:25.214607 10202 net.cpp:493] Sharing parameters 'inception_3b/5x5_reduce_b' owned by layer 'inception_3b/5x5_reduce', param index 1
I1127 22:55:25.214623 10202 layer_factory.hpp:77] Creating layer inception_3b/relu_5x5_reduce_p
I1127 22:55:25.214644 10202 net.cpp:100] Creating Layer inception_3b/relu_5x5_reduce_p
I1127 22:55:25.214658 10202 net.cpp:434] inception_3b/relu_5x5_reduce_p <- inception_3b/5x5_reduce_p
I1127 22:55:25.214679 10202 net.cpp:395] inception_3b/relu_5x5_reduce_p -> inception_3b/5x5_reduce_p (in-place)
I1127 22:55:25.215287 10202 net.cpp:150] Setting up inception_3b/relu_5x5_reduce_p
I1127 22:55:25.215312 10202 net.cpp:157] Top shape: 36 32 20 10 (230400)
I1127 22:55:25.215325 10202 net.cpp:165] Memory required for data: 819533088
I1127 22:55:25.215343 10202 layer_factory.hpp:77] Creating layer inception_3b/5x5_p
I1127 22:55:25.215370 10202 net.cpp:100] Creating Layer inception_3b/5x5_p
I1127 22:55:25.215391 10202 net.cpp:434] inception_3b/5x5_p <- inception_3b/5x5_reduce_p
I1127 22:55:25.215416 10202 net.cpp:408] inception_3b/5x5_p -> inception_3b/5x5_p
I1127 22:55:25.217795 10202 net.cpp:150] Setting up inception_3b/5x5_p
I1127 22:55:25.217882 10202 net.cpp:157] Top shape: 36 96 20 10 (691200)
I1127 22:55:25.217896 10202 net.cpp:165] Memory required for data: 822297888
I1127 22:55:25.217910 10202 net.cpp:493] Sharing parameters 'inception_3b/5x5_w' owned by layer 'inception_3b/5x5', param index 0
I1127 22:55:25.217918 10202 net.cpp:493] Sharing parameters 'inception_3b/5x5_b' owned by layer 'inception_3b/5x5', param index 1
I1127 22:55:25.217928 10202 layer_factory.hpp:77] Creating layer inception_3b/relu_5x5_p
I1127 22:55:25.217941 10202 net.cpp:100] Creating Layer inception_3b/relu_5x5_p
I1127 22:55:25.217948 10202 net.cpp:434] inception_3b/relu_5x5_p <- inception_3b/5x5_p
I1127 22:55:25.217957 10202 net.cpp:395] inception_3b/relu_5x5_p -> inception_3b/5x5_p (in-place)
I1127 22:55:25.218137 10202 net.cpp:150] Setting up inception_3b/relu_5x5_p
I1127 22:55:25.218153 10202 net.cpp:157] Top shape: 36 96 20 10 (691200)
I1127 22:55:25.218160 10202 net.cpp:165] Memory required for data: 825062688
I1127 22:55:25.218178 10202 layer_factory.hpp:77] Creating layer inception_3b/pool_p
I1127 22:55:25.218186 10202 net.cpp:100] Creating Layer inception_3b/pool_p
I1127 22:55:25.218194 10202 net.cpp:434] inception_3b/pool_p <- inception_3a/output_p_inception_3a/output_p_0_split_3
I1127 22:55:25.218204 10202 net.cpp:408] inception_3b/pool_p -> inception_3b/pool_p
I1127 22:55:25.218267 10202 net.cpp:150] Setting up inception_3b/pool_p
I1127 22:55:25.218279 10202 net.cpp:157] Top shape: 36 256 20 10 (1843200)
I1127 22:55:25.218286 10202 net.cpp:165] Memory required for data: 832435488
I1127 22:55:25.218291 10202 layer_factory.hpp:77] Creating layer inception_3b/pool_proj_p
I1127 22:55:25.218307 10202 net.cpp:100] Creating Layer inception_3b/pool_proj_p
I1127 22:55:25.218314 10202 net.cpp:434] inception_3b/pool_proj_p <- inception_3b/pool_p
I1127 22:55:25.218322 10202 net.cpp:408] inception_3b/pool_proj_p -> inception_3b/pool_proj_p
I1127 22:55:25.219545 10202 net.cpp:150] Setting up inception_3b/pool_proj_p
…
I1127 22:55:25.392573 10202 net.cpp:395] inception_5a/relu_3x3_reduce_p -> inception_5a/3x3_reduce_p (in-place)
I1127 22:55:25.392877 10202 net.cpp:150] Setting up inception_5a/relu_3x3_reduce_p
I1127 22:55:25.392916 10202 net.cpp:157] Top shape: 36 160 10 5 (288000)
I1127 22:55:25.392928 10202 net.cpp:165] Memory required for data: 1048550688
I1127 22:55:25.392943 10202 layer_factory.hpp:77] Creating layer inception_5a/3x3_p
I1127 22:55:25.392982 10202 net.cpp:100] Creating Layer inception_5a/3x3_p
I1127 22:55:25.393004 10202 net.cpp:434] inception_5a/3x3_p <- inception_5a/3x3_reduce_p
I1127 22:55:25.393021 10202 net.cpp:408] inception_5a/3x3_p -> inception_5a/3x3_p
I1127 22:55:25.406134 10202 net.cpp:150] Setting up inception_5a/3x3_p
I1127 22:55:25.406199 10202 net.cpp:157] Top shape: 36 320 10 5 (576000)
I1127 22:55:25.406215 10202 net.cpp:165] Memory required for data: 1050854688
I1127 22:55:25.406234 10202 net.cpp:493] Sharing parameters 'inception_5a/3x3_w' owned by layer 'inception_5a/3x3', param index 0
I1127 22:55:25.406250 10202 net.cpp:493] Sharing parameters 'inception_5a/3x3_b' owned by layer 'inception_5a/3x3', param index 1
I1127 22:55:25.406262 10202 layer_factory.hpp:77] Creating layer inception_5a/relu_3x3_p
I1127 22:55:25.406280 10202 net.cpp:100] Creating Layer inception_5a/relu_3x3_p
I1127 22:55:25.406294 10202 net.cpp:434] inception_5a/relu_3x3_p <- inception_5a/3x3_p
I1127 22:55:25.406309 10202 net.cpp:395] inception_5a/relu_3x3_p -> inception_5a/3x3_p (in-place)
I1127 22:55:25.407030 10202 net.cpp:150] Setting up inception_5a/relu_3x3_p
I1127 22:55:25.407055 10202 net.cpp:157] Top shape: 36 320 10 5 (576000)
I1127 22:55:25.407068 10202 net.cpp:165] Memory required for data: 1053158688
I1127 22:55:25.407079 10202 layer_factory.hpp:77] Creating layer inception_5a/5x5_reduce_p
I1127 22:55:25.407102 10202 net.cpp:100] Creating Layer inception_5a/5x5_reduce_p
I1127 22:55:25.407121 10202 net.cpp:434] inception_5a/5x5_reduce_p <- inception_4e/output_p_inception_4e/output_p_0_split_2
I1127 22:55:25.407143 10202 net.cpp:408] inception_5a/5x5_reduce_p -> inception_5a/5x5_reduce_p
I1127 22:55:25.410138 10202 net.cpp:150] Setting up inception_5a/5x5_reduce_p
I1127 22:55:25.410213 10202 net.cpp:157] Top shape: 36 32 10 5 (57600)
I1127 22:55:25.410243 10202 net.cpp:165] Memory required for data: 1053389088
I1127 22:55:25.410260 10202 net.cpp:493] Sharing parameters 'inception_5a/5x5_reduce_w' owned by layer 'inception_5a/5x5_reduce', param index 0
I1127 22:55:25.410275 10202 net.cpp:493] Sharing parameters 'inception_5a/5x5_reduce_b' owned by layer 'inception_5a/5x5_reduce', param index 1
I1127 22:55:25.410292 10202 layer_factory.hpp:77] Creating layer inception_5a/relu_5x5_reduce_p
I1127 22:55:25.410315 10202 net.cpp:100] Creating Layer inception_5a/relu_5x5_reduce_p
I1127 22:55:25.410331 10202 net.cpp:434] inception_5a/relu_5x5_reduce_p <- inception_5a/5x5_reduce_p
I1127 22:55:25.410343 10202 net.cpp:395] inception_5a/relu_5x5_reduce_p -> inception_5a/5x5_reduce_p (in-place)
I1127 22:55:25.411265 10202 net.cpp:150] Setting up inception_5a/relu_5x5_reduce_p
I1127 22:55:25.411337 10202 net.cpp:157] Top shape: 36 32 10 5 (57600)
I1127 22:55:25.411367 10202 net.cpp:165] Memory required for data: 1053619488
I1127 22:55:25.411384 10202 layer_factory.hpp:77] Creating layer inception_5a/5x5_p
I1127 22:55:25.411413 10202 net.cpp:100] Creating Layer inception_5a/5x5_p
I1127 22:55:25.411427 10202 net.cpp:434] inception_5a/5x5_p <- inception_5a/5x5_reduce_p
I1127 22:55:25.411448 10202 net.cpp:408] inception_5a/5x5_p -> inception_5a/5x5_p
I1127 22:55:25.416106 10202 net.cpp:150] Setting up inception_5a/5x5_p
I1127 22:55:25.416185 10202 net.cpp:157] Top shape: 36 128 10 5 (230400)
I1127 22:55:25.416208 10202 net.cpp:165] Memory required for data: 1054541088
I1127 22:55:25.416231 10202 net.cpp:493] Sharing parameters 'inception_5a/5x5_w' owned by layer 'inception_5a/5x5', param index 0
I1127 22:55:25.416245 10202 net.cpp:493] Sharing parameters 'inception_5a/5x5_b' owned by layer 'inception_5a/5x5', param index 1
I1127 22:55:25.416259 10202 layer_factory.hpp:77] Creating layer inception_5a/relu_5x5_p
I1127 22:55:25.416282 10202 net.cpp:100] Creating Layer inception_5a/relu_5x5_p
I1127 22:55:25.416298 10202 net.cpp:434] inception_5a/relu_5x5_p <- inception_5a/5x5_p
I1127 22:55:25.416312 10202 net.cpp:395] inception_5a/relu_5x5_p -> inception_5a/5x5_p (in-place)
I1127 22:55:25.416651 10202 net.cpp:150] Setting up inception_5a/relu_5x5_p
I1127 22:55:25.416709 10202 net.cpp:157] Top shape: 36 128 10 5 (230400)
I1127 22:55:25.416723 10202 net.cpp:165] Memory required for data: 1055462688
I1127 22:55:25.416734 10202 layer_factory.hpp:77] Creating layer inception_5a/pool_p
I1127 22:55:25.416750 10202 net.cpp:100] Creating Layer inception_5a/pool_p
I1127 22:55:25.416764 10202 net.cpp:434] inception_5a/pool_p <- inception_4e/output_p_inception_4e/output_p_0_split_3
I1127 22:55:25.416787 10202 net.cpp:408] inception_5a/pool_p -> inception_5a/pool_p
I1127 22:55:25.416935 10202 net.cpp:150] Setting up inception_5a/pool_p
I1127 22:55:25.416972 10202 net.cpp:157] Top shape: 36 832 10 5 (1497600)
I1127 22:55:25.416991 10202 net.cpp:165] Memory required for data: 1061453088
I1127 22:55:25.417008 10202 layer_factory.hpp:77] Creating layer inception_5a/pool_proj_p
I1127 22:55:25.417035 10202 net.cpp:100] Creating Layer inception_5a/pool_proj_p
I1127 22:55:25.417047 10202 net.cpp:434] inception_5a/pool_proj_p <- inception_5a/pool_p
I1127 22:55:25.417069 10202 net.cpp:408] inception_5a/pool_proj_p -> inception_5a/pool_proj_p
I1127 22:55:25.421113 10202 net.cpp:150] Setting up inception_5a/pool_proj_p
I1127 22:55:25.421192 10202 net.cpp:157] Top shape: 36 128 10 5 (230400)
I1127 22:55:25.421212 10202 net.cpp:165] Memory required for data: 1062374688
I1127 22:55:25.421233 10202 net.cpp:493] Sharing parameters 'inception_5a/pool_proj_w' owned by layer 'inception_5a/pool_proj', param index 0
I1127 22:55:25.421249 10202 net.cpp:493] Sharing parameters 'inception_5a/pool_proj_b' owned by layer 'inception_5a/pool_proj', param index 1
I1127 22:55:25.421264 10202 layer_factory.hpp:77] Creating layer inception_5a/relu_pool_proj_p
I1127 22:55:25.421289 10202 net.cpp:100] Creating Layer inception_5a/relu_pool_proj_p
I1127 22:55:25.421305 10202 net.cpp:434] inception_5a/relu_pool_proj_p <- inception_5a/pool_proj_p
I1127 22:55:25.421321 10202 net.cpp:395] inception_5a/relu_pool_proj_p -> inception_5a/pool_proj_p (in-place)
I1127 22:55:25.421633 10202 net.cpp:150] Setting up inception_5a/relu_pool_proj_p
I1127 22:55:25.421674 10202 net.cpp:157] Top shape: 36 128 10 5 (230400)
I1127 22:55:25.421691 10202 net.cpp:165] Memory required for data: 1063296288
I1127 22:55:25.421710 10202 layer_factory.hpp:77] Creating layer inception_5a/output_p
I1127 22:55:25.421731 10202 net.cpp:100] Creating Layer inception_5a/output_p
I1127 22:55:25.421743 10202 net.cpp:434] inception_5a/output_p <- inception_5a/1x1_p
I1127 22:55:25.421754 10202 net.cpp:434] inception_5a/output_p <- inception_5a/3x3_p
I1127 22:55:25.421766 10202 net.cpp:434] inception_5a/output_p <- inception_5a/5x5_p
I1127 22:55:25.421777 10202 net.cpp:434] inception_5a/output_p <- inception_5a/pool_proj_p
I1127 22:55:25.421788 10202 net.cpp:408] inception_5a/output_p -> inception_5a/output_p
I1127 22:55:25.421908 10202 net.cpp:150] Setting up inception_5a/output_p
I1127 22:55:25.421950 10202 net.cpp:157] Top shape: 36 832 10 5 (1497600)
I1127 22:55:25.421972 10202 net.cpp:165] Memory required for data: 1069286688
I1127 22:55:25.421991 10202 layer_factory.hpp:77] Creating layer inception_5a/output_p_inception_5a/output_p_0_split
I1127 22:55:25.422009 10202 net.cpp:100] Creating Layer inception_5a/output_p_inception_5a/output_p_0_split
I1127 22:55:25.422029 10202 net.cpp:434] inception_5a/output_p_inception_5a/output_p_0_split <- inception_5a/output_p
I1127 22:55:25.422049 10202 net.cpp:408] inception_5a/output_p_inception_5a/output_p_0_split -> inception_5a/output_p_inception_5a/output_p_0_split_0
I1127 22:55:25.422067 10202 net.cpp:408] inception_5a/output_p_inception_5a/output_p_0_split -> inception_5a/output_p_inception_5a/output_p_0_split_1
I1127 22:55:25.422092 10202 net.cpp:408] inception_5a/output_p_inception_5a/output_p_0_split -> inception_5a/output_p_inception_5a/output_p_0_split_2
I1127 22:55:25.422109 10202 net.cpp:408] inception_5a/output_p_inception_5a/output_p_0_split -> inception_5a/output_p_inception_5a/output_p_0_split_3
I1127 22:55:25.422324 10202 net.cpp:150] Setting up inception_5a/output_p_inception_5a/output_p_0_split
I1127 22:55:25.422374 10202 net.cpp:157] Top shape: 36 832 10 5 (1497600)
I1127 22:55:25.422396 10202 net.cpp:157] Top shape: 36 832 10 5 (1497600)
I1127 22:55:25.422408 10202 net.cpp:157] Top shape: 36 832 10 5 (1497600)
I1127 22:55:25.422420 10202 net.cpp:157] Top shape: 36 832 10 5 (1497600)
I1127 22:55:25.422431 10202 net.cpp:165] Memory required for data: 1093248288
I1127 22:55:25.422446 10202 layer_factory.hpp:77] Creating layer inception_5b/1x1_p
I1127 22:55:25.422474 10202 net.cpp:100] Creating Layer inception_5b/1x1_p
I1127 22:55:25.422488 10202 net.cpp:434] inception_5b/1x1_p <- inception_5a/output_p_inception_5a/output_p_0_split_0
I1127 22:55:25.422508 10202 net.cpp:408] inception_5b/1x1_p -> inception_5b/1x1_p
I1127 22:55:25.428117 10202 net.cpp:150] Setting up inception_5b/1x1_p
I1127 22:55:25.428198 10202 net.cpp:157] Top shape: 36 384 10 5 (691200)
I1127 22:55:25.428216 10202 net.cpp:165] Memory required for data: 1096013088
I1127 22:55:25.428239 10202 net.cpp:493] Sharing parameters 'inception_5b/1x1_w' owned by layer 'inception_5b/1x1', param index 0
I1127 22:55:25.428290 10202 net.cpp:493] Sharing parameters 'inception_5b/1x1_b' owned by layer 'inception_5b/1x1', param index 1
I1127 22:55:25.428313 10202 layer_factory.hpp:77] Creating layer inception_5b/relu_1x1_p
I1127 22:55:25.428340 10202 net.cpp:100] Creating Layer inception_5b/relu_1x1_p
I1127 22:55:25.428356 10202 net.cpp:434] inception_5b/relu_1x1_p <- inception_5b/1x1_p
I1127 22:55:25.428372 10202 net.cpp:395] inception_5b/relu_1x1_p -> inception_5b/1x1_p (in-place)
I1127 22:55:25.428954 10202 net.cpp:150] Setting up inception_5b/relu_1x1_p
I1127 22:55:25.428997 10202 net.cpp:157] Top shape: 36 384 10 5 (691200)
I1127 22:55:25.429008 10202 net.cpp:165] Memory required for data: 1098777888
I1127 22:55:25.429018 10202 layer_factory.hpp:77] Creating layer inception_5b/3x3_reduce_p
I1127 22:55:25.429042 10202 net.cpp:100] Creating Layer inception_5b/3x3_reduce_p
I1127 22:55:25.429065 10202 net.cpp:434] inception_5b/3x3_reduce_p <- inception_5a/output_p_inception_5a/output_p_0_split_1
I1127 22:55:25.429080 10202 net.cpp:408] inception_5b/3x3_reduce_p -> inception_5b/3x3_reduce_p
I1127 22:55:25.435394 10202 net.cpp:150] Setting up inception_5b/3x3_reduce_p
I1127 22:55:25.435472 10202 net.cpp:157] Top shape: 36 192 10 5 (345600)
I1127 22:55:25.435499 10202 net.cpp:165] Memory required for data: 1100160288
I1127 22:55:25.435525 10202 net.cpp:493] Sharing parameters 'inception_5b/3x3_reduce_w' owned by layer 'inception_5b/3x3_reduce', param index 0
I1127 22:55:25.435539 10202 net.cpp:493] Sharing parameters 'inception_5b/3x3_reduce_b' owned by layer 'inception_5b/3x3_reduce', param index 1
I1127 22:55:25.435556 10202 layer_factory.hpp:77] Creating layer inception_5b/relu_3x3_reduce_p
I1127 22:55:25.435577 10202 net.cpp:100] Creating Layer inception_5b/relu_3x3_reduce_p
I1127 22:55:25.435598 10202 net.cpp:434] inception_5b/relu_3x3_reduce_p <- inception_5b/3x3_reduce_p
I1127 22:55:25.435624 10202 net.cpp:395] inception_5b/relu_3x3_reduce_p -> inception_5b/3x3_reduce_p (in-place)
I1127 22:55:25.436163 10202 net.cpp:150] Setting up inception_5b/relu_3x3_reduce_p
I1127 22:55:25.436204 10202 net.cpp:157] Top shape: 36 192 10 5 (345600)
I1127 22:55:25.436215 10202 net.cpp:165] Memory required for data: 1101542688
I1127 22:55:25.436225 10202 layer_factory.hpp:77] Creating layer inception_5b/3x3_p
I1127 22:55:25.436251 10202 net.cpp:100] Creating Layer inception_5b/3x3_p
I1127 22:55:25.436264 10202 net.cpp:434] inception_5b/3x3_p <- inception_5b/3x3_reduce_p
I1127 22:55:25.436286 10202 net.cpp:408] inception_5b/3x3_p -> inception_5b/3x3_p
I1127 22:55:25.455085 10202 net.cpp:150] Setting up inception_5b/3x3_p
I1127 22:55:25.455286 10202 net.cpp:157] Top shape: 36 384 10 5 (691200)
I1127 22:55:25.455310 10202 net.cpp:165] Memory required for data: 1104307488
I1127 22:55:25.455333 10202 net.cpp:493] Sharing parameters 'inception_5b/3x3_w' owned by layer 'inception_5b/3x3', param index 0
I1127 22:55:25.455350 10202 net.cpp:493] Sharing parameters 'inception_5b/3x3_b' owned by layer 'inception_5b/3x3', param index 1
I1127 22:55:25.455376 10202 layer_factory.hpp:77] Creating layer inception_5b/relu_3x3_p
I1127 22:55:25.455409 10202 net.cpp:100] Creating Layer inception_5b/relu_3x3_p
I1127 22:55:25.455430 10202 net.cpp:434] inception_5b/relu_3x3_p <- inception_5b/3x3_p
I1127 22:55:25.455447 10202 net.cpp:395] inception_5b/relu_3x3_p -> inception_5b/3x3_p (in-place)
I1127 22:55:25.455999 10202 net.cpp:150] Setting up inception_5b/relu_3x3_p
I1127 22:55:25.456035 10202 net.cpp:157] Top shape: 36 384 10 5 (691200)
I1127 22:55:25.456046 10202 net.cpp:165] Memory required for data: 1107072288
I1127 22:55:25.456055 10202 layer_factory.hpp:77] Creating layer inception_5b/5x5_reduce_p
I1127 22:55:25.456079 10202 net.cpp:100] Creating Layer inception_5b/5x5_reduce_p
I1127 22:55:25.456094 10202 net.cpp:434] inception_5b/5x5_reduce_p <- inception_5a/output_p_inception_5a/output_p_0_split_2
I1127 22:55:25.456113 10202 net.cpp:408] inception_5b/5x5_reduce_p -> inception_5b/5x5_reduce_p
I1127 22:55:25.459118 10202 net.cpp:150] Setting up inception_5b/5x5_reduce_p
I1127 22:55:25.459192 10202 net.cpp:157] Top shape: 36 48 10 5 (86400)
I1127 22:55:25.459206 10202 net.cpp:165] Memory required for data: 1107417888
I1127 22:55:25.459223 10202 net.cpp:493] Sharing parameters 'inception_5b/5x5_reduce_w' owned by layer 'inception_5b/5x5_reduce', param index 0
I1127 22:55:25.459237 10202 net.cpp:493] Sharing parameters 'inception_5b/5x5_reduce_b' owned by layer 'inception_5b/5x5_reduce', param index 1
I1127 22:55:25.459247 10202 layer_factory.hpp:77] Creating layer inception_5b/relu_5x5_reduce_p
I1127 22:55:25.459264 10202 net.cpp:100] Creating Layer inception_5b/relu_5x5_reduce_p
I1127 22:55:25.459383 10202 net.cpp:434] inception_5b/relu_5x5_reduce_p <- inception_5b/5x5_reduce_p
I1127 22:55:25.459401 10202 net.cpp:395] inception_5b/relu_5x5_reduce_p -> inception_5b/5x5_reduce_p (in-place)
I1127 22:55:25.459939 10202 net.cpp:150] Setting up inception_5b/relu_5x5_reduce_p
I1127 22:55:25.459964 10202 net.cpp:157] Top shape: 36 48 10 5 (86400)
I1127 22:55:25.459975 10202 net.cpp:165] Memory required for data: 1107763488
I1127 22:55:25.459988 10202 layer_factory.hpp:77] Creating layer inception_5b/5x5_p
I1127 22:55:25.460016 10202 net.cpp:100] Creating Layer inception_5b/5x5_p
I1127 22:55:25.460029 10202 net.cpp:434] inception_5b/5x5_p <- inception_5b/5x5_reduce_p
I1127 22:55:25.460151 10202 net.cpp:408] inception_5b/5x5_p -> inception_5b/5x5_p
I1127 22:55:25.463865 10202 net.cpp:150] Setting up inception_5b/5x5_p
I1127 22:55:25.463945 10202 net.cpp:157] Top shape: 36 128 10 5 (230400)
I1127 22:55:25.463968 10202 net.cpp:165] Memory required for data: 1108685088
I1127 22:55:25.463990 10202 net.cpp:493] Sharing parameters 'inception_5b/5x5_w' owned by layer 'inception_5b/5x5', param index 0
I1127 22:55:25.464007 10202 net.cpp:493] Sharing parameters 'inception_5b/5x5_b' owned by layer 'inception_5b/5x5', param index 1
I1127 22:55:25.464025 10202 layer_factory.hpp:77] Creating layer inception_5b/relu_5x5_p
I1127 22:55:25.464040 10202 net.cpp:100] Creating Layer inception_5b/relu_5x5_p
I1127 22:55:25.464053 10202 net.cpp:434] inception_5b/relu_5x5_p <- inception_5b/5x5_p
I1127 22:55:25.464071 10202 net.cpp:395] inception_5b/relu_5x5_p -> inception_5b/5x5_p (in-place)
I1127 22:55:25.464383 10202 net.cpp:150] Setting up inception_5b/relu_5x5_p
I1127 22:55:25.464406 10202 net.cpp:157] Top shape: 36 128 10 5 (230400)
I1127 22:55:25.464416 10202 net.cpp:165] Memory required for data: 1109606688
I1127 22:55:25.464426 10202 layer_factory.hpp:77] Creating layer inception_5b/pool_p
I1127 22:55:25.464439 10202 net.cpp:100] Creating Layer inception_5b/pool_p
I1127 22:55:25.464452 10202 net.cpp:434] inception_5b/pool_p <- inception_5a/output_p_inception_5a/output_p_0_split_3
I1127 22:55:25.464464 10202 net.cpp:408] inception_5b/pool_p -> inception_5b/pool_p
I1127 22:55:25.464540 10202 net.cpp:150] Setting up inception_5b/pool_p
I1127 22:55:25.464560 10202 net.cpp:157] Top shape: 36 832 10 5 (1497600)
I1127 22:55:25.464582 10202 net.cpp:165] Memory required for data: 1115597088
I1127 22:55:25.464593 10202 layer_factory.hpp:77] Creating layer inception_5b/pool_proj_p
I1127 22:55:25.464617 10202 net.cpp:100] Creating Layer inception_5b/pool_proj_p
I1127 22:55:25.464634 10202 net.cpp:434] inception_5b/pool_proj_p <- inception_5b/pool_p
I1127 22:55:25.464649 10202 net.cpp:408] inception_5b/pool_proj_p -> inception_5b/pool_proj_p
I1127 22:55:25.467825 10202 net.cpp:150] Setting up inception_5b/pool_proj_p
I1127 22:55:25.467893 10202 net.cpp:157] Top shape: 36 128 10 5 (230400)
I1127 22:55:25.467905 10202 net.cpp:165] Memory required for data: 1116518688
I1127 22:55:25.467928 10202 net.cpp:493] Sharing parameters 'inception_5b/pool_proj_w' owned by layer 'inception_5b/pool_proj', param index 0
I1127 22:55:25.467943 10202 net.cpp:493] Sharing parameters 'inception_5b/pool_proj_b' owned by layer 'inception_5b/pool_proj', param index 1
I1127 22:55:25.467958 10202 layer_factory.hpp:77] Creating layer inception_5b/relu_pool_proj_p
I1127 22:55:25.467973 10202 net.cpp:100] Creating Layer inception_5b/relu_pool_proj_p
I1127 22:55:25.468000 10202 net.cpp:434] inception_5b/relu_pool_proj_p <- inception_5b/pool_proj_p
I1127 22:55:25.468015 10202 net.cpp:395] inception_5b/relu_pool_proj_p -> inception_5b/pool_proj_p (in-place)
I1127 22:55:25.468302 10202 net.cpp:150] Setting up inception_5b/relu_pool_proj_p
I1127 22:55:25.468325 10202 net.cpp:157] Top shape: 36 128 10 5 (230400)
I1127 22:55:25.468338 10202 net.cpp:165] Memory required for data: 1117440288
I1127 22:55:25.468348 10202 layer_factory.hpp:77] Creating layer inception_5b/output_p
I1127 22:55:25.468361 10202 net.cpp:100] Creating Layer inception_5b/output_p
I1127 22:55:25.468372 10202 net.cpp:434] inception_5b/output_p <- inception_5b/1x1_p
I1127 22:55:25.468384 10202 net.cpp:434] inception_5b/output_p <- inception_5b/3x3_p
I1127 22:55:25.468391 10202 net.cpp:434] inception_5b/output_p <- inception_5b/5x5_p
I1127 22:55:25.468400 10202 net.cpp:434] inception_5b/output_p <- inception_5b/pool_proj_p
I1127 22:55:25.468408 10202 net.cpp:408] inception_5b/output_p -> inception_5b/output_p
I1127 22:55:25.468456 10202 net.cpp:150] Setting up inception_5b/output_p
I1127 22:55:25.468477 10202 net.cpp:157] Top shape: 36 1024 10 5 (1843200)
I1127 22:55:25.468487 10202 net.cpp:165] Memory required for data: 1124813088
I1127 22:55:25.468497 10202 layer_factory.hpp:77] Creating layer conv2-all
I1127 22:55:25.468513 10202 net.cpp:100] Creating Layer conv2-all
I1127 22:55:25.468524 10202 net.cpp:434] conv2-all <- inception_5b/output
I1127 22:55:25.468534 10202 net.cpp:434] conv2-all <- inception_5b/output_p
I1127 22:55:25.468549 10202 net.cpp:408] conv2-all -> conv2-all
I1127 22:55:25.468590 10202 net.cpp:150] Setting up conv2-all
I1127 22:55:25.468610 10202 net.cpp:157] Top shape: 36 2048 10 5 (3686400)
I1127 22:55:25.468619 10202 net.cpp:165] Memory required for data: 1139558688
I1127 22:55:25.468628 10202 layer_factory.hpp:77] Creating layer conv3-sm
I1127 22:55:25.468650 10202 net.cpp:100] Creating Layer conv3-sm
I1127 22:55:25.468665 10202 net.cpp:434] conv3-sm <- conv2-all
I1127 22:55:25.468682 10202 net.cpp:408] conv3-sm -> conv3
I1127 22:55:26.120173 10202 net.cpp:150] Setting up conv3-sm
I1127 22:55:26.120224 10202 net.cpp:157] Top shape: 36 1024 10 5 (1843200)
I1127 22:55:26.120240 10202 net.cpp:165] Memory required for data: 1146931488
I1127 22:55:26.120255 10202 layer_factory.hpp:77] Creating layer relu3
I1127 22:55:26.120266 10202 net.cpp:100] Creating Layer relu3
I1127 22:55:26.120275 10202 net.cpp:434] relu3 <- conv3
I1127 22:55:26.120292 10202 net.cpp:395] relu3 -> conv3 (in-place)
I1127 22:55:26.120640 10202 net.cpp:150] Setting up relu3
I1127 22:55:26.120658 10202 net.cpp:157] Top shape: 36 1024 10 5 (1843200)
I1127 22:55:26.120666 10202 net.cpp:165] Memory required for data: 1154304288
I1127 22:55:26.120671 10202 layer_factory.hpp:77] Creating layer conv4-sm
I1127 22:55:26.120690 10202 net.cpp:100] Creating Layer conv4-sm
I1127 22:55:26.120698 10202 net.cpp:434] conv4-sm <- conv3
I1127 22:55:26.120714 10202 net.cpp:408] conv4-sm -> conv4
I1127 22:55:26.555099 10202 net.cpp:150] Setting up conv4-sm
I1127 22:55:26.555183 10202 net.cpp:157] Top shape: 36 1024 10 5 (1843200)
I1127 22:55:26.555199 10202 net.cpp:165] Memory required for data: 1161677088
I1127 22:55:26.555222 10202 layer_factory.hpp:77] Creating layer relu4
I1127 22:55:26.555241 10202 net.cpp:100] Creating Layer relu4
I1127 22:55:26.555263 10202 net.cpp:434] relu4 <- conv4
I1127 22:55:26.555279 10202 net.cpp:395] relu4 -> conv4 (in-place)
I1127 22:55:26.555593 10202 net.cpp:150] Setting up relu4
I1127 22:55:26.555616 10202 net.cpp:157] Top shape: 36 1024 10 5 (1843200)
I1127 22:55:26.555629 10202 net.cpp:165] Memory required for data: 1169049888
I1127 22:55:26.555640 10202 layer_factory.hpp:77] Creating layer pool5
I1127 22:55:26.555660 10202 net.cpp:100] Creating Layer pool5
I1127 22:55:26.555671 10202 net.cpp:434] pool5 <- conv4
I1127 22:55:26.555687 10202 net.cpp:408] pool5 -> pool5
I1127 22:55:26.555768 10202 net.cpp:150] Setting up pool5
I1127 22:55:26.555789 10202 net.cpp:157] Top shape: 36 1024 5 2 (368640)
I1127 22:55:26.555826 10202 net.cpp:165] Memory required for data: 1170524448
I1127 22:55:26.555838 10202 layer_factory.hpp:77] Creating layer fc6-sm
I1127 22:55:26.555871 10202 net.cpp:100] Creating Layer fc6-sm
I1127 22:55:26.555889 10202 net.cpp:434] fc6-sm <- pool5
I1127 22:55:26.555905 10202 net.cpp:408] fc6-sm -> fc6
I1127 22:55:27.085681 10202 net.cpp:150] Setting up fc6-sm
I1127 22:55:27.085748 10202 net.cpp:157] Top shape: 36 1024 (36864)
I1127 22:55:27.085778 10202 net.cpp:165] Memory required for data: 1170671904
I1127 22:55:27.085850 10202 layer_factory.hpp:77] Creating layer relu6
I1127 22:55:27.085880 10202 net.cpp:100] Creating Layer relu6
I1127 22:55:27.085891 10202 net.cpp:434] relu6 <- fc6
I1127 22:55:27.085901 10202 net.cpp:395] relu6 -> fc6 (in-place)
I1127 22:55:27.086633 10202 net.cpp:150] Setting up relu6
I1127 22:55:27.086655 10202 net.cpp:157] Top shape: 36 1024 (36864)
I1127 22:55:27.086668 10202 net.cpp:165] Memory required for data: 1170819360
I1127 22:55:27.086678 10202 layer_factory.hpp:77] Creating layer drop6
I1127 22:55:27.086699 10202 net.cpp:100] Creating Layer drop6
I1127 22:55:27.086710 10202 net.cpp:434] drop6 <- fc6
I1127 22:55:27.086721 10202 net.cpp:395] drop6 -> fc6 (in-place)
I1127 22:55:27.086782 10202 net.cpp:150] Setting up drop6
I1127 22:55:27.086799 10202 net.cpp:157] Top shape: 36 1024 (36864)
I1127 22:55:27.086815 10202 net.cpp:165] Memory required for data: 1170966816
I1127 22:55:27.086833 10202 layer_factory.hpp:77] Creating layer fc7-sm
I1127 22:55:27.086868 10202 net.cpp:100] Creating Layer fc7-sm
I1127 22:55:27.086900 10202 net.cpp:434] fc7-sm <- fc6
I1127 22:55:27.086925 10202 net.cpp:408] fc7-sm -> fc7
I1127 22:55:27.154866 10202 net.cpp:150] Setting up fc7-sm
I1127 22:55:27.154932 10202 net.cpp:157] Top shape: 36 1024 (36864)
I1127 22:55:27.154948 10202 net.cpp:165] Memory required for data: 1171114272
I1127 22:55:27.154970 10202 layer_factory.hpp:77] Creating layer relu7
I1127 22:55:27.154989 10202 net.cpp:100] Creating Layer relu7
I1127 22:55:27.155004 10202 net.cpp:434] relu7 <- fc7
I1127 22:55:27.155017 10202 net.cpp:395] relu7 -> fc7 (in-place)
I1127 22:55:27.155555 10202 net.cpp:150] Setting up relu7
I1127 22:55:27.155575 10202 net.cpp:157] Top shape: 36 1024 (36864)
I1127 22:55:27.155587 10202 net.cpp:165] Memory required for data: 1171261728
I1127 22:55:27.155599 10202 layer_factory.hpp:77] Creating layer drop7
I1127 22:55:27.155613 10202 net.cpp:100] Creating Layer drop7
I1127 22:55:27.155625 10202 net.cpp:434] drop7 <- fc7
I1127 22:55:27.155639 10202 net.cpp:395] drop7 -> fc7 (in-place)
I1127 22:55:27.155689 10202 net.cpp:150] Setting up drop7
I1127 22:55:27.155707 10202 net.cpp:157] Top shape: 36 1024 (36864)
I1127 22:55:27.155719 10202 net.cpp:165] Memory required for data: 1171409184
I1127 22:55:27.155730 10202 layer_factory.hpp:77] Creating layer reshape-data
I1127 22:55:27.155748 10202 net.cpp:100] Creating Layer reshape-data
I1127 22:55:27.155766 10202 net.cpp:434] reshape-data <- fc7
I1127 22:55:27.155777 10202 net.cpp:408] reshape-data -> fc7-reshape
I1127 22:55:27.155831 10202 net.cpp:150] Setting up reshape-data
I1127 22:55:27.155848 10202 net.cpp:157] Top shape: 3 12 1024 (36864)
I1127 22:55:27.155854 10202 net.cpp:165] Memory required for data: 1171556640
I1127 22:55:27.155861 10202 layer_factory.hpp:77] Creating layer reshape-label
I1127 22:55:27.155876 10202 net.cpp:100] Creating Layer reshape-label
I1127 22:55:27.155886 10202 net.cpp:434] reshape-label <- label
I1127 22:55:27.155896 10202 net.cpp:408] reshape-label -> reshape-label
I1127 22:55:27.155941 10202 net.cpp:150] Setting up reshape-label
I1127 22:55:27.155958 10202 net.cpp:157] Top shape: 3 12 (36)
I1127 22:55:27.155969 10202 net.cpp:165] Memory required for data: 1171556784
I1127 22:55:27.155980 10202 layer_factory.hpp:77] Creating layer reshape-label_reshape-label_0_split
I1127 22:55:27.155993 10202 net.cpp:100] Creating Layer reshape-label_reshape-label_0_split
I1127 22:55:27.156004 10202 net.cpp:434] reshape-label_reshape-label_0_split <- reshape-label
I1127 22:55:27.156033 10202 net.cpp:408] reshape-label_reshape-label_0_split -> reshape-label_reshape-label_0_split_0
I1127 22:55:27.156049 10202 net.cpp:408] reshape-label_reshape-label_0_split -> reshape-label_reshape-label_0_split_1
I1127 22:55:27.156090 10202 net.cpp:150] Setting up reshape-label_reshape-label_0_split
I1127 22:55:27.156102 10202 net.cpp:157] Top shape: 3 12 (36)
I1127 22:55:27.156111 10202 net.cpp:157] Top shape: 3 12 (36)
I1127 22:55:27.156117 10202 net.cpp:165] Memory required for data: 1171557072
I1127 22:55:27.156126 10202 layer_factory.hpp:77] Creating layer reshape-cm
I1127 22:55:27.156142 10202 net.cpp:100] Creating Layer reshape-cm
I1127 22:55:27.156154 10202 net.cpp:434] reshape-cm <- clip_markers
I1127 22:55:27.156167 10202 net.cpp:408] reshape-cm -> reshape-cm
I1127 22:55:27.156208 10202 net.cpp:150] Setting up reshape-cm
I1127 22:55:27.156225 10202 net.cpp:157] Top shape: 3 12 (36)
I1127 22:55:27.156234 10202 net.cpp:165] Memory required for data: 1171557216
I1127 22:55:27.156245 10202 layer_factory.hpp:77] Creating layer lstm1
I1127 22:55:27.156267 10202 net.cpp:100] Creating Layer lstm1
I1127 22:55:27.156280 10202 net.cpp:434] lstm1 <- fc7-reshape
I1127 22:55:27.156292 10202 net.cpp:434] lstm1 <- reshape-cm
I1127 22:55:27.156306 10202 net.cpp:408] lstm1 -> lstm1
I1127 22:55:27.156329 10202 recurrent_layer.cpp:20] Initializing recurrent layer: assuming input batch contains 3 timesteps of 12 independent streams.
I1127 22:55:27.156649 10202 net.cpp:58] Initializing net from parameters: 
layer {
  name: "lstm1_"
  type: "Input"
  top: "x"
  top: "cont"
  input_param {
    shape {
      dim: 3
      dim: 12
      dim: 1024
    }
    shape {
      dim: 3
      dim: 12
    }
  }
}
layer {
  name: "lstm1_"
  type: "Input"
  top: "c_0"
  top: "h_0"
  input_param {
    shape {
      dim: 1
      dim: 12
      dim: 1024
    }
    shape {
      dim: 1
      dim: 12
      dim: 1024
    }
  }
}
layer {
  name: "lstm1_cont_slice"
  type: "Slice"
  bottom: "cont"
  top: "cont_1"
  top: "cont_2"
  top: "cont_3"
  slice_param {
    axis: 0
  }
}
layer {
  name: "lstm1_x_transform"
  type: "InnerProduct"
  bottom: "x"
  top: "W_xc_x"
  param {
    name: "W_xc"
  }
  param {
    name: "b_c"
  }
  propagate_down: true
  inner_product_param {
    num_output: 4096
    bias_term: true
    weight_filler {
      type: "uniform"
      min: -0.01
      max: 0.01
    }
    bias_filler {
      type: "constant"
      value: 0
    }
    axis: 2
  }
}
layer {
  name: "lstm1_W_xc_x_slice"
  type: "Slice"
  bottom: "W_xc_x"
  top: "W_xc_x_1"
  top: "W_xc_x_2"
  top: "W_xc_x_3"
  slice_param {
    axis: 0
  }
}
layer {
  name: "lstm1_h_conted_0"
  type: "Scale"
  bottom: "h_0"
  bottom: "cont_1"
  top: "h_conted_0"
  scale_param {
    axis: 0
  }
}
layer {
  name: "lstm1_transform_1"
  type: "InnerProduct"
  bottom: "h_conted_0"
  top: "W_hc_h_0"
  param {
    name: "W_hc"
  }
  inner_product_param {
    num_output: 4096
    bias_term: false
    weight_filler {
      type: "uniform"
      min: -0.01
      max: 0.01
    }
    axis: 2
  }
}
layer {
  name: "lstm1_gate_input_1"
  type: "Eltwise"
  bottom: "W_hc_h_0"
  bottom: "W_xc_x_1"
  top: "gate_input_1"
  eltwise_param {
    operation: SUM
  }
}
layer {
  name: "lstm1_unit_1"
  type: "LSTMUnit"
  bottom: "c_0"
  bottom: "gate_input_1"
  bottom: "cont_1"
  top: "c_1"
  top: "h_1"
}
layer {
  name: "lstm1_h_conted_1"
  type: "Scale"
  bottom: "h_1"
  bottom: "cont_2"
  top: "h_conted_1"
  scale_param {
    axis: 0
  }
}
layer {
  name: "lstm1_transform_2"
  type: "InnerProduct"
  bottom: "h_conted_1"
  top: "W_hc_h_1"
  param {
    name: "W_hc"
  }
  inner_product_param {
    num_output: 4096
    bias_term: false
    weight_filler {
      type: "uniform"
      min: -0.01
      max: 0.01
    }
    axis: 2
  }
}
layer {
  name: "lstm1_gate_input_2"
  type: "Eltwise"
  bottom: "W_hc_h_1"
  bottom: "W_xc_x_2"
  top: "gate_input_2"
  eltwise_param {
    operation: SUM
  }
}
layer {
  name: "lstm1_unit_2"
  type: "LSTMUnit"
  bottom: "c_1"
  bottom: "gate_input_2"
  bottom: "cont_2"
  top: "c_2"
  top: "h_2"
}
layer {
  name: "lstm1_h_conted_2"
  type: "Scale"
  bottom: "h_2"
  bottom: "cont_3"
  top: "h_conted_2"
  scale_param {
    axis: 0
  }
}
layer {
  name: "lstm1_transform_3"
  type: "InnerProduct"
  bottom: "h_conted_2"
  top: "W_hc_h_2"
  param {
    name: "W_hc"
  }
  inner_product_param {
    num_output: 4096
    bias_term: false
    weight_filler {
      type: "uniform"
      min: -0.01
      max: 0.01
    }
    axis: 2
  }
}
layer {
  name: "lstm1_gate_input_3"
  type: "Eltwise"
  bottom: "W_hc_h_2"
  bottom: "W_xc_x_3"
  top: "gate_input_3"
  eltwise_param {
    operation: SUM
  }
}
layer {
  name: "lstm1_unit_3"
  type: "LSTMUnit"
  bottom: "c_2"
  bottom: "gate_input_3"
  bottom: "cont_3"
  top: "c_3"
  top: "h_3"
}
layer {
  name: "lstm1_"
  type: "Split"
  bottom: "c_3"
  top: "c_T"
}
layer {
  name: "lstm1_h_concat"
  type: "Concat"
  bottom: "h_1"
  bottom: "h_2"
  bottom: "h_3"
  top: "h"
  concat_param {
    axis: 0
  }
}
layer {
  name: "h_pseudoloss"
  type: "Reduction"
  bottom: "h"
  top: "h_pseudoloss"
  loss_weight: 1
}
I1127 22:55:27.156815 10202 layer_factory.hpp:77] Creating layer lstm1_
I1127 22:55:27.156847 10202 net.cpp:100] Creating Layer lstm1_
I1127 22:55:27.156857 10202 net.cpp:408] lstm1_ -> x
I1127 22:55:27.156875 10202 net.cpp:408] lstm1_ -> cont
I1127 22:55:27.156945 10202 net.cpp:150] Setting up lstm1_
I1127 22:55:27.156963 10202 net.cpp:157] Top shape: 3 12 1024 (36864)
I1127 22:55:27.156975 10202 net.cpp:157] Top shape: 3 12 (36)
I1127 22:55:27.156983 10202 net.cpp:165] Memory required for data: 147600
I1127 22:55:27.156996 10202 layer_factory.hpp:77] Creating layer lstm1_
I1127 22:55:27.157008 10202 net.cpp:100] Creating Layer lstm1_
I1127 22:55:27.157018 10202 net.cpp:408] lstm1_ -> c_0
I1127 22:55:27.157032 10202 net.cpp:408] lstm1_ -> h_0
I1127 22:55:27.157088 10202 net.cpp:150] Setting up lstm1_
I1127 22:55:27.157105 10202 net.cpp:157] Top shape: 1 12 1024 (12288)
I1127 22:55:27.157116 10202 net.cpp:157] Top shape: 1 12 1024 (12288)
I1127 22:55:27.157124 10202 net.cpp:165] Memory required for data: 245904
I1127 22:55:27.157131 10202 layer_factory.hpp:77] Creating layer lstm1_cont_slice
I1127 22:55:27.157145 10202 net.cpp:100] Creating Layer lstm1_cont_slice
I1127 22:55:27.157153 10202 net.cpp:434] lstm1_cont_slice <- cont
I1127 22:55:27.157162 10202 net.cpp:408] lstm1_cont_slice -> cont_1
I1127 22:55:27.157174 10202 net.cpp:408] lstm1_cont_slice -> cont_2
I1127 22:55:27.157184 10202 net.cpp:408] lstm1_cont_slice -> cont_3
I1127 22:55:27.157259 10202 net.cpp:150] Setting up lstm1_cont_slice
I1127 22:55:27.157284 10202 net.cpp:157] Top shape: 1 12 (12)
I1127 22:55:27.157295 10202 net.cpp:157] Top shape: 1 12 (12)
I1127 22:55:27.157305 10202 net.cpp:157] Top shape: 1 12 (12)
I1127 22:55:27.157315 10202 net.cpp:165] Memory required for data: 246048
I1127 22:55:27.157325 10202 layer_factory.hpp:77] Creating layer cont_1_lstm1_cont_slice_0_split
I1127 22:55:27.157336 10202 net.cpp:100] Creating Layer cont_1_lstm1_cont_slice_0_split
I1127 22:55:27.157351 10202 net.cpp:434] cont_1_lstm1_cont_slice_0_split <- cont_1
I1127 22:55:27.157362 10202 net.cpp:408] cont_1_lstm1_cont_slice_0_split -> cont_1_lstm1_cont_slice_0_split_0
I1127 22:55:27.157374 10202 net.cpp:408] cont_1_lstm1_cont_slice_0_split -> cont_1_lstm1_cont_slice_0_split_1
I1127 22:55:27.157438 10202 net.cpp:150] Setting up cont_1_lstm1_cont_slice_0_split
I1127 22:55:27.157456 10202 net.cpp:157] Top shape: 1 12 (12)
I1127 22:55:27.157466 10202 net.cpp:157] Top shape: 1 12 (12)
I1127 22:55:27.157475 10202 net.cpp:165] Memory required for data: 246144
I1127 22:55:27.157485 10202 layer_factory.hpp:77] Creating layer cont_2_lstm1_cont_slice_1_split
I1127 22:55:27.157497 10202 net.cpp:100] Creating Layer cont_2_lstm1_cont_slice_1_split
I1127 22:55:27.157505 10202 net.cpp:434] cont_2_lstm1_cont_slice_1_split <- cont_2
I1127 22:55:27.157515 10202 net.cpp:408] cont_2_lstm1_cont_slice_1_split -> cont_2_lstm1_cont_slice_1_split_0
I1127 22:55:27.157526 10202 net.cpp:408] cont_2_lstm1_cont_slice_1_split -> cont_2_lstm1_cont_slice_1_split_1
I1127 22:55:27.157591 10202 net.cpp:150] Setting up cont_2_lstm1_cont_slice_1_split
I1127 22:55:27.157609 10202 net.cpp:157] Top shape: 1 12 (12)
I1127 22:55:27.157620 10202 net.cpp:157] Top shape: 1 12 (12)
I1127 22:55:27.157629 10202 net.cpp:165] Memory required for data: 246240
I1127 22:55:27.157637 10202 layer_factory.hpp:77] Creating layer cont_3_lstm1_cont_slice_2_split
I1127 22:55:27.157649 10202 net.cpp:100] Creating Layer cont_3_lstm1_cont_slice_2_split
I1127 22:55:27.157662 10202 net.cpp:434] cont_3_lstm1_cont_slice_2_split <- cont_3
I1127 22:55:27.163949 10202 net.cpp:408] cont_3_lstm1_cont_slice_2_split -> cont_3_lstm1_cont_slice_2_split_0
I1127 22:55:27.163993 10202 net.cpp:408] cont_3_lstm1_cont_slice_2_split -> cont_3_lstm1_cont_slice_2_split_1
I1127 22:55:27.164113 10202 net.cpp:150] Setting up cont_3_lstm1_cont_slice_2_split
I1127 22:55:27.164134 10202 net.cpp:157] Top shape: 1 12 (12)
I1127 22:55:27.164149 10202 net.cpp:157] Top shape: 1 12 (12)
I1127 22:55:27.164167 10202 net.cpp:165] Memory required for data: 246336
I1127 22:55:27.164186 10202 layer_factory.hpp:77] Creating layer lstm1_x_transform
I1127 22:55:27.164222 10202 net.cpp:100] Creating Layer lstm1_x_transform
I1127 22:55:27.164242 10202 net.cpp:434] lstm1_x_transform <- x
I1127 22:55:27.164259 10202 net.cpp:408] lstm1_x_transform -> W_xc_x
I1127 22:55:27.203654 10202 net.cpp:150] Setting up lstm1_x_transform
I1127 22:55:27.203712 10202 net.cpp:157] Top shape: 3 12 4096 (147456)
I1127 22:55:27.203729 10202 net.cpp:165] Memory required for data: 836160
I1127 22:55:27.203752 10202 layer_factory.hpp:77] Creating layer lstm1_W_xc_x_slice
I1127 22:55:27.203775 10202 net.cpp:100] Creating Layer lstm1_W_xc_x_slice
I1127 22:55:27.203789 10202 net.cpp:434] lstm1_W_xc_x_slice <- W_xc_x
I1127 22:55:27.203804 10202 net.cpp:408] lstm1_W_xc_x_slice -> W_xc_x_1
I1127 22:55:27.203824 10202 net.cpp:408] lstm1_W_xc_x_slice -> W_xc_x_2
I1127 22:55:27.203841 10202 net.cpp:408] lstm1_W_xc_x_slice -> W_xc_x_3
I1127 22:55:27.203932 10202 net.cpp:150] Setting up lstm1_W_xc_x_slice
I1127 22:55:27.203950 10202 net.cpp:157] Top shape: 1 12 4096 (49152)
I1127 22:55:27.203963 10202 net.cpp:157] Top shape: 1 12 4096 (49152)
I1127 22:55:27.203976 10202 net.cpp:157] Top shape: 1 12 4096 (49152)
I1127 22:55:27.203986 10202 net.cpp:165] Memory required for data: 1425984
I1127 22:55:27.203997 10202 layer_factory.hpp:77] Creating layer lstm1_h_conted_0
I1127 22:55:27.204021 10202 net.cpp:100] Creating Layer lstm1_h_conted_0
I1127 22:55:27.204035 10202 net.cpp:434] lstm1_h_conted_0 <- h_0
I1127 22:55:27.204048 10202 net.cpp:434] lstm1_h_conted_0 <- cont_1_lstm1_cont_slice_0_split_0
I1127 22:55:27.204062 10202 net.cpp:408] lstm1_h_conted_0 -> h_conted_0
I1127 22:55:27.204190 10202 net.cpp:150] Setting up lstm1_h_conted_0
I1127 22:55:27.204208 10202 net.cpp:157] Top shape: 1 12 1024 (12288)
I1127 22:55:27.204221 10202 net.cpp:165] Memory required for data: 1475136
I1127 22:55:27.204241 10202 layer_factory.hpp:77] Creating layer lstm1_transform_1
I1127 22:55:27.204258 10202 net.cpp:100] Creating Layer lstm1_transform_1
I1127 22:55:27.204268 10202 net.cpp:434] lstm1_transform_1 <- h_conted_0
I1127 22:55:27.204282 10202 net.cpp:408] lstm1_transform_1 -> W_hc_h_0
I1127 22:55:27.240752 10202 net.cpp:150] Setting up lstm1_transform_1
I1127 22:55:27.240819 10202 net.cpp:157] Top shape: 1 12 4096 (49152)
I1127 22:55:27.240841 10202 net.cpp:165] Memory required for data: 1671744
I1127 22:55:27.240862 10202 layer_factory.hpp:77] Creating layer lstm1_gate_input_1
I1127 22:55:27.240891 10202 net.cpp:100] Creating Layer lstm1_gate_input_1
I1127 22:55:27.240906 10202 net.cpp:434] lstm1_gate_input_1 <- W_hc_h_0
I1127 22:55:27.240917 10202 net.cpp:434] lstm1_gate_input_1 <- W_xc_x_1
I1127 22:55:27.240929 10202 net.cpp:408] lstm1_gate_input_1 -> gate_input_1
I1127 22:55:27.240996 10202 net.cpp:150] Setting up lstm1_gate_input_1
I1127 22:55:27.241014 10202 net.cpp:157] Top shape: 1 12 4096 (49152)
I1127 22:55:27.241024 10202 net.cpp:165] Memory required for data: 1868352
I1127 22:55:27.241051 10202 layer_factory.hpp:77] Creating layer lstm1_unit_1
I1127 22:55:27.241077 10202 net.cpp:100] Creating Layer lstm1_unit_1
I1127 22:55:27.241106 10202 net.cpp:434] lstm1_unit_1 <- c_0
I1127 22:55:27.241117 10202 net.cpp:434] lstm1_unit_1 <- gate_input_1
I1127 22:55:27.241145 10202 net.cpp:434] lstm1_unit_1 <- cont_1_lstm1_cont_slice_0_split_1
I1127 22:55:27.241165 10202 net.cpp:408] lstm1_unit_1 -> c_1
I1127 22:55:27.241197 10202 net.cpp:408] lstm1_unit_1 -> h_1
I1127 22:55:27.241284 10202 net.cpp:150] Setting up lstm1_unit_1
I1127 22:55:27.241310 10202 net.cpp:157] Top shape: 1 12 1024 (12288)
I1127 22:55:27.241322 10202 net.cpp:157] Top shape: 1 12 1024 (12288)
I1127 22:55:27.241330 10202 net.cpp:165] Memory required for data: 1966656
I1127 22:55:27.241354 10202 layer_factory.hpp:77] Creating layer h_1_lstm1_unit_1_1_split
I1127 22:55:27.241376 10202 net.cpp:100] Creating Layer h_1_lstm1_unit_1_1_split
I1127 22:55:27.241395 10202 net.cpp:434] h_1_lstm1_unit_1_1_split <- h_1
I1127 22:55:27.241417 10202 net.cpp:408] h_1_lstm1_unit_1_1_split -> h_1_lstm1_unit_1_1_split_0
I1127 22:55:27.241438 10202 net.cpp:408] h_1_lstm1_unit_1_1_split -> h_1_lstm1_unit_1_1_split_1
I1127 22:55:27.241504 10202 net.cpp:150] Setting up h_1_lstm1_unit_1_1_split
I1127 22:55:27.241529 10202 net.cpp:157] Top shape: 1 12 1024 (12288)
I1127 22:55:27.241547 10202 net.cpp:157] Top shape: 1 12 1024 (12288)
I1127 22:55:27.241565 10202 net.cpp:165] Memory required for data: 2064960
I1127 22:55:27.241585 10202 layer_factory.hpp:77] Creating layer lstm1_h_conted_1
I1127 22:55:27.241607 10202 net.cpp:100] Creating Layer lstm1_h_conted_1
I1127 22:55:27.241626 10202 net.cpp:434] lstm1_h_conted_1 <- h_1_lstm1_unit_1_1_split_0
I1127 22:55:27.241637 10202 net.cpp:434] lstm1_h_conted_1 <- cont_2_lstm1_cont_slice_1_split_0
I1127 22:55:27.241667 10202 net.cpp:408] lstm1_h_conted_1 -> h_conted_1
I1127 22:55:27.241895 10202 net.cpp:150] Setting up lstm1_h_conted_1
I1127 22:55:27.241916 10202 net.cpp:157] Top shape: 1 12 1024 (12288)
I1127 22:55:27.241926 10202 net.cpp:165] Memory required for data: 2114112
I1127 22:55:27.241945 10202 layer_factory.hpp:77] Creating layer lstm1_transform_2
I1127 22:55:27.241971 10202 net.cpp:100] Creating Layer lstm1_transform_2
I1127 22:55:27.241981 10202 net.cpp:434] lstm1_transform_2 <- h_conted_1
I1127 22:55:27.241992 10202 net.cpp:408] lstm1_transform_2 -> W_hc_h_1
I1127 22:55:27.282693 10202 net.cpp:150] Setting up lstm1_transform_2
I1127 22:55:27.282763 10202 net.cpp:157] Top shape: 1 12 4096 (49152)
I1127 22:55:27.282779 10202 net.cpp:165] Memory required for data: 2310720
I1127 22:55:27.282795 10202 net.cpp:493] Sharing parameters 'W_hc' owned by layer 'lstm1_transform_1', param index 0
I1127 22:55:27.282809 10202 layer_factory.hpp:77] Creating layer lstm1_gate_input_2
I1127 22:55:27.282829 10202 net.cpp:100] Creating Layer lstm1_gate_input_2
I1127 22:55:27.282843 10202 net.cpp:434] lstm1_gate_input_2 <- W_hc_h_1
I1127 22:55:27.282867 10202 net.cpp:434] lstm1_gate_input_2 <- W_xc_x_2
I1127 22:55:27.282882 10202 net.cpp:408] lstm1_gate_input_2 -> gate_input_2
I1127 22:55:27.282943 10202 net.cpp:150] Setting up lstm1_gate_input_2
I1127 22:55:27.282960 10202 net.cpp:157] Top shape: 1 12 4096 (49152)
I1127 22:55:27.282973 10202 net.cpp:165] Memory required for data: 2507328
I1127 22:55:27.282984 10202 layer_factory.hpp:77] Creating layer lstm1_unit_2
I1127 22:55:27.283000 10202 net.cpp:100] Creating Layer lstm1_unit_2
I1127 22:55:27.283013 10202 net.cpp:434] lstm1_unit_2 <- c_1
I1127 22:55:27.283025 10202 net.cpp:434] lstm1_unit_2 <- gate_input_2
I1127 22:55:27.283037 10202 net.cpp:434] lstm1_unit_2 <- cont_2_lstm1_cont_slice_1_split_1
I1127 22:55:27.283049 10202 net.cpp:408] lstm1_unit_2 -> c_2
I1127 22:55:27.283072 10202 net.cpp:408] lstm1_unit_2 -> h_2
I1127 22:55:27.283157 10202 net.cpp:150] Setting up lstm1_unit_2
I1127 22:55:27.283191 10202 net.cpp:157] Top shape: 1 12 1024 (12288)
I1127 22:55:27.283213 10202 net.cpp:157] Top shape: 1 12 1024 (12288)
I1127 22:55:27.283231 10202 net.cpp:165] Memory required for data: 2605632
I1127 22:55:27.283255 10202 layer_factory.hpp:77] Creating layer h_2_lstm1_unit_2_1_split
I1127 22:55:27.283289 10202 net.cpp:100] Creating Layer h_2_lstm1_unit_2_1_split
I1127 22:55:27.283308 10202 net.cpp:434] h_2_lstm1_unit_2_1_split <- h_2
I1127 22:55:27.283325 10202 net.cpp:408] h_2_lstm1_unit_2_1_split -> h_2_lstm1_unit_2_1_split_0
I1127 22:55:27.283339 10202 net.cpp:408] h_2_lstm1_unit_2_1_split -> h_2_lstm1_unit_2_1_split_1
I1127 22:55:27.283398 10202 net.cpp:150] Setting up h_2_lstm1_unit_2_1_split
I1127 22:55:27.283417 10202 net.cpp:157] Top shape: 1 12 1024 (12288)
I1127 22:55:27.283428 10202 net.cpp:157] Top shape: 1 12 1024 (12288)
I1127 22:55:27.283437 10202 net.cpp:165] Memory required for data: 2703936
I1127 22:55:27.283444 10202 layer_factory.hpp:77] Creating layer lstm1_h_conted_2
I1127 22:55:27.283462 10202 net.cpp:100] Creating Layer lstm1_h_conted_2
I1127 22:55:27.283474 10202 net.cpp:434] lstm1_h_conted_2 <- h_2_lstm1_unit_2_1_split_0
I1127 22:55:27.283484 10202 net.cpp:434] lstm1_h_conted_2 <- cont_3_lstm1_cont_slice_2_split_0
I1127 22:55:27.283495 10202 net.cpp:408] lstm1_h_conted_2 -> h_conted_2
I1127 22:55:27.283692 10202 net.cpp:150] Setting up lstm1_h_conted_2
I1127 22:55:27.283711 10202 net.cpp:157] Top shape: 1 12 1024 (12288)
I1127 22:55:27.283720 10202 net.cpp:165] Memory required for data: 2753088
I1127 22:55:27.283730 10202 layer_factory.hpp:77] Creating layer lstm1_transform_3
I1127 22:55:27.283751 10202 net.cpp:100] Creating Layer lstm1_transform_3
I1127 22:55:27.283761 10202 net.cpp:434] lstm1_transform_3 <- h_conted_2
I1127 22:55:27.283771 10202 net.cpp:408] lstm1_transform_3 -> W_hc_h_2
I1127 22:55:27.321971 10202 net.cpp:150] Setting up lstm1_transform_3
I1127 22:55:27.322049 10202 net.cpp:157] Top shape: 1 12 4096 (49152)
I1127 22:55:27.322072 10202 net.cpp:165] Memory required for data: 2949696
I1127 22:55:27.322093 10202 net.cpp:493] Sharing parameters 'W_hc' owned by layer 'lstm1_transform_1', param index 0
I1127 22:55:27.322108 10202 layer_factory.hpp:77] Creating layer lstm1_gate_input_3
I1127 22:55:27.322134 10202 net.cpp:100] Creating Layer lstm1_gate_input_3
I1127 22:55:27.322147 10202 net.cpp:434] lstm1_gate_input_3 <- W_hc_h_2
I1127 22:55:27.322162 10202 net.cpp:434] lstm1_gate_input_3 <- W_xc_x_3
I1127 22:55:27.322188 10202 net.cpp:408] lstm1_gate_input_3 -> gate_input_3
I1127 22:55:27.322245 10202 net.cpp:150] Setting up lstm1_gate_input_3
I1127 22:55:27.322266 10202 net.cpp:157] Top shape: 1 12 4096 (49152)
I1127 22:55:27.322279 10202 net.cpp:165] Memory required for data: 3146304
I1127 22:55:27.322290 10202 layer_factory.hpp:77] Creating layer lstm1_unit_3
I1127 22:55:27.322304 10202 net.cpp:100] Creating Layer lstm1_unit_3
I1127 22:55:27.322315 10202 net.cpp:434] lstm1_unit_3 <- c_2
I1127 22:55:27.322329 10202 net.cpp:434] lstm1_unit_3 <- gate_input_3
I1127 22:55:27.322340 10202 net.cpp:434] lstm1_unit_3 <- cont_3_lstm1_cont_slice_2_split_1
I1127 22:55:27.322363 10202 net.cpp:408] lstm1_unit_3 -> c_3
I1127 22:55:27.322381 10202 net.cpp:408] lstm1_unit_3 -> h_3
I1127 22:55:27.322463 10202 net.cpp:150] Setting up lstm1_unit_3
I1127 22:55:27.322497 10202 net.cpp:157] Top shape: 1 12 1024 (12288)
I1127 22:55:27.322512 10202 net.cpp:157] Top shape: 1 12 1024 (12288)
I1127 22:55:27.322521 10202 net.cpp:165] Memory required for data: 3244608
I1127 22:55:27.322531 10202 layer_factory.hpp:77] Creating layer lstm1_
I1127 22:55:27.322546 10202 net.cpp:100] Creating Layer lstm1_
I1127 22:55:27.322556 10202 net.cpp:434] lstm1_ <- c_3
I1127 22:55:27.322571 10202 net.cpp:408] lstm1_ -> c_T
I1127 22:55:27.322609 10202 net.cpp:150] Setting up lstm1_
I1127 22:55:27.322630 10202 net.cpp:157] Top shape: 1 12 1024 (12288)
I1127 22:55:27.322643 10202 net.cpp:165] Memory required for data: 3293760
I1127 22:55:27.322654 10202 layer_factory.hpp:77] Creating layer lstm1_h_concat
I1127 22:55:27.322671 10202 net.cpp:100] Creating Layer lstm1_h_concat
I1127 22:55:27.322688 10202 net.cpp:434] lstm1_h_concat <- h_1_lstm1_unit_1_1_split_1
I1127 22:55:27.322715 10202 net.cpp:434] lstm1_h_concat <- h_2_lstm1_unit_2_1_split_1
I1127 22:55:27.322727 10202 net.cpp:434] lstm1_h_concat <- h_3
I1127 22:55:27.322742 10202 net.cpp:408] lstm1_h_concat -> h
I1127 22:55:27.322784 10202 net.cpp:150] Setting up lstm1_h_concat
I1127 22:55:27.322806 10202 net.cpp:157] Top shape: 3 12 1024 (36864)
I1127 22:55:27.322818 10202 net.cpp:165] Memory required for data: 3441216
I1127 22:55:27.322829 10202 layer_factory.hpp:77] Creating layer h_pseudoloss
I1127 22:55:27.322849 10202 net.cpp:100] Creating Layer h_pseudoloss
I1127 22:55:27.322873 10202 net.cpp:434] h_pseudoloss <- h
I1127 22:55:27.322888 10202 net.cpp:408] h_pseudoloss -> h_pseudoloss
I1127 22:55:27.323041 10202 net.cpp:150] Setting up h_pseudoloss
…
I1127 22:55:27.323422 10202 net.cpp:228] lstm1_ does not need backward computation.
I1127 22:55:27.323432 10202 net.cpp:270] This network produces output c_T
I1127 22:55:27.323444 10202 net.cpp:270] This network produces output h_pseudoloss
I1127 22:55:27.331504 10202 net.cpp:283] Network initialization done.
I1127 22:55:27.331686 10202 recurrent_layer.cpp:150] Adding parameter 0: W_xc
I1127 22:55:27.331720 10202 recurrent_layer.cpp:150] Adding parameter 1: b_c
I1127 22:55:27.331742 10202 recurrent_layer.cpp:150] Adding parameter 2: W_hc
I1127 22:55:27.332118 10202 net.cpp:150] Setting up lstm1
I1127 22:55:27.332157 10202 net.cpp:157] Top shape: 3 12 1024 (36864)
I1127 22:55:27.332178 10202 net.cpp:165] Memory required for data: 1171704672
I1127 22:55:27.332203 10202 layer_factory.hpp:77] Creating layer lstm1-drop
I1127 22:55:27.332228 10202 net.cpp:100] Creating Layer lstm1-drop
I1127 22:55:27.332244 10202 net.cpp:434] lstm1-drop <- lstm1
I1127 22:55:27.332258 10202 net.cpp:395] lstm1-drop -> lstm1 (in-place)
I1127 22:55:27.332341 10202 net.cpp:150] Setting up lstm1-drop
I1127 22:55:27.332377 10202 net.cpp:157] Top shape: 3 12 1024 (36864)
I1127 22:55:27.332398 10202 net.cpp:165] Memory required for data: 1171852128
I1127 22:55:27.332411 10202 layer_factory.hpp:77] Creating layer fc8-final
I1127 22:55:27.332427 10202 net.cpp:100] Creating Layer fc8-final
I1127 22:55:27.332439 10202 net.cpp:434] fc8-final <- lstm1
I1127 22:55:27.332455 10202 net.cpp:408] fc8-final -> fc8-final
I1127 22:55:27.332734 10202 net.cpp:150] Setting up fc8-final
I1127 22:55:27.332765 10202 net.cpp:157] Top shape: 3 12 2 (72)
I1127 22:55:27.332783 10202 net.cpp:165] Memory required for data: 1171852416
I1127 22:55:27.332798 10202 layer_factory.hpp:77] Creating layer fc8-final_fc8-final_0_split
I1127 22:55:27.332813 10202 net.cpp:100] Creating Layer fc8-final_fc8-final_0_split
I1127 22:55:27.332824 10202 net.cpp:434] fc8-final_fc8-final_0_split <- fc8-final
I1127 22:55:27.332835 10202 net.cpp:408] fc8-final_fc8-final_0_split -> fc8-final_fc8-final_0_split_0
I1127 22:55:27.332850 10202 net.cpp:408] fc8-final_fc8-final_0_split -> fc8-final_fc8-final_0_split_1
I1127 22:55:27.332926 10202 net.cpp:150] Setting up fc8-final_fc8-final_0_split
I1127 22:55:27.332962 10202 net.cpp:157] Top shape: 3 12 2 (72)
I1127 22:55:27.332975 10202 net.cpp:157] Top shape: 3 12 2 (72)
I1127 22:55:27.332985 10202 net.cpp:165] Memory required for data: 1171852992
I1127 22:55:27.332994 10202 layer_factory.hpp:77] Creating layer loss
I1127 22:55:27.333020 10202 net.cpp:100] Creating Layer loss
I1127 22:55:27.333045 10202 net.cpp:434] loss <- fc8-final_fc8-final_0_split_0
I1127 22:55:27.333060 10202 net.cpp:434] loss <- reshape-label_reshape-label_0_split_0
I1127 22:55:27.333075 10202 net.cpp:408] loss -> loss
…
