…
I1121 21:53:39.534119 12244 solver.cpp:91] Creating training net from net file: experiments_py/exper_cuhk/cuhk01/singleNet/train_val.prototxt
I1121 21:53:39.559675 12244 net.cpp:322] The NetState phase (0) differed from the phase (1) specified by a rule in layer data
I1121 21:53:39.560966 12244 net.cpp:58] Initializing net from parameters: 
name: "AlexNet"
state {
  phase: TRAIN
  level: 0
  stage: ""
}
layer {
  name: "data"
  type: "Python"
  top: "data"
  top: "data_p"
  top: "label"
  include {
    phase: TRAIN
  }
  python_param {
    module: "cuhk01_SeqIn_layer"
    layer: "videoReadTrain"
  }
}
layer {
  name: "conv1/7x7_s2"
  type: "Convolution"
  bottom: "data"
  top: "conv1/7x7_s2"
  param {
    name: "conv1/7x7_s2_w"
    lr_mult: 1
    decay_mult: 1
  }
  param {
    name: "conv1/7x7_s2_b"
    lr_mult: 2
    decay_mult: 0
  }
  convolution_param {
    num_output: 64
    pad: 3
    kernel_size: 7
    stride: 2
    weight_filler {
      type: "xavier"
    }
    bias_filler {
      type: "constant"
      value: 0.2
    }
  }
}
layer {
  name: "conv1/relu_7x7"
  type: "ReLU"
  bottom: "conv1/7x7_s2"
  top: "conv1/7x7_s2"
}
layer {
  name: "pool1/3x3_s2"
  type: "Pooling"
  bottom: "conv1/7x7_s2"
  top: "pool1/3x3_s2"
  pooling_param {
    pool: MAX
    kernel_size: 3
    stride: 2
  }
}
layer {
  name: "pool1/norm1"
  type: "LRN"
  bottom: "pool1/3x3_s2"
  top: "pool1/norm1"
  lrn_param {
    local_size: 5
    alpha: 0.0001
    beta: 0.75
  }
}
layer {
  name: "conv2/3x3_reduce"
  type: "Convolution"
  bottom: "pool1/norm1"
  top: "conv2/3x3_reduce"
  param {
    name: "conv2/3x3_reduce_w"
    lr_mult: 1
    decay_mult: 1
  }
  param {
    name: "conv2/3x3_reduce_b"
    lr_mult: 2
    decay_mult: 0
  }
  convolution_param {
    num_output: 64
    kernel_size: 1
    weight_filler {
      type: "xavier"
    }
    bias_filler {
      type: "constant"
      value: 0.2
    }
  }
}
layer {
  name: "conv2/relu_3x3_reduce"
  type: "ReLU"
  bottom: "conv2/3x3_reduce"
  top: "conv2/3x3_reduce"
}
layer {
  name: "conv2/3x3"
  type: "Convolution"
  bottom: "conv2/3x3_reduce"
  top: "conv2/3x3"
  param {
    name: "conv2/3x3_w"
    lr_mult: 1
    decay_mult: 1
  }
  param {
    name: "conv2/3x3_b"
    lr_mult: 2
    decay_mult: 0
  }
  convolution_param {
    num_output: 192
    pad: 1
    kernel_size: 3
    weight_filler {
      type: "xavier"
    }
    bias_filler {
      type: "constant"
      value: 0.2
    }
  }
}
layer {
  name: "conv2/relu_3x3"
  type: "ReLU"
  bottom: "conv2/3x3"
  top: "conv2/3x3"
}
layer {
  name: "pool2/3x3_s2"
  type: "Pooling"
  bottom: "conv2/3x3"
  top: "pool2/3x3_s2"
  pooling_param {
    pool: MAX
    kernel_size: 3
    stride: 2
  }
}
layer {
  name: "inception_3a/1x1"
  type: "Convolution"
  bottom: "pool2/3x3_s2"
  top: "inception_3a/1x1"
  param {
    name: "inception_3a/1x1_w"
    lr_mult: 1
    decay_mult: 1
  }
  param {
    name: "inception_3a/1x1_b"
    lr_mult: 2
    decay_mult: 0
  }
  convolution_param {
    num_output: 64
    kernel_size: 1
    weight_filler {
      type: "xavier"
    }
    bias_filler {
      type: "constant"
      value: 0.2
    }
  }
}
layer {
  name: "inception_3a/relu_1x1"
  type: "ReLU"
  bottom: "inception_3a/1x1"
  top: "inception_3a/1x1"
}
layer {
  name: "inception_3a/3x3_reduce"
  type: "Convolution"
  bottom: "pool2/3x3_s2"
  top: "inception_3a/3x3_reduce"
  param {
    name: "inception_3a/3x3_reduce_w"
    lr_mult: 1
    decay_mult: 1
  }
  param {
    name: "inception_3a/3x3_reduce_b"
    lr_mult: 2
    decay_mult: 0
  }
  convolution_param {
    num_output: 96
    kernel_size: 1
    weight_filler {
      type: "xavier"
    }
    bias_filler {
      type: "constant"
      value: 0.2
    }
  }
}
layer {
  name: "inception_3a/relu_3x3_reduce"
  type: "ReLU"
  bottom: "inception_3a/3x3_reduce"
  top: "inception_3a/3x3_reduce"
}
layer {
  name: "inception_3a/3x3"
  type: "Convolution"
  bottom: "inception_3a/3x3_reduce"
  top: "inception_3a/3x3"
  param {
    name: "inception_3a/3x3_w"
    lr_mult: 1
    decay_mult: 1
  }
  param {
    name: "inception_3a/3x3_b"
    lr_mult: 2
    decay_mult: 0
  }
  convolution_param {
    num_output: 128
    pad: 1
    kernel_size: 3
    weight_filler {
      type: "xavier"
    }
    bias_filler {
      type: "constant"
      value: 0.2
    }
  }
}
layer {
  name: "inception_3a/relu_3x3"
  type: "ReLU"
  bottom: "inception_3a/3x3"
  top: "inception_3a/3x3"
}
layer {
  name: "inception_3a/5x5_reduce"
  type: "Convolution"
  bottom: "pool2/3x3_s2"
  top: "inception_3a/5x5_reduce"
  param {
    name: "inception_3a/5x5_reduce_w"
    lr_mult: 1
    decay_mult: 1
  }
  param {
    name: "inception_3a/5x5_reduce_b"
    lr_mult: 2
    decay_mult: 0
  }
  convolution_param {
    num_output: 16
    kernel_size: 1
    weight_filler {
      type: "xavier"
    }
    bias_filler {
      type: "constant"
      value: 0.2
    }
  }
}
layer {
  name: "inception_3a/relu_5x5_reduce"
  type: "ReLU"
  bottom: "inception_3a/5x5_reduce"
  top: "inception_3a/5x5_reduce"
}
layer {
  name: "inception_3a/5x5"
  type: "Convolution"
  bottom: "inception_3a/5x5_reduce"
  top: "inception_3a/5x5"
  param {
    name: "inception_3a/5x5_w"
    lr_mult: 1
    decay_mult: 1
  }
  param {
    name: "inception_3a/5x5_b"
    lr_mult: 2
    decay_mult: 0
  }
  convolution_param {
    num_output: 32
    pad: 2
    kernel_size: 5
    weight_filler {
      type: "xavier"
    }
    bias_filler {
      type: "constant"
      value: 0.2
    }
  }
}
layer {
  name: "inception_3a/relu_5x5"
  type: "ReLU"
  bottom: "inception_3a/5x5"
  top: "inception_3a/5x5"
}
layer {
  name: "inception_3a/pool"
  type: "Pooling"
  bottom: "pool2/3x3_s2"
  top: "inception_3a/pool"
  pooling_param {
    pool: MAX
    kernel_size: 3
    stride: 1
    pad: 1
  }
}
layer {
  name: "inception_3a/pool_proj"
  type: "Convolution"
  bottom: "inception_3a/pool"
  top: "inception_3a/pool_proj"
  param {
    name: "inception_3a/pool_proj_w"
    lr_mult: 1
    decay_mult: 1
  }
  param {
    name: "inception_3a/pool_proj_b"
    lr_mult: 2
    decay_mult: 0
  }
  convolution_param {
    num_output: 32
    kernel_size: 1
    weight_filler {
      type: "xavier"
    }
    bias_filler {
      type: "constant"
      value: 0.2
    }
  }
}
layer {
  name: "inception_3a/relu_pool_proj"
  type: "ReLU"
  bottom: "inception_3a/pool_proj"
  top: "inception_3a/pool_proj"
}
layer {
  name: "inception_3a/output"
  type: "Concat"
  bottom: "inception_3a/1x1"
  bottom: "inception_3a/3x3"
  bottom: "inception_3a/5x5"
  bottom: "inception_3a/pool_proj"
  top: "inception_3a/output"
}
layer {
  name: "inception_3b/1x1"
  type: "Convolution"
  bottom: "inception_3a/output"
  top: "inception_3b/1x1"
  param {
    name: "inception_3b/1x1_w"
    lr_mult: 1
    decay_mult: 1
  }
  param {
    name: "inception_3b/1x1_b"
    lr_mult: 2
    decay_mult: 0
  }
  convolution_param {
    num_output: 128
    kernel_size: 1
    weight_filler {
      type: "xavier"
    }
    bias_filler {
      type: "constant"
      value: 0.2
    }
  }
}
layer {
  name: "inception_3b/relu_1x1"
  type: "ReLU"
  bottom: "inception_3b/1x1"
  top: "inception_3b/1x1"
}
layer {
  name: "inception_3b/3x3_reduce"
  type: "Convolution"
  bottom: "inception_3a/output"
  top: "inception_3b/3x3_reduce"
  param {
    name: "inception_3b/3x3_reduce_w"
    lr_mult: 1
    decay_mult: 1
  }
  param {
    name: "inception_3b/3x3_reduce_b"
    lr_mult: 2
    decay_mult: 0
  }
  convolution_param {
    num_output: 128
    kernel_size: 1
    weight_filler {
      type: "xavier"
    }
    bias_filler {
      type: "constant"
      value: 0.2
    }
  }
}
layer {
  name: "inception_3b/relu_3x3_reduce"
  type: "ReLU"
  bottom: "inception_3b/3x3_reduce"
  top: "inception_3b/3x3_reduce"
}
layer {
  name: "inception_3b/3x3"
  type: "Convolution"
  bottom: "inception_3b/3x3_reduce"
  top: "inception_3b/3x3"
  param {
    name: "inception_3b/3x3_w"
    lr_mult: 1
    decay_mult: 1
  }
  param {
    name: "inception_3b/3x3_b"
    lr_mult: 2
    decay_mult: 0
  }
  convolution_param {
    num_output: 192
    pad: 1
    kernel_size: 3
    weight_filler {
      type: "xavier"
    }
    bias_filler {
      type: "constant"
      value: 0.2
    }
  }
}
layer {
  name: "inception_3b/relu_3x3"
  type: "ReLU"
  bottom: "inception_3b/3x3"
  top: "inception_3b/3x3"
}
layer {
  name: "inception_3b/5x5_reduce"
  type: "Convolution"
  bottom: "inception_3a/output"
  top: "inception_3b/5x5_reduce"
  param {
    name: "inception_3b/5x5_reduce_w"
    lr_mult: 1
    decay_mult: 1
  }
  param {
    name: "inception_3b/5x5_reduce_b"
    lr_mult: 2
    decay_mult: 0
  }
  convolution_param {
    num_output: 32
    kernel_size: 1
    weight_filler {
      type: "xavier"
    }
    bias_filler {
      type: "constant"
      value: 0.2
    }
  }
}
layer {
  name: "inception_3b/relu_5x5_reduce"
  type: "ReLU"
  bottom: "inception_3b/5x5_reduce"
  top: "inception_3b/5x5_reduce"
}
layer {
  name: "inception_3b/5x5"
  type: "Convolution"
  bottom: "inception_3b/5x5_reduce"
  top: "inception_3b/5x5"
  param {
    name: "inception_3b/5x5_w"
    lr_mult: 1
    decay_mult: 1
  }
  param {
    name: "inception_3b/5x5_b"
    lr_mult: 2
    decay_mult: 0
  }
  convolution_param {
    num_output: 96
    pad: 2
    kernel_size: 5
    weight_filler {
      type: "xavier"
    }
    bias_filler {
      type: "constant"
      value: 0.2
    }
  }
}
layer {
  name: "inception_3b/relu_5x5"
  type: "ReLU"
  bottom: "inception_3b/5x5"
  top: "inception_3b/5x5"
}
layer {
  name: "inception_3b/pool"
  type: "Pooling"
  bottom: "inception_3a/output"
  top: "inception_3b/pool"
  pooling_param {
    pool: MAX
    kernel_size: 3
    stride: 1
    pad: 1
  }
}
layer {
  name: "inception_3b/pool_proj"
  type: "Convolution"
  bottom: "inception_3b/pool"
  top: "inception_3b/pool_proj"
  param {
    name: "inception_3b/pool_proj_w"
    lr_mult: 1
    decay_mult: 1
  }
  param {
    name: "inception_3b/pool_proj_b"
    lr_mult: 2
    decay_mult: 0
  }
  convolution_param {
    num_output: 64
    kernel_size: 1
    weight_filler {
      type: "xavier"
    }
    bias_filler {
      type: "constant"
      value: 0.2
    }
  }
}
layer {
  name: "inception_3b/relu_pool_proj"
  type: "ReLU"
  bottom: "inception_3b/pool_proj"
  top: "inception_3b/pool_proj"
}
layer {
  name: "inception_3b/output"
  type: "Concat"
  bottom: "inception_3b/1x1"
  bottom: "inception_3b/3x3"
  bottom: "inception_3b/5x5"
  bottom: "inception_3b/pool_proj"
  top: "inception_3b/output"
}
layer {
  name: "pool3/3x3_s2"
  type: "Pooling"
  bottom: "inception_3b/output"
  top: "pool3/3x3_s2"
  pooling_param {
    pool: MAX
    kernel_size: 3
    stride: 2
  }
}
layer {
  name: "inception_4a/1x1"
  type: "Convolution"
  bottom: "pool3/3x3_s2"
  top: "inception_4a/1x1"
  param {
    name: "inception_4a/1x1_w"
    lr_mult: 1
    decay_mult: 1
  }
  param {
    name: "inception_4a/1x1_b"
    lr_mult: 2
    decay_mult: 0
  }
  convolution_param {
    num_output: 192
    kernel_size: 1
    weight_filler {
      type: "xavier"
    }
    bias_filler {
      type: "constant"
      value: 0.2
    }
  }
}
layer {
  name: "inception_4a/relu_1x1"
  type: "ReLU"
  bottom: "inception_4a/1x1"
  top: "inception_4a/1x1"
}
layer {
  name: "inception_4a/3x3_reduce"
  type: "Convolution"
  bottom: "pool3/3x3_s2"
  top: "inception_4a/3x3_reduce"
  param {
    name: "inception_4a/3x3_reduce_w"
    lr_mult: 1
    decay_mult: 1
  }
  param {
    name: "inception_4a/3x3_reduce_b"
    lr_mult: 2
    decay_mult: 0
  }
  convolution_param {
    num_output: 96
    kernel_size: 1
    weight_filler {
      type: "xavier"
    }
    bias_filler {
      type: "constant"
      value: 0.2
    }
  }
}
layer {
  name: "inception_4a/relu_3x3_reduce"
  type: "ReLU"
  bottom: "inception_4a/3x3_reduce"
  top: "inception_4a/3x3_reduce"
}
layer {
  name: "inception_4a/3x3"
  type: "Convolution"
  bottom: "inception_4a/3x3_reduce"
  top: "inception_4a/3x3"
  param {
    name: "inception_4a/3x3_w"
    lr_mult: 1
    decay_mult: 1
  }
  param {
    name: "inception_4a/3x3_b"
    lr_mult: 2
    decay_mult: 0
  }
  convolution_param {
    num_output: 208
    pad: 1
    kernel_size: 3
    weight_filler {
      type: "xavier"
    }
    bias_filler {
      type: "constant"
      value: 0.2
    }
  }
}
layer {
  name: "inception_4a/relu_3x3"
  type: "ReLU"
  bottom: "inception_4a/3x3"
  top: "inception_4a/3x3"
}
layer {
  name: "inception_4a/5x5_reduce"
  type: "Convolution"
  bottom: "pool3/3x3_s2"
  top: "inception_4a/5x5_reduce"
  param {
    name: "inception_4a/5x5_reduce_w"
    lr_mult: 1
    decay_mult: 1
  }
  param {
    name: "inception_4a/5x5_reduce_b"
    lr_mult: 2
    decay_mult: 0
  }
  convolution_param {
    num_output: 16
    kernel_size: 1
    weight_filler {
      type: "xavier"
    }
    bias_filler {
      type: "constant"
      value: 0.2
    }
  }
}
layer {
  name: "inception_4a/relu_5x5_reduce"
  type: "ReLU"
  bottom: "inception_4a/5x5_reduce"
  top: "inception_4a/5x5_reduce"
}
layer {
  name: "inception_4a/5x5"
  type: "Convolution"
  bottom: "inception_4a/5x5_reduce"
  top: "inception_4a/5x5"
  param {
    name: "inception_4a/5x5_w"
    lr_mult: 1
    decay_mult: 1
  }
  param {
    name: "inception_4a/5x5_b"
    lr_mult: 2
    decay_mult: 0
  }
  convolution_param {
    num_output: 48
    pad: 2
    kernel_size: 5
    weight_filler {
      type: "xavier"
    }
    bias_filler {
      type: "constant"
      value: 0.2
    }
  }
}
layer {
  name: "inception_4a/relu_5x5"
  type: "ReLU"
  bottom: "inception_4a/5x5"
  top: "inception_4a/5x5"
}
layer {
  name: "inception_4a/pool"
  type: "Pooling"
  bottom: "pool3/3x3_s2"
  top: "inception_4a/pool"
  pooling_param {
    pool: MAX
    kernel_size: 3
    stride: 1
    pad: 1
  }
}
layer {
  name: "inception_4a/pool_proj"
  type: "Convolution"
  bottom: "inception_4a/pool"
  top: "inception_4a/pool_proj"
  param {
    name: "inception_4a/pool_proj_w"
    lr_mult: 1
    decay_mult: 1
  }
  param {
    name: "inception_4a/pool_proj_b"
    lr_mult: 2
    decay_mult: 0
  }
  convolution_param {
    num_output: 64
    kernel_size: 1
    weight_filler {
      type: "xavier"
    }
    bias_filler {
      type: "constant"
      value: 0.2
    }
  }
}
layer {
  name: "inception_4a/relu_pool_proj"
  type: "ReLU"
  bottom: "inception_4a/pool_proj"
  top: "inception_4a/pool_proj"
}
layer {
  name: "inception_4a/output"
  type: "Concat"
  bottom: "inception_4a/1x1"
  bottom: "inception_4a/3x3"
  bottom: "inception_4a/5x5"
  bottom: "inception_4a/pool_proj"
  top: "inception_4a/output"
}
layer {
  name: "inception_4b/1x1"
  type: "Convolution"
  bottom: "inception_4a/output"
  top: "inception_4b/1x1"
  param {
    name: "inception_4b/1x1_w"
    lr_mult: 1
    decay_mult: 1
  }
  param {
    name: "inception_4b/1x1_b"
    lr_mult: 2
    decay_mult: 0
  }
  convolution_param {
    num_output: 160
    kernel_size: 1
    weight_filler {
      type: "xavier"
    }
    bias_filler {
      type: "constant"
      value: 0.2
    }
  }
}
layer {
  name: "inception_4b/relu_1x1"
  type: "ReLU"
  bottom: "inception_4b/1x1"
  top: "inception_4b/1x1"
}
layer {
  name: "inception_4b/3x3_reduce"
  type: "Convolution"
  bottom: "inception_4a/output"
  top: "inception_4b/3x3_reduce"
  param {
    name: "inception_4b/3x3_reduce_w"
    lr_mult: 1
    decay_mult: 1
  }
  param {
    name: "inception_4b/3x3_reduce_b"
    lr_mult: 2
    decay_mult: 0
  }
  convolution_param {
    num_output: 112
    kernel_size: 1
    weight_filler {
      type: "xavier"
    }
    bias_filler {
      type: "constant"
      value: 0.2
    }
  }
}
layer {
  name: "inception_4b/relu_3x3_reduce"
  type: "ReLU"
  bottom: "inception_4b/3x3_reduce"
  top: "inception_4b/3x3_reduce"
}
layer {
  name: "inception_4b/3x3"
  type: "Convolution"
  bottom: "inception_4b/3x3_reduce"
  top: "inception_4b/3x3"
  param {
    name: "inception_4b/3x3_w"
    lr_mult: 1
    decay_mult: 1
  }
  param {
    name: "inception_4b/3x3_b"
    lr_mult: 2
    decay_mult: 0
  }
  convolution_param {
    num_output: 224
    pad: 1
    kernel_size: 3
    weight_filler {
      type: "xavier"
    }
    bias_filler {
      type: "constant"
      value: 0.2
    }
  }
}
layer {
  name: "inception_4b/relu_3x3"
  type: "ReLU"
  bottom: "inception_4b/3x3"
  top: "inception_4b/3x3"
}
layer {
  name: "inception_4b/5x5_reduce"
  type: "Convolution"
  bottom: "inception_4a/output"
  top: "inception_4b/5x5_reduce"
  param {
    name: "inception_4b/5x5_reduce_w"
    lr_mult: 1
    decay_mult: 1
  }
  param {
    name: "inception_4b/5x5_reduce_b"
    lr_mult: 2
    decay_mult: 0
  }
  convolution_param {
    num_output: 24
    kernel_size: 1
    weight_filler {
      type: "xavier"
    }
    bias_filler {
      type: "constant"
      value: 0.2
    }
  }
}
layer {
  name: "inception_4b/relu_5x5_reduce"
  type: "ReLU"
  bottom: "inception_4b/5x5_reduce"
  top: "inception_4b/5x5_reduce"
}
layer {
  name: "inception_4b/5x5"
  type: "Convolution"
  bottom: "inception_4b/5x5_reduce"
  top: "inception_4b/5x5"
  param {
    name: "inception_4b/5x5_w"
    lr_mult: 1
    decay_mult: 1
  }
  param {
    name: "inception_4b/5x5_b"
    lr_mult: 2
    decay_mult: 0
  }
  convolution_param {
    num_output: 64
    pad: 2
    kernel_size: 5
    weight_filler {
      type: "xavier"
    }
    bias_filler {
      type: "constant"
      value: 0.2
    }
  }
}
layer {
  name: "inception_4b/relu_5x5"
  type: "ReLU"
  bottom: "inception_4b/5x5"
  top: "inception_4b/5x5"
}
layer {
  name: "inception_4b/pool"
  type: "Pooling"
  bottom: "inception_4a/output"
  top: "inception_4b/pool"
  pooling_param {
    pool: MAX
    kernel_size: 3
    stride: 1
    pad: 1
  }
}
layer {
  name: "inception_4b/pool_proj"
  type: "Convolution"
  bottom: "inception_4b/pool"
  top: "inception_4b/pool_proj"
  param {
    name: "inception_4b/pool_proj_w"
    lr_mult: 1
    decay_mult: 1
  }
  param {
    name: "inception_4b/pool_proj_b"
    lr_mult: 2
    decay_mult: 0
  }
  convolution_param {
    num_output: 64
    kernel_size: 1
    weight_filler {
      type: "xavier"
    }
    bias_filler {
      type: "constant"
      value: 0.2
    }
  }
}
layer {
  name: "inception_4b/relu_pool_proj"
  type: "ReLU"
  bottom: "inception_4b/pool_proj"
  top: "inception_4b/pool_proj"
}
layer {
  name: "inception_4b/output"
  type: "Concat"
  bottom: "inception_4b/1x1"
  bottom: "inception_4b/3x3"
  bottom: "inception_4b/5x5"
  bottom: "inception_4b/pool_proj"
  top: "inception_4b/output"
}
layer {
  name: "inception_4c/1x1"
  type: "Convolution"
  bottom: "inception_4b/output"
  top: "inception_4c/1x1"
  param {
    name: "inception_4c/1x1_w"
    lr_mult: 1
    decay_mult: 1
  }
  param {
    name: "inception_4c/1x1_b"
    lr_mult: 2
    decay_mult: 0
  }
  convolution_param {
    num_output: 128
    kernel_size: 1
    weight_filler {
      type: "xavier"
    }
    bias_filler {
      type: "constant"
      value: 0.2
    }
  }
}
layer {
  name: "inception_4c/relu_1x1"
  type: "ReLU"
  bottom: "inception_4c/1x1"
  top: "inception_4c/1x1"
}
layer {
  name: "inception_4c/3x3_reduce"
  type: "Convolution"
  bottom: "inception_4b/output"
  top: "inception_4c/3x3_reduce"
  param {
    name: "inception_4c/3x3_reduce_w"
    lr_mult: 1
    decay_mult: 1
  }
  param {
    name: "inception_4c/3x3_reduce_b"
    lr_mult: 2
    decay_mult: 0
  }
  convolution_param {
    num_output: 128
    kernel_size: 1
    weight_filler {
      type: "xavier"
    }
    bias_filler {
      type: "constant"
      value: 0.2
    }
  }
}
layer {
  name: "inception_4c/relu_3x3_reduce"
  type: "ReLU"
  bottom: "inception_4c/3x3_reduce"
  top: "inception_4c/3x3_reduce"
}
layer {
  name: "inception_4c/3x3"
  type: "Convolution"
  bottom: "inception_4c/3x3_reduce"
  top: "inception_4c/3x3"
  param {
    name: "inception_4c/3x3_w"
    lr_mult: 1
    decay_mult: 1
  }
  param {
    name: "inception_4c/3x3_b"
    lr_mult: 2
    decay_mult: 0
  }
  convolution_param {
    num_output: 256
    pad: 1
    kernel_size: 3
    weight_filler {
      type: "xavier"
    }
    bias_filler {
      type: "constant"
      value: 0.2
    }
  }
}
layer {
  name: "inception_4c/relu_3x3"
  type: "ReLU"
  bottom: "inception_4c/3x3"
  top: "inception_4c/3x3"
}
layer {
  name: "inception_4c/5x5_reduce"
  type: "Convolution"
  bottom: "inception_4b/output"
  top: "inception_4c/5x5_reduce"
  param {
    name: "inception_4c/5x5_reduce_w"
    lr_mult: 1
    decay_mult: 1
  }
  param {
    name: "inception_4c/5x5_reduce_b"
    lr_mult: 2
    decay_mult: 0
  }
  convolution_param {
    num_output: 24
    kernel_size: 1
    weight_filler {
      type: "xavier"
    }
    bias_filler {
      type: "constant"
      value: 0.2
    }
  }
}
layer {
  name: "inception_4c/relu_5x5_reduce"
  type: "ReLU"
  bottom: "inception_4c/5x5_reduce"
  top: "inception_4c/5x5_reduce"
}
layer {
  name: "inception_4c/5x5"
  type: "Convolution"
  bottom: "inception_4c/5x5_reduce"
  top: "inception_4c/5x5"
  param {
    name: "inception_4c/5x5_w"
    lr_mult: 1
    decay_mult: 1
  }
  param {
    name: "inception_4c/5x5_b"
    lr_mult: 2
    decay_mult: 0
  }
  convolution_param {
    num_output: 64
    pad: 2
    kernel_size: 5
    weight_filler {
      type: "xavier"
    }
    bias_filler {
      type: "constant"
      value: 0.2
    }
  }
}
layer {
  name: "inception_4c/relu_5x5"
  type: "ReLU"
  bottom: "inception_4c/5x5"
  top: "inception_4c/5x5"
}
layer {
  name: "inception_4c/pool"
  type: "Pooling"
  bottom: "inception_4b/output"
  top: "inception_4c/pool"
  pooling_param {
    pool: MAX
    kernel_size: 3
    stride: 1
    pad: 1
  }
}
layer {
  name: "inception_4c/pool_proj"
  type: "Convolution"
  bottom: "inception_4c/pool"
  top: "inception_4c/pool_proj"
  param {
    name: "inception_4c/pool_proj_w"
    lr_mult: 1
    decay_mult: 1
  }
  param {
    name: "inception_4c/pool_proj_b"
    lr_mult: 2
    decay_mult: 0
  }
  convolution_param {
    num_output: 64
    kernel_size: 1
    weight_filler {
      type: "xavier"
    }
    bias_filler {
      type: "constant"
      value: 0.2
    }
  }
}
layer {
  name: "inception_4c/relu_pool_proj"
  type: "ReLU"
  bottom: "inception_4c/pool_proj"
  top: "inception_4c/pool_proj"
}
layer {
  name: "inception_4c/output"
  type: "Concat"
  bottom: "inception_4c/1x1"
  bottom: "inception_4c/3x3"
  bottom: "inception_4c/5x5"
  bottom: "inception_4c/pool_proj"
  top: "inception_4c/output"
}
layer {
  name: "inception_4d/1x1"
  type: "Convolution"
  bottom: "inception_4c/output"
  top: "inception_4d/1x1"
  param {
    name: "inception_4d/1x1_w"
    lr_mult: 1
    decay_mult: 1
  }
  param {
    name: "inception_4d/1x1_b"
    lr_mult: 2
    decay_mult: 0
  }
  convolution_param {
    num_output: 112
    kernel_size: 1
    weight_filler {
      type: "xavier"
    }
    bias_filler {
      type: "constant"
      value: 0.2
    }
  }
}
layer {
  name: "inception_4d/relu_1x1"
  type: "ReLU"
  bottom: "inception_4d/1x1"
  top: "inception_4d/1x1"
}
layer {
  name: "inception_4d/3x3_reduce"
  type: "Convolution"
  bottom: "inception_4c/output"
  top: "inception_4d/3x3_reduce"
  param {
    name: "inception_4d/3x3_reduce_w"
    lr_mult: 1
    decay_mult: 1
  }
  param {
    name: "inception_4d/3x3_reduce_b"
    lr_mult: 2
    decay_mult: 0
  }
  convolution_param {
    num_output: 144
    kernel_size: 1
    weight_filler {
      type: "xavier"
    }
    bias_filler {
      type: "constant"
      value: 0.2
    }
  }
}
layer {
  name: "inception_4d/relu_3x3_reduce"
  type: "ReLU"
  bottom: "inception_4d/3x3_reduce"
  top: "inception_4d/3x3_reduce"
}
layer {
  name: "inception_4d/3x3"
  type: "Convolution"
  bottom: "inception_4d/3x3_reduce"
  top: "inception_4d/3x3"
  param {
    name: "inception_4d/3x3_w"
    lr_mult: 1
    decay_mult: 1
  }
  param {
    name: "inception_4d/3x3_b"
    lr_mult: 2
    decay_mult: 0
  }
  convolution_param {
    num_output: 288
    pad: 1
    kernel_size: 3
    weight_filler {
      type: "xavier"
    }
    bias_filler {
      type: "constant"
      value: 0.2
    }
  }
}
layer {
  name: "inception_4d/relu_3x3"
  type: "ReLU"
  bottom: "inception_4d/3x3"
  top: "inception_4d/3x3"
}
layer {
  name: "inception_4d/5x5_reduce"
  type: "Convolution"
  bottom: "inception_4c/output"
  top: "inception_4d/5x5_reduce"
  param {
    name: "inception_4d/5x5_reduce_w"
    lr_mult: 1
    decay_mult: 1
  }
  param {
    name: "inception_4d/5x5_reduce_b"
    lr_mult: 2
    decay_mult: 0
  }
  convolution_param {
    num_output: 32
    kernel_size: 1
    weight_filler {
      type: "xavier"
    }
    bias_filler {
      type: "constant"
      value: 0.2
    }
  }
}
layer {
  name: "inception_4d/relu_5x5_reduce"
  type: "ReLU"
  bottom: "inception_4d/5x5_reduce"
  top: "inception_4d/5x5_reduce"
}
layer {
  name: "inception_4d/5x5"
  type: "Convolution"
  bottom: "inception_4d/5x5_reduce"
  top: "inception_4d/5x5"
  param {
    name: "inception_4d/5x5_w"
    lr_mult: 1
    decay_mult: 1
  }
  param {
    name: "inception_4d/5x5_b"
    lr_mult: 2
    decay_mult: 0
  }
  convolution_param {
    num_output: 64
    pad: 2
    kernel_size: 5
    weight_filler {
      type: "xavier"
    }
    bias_filler {
      type: "constant"
      value: 0.2
    }
  }
}
layer {
  name: "inception_4d/relu_5x5"
  type: "ReLU"
  bottom: "inception_4d/5x5"
  top: "inception_4d/5x5"
}
layer {
  name: "inception_4d/pool"
  type: "Pooling"
  bottom: "inception_4c/output"
  top: "inception_4d/pool"
  pooling_param {
    pool: MAX
    kernel_size: 3
    stride: 1
    pad: 1
  }
}
layer {
  name: "inception_4d/pool_proj"
  type: "Convolution"
  bottom: "inception_4d/pool"
  top: "inception_4d/pool_proj"
  param {
    name: "inception_4d/pool_proj_w"
    lr_mult: 1
    decay_mult: 1
  }
  param {
    name: "inception_4d/pool_proj_b"
    lr_mult: 2
    decay_mult: 0
  }
  convolution_param {
    num_output: 64
    kernel_size: 1
    weight_filler {
      type: "xavier"
    }
    bias_filler {
      type: "constant"
      value: 0.2
    }
  }
}
layer {
  name: "inception_4d/relu_pool_proj"
  type: "ReLU"
  bottom: "inception_4d/pool_proj"
  top: "inception_4d/pool_proj"
}
layer {
  name: "inception_4d/output"
  type: "Concat"
  bottom: "inception_4d/1x1"
  bottom: "inception_4d/3x3"
  bottom: "inception_4d/5x5"
  bottom: "inception_4d/pool_proj"
  top: "inception_4d/output"
}
layer {
  name: "inception_4e/1x1"
  type: "Convolution"
  bottom: "inception_4d/output"
  top: "inception_4e/1x1"
  param {
    name: "inception_4e/1x1_w"
    lr_mult: 1
    decay_mult: 1
  }
  param {
    name: "inception_4e/1x1_b"
    lr_mult: 2
    decay_mult: 0
  }
  convolution_param {
    num_output: 256
    kernel_size: 1
    weight_filler {
      type: "xavier"
    }
    bias_filler {
      type: "constant"
      value: 0.2
    }
  }
}
layer {
  name: "inception_4e/relu_1x1"
  type: "ReLU"
  bottom: "inception_4e/1x1"
  top: "inception_4e/1x1"
}
layer {
  name: "inception_4e/3x3_reduce"
  type: "Convolution"
  bottom: "inception_4d/output"
  top: "inception_4e/3x3_reduce"
  param {
    name: "inception_4e/3x3_reduce_w"
    lr_mult: 1
    decay_mult: 1
  }
  param {
    name: "inception_4e/3x3_reduce_b"
    lr_mult: 2
    decay_mult: 0
  }
  convolution_param {
    num_output: 160
    kernel_size: 1
    weight_filler {
      type: "xavier"
    }
    bias_filler {
      type: "constant"
      value: 0.2
    }
  }
}
layer {
  name: "inception_4e/relu_3x3_reduce"
  type: "ReLU"
  bottom: "inception_4e/3x3_reduce"
  top: "inception_4e/3x3_reduce"
}
layer {
  name: "inception_4e/3x3"
  type: "Convolution"
  bottom: "inception_4e/3x3_reduce"
  top: "inception_4e/3x3"
  param {
    name: "inception_4e/3x3_w"
    lr_mult: 1
    decay_mult: 1
  }
  param {
    name: "inception_4e/3x3_b"
    lr_mult: 2
    decay_mult: 0
  }
  convolution_param {
    num_output: 320
    pad: 1
    kernel_size: 3
    weight_filler {
      type: "xavier"
    }
    bias_filler {
      type: "constant"
      value: 0.2
    }
  }
}
layer {
  name: "inception_4e/relu_3x3"
  type: "ReLU"
  bottom: "inception_4e/3x3"
  top: "inception_4e/3x3"
}
layer {
  name: "inception_4e/5x5_reduce"
  type: "Convolution"
  bottom: "inception_4d/output"
  top: "inception_4e/5x5_reduce"
  param {
    name: "inception_4e/5x5_reduce_w"
    lr_mult: 1
    decay_mult: 1
  }
  param {
    name: "inception_4e/5x5_reduce_b"
    lr_mult: 2
    decay_mult: 0
  }
  convolution_param {
    num_output: 32
    kernel_size: 1
    weight_filler {
      type: "xavier"
    }
    bias_filler {
      type: "constant"
      value: 0.2
    }
  }
}
layer {
  name: "inception_4e/relu_5x5_reduce"
  type: "ReLU"
  bottom: "inception_4e/5x5_reduce"
  top: "inception_4e/5x5_reduce"
}
layer {
  name: "inception_4e/5x5"
  type: "Convolution"
  bottom: "inception_4e/5x5_reduce"
  top: "inception_4e/5x5"
  param {
    name: "inception_4e/5x5_w"
    lr_mult: 1
    decay_mult: 1
  }
  param {
    name: "inception_4e/5x5_b"
    lr_mult: 2
    decay_mult: 0
  }
  convolution_param {
    num_output: 128
    pad: 2
    kernel_size: 5
    weight_filler {
      type: "xavier"
    }
    bias_filler {
      type: "constant"
      value: 0.2
    }
  }
}
layer {
  name: "inception_4e/relu_5x5"
  type: "ReLU"
  bottom: "inception_4e/5x5"
  top: "inception_4e/5x5"
}
layer {
  name: "inception_4e/pool"
  type: "Pooling"
  bottom: "inception_4d/output"
  top: "inception_4e/pool"
  pooling_param {
    pool: MAX
    kernel_size: 3
    stride: 1
    pad: 1
  }
}
layer {
  name: "inception_4e/pool_proj"
  type: "Convolution"
  bottom: "inception_4e/pool"
  top: "inception_4e/pool_proj"
  param {
    name: "inception_4e/pool_proj_w"
    lr_mult: 1
    decay_mult: 1
  }
  param {
    name: "inception_4e/pool_proj_b"
    lr_mult: 2
    decay_mult: 0
  }
  convolution_param {
    num_output: 128
    kernel_size: 1
    weight_filler {
      type: "xavier"
    }
    bias_filler {
      type: "constant"
      value: 0.2
    }
  }
}
layer {
  name: "inception_4e/relu_pool_proj"
  type: "ReLU"
  bottom: "inception_4e/pool_proj"
  top: "inception_4e/pool_proj"
}
layer {
  name: "inception_4e/output"
  type: "Concat"
  bottom: "inception_4e/1x1"
  bottom: "inception_4e
I1121 21:53:39.562029 12244 layer_factory.hpp:77] Creating layer data
video_list:dataset/cuhk01/split/singleNet/testid486_set02_train_pair.txt
data list is loading:  0/100:->data list is loading:  1/100:->data list is loading:  2/100:#->data list is loading:  3/100:#->data list is loading:  4/100:##->data list is loading:  5/100:##->data list is loading:  6/100:###->data list i
…
####->data list is loading: 97/100:################################################->data list is loading: 98/100:#################################################->data list is loading: 99/100:#################################################->data list is loading:100/100:##################################################->list eaxample:
{'frames': ['dataset/cuhk01/cuhk01/0895001.png'], 'reshape': (160, 80), 'label': [1], 'crop': (160, 80), 'frames_p': ['dataset/cuhk01/cuhk01/0895003.png']}
I1121 21:53:56.201844 12244 net.cpp:150] Setting up data
I1121 21:53:56.225688 12244 net.cpp:157] Top shape: 25 3 160 80 (960000)
I1121 21:53:56.225734 12244 net.cpp:157] Top shape: 25 3 160 80 (960000)
I1121 21:53:56.225744 12244 net.cpp:157] Top shape: 25 (25)
I1121 21:53:56.225752 12244 net.cpp:165] Memory required for data: 7680100
I1121 21:53:56.225775 12244 layer_factory.hpp:77] Creating layer label_data_2_split
I1121 21:53:56.225836 12244 net.cpp:100] Creating Layer label_data_2_split
I1121 21:53:56.225848 12244 net.cpp:434] label_data_2_split <- label
I1121 21:53:56.225878 12244 net.cpp:408] label_data_2_split -> label_data_2_split_0
I1121 21:53:56.225905 12244 net.cpp:408] label_data_2_split -> label_data_2_split_1
I1121 21:53:56.225980 12244 net.cpp:150] Setting up label_data_2_split
I1121 21:53:56.225993 12244 net.cpp:157] Top shape: 25 (25)
I1121 21:53:56.226003 12244 net.cpp:157] Top shape: 25 (25)
I1121 21:53:56.226011 12244 net.cpp:165] Memory required for data: 7680300
I1121 21:53:56.226021 12244 layer_factory.hpp:77] Creating layer conv1/7x7_s2
I1121 21:53:56.226052 12244 net.cpp:100] Creating Layer conv1/7x7_s2
I1121 21:53:56.226061 12244 net.cpp:434] conv1/7x7_s2 <- data
I1121 21:53:56.226073 12244 net.cpp:408] conv1/7x7_s2 -> conv1/7x7_s2
I1121 21:53:56.806290 12244 net.cpp:150] Setting up conv1/7x7_s2
I1121 21:53:56.806344 12244 net.cpp:157] Top shape: 25 64 80 40 (5120000)
I1121 21:53:56.806354 12244 net.cpp:165] Memory required for data: 28160300
I1121 21:53:56.806378 12244 layer_factory.hpp:77] Creating layer conv1/relu_7x7
I1121 21:53:56.806393 12244 net.cpp:100] Creating Layer conv1/relu_7x7
I1121 21:53:56.806401 12244 net.cpp:434] conv1/relu_7x7 <- conv1/7x7_s2
I1121 21:53:56.806427 12244 net.cpp:395] conv1/relu_7x7 -> conv1/7x7_s2 (in-place)
I1121 21:53:56.806884 12244 net.cpp:150] Setting up conv1/relu_7x7
I1121 21:53:56.806901 12244 net.cpp:157] Top shape: 25 64 80 40 (5120000)
I1121 21:53:56.806911 12244 net.cpp:165] Memory required for data: 48640300
I1121 21:53:56.806918 12244 layer_factory.hpp:77] Creating layer pool1/3x3_s2
I1121 21:53:56.806933 12244 net.cpp:100] Creating Layer pool1/3x3_s2
I1121 21:53:56.806941 12244 net.cpp:434] pool1/3x3_s2 <- conv1/7x7_s2
I1121 21:53:56.806951 12244 net.cpp:408] pool1/3x3_s2 -> pool1/3x3_s2
I1121 21:53:56.807006 12244 net.cpp:150] Setting up pool1/3x3_s2
I1121 21:53:56.807016 12244 net.cpp:157] Top shape: 25 64 40 20 (1280000)
I1121 21:53:56.807023 12244 net.cpp:165] Memory required for data: 53760300
I1121 21:53:56.807029 12244 layer_factory.hpp:77] Creating layer pool1/norm1
I1121 21:53:56.807041 12244 net.cpp:100] Creating Layer pool1/norm1
I1121 21:53:56.807047 12244 net.cpp:434] pool1/norm1 <- pool1/3x3_s2
I1121 21:53:56.807057 12244 net.cpp:408] pool1/norm1 -> pool1/norm1
I1121 21:53:56.808461 12244 net.cpp:150] Setting up pool1/norm1
I1121 21:53:56.808476 12244 net.cpp:157] Top shape: 25 64 40 20 (1280000)
I1121 21:53:56.808482 12244 net.cpp:165] Memory required for data: 58880300
I1121 21:53:56.808488 12244 layer_factory.hpp:77] Creating layer conv2/3x3_reduce
I1121 21:53:56.808506 12244 net.cpp:100] Creating Layer conv2/3x3_reduce
I1121 21:53:56.808513 12244 net.cpp:434] conv2/3x3_reduce <- pool1/norm1
I1121 21:53:56.808527 12244 net.cpp:408] conv2/3x3_reduce -> conv2/3x3_reduce
I1121 21:53:56.813118 12244 net.cpp:150] Setting up conv2/3x3_reduce
I1121 21:53:56.813163 12244 net.cpp:157] Top shape: 25 64 40 20 (1280000)
I1121 21:53:56.813171 12244 net.cpp:165] Memory required for data: 64000300
I1121 21:53:56.813187 12244 layer_factory.hpp:77] Creating layer conv2/relu_3x3_reduce
I1121 21:53:56.813200 12244 net.cpp:100] Creating Layer conv2/relu_3x3_reduce
I1121 21:53:56.813208 12244 net.cpp:434] conv2/relu_3x3_reduce <- conv2/3x3_reduce
I1121 21:53:56.813220 12244 net.cpp:395] conv2/relu_3x3_reduce -> conv2/3x3_reduce (in-place)
I1121 21:53:56.814015 12244 net.cpp:150] Setting up conv2/relu_3x3_reduce
I1121 21:53:56.814033 12244 net.cpp:157] Top shape: 25 64 40 20 (1280000)
I1121 21:53:56.814038 12244 net.cpp:165] Memory required for data: 69120300
I1121 21:53:56.814044 12244 layer_factory.hpp:77] Creating layer conv2/3x3
I1121 21:53:56.814064 12244 net.cpp:100] Creating Layer conv2/3x3
I1121 21:53:56.814071 12244 net.cpp:434] conv2/3x3 <- conv2/3x3_reduce
I1121 21:53:56.814081 12244 net.cpp:408] conv2/3x3 -> conv2/3x3
I1121 21:53:56.817632 12244 net.cpp:150] Setting up conv2/3x3
I1121 21:53:56.817653 12244 net.cpp:157] Top shape: 25 192 40 20 (3840000)
I1121 21:53:56.817662 12244 net.cpp:165] Memory required for data: 84480300
I1121 21:53:56.817675 12244 layer_factory.hpp:77] Creating layer conv2/relu_3x3
I1121 21:53:56.817685 12244 net.cpp:100] Creating Layer conv2/relu_3x3
I1121 21:53:56.817692 12244 net.cpp:434] conv2/relu_3x3 <- conv2/3x3
I1121 21:53:56.817703 12244 net.cpp:395] conv2/relu_3x3 -> conv2/3x3 (in-place)
I1121 21:53:56.818657 12244 net.cpp:150] Setting up conv2/relu_3x3
I1121 21:53:56.818676 12244 net.cpp:157] Top shape: 25 192 40 20 (3840000)
I1121 21:53:56.818683 12244 net.cpp:165] Memory required for data: 99840300
I1121 21:53:56.818689 12244 layer_factory.hpp:77] Creating layer pool2/3x3_s2
I1121 21:53:56.818698 12244 net.cpp:100] Creating Layer pool2/3x3_s2
I1121 21:53:56.818706 12244 net.cpp:434] pool2/3x3_s2 <- conv2/3x3
I1121 21:53:56.818714 12244 net.cpp:408] pool2/3x3_s2 -> pool2/3x3_s2
I1121 21:53:56.818758 12244 net.cpp:150] Setting up pool2/3x3_s2
I1121 21:53:56.818768 12244 net.cpp:157] Top shape: 25 192 20 10 (960000)
I1121 21:53:56.818773 12244 net.cpp:165] Memory required for data: 103680300
I1121 21:53:56.818779 12244 layer_factory.hpp:77] Creating layer pool2/3x3_s2_pool2/3x3_s2_0_split
I1121 21:53:56.818789 12244 net.cpp:100] Creating Layer pool2/3x3_s2_pool2/3x3_s2_0_split
I1121 21:53:56.818807 12244 net.cpp:434] pool2/3x3_s2_pool2/3x3_s2_0_split <- pool2/3x3_s2
I1121 21:53:56.818814 12244 net.cpp:408] pool2/3x3_s2_pool2/3x3_s2_0_split -> pool2/3x3_s2_pool2/3x3_s2_0_split_0
I1121 21:53:56.818825 12244 net.cpp:408] pool2/3x3_s2_pool2/3x3_s2_0_split -> pool2/3x3_s2_pool2/3x3_s2_0_split_1
I1121 21:53:56.818836 12244 net.cpp:408] pool2/3x3_s2_pool2/3x3_s2_0_split -> pool2/3x3_s2_pool2/3x3_s2_0_split_2
I1121 21:53:56.818845 12244 net.cpp:408] pool2/3x3_s2_pool2/3x3_s2_0_split -> pool2/3x3_s2_pool2/3x3_s2_0_split_3
I1121 21:53:56.818892 12244 net.cpp:150] Setting up pool2/3x3_s2_pool2/3x3_s2_0_split
I1121 21:53:56.818900 12244 net.cpp:157] Top shape: 25 192 20 10 (960000)
I1121 21:53:56.818907 12244 net.cpp:157] Top shape: 25 192 20 10 (960000)
I1121 21:53:56.818913 12244 net.cpp:157] Top shape: 25 192 20 10 (960000)
I1121 21:53:56.818919 12244 net.cpp:157] Top shape: 25 192 20 10 (960000)
I1121 21:53:56.818925 12244 net.cpp:165] Memory required for data: 119040300
I1121 21:53:56.818931 12244 layer_factory.hpp:77] Creating layer inception_3a/1x1
I1121 21:53:56.818948 12244 net.cpp:100] Creating Layer inception_3a/1x1
I1121 21:53:56.818953 12244 net.cpp:434] inception_3a/1x1 <- pool2/3x3_s2_pool2/3x3_s2_0_split_0
I1121 21:53:56.818964 12244 net.cpp:408] inception_3a/1x1 -> inception_3a/1x1
I1121 21:53:56.822757 12244 net.cpp:150] Setting up inception_3a/1x1
I1121 21:53:56.822793 12244 net.cpp:157] Top shape: 25 64 20 10 (320000)
I1121 21:53:56.822800 12244 net.cpp:165] Memory required for data: 120320300
I1121 21:53:56.822814 12244 layer_factory.hpp:77] Creating layer inception_3a/relu_1x1
I1121 21:53:56.822825 12244 net.cpp:100] Creating Layer inception_3a/relu_1x1
I1121 21:53:56.822832 12244 net.cpp:434] inception_3a/relu_1x1 <- inception_3a/1x1
I1121 21:53:56.822844 12244 net.cpp:395] inception_3a/relu_1x1 -> inception_3a/1x1 (in-place)
I1121 21:53:56.823714 12244 net.cpp:150] Setting up inception_3a/relu_1x1
I1121 21:53:56.823725 12244 net.cpp:157] Top shape: 25 64 20 10 (320000)
I1121 21:53:56.823731 12244 net.cpp:165] Memory required for data: 121600300
I1121 21:53:56.823737 12244 layer_factory.hpp:77] Creating layer inception_3a/3x3_reduce
I1121 21:53:56.823752 12244 net.cpp:100] Creating Layer inception_3a/3x3_reduce
I1121 21:53:56.823760 12244 net.cpp:434] inception_3a/3x3_reduce <- pool2/3x3_s2_pool2/3x3_s2_0_split_1
I1121 21:53:56.823770 12244 net.cpp:408] inception_3a/3x3_reduce -> inception_3a/3x3_reduce
I1121 21:53:56.828003 12244 net.cpp:150] Setting up inception_3a/3x3_reduce
I1121 21:53:56.828045 12244 net.cpp:157] Top shape: 25 96 20 10 (480000)
I1121 21:53:56.828054 12244 net.cpp:165] Memory required for data: 123520300
I1121 21:53:56.828073 12244 layer_factory.hpp:77] Creating layer inception_3a/relu_3x3_reduce
I1121 21:53:56.828091 12244 net.cpp:100] Creating Layer inception_3a/relu_3x3_reduce
I1121 21:53:56.828099 12244 net.cpp:434] inception_3a/relu_3x3_reduce <- inception_3a/3x3_reduce
I1121 21:53:56.828110 12244 net.cpp:395] inception_3a/relu_3x3_reduce -> inception_3a/3x3_reduce (in-place)
I1121 21:53:56.829025 12244 net.cpp:150] Setting up inception_3a/relu_3x3_reduce
I1121 21:53:56.829052 12244 net.cpp:157] Top shape: 25 96 20 10 (480000)
I1121 21:53:56.829059 12244 net.cpp:165] Memory required for data: 125440300
I1121 21:53:56.829069 12244 layer_factory.hpp:77] Creating layer inception_3a/3x3
I1121 21:53:56.829090 12244 net.cpp:100] Creating Layer inception_3a/3x3
I1121 21:53:56.829099 12244 net.cpp:434] inception_3a/3x3 <- inception_3a/3x3_reduce
I1121 21:53:56.829110 12244 net.cpp:408] inception_3a/3x3 -> inception_3a/3x3
I1121 21:53:56.832852 12244 net.cpp:150] Setting up inception_3a/3x3
I1121 21:53:56.832890 12244 net.cpp:157] Top shape: 25 128 20 10 (640000)
I1121 21:53:56.832897 12244 net.cpp:165] Memory required for data: 128000300
I1121 21:53:56.832909 12244 layer_factory.hpp:77] Creating layer inception_3a/relu_3x3
I1121 21:53:56.832924 12244 net.cpp:100] Creating Layer inception_3a/relu_3x3
I1121 21:53:56.832932 12244 net.cpp:434] inception_3a/relu_3x3 <- inception_3a/3x3
I1121 21:53:56.832955 12244 net.cpp:395] inception_3a/relu_3x3 -> inception_3a/3x3 (in-place)
I1121 21:53:56.833847 12244 net.cpp:150] Setting up inception_3a/relu_3x3
I1121 21:53:56.833864 12244 net.cpp:157] Top shape: 25 128 20 10 (640000)
I1121 21:53:56.833874 12244 net.cpp:165] Memory required for data: 130560300
I1121 21:53:56.833881 12244 layer_factory.hpp:77] Creating layer inception_3a/5x5_reduce
I1121 21:53:56.833895 12244 net.cpp:100] Creating Layer inception_3a/5x5_reduce
I1121 21:53:56.833902 12244 net.cpp:434] inception_3a/5x5_reduce <- pool2/3x3_s2_pool2/3x3_s2_0_split_2
I1121 21:53:56.833911 12244 net.cpp:408] inception_3a/5x5_reduce -> inception_3a/5x5_reduce
I1121 21:53:56.837590 12244 net.cpp:150] Setting up inception_3a/5x5_reduce
I1121 21:53:56.837611 12244 net.cpp:157] Top shape: 25 16 20 10 (80000)
I1121 21:53:56.837618 12244 net.cpp:165] Memory required for data: 130880300
I1121 21:53:56.837628 12244 layer_factory.hpp:77] Creating layer inception_3a/relu_5x5_reduce
I1121 21:53:56.837637 12244 net.cpp:100] Creating Layer inception_3a/relu_5x5_reduce
I1121 21:53:56.837644 12244 net.cpp:434] inception_3a/relu_5x5_reduce <- inception_3a/5x5_reduce
I1121 21:53:56.837656 12244 net.cpp:395] inception_3a/relu_5x5_reduce -> inception_3a/5x5_reduce (in-place)
I1121 21:53:56.838768 12244 net.cpp:150] Setting up inception_3a/relu_5x5_reduce
I1121 21:53:56.838788 12244 net.cpp:157] Top shape: 25 16 20 10 (80000)
I1121 21:53:56.838794 12244 net.cpp:165] Memory required for data: 131200300
I1121 21:53:56.838802 12244 layer_factory.hpp:77] Creating layer inception_3a/5x5
I1121 21:53:56.838820 12244 net.cpp:100] Creating Layer inception_3a/5x5
I1121 21:53:56.838829 12244 net.cpp:434] inception_3a/5x5 <- inception_3a/5x5_reduce
I1121 21:53:56.838837 12244 net.cpp:408] inception_3a/5x5 -> inception_3a/5x5
I1121 21:53:56.842773 12244 net.cpp:150] Setting up inception_3a/5x5
I1121 21:53:56.842806 12244 net.cpp:157] Top shape: 25 32 20 10 (160000)
I1121 21:53:56.842813 12244 net.cpp:165] Memory required for data: 131840300
I1121 21:53:56.842825 12244 layer_factory.hpp:77] Creating layer inception_3a/relu_5x5
I1121 21:53:56.842838 12244 net.cpp:100] Creating Layer inception_3a/relu_5x5
I1121 21:53:56.842846 12244 net.cpp:434] inception_3a/relu_5x5 <- inception_3a/5x5
I1121 21:53:56.842854 12244 net.cpp:395] inception_3a/relu_5x5 -> inception_3a/5x5 (in-place)
I1121 21:53:56.843940 12244 net.cpp:150] Setting up inception_3a/relu_5x5
I1121 21:53:56.843956 12244 net.cpp:157] Top shape: 25 32 20 10 (160000)
I1121 21:53:56.843963 12244 net.cpp:165] Memory required for data: 132480300
I1121 21:53:56.843971 12244 layer_factory.hpp:77] Creating layer inception_3a/pool
I1121 21:53:56.843981 12244 net.cpp:100] Creating Layer inception_3a/pool
I1121 21:53:56.843988 12244 net.cpp:434] inception_3a/pool <- pool2/3x3_s2_pool2/3x3_s2_0_split_3
I1121 21:53:56.843997 12244 net.cpp:408] inception_3a/pool -> inception_3a/pool
I1121 21:53:56.844048 12244 net.cpp:150] Setting up inception_3a/pool
I1121 21:53:56.844066 12244 net.cpp:157] Top shape: 25 192 20 10 (960000)
I1121 21:53:56.844071 12244 net.cpp:165] Memory required for data: 136320300
I1121 21:53:56.844089 12244 layer_factory.hpp:77] Creating layer inception_3a/pool_proj
I1121 21:53:56.844111 12244 net.cpp:100] Creating Layer inception_3a/pool_proj
I1121 21:53:56.844118 12244 net.cpp:434] inception_3a/pool_proj <- inception_3a/pool
I1121 21:53:56.844130 12244 net.cpp:408] inception_3a/pool_proj -> inception_3a/pool_proj
I1121 21:53:56.847770 12244 net.cpp:150] Setting up inception_3a/pool_proj
I1121 21:53:56.847813 12244 net.cpp:157] Top shape: 25 32 20 10 (160000)
I1121 21:53:56.847821 12244 net.cpp:165] Memory required for data: 136960300
I1121 21:53:56.847841 12244 layer_factory.hpp:77] Creating layer inception_3a/relu_pool_proj
I1121 21:53:56.847856 12244 net.cpp:100] Creating Layer inception_3a/relu_pool_proj
I1121 21:53:56.847976 12244 net.cpp:434] inception_3a/relu_pool_proj <- inception_3a/pool_proj
I1121 21:53:56.847985 12244 net.cpp:395] inception_3a/relu_pool_proj -> inception_3a/pool_proj (in-place)
I1121 21:53:56.848783 12244 net.cpp:150] Setting up inception_3a/relu_pool_proj
I1121 21:53:56.848799 12244 net.cpp:157] Top shape: 25 32 20 10 (160000)
I1121 21:53:56.848806 12244 net.cpp:165] Memory required for data: 137600300
I1121 21:53:56.848816 12244 layer_factory.hpp:77] Creating layer inception_3a/output
I1121 21:53:56.848832 12244 net.cpp:100] Creating Layer inception_3a/output
I1121 21:53:56.848840 12244 net.cpp:434] inception_3a/output <- inception_3a/1x1
I1121 21:53:56.848850 12244 net.cpp:434] inception_3a/output <- inception_3a/3x3
I1121 21:53:56.848856 12244 net.cpp:434] inception_3a/output <- inception_3a/5x5
I1121 21:53:56.848865 12244 net.cpp:434] inception_3a/output <- inception_3a/pool_proj
I1121 21:53:56.848873 12244 net.cpp:408] inception_3a/output -> inception_3a/output
I1121 21:53:56.849001 12244 net.cpp:150] Setting up inception_3a/output
I1121 21:53:56.849015 12244 net.cpp:157] Top shape: 25 256 20 10 (1280000)
I1121 21:53:56.849022 12244 net.cpp:165] Memory required for data: 142720300
I1121 21:53:56.849028 12244 layer_factory.hpp:77] Creating layer inception_3a/output_inception_3a/output_0_split
I1121 21:53:56.849037 12244 net.cpp:100] Creating Layer inception_3a/output_inception_3a/output_0_split
I1121 21:53:56.849045 12244 net.cpp:434] inception_3a/output_inception_3a/output_0_split <- inception_3a/output
I1121 21:53:56.849055 12244 net.cpp:408] inception_3a/output_inception_3a/output_0_split -> inception_3a/output_inception_3a/output_0_split_0
I1121 21:53:56.849064 12244 net.cpp:408] inception_3a/output_inception_3a/output_0_split -> inception_3a/output_inception_3a/output_0_split_1
I1121 21:53:56.849073 12244 net.cpp:408] inception_3a/output_inception_3a/output_0_split -> inception_3a/output_inception_3a/output_0_split_2
I1121 21:53:56.849083 12244 net.cpp:408] inception_3a/output_inception_3a/output_0_split -> inception_3a/output_inception_3a/output_0_split_3
I1121 21:53:56.849138 12244 net.cpp:150] Setting up inception_3a/output_inception_3a/output_0_split
I1121 21:53:56.849146 12244 net.cpp:157] Top shape: 25 256 20 10 (1280000)
I1121 21:53:56.849153 12244 net.cpp:157] Top shape: 25 256 20 10 (1280000)
I1121 21:53:56.849159 12244 net.cpp:157] Top shape: 25 256 20 10 (1280000)
I1121 21:53:56.849165 12244 net.cpp:157] Top shape: 25 256 20 10 (1280000)
I1121 21:53:56.849172 12244 net.cpp:165] Memory required for data: 163200300
I1121 21:53:56.849179 12244 layer_factory.hpp:77] Creating layer inception_3b/1x1
I1121 21:53:56.849196 12244 net.cpp:100] Creating Layer inception_3b/1x1
I1121 21:53:56.849203 12244 net.cpp:434] inception_3b/1x1 <- inception_3a/output_inception_3a/output_0_split_0
I1121 21:53:56.849303 12244 net.cpp:408] inception_3b/1x1 -> inception_3b/1x1
I1121 21:53:56.853123 12244 net.cpp:150] Setting up inception_3b/1x1
I1121 21:53:56.853169 12244 net.cpp:157] Top shape: 25 128 20 10 (640000)
I1121 21:53:56.853178 12244 net.cpp:165] Memory required for data: 165760300
I1121 21:53:56.853191 12244 layer_factory.hpp:77] Creating layer inception_3b/relu_1x1
I1121 21:53:56.853204 12244 net.cpp:100] Creating Layer inception_3b/relu_1x1
I1121 21:53:56.853214 12244 net.cpp:434] inception_3b/relu_1x1 <- inception_3b/1x1
I1121 21:53:56.853221 12244 net.cpp:395] inception_3b/relu_1x1 -> inception_3b/1x1 (in-place)
I1121 21:53:56.854197 12244 net.cpp:150] Setting up inception_3b/relu_1x1
I1121 21:53:56.854214 12244 net.cpp:157] Top shape: 25 128 20 10 (640000)
I1121 21:53:56.854220 12244 net.cpp:165] Memory required for data: 168320300
I1121 21:53:56.854231 12244 layer_factory.hpp:77] Creating layer inception_3b/3x3_reduce
I1121 21:53:56.854246 12244 net.cpp:100] Creating Layer inception_3b/3x3_reduce
I1121 21:53:56.854254 12244 net.cpp:434] inception_3b/3x3_reduce <- inception_3a/output_inception_3a/output_0_split_1
I1121 21:53:56.854267 12244 net.cpp:408] inception_3b/3x3_reduce -> inception_3b/3x3_reduce
I1121 21:53:56.857718 12244 net.cpp:150] Setting up inception_3b/3x3_reduce
I1121 21:53:56.857779 12244 net.cpp:157] Top shape: 25 128 20 10 (640000)
I1121 21:53:56.857827 12244 net.cpp:165] Memory required for data: 170880300
I1121 21:53:56.857846 12244 layer_factory.hpp:77] Creating layer inception_3b/relu_3x3_reduce
I1121 21:53:56.857872 12244 net.cpp:100] Creating Layer inception_3b/relu_3x3_reduce
I1121 21:53:56.857892 12244 net.cpp:434] inception_3b/relu_3x3_reduce <- inception_3b/3x3_reduce
I1121 21:53:56.857909 12244 net.cpp:395] inception_3b/relu_3x3_reduce -> inception_3b/3x3_reduce (in-place)
I1121 21:53:56.858716 12244 net.cpp:150] Setting up inception_3b/relu_3x3_reduce
I1121 21:53:56.858755 12244 net.cpp:157] Top shape: 25 128 20 10 (640000)
I1121 21:53:56.858762 12244 net.cpp:165] Memory required for data: 173440300
I1121 21:53:56.858769 12244 layer_factory.hpp:77] Creating layer inception_3b/3x3
I1121 21:53:56.858804 12244 net.cpp:100] Creating Layer inception_3b/3x3
I1121 21:53:56.858821 12244 net.cpp:434] inception_3b/3x3 <- inception_3b/3x3_reduce
I1121 21:53:56.858840 12244 net.cpp:408] inception_3b/3x3 -> inception_3b/3x3
I1121 21:53:56.863190 12244 net.cpp:150] Setting up inception_3b/3x3
I1121 21:53:56.863235 12244 net.cpp:157] Top shape: 25 192 20 10 (960000)
I1121 21:53:56.863242 12244 net.cpp:165] Memory required for data: 177280300
I1121 21:53:56.863256 12244 layer_factory.hpp:77] Creating layer inception_3b/relu_3x3
I1121 21:53:56.863282 12244 net.cpp:100] Creating Layer inception_3b/relu_3x3
I1121 21:53:56.863299 12244 net.cpp:434] inception_3b/relu_3x3 <- inception_3b/3x3
I1121 21:53:56.863315 12244 net.cpp:395] inception_3b/relu_3x3 -> inception_3b/3x3 (in-place)
I1121 21:53:56.864337 12244 net.cpp:150] Setting up inception_3b/relu_3x3
I1121 21:53:56.864353 12244 net.cpp:157] Top shape: 25 192 20 10 (960000)
I1121 21:53:56.864359 12244 net.cpp:165] Memory required for data: 181120300
I1121 21:53:56.864365 12244 layer_factory.hpp:77] Creating layer inception_3b/5x5_reduce
I1121 21:53:56.864382 12244 net.cpp:100] Creating Layer inception_3b/5x5_reduce
I1121 21:53:56.864390 12244 net.cpp:434] inception_3b/5x5_reduce <- inception_3a/output_inception_3a/output_0_split_2
I1121 21:53:56.864403 12244 net.cpp:408] inception_3b/5x5_reduce -> inception_3b/5x5_reduce
I1121 21:53:56.868506 12244 net.cpp:150] Setting up inception_3b/5x5_reduce
I1121 21:53:56.868554 12244 net.cpp:157] Top shape: 25 32 20 10 (160000)
I1121 21:53:56.868561 12244 net.cpp:165] Memory required for data: 181760300
I1121 21:53:56.868583 12244 layer_factory.hpp:77] Creating layer inception_3b/relu_5x5_reduce
I1121 21:53:56.868602 12244 net.cpp:100] Creating Layer inception_3b/relu_5x5_reduce
I1121 21:53:56.868618 12244 net.cpp:434] inception_3b/relu_5x5_reduce <- inception_3b/5x5_reduce
I1121 21:53:56.868626 12244 net.cpp:395] inception_3b/relu_5x5_reduce -> inception_3b/5x5_reduce (in-place)
I1121 21:53:56.869542 12244 net.cpp:150] Setting up inception_3b/relu_5x5_reduce
I1121 21:53:56.869555 12244 net.cpp:157] Top shape: 25 32 20 10 (160000)
I1121 21:53:56.869561 12244 net.cpp:165] Memory required for data: 182400300
I1121 21:53:56.869568 12244 layer_factory.hpp:77] Creating layer inception_3b/5x5
I1121 21:53:56.869582 12244 net.cpp:100] Creating Layer inception_3b/5x5
I1121 21:53:56.869590 12244 net.cpp:434] inception_3b/5x5 <- inception_3b/5x5_reduce
I1121 21:53:56.869601 12244 net.cpp:408] inception_3b/5x5 -> inception_3b/5x5
I1121 21:53:56.874050 12244 net.cpp:150] Setting up inception_3b/5x5
I1121 21:53:56.874104 12244 net.cpp:157] Top shape: 25 96 20 10 (480000)
I1121 21:53:56.874112 12244 net.cpp:165] Memory required for data: 184320300
I1121 21:53:56.874130 12244 layer_factory.hpp:77] Creating layer inception_3b/relu_5x5
I1121 21:53:56.874148 12244 net.cpp:100] Creating Layer inception_3b/relu_5x5
I1121 21:53:56.874166 12244 net.cpp:434] inception_3b/relu_5x5 <- inception_3b/5x5
I1121 21:53:56.874176 12244 net.cpp:395] inception_3b/relu_5x5 -> inception_3b/5x5 (in-place)
I1121 21:53:56.875051 12244 net.cpp:150] Setting up inception_3b/relu_5x5
I1121 21:53:56.875082 12244 net.cpp:157] Top shape: 25 96 20 10 (480000)
I1121 21:53:56.875099 12244 net.cpp:165] Memory required for data: 186240300
I1121 21:53:56.875107 12244 layer_factory.hpp:77] Creating layer inception_3b/pool
I1121 21:53:56.875118 12244 net.cpp:100] Creating Layer inception_3b/pool
I1121 21:53:56.875125 12244 net.cpp:434] inception_3b/pool <- inception_3a/output_inception_3a/output_0_split_3
I1121 21:53:56.875136 12244 net.cpp:408] inception_3b/pool -> inception_3b/pool
I1121 21:53:56.875191 12244 net.cpp:150] Setting up inception_3b/pool
I1121 21:53:56.875202 12244 net.cpp:157] Top shape: 25 256 20 10 (1280000)
I1121 21:53:56.875208 12244 net.cpp:165] Memory required for data: 191360300
I1121 21:53:56.875214 12244 layer_factory.hpp:77] Creating layer inception_3b/pool_proj
I1121 21:53:56.875233 12244 net.cpp:100] Creating Layer inception_3b/pool_proj
I1121 21:53:56.875241 12244 net.cpp:434] inception_3b/pool_proj <- inception_3b/pool
I1121 21:53:56.875249 12244 net.cpp:408] inception_3b/pool_proj -> inception_3b/pool_proj
I1121 21:53:56.878790 12244 net.cpp:150] Setting up inception_3b/pool_proj
I1121 21:53:56.878829 12244 net.cpp:157] Top shape: 25 64 20 10 (320000)
I1121 21:53:56.878836 12244 net.cpp:165] Memory required for data: 192640300
I1121 21:53:56.878855 12244 layer_factory.hpp:77] Creating layer inception_3b/relu_pool_proj
I1121 21:53:56.878875 12244 net.cpp:100] Creating Layer inception_3b/relu_pool_proj
I1121 21:53:56.878881 12244 net.cpp:434] inception_3b/relu_pool_proj <- inception_3b/pool_proj
I1121 21:53:56.878898 12244 net.cpp:395] inception_3b/relu_pool_proj -> inception_3b/pool_proj (in-place)
I1121 21:53:56.879976 12244 net.cpp:150] Setting up inception_3b/relu_pool_proj
I1121 21:53:56.880020 12244 net.cpp:157] Top shape: 25 64 20 10 (320000)
I1121 21:53:56.880028 12244 net.cpp:165] Memory required for data: 193920300
I1121 21:53:56.880034 12244 layer_factory.hpp:77] Creating layer inception_3b/output
I1121 21:53:56.880053 12244 net.cpp:100] Creating Layer inception_3b/output
I1121 21:53:56.880061 12244 net.cpp:434] inception_3b/output <- inception_3b/1x1
I1121 21:53:56.880085 12244 net.cpp:434] inception_3b/output <- inception_3b/3x3
I1121 21:53:56.880091 12244 net.cpp:434] inception_3b/output <- inception_3b/5x5
I1121 21:53:56.880098 12244 net.cpp:434] inception_3b/output <- inception_3b/pool_proj
I1121 21:53:56.880115 12244 net.cpp:408] inception_3b/output -> inception_3b/output
I1121 21:53:56.880179 12244 net.cpp:150] Setting up inception_3b/output
I1121 21:53:56.880198 12244 net.cpp:157] Top shape: 25 480 20 10 (2400000)
I1121 21:53:56.880204 12244 net.cpp:165] Memory required for data: 203520300
I1121 21:53:56.880210 12244 layer_factory.hpp:77] Creating layer pool3/3x3_s2
I1121 21:53:56.880228 12244 net.cpp:100] Creating Layer pool3/3x3_s2
I1121 21:53:56.880234 12244 net.cpp:434] pool3/3x3_s2 <- inception_3b/output
I1121 21:53:56.880254 12244 net.cpp:408] pool3/3x3_s2 -> pool3/3x3_s2
I1121 21:53:56.880305 12244 net.cpp:150] Setting up pool3/3x3_s2
I1121 21:53:56.880321 12244 net.cpp:157] Top shape: 25 480 10 5 (600000)
I1121 21:53:56.880326 12244 net.cpp:165] Memory required for data: 205920300
I1121 21:53:56.880331 12244 layer_factory.hpp:77] Creating layer pool3/3x3_s2_pool3/3x3_s2_0_split
I1121 21:53:56.880348 12244 net.cpp:100] Creating Layer pool3/3x3_s2_pool3/3x3_s2_0_split
I1121 21:53:56.880354 12244 net.cpp:434] pool3/3x3_s2_pool3/3x3_s2_0_split <- pool3/3x3_s2
I1121 21:53:56.880373 12244 net.cpp:408] pool3/3x3_s2_pool3/3x3_s2_0_split -> pool3/3x3_s2_pool3/3x3_s2_0_split_0
I1121 21:53:56.880383 12244 net.cpp:408] pool3/3x3_s2_pool3/3x3_s2_0_split -> pool3/3x3_s2_pool3/3x3_s2_0_split_1
I1121 21:53:56.880391 12244 net.cpp:408] pool3/3x3_s2_pool3/3x3_s2_0_split -> pool3/3x3_s2_pool3/3x3_s2_0_split_2
I1121 21:53:56.880398 12244 net.cpp:408] pool3/3x3_s2_pool3/3x3_s2_0_split -> pool3/3x3_s2_pool3/3x3_s2_0_split_3
I1121 21:53:56.880451 12244 net.cpp:150] Setting up pool3/3x3_s2_pool3/3x3_s2_0_split
I1121 21:53:56.880462 12244 net.cpp:157] Top shape: 25 480 10 5 (600000)
I1121 21:53:56.880468 12244 net.cpp:157] Top shape: 25 480 10 5 (600000)
I1121 21:53:56.880488 12244 net.cpp:157] Top shape: 25 480 10 5 (600000)
I1121 21:53:56.880496 12244 net.cpp:157] Top shape: 25 480 10 5 (600000)
I1121 21:53:56.880501 12244 net.cpp:165] Memory required for data: 215520300
I1121 21:53:56.880511 12244 layer_factory.hpp:77] Creating layer inception_4a/1x1
I1121 21:53:56.880532 12244 net.cpp:100] Creating Layer inception_4a/1x1
I1121 21:53:56.880538 12244 net.cpp:434] inception_4a/1x1 <- pool3/3x3_s2_pool3/3x3_s2_0_split_0
I1121 21:53:56.880549 12244 net.cpp:408] inception_4a/1x1 -> inception_4a/1x1
I1121 21:53:56.883811 12244 net.cpp:150] Setting up inception_4a/1x1
I1121 21:53:56.883855 12244 net.cpp:157] Top shape: 25 192 10 5 (240000)
I1121 21:53:56.883864 12244 net.cpp:165] Memory required for data: 216480300
I1121 21:53:56.883878 12244 layer_factory.hpp:77] Creating layer inception_4a/relu_1x1
I1121 21:53:56.883893 12244 net.cpp:100] Creating Layer inception_4a/relu_1x1
I1121 21:53:56.883900 12244 net.cpp:434] inception_4a/relu_1x1 <- inception_4a/1x1
I1121 21:53:56.883909 12244 net.cpp:395] inception_4a/relu_1x1 -> inception_4a/1x1 (in-place)
I1121 21:53:56.884754 12244 net.cpp:150] Setting up inception_4a/relu_1x1
I1121 21:53:56.884769 12244 net.cpp:157] Top shape: 25 192 10 5 (240000)
I1121 21:53:56.884776 12244 net.cpp:165] Memory required for data: 217440300
I1121 21:53:56.884783 12244 layer_factory.hpp:77] Creating layer inception_4a/3x3_reduce
I1121 21:53:56.884800 12244 net.cpp:100] Creating Layer inception_4a/3x3_reduce
I1121 21:53:56.884809 12244 net.cpp:434] inception_4a/3x3_reduce <- pool3/3x3_s2_pool3/3x3_s2_0_split_1
I1121 21:53:56.884819 12244 net.cpp:408] inception_4a/3x3_reduce -> inception_4a/3x3_reduce
I1121 21:53:56.889472 12244 net.cpp:150] Setting up inception_4a/3x3_reduce
I1121 21:53:56.889505 12244 net.cpp:157] Top shape: 25 96 10 5 (120000)
I1121 21:53:56.889513 12244 net.cpp:165] Memory required for data: 217920300
I1121 21:53:56.889531 12244 layer_factory.hpp:77] Creating layer inception_4a/relu_3x3_reduce
I1121 21:53:56.889545 12244 net.cpp:100] Creating Layer inception_4a/relu_3x3_reduce
I1121 21:53:56.889552 12244 net.cpp:434] inception_4a/relu_3x3_reduce <- inception_4a/3x3_reduce
I1121 21:53:56.889561 12244 net.cpp:395] inception_4a/relu_3x3_reduce -> inception_4a/3x3_reduce (in-place)
I1121 21:53:56.890619 12244 net.cpp:150] Setting up inception_4a/relu_3x3_reduce
I1121 21:53:56.890635 12244 net.cpp:157] Top shape: 25 96 10 5 (120000)
I1121 21:53:56.890642 12244 net.cpp:165] Memory required for data: 218400300
I1121 21:53:56.890648 12244 layer_factory.hpp:77] Creating layer inception_4a/3x3
I1121 21:53:56.890662 12244 net.cpp:100] Creating Layer inception_4a/3x3
I1121 21:53:56.890669 12244 net.cpp:434] inception_4a/3x3 <- inception_4a/3x3_reduce
I1121 21:53:56.890681 12244 net.cpp:408] inception_4a/3x3 -> inception_4a/3x3
I1121 21:53:56.895402 12244 net.cpp:150] Setting up inception_4a/3x3
I1121 21:53:56.895443 12244 net.cpp:157] Top shape: 25 208 10 5 (260000)
I1121 21:53:56.895452 12244 net.cpp:165] Memory required for data: 219440300
I1121 21:53:56.895469 12244 layer_factory.hpp:77] Creating layer inception_4a/relu_3x3
I1121 21:53:56.895488 12244 net.cpp:100] Creating Layer inception_4a/relu_3x3
I1121 21:53:56.895496 12244 net.cpp:434] inception_4a/relu_3x3 <- inception_4a/3x3
I1121 21:53:56.895504 12244 net.cpp:395] inception_4a/relu_3x3 -> inception_4a/3x3 (in-place)
I1121 21:53:56.896267 12244 net.cpp:150] Setting up inception_4a/relu_3x3
I1121 21:53:56.896284 12244 net.cpp:157] Top shape: 25 208 10 5 (260000)
I1121 21:53:56.896291 12244 net.cpp:165] Memory required for data: 220480300
I1121 21:53:56.896297 12244 layer_factory.hpp:77] Creating layer inception_4a/5x5_reduce
I1121 21:53:56.896311 12244 net.cpp:100] Creating Layer inception_4a/5x5_reduce
I1121 21:53:56.896319 12244 net.cpp:434] inception_4a/5x5_reduce <- pool3/3x3_s2_pool3/3x3_s2_0_split_2
I1121 21:53:56.896332 12244 net.cpp:408] inception_4a/5x5_reduce -> inception_4a/5x5_reduce
I1121 21:53:56.900008 12244 net.cpp:150] Setting up inception_4a/5x5_reduce
I1121 21:53:56.900058 12244 net.cpp:157] Top shape: 25 16 10 5 (20000)
I1121 21:53:56.900066 12244 net.cpp:165] Memory required for data: 220560300
I1121 21:53:56.900097 12244 layer_factory.hpp:77] Creating layer inception_4a/relu_5x5_reduce
I1121 21:53:56.900110 12244 net.cpp:100] Creating Layer inception_4a/relu_5x5_reduce
I1121 21:53:56.900122 12244 net.cpp:434] inception_4a/relu_5x5_reduce <- inception_4a/5x5_reduce
I1121 21:53:56.900130 12244 net.cpp:395] inception_4a/relu_5x5_reduce -> inception_4a/5x5_reduce (in-place)
I1121 21:53:56.901062 12244 net.cpp:150] Setting up inception_4a/relu_5x5_reduce
I1121 21:53:56.901074 12244 net.cpp:157] Top shape: 25 16 10 5 (20000)
I1121 21:53:56.901079 12244 net.cpp:165] Memory required for data: 220640300
I1121 21:53:56.901085 12244 layer_factory.hpp:77] Creating layer inception_4a/5x5
I1121 21:53:56.901103 12244 net.cpp:100] Creating Layer inception_4a/5x5
I1121 21:53:56.901110 12244 net.cpp:434] inception_4a/5x5 <- inception_4a/5x5_reduce
I1121 21:53:56.901124 12244 net.cpp:408] inception_4a/5x5 -> inception_4a/5x5
I1121 21:53:56.905199 12244 net.cpp:150] Setting up inception_4a/5x5
I1121 21:53:56.905241 12244 net.cpp:157] Top shape: 25 48 10 5 (60000)
I1121 21:53:56.905247 12244 net.cpp:165] Memory required for data: 220880300
I1121 21:53:56.905262 12244 layer_factory.hpp:77] Creating layer inception_4a/relu_5x5
I1121 21:53:56.905274 12244 net.cpp:100] Creating Layer inception_4a/relu_5x5
I1121 21:53:56.905283 12244 net.cpp:434] inception_4a/relu_5x5 <- inception_4a/5x5
I1121 21:53:56.905292 12244 net.cpp:395] inception_4a/relu_5x5 -> inception_4a/5x5 (in-place)
I1121 21:53:56.907642 12244 net.cpp:150] Setting up inception_4a/relu_5x5
I1121 21:53:56.907676 12244 net.cpp:157] Top shape: 25 48 10 5 (60000)
I1121 21:53:56.907685 12244 net.cpp:165] Memory required for data: 221120300
I1121 21:53:56.907692 12244 layer_factory.hpp:77] Creating layer inception_4a/pool
I1121 21:53:56.907706 12244 net.cpp:100] Creating Layer inception_4a/pool
I1121 21:53:56.907716 12244 net.cpp:434] inception_4a/pool <- pool3/3x3_s2_pool3/3x3_s2_0_split_3
I1121 21:53:56.907727 12244 net.cpp:408] inception_4a/pool -> inception_4a/pool
I1121 21:53:56.907799 12244 net.cpp:150] Setting up inception_4a/pool
I1121 21:53:56.907809 12244 net.cpp:157] Top shape: 25 480 10 5 (600000)
I1121 21:53:56.907814 12244 net.cpp:165] Memory required for data: 223520300
I1121 21:53:56.907820 12244 layer_factory.hpp:77] Creating layer inception_4a/pool_proj
I1121 21:53:56.907840 12244 net.cpp:100] Creating Layer inception_4a/pool_proj
I1121 21:53:56.907847 12244 net.cpp:434] inception_4a/pool_proj <- inception_4a/pool
I1121 21:53:56.907856 12244 net.cpp:408] inception_4a/pool_proj -> inception_4a/pool_proj
I1121 21:53:56.911701 12244 net.cpp:150] Setting up inception_4a/pool_proj
I1121 21:53:56.911722 12244 net.cpp:157] Top shape: 25 64 10 5 (80000)
I1121 21:53:56.911730 12244 net.cpp:165] Memory required for data: 223840300
I1121 21:53:56.911741 12244 layer_factory.hpp:77] Creating layer inception_4a/relu_pool_proj
I1121 21:53:56.911749 12244 net.cpp:100] Creating Layer inception_4a/relu_pool_proj
I1121 21:53:56.911756 12244 net.cpp:434] inception_4a/relu_pool_proj <- inception_4a/pool_proj
I1121 21:53:56.911768 12244 net.cpp:395] inception_4a/relu_pool_proj -> inception_4a/pool_proj (in-place)
I1121 21:53:56.912802 12244 net.cpp:150] Setting up inception_4a/relu_pool_proj
I1121 21:53:56.912822 12244 net.cpp:157] Top shape: 25 64 10 5 (80000)
I1121 21:53:56.912828 12244 net.cpp:165] Memory required for data: 224160300
I1121 21:53:56.912838 12244 layer_factory.hpp:77] Creating layer inception_4a/output
I1121 21:53:56.912847 12244 net.cpp:100] Creating Layer inception_4a/output
I1121 21:53:56.912855 12244 net.cpp:434] inception_4a/output <- inception_4a/1x1
I1121 21:53:56.912863 12244 net.cpp:434] inception_4a/output <- inception_4a/3x3
I1121 21:53:56.912873 12244 net.cpp:434] inception_4a/output <- inception_4a/5x5
I1121 21:53:56.912879 12244 net.cpp:434] inception_4a/output <- inception_4a/pool_proj
I1121 21:53:56.912888 12244 net.cpp:408] inception_4a/output -> inception_4a/output
I1121 21:53:56.912937 12244 net.cpp:150] Setting up inception_4a/output
I1121 21:53:56.912948 12244 net.cpp:157] Top shape: 25 512 10 5 (640000)
I1121 21:53:56.912955 12244 net.cpp:165] Memory required for data: 226720300
I1121 21:53:56.912963 12244 layer_factory.hpp:77] Creating layer inception_4a/output_inception_4a/output_0_split
I1121 21:53:56.912976 12244 net.cpp:100] Creating Layer inception_4a/output_inception_4a/output_0_split
I1121 21:53:56.912982 12244 net.cpp:434] inception_4a/output_inception_4a/output_0_split <- inception_4a/output
I1121 21:53:56.912993 12244 net.cpp:408] inception_4a/output_inception_4a/output_0_split -> inception_4a/output_inception_4a/output_0_split_0
I1121 21:53:56.913003 12244 net.cpp:408] inception_4a/output_inception_4a/output_0_split -> inception_4a/output_inception_4a/output_0_split_1
I1121 21:53:56.913012 12244 net.cpp:408] inception_4a/output_inception_4a/output_0_split -> inception_4a/output_inception_4a/output_0_split_2
I1121 21:53:56.913020 12244 net.cpp:408] inception_4a/output_inception_4a/output_0_split -> inception_4a/output_inception_4a/output_0_split_3
I1121 21:53:56.913080 12244 net.cpp:150] Setting up inception_4a/output_inception_4a/output_0_split
I1121 21:53:56.913089 12244 net.cpp:157] Top shape: 25 512 10 5 (640000)
I1121 21:53:56.913096 12244 net.cpp:157] Top shape: 25 512 10 5 (640000)
I1121 21:53:56.913102 12244 net.cpp:157] Top shape: 25 512 10 5 (640000)
I1121 21:53:56.913108 12244 net.cpp:157] Top shape: 25 512 10 5 (640000)
I1121 21:53:56.913115 12244 net.cpp:165] Memory required for data: 236960300
I1121 21:53:56.913120 12244 layer_factory.hpp:77] Creating layer inception_4b/1x1
I1121 21:53:56.913136 12244 net.cpp:100] Creating Layer inception_4b/1x1
I1121 21:53:56.913144 12244 net.cpp:434] inception_4b/1x1 <- inception_4a/output_inception_4a/output_0_split_0
I1121 21:53:56.913153 12244 net.cpp:408] inception_4b/1x1 -> inception_4b/1x1
I1121 21:53:56.918015 12244 net.cpp:150] Setting up inception_4b/1x1
I1121 21:53:56.918056 12244 net.cpp:157] Top shape: 25 160 10 5 (200000)
I1121 21:53:56.918063 12244 net.cpp:165] Memory required for data: 237760300
I1121 21:53:56.918078 12244 layer_factory.hpp:77] Creating layer inception_4b/relu_1x1
I1121 21:53:56.918090 12244 net.cpp:100] Creating Layer inception_4b/relu_1x1
I1121 21:53:56.918099 12244 net.cpp:434] inception_4b/relu_1x1 <- inception_4b/1x1
I1121 21:53:56.918115 12244 net.cpp:395] inception_4b/relu_1x1 -> inception_4b/1x1 (in-place)
I1121 21:53:56.918989 12244 net.cpp:150] Setting up inception_4b/relu_1x1
I1121 21:53:56.919003 12244 net.cpp:157] Top shape: 25 160 10 5 (200000)
I1121 21:53:56.919008 12244 net.cpp:165] Memory required for data: 238560300
I1121 21:53:56.919014 12244 layer_factory.hpp:77] Creating layer inception_4b/3x3_reduce
I1121 21:53:56.919031 12244 net.cpp:100] Creating Layer inception_4b/3x3_reduce
I1121 21:53:56.919039 12244 net.cpp:434] inception_4b/3x3_reduce <- inception_4a/output_inception_4a/output_0_split_1
I1121 21:53:56.919049 12244 net.cpp:408] inception_4b/3x3_reduce -> inception_4b/3x3_reduce
I1121 21:53:56.925796 12244 net.cpp:150] Setting up inception_4b/3x3_reduce
I1121 21:53:56.925863 12244 net.cpp:157] Top shape: 25 112 10 5 (140000)
I1121 21:53:56.925871 12244 net.cpp:165] Memory required for data: 239120300
I1121 21:53:56.925885 12244 layer_factory.hpp:77] Creating layer inception_4b/relu_3x3_reduce
I1121 21:53:56.925899 12244 net.cpp:100] Creating Layer inception_4b/relu_3x3_reduce
I1121 21:53:56.925907 12244 net.cpp:434] inception_4b/relu_3x3_reduce <- inception_4b/3x3_reduce
I1121 21:53:56.925917 12244 net.cpp:395] inception_4b/relu_3x3_reduce -> inception_4b/3x3_reduce (in-place)
I1121 21:53:56.927081 12244 net.cpp:150] Setting up inception_4b/relu_3x3_reduce
I1121 21:53:56.927103 12244 net.cpp:157] Top shape: 25 112 10 5 (140000)
I1121 21:53:56.927109 12244 net.cpp:165] Memory required for data: 239680300
I1121 21:53:56.927115 12244 layer_factory.hpp:77] Creating layer inception_4b/3x3
I1121 21:53:56.927131 12244 net.cpp:100] Creating Layer inception_4b/3x3
I1121 21:53:56.927150 12244 net.cpp:434] inception_4b/3x3 <- inception_4b/3x3_reduce
I1121 21:53:56.927160 12244 net.cpp:408] inception_4b/3x3 -> inception_4b/3x3
I1121 21:53:56.932041 12244 net.cpp:150] Setting up inception_4b/3x3
I1121 21:53:56.932093 12244 net.cpp:157] Top shape: 25 224 10 5 (280000)
I1121 21:53:56.932101 12244 net.cpp:165] Memory required for data: 240800300
I1121 21:53:56.932119 12244 layer_factory.hpp:77] Creating layer inception_4b/relu_3x3
I1121 21:53:56.932135 12244 net.cpp:100] Creating Layer inception_4b/relu_3x3
I1121 21:53:56.932145 12244 net.cpp:434] inception_4b/relu_3x3 <- inception_4b/3x3
I1121 21:53:56.932154 12244 net.cpp:395] inception_4b/relu_3x3 -> inception_4b/3x3 (in-place)
I1121 21:53:56.932898 12244 net.cpp:150] Setting up inception_4b/relu_3x3
I1121 21:53:56.932914 12244 net.cpp:157] Top shape: 25 224 10 5 (280000)
I1121 21:53:56.932921 12244 net.cpp:165] Memory required for data: 241920300
I1121 21:53:56.932927 12244 layer_factory.hpp:77] Creating layer inception_4b/5x5_reduce
I1121 21:53:56.932950 12244 net.cpp:100] Creating Layer inception_4b/5x5_reduce
I1121 21:53:56.932960 12244 net.cpp:434] inception_4b/5x5_reduce <- inception_4a/output_inception_4a/output_0_split_2
I1121 21:53:56.932968 12244 net.cpp:408] inception_4b/5x5_reduce -> inception_4b/5x5_reduce
I1121 21:53:56.936615 12244 net.cpp:150] Setting up inception_4b/5x5_reduce
I1121 21:53:56.936657 12244 net.cpp:157] Top shape: 25 24 10 5 (30000)
I1121 21:53:56.936666 12244 net.cpp:165] Memory required for data: 242040300
I1121 21:53:56.936681 12244 layer_factory.hpp:77] Creating layer inception_4b/relu_5x5_reduce
I1121 21:53:56.936693 12244 net.cpp:100] Creating Layer inception_4b/relu_5x5_reduce
I1121 21:53:56.936702 12244 net.cpp:434] inception_4b/relu_5x5_reduce <- inception_4b/5x5_reduce
I1121 21:53:56.936717 12244 net.cpp:395] inception_4b/relu_5x5_reduce -> inception_4b/5x5_reduce (in-place)
I1121 21:53:56.937643 12244 net.cpp:150] Setting up inception_4b/relu_5x5_reduce
I1121 21:53:56.937683 12244 net.cpp:157] Top shape: 25 24 10 5 (30000)
I1121 21:53:56.937690 12244 net.cpp:165] Memory required for data: 242160300
I1121 21:53:56.937696 12244 layer_factory.hpp:77] Creating layer inception_4b/5x5
I1121 21:53:56.937721 12244 net.cpp:100] Creating Layer inception_4b/5x5
I1121 21:53:56.937729 12244 net.cpp:434] inception_4b/5x5 <- inception_4b/5x5_reduce
I1121 21:53:56.937753 12244 net.cpp:408] inception_4b/5x5 -> inception_4b/5x5
I1121 21:53:56.940884 12244 net.cpp:150] Setting up inception_4b/5x5
I1121 21:53:56.940922 12244 net.cpp:157] Top shape: 25 64 10 5 (80000)
I1121 21:53:56.940930 12244 net.cpp:165] Memory required for data: 242480300
I1121 21:53:56.940944 12244 layer_factory.hpp:77] Creating layer inception_4b/relu_5x5
I1121 21:53:56.940956 12244 net.cpp:100] Creating Layer inception_4b/relu_5x5
I1121 21:53:56.940964 12244 net.cpp:434] inception_4b/relu_5x5 <- inception_4b/5x5
I1121 21:53:56.940976 12244 net.cpp:395] inception_4b/relu_5x5 -> inception_4b/5x5 (in-place)
I1121 21:53:56.941345 12244 net.cpp:150] Setting up inception_4b/relu_5x5
I1121 21:53:56.941362 12244 net.cpp:157] Top shape: 25 64 10 5 (80000)
I1121 21:53:56.941370 12244 net.cpp:165] Memory required for data: 242800300
I1121 21:53:56.941382 12244 layer_factory.hpp:77] Creating layer inception_4b/pool
I1121 21:53:56.941392 12244 net.cpp:100] Creating Layer inception_4b/pool
I1121 21:53:56.941400 12244 net.cpp:434] inception_4b/pool <- inception_4a/output_inception_4a/output_0_split_3
I1121 21:53:56.941408 12244 net.cpp:408] inception_4b/pool -> inception_4b/pool
I1121 21:53:56.941577 12244 net.cpp:150] Setting up inception_4b/pool
I1121 21:53:56.941589 12244 net.cpp:157] Top shape: 25 512 10 5 (640000)
I1121 21:53:56.941596 12244 net.cpp:165] Memory required for data: 245360300
I1121 21:53:56.941602 12244 layer_factory.hpp:77] Creating layer inception_4b/pool_proj
I1121 21:53:56.941617 12244 net.cpp:100] Creating Layer inception_4b/pool_proj
I1121 21:53:56.941624 12244 net.cpp:434] inception_4b/pool_proj <- inception_4b/pool
I1121 21:53:56.941646 12244 net.cpp:408] inception_4b/pool_proj -> inception_4b/pool_proj
I1121 21:53:56.943016 12244 net.cpp:150] Setting up inception_4b/pool_proj
I1121 21:53:56.943037 12244 net.cpp:157] Top shape: 25 64 10 5 (80000)
I1121 21:53:56.943048 12244 net.cpp:165] Memory required for data: 245680300
I1121 21:53:56.943060 12244 layer_factory.hpp:77] Creating layer inception_4b/relu_pool_proj
I1121 21:53:56.943070 12244 net.cpp:100] Creating Layer inception_4b/relu_pool_proj
I1121 21:53:56.943078 12244 net.cpp:434] inception_4b/relu_pool_proj <- inception_4b/pool_proj
I1121 21:53:56.943085 12244 net.cpp:395] inception_4b/relu_pool_proj -> inception_4b/pool_proj (in-place)
I1121 21:53:56.943449 12244 net.cpp:150] Setting up inception_4b/relu_pool_proj
I1121 21:53:56.943557 12244 net.cpp:157] Top shape: 25 64 10 5 (80000)
I1121 21:53:56.943567 12244 net.cpp:165] Memory required for data: 246000300
I1121 21:53:56.943575 12244 layer_factory.hpp:77] Creating layer inception_4b/output
I1121 21:53:56.943588 12244 net.cpp:100] Creating Layer inception_4b/output
I1121 21:53:56.943596 12244 net.cpp:434] inception_4b/output <- inception_4b/1x1
I1121 21:53:56.943603 12244 net.cpp:434] inception_4b/output <- inception_4b/3x3
I1121 21:53:56.943610 12244 net.cpp:434] inception_4b/output <- inception_4b/5x5
I1121 21:53:56.943616 12244 net.cpp:434] inception_4b/output <- inception_4b/pool_proj
I1121 21:53:56.943625 12244 net.cpp:408] inception_4b/output -> inception_4b/output
I1121 21:53:56.943661 12244 net.cpp:150] Setting up inception_4b/output
I1121 21:53:56.943671 12244 net.cpp:157] Top shape: 25 512 10 5 (640000)
I1121 21:53:56.943676 12244 net.cpp:165] Memory required for data: 248560300
I1121 21:53:56.943682 12244 layer_factory.hpp:77] Creating layer inception_4b/output_inception_4b/output_0_split
I1121 21:53:56.943691 12244 net.cpp:100] Creating Layer inception_4b/output_inception_4b/output_0_split
I1121 21:53:56.943697 12244 net.cpp:434] inception_4b/output_inception_4b/output_0_split <- inception_4b/output
I1121 21:53:56.943706 12244 net.cpp:408] inception_4b/output_inception_4b/output_0_split -> inception_4b/output_inception_4b/output_0_split_0
I1121 21:53:56.943716 12244 net.cpp:408] inception_4b/output_inception_4b/output_0_split -> inception_4b/output_inception_4b/output_0_split_1
I1121 21:53:56.943723 12244 net.cpp:408] inception_4b/output_inception_4b/output_0_split -> inception_4b/output_inception_4b/output_0_split_2
I1121 21:53:56.943732 12244 net.cpp:408] inception_4b/output_inception_4b/output_0_split -> inception_4b/output_inception_4b/output_0_split_3
I1121 21:53:56.943895 12244 net.cpp:150] Setting up inception_4b/output_inception_4b/output_0_split
I1121 21:53:56.943907 12244 net.cpp:157] Top shape: 25 512 10 5 (640000)
I1121 21:53:56.943913 12244 net.cpp:157] Top shape: 25 512 10 5 (640000)
I1121 21:53:56.943920 12244 net.cpp:157] Top shape: 25 512 10 5 (640000)
I1121 21:53:56.943927 12244 net.cpp:157] Top shape: 25 512 10 5 (640000)
I1121 21:53:56.943931 12244 net.cpp:165] Memory required for data: 258800300
I1121 21:53:56.943938 12244 layer_factory.hpp:77] Creating layer inception_4c/1x1
I1121 21:53:56.943949 12244 net.cpp:100] Creating Layer inception_4c/1x1
I1121 21:53:56.943956 12244 net.cpp:434] inception_4c/1x1 <- inception_4b/output_inception_4b/output_0_split_0
I1121 21:53:56.943966 12244 net.cpp:408] inception_4c/1x1 -> inception_4c/1x1
I1121 21:53:56.945776 12244 net.cpp:150] Setting up inception_4c/1x1
I1121 21:53:56.945924 12244 net.cpp:157] Top shape: 25 128 10 5 (160000)
I1121 21:53:56.945935 12244 net.cpp:165] Memory required for data: 259440300
I1121 21:53:56.945948 12244 layer_factory.hpp:77] Creating layer inception_4c/relu_1x1
I1121 21:53:56.945960 12244 net.cpp:100] Creating Layer inception_4c/relu_1x1
I1121 21:53:56.945969 12244 net.cpp:434] inception_4c/relu_1x1 <- inception_4c/1x1
I1121 21:53:56.945981 12244 net.cpp:395] inception_4c/relu_1x1 -> inception_4c/1x1 (in-place)
I1121 21:53:56.946137 12244 net.cpp:150] Setting up inception_4c/relu_1x1
I1121 21:53:56.946254 12244 net.cpp:157] Top shape: 25 128 10 5 (160000)
I1121 21:53:56.946264 12244 net.cpp:165] Memory required for data: 260080300
I1121 21:53:56.946274 12244 layer_factory.hpp:77] Creating layer inception_4c/3x3_reduce
I1121 21:53:56.946290 12244 net.cpp:100] Creating Layer inception_4c/3x3_reduce
I1121 21:53:56.946303 12244 net.cpp:434] inception_4c/3x3_reduce <- inception_4b/output_inception_4b/output_0_split_1
I1121 21:53:56.946313 12244 net.cpp:408] inception_4c/3x3_reduce -> inception_4c/3x3_reduce
I1121 21:53:56.948346 12244 net.cpp:150] Setting up inception_4c/3x3_reduce
I1121 21:53:56.948380 12244 net.cpp:157] Top shape: 25 128 10 5 (160000)
I1121 21:53:56.948388 12244 net.cpp:165] Memory required for data: 260720300
I1121 21:53:56.948401 12244 layer_factory.hpp:77] Creating layer inception_4c/relu_3x3_reduce
I1121 21:53:56.948412 12244 net.cpp:100] Creating Layer inception_4c/relu_3x3_reduce
I1121 21:53:56.948421 12244 net.cpp:434] inception_4c/relu_3x3_reduce <- inception_4c/3x3_reduce
I1121 21:53:56.948431 12244 net.cpp:395] inception_4c/relu_3x3_reduce -> inception_4c/3x3_reduce (in-place)
I1121 21:53:56.948941 12244 net.cpp:150] Setting up inception_4c/relu_3x3_reduce
I1121 21:53:56.948958 12244 net.cpp:157] Top shape: 25 128 10 5 (160000)
I1121 21:53:56.948966 12244 net.cpp:165] Memory required for data: 261360300
I1121 21:53:56.948971 12244 layer_factory.hpp:77] Creating layer inception_4c/3x3
I1121 21:53:56.948987 12244 net.cpp:100] Creating Layer inception_4c/3x3
I1121 21:53:56.948995 12244 net.cpp:434] inception_4c/3x3 <- inception_4c/3x3_reduce
I1121 21:53:56.949007 12244 net.cpp:408] inception_4c/3x3 -> inception_4c/3x3
I1121 21:53:56.953168 12244 net.cpp:150] Setting up inception_4c/3x3
I1121 21:53:56.953233 12244 net.cpp:157] Top shape: 25 256 10 5 (320000)
I1121 21:53:56.953240 12244 net.cpp:165] Memory required for data: 262640300
I1121 21:53:56.953255 12244 layer_factory.hpp:77] Creating layer inception_4c/relu_3x3
I1121 21:53:56.953275 12244 net.cpp:100] Creating Layer inception_4c/relu_3x3
I1121 21:53:56.953291 12244 net.cpp:434] inception_4c/relu_3x3 <- inception_4c/3x3
I1121 21:53:56.953310 12244 net.cpp:395] inception_4c/relu_3x3 -> inception_4c/3x3 (in-place)
I1121 21:53:56.953646 12244 net.cpp:150] Setting up inception_4c/relu_3x3
I1121 21:53:56.953680 12244 net.cpp:157] Top shape: 25 256 10 5 (320000)
I1121 21:53:56.953685 12244 net.cpp:165] Memory required for data: 263920300
I1121 21:53:56.953704 12244 layer_factory.hpp:77] Creating layer inception_4c/5x5_reduce
I1121 21:53:56.953732 12244 net.cpp:100] Creating Layer inception_4c/5x5_reduce
I1121 21:53:56.953747 12244 net.cpp:434] inception_4c/5x5_reduce <- inception_4b/output_inception_4b/output_0_split_2
I1121 21:53:56.953768 12244 net.cpp:408] inception_4c/5x5_reduce -> inception_4c/5x5_reduce
I1121 21:53:56.954872 12244 net.cpp:150] Setting up inception_4c/5x5_reduce
I1121 21:53:56.954903 12244 net.cpp:157] Top shape: 25 24 10 5 (30000)
I1121 21:53:56.954910 12244 net.cpp:165] Memory required for data: 264040300
I1121 21:53:56.954922 12244 layer_factory.hpp:77] Creating layer inception_4c/relu_5x5_reduce
I1121 21:53:56.954937 12244 net.cpp:100] Creating Layer inception_4c/relu_5x5_reduce
I1121 21:53:56.954946 12244 net.cpp:434] inception_4c/relu_5x5_reduce <- inception_4c/5x5_reduce
I1121 21:53:56.954955 12244 net.cpp:395] inception_4c/relu_5x5_reduce -> inception_4c/5x5_reduce (in-place)
I1121 21:53:56.955245 12244 net.cpp:150] Setting up inception_4c/relu_5x5_reduce
I1121 21:53:56.955271 12244 net.cpp:157] Top shape: 25 24 10 5 (30000)
I1121 21:53:56.955277 12244 net.cpp:165] Memory required for data: 264160300
I1121 21:53:56.955283 12244 layer_factory.hpp:77] Creating layer inception_4c/5x5
I1121 21:53:56.955307 12244 net.cpp:100] Creating Layer inception_4c/5x5
I1121 21:53:56.955315 12244 net.cpp:434] inception_4c/5x5 <- inception_4c/5x5_reduce
I1121 21:53:56.955332 12244 net.cpp:408] inception_4c/5x5 -> inception_4c/5x5
I1121 21:53:56.956656 12244 net.cpp:150] Setting up inception_4c/5x5
I1121 21:53:56.956701 12244 net.cpp:157] Top shape: 25 64 10 5 (80000)
I1121 21:53:56.956723 12244 net.cpp:165] Memory required for data: 264480300
I1121 21:53:56.956744 12244 layer_factory.hpp:77] Creating layer inception_4c/relu_5x5
I1121 21:53:56.956759 12244 net.cpp:100] Creating Layer inception_4c/relu_5x5
I1121 21:53:56.956773 12244 net.cpp:434] inception_4c/relu_5x5 <- inception_4c/5x5
I1121 21:53:56.956782 12244 net.cpp:395] inception_4c/relu_5x5 -> inception_4c/5x5 (in-place)
I1121 21:53:56.957113 12244 net.cpp:150] Setting up inception_4c/relu_5x5
I1121 21:53:56.957137 12244 net.cpp:157] Top shape: 25 64 10 5 (80000)
I1121 21:53:56.957144 12244 net.cpp:165] Memory required for data: 264800300
I1121 21:53:56.957150 12244 layer_factory.hpp:77] Creating layer inception_4c/pool
I1121 21:53:56.957165 12244 net.cpp:100] Creating Layer inception_4c/pool
I1121 21:53:56.957173 12244 net.cpp:434] inception_4c/pool <- inception_4b/output_inception_4b/output_0_split_3
I1121 21:53:56.957182 12244 net.cpp:408] inception_4c/pool -> inception_4c/pool
I1121 21:53:56.957257 12244 net.cpp:150] Setting up inception_4c/pool
I1121 21:53:56.957274 12244 net.cpp:157] Top shape: 25 512 10 5 (640000)
I1121 21:53:56.957280 12244 net.cpp:165] Memory required for data: 267360300
I1121 21:53:56.957286 12244 layer_factory.hpp:77] Creating layer inception_4c/pool_proj
I1121 21:53:56.957300 12244 net.cpp:100] Creating Layer inception_4c/pool_proj
I1121 21:53:56.957307 12244 net.cpp:434] inception_4c/pool_proj <- inception_4c/pool
I1121 21:53:56.957317 12244 net.cpp:408] inception_4c/pool_proj -> inception_4c/pool_proj
I1121 21:53:56.958889 12244 net.cpp:150] Setting up inception_4c/pool_proj
I1121 21:53:56.958938 12244 net.cpp:157] Top shape: 25 64 10 5 (80000)
I1121 21:53:56.958945 12244 net.cpp:165] Memory required for data: 267680300
I1121 21:53:56.958976 12244 layer_factory.hpp:77] Creating layer inception_4c/relu_pool_proj
I1121 21:53:56.958998 12244 net.cpp:100] Creating Layer inception_4c/relu_pool_proj
I1121 21:53:56.959013 12244 net.cpp:434] inception_4c/relu_pool_proj <- inception_4c/pool_proj
I1121 21:53:56.959028 12244 net.cpp:395] inception_4c/relu_pool_proj -> inception_4c/pool_proj (in-place)
I1121 21:53:56.959323 12244 net.cpp:150] Setting up inception_4c/relu_pool_proj
I1121 21:53:56.959354 12244 net.cpp:157] Top shape: 25 64 10 5 (80000)
I1121 21:53:56.959362 12244 net.cpp:165] Memory required for data: 268000300
I1121 21:53:56.959378 12244 layer_factory.hpp:77] Creating layer inception_4c/output
I1121 21:53:56.959400 12244 net.cpp:100] Creating Layer inception_4c/output
I1121 21:53:56.959408 12244 net.cpp:434] inception_4c/output <- inception_4c/1x1
I1121 21:53:56.959422 12244 net.cpp:434] inception_4c/output <- inception_4c/3x3
I1121 21:53:56.959436 12244 net.cpp:434] inception_4c/output <- inception_4c/5x5
I1121 21:53:56.959442 12244 net.cpp:434] inception_4c/output <- inception_4c/pool_proj
I1121 21:53:56.959450 12244 net.cpp:408] inception_4c/output -> inception_4c/output
I1121 21:53:56.959502 12244 net.cpp:150] Setting up inception_4c/output
I1121 21:53:56.959512 12244 net.cpp:157] Top shape: 25 512 10 5 (640000)
I1121 21:53:56.959517 12244 net.cpp:165] Memory required for data: 270560300
I1121 21:53:56.959523 12244 layer_factory.hpp:77] Creating layer inception_4c/output_inception_4c/output_0_split
I1121 21:53:56.959532 12244 net.cpp:100] Creating Layer inception_4c/output_inception_4c/output_0_split
I1121 21:53:56.959537 12244 net.cpp:434] inception_4c/output_inception_4c/output_0_split <- inception_4c/output
I1121 21:53:56.959553 12244 net.cpp:408] inception_4c/output_inception_4c/output_0_split -> inception_4c/output_inception_4c/output_0_split_0
I1121 21:53:56.959570 12244 net.cpp:408] inception_4c/output_inception_4c/output_0_split -> inception_4c/output_inception_4c/output_0_split_1
I1121 21:53:56.959586 12244 net.cpp:408] inception_4c/output_inception_4c/output_0_split -> inception_4c/output_inception_4c/output_0_split_2
I1121 21:53:56.959602 12244 net.cpp:408] inception_4c/output_inception_4c/output_0_split -> inception_4c/output_inception_4c/output_0_split_3
I1121 21:53:56.959694 12244 net.cpp:150] Setting up inception_4c/output_inception_4c/output_0_split
I1121 21:53:56.959712 12244 net.cpp:157] Top shape: 25 512 10 5 (640000)
I1121 21:53:56.959719 12244 net.cpp:157] Top shape: 25 512 10 5 (640000)
I1121 21:53:56.959736 12244 net.cpp:157] Top shape: 25 512 10 5 (640000)
I1121 21:53:56.959743 12244 net.cpp:157] Top shape: 25 512 10 5 (640000)
I1121 21:53:56.959748 12244 net.cpp:165] Memory required for data: 280800300
I1121 21:53:56.959754 12244 layer_factory.hpp:77] Creating layer inception_4d/1x1
I1121 21:53:56.959775 12244 net.cpp:100] Creating Layer inception_4d/1x1
I1121 21:53:56.959781 12244 net.cpp:434] inception_4d/1x1 <- inception_4c/output_inception_4c/output_0_split_0
I1121 21:53:56.959800 12244 net.cpp:408] inception_4d/1x1 -> inception_4d/1x1
I1121 21:53:56.961072 12244 net.cpp:150] Setting up inception_4d/1x1
I1121 21:53:56.961091 12244 net.cpp:157] Top shape: 25 112 10 5 (140000)
I1121 21:53:56.961097 12244 net.cpp:165] Memory required for data: 281360300
I1121 21:53:56.961110 12244 layer_factory.hpp:77] Creating layer inception_4d/relu_1x1
I1121 21:53:56.961119 12244 net.cpp:100] Creating Layer inception_4d/relu_1x1
I1121 21:53:56.961127 12244 net.cpp:434] inception_4d/relu_1x1 <- inception_4d/1x1
I1121 21:53:56.961135 12244 net.cpp:395] inception_4d/relu_1x1 -> inception_4d/1x1 (in-place)
I1121 21:53:56.961288 12244 net.cpp:150] Setting up inception_4d/relu_1x1
I1121 21:53:56.961302 12244 net.cpp:157] Top shape: 25 112 10 5 (140000)
I1121 21:53:56.961308 12244 net.cpp:165] Memory required for data: 281920300
I1121 21:53:56.961314 12244 layer_factory.hpp:77] Creating layer inception_4d/3x3_reduce
I1121 21:53:56.961329 12244 net.cpp:100] Creating Layer inception_4d/3x3_reduce
I1121 21:53:56.961336 12244 net.cpp:434] inception_4d/3x3_reduce <- inception_4c/output_inception_4c/output_0_split_1
I1121 21:53:56.961346 12244 net.cpp:408] inception_4d/3x3_reduce -> inception_4d/3x3_reduce
I1121 21:53:56.962749 12244 net.cpp:150] Setting up inception_4d/3x3_reduce
I1121 21:53:56.962785 12244 net.cpp:157] Top shape: 25 144 10 5 (180000)
I1121 21:53:56.962791 12244 net.cpp:165] Memory required for data: 282640300
I1121 21:53:56.962810 12244 layer_factory.hpp:77] Creating layer inception_4d/relu_3x3_reduce
I1121 21:53:56.962827 12244 net.cpp:100] Creating Layer inception_4d/relu_3x3_reduce
I1121 21:53:56.962834 12244 net.cpp:434] inception_4d/relu_3x3_reduce <- inception_4d/3x3_reduce
I1121 21:53:56.962841 12244 net.cpp:395] inception_4d/relu_3x3_reduce -> inception_4d/3x3_reduce (in-place)
I1121 21:53:56.963141 12244 net.cpp:150] Setting up inception_4d/relu_3x3_reduce
I1121 21:53:56.963172 12244 net.cpp:157] Top shape: 25 144 10 5 (180000)
I1121 21:53:56.963179 12244 net.cpp:165] Memory required for data: 283360300
I1121 21:53:56.963186 12244 layer_factory.hpp:77] Creating layer inception_4d/3x3
I1121 21:53:56.963207 12244 net.cpp:100] Creating Layer inception_4d/3x3
I1121 21:53:56.963214 12244 net.cpp:434] inception_4d/3x3 <- inception_4d/3x3_reduce
I1121 21:53:56.963222 12244 net.cpp:408] inception_4d/3x3 -> inception_4d/3x3
I1121 21:53:56.966811 12244 net.cpp:150] Setting up inception_4d/3x3
I1121 21:53:56.966857 12244 net.cpp:157] Top shape: 25 288 10 5 (360000)
I1121 21:53:56.966866 12244 net.cpp:165] Memory required for data: 284800300
I1121 21:53:56.966883 12244 layer_factory.hpp:77] Creating layer inception_4d/relu_3x3
I1121 21:53:56.966895 12244 net.cpp:100] Creating Layer inception_4d/relu_3x3
I1121 21:53:56.966903 12244 net.cpp:434] inception_4d/relu_3x3 <- inception_4d/3x3
I1121 21:53:56.966912 12244 net.cpp:395] inception_4d/relu_3x3 -> inception_4d/3x3 (in-place)
I1121 21:53:56.967205 12244 net.cpp:150] Setting up inception_4d/relu_3x3
I1121 21:53:56.967226 12244 net.cpp:157] Top shape: 25 288 10 5 (360000)
I1121 21:53:56.967233 12244 net.cpp:165] Memory required for data: 286240300
I1121 21:53:56.967239 12244 layer_factory.hpp:77] Creating layer inception_4d/5x5_reduce
I1121 21:53:56.967257 12244 net.cpp:100] Creating Layer inception_4d/5x5_reduce
I1121 21:53:56.967285 12244 net.cpp:434] inception_4d/5x5_reduce <- inception_4c/output_inception_4c/output_0_split_2
I1121 21:53:56.967304 12244 net.cpp:408] inception_4d/5x5_reduce -> inception_4d/5x5_reduce
I1121 21:53:56.968363 12244 net.cpp:150] Setting up inception_4d/5x5_reduce
I1121 21:53:56.968394 12244 net.cpp:157] Top shape: 25 32 10 5 (40000)
I1121 21:53:56.968402 12244 net.cpp:165] Memory required for data: 286400300
I1121 21:53:56.968415 12244 layer_factory.hpp:77] Creating layer inception_4d/relu_5x5_reduce
I1121 21:53:56.968436 12244 net.cpp:100] Creating Layer inception_4d/relu_5x5_reduce
I1121 21:53:56.968442 12244 net.cpp:434] inception_4d/relu_5x5_reduce <- inception_4d/5x5_reduce
I1121 21:53:56.968459 12244 net.cpp:395] inception_4d/relu_5x5_reduce -> inception_4d/5x5_reduce (in-place)
I1121 21:53:56.968616 12244 net.cpp:150] Setting up inception_4d/relu_5x5_reduce
I1121 21:53:56.968636 12244 net.cpp:157] Top shape: 25 32 10 5 (40000)
I1121 21:53:56.968642 12244 net.cpp:165] Memory required for data: 286560300
I1121 21:53:56.968650 12244 layer_factory.hpp:77] Creating layer inception_4d/5x5
I1121 21:53:56.968667 12244 net.cpp:100] Creating Layer inception_4d/5x5
I1121 21:53:56.968674 12244 net.cpp:434] inception_4d/5x5 <- inception_4d/5x5_reduce
I1121 21:53:56.968683 12244 net.cpp:408] inception_4d/5x5 -> inception_4d/5x5
I1121 21:53:56.970012 12244 net.cpp:150] Setting up inception_4d/5x5
I1121 21:53:56.970063 12244 net.cpp:157] Top shape: 25 64 10 5 (80000)
I1121 21:53:56.970070 12244 net.cpp:165] Memory required for data: 286880300
I1121 21:53:56.970083 12244 layer_factory.hpp:77] Creating layer inception_4d/relu_5x5
I1121 21:53:56.970103 12244 net.cpp:100] Creating Layer inception_4d/relu_5x5
I1121 21:53:56.970111 12244 net.cpp:434] inception_4d/relu_5x5 <- inception_4d/5x5
I1121 21:53:56.970127 12244 net.cpp:395] inception_4d/relu_5x5 -> inception_4d/5x5 (in-place)
I1121 21:53:56.970418 12244 net.cpp:150] Setting up inception_4d/relu_5x5
I1121 21:53:56.970444 12244 net.cpp:157] Top shape: 25 64 10 5 (80000)
I1121 21:53:56.970450 12244 net.cpp:165] Memory required for data: 287200300
I1121 21:53:56.970456 12244 layer_factory.hpp:77] Creating layer inception_4d/pool
I1121 21:53:56.970475 12244 net.cpp:100] Creating Layer inception_4d/pool
I1121 21:53:56.970482 12244 net.cpp:434] inception_4d/pool <- inception_4c/output_inception_4c/output_0_split_3
I1121 21:53:56.970500 12244 net.cpp:408] inception_4d/pool -> inception_4d/pool
I1121 21:53:56.970558 12244 net.cpp:150] Setting up inception_4d/pool
I1121 21:53:56.970577 12244 net.cpp:157] Top shape: 25 512 10 5 (640000)
I1121 21:53:56.970582 12244 net.cpp:165] Memory required for data: 289760300
I1121 21:53:56.970587 12244 layer_factory.hpp:77] Creating layer inception_4d/pool_proj
I1121 21:53:56.970608 12244 net.cpp:100] Creating Layer inception_4d/pool_proj
I1121 21:53:56.970616 12244 net.cpp:434] inception_4d/pool_proj <- inception_4d/pool
I1121 21:53:56.970624 12244 net.cpp:408] inception_4d/pool_proj -> inception_4d/pool_proj
I1121 21:53:56.971668 12244 net.cpp:150] Setting up inception_4d/pool_proj
I1121 21:53:56.971686 12244 net.cpp:157] Top shape: 25 64 10 5 (80000)
I1121 21:53:56.971693 12244 net.cpp:165] Memory required for data: 290080300
I1121 21:53:56.971706 12244 layer_factory.hpp:77] Creating layer inception_4d/relu_pool_proj
I1121 21:53:56.971715 12244 net.cpp:100] Creating Layer inception_4d/relu_pool_proj
I1121 21:53:56.971722 12244 net.cpp:434] inception_4d/relu_pool_proj <- inception_4d/pool_proj
I1121 21:53:56.971730 12244 net.cpp:395] inception_4d/relu_pool_proj -> inception_4d/pool_proj (in-place)
I1121 21:53:56.972116 12244 net.cpp:150] Setting up inception_4d/relu_pool_proj
I1121 21:53:56.972138 12244 net.cpp:157] Top shape: 25 64 10 5 (80000)
I1121 21:53:56.972146 12244 net.cpp:165] Memory required for data: 290400300
I1121 21:53:56.972151 12244 layer_factory.hpp:77] Creating layer inception_4d/output
I1121 21:53:56.972170 12244 net.cpp:100] Creating Layer inception_4d/output
I1121 21:53:56.972177 12244 net.cpp:434] inception_4d/output <- inception_4d/1x1
I1121 21:53:56.972205 12244 net.cpp:434] inception_4d/output <- inception_4d/3x3
I1121 21:53:56.972213 12244 net.cpp:434] inception_4d/output <- inception_4d/5x5
I1121 21:53:56.972218 12244 net.cpp:434] inception_4d/output <- inception_4d/pool_proj
I1121 21:53:56.972235 12244 net.cpp:408] inception_4d/output -> inception_4d/output
I1121 21:53:56.972272 12244 net.cpp:150] Setting up inception_4d/output
I1121 21:53:56.972290 12244 net.cpp:157] Top shape: 25 528 10 5 (660000)
I1121 21:53:56.972296 12244 net.cpp:165] Memory required for data: 293040300
I1121 21:53:56.972302 12244 layer_factory.hpp:77] Creating layer inception_4d/output_inception_4d/output_0_split
I1121 21:53:56.972321 12244 net.cpp:100] Creating Layer inception_4d/output_inception_4d/output_0_split
I1121 21:53:56.972326 12244 net.cpp:434] inception_4d/output_inception_4d/output_0_split <- inception_4d/output
I1121 21:53:56.972334 12244 net.cpp:408] inception_4d/output_inception_4d/output_0_split -> inception_4d/output_inception_4d/output_0_split_0
I1121 21:53:56.972342 12244 net.cpp:408] inception_4d/output_inception_4d/output_0_split -> inception_4d/output_inception_4d/output_0_split_1
I1121 21:53:56.972352 12244 net.cpp:408] inception_4d/output_inception_4d/output_0_split -> inception_4d/output_inception_4d/output_0_split_2
I1121 21:53:56.972360 12244 net.cpp:408] inception_4d/output_inception_4d/output_0_split -> inception_4d/output_inception_4d/output_0_split_3
I1121 21:53:56.972424 12244 net.cpp:150] Setting up inception_4d/output_inception_4d/output_0_split
I1121 21:53:56.972434 12244 net.cpp:157] Top shape: 25 528 10 5 (660000)
I1121 21:53:56.972440 12244 net.cpp:157] Top shape: 25 528 10 5 (660000)
I1121 21:53:56.972446 12244 net.cpp:157] Top shape: 25 528 10 5 (660000)
I1121 21:53:56.972451 12244 net.cpp:157] Top shape: 25 528 10 5 (660000)
I1121 21:53:56.972457 12244 net.cpp:165] Memory required for data: 303600300
I1121 21:53:56.972462 12244 layer_factory.hpp:77] Creating layer inception_4e/1x1
I1121 21:53:56.972475 12244 net.cpp:100] Creating Layer inception_4e/1x1
I1121 21:53:56.972488 12244 net.cpp:434] inception_4e/1x1 <- inception_4d/output_inception_4d/output_0_split_0
I1121 21:53:56.972506 12244 net.cpp:408] inception_4e/1x1 -> inception_4e/1x1
I1121 21:53:56.974683 12244 net.cpp:150] Setting up inception_4e/1x1
I1121 21:53:56.974712 12244 net.cpp:157] Top shape: 25 256 10 5 (320000)
I1121 21:53:56.974720 12244 net.cpp:165] Memory required for data: 304880300
I1121 21:53:56.974733 12244 layer_factory.hpp:77] Creating layer inception_4e/relu_1x1
I1121 21:53:56.974747 12244 net.cpp:100] Creating Layer inception_4e/relu_1x1
I1121 21:53:56.974756 12244 net.cpp:434] inception_4e/relu_1x1 <- inception_4e/1x1
I1121 21:53:56.974766 12244 net.cpp:395] inception_4e/relu_1x1 -> inception_4e/1x1 (in-place)
I1121 21:53:56.974920 12244 net.cpp:150] Setting up inception_4e/relu_1x1
I1121 21:53:56.974941 12244 net.cpp:157] Top shape: 25 256 10 5 (320000)
I1121 21:53:56.974946 12244 net.cpp:165] Memory required for data: 306160300
I1121 21:53:56.974952 12244 layer_factory.hpp:77] Creating layer inception_4e/3x3_reduce
I1121 21:53:56.974969 12244 net.cpp:100] Creating Layer inception_4e/3x3_reduce
I1121 21:53:56.974977 12244 net.cpp:434] inception_4e/3x3_reduce <- inception_4d/output_inception_4d/output_0_split_1
I1121 21:53:56.974987 12244 net.cpp:408] inception_4e/3x3_reduce -> inception_4e/3x3_reduce
I1121 21:53:56.976989 12244 net.cpp:150] Setting up inception_4e/3x3_reduce
I1121 21:53:56.977030 12244 net.cpp:157] Top shape: 25 160 10 5 (200000)
I1121 21:53:56.977041 12244 net.cpp:165] Memory required for data: 306960300
I1121 21:53:56.977068 12244 layer_factory.hpp:77] Creating layer inception_4e/relu_3x3_reduce
I1121 21:53:56.977083 12244 net.cpp:100] Creating Layer inception_4e/relu_3x3_reduce
I1121 21:53:56.977104 12244 net.cpp:434] inception_4e/relu_3x3_reduce <- inception_4e/3x3_reduce
I1121 21:53:56.977129 12244 net.cpp:395] inception_4e/relu_3x3_reduce -> inception_4e/3x3_reduce (in-place)
I1121 21:53:56.977557 12244 net.cpp:150] Setting up inception_4e/relu_3x3_reduce
I1121 21:53:56.977583 12244 net.cpp:157] Top shape: 25 160 10 5 (200000)
I1121 21:53:56.977589 12244 net.cpp:165] Memory required for data: 307760300
I1121 21:53:56.977607 12244 layer_factory.hpp:77] Creating layer inception_4e/3x3
I1121 21:53:56.977627 12244 net.cpp:100] Creating Layer inception_4e/3x3
I1121 21:53:56.977635 12244 net.cpp:434] inception_4e/3x3 <- inception_4e/3x3_reduce
I1121 21:53:56.977653 12244 net.cpp:408] inception_4e/3x3 -> inception_4e/3x3
I1121 21:53:56.984067 12244 net.cpp:150] Setting up inception_4e/3x3
I1121 21:53:56.984154 12244 net.cpp:157] Top shape: 25 320 10 5 (400000)
I1121 21:53:56.984169 12244 net.cpp:165] Memory required for data: 309360300
I1121 21:53:56.984199 12244 layer_factory.hpp:77] Creating layer inception_4e/relu_3x3
I1121 21:53:56.984232 12244 net.cpp:100] Creating Layer inception_4e/relu_3x3
I1121 21:53:56.984251 12244 net.cpp:434] inception_4e/relu_3x3 <- inception_4e/3x3
I1121 21:53:56.984273 12244 net.cpp:395] inception_4e/relu_3x3 -> inception_4e/3x3 (in-place)
I1121 21:53:56.984908 12244 net.cpp:150] Setting up inception_4e/relu_3x3
I1121 21:53:56.984951 12244 net.cpp:157] Top shape: 25 320 10 5 (400000)
I1121 21:53:56.984962 12244 net.cpp:165] Memory required for data: 310960300
I1121 21:53:56.984974 12244 layer_factory.hpp:77] Creating layer inception_4e/5x5_reduce
I1121 21:53:56.985004 12244 net.cpp:100] Creating Layer inception_4e/5x5_reduce
I1121 21:53:56.985018 12244 net.cpp:434] inception_4e/5x5_reduce <- inception_4d/output_inception_4d/output_0_split_2
I1121 21:53:56.985033 12244 net.cpp:408] inception_4e/5x5_reduce -> inception_4e/5x5_reduce
I1121 21:53:56.987052 12244 net.cpp:150] Setting up inception_4e/5x5_reduce
I1121 21:53:56.987112 12244 net.cpp:157] Top shape: 25 32 10 5 (40000)
I1121 21:53:56.987123 12244 net.cpp:165] Memory required for data: 311120300
I1121 21:53:56.987144 12244 layer_factory.hpp:77] Creating layer inception_4e/relu_5x5_reduce
I1121 21:53:56.987170 12244 net.cpp:100] Creating Layer inception_4e/relu_5x5_reduce
I1121 21:53:56.987191 12244 net.cpp:434] inception_4e/relu_5x5_reduce <- inception_4e/5x5_reduce
I1121 21:53:56.987205 12244 net.cpp:395] inception_4e/relu_5x5_reduce -> inception_4e/5x5_reduce (in-place)
I1121 21:53:56.987476 12244 net.cpp:150] Setting up inception_4e/relu_5x5_reduce
I1121 21:53:56.987498 12244 net.cpp:157] Top shape: 25 32 10 5 (40000)
I1121 21:53:56.987506 12244 net.cpp:165] Memory required for data: 311280300
I1121 21:53:56.987519 12244 layer_factory.hpp:77] Creating layer inception_4e/5x5
I1121 21:53:56.987540 12244 net.cpp:100] Creating Layer inception_4e/5x5
I1121 21:53:56.987551 12244 net.cpp:434] inception_4e/5x5 <- inception_4e/5x5_reduce
I1121 21:53:56.987565 12244 net.cpp:408] inception_4e/5x5 -> inception_4e/5x5
I1121 21:53:56.990772 12244 net.cpp:150] Setting up inception_4e/5x5
I1121 21:53:56.990831 12244 net.cpp:157] Top shape: 25 128 10 5 (160000)
I1121 21:53:56.990841 12244 net.cpp:165] Memory required for data: 311920300
I1121 21:53:56.990862 12244 layer_factory.hpp:77] Creating layer inception_4e/relu_5x5
I1121 21:53:56.990883 12244 net.cpp:100] Creating Layer inception_4e/relu_5x5
I1121 21:53:56.990897 12244 net.cpp:434] inception_4e/relu_5x5 <- inception_4e/5x5
I1121 21:53:56.990912 12244 net.cpp:395] inception_4e/relu_5x5 -> inception_4e/5x5 (in-place)
I1121 21:53:56.991457 12244 net.cpp:150] Setting up inception_4e/relu_5x5
I1121 21:53:56.991497 12244 net.cpp:157] Top shape: 25 128 10 5 (160000)
I1121 21:53:56.991511 12244 net.cpp:165] Memory required for data: 312560300
I1121 21:53:56.991526 12244 layer_factory.hpp:77] Creating layer inception_4e/pool
I1121 21:53:56.991544 12244 net.cpp:100] Creating Layer inception_4e/pool
I1121 21:53:56.991556 12244 net.cpp:434] inception_4e/pool <- inception_4d/output_inception_4d/output_0_split_3
I1121 21:53:56.991569 12244 net.cpp:408] inception_4e/pool -> inception_4e/pool
I1121 21:53:56.991667 12244 net.cpp:150] Setting up inception_4e/pool
I1121 21:53:56.991683 12244 net.cpp:157] Top shape: 25 528 10 5 (660000)
I1121 21:53:56.991708 12244 net.cpp:165] Memory required for data: 315200300
I1121 21:53:56.991721 12244 layer_factory.hpp:77] Creating layer inception_4e/pool_proj
I1121 21:53:56.991741 12244 net.cpp:100] Creating Layer inception_4e/pool_proj
I1121 21:53:56.991755 12244 net.cpp:434] inception_4e/pool_proj <- inception_4e/pool
I1121 21:53:56.991770 12244 net.cpp:408] inception_4e/pool_proj -> inception_4e/pool_proj
I1121 21:53:56.993955 12244 net.cpp:150] Setting up inception_4e/pool_proj
I1121 21:53:56.994014 12244 net.cpp:157] Top shape: 25 128 10 5 (160000)
I1121 21:53:56.994029 12244 net.cpp:165] Memory required for data: 315840300
I1121 21:53:56.994052 12244 layer_factory.hpp:77] Creating layer inception_4e/relu_pool_proj
I1121 21:53:56.994077 12244 net.cpp:100] Creating Layer inception_4e/relu_pool_proj
I1121 21:53:56.994096 12244 net.cpp:434] inception_4e/relu_pool_proj <- inception_4e/pool_proj
I1121 21:53:56.994110 12244 net.cpp:395] inception_4e/relu_pool_proj -> inception_4e/pool_proj (in-place)
I1121 21:53:56.994583 12244 net.cpp:150] Setting up inception_4e/relu_pool_proj
I1121 21:53:56.994611 12244 net.cpp:157] Top shape: 25 128 10 5 (160000)
I1121 21:53:56.994626 12244 net.cpp:165] Memory required for data: 316480300
I1121 21:53:56.994642 12244 layer_factory.hpp:77] Creating layer inception_4e/output
I1121 21:53:56.994663 12244 net.cpp:100] Creating Layer inception_4e/output
I1121 21:53:56.994678 12244 net.cpp:434] inception_4e/output <- inception_4e/1x1
I1121 21:53:56.994693 12244 net.cpp:434] inception_4e/output <- inception_4e/3x3
I1121 21:53:56.994705 12244 net.cpp:434] inception_4e/output <- inception_4e/5x5
I1121 21:53:56.994717 12244 net.cpp:434] inception_4e/output <- inception_4e/pool_proj
I1121 21:53:56.994730 12244 net.cpp:408] inception_4e/output -> inception_4e/output
I1121 21:53:56.994804 12244 net.cpp:150] Setting up inception_4e/output
I1121 21:53:56.994823 12244 net.cpp:157] Top shape: 25 832 10 5 (1040000)
I1121 21:53:56.994834 12244 net.cpp:165] Memory required for data: 320640300
I1121 21:53:56.994844 12244 layer_factory.hpp:77] Creating layer inception_4e/output_inception_4e/output_0_split
I1121 21:53:56.994859 12244 net.cpp:100] Creating Layer inception_4e/output_inception_4e/output_0_split
I1121 21:53:56.994871 12244 net.cpp:434] inception_4e/output_inception_4e/output_0_split <- inception_4e/output
I1121 21:53:56.994890 12244 net.cpp:408] inception_4e/output_inception_4e/output_0_split -> inception_4e/output_inception_4e/output_0_split_0
I1121 21:53:56.994907 12244 net.cpp:408] inception_4e/output_inception_4e/output_0_split -> inception_4e/output_inception_4e/output_0_split_1
I1121 21:53:56.994925 12244 net.cpp:408] inception_4e/output_inception_4e/output_0_split -> inception_4e/output_inception_4e/output_0_split_2
I1121 21:53:56.994941 12244 net.cpp:408] inception_4e/output_inception_4e/output_0_split -> inception_4e/output_inception_4e/output_0_split_3
I1121 21:53:56.995084 12244 net.cpp:150] Setting up inception_4e/output_inception_4e/output_0_split
I1121 21:53:56.995105 12244 net.cpp:157] Top shape: 25 832 10 5 (1040000)
I1121 21:53:56.995115 12244 net.cpp:157] Top shape: 25 832 10 5 (1040000)
I1121 21:53:56.995126 12244 net.cpp:157] Top shape: 25 832 10 5 (1040000)
I1121 21:53:56.995136 12244 net.cpp:157] Top shape: 25 832 10 5 (1040000)
I1121 21:53:56.995143 12244 net.cpp:165] Memory required for data: 337280300
I1121 21:53:56.995157 12244 layer_factory.hpp:77] Creating layer inception_5a/1x1
I1121 21:53:56.995178 12244 net.cpp:100] Creating Layer inception_5a/1x1
I1121 21:53:56.995188 12244 net.cpp:434] inception_5a/1x1 <- inception_4e/output_inception_4e/output_0_split_0
I1121 21:53:56.995201 12244 net.cpp:408] inception_5a/1x1 -> inception_5a/1x1
I1121 21:53:56.998867 12244 net.cpp:150] Setting up inception_5a/1x1
I1121 21:53:56.998911 12244 net.cpp:157] Top shape: 25 256 10 5 (320000)
I1121 21:53:56.998919 12244 net.cpp:165] Memory required for data: 338560300
I1121 21:53:56.998935 12244 layer_factory.hpp:77] Creating layer inception_5a/relu_1x1
I1121 21:53:56.998965 12244 net.cpp:100] Creating Layer inception_5a/relu_1x1
I1121 21:53:56.998977 12244 net.cpp:434] inception_5a/relu_1x1 <- inception_5a/1x1
I1121 21:53:56.998989 12244 net.cpp:395] inception_5a/relu_1x1 -> inception_5a/1x1 (in-place)
I1121 21:53:56.999157 12244 net.cpp:150] Setting up inception_5a/relu_1x1
I1121 21:53:56.999171 12244 net.cpp:157] Top shape: 25 256 10 5 (320000)
I1121 21:53:56.999177 12244 net.cpp:165] Memory required for data: 339840300
I1121 21:53:56.999183 12244 layer_factory.hpp:77] Creating layer inception_5a/3x3_reduce
I1121 21:53:56.999199 12244 net.cpp:100] Creating Layer inception_5a/3x3_reduce
I1121 21:53:56.999207 12244 net.cpp:434] inception_5a/3x3_reduce <- inception_4e/output_inception_4e/output_0_split_1
I1121 21:53:56.999217 12244 net.cpp:408] inception_5a/3x3_reduce -> inception_5a/3x3_reduce
I1121 21:53:57.001726 12244 net.cpp:150] Setting up inception_5a/3x3_reduce
I1121 21:53:57.001772 12244 net.cpp:157] Top shape: 25 160 10 5 (200000)
I1121 21:53:57.001780 12244 net.cpp:165] Memory required for data: 340640300
I1121 21:53:57.001796 12244 layer_factory.hpp:77] Creating layer inception_5a/relu_3x3_reduce
I1121 21:53:57.001827 12244 net.cpp:100] Creating Layer inception_5a/relu_3x3_reduce
I1121 21:53:57.001837 12244 net.cpp:434] inception_5a/relu_3x3_reduce <- inception_5a/3x3_reduce
I1121 21:53:57.001847 12244 net.cpp:395] inception_5a/relu_3x3_reduce -> inception_5a/3x3_reduce (in-place)
I1121 21:53:57.002424 12244 net.cpp:150] Setting up inception_5a/relu_3x3_reduce
I1121 21:53:57.002454 12244 net.cpp:157] Top shape: 25 160 10 5 (200000)
I1121 21:53:57.002465 12244 net.cpp:165] Memory required for data: 341440300
I1121 21:53:57.002480 12244 layer_factory.hpp:77] Creating layer inception_5a/3x3
I1121 21:53:57.002507 12244 net.cpp:100] Creating Layer inception_5a/3x3
I1121 21:53:57.002521 12244 net.cpp:434] inception_5a/3x3 <- inception_5a/3x3_reduce
I1121 21:53:57.002537 12244 net.cpp:408] inception_5a/3x3 -> inception_5a/3x3
I1121 21:53:57.008703 12244 net.cpp:150] Setting up inception_5a/3x3
I1121 21:53:57.008772 12244 net.cpp:157] Top shape: 25 320 10 5 (400000)
I1121 21:53:57.008785 12244 net.cpp:165] Memory required for data: 343040300
I1121 21:53:57.008806 12244 layer_factory.hpp:77] Creating layer inception_5a/relu_3x3
I1121 21:53:57.008827 12244 net.cpp:100] Creating Layer inception_5a/relu_3x3
I1121 21:53:57.008841 12244 net.cpp:434] inception_5a/relu_3x3 <- inception_5a/3x3
I1121 21:53:57.008854 12244 net.cpp:395] inception_5a/relu_3x3 -> inception_5a/3x3 (in-place)
I1121 21:53:57.009521 12244 net.cpp:150] Setting up inception_5a/relu_3x3
I1121 21:53:57.009593 12244 net.cpp:157] Top shape: 25 320 10 5 (400000)
I1121 21:53:57.009608 12244 net.cpp:165] Memory required for data: 344640300
I1121 21:53:57.009624 12244 layer_factory.hpp:77] Creating layer inception_5a/5x5_reduce
I1121 21:53:57.009662 12244 net.cpp:100] Creating Layer inception_5a/5x5_reduce
I1121 21:53:57.009681 12244 net.cpp:434] inception_5a/5x5_reduce <- inception_4e/output_inception_4e/output_0_split_2
I1121 21:53:57.009704 12244 net.cpp:408] inception_5a/5x5_reduce -> inception_5a/5x5_reduce
I1121 21:53:57.012018 12244 net.cpp:150] Setting up inception_5a/5x5_reduce
I1121 21:53:57.012084 12244 net.cpp:157] Top shape: 25 32 10 5 (40000)
I1121 21:53:57.012101 12244 net.cpp:165] Memory required for data: 344800300
I1121 21:53:57.012130 12244 layer_factory.hpp:77] Creating layer inception_5a/relu_5x5_reduce
I1121 21:53:57.012161 12244 net.cpp:100] Creating Layer inception_5a/relu_5x5_reduce
I1121 21:53:57.012178 12244 net.cpp:434] inception_5a/relu_5x5_reduce <- inception_5a/5x5_reduce
I1121 21:53:57.012197 12244 net.cpp:395] inception_5a/relu_5x5_reduce -> inception_5a/5x5_reduce (in-place)
I1121 21:53:57.012482 12244 net.cpp:150] Setting up inception_5a/relu_5x5_reduce
I1121 21:53:57.012502 12244 net.cpp:157] Top shape: 25 32 10 5 (40000)
I1121 21:53:57.012511 12244 net.cpp:165] Memory required for data: 344960300
I1121 21:53:57.012526 12244 layer_factory.hpp:77] Creating layer inception_5a/5x5
I1121 21:53:57.012570 12244 net.cpp:100] Creating Layer inception_5a/5x5
I1121 21:53:57.012586 12244 net.cpp:434] inception_5a/5x5 <- inception_5a/5x5_reduce
I1121 21:53:57.012609 12244 net.cpp:408] inception_5a/5x5 -> inception_5a/5x5
I1121 21:53:57.015430 12244 net.cpp:150] Setting up inception_5a/5x5
I1121 21:53:57.015506 12244 net.cpp:157] Top shape: 25 128 10 5 (160000)
I1121 21:53:57.015524 12244 net.cpp:165] Memory required for data: 345600300
I1121 21:53:57.015550 12244 layer_factory.hpp:77] Creating layer inception_5a/relu_5x5
I1121 21:53:57.015581 12244 net.cpp:100] Creating Layer inception_5a/relu_5x5
I1121 21:53:57.015597 12244 net.cpp:434] inception_5a/relu_5x5 <- inception_5a/5x5
I1121 21:53:57.015610 12244 net.cpp:395] inception_5a/relu_5x5 -> inception_5a/5x5 (in-place)
I1121 21:53:57.016116 12244 net.cpp:150] Setting up inception_5a/relu_5x5
I1121 21:53:57.016144 12244 net.cpp:157] Top shape: 25 128 10 5 (160000)
I1121 21:53:57.016160 12244 net.cpp:165] Memory required for data: 346240300
I1121 21:53:57.016170 12244 layer_factory.hpp:77] Creating layer inception_5a/pool
I1121 21:53:57.016207 12244 net.cpp:100] Creating Layer inception_5a/pool
I1121 21:53:57.016223 12244 net.cpp:434] inception_5a/pool <- inception_4e/output_inception_4e/output_0_split_3
I1121 21:53:57.016238 12244 net.cpp:408] inception_5a/pool -> inception_5a/pool
I1121 21:53:57.016348 12244 net.cpp:150] Setting up inception_5a/pool
I1121 21:53:57.016371 12244 net.cpp:157] Top shape: 25 832 10 5 (1040000)
I1121 21:53:57.016382 12244 net.cpp:165] Memory required for data: 350400300
I1121 21:53:57.016398 12244 layer_factory.hpp:77] Creating layer inception_5a/pool_proj
I1121 21:53:57.016422 12244 net.cpp:100] Creating Layer inception_5a/pool_proj
I1121 21:53:57.016434 12244 net.cpp:434] inception_5a/pool_proj <- inception_5a/pool
I1121 21:53:57.016448 12244 net.cpp:408] inception_5a/pool_proj -> inception_5a/pool_proj
I1121 21:53:57.019897 12244 net.cpp:150] Setting up inception_5a/pool_proj
I1121 21:53:57.019949 12244 net.cpp:157] Top shape: 25 128 10 5 (160000)
I1121 21:53:57.019958 12244 net.cpp:165] Memory required for data: 351040300
I1121 21:53:57.019974 12244 layer_factory.hpp:77] Creating layer inception_5a/relu_pool_proj
I1121 21:53:57.019992 12244 net.cpp:100] Creating Layer inception_5a/relu_pool_proj
I1121 21:53:57.020004 12244 net.cpp:434] inception_5a/relu_pool_proj <- inception_5a/pool_proj
I1121 21:53:57.020014 12244 net.cpp:395] inception_5a/relu_pool_proj -> inception_5a/pool_proj (in-place)
I1121 21:53:57.020499 12244 net.cpp:150] Setting up inception_5a/relu_pool_proj
I1121 21:53:57.020544 12244 net.cpp:157] Top shape: 25 128 10 5 (160000)
I1121 21:53:57.020558 12244 net.cpp:165] Memory required for data: 351680300
I1121 21:53:57.020576 12244 layer_factory.hpp:77] Creating layer inception_5a/output
I1121 21:53:57.020601 12244 net.cpp:100] Creating Layer inception_5a/output
I1121 21:53:57.020619 12244 net.cpp:434] inception_5a/output <- inception_5a/1x1
I1121 21:53:57.020637 12244 net.cpp:434] inception_5a/output <- inception_5a/3x3
I1121 21:53:57.020653 12244 net.cpp:434] inception_5a/output <- inception_5a/5x5
I1121 21:53:57.020669 12244 net.cpp:434] inception_5a/output <- inception_5a/pool_proj
I1121 21:53:57.020690 12244 net.cpp:408] inception_5a/output -> inception_5a/output
I1121 21:53:57.020802 12244 net.cpp:150] Setting up inception_5a/output
I1121 21:53:57.020826 12244 net.cpp:157] Top shape: 25 832 10 5 (1040000)
I1121 21:53:57.020843 12244 net.cpp:165] Memory required for data: 355840300
I1121 21:53:57.020866 12244 layer_factory.hpp:77] Creating layer inception_5a/output_inception_5a/output_0_split
I1121 21:53:57.020889 12244 net.cpp:100] Creating Layer inception_5a/output_inception_5a/output_0_split
I1121 21:53:57.020907 12244 net.cpp:434] inception_5a/output_inception_5a/output_0_split <- inception_5a/output
I1121 21:53:57.020927 12244 net.cpp:408] inception_5a/output_inception_5a/output_0_split -> inception_5a/output_inception_5a/output_0_split_0
I1121 21:53:57.020946 12244 net.cpp:408] inception_5a/output_inception_5a/output_0_split -> inception_5a/output_inception_5a/output_0_split_1
I1121 21:53:57.020977 12244 net.cpp:408] inception_5a/output_inception_5a/output_0_split -> inception_5a/output_inception_5a/output_0_split_2
I1121 21:53:57.020988 12244 net.cpp:408] inception_5a/output_inception_5a/output_0_split -> inception_5a/output_inception_5a/output_0_split_3
I1121 21:53:57.021083 12244 net.cpp:150] Setting up inception_5a/output_inception_5a/output_0_split
I1121 21:53:57.021095 12244 net.cpp:157] Top shape: 25 832 10 5 (1040000)
I1121 21:53:57.021101 12244 net.cpp:157] Top shape: 25 832 10 5 (1040000)
I1121 21:53:57.021107 12244 net.cpp:157] Top shape: 25 832 10 5 (1040000)
I1121 21:53:57.021113 12244 net.cpp:157] Top shape: 25 832 10 5 (1040000)
I1121 21:53:57.021118 12244 net.cpp:165] Memory required for data: 372480300
I1121 21:53:57.021124 12244 layer_factory.hpp:77] Creating layer inception_5b/1x1
I1121 21:53:57.021139 12244 net.cpp:100] Creating Layer inception_5b/1x1
I1121 21:53:57.021147 12244 net.cpp:434] inception_5b/1x1 <- inception_5a/output_inception_5a/output_0_split_0
I1121 21:53:57.021157 12244 net.cpp:408] inception_5b/1x1 -> inception_5b/1x1
I1121 21:53:57.024869 12244 net.cpp:150] Setting up inception_5b/1x1
I1121 21:53:57.024917 12244 net.cpp:157] Top shape: 25 384 10 5 (480000)
I1121 21:53:57.024925 12244 net.cpp:165] Memory required for data: 374400300
I1121 21:53:57.024940 12244 layer_factory.hpp:77] Creating layer inception_5b/relu_1x1
I1121 21:53:57.024957 12244 net.cpp:100] Creating Layer inception_5b/relu_1x1
I1121 21:53:57.024966 12244 net.cpp:434] inception_5b/relu_1x1 <- inception_5b/1x1
I1121 21:53:57.024974 12244 net.cpp:395] inception_5b/relu_1x1 -> inception_5b/1x1 (in-place)
I1121 21:53:57.025143 12244 net.cpp:150] Setting up inception_5b/relu_1x1
I1121 21:53:57.025157 12244 net.cpp:157] Top shape: 25 384 10 5 (480000)
I1121 21:53:57.025163 12244 net.cpp:165] Memory required for data: 376320300
I1121 21:53:57.025171 12244 layer_factory.hpp:77] Creating layer inception_5b/3x3_reduce
I1121 21:53:57.025185 12244 net.cpp:100] Creating Layer inception_5b/3x3_reduce
I1121 21:53:57.025193 12244 net.cpp:434] inception_5b/3x3_reduce <- inception_5a/output_inception_5a/output_0_split_1
I1121 21:53:57.025204 12244 net.cpp:408] inception_5b/3x3_reduce -> inception_5b/3x3_reduce
I1121 21:53:57.028496 12244 net.cpp:150] Setting up inception_5b/3x3_reduce
I1121 21:53:57.028555 12244 net.cpp:157] Top shape: 25 192 10 5 (240000)
I1121 21:53:57.028570 12244 net.cpp:165] Memory required for data: 377280300
I1121 21:53:57.028599 12244 layer_factory.hpp:77] Creating layer inception_5b/relu_3x3_reduce
I1121 21:53:57.028620 12244 net.cpp:100] Creating Layer inception_5b/relu_3x3_reduce
I1121 21:53:57.028635 12244 net.cpp:434] inception_5b/relu_3x3_reduce <- inception_5b/3x3_reduce
I1121 21:53:57.028652 12244 net.cpp:395] inception_5b/relu_3x3_reduce -> inception_5b/3x3_reduce (in-place)
I1121 21:53:57.029208 12244 net.cpp:150] Setting up inception_5b/relu_3x3_reduce
I1121 21:53:57.029239 12244 net.cpp:157] Top shape: 25 192 10 5 (240000)
I1121 21:53:57.029249 12244 net.cpp:165] Memory required for data: 378240300
I1121 21:53:57.029260 12244 layer_factory.hpp:77] Creating layer inception_5b/3x3
I1121 21:53:57.029284 12244 net.cpp:100] Creating Layer inception_5b/3x3
I1121 21:53:57.029294 12244 net.cpp:434] inception_5b/3x3 <- inception_5b/3x3_reduce
I1121 21:53:57.029311 12244 net.cpp:408] inception_5b/3x3 -> inception_5b/3x3
I1121 21:53:57.036233 12244 net.cpp:150] Setting up inception_5b/3x3
I1121 21:53:57.036278 12244 net.cpp:157] Top shape: 25 384 10 5 (480000)
I1121 21:53:57.036286 12244 net.cpp:165] Memory required for data: 380160300
I1121 21:53:57.036301 12244 layer_factory.hpp:77] Creating layer inception_5b/relu_3x3
I1121 21:53:57.036320 12244 net.cpp:100] Creating Layer inception_5b/relu_3x3
I1121 21:53:57.036329 12244 net.cpp:434] inception_5b/relu_3x3 <- inception_5b/3x3
I1121 21:53:57.036339 12244 net.cpp:395] inception_5b/relu_3x3 -> inception_5b/3x3 (in-place)
I1121 21:53:57.036679 12244 net.cpp:150] Setting up inception_5b/relu_3x3
I1121 21:53:57.036700 12244 net.cpp:157] Top shape: 25 384 10 5 (480000)
I1121 21:53:57.036710 12244 net.cpp:165] Memory required for data: 382080300
I1121 21:53:57.036716 12244 layer_factory.hpp:77] Creating layer inception_5b/5x5_reduce
I1121 21:53:57.036739 12244 net.cpp:100] Creating Layer inception_5b/5x5_reduce
I1121 21:53:57.036748 12244 net.cpp:434] inception_5b/5x5_reduce <- inception_5a/output_inception_5a/output_0_split_2
I1121 21:53:57.036761 12244 net.cpp:408] inception_5b/5x5_reduce -> inception_5b/5x5_reduce
I1121 21:53:57.038293 12244 net.cpp:150] Setting up inception_5b/5x5_reduce
I1121 21:53:57.038357 12244 net.cpp:157] Top shape: 25 48 10 5 (60000)
I1121 21:53:57.038373 12244 net.cpp:165] Memory required for data: 382320300
I1121 21:53:57.038396 12244 layer_factory.hpp:77] Creating layer inception_5b/relu_5x5_reduce
I1121 21:53:57.038414 12244 net.cpp:100] Creating Layer inception_5b/relu_5x5_reduce
I1121 21:53:57.038427 12244 net.cpp:434] inception_5b/relu_5x5_reduce <- inception_5b/5x5_reduce
I1121 21:53:57.038440 12244 net.cpp:395] inception_5b/relu_5x5_reduce -> inception_5b/5x5_reduce (in-place)
I1121 21:53:57.038841 12244 net.cpp:150] Setting up inception_5b/relu_5x5_reduce
I1121 21:53:57.038862 12244 net.cpp:157] Top shape: 25 48 10 5 (60000)
I1121 21:53:57.038873 12244 net.cpp:165] Memory required for data: 382560300
I1121 21:53:57.038882 12244 layer_factory.hpp:77] Creating layer inception_5b/5x5
I1121 21:53:57.038904 12244 net.cpp:100] Creating Layer inception_5b/5x5
I1121 21:53:57.038916 12244 net.cpp:434] inception_5b/5x5 <- inception_5b/5x5_reduce
I1121 21:53:57.038933 12244 net.cpp:408] inception_5b/5x5 -> inception_5b/5x5
I1121 21:53:57.041894 12244 net.cpp:150] Setting up inception_5b/5x5
I1121 21:53:57.041968 12244 net.cpp:157] Top shape: 25 128 10 5 (160000)
I1121 21:53:57.041999 12244 net.cpp:165] Memory required for data: 383200300
I1121 21:53:57.042033 12244 layer_factory.hpp:77] Creating layer inception_5b/relu_5x5
I1121 21:53:57.042058 12244 net.cpp:100] Creating Layer inception_5b/relu_5x5
I1121 21:53:57.042075 12244 net.cpp:434] inception_5b/relu_5x5 <- inception_5b/5x5
I1121 21:53:57.042091 12244 net.cpp:395] inception_5b/relu_5x5 -> inception_5b/5x5 (in-place)
I1121 21:53:57.042801 12244 net.cpp:150] Setting up inception_5b/relu_5x5
I1121 21:53:57.042856 12244 net.cpp:157] Top shape: 25 128 10 5 (160000)
I1121 21:53:57.042877 12244 net.cpp:165] Memory required for data: 383840300
I1121 21:53:57.042899 12244 layer_factory.hpp:77] Creating layer inception_5b/pool
I1121 21:53:57.042927 12244 net.cpp:100] Creating Layer inception_5b/pool
I1121 21:53:57.042943 12244 net.cpp:434] inception_5b/pool <- inception_5a/output_inception_5a/output_0_split_3
I1121 21:53:57.042970 12244 net.cpp:408] inception_5b/pool -> inception_5b/pool
I1121 21:53:57.043130 12244 net.cpp:150] Setting up inception_5b/pool
I1121 21:53:57.043169 12244 net.cpp:157] Top shape: 25 832 10 5 (1040000)
I1121 21:53:57.043196 12244 net.cpp:165] Memory required for data: 388000300
I1121 21:53:57.043226 12244 layer_factory.hpp:77] Creating layer inception_5b/pool_proj
I1121 21:53:57.043262 12244 net.cpp:100] Creating Layer inception_5b/pool_proj
I1121 21:53:57.043292 12244 net.cpp:434] inception_5b/pool_proj <- inception_5b/pool
I1121 21:53:57.043325 12244 net.cpp:408] inception_5b/pool_proj -> inception_5b/pool_proj
I1121 21:53:57.046216 12244 net.cpp:150] Setting up inception_5b/pool_proj
I1121 21:53:57.046267 12244 net.cpp:157] Top shape: 25 128 10 5 (160000)
I1121 21:53:57.046275 12244 net.cpp:165] Memory required for data: 388640300
I1121 21:53:57.046289 12244 layer_factory.hpp:77] Creating layer inception_5b/relu_pool_proj
I1121 21:53:57.046306 12244 net.cpp:100] Creating Layer inception_5b/relu_pool_proj
I1121 21:53:57.046324 12244 net.cpp:434] inception_5b/relu_pool_proj <- inception_5b/pool_proj
I1121 21:53:57.046334 12244 net.cpp:395] inception_5b/relu_pool_proj -> inception_5b/pool_proj (in-place)
I1121 21:53:57.046793 12244 net.cpp:150] Setting up inception_5b/relu_pool_proj
I1121 21:53:57.046824 12244 net.cpp:157] Top shape: 25 128 10 5 (160000)
I1121 21:53:57.046831 12244 net.cpp:165] Memory required for data: 389280300
I1121 21:53:57.046838 12244 layer_factory.hpp:77] Creating layer inception_5b/output
I1121 21:53:57.046849 12244 net.cpp:100] Creating Layer inception_5b/output
I1121 21:53:57.046857 12244 net.cpp:434] inception_5b/output <- inception_5b/1x1
I1121 21:53:57.046865 12244 net.cpp:434] inception_5b/output <- inception_5b/3x3
I1121 21:53:57.046872 12244 net.cpp:434] inception_5b/output <- inception_5b/5x5
I1121 21:53:57.046878 12244 net.cpp:434] inception_5b/output <- inception_5b/pool_proj
I1121 21:53:57.046893 12244 net.cpp:408] inception_5b/output -> inception_5b/output
I1121 21:53:57.046957 12244 net.cpp:150] Setting up inception_5b/output
I1121 21:53:57.046967 12244 net.cpp:157] Top shape: 25 1024 10 5 (1280000)
I1121 21:53:57.046973 12244 net.cpp:165] Memory required for data: 394400300
I1121 21:53:57.046980 12244 layer_factory.hpp:77] Creating layer conv1/7x7_s2_p
I1121 21:53:57.046996 12244 net.cpp:100] Creating Layer conv1/7x7_s2_p
I1121 21:53:57.047004 12244 net.cpp:434] conv1/7x7_s2_p <- data_p
I1121 21:53:57.047014 12244 net.cpp:408] conv1/7x7_s2_p -> conv1/7x7_s2_p
I1121 21:53:57.048244 12244 net.cpp:150] Setting up conv1/7x7_s2_p
I1121 21:53:57.048285 12244 net.cpp:157] Top shape: 25 64 80 40 (5120000)
I1121 21:53:57.048291 12244 net.cpp:165] Memory required for data: 414880300
I1121 21:53:57.048307 12244 net.cpp:493] Sharing parameters 'conv1/7x7_s2_w' owned by layer 'conv1/7x7_s2', param index 0
I1121 21:53:57.048316 12244 net.cpp:493] Sharing parameters 'conv1/7x7_s2_b' owned by layer 'conv1/7x7_s2', param index 1
I1121 21:53:57.048333 12244 layer_factory.hpp:77] Creating layer conv1/relu_7x7_p
I1121 21:53:57.048352 12244 net.cpp:100] Creating Layer conv1/relu_7x7_p
I1121 21:53:57.048358 12244 net.cpp:434] conv1/relu_7x7_p <- conv1/7x7_s2_p
I1121 21:53:57.048373 12244 net.cpp:395] conv1/relu_7x7_p -> conv1/7x7_s2_p (in-place)
I1121 21:53:57.048557 12244 net.cpp:150] Setting up conv1/relu_7x7_p
I1121 21:53:57.048571 12244 net.cpp:157] Top shape: 25 64 80 40 (5120000)
I1121 21:53:57.048578 12244 net.cpp:165] Memory required for data: 435360300
I1121 21:53:57.048584 12244 layer_factory.hpp:77] Creating layer pool1/3x3_s2_p
I1121 21:53:57.048594 12244 net.cpp:100] Creating Layer pool1/3x3_s2_p
I1121 21:53:57.048600 12244 net.cpp:434] pool1/3x3_s2_p <- conv1/7x7_s2_p
I1121 21:53:57.048610 12244 net.cpp:408] pool1/3x3_s2_p -> pool1/3x3_s2_p
I1121 21:53:57.048671 12244 net.cpp:150] Setting up pool1/3x3_s2_p
I1121 21:53:57.048681 12244 net.cpp:157] Top shape: 25 64 40 20 (1280000)
I1121 21:53:57.048686 12244 net.cpp:165] Memory required for data: 440480300
I1121 21:53:57.048692 12244 layer_factory.hpp:77] Creating layer pool1/norm1_p
I1121 21:53:57.048703 12244 net.cpp:100] Creating Layer pool1/norm1_p
I1121 21:53:57.048710 12244 net.cpp:434] pool1/norm1_p <- pool1/3x3_s2_p
I1121 21:53:57.048718 12244 net.cpp:408] pool1/norm1_p -> pool1/norm1_p
I1121 21:53:57.049170 12244 net.cpp:150] Setting up pool1/norm1_p
I1121 21:53:57.049190 12244 net.cpp:157] Top shape: 25 64 40 20 (1280000)
I1121 21:53:57.049196 12244 net.cpp:165] Memory required for data: 445600300
I1121 21:53:57.049207 12244 layer_factory.hpp:77] Creating layer conv2/3x3_reduce_p
I1121 21:53:57.049223 12244 net.cpp:100] Creating Layer conv2/3x3_reduce_p
I1121 21:53:57.049232 12244 net.cpp:434] conv2/3x3_reduce_p <- pool1/norm1_p
I1121 21:53:57.049240 12244 net.cpp:408] conv2/3x3_reduce_p -> conv2/3x3_reduce_p
I1121 21:53:57.050423 12244 net.cpp:150] Setting up conv2/3x3_reduce_p
I1121 21:53:57.050470 12244 net.cpp:157] Top shape: 25 64 40 20 (1280000)
I1121 21:53:57.050478 12244 net.cpp:165] Memory required for data: 450720300
I1121 21:53:57.050487 12244 net.cpp:493] Sharing parameters 'conv2/3x3_reduce_w' owned by layer 'conv2/3x3_reduce', param index 0
I1121 21:53:57.050503 12244 net.cpp:493] Sharing parameters 'conv2/3x3_reduce_b' owned by layer 'conv2/3x3_reduce', param index 1
I1121 21:53:57.050530 12244 layer_factory.hpp:77] Creating layer conv2/relu_3x3_reduce_p
I1121 21:53:57.050551 12244 net.cpp:100] Creating Layer conv2/relu_3x3_reduce_p
I1121 21:53:57.050559 12244 net.cpp:434] conv2/relu_3x3_reduce_p <- conv2/3x3_reduce_p
I1121 21:53:57.050585 12244 net.cpp:395] conv2/relu_3x3_reduce_p -> conv2/3x3_reduce_p (in-place)
I1121 21:53:57.050753 12244 net.cpp:150] Setting up conv2/relu_3x3_reduce_p
I1121 21:53:57.050768 12244 net.cpp:157] Top shape: 25 64 40 20 (1280000)
I1121 21:53:57.050775 12244 net.cpp:165] Memory required for data: 455840300
I1121 21:53:57.050781 12244 layer_factory.hpp:77] Creating layer conv2/3x3_p
I1121 21:53:57.050797 12244 net.cpp:100] Creating Layer conv2/3x3_p
I1121 21:53:57.050804 12244 net.cpp:434] conv2/3x3_p <- conv2/3x3_reduce_p
I1121 21:53:57.050815 12244 net.cpp:408] conv2/3x3_p -> conv2/3x3_p
I1121 21:53:57.053189 12244 net.cpp:150] Setting up conv2/3x3_p
I1121 21:53:57.053241 12244 net.cpp:157] Top shape: 25 192 40 20 (3840000)
I1121 21:53:57.053249 12244 net.cpp:165] Memory required for data: 471200300
I1121 21:53:57.053266 12244 net.cpp:493] Sharing parameters 'conv2/3x3_w' owned by layer 'conv2/3x3', param index 0
I1121 21:53:57.053273 12244 net.cpp:493] Sharing parameters 'conv2/3x3_b' owned by layer 'conv2/3x3', param index 1
I1121 21:53:57.053287 12244 layer_factory.hpp:77] Creating layer conv2/relu_3x3_p
I1121 21:53:57.053305 12244 net.cpp:100] Creating Layer conv2/relu_3x3_p
I1121 21:53:57.053313 12244 net.cpp:434] conv2/relu_3x3_p <- conv2/3x3_p
I1121 21:53:57.053338 12244 net.cpp:395] conv2/relu_3x3_p -> conv2/3x3_p (in-place)
I1121 21:53:57.053520 12244 net.cpp:150] Setting up conv2/relu_3x3_p
I1121 21:53:57.053550 12244 net.cpp:157] Top shape: 25 192 40 20 (3840000)
I1121 21:53:57.053556 12244 net.cpp:165] Memory required for data: 486560300
I1121 21:53:57.053573 12244 layer_factory.hpp:77] Creating layer pool2/3x3_s2_p
I1121 21:53:57.053583 12244 net.cpp:100] Creating Layer pool2/3x3_s2_p
I1121 21:53:57.053597 12244 net.cpp:434] pool2/3x3_s2_p <- conv2/3x3_p
I1121 21:53:57.053613 12244 net.cpp:408] pool2/3x3_s2_p -> pool2/3x3_s2_p
I1121 21:53:57.053678 12244 net.cpp:150] Setting up pool2/3x3_s2_p
I1121 21:53:57.053695 12244 net.cpp:157] Top shape: 25 192 20 10 (960000)
I1121 21:53:57.053700 12244 net.cpp:165] Memory required for data: 490400300
I1121 21:53:57.053706 12244 layer_factory.hpp:77] Creating layer pool2/3x3_s2_p_pool2/3x3_s2_p_0_split
I1121 21:53:57.053722 12244 net.cpp:100] Creating Layer pool2/3x3_s2_p_pool2/3x3_s2_p_0_split
I1121 21:53:57.053728 12244 net.cpp:434] pool2/3x3_s2_p_pool2/3x3_s2_p_0_split <- pool2/3x3_s2_p
I1121 21:53:57.053737 12244 net.cpp:408] pool2/3x3_s2_p_pool2/3x3_s2_p_0_split -> pool2/3x3_s2_p_pool2/3x3_s2_p_0_split_0
I1121 21:53:57.053746 12244 net.cpp:408] pool2/3x3_s2_p_pool2/3x3_s2_p_0_split -> pool2/3x3_s2_p_pool2/3x3_s2_p_0_split_1
I1121 21:53:57.053755 12244 net.cpp:408] pool2/3x3_s2_p_pool2/3x3_s2_p_0_split -> pool2/3x3_s2_p_pool2/3x3_s2_p_0_split_2
I1121 21:53:57.053777 12244 net.cpp:408] pool2/3x3_s2_p_pool2/3x3_s2_p_0_split -> pool2/3x3_s2_p_pool2/3x3_s2_p_0_split_3
I1121 21:53:57.053887 12244 net.cpp:150] Setting up pool2/3x3_s2_p_pool2/3x3_s2_p_0_split
I1121 21:53:57.053906 12244 net.cpp:157] Top shape: 25 192 20 10 (960000)
I1121 21:53:57.053913 12244 net.cpp:157] Top shape: 25 192 20 10 (960000)
I1121 21:53:57.053930 12244 net.cpp:157] Top shape: 25 192 20 10 (960000)
I1121 21:53:57.053936 12244 net.cpp:157] Top shape: 25 192 20 10 (960000)
I1121 21:53:57.053941 12244 net.cpp:165] Memory required for data: 505760300
I1121 21:53:57.053946 12244 layer_factory.hpp:77] Creating layer inception_3a/1x1_p
I1121 21:53:57.053969 12244 net.cpp:100] Creating Layer inception_3a/1x1_p
I1121 21:53:57.053977 12244 net.cpp:434] inception_3a/1x1_p <- pool2/3x3_s2_p_pool2/3x3_s2_p_0_split_0
I1121 21:53:57.053993 12244 net.cpp:408] inception_3a/1x1_p -> inception_3a/1x1_p
I1121 21:53:57.055117 12244 net.cpp:150] Setting up inception_3a/1x1_p
I1121 21:53:57.055150 12244 net.cpp:157] Top shape: 25 64 20 10 (320000)
I1121 21:53:57.055176 12244 net.cpp:165] Memory required for data: 507040300
I1121 21:53:57.055184 12244 net.cpp:493] Sharing parameters 'inception_3a/1x1_w' owned by layer 'inception_3a/1x1', param index 0
I1121 21:53:57.055199 12244 net.cpp:493] Sharing parameters 'inception_3a/1x1_b' owned by layer 'inception_3a/1x1', param index 1
I1121 21:53:57.055219 12244 layer_factory.hpp:77] Creating layer inception_3a/relu_1x1_p
I1121 21:53:57.055234 12244 net.cpp:100] Creating Layer inception_3a/relu_1x1_p
I1121 21:53:57.055243 12244 net.cpp:434] inception_3a/relu_1x1_p <- inception_3a/1x1_p
I1121 21:53:57.055249 12244 net.cpp:395] inception_3a/relu_1x1_p -> inception_3a/1x1_p (in-place)
I1121 21:53:57.055541 12244 net.cpp:150] Setting up inception_3a/relu_1x1_p
I1121 21:53:57.055573 12244 net.cpp:157] Top shape: 25 64 20 10 (320000)
I1121 21:53:57.055579 12244 net.cpp:165] Memory required for data: 508320300
I1121 21:53:57.055585 12244 layer_factory.hpp:77] Creating layer inception_3a/3x3_reduce_p
I1121 21:53:57.055598 12244 net.cpp:100] Creating Layer inception_3a/3x3_reduce_p
I1121 21:53:57.055605 12244 net.cpp:434] inception_3a/3x3_reduce_p <- pool2/3x3_s2_p_pool2/3x3_s2_p_0_split_1
I1121 21:53:57.055615 12244 net.cpp:408] inception_3a/3x3_reduce_p -> inception_3a/3x3_reduce_p
I1121 21:53:57.056813 12244 net.cpp:150] Setting up inception_3a/3x3_reduce_p
I1121 21:53:57.056839 12244 net.cpp:157] Top shape: 25 96 20 10 (480000)
I1121 21:53:57.056846 12244 net.cpp:165] Memory required for data: 510240300
I1121 21:53:57.056854 12244 net.cpp:493] Sharing parameters 'inception_3a/3x3_reduce_w' owned by layer 'inception_3a/3x3_reduce', param index 0
I1121 21:53:57.056861 12244 net.cpp:493] Sharing parameters 'inception_3a/3x3_reduce_b' owned by layer 'inception_3a/3x3_reduce', param index 1
I1121 21:53:57.056867 12244 layer_factory.hpp:77] Creating layer inception_3a/relu_3x3_reduce_p
I1121 21:53:57.056880 12244 net.cpp:100] Creating Layer inception_3a/relu_3x3_reduce_p
I1121 21:53:57.056888 12244 net.cpp:434] inception_3a/relu_3x3_reduce_p <- inception_3a/3x3_reduce_p
I1121 21:53:57.056896 12244 net.cpp:395] inception_3a/relu_3x3_reduce_p -> inception_3a/3x3_reduce_p (in-place)
I1121 21:53:57.057215 12244 net.cpp:150] Setting up inception_3a/relu_3x3_reduce_p
I1121 21:53:57.057237 12244 net.cpp:157] Top shape: 25 96 20 10 (480000)
I1121 21:53:57.057245 12244 net.cpp:165] Memory required for data: 512160300
I1121 21:53:57.057250 12244 layer_factory.hpp:77] Creating layer inception_3a/3x3_p
I1121 21:53:57.057262 12244 net.cpp:100] Creating Layer inception_3a/3x3_p
I1121 21:53:57.057270 12244 net.cpp:434] inception_3a/3x3_p <- inception_3a/3x3_reduce_p
I1121 21:53:57.057287 12244 net.cpp:408] inception_3a/3x3_p -> inception_3a/3x3_p
I1121 21:53:57.060761 12244 net.cpp:150] Setting up inception_3a/3x3_p
I1121 21:53:57.060832 12244 net.cpp:157] Top shape: 25 128 20 10 (640000)
I1121 21:53:57.060858 12244 net.cpp:165] Memory required for data: 514720300
I1121 21:53:57.060871 12244 net.cpp:493] Sharing parameters 'inception_3a/3x3_w' owned by layer 'inception_3a/3x3', param index 0
I1121 21:53:57.060883 12244 net.cpp:493] Sharing parameters 'inception_3a/3x3_b' owned by layer 'inception_3a/3x3', param index 1
I1121 21:53:57.060895 12244 layer_factory.hpp:77] Creating layer inception_3a/relu_3x3_p
I1121 21:53:57.060923 12244 net.cpp:100] Creating Layer inception_3a/relu_3x3_p
I1121 21:53:57.060945 12244 net.cpp:434] inception_3a/relu_3x3_p <- inception_3a/3x3_p
I1121 21:53:57.060966 12244 net.cpp:395] inception_3a/relu_3x3_p -> inception_3a/3x3_p (in-place)
I1121 21:53:57.061260 12244 net.cpp:150] Setting up inception_3a/relu_3x3_p
I1121 21:53:57.061277 12244 net.cpp:157] Top shape: 25 128 20 10 (640000)
I1121 21:53:57.061285 12244 net.cpp:165] Memory required for data: 517280300
I1121 21:53:57.061295 12244 layer_factory.hpp:77] Creating layer inception_3a/5x5_reduce_p
I1121 21:53:57.061312 12244 net.cpp:100] Creating Layer inception_3a/5x5_reduce_p
I1121 21:53:57.061326 12244 net.cpp:434] inception_3a/5x5_reduce_p <- pool2/3x3_s2_p_pool2/3x3_s2_p_0_split_2
I1121 21:53:57.061354 12244 net.cpp:408] inception_3a/5x5_reduce_p -> inception_3a/5x5_reduce_p
I1121 21:53:57.063086 12244 net.cpp:150] Setting up inception_3a/5x5_reduce_p
I1121 21:53:57.063143 12244 net.cpp:157] Top shape: 25 16 20 10 (80000)
I1121 21:53:57.063169 12244 net.cpp:165] Memory required for data: 517600300
I1121 21:53:57.063190 12244 net.cpp:493] Sharing parameters 'inception_3a/5x5_reduce_w' owned by layer 'inception_3a/5x5_reduce', param index 0
I1121 21:53:57.063201 12244 net.cpp:493] Sharing parameters 'inception_3a/5x5_reduce_b' owned by layer 'inception_3a/5x5_reduce', param index 1
I1121 21:53:57.063220 12244 layer_factory.hpp:77] Creating layer inception_3a/relu_5x5_reduce_p
I1121 21:53:57.063241 12244 net.cpp:100] Creating Layer inception_3a/relu_5x5_reduce_p
I1121 21:53:57.063261 12244 net.cpp:434] inception_3a/relu_5x5_reduce_p <- inception_3a/5x5_reduce_p
I1121 21:53:57.063282 12244 net.cpp:395] inception_3a/relu_5x5_reduce_p -> inception_3a/5x5_reduce_p (in-place)
I1121 21:53:57.063678 12244 net.cpp:150] Setting up inception_3a/relu_5x5_reduce_p
I1121 21:53:57.063714 12244 net.cpp:157] Top shape: 25 16 20 10 (80000)
I1121 21:53:57.063722 12244 net.cpp:165] Memory required for data: 517920300
I1121 21:53:57.063731 12244 layer_factory.hpp:77] Creating layer inception_3a/5x5_p
I1121 21:53:57.063766 12244 net.cpp:100] Creating Layer inception_3a/5x5_p
I1121 21:53:57.063784 12244 net.cpp:434] inception_3a/5x5_p <- inception_3a/5x5_reduce_p
I1121 21:53:57.063808 12244 net.cpp:408] inception_3a/5x5_p -> inception_3a/5x5_p
I1121 21:53:57.065305 12244 net.cpp:150] Setting up inception_3a/5x5_p
I1121 21:53:57.065340 12244 net.cpp:157] Top shape: 25 32 20 10 (160000)
I1121 21:53:57.065348 12244 net.cpp:165] Memory required for data: 518560300
I1121 21:53:57.065393 12244 net.cpp:493] Sharing parameters 'inception_3a/5x5_w' owned by layer 'inception_3a/5x5', param index 0
I1121 21:53:57.065421 12244 net.cpp:493] Sharing parameters 'inception_3a/5x5_b' owned by layer 'inception_3a/5x5', param index 1
I1121 21:53:57.065443 12244 layer_factory.hpp:77] Creating layer inception_3a/relu_5x5_p
I1121 21:53:57.065461 12244 net.cpp:100] Creating Layer inception_3a/relu_5x5_p
I1121 21:53:57.065479 12244 net.cpp:434] inception_3a/relu_5x5_p <- inception_3a/5x5_p
I1121 21:53:57.065500 12244 net.cpp:395] inception_3a/relu_5x5_p -> inception_3a/5x5_p (in-place)
I1121 21:53:57.065769 12244 net.cpp:150] Setting up inception_3a/relu_5x5_p
I1121 21:53:57.065829 12244 net.cpp:157] Top shape: 25 32 20 10 (160000)
I1121 21:53:57.065840 12244 net.cpp:165] Memory required for data: 519200300
I1121 21:53:57.065850 12244 layer_factory.hpp:77] Creating layer inception_3a/pool_p
I1121 21:53:57.065861 12244 net.cpp:100] Creating Layer inception_3a/pool_p
I1121 21:53:57.065871 12244 net.cpp:434] inception_3a/pool_p <- pool2/3x3_s2_p_pool2/3x3_s2_p_0_split_3
I1121 21:53:57.065882 12244 net.cpp:408] inception_3a/pool_p -> inception_3a/pool_p
I1121 21:53:57.065991 12244 net.cpp:150] Setting up inception_3a/pool_p
I1121 21:53:57.066022 12244 net.cpp:157] Top shape: 25 192 20 10 (960000)
I1121 21:53:57.066040 12244 net.cpp:165] Memory required for data: 523040300
I1121 21:53:57.066049 12244 layer_factory.hpp:77] Creating layer inception_3a/pool_proj_p
I1121 21:53:57.066087 12244 net.cpp:100] Creating Layer inception_3a/pool_proj_p
I1121 21:53:57.066099 12244 net.cpp:434] inception_3a/pool_proj_p <- inception_3a/pool_p
I1121 21:53:57.066117 12244 net.cpp:408] inception_3a/pool_proj_p -> inception_3a/pool_proj_p
I1121 21:53:57.068387 12244 net.cpp:150] Setting up inception_3a/pool_proj_p
I1121 21:53:57.068459 12244 net.cpp:157] Top shape: 25 32 20 10 (160000)
I1121 21:53:57.068470 12244 net.cpp:165] Memory required for data: 523680300
I1121 21:53:57.068485 12244 net.cpp:493] Sharing parameters 'inception_3a/pool_proj_w' owned by layer 'inception_3a/pool_proj', param index 0
I1121 21:53:57.068506 12244 net.cpp:493] Sharing parameters 'inception_3a/pool_proj_b' owned by layer 'inception_3a/pool_proj', param index 1
I1121 21:53:57.068547 12244 layer_factory.hpp:77] Creating layer inception_3a/relu_pool_proj_p
I1121 21:53:57.068572 12244 net.cpp:100] Creating Layer inception_3a/relu_pool_proj_p
I1121 21:53:57.068596 12244 net.cpp:434] inception_3a/relu_pool_proj_p <- inception_3a/pool_proj_p
I1121 21:53:57.068624 12244 net.cpp:395] inception_3a/relu_pool_proj_p -> inception_3a/pool_proj_p (in-place)
I1121 21:53:57.068954 12244 net.cpp:150] Setting up inception_3a/relu_pool_proj_p
I1121 21:53:57.068981 12244 net.cpp:157] Top shape: 25 32 20 10 (160000)
I1121 21:53:57.068991 12244 net.cpp:165] Memory required for data: 524320300
I1121 21:53:57.069010 12244 layer_factory.hpp:77] Creating layer inception_3a/output_p
I1121 21:53:57.069025 12244 net.cpp:100] Creating Layer inception_3a/output_p
I1121 21:53:57.069043 12244 net.cpp:434] inception_3a/output_p <- inception_3a/1x1_p
I1121 21:53:57.069062 12244 net.cpp:434] inception_3a/output_p <- inception_3a/3x3_p
I1121 21:53:57.069073 12244 net.cpp:434] inception_3a/output_p <- inception_3a/5x5_p
I1121 21:53:57.069083 12244 net.cpp:434] inception_3a/output_p <- inception_3a/pool_proj_p
I1121 21:53:57.069103 12244 net.cpp:408] inception_3a/output_p -> inception_3a/output_p
I1121 21:53:57.069177 12244 net.cpp:150] Setting up inception_3a/output_p
I1121 21:53:57.069195 12244 net.cpp:157] Top shape: 25 256 20 10 (1280000)
I1121 21:53:57.069205 12244 net.cpp:165] Memory required for data: 529440300
I1121 21:53:57.069213 12244 layer_factory.hpp:77] Creating layer inception_3a/output_p_inception_3a/output_p_0_split
I1121 21:53:57.069226 12244 net.cpp:100] Creating Layer inception_3a/output_p_inception_3a/output_p_0_split
I1121 21:53:57.069237 12244 net.cpp:434] inception_3a/output_p_inception_3a/output_p_0_split <- inception_3a/output_p
I1121 21:53:57.069252 12244 net.cpp:408] inception_3a/output_p_inception_3a/output_p_0_split -> inception_3a/output_p_inception_3a/output_p_0_split_0
I1121 21:53:57.069267 12244 net.cpp:408] inception_3a/output_p_inception_3a/output_p_0_split -> inception_3a/output_p_inception_3a/output_p_0_split_1
I1121 21:53:57.069280 12244 net.cpp:408] inception_3a/output_p_inception_3a/output_p_0_split -> inception_3a/output_p_inception_3a/output_p_0_split_2
I1121 21:53:57.069294 12244 net.cpp:408] inception_3a/output_p_inception_3a/output_p_0_split -> inception_3a/output_p_inception_3a/output_p_0_split_3
I1121 21:53:57.069424 12244 net.cpp:150] Setting up inception_3a/output_p_inception_3a/output_p_0_split
I1121 21:53:57.069447 12244 net.cpp:157] Top shape: 25 256 20 10 (1280000)
I1121 21:53:57.069456 12244 net.cpp:157] Top shape: 25 256 20 10 (1280000)
I1121 21:53:57.069474 12244 net.cpp:157] Top shape: 25 256 20 10 (1280000)
I1121 21:53:57.069483 12244 net.cpp:157] Top shape: 25 256 20 10 (1280000)
I1121 21:53:57.069492 12244 net.cpp:165] Memory required for data: 549920300
I1121 21:53:57.069509 12244 layer_factory.hpp:77] Creating layer inception_3b/1x1_p
I1121 21:53:57.069531 12244 net.cpp:100] Creating Layer inception_3b/1x1_p
I1121 21:53:57.069543 12244 net.cpp:434] inception_3b/1x1_p <- inception_3a/output_p_inception_3a/output_p_0_split_0
I1121 21:53:57.069561 12244 net.cpp:408] inception_3b/1x1_p -> inception_3b/1x1_p
I1121 21:53:57.072257 12244 net.cpp:150] Setting up inception_3b/1x1_p
I1121 21:53:57.072337 12244 net.cpp:157] Top shape: 25 128 20 10 (640000)
I1121 21:53:57.072350 12244 net.cpp:165] Memory required for data: 552480300
I1121 21:53:57.072373 12244 net.cpp:493] Sharing parameters 'inception_3b/1x1_w' owned by layer 'inception_3b/1x1', param index 0
I1121 21:53:57.072386 12244 net.cpp:493] Sharing parameters 'inception_3b/1x1_b' owned by layer 'inception_3b/1x1', param index 1
I1121 21:53:57.072402 12244 layer_factory.hpp:77] Creating layer inception_3b/relu_1x1_p
I1121 21:53:57.072428 12244 net.cpp:100] Creating Layer inception_3b/relu_1x1_p
I1121 21:53:57.072450 12244 net.cpp:434] inception_3b/relu_1x1_p <- inception_3b/1x1_p
I1121 21:53:57.072463 12244 net.cpp:395] inception_3b/relu_1x1_p -> inception_3b/1x1_p (in-place)
I1121 21:53:57.072988 12244 net.cpp:150] Setting up inception_3b/relu_1x1_p
I1121 21:53:57.073037 12244 net.cpp:157] Top shape: 25 128 20 10 (640000)
I1121 21:53:57.073056 12244 net.cpp:165] Memory required for data: 555040300
I1121 21:53:57.073073 12244 layer_factory.hpp:77] Creating layer inception_3b/3x3_reduce_p
I1121 21:53:57.073104 12244 net.cpp:100] Creating Layer inception_3b/3x3_reduce_p
I1121 21:53:57.073125 12244 net.cpp:434] inception_3b/3x3_reduce_p <- inception_3a/output_p_inception_3a/output_p_0_split_1
I1121 21:53:57.073148 12244 net.cpp:408] inception_3b/3x3_reduce_p -> inception_3b/3x3_reduce_p
I1121 21:53:57.075213 12244 net.cpp:150] Setting up inception_3b/3x3_reduce_p
I1121 21:53:57.075263 12244 net.cpp:157] Top shape: 25 128 20 10 (640000)
I1121 21:53:57.075281 12244 net.cpp:165] Memory required for data: 557600300
I1121 21:53:57.075302 12244 net.cpp:493] Sharing parameters 'inception_3b/3x3_reduce_w' owned by layer 'inception_3b/3x3_reduce', param index 0
I1121 21:53:57.075322 12244 net.cpp:493] Sharing parameters 'inception_3b/3x3_reduce_b' owned by layer 'inception_3b/3x3_reduce', param index 1
I1121 21:53:57.075332 12244 layer_factory.hpp:77] Creating layer inception_3b/relu_3x3_reduce_p
I1121 21:53:57.075350 12244 net.cpp:100] Creating Layer inception_3b/relu_3x3_reduce_p
I1121 21:53:57.075371 12244 net.cpp:434] inception_3b/relu_3x3_reduce_p <- inception_3b/3x3_reduce_p
I1121 21:53:57.075395 12244 net.cpp:395] inception_3b/relu_3x3_reduce_p -> inception_3b/3x3_reduce_p (in-place)
I1121 21:53:57.075644 12244 net.cpp:150] Setting up inception_3b/relu_3x3_reduce_p
I1121 21:53:57.075661 12244 net.cpp:157] Top shape: 25 128 20 10 (640000)
I1121 21:53:57.075671 12244 net.cpp:165] Memory required for data: 560160300
I1121 21:53:57.075681 12244 layer_factory.hpp:77] Creating layer inception_3b/3x3_p
I1121 21:53:57.075702 12244 net.cpp:100] Creating Layer inception_3b/3x3_p
I1121 21:53:57.075714 12244 net.cpp:434] inception_3b/3x3_p <- inception_3b/3x3_reduce_p
I1121 21:53:57.075729 12244 net.cpp:408] inception_3b/3x3_p -> inception_3b/3x3_p
I1121 21:53:57.081964 12244 net.cpp:150] Setting up inception_3b/3x3_p
I1121 21:53:57.082051 12244 net.cpp:157] Top shape: 25 192 20 10 (960000)
I1121 21:53:57.082084 12244 net.cpp:165] Memory required for data: 564000300
I1121 21:53:57.082105 12244 net.cpp:493] Sharing parameters 'inception_3b/3x3_w' owned by layer 'inception_3b/3x3', param index 0
I1121 21:53:57.082137 12244 net.cpp:493] Sharing parameters 'inception_3b/3x3_b' owned by layer 'inception_3b/3x3', param index 1
I1121 21:53:57.082173 12244 layer_factory.hpp:77] Creating layer inception_3b/relu_3x3_p
I1121 21:53:57.082218 12244 net.cpp:100] Creating Layer inception_3b/relu_3x3_p
I1121 21:53:57.082240 12244 net.cpp:434] inception_3b/relu_3x3_p <- inception_3b/3x3_p
I1121 21:53:57.082262 12244 net.cpp:395] inception_3b/relu_3x3_p -> inception_3b/3x3_p (in-place)
I1121 21:53:57.082541 12244 net.cpp:150] Setting up inception_3b/relu_3x3_p
I1121 21:53:57.082561 12244 net.cpp:157] Top shape: 25 192 20 10 (960000)
I1121 21:53:57.082568 12244 net.cpp:165] Memory required for data: 567840300
I1121 21:53:57.082577 12244 layer_factory.hpp:77] Creating layer inception_3b/5x5_reduce_p
I1121 21:53:57.082594 12244 net.cpp:100] Creating Layer inception_3b/5x5_reduce_p
I1121 21:53:57.082603 12244 net.cpp:434] inception_3b/5x5_reduce_p <- inception_3a/output_p_inception_3a/output_p_0_split_2
I1121 21:53:57.082614 12244 net.cpp:408] inception_3b/5x5_reduce_p -> inception_3b/5x5_reduce_p
I1121 21:53:57.083892 12244 net.cpp:150] Setting up inception_3b/5x5_reduce_p
I1121 21:53:57.083914 12244 net.cpp:157] Top shape: 25 32 20 10 (160000)
I1121 21:53:57.083920 12244 net.cpp:165] Memory required for data: 568480300
I1121 21:53:57.083928 12244 net.cpp:493] Sharing parameters 'inception_3b/5x5_reduce_w' owned by layer 'inception_3b/5x5_reduce', param index 0
I1121 21:53:57.083935 12244 net.cpp:493] Sharing parameters 'inception_3b/5x5_reduce_b' owned by layer 'inception_3b/5x5_reduce', param index 1
I1121 21:53:57.083941 12244 layer_factory.hpp:77] Creating layer inception_3b/relu_5x5_reduce_p
I1121 21:53:57.083963 12244 net.cpp:100] Creating Layer inception_3b/relu_5x5_reduce_p
I1121 21:53:57.083971 12244 net.cpp:434] inception_3b/relu_5x5_reduce_p <- inception_3b/5x5_reduce_p
I1121 21:53:57.083979 12244 net.cpp:395] inception_3b/relu_5x5_reduce_p -> inception_3b/5x5_reduce_p (in-place)
I1121 21:53:57.084383 12244 net.cpp:150] Setting up inception_3b/relu_5x5_reduce_p
I1121 21:53:57.084400 12244 net.cpp:157] Top shape: 25 32 20 10 (160000)
I1121 21:53:57.084406 12244 net.cpp:165] Memory required for data: 569120300
I1121 21:53:57.084415 12244 layer_factory.hpp:77] Creating layer inception_3b/5x5_p
I1121 21:53:57.084431 12244 net.cpp:100] Creating Layer inception_3b/5x5_p
I1121 21:53:57.084439 12244 net.cpp:434] inception_3b/5x5_p <- inception_3b/5x5_reduce_p
I1121 21:53:57.084450 12244 net.cpp:408] inception_3b/5x5_p -> inception_3b/5x5_p
I1121 21:53:57.086012 12244 net.cpp:150] Setting up inception_3b/5x5_p
I1121 21:53:57.086036 12244 net.cpp:157] Top shape: 25 96 20 10 (480000)
I1121 21:53:57.086043 12244 net.cpp:165] Memory required for data: 571040300
I1121 21:53:57.086051 12244 net.cpp:493] Sharing parameters 'inception_3b/5x5_w' owned by layer 'inception_3b/5x5', param index 0
I1121 21:53:57.086058 12244 net.cpp:493] Sharing parameters 'inception_3b/5x5_b' owned by layer 'inception_3b/5x5', param index 1
I1121 21:53:57.086064 12244 layer_factory.hpp:77] Creating layer inception_3b/relu_5x5_p
I1121 21:53:57.086073 12244 net.cpp:100] Creating Layer inception_3b/relu_5x5_p
I1121 21:53:57.086081 12244 net.cpp:434] inception_3b/relu_5x5_p <- inception_3b/5x5_p
I1121 21:53:57.086089 12244 net.cpp:395] inception_3b/relu_5x5_p -> inception_3b/5x5_p (in-place)
I1121 21:53:57.086252 12244 net.cpp:150] Setting up inception_3b/relu_5x5_p
I1121 21:53:57.086267 12244 net.cpp:157] Top shape: 25 96 20 10 (480000)
I1121 21:53:57.086272 12244 net.cpp:165] Memory required for data: 572960300
I1121 21:53:57.086278 12244 layer_factory.hpp:77] Creating layer inception_3b/pool_p
I1121 21:53:57.086288 12244 net.cpp:100] Creating Layer inception_3b/pool_p
I1121 21:53:57.086295 12244 net.cpp:434] inception_3b/pool_p <- inception_3a/output_p_inception_3a/output_p_0_split_3
I1121 21:53:57.086303 12244 net.cpp:408] inception_3b/pool_p -> inception_3b/pool_p
I1121 21:53:57.086366 12244 net.cpp:150] Setting up inception_3b/pool_p
I1121 21:53:57.086379 12244 net.cpp:157] Top shape: 25 256 20 10 (1280000)
…
I1121 21:54:03.845238 12244 net.cpp:157] Top shape: 5 144 10 5 (36000)
I1121 21:54:03.845247 12244 net.cpp:165] Memory required for data: 133872060
I1121 21:54:03.845257 12244 net.cpp:493] Sharing parameters 'inception_4d/3x3_reduce_w' owned by layer 'inception_4d/3x3_reduce', param index 0
I1121 21:54:03.845265 12244 net.cpp:493] Sharing parameters 'inception_4d/3x3_reduce_b' owned by layer 'inception_4d/3x3_reduce', param index 1
I1121 21:54:03.845275 12244 layer_factory.hpp:77] Creating layer inception_4d/relu_3x3_reduce_p
I1121 21:54:03.845288 12244 net.cpp:100] Creating Layer inception_4d/relu_3x3_reduce_p
I1121 21:54:03.845299 12244 net.cpp:434] inception_4d/relu_3x3_reduce_p <- inception_4d/3x3_reduce_p
I1121 21:54:03.845314 12244 net.cpp:395] inception_4d/relu_3x3_reduce_p -> inception_4d/3x3_reduce_p (in-place)
I1121 21:54:03.846359 12244 net.cpp:150] Setting up inception_4d/relu_3x3_reduce_p
I1121 21:54:03.846390 12244 net.cpp:157] Top shape: 5 144 10 5 (36000)
I1121 21:54:03.846401 12244 net.cpp:165] Memory required for data: 134016060
I1121 21:54:03.846412 12244 layer_factory.hpp:77] Creating layer inception_4d/3x3_p
I1121 21:54:03.846437 12244 net.cpp:100] Creating Layer inception_4d/3x3_p
I1121 21:54:03.846446 12244 net.cpp:434] inception_4d/3x3_p <- inception_4d/3x3_reduce_p
I1121 21:54:03.846470 12244 net.cpp:408] inception_4d/3x3_p -> inception_4d/3x3_p
I1121 21:54:03.852643 12244 net.cpp:150] Setting up inception_4d/3x3_p
I1121 21:54:03.852690 12244 net.cpp:157] Top shape: 5 288 10 5 (72000)
I1121 21:54:03.852699 12244 net.cpp:165] Memory required for data: 134304060
I1121 21:54:03.852712 12244 net.cpp:493] Sharing parameters 'inception_4d/3x3_w' owned by layer 'inception_4d/3x3', param index 0
I1121 21:54:03.852721 12244 net.cpp:493] Sharing parameters 'inception_4d/3x3_b' owned by layer 'inception_4d/3x3', param index 1
I1121 21:54:03.852728 12244 layer_factory.hpp:77] Creating layer inception_4d/relu_3x3_p
I1121 21:54:03.852741 12244 net.cpp:100] Creating Layer inception_4d/relu_3x3_p
I1121 21:54:03.852761 12244 net.cpp:434] inception_4d/relu_3x3_p <- inception_4d/3x3_p
I1121 21:54:03.852777 12244 net.cpp:395] inception_4d/relu_3x3_p -> inception_4d/3x3_p (in-place)
I1121 21:54:03.853291 12244 net.cpp:150] Setting up inception_4d/relu_3x3_p
I1121 21:54:03.853348 12244 net.cpp:157] Top shape: 5 288 10 5 (72000)
I1121 21:54:03.853368 12244 net.cpp:165] Memory required for data: 134592060
I1121 21:54:03.853379 12244 layer_factory.hpp:77] Creating layer inception_4d/5x5_reduce_p
I1121 21:54:03.853421 12244 net.cpp:100] Creating Layer inception_4d/5x5_reduce_p
I1121 21:54:03.853440 12244 net.cpp:434] inception_4d/5x5_reduce_p <- inception_4c/output_p_inception_4c/output_p_0_split_2
I1121 21:54:03.853477 12244 net.cpp:408] inception_4d/5x5_reduce_p -> inception_4d/5x5_reduce_p
I1121 21:54:03.858151 12244 net.cpp:150] Setting up inception_4d/5x5_reduce_p
I1121 21:54:03.858213 12244 net.cpp:157] Top shape: 5 32 10 5 (8000)
I1121 21:54:03.858247 12244 net.cpp:165] Memory required for data: 134624060
I1121 21:54:03.858268 12244 net.cpp:493] Sharing parameters 'inception_4d/5x5_reduce_w' owned by layer 'inception_4d/5x5_reduce', param index 0
I1121 21:54:03.858284 12244 net.cpp:493] Sharing parameters 'inception_4d/5x5_reduce_b' owned by layer 'inception_4d/5x5_reduce', param index 1
I1121 21:54:03.858304 12244 layer_factory.hpp:77] Creating layer inception_4d/relu_5x5_reduce_p
I1121 21:54:03.858325 12244 net.cpp:100] Creating Layer inception_4d/relu_5x5_reduce_p
I1121 21:54:03.858342 12244 net.cpp:434] inception_4d/relu_5x5_reduce_p <- inception_4d/5x5_reduce_p
I1121 21:54:03.858363 12244 net.cpp:395] inception_4d/relu_5x5_reduce_p -> inception_4d/5x5_reduce_p (in-place)
I1121 21:54:03.858820 12244 net.cpp:150] Setting up inception_4d/relu_5x5_reduce_p
I1121 21:54:03.858839 12244 net.cpp:157] Top shape: 5 32 10 5 (8000)
I1121 21:54:03.858846 12244 net.cpp:165] Memory required for data: 134656060
I1121 21:54:03.858852 12244 layer_factory.hpp:77] Creating layer inception_4d/5x5_p
I1121 21:54:03.858868 12244 net.cpp:100] Creating Layer inception_4d/5x5_p
I1121 21:54:03.858876 12244 net.cpp:434] inception_4d/5x5_p <- inception_4d/5x5_reduce_p
I1121 21:54:03.858887 12244 net.cpp:408] inception_4d/5x5_p -> inception_4d/5x5_p
I1121 21:54:03.862646 12244 net.cpp:150] Setting up inception_4d/5x5_p
I1121 21:54:03.862682 12244 net.cpp:157] Top shape: 5 64 10 5 (16000)
I1121 21:54:03.862690 12244 net.cpp:165] Memory required for data: 134720060
I1121 21:54:03.862700 12244 net.cpp:493] Sharing parameters 'inception_4d/5x5_w' owned by layer 'inception_4d/5x5', param index 0
I1121 21:54:03.862710 12244 net.cpp:493] Sharing parameters 'inception_4d/5x5_b' owned by layer 'inception_4d/5x5', param index 1
I1121 21:54:03.862716 12244 layer_factory.hpp:77] Creating layer inception_4d/relu_5x5_p
I1121 21:54:03.862728 12244 net.cpp:100] Creating Layer inception_4d/relu_5x5_p
I1121 21:54:03.862736 12244 net.cpp:434] inception_4d/relu_5x5_p <- inception_4d/5x5_p
I1121 21:54:03.862748 12244 net.cpp:395] inception_4d/relu_5x5_p -> inception_4d/5x5_p (in-place)
I1121 21:54:03.863912 12244 net.cpp:150] Setting up inception_4d/relu_5x5_p
I1121 21:54:03.863940 12244 net.cpp:157] Top shape: 5 64 10 5 (16000)
I1121 21:54:03.863947 12244 net.cpp:165] Memory required for data: 134784060
I1121 21:54:03.863958 12244 layer_factory.hpp:77] Creating layer inception_4d/pool_p
I1121 21:54:03.863979 12244 net.cpp:100] Creating Layer inception_4d/pool_p
I1121 21:54:03.863988 12244 net.cpp:434] inception_4d/pool_p <- inception_4c/output_p_inception_4c/output_p_0_split_3
I1121 21:54:03.864001 12244 net.cpp:408] inception_4d/pool_p -> inception_4d/pool_p
I1121 21:54:03.864101 12244 net.cpp:150] Setting up inception_4d/pool_p
I1121 21:54:03.864112 12244 net.cpp:157] Top shape: 5 512 10 5 (128000)
I1121 21:54:03.864118 12244 net.cpp:165] Memory required for data: 135296060
I1121 21:54:03.864125 12244 layer_factory.hpp:77] Creating layer inception_4d/pool_proj_p
I1121 21:54:03.864140 12244 net.cpp:100] Creating Layer inception_4d/pool_proj_p
I1121 21:54:03.864147 12244 net.cpp:434] inception_4d/pool_proj_p <- inception_4d/pool_p
I1121 21:54:03.864158 12244 net.cpp:408] inception_4d/pool_proj_p -> inception_4d/pool_proj_p
I1121 21:54:03.868026 12244 net.cpp:150] Setting up inception_4d/pool_proj_p
I1121 21:54:03.868067 12244 net.cpp:157] Top shape: 5 64 10 5 (16000)
I1121 21:54:03.868074 12244 net.cpp:165] Memory required for data: 135360060
I1121 21:54:03.868085 12244 net.cpp:493] Sharing parameters 'inception_4d/pool_proj_w' owned by layer 'inception_4d/pool_proj', param index 0
I1121 21:54:03.868095 12244 net.cpp:493] Sharing parameters 'inception_4d/pool_proj_b' owned by layer 'inception_4d/pool_proj', param index 1
I1121 21:54:03.868103 12244 layer_factory.hpp:77] Creating layer inception_4d/relu_pool_proj_p
I1121 21:54:03.868115 12244 net.cpp:100] Creating Layer inception_4d/relu_pool_proj_p
I1121 21:54:03.868124 12244 net.cpp:434] inception_4d/relu_pool_proj_p <- inception_4d/pool_proj_p
I1121 21:54:03.868145 12244 net.cpp:395] inception_4d/relu_pool_proj_p -> inception_4d/pool_proj_p (in-place)
I1121 21:54:03.868937 12244 net.cpp:150] Setting up inception_4d/relu_pool_proj_p
I1121 21:54:03.868955 12244 net.cpp:157] Top shape: 5 64 10 5 (16000)
I1121 21:54:03.868963 12244 net.cpp:165] Memory required for data: 135424060
I1121 21:54:03.868969 12244 layer_factory.hpp:77] Creating layer inception_4d/output_p
I1121 21:54:03.868979 12244 net.cpp:100] Creating Layer inception_4d/output_p
I1121 21:54:03.868988 12244 net.cpp:434] inception_4d/output_p <- inception_4d/1x1_p
I1121 21:54:03.868996 12244 net.cpp:434] inception_4d/output_p <- inception_4d/3x3_p
I1121 21:54:03.869004 12244 net.cpp:434] inception_4d/output_p <- inception_4d/5x5_p
I1121 21:54:03.869011 12244 net.cpp:434] inception_4d/output_p <- inception_4d/pool_proj_p
I1121 21:54:03.869021 12244 net.cpp:408] inception_4d/output_p -> inception_4d/output_p
I1121 21:54:03.869086 12244 net.cpp:150] Setting up inception_4d/output_p
I1121 21:54:03.869101 12244 net.cpp:157] Top shape: 5 528 10 5 (132000)
I1121 21:54:03.869108 12244 net.cpp:165] Memory required for data: 135952060
I1121 21:54:03.869118 12244 layer_factory.hpp:77] Creating layer inception_4d/output_p_inception_4d/output_p_0_split
I1121 21:54:03.869128 12244 net.cpp:100] Creating Layer inception_4d/output_p_inception_4d/output_p_0_split
I1121 21:54:03.869135 12244 net.cpp:434] inception_4d/output_p_inception_4d/output_p_0_split <- inception_4d/output_p
I1121 21:54:03.869144 12244 net.cpp:408] inception_4d/output_p_inception_4d/output_p_0_split -> inception_4d/output_p_inception_4d/output_p_0_split_0
I1121 21:54:03.869153 12244 net.cpp:408] inception_4d/output_p_inception_4d/output_p_0_split -> inception_4d/output_p_inception_4d/output_p_0_split_1
I1121 21:54:03.869164 12244 net.cpp:408] inception_4d/output_p_inception_4d/output_p_0_split -> inception_4d/output_p_inception_4d/output_p_0_split_2
I1121 21:54:03.869174 12244 net.cpp:408] inception_4d/output_p_inception_4d/output_p_0_split -> inception_4d/output_p_inception_4d/output_p_0_split_3
I1121 21:54:03.869272 12244 net.cpp:150] Setting up inception_4d/output_p_inception_4d/output_p_0_split
I1121 21:54:03.869284 12244 net.cpp:157] Top shape: 5 528 10 5 (132000)
I1121 21:54:03.869292 12244 net.cpp:157] Top shape: 5 528 10 5 (132000)
I1121 21:54:03.869297 12244 net.cpp:157] Top shape: 5 528 10 5 (132000)
I1121 21:54:03.869304 12244 net.cpp:157] Top shape: 5 528 10 5 (132000)
I1121 21:54:03.869315 12244 net.cpp:165] Memory required for data: 138064060
I1121 21:54:03.869323 12244 layer_factory.hpp:77] Creating layer inception_4e/1x1_p
I1121 21:54:03.869336 12244 net.cpp:100] Creating Layer inception_4e/1x1_p
I1121 21:54:03.869343 12244 net.cpp:434] inception_4e/1x1_p <- inception_4d/output_p_inception_4d/output_p_0_split_0
I1121 21:54:03.869354 12244 net.cpp:408] inception_4e/1x1_p -> inception_4e/1x1_p
I1121 21:54:03.872907 12244 net.cpp:150] Setting up inception_4e/1x1_p
I1121 21:54:03.872928 12244 net.cpp:157] Top shape: 5 256 10 5 (64000)
I1121 21:54:03.872936 12244 net.cpp:165] Memory required for data: 138320060
I1121 21:54:03.872944 12244 net.cpp:493] Sharing parameters 'inception_4e/1x1_w' owned by layer 'inception_4e/1x1', param index 0
I1121 21:54:03.872952 12244 net.cpp:493] Sharing parameters 'inception_4e/1x1_b' owned by layer 'inception_4e/1x1', param index 1
I1121 21:54:03.872958 12244 layer_factory.hpp:77] Creating layer inception_4e/relu_1x1_p
I1121 21:54:03.872967 12244 net.cpp:100] Creating Layer inception_4e/relu_1x1_p
I1121 21:54:03.872974 12244 net.cpp:434] inception_4e/relu_1x1_p <- inception_4e/1x1_p
I1121 21:54:03.872982 12244 net.cpp:395] inception_4e/relu_1x1_p -> inception_4e/1x1_p (in-place)
I1121 21:54:03.873903 12244 net.cpp:150] Setting up inception_4e/relu_1x1_p
I1121 21:54:03.873925 12244 net.cpp:157] Top shape: 5 256 10 5 (64000)
I1121 21:54:03.873935 12244 net.cpp:165] Memory required for data: 138576060
I1121 21:54:03.873947 12244 layer_factory.hpp:77] Creating layer inception_4e/3x3_reduce_p
I1121 21:54:03.873975 12244 net.cpp:100] Creating Layer inception_4e/3x3_reduce_p
I1121 21:54:03.873986 12244 net.cpp:434] inception_4e/3x3_reduce_p <- inception_4d/output_p_inception_4d/output_p_0_split_1
I1121 21:54:03.873999 12244 net.cpp:408] inception_4e/3x3_reduce_p -> inception_4e/3x3_reduce_p
I1121 21:54:03.878443 12244 net.cpp:150] Setting up inception_4e/3x3_reduce_p
I1121 21:54:03.878484 12244 net.cpp:157] Top shape: 5 160 10 5 (40000)
I1121 21:54:03.878495 12244 net.cpp:165] Memory required for data: 138736060
I1121 21:54:03.878507 12244 net.cpp:493] Sharing parameters 'inception_4e/3x3_reduce_w' owned by layer 'inception_4e/3x3_reduce', param index 0
I1121 21:54:03.878520 12244 net.cpp:493] Sharing parameters 'inception_4e/3x3_reduce_b' owned by layer 'inception_4e/3x3_reduce', param index 1
I1121 21:54:03.878530 12244 layer_factory.hpp:77] Creating layer inception_4e/relu_3x3_reduce_p
I1121 21:54:03.878542 12244 net.cpp:100] Creating Layer inception_4e/relu_3x3_reduce_p
I1121 21:54:03.878554 12244 net.cpp:434] inception_4e/relu_3x3_reduce_p <- inception_4e/3x3_reduce_p
I1121 21:54:03.878571 12244 net.cpp:395] inception_4e/relu_3x3_reduce_p -> inception_4e/3x3_reduce_p (in-place)
I1121 21:54:03.879326 12244 net.cpp:150] Setting up inception_4e/relu_3x3_reduce_p
I1121 21:54:03.879351 12244 net.cpp:157] Top shape: 5 160 10 5 (40000)
I1121 21:54:03.879366 12244 net.cpp:165] Memory required for data: 138896060
I1121 21:54:03.879379 12244 layer_factory.hpp:77] Creating layer inception_4e/3x3_p
I1121 21:54:03.879401 12244 net.cpp:100] Creating Layer inception_4e/3x3_p
I1121 21:54:03.879415 12244 net.cpp:434] inception_4e/3x3_p <- inception_4e/3x3_reduce_p
I1121 21:54:03.879436 12244 net.cpp:408] inception_4e/3x3_p -> inception_4e/3x3_p
I1121 21:54:03.886358 12244 net.cpp:150] Setting up inception_4e/3x3_p
I1121 21:54:03.886415 12244 net.cpp:157] Top shape: 5 320 10 5 (80000)
I1121 21:54:03.886428 12244 net.cpp:165] Memory required for data: 139216060
I1121 21:54:03.886442 12244 net.cpp:493] Sharing parameters 'inception_4e/3x3_w' owned by layer 'inception_4e/3x3', param index 0
I1121 21:54:03.886456 12244 net.cpp:493] Sharing parameters 'inception_4e/3x3_b' owned by layer 'inception_4e/3x3', param index 1
I1121 21:54:03.886466 12244 layer_factory.hpp:77] Creating layer inception_4e/relu_3x3_p
I1121 21:54:03.886476 12244 net.cpp:100] Creating Layer inception_4e/relu_3x3_p
I1121 21:54:03.886485 12244 net.cpp:434] inception_4e/relu_3x3_p <- inception_4e/3x3_p
I1121 21:54:03.886502 12244 net.cpp:395] inception_4e/relu_3x3_p -> inception_4e/3x3_p (in-place)
I1121 21:54:03.887531 12244 net.cpp:150] Setting up inception_4e/relu_3x3_p
I1121 21:54:03.887552 12244 net.cpp:157] Top shape: 5 320 10 5 (80000)
I1121 21:54:03.887560 12244 net.cpp:165] Memory required for data: 139536060
I1121 21:54:03.887570 12244 layer_factory.hpp:77] Creating layer inception_4e/5x5_reduce_p
I1121 21:54:03.887584 12244 net.cpp:100] Creating Layer inception_4e/5x5_reduce_p
I1121 21:54:03.887593 12244 net.cpp:434] inception_4e/5x5_reduce_p <- inception_4d/output_p_inception_4d/output_p_0_split_2
I1121 21:54:03.887603 12244 net.cpp:408] inception_4e/5x5_reduce_p -> inception_4e/5x5_reduce_p
I1121 21:54:03.891172 12244 net.cpp:150] Setting up inception_4e/5x5_reduce_p
I1121 21:54:03.891193 12244 net.cpp:157] Top shape: 5 32 10 5 (8000)
I1121 21:54:03.891201 12244 net.cpp:165] Memory required for data: 139568060
I1121 21:54:03.891211 12244 net.cpp:493] Sharing parameters 'inception_4e/5x5_reduce_w' owned by layer 'inception_4e/5x5_reduce', param index 0
I1121 21:54:03.891219 12244 net.cpp:493] Sharing parameters 'inception_4e/5x5_reduce_b' owned by layer 'inception_4e/5x5_reduce', param index 1
I1121 21:54:03.891227 12244 layer_factory.hpp:77] Creating layer inception_4e/relu_5x5_reduce_p
I1121 21:54:03.891238 12244 net.cpp:100] Creating Layer inception_4e/relu_5x5_reduce_p
I1121 21:54:03.891248 12244 net.cpp:434] inception_4e/relu_5x5_reduce_p <- inception_4e/5x5_reduce_p
I1121 21:54:03.891258 12244 net.cpp:395] inception_4e/relu_5x5_reduce_p -> inception_4e/5x5_reduce_p (in-place)
I1121 21:54:03.892132 12244 net.cpp:150] Setting up inception_4e/relu_5x5_reduce_p
I1121 21:54:03.892148 12244 net.cpp:157] Top shape: 5 32 10 5 (8000)
I1121 21:54:03.892153 12244 net.cpp:165] Memory required for data: 139600060
I1121 21:54:03.892160 12244 layer_factory.hpp:77] Creating layer inception_4e/5x5_p
I1121 21:54:03.892196 12244 net.cpp:100] Creating Layer inception_4e/5x5_p
I1121 21:54:03.892205 12244 net.cpp:434] inception_4e/5x5_p <- inception_4e/5x5_reduce_p
I1121 21:54:03.892215 12244 net.cpp:408] inception_4e/5x5_p -> inception_4e/5x5_p
I1121 21:54:03.896193 12244 net.cpp:150] Setting up inception_4e/5x5_p
I1121 21:54:03.896214 12244 net.cpp:157] Top shape: 5 128 10 5 (32000)
I1121 21:54:03.896221 12244 net.cpp:165] Memory required for data: 139728060
I1121 21:54:03.896229 12244 net.cpp:493] Sharing parameters 'inception_4e/5x5_w' owned by layer 'inception_4e/5x5', param index 0
I1121 21:54:03.896237 12244 net.cpp:493] Sharing parameters 'inception_4e/5x5_b' owned by layer 'inception_4e/5x5', param index 1
I1121 21:54:03.896245 12244 layer_factory.hpp:77] Creating layer inception_4e/relu_5x5_p
I1121 21:54:03.896253 12244 net.cpp:100] Creating Layer inception_4e/relu_5x5_p
I1121 21:54:03.896260 12244 net.cpp:434] inception_4e/relu_5x5_p <- inception_4e/5x5_p
I1121 21:54:03.896270 12244 net.cpp:395] inception_4e/relu_5x5_p -> inception_4e/5x5_p (in-place)
I1121 21:54:03.897645 12244 net.cpp:150] Setting up inception_4e/relu_5x5_p
I1121 21:54:03.897663 12244 net.cpp:157] Top shape: 5 128 10 5 (32000)
I1121 21:54:03.897671 12244 net.cpp:165] Memory required for data: 139856060
I1121 21:54:03.897680 12244 layer_factory.hpp:77] Creating layer inception_4e/pool_p
I1121 21:54:03.897692 12244 net.cpp:100] Creating Layer inception_4e/pool_p
I1121 21:54:03.897701 12244 net.cpp:434] inception_4e/pool_p <- inception_4d/output_p_inception_4d/output_p_0_split_3
I1121 21:54:03.897708 12244 net.cpp:408] inception_4e/pool_p -> inception_4e/pool_p
I1121 21:54:03.897783 12244 net.cpp:150] Setting up inception_4e/pool_p
I1121 21:54:03.897796 12244 net.cpp:157] Top shape: 5 528 10 5 (132000)
I1121 21:54:03.897824 12244 net.cpp:165] Memory required for data: 140384060
I1121 21:54:03.897831 12244 layer_factory.hpp:77] Creating layer inception_4e/pool_proj_p
I1121 21:54:03.897843 12244 net.cpp:100] Creating Layer inception_4e/pool_proj_p
I1121 21:54:03.897852 12244 net.cpp:434] inception_4e/pool_proj_p <- inception_4e/pool_p
I1121 21:54:03.897868 12244 net.cpp:408] inception_4e/pool_proj_p -> inception_4e/pool_proj_p
I1121 21:54:03.901870 12244 net.cpp:150] Setting up inception_4e/pool_proj_p
I1121 21:54:03.901892 12244 net.cpp:157] Top shape: 5 128 10 5 (32000)
I1121 21:54:03.901901 12244 net.cpp:165] Memory required for data: 140512060
I1121 21:54:03.901908 12244 net.cpp:493] Sharing parameters 'inception_4e/pool_proj_w' owned by layer 'inception_4e/pool_proj', param index 0
I1121 21:54:03.901916 12244 net.cpp:493] Sharing parameters 'inception_4e/pool_proj_b' owned by layer 'inception_4e/pool_proj', param index 1
I1121 21:54:03.901923 12244 layer_factory.hpp:77] Creating layer inception_4e/relu_pool_proj_p
I1121 21:54:03.901932 12244 net.cpp:100] Creating Layer inception_4e/relu_pool_proj_p
I1121 21:54:03.901939 12244 net.cpp:434] inception_4e/relu_pool_proj_p <- inception_4e/pool_proj_p
I1121 21:54:03.901949 12244 net.cpp:395] inception_4e/relu_pool_proj_p -> inception_4e/pool_proj_p (in-place)
I1121 21:54:03.902894 12244 net.cpp:150] Setting up inception_4e/relu_pool_proj_p
I1121 21:54:03.902910 12244 net.cpp:157] Top shape: 5 128 10 5 (32000)
I1121 21:54:03.902917 12244 net.cpp:165] Memory required for data: 140640060
I1121 21:54:03.902923 12244 layer_factory.hpp:77] Creating layer inception_4e/output_p
I1121 21:54:03.902936 12244 net.cpp:100] Creating Layer inception_4e/output_p
I1121 21:54:03.902943 12244 net.cpp:434] inception_4e/output_p <- inception_4e/1x1_p
I1121 21:54:03.902951 12244 net.cpp:434] inception_4e/output_p <- inception_4e/3x3_p
I1121 21:54:03.902958 12244 net.cpp:434] inception_4e/output_p <- inception_4e/5x5_p
I1121 21:54:03.902973 12244 net.cpp:434] inception_4e/output_p <- inception_4e/pool_proj_p
I1121 21:54:03.902983 12244 net.cpp:408] inception_4e/output_p -> inception_4e/output_p
I1121 21:54:03.903033 12244 net.cpp:150] Setting up inception_4e/output_p
I1121 21:54:03.903045 12244 net.cpp:157] Top shape: 5 832 10 5 (208000)
I1121 21:54:03.903051 12244 net.cpp:165] Memory required for data: 141472060
I1121 21:54:03.903061 12244 layer_factory.hpp:77] Creating layer inception_4e/output_p_inception_4e/output_p_0_split
I1121 21:54:03.903072 12244 net.cpp:100] Creating Layer inception_4e/output_p_inception_4e/output_p_0_split
I1121 21:54:03.903079 12244 net.cpp:434] inception_4e/output_p_inception_4e/output_p_0_split <- inception_4e/output_p
I1121 21:54:03.903089 12244 net.cpp:408] inception_4e/output_p_inception_4e/output_p_0_split -> inception_4e/output_p_inception_4e/output_p_0_split_0
I1121 21:54:03.903100 12244 net.cpp:408] inception_4e/output_p_inception_4e/output_p_0_split -> inception_4e/output_p_inception_4e/output_p_0_split_1
I1121 21:54:03.903110 12244 net.cpp:408] inception_4e/output_p_inception_4e/output_p_0_split -> inception_4e/output_p_inception_4e/output_p_0_split_2
I1121 21:54:03.903117 12244 net.cpp:408] inception_4e/output_p_inception_4e/output_p_0_split -> inception_4e/output_p_inception_4e/output_p_0_split_3
I1121 21:54:03.903219 12244 net.cpp:150] Setting up inception_4e/output_p_inception_4e/output_p_0_split
I1121 21:54:03.903233 12244 net.cpp:157] Top shape: 5 832 10 5 (208000)
I1121 21:54:03.903239 12244 net.cpp:157] Top shape: 5 832 10 5 (208000)
I1121 21:54:03.903246 12244 net.cpp:157] Top shape: 5 832 10 5 (208000)
I1121 21:54:03.903252 12244 net.cpp:157] Top shape: 5 832 10 5 (208000)
I1121 21:54:03.903259 12244 net.cpp:165] Memory required for data: 144800060
I1121 21:54:03.903265 12244 layer_factory.hpp:77] Creating layer inception_5a/1x1_p
I1121 21:54:03.903277 12244 net.cpp:100] Creating Layer inception_5a/1x1_p
I1121 21:54:03.903285 12244 net.cpp:434] inception_5a/1x1_p <- inception_4e/output_p_inception_4e/output_p_0_split_0
I1121 21:54:03.903295 12244 net.cpp:408] inception_5a/1x1_p -> inception_5a/1x1_p
I1121 21:54:03.907798 12244 net.cpp:150] Setting up inception_5a/1x1_p
I1121 21:54:03.907819 12244 net.cpp:157] Top shape: 5 256 10 5 (64000)
I1121 21:54:03.907827 12244 net.cpp:165] Memory required for data: 145056060
I1121 21:54:03.907835 12244 net.cpp:493] Sharing parameters 'inception_5a/1x1_w' owned by layer 'inception_5a/1x1', param index 0
I1121 21:54:03.907848 12244 net.cpp:493] Sharing parameters 'inception_5a/1x1_b' owned by layer 'inception_5a/1x1', param index 1
I1121 21:54:03.907855 12244 layer_factory.hpp:77] Creating layer inception_5a/relu_1x1_p
I1121 21:54:03.907865 12244 net.cpp:100] Creating Layer inception_5a/relu_1x1_p
I1121 21:54:03.907871 12244 net.cpp:434] inception_5a/relu_1x1_p <- inception_5a/1x1_p
I1121 21:54:03.907881 12244 net.cpp:395] inception_5a/relu_1x1_p -> inception_5a/1x1_p (in-place)
I1121 21:54:03.908937 12244 net.cpp:150] Setting up inception_5a/relu_1x1_p
I1121 21:54:03.908954 12244 net.cpp:157] Top shape: 5 256 10 5 (64000)
I1121 21:54:03.908962 12244 net.cpp:165] Memory required for data: 145312060
I1121 21:54:03.908972 12244 layer_factory.hpp:77] Creating layer inception_5a/3x3_reduce_p
I1121 21:54:03.908984 12244 net.cpp:100] Creating Layer inception_5a/3x3_reduce_p
I1121 21:54:03.908993 12244 net.cpp:434] inception_5a/3x3_reduce_p <- inception_4e/output_p_inception_4e/output_p_0_split_1
I1121 21:54:03.909001 12244 net.cpp:408] inception_5a/3x3_reduce_p -> inception_5a/3x3_reduce_p
I1121 21:54:03.913879 12244 net.cpp:150] Setting up inception_5a/3x3_reduce_p
I1121 21:54:03.913902 12244 net.cpp:157] Top shape: 5 160 10 5 (40000)
I1121 21:54:03.913910 12244 net.cpp:165] Memory required for data: 145472060
I1121 21:54:03.913918 12244 net.cpp:493] Sharing parameters 'inception_5a/3x3_reduce_w' owned by layer 'inception_5a/3x3_reduce', param index 0
I1121 21:54:03.913928 12244 net.cpp:493] Sharing parameters 'inception_5a/3x3_reduce_b' owned by layer 'inception_5a/3x3_reduce', param index 1
I1121 21:54:03.913944 12244 layer_factory.hpp:77] Creating layer inception_5a/relu_3x3_reduce_p
I1121 21:54:03.913955 12244 net.cpp:100] Creating Layer inception_5a/relu_3x3_reduce_p
I1121 21:54:03.913964 12244 net.cpp:434] inception_5a/relu_3x3_reduce_p <- inception_5a/3x3_reduce_p
I1121 21:54:03.913972 12244 net.cpp:395] inception_5a/relu_3x3_reduce_p -> inception_5a/3x3_reduce_p (in-place)
I1121 21:54:03.914556 12244 net.cpp:150] Setting up inception_5a/relu_3x3_reduce_p
I1121 21:54:03.914572 12244 net.cpp:157] Top shape: 5 160 10 5 (40000)
I1121 21:54:03.914578 12244 net.cpp:165] Memory required for data: 145632060
I1121 21:54:03.914584 12244 layer_factory.hpp:77] Creating layer inception_5a/3x3_p
I1121 21:54:03.914597 12244 net.cpp:100] Creating Layer inception_5a/3x3_p
I1121 21:54:03.914605 12244 net.cpp:434] inception_5a/3x3_p <- inception_5a/3x3_reduce_p
I1121 21:54:03.914614 12244 net.cpp:408] inception_5a/3x3_p -> inception_5a/3x3_p
I1121 21:54:03.922083 12244 net.cpp:150] Setting up inception_5a/3x3_p
I1121 21:54:03.922108 12244 net.cpp:157] Top shape: 5 320 10 5 (80000)
I1121 21:54:03.922116 12244 net.cpp:165] Memory required for data: 145952060
I1121 21:54:03.922124 12244 net.cpp:493] Sharing parameters 'inception_5a/3x3_w' owned by layer 'inception_5a/3x3', param index 0
I1121 21:54:03.922132 12244 net.cpp:493] Sharing parameters 'inception_5a/3x3_b' owned by layer 'inception_5a/3x3', param index 1
I1121 21:54:03.922142 12244 layer_factory.hpp:77] Creating layer inception_5a/relu_3x3_p
I1121 21:54:03.922152 12244 net.cpp:100] Creating Layer inception_5a/relu_3x3_p
I1121 21:54:03.922160 12244 net.cpp:434] inception_5a/relu_3x3_p <- inception_5a/3x3_p
I1121 21:54:03.922169 12244 net.cpp:395] inception_5a/relu_3x3_p -> inception_5a/3x3_p (in-place)
I1121 21:54:03.922634 12244 net.cpp:150] Setting up inception_5a/relu_3x3_p
I1121 21:54:03.922657 12244 net.cpp:157] Top shape: 5 320 10 5 (80000)
I1121 21:54:03.922664 12244 net.cpp:165] Memory required for data: 146272060
I1121 21:54:03.922672 12244 layer_factory.hpp:77] Creating layer inception_5a/5x5_reduce_p
I1121 21:54:03.922683 12244 net.cpp:100] Creating Layer inception_5a/5x5_reduce_p
I1121 21:54:03.922690 12244 net.cpp:434] inception_5a/5x5_reduce_p <- inception_4e/output_p_inception_4e/output_p_0_split_2
I1121 21:54:03.922716 12244 net.cpp:408] inception_5a/5x5_reduce_p -> inception_5a/5x5_reduce_p
I1121 21:54:03.926594 12244 net.cpp:150] Setting up inception_5a/5x5_reduce_p
I1121 21:54:03.926615 12244 net.cpp:157] Top shape: 5 32 10 5 (8000)
I1121 21:54:03.926623 12244 net.cpp:165] Memory required for data: 146304060
I1121 21:54:03.926632 12244 net.cpp:493] Sharing parameters 'inception_5a/5x5_reduce_w' owned by layer 'inception_5a/5x5_reduce', param index 0
I1121 21:54:03.926640 12244 net.cpp:493] Sharing parameters 'inception_5a/5x5_reduce_b' owned by layer 'inception_5a/5x5_reduce', param index 1
I1121 21:54:03.926647 12244 layer_factory.hpp:77] Creating layer inception_5a/relu_5x5_reduce_p
I1121 21:54:03.926656 12244 net.cpp:100] Creating Layer inception_5a/relu_5x5_reduce_p
I1121 21:54:03.926663 12244 net.cpp:434] inception_5a/relu_5x5_reduce_p <- inception_5a/5x5_reduce_p
I1121 21:54:03.926671 12244 net.cpp:395] inception_5a/relu_5x5_reduce_p -> inception_5a/5x5_reduce_p (in-place)
I1121 21:54:03.927358 12244 net.cpp:150] Setting up inception_5a/relu_5x5_reduce_p
I1121 21:54:03.927381 12244 net.cpp:157] Top shape: 5 32 10 5 (8000)
I1121 21:54:03.927386 12244 net.cpp:165] Memory required for data: 146336060
I1121 21:54:03.927393 12244 layer_factory.hpp:77] Creating layer inception_5a/5x5_p
I1121 21:54:03.927413 12244 net.cpp:100] Creating Layer inception_5a/5x5_p
I1121 21:54:03.927422 12244 net.cpp:434] inception_5a/5x5_p <- inception_5a/5x5_reduce_p
I1121 21:54:03.927440 12244 net.cpp:408] inception_5a/5x5_p -> inception_5a/5x5_p
I1121 21:54:03.930979 12244 net.cpp:150] Setting up inception_5a/5x5_p
I1121 21:54:03.931005 12244 net.cpp:157] Top shape: 5 128 10 5 (32000)
I1121 21:54:03.931030 12244 net.cpp:165] Memory required for data: 146464060
I1121 21:54:03.931038 12244 net.cpp:493] Sharing parameters 'inception_5a/5x5_w' owned by layer 'inception_5a/5x5', param index 0
I1121 21:54:03.931046 12244 net.cpp:493] Sharing parameters 'inception_5a/5x5_b' owned by layer 'inception_5a/5x5', param index 1
I1121 21:54:03.931063 12244 layer_factory.hpp:77] Creating layer inception_5a/relu_5x5_p
I1121 21:54:03.931072 12244 net.cpp:100] Creating Layer inception_5a/relu_5x5_p
I1121 21:54:03.931079 12244 net.cpp:434] inception_5a/relu_5x5_p <- inception_5a/5x5_p
I1121 21:54:03.931087 12244 net.cpp:395] inception_5a/relu_5x5_p -> inception_5a/5x5_p (in-place)
I1121 21:54:03.933126 12244 net.cpp:150] Setting up inception_5a/relu_5x5_p
I1121 21:54:03.933141 12244 net.cpp:157] Top shape: 5 128 10 5 (32000)
I1121 21:54:03.933148 12244 net.cpp:165] Memory required for data: 146592060
I1121 21:54:03.933154 12244 layer_factory.hpp:77] Creating layer inception_5a/pool_p
I1121 21:54:03.933166 12244 net.cpp:100] Creating Layer inception_5a/pool_p
I1121 21:54:03.933173 12244 net.cpp:434] inception_5a/pool_p <- inception_4e/output_p_inception_4e/output_p_0_split_3
I1121 21:54:03.933182 12244 net.cpp:408] inception_5a/pool_p -> inception_5a/pool_p
I1121 21:54:03.933233 12244 net.cpp:150] Setting up inception_5a/pool_p
I1121 21:54:03.933243 12244 net.cpp:157] Top shape: 5 832 10 5 (208000)
I1121 21:54:03.933249 12244 net.cpp:165] Memory required for data: 147424060
I1121 21:54:03.933255 12244 layer_factory.hpp:77] Creating layer inception_5a/pool_proj_p
I1121 21:54:03.933267 12244 net.cpp:100] Creating Layer inception_5a/pool_proj_p
I1121 21:54:03.933275 12244 net.cpp:434] inception_5a/pool_proj_p <- inception_5a/pool_p
I1121 21:54:03.933286 12244 net.cpp:408] inception_5a/pool_proj_p -> inception_5a/pool_proj_p
I1121 21:54:03.936837 12244 net.cpp:150] Setting up inception_5a/pool_proj_p
I1121 21:54:03.936862 12244 net.cpp:157] Top shape: 5 128 10 5 (32000)
I1121 21:54:03.936871 12244 net.cpp:165] Memory required for data: 147552060
I1121 21:54:03.936878 12244 net.cpp:493] Sharing parameters 'inception_5a/pool_proj_w' owned by layer 'inception_5a/pool_proj', param index 0
I1121 21:54:03.936887 12244 net.cpp:493] Sharing parameters 'inception_5a/pool_proj_b' owned by layer 'inception_5a/pool_proj', param index 1
I1121 21:54:03.936893 12244 layer_factory.hpp:77] Creating layer inception_5a/relu_pool_proj_p
I1121 21:54:03.936906 12244 net.cpp:100] Creating Layer inception_5a/relu_pool_proj_p
I1121 21:54:03.936914 12244 net.cpp:434] inception_5a/relu_pool_proj_p <- inception_5a/pool_proj_p
I1121 21:54:03.936923 12244 net.cpp:395] inception_5a/relu_pool_proj_p -> inception_5a/pool_proj_p (in-place)
I1121 21:54:03.938624 12244 net.cpp:150] Setting up inception_5a/relu_pool_proj_p
I1121 21:54:03.938668 12244 net.cpp:157] Top shape: 5 128 10 5 (32000)
I1121 21:54:03.938674 12244 net.cpp:165] Memory required for data: 147680060
I1121 21:54:03.938685 12244 layer_factory.hpp:77] Creating layer inception_5a/output_p
I1121 21:54:03.938702 12244 net.cpp:100] Creating Layer inception_5a/output_p
I1121 21:54:03.938712 12244 net.cpp:434] inception_5a/output_p <- inception_5a/1x1_p
I1121 21:54:03.938721 12244 net.cpp:434] inception_5a/output_p <- inception_5a/3x3_p
I1121 21:54:03.938730 12244 net.cpp:434] inception_5a/output_p <- inception_5a/5x5_p
I1121 21:54:03.938736 12244 net.cpp:434] inception_5a/output_p <- inception_5a/pool_proj_p
I1121 21:54:03.938745 12244 net.cpp:408] inception_5a/output_p -> inception_5a/output_p
I1121 21:54:03.938801 12244 net.cpp:150] Setting up inception_5a/output_p
I1121 21:54:03.938818 12244 net.cpp:157] Top shape: 5 832 10 5 (208000)
I1121 21:54:03.938825 12244 net.cpp:165] Memory required for data: 148512060
I1121 21:54:03.938832 12244 layer_factory.hpp:77] Creating layer inception_5a/output_p_inception_5a/output_p_0_split
I1121 21:54:03.938843 12244 net.cpp:100] Creating Layer inception_5a/output_p_inception_5a/output_p_0_split
I1121 21:54:03.938850 12244 net.cpp:434] inception_5a/output_p_inception_5a/output_p_0_split <- inception_5a/output_p
I1121 21:54:03.938869 12244 net.cpp:408] inception_5a/output_p_inception_5a/output_p_0_split -> inception_5a/output_p_inception_5a/output_p_0_split_0
I1121 21:54:03.938880 12244 net.cpp:408] inception_5a/output_p_inception_5a/output_p_0_split -> inception_5a/output_p_inception_5a/output_p_0_split_1
I1121 21:54:03.938889 12244 net.cpp:408] inception_5a/output_p_inception_5a/output_p_0_split -> inception_5a/output_p_inception_5a/output_p_0_split_2
I1121 21:54:03.938899 12244 net.cpp:408] inception_5a/output_p_inception_5a/output_p_0_split -> inception_5a/output_p_inception_5a/output_p_0_split_3
I1121 21:54:03.938966 12244 net.cpp:150] Setting up inception_5a/output_p_inception_5a/output_p_0_split
I1121 21:54:03.938978 12244 net.cpp:157] Top shape: 5 832 10 5 (208000)
I1121 21:54:03.938985 12244 net.cpp:157] Top shape: 5 832 10 5 (208000)
I1121 21:54:03.938992 12244 net.cpp:157] Top shape: 5 832 10 5 (208000)
I1121 21:54:03.938998 12244 net.cpp:157] Top shape: 5 832 10 5 (208000)
I1121 21:54:03.939004 12244 net.cpp:165] Memory required for data: 151840060
I1121 21:54:03.939010 12244 layer_factory.hpp:77] Creating layer inception_5b/1x1_p
I1121 21:54:03.939025 12244 net.cpp:100] Creating Layer inception_5b/1x1_p
I1121 21:54:03.939033 12244 net.cpp:434] inception_5b/1x1_p <- inception_5a/output_p_inception_5a/output_p_0_split_0
I1121 21:54:03.939043 12244 net.cpp:408] inception_5b/1x1_p -> inception_5b/1x1_p
I1121 21:54:03.944058 12244 net.cpp:150] Setting up inception_5b/1x1_p
I1121 21:54:03.944099 12244 net.cpp:157] Top shape: 5 384 10 5 (96000)
I1121 21:54:03.944108 12244 net.cpp:165] Memory required for data: 152224060
I1121 21:54:03.944116 12244 net.cpp:493] Sharing parameters 'inception_5b/1x1_w' owned by layer 'inception_5b/1x1', param index 0
I1121 21:54:03.944124 12244 net.cpp:493] Sharing parameters 'inception_5b/1x1_b' owned by layer 'inception_5b/1x1', param index 1
I1121 21:54:03.944131 12244 layer_factory.hpp:77] Creating layer inception_5b/relu_1x1_p
I1121 21:54:03.944150 12244 net.cpp:100] Creating Layer inception_5b/relu_1x1_p
I1121 21:54:03.944159 12244 net.cpp:434] inception_5b/relu_1x1_p <- inception_5b/1x1_p
I1121 21:54:03.944167 12244 net.cpp:395] inception_5b/relu_1x1_p -> inception_5b/1x1_p (in-place)
I1121 21:54:03.945302 12244 net.cpp:150] Setting up inception_5b/relu_1x1_p
I1121 21:54:03.945322 12244 net.cpp:157] Top shape: 5 384 10 5 (96000)
I1121 21:54:03.945338 12244 net.cpp:165] Memory required for data: 152608060
I1121 21:54:03.945351 12244 layer_factory.hpp:77] Creating layer inception_5b/3x3_reduce_p
I1121 21:54:03.945374 12244 net.cpp:100] Creating Layer inception_5b/3x3_reduce_p
I1121 21:54:03.945384 12244 net.cpp:434] inception_5b/3x3_reduce_p <- inception_5a/output_p_inception_5a/output_p_0_split_1
I1121 21:54:03.945399 12244 net.cpp:408] inception_5b/3x3_reduce_p -> inception_5b/3x3_reduce_p
I1121 21:54:03.949569 12244 net.cpp:150] Setting up inception_5b/3x3_reduce_p
I1121 21:54:03.949604 12244 net.cpp:157] Top shape: 5 192 10 5 (48000)
I1121 21:54:03.949611 12244 net.cpp:165] Memory required for data: 152800060
I1121 21:54:03.949620 12244 net.cpp:493] Sharing parameters 'inception_5b/3x3_reduce_w' owned by layer 'inception_5b/3x3_reduce', param index 0
I1121 21:54:03.949627 12244 net.cpp:493] Sharing parameters 'inception_5b/3x3_reduce_b' owned by layer 'inception_5b/3x3_reduce', param index 1
I1121 21:54:03.949635 12244 layer_factory.hpp:77] Creating layer inception_5b/relu_3x3_reduce_p
I1121 21:54:03.949645 12244 net.cpp:100] Creating Layer inception_5b/relu_3x3_reduce_p
I1121 21:54:03.949653 12244 net.cpp:434] inception_5b/relu_3x3_reduce_p <- inception_5b/3x3_reduce_p
I1121 21:54:03.949661 12244 net.cpp:395] inception_5b/relu_3x3_reduce_p -> inception_5b/3x3_reduce_p (in-place)
I1121 21:54:03.950608 12244 net.cpp:150] Setting up inception_5b/relu_3x3_reduce_p
I1121 21:54:03.950623 12244 net.cpp:157] Top shape: 5 192 10 5 (48000)
I1121 21:54:03.950630 12244 net.cpp:165] Memory required for data: 152992060
I1121 21:54:03.950636 12244 layer_factory.hpp:77] Creating layer inception_5b/3x3_p
I1121 21:54:03.950659 12244 net.cpp:100] Creating Layer inception_5b/3x3_p
I1121 21:54:03.950667 12244 net.cpp:434] inception_5b/3x3_p <- inception_5b/3x3_reduce_p
I1121 21:54:03.950678 12244 net.cpp:408] inception_5b/3x3_p -> inception_5b/3x3_p
I1121 21:54:03.960369 12244 net.cpp:150] Setting up inception_5b/3x3_p
I1121 21:54:03.960419 12244 net.cpp:157] Top shape: 5 384 10 5 (96000)
I1121 21:54:03.960427 12244 net.cpp:165] Memory required for data: 153376060
I1121 21:54:03.960445 12244 net.cpp:493] Sharing parameters 'inception_5b/3x3_w' owned by layer 'inception_5b/3x3', param index 0
I1121 21:54:03.960463 12244 net.cpp:493] Sharing parameters 'inception_5b/3x3_b' owned by layer 'inception_5b/3x3', param index 1
I1121 21:54:03.960470 12244 layer_factory.hpp:77] Creating layer inception_5b/relu_3x3_p
I1121 21:54:03.960484 12244 net.cpp:100] Creating Layer inception_5b/relu_3x3_p
I1121 21:54:03.960492 12244 net.cpp:434] inception_5b/relu_3x3_p <- inception_5b/3x3_p
I1121 21:54:03.960510 12244 net.cpp:395] inception_5b/relu_3x3_p -> inception_5b/3x3_p (in-place)
I1121 21:54:03.962565 12244 net.cpp:150] Setting up inception_5b/relu_3x3_p
I1121 21:54:03.962589 12244 net.cpp:157] Top shape: 5 384 10 5 (96000)
I1121 21:54:03.962596 12244 net.cpp:165] Memory required for data: 153760060
I1121 21:54:03.962607 12244 layer_factory.hpp:77] Creating layer inception_5b/5x5_reduce_p
I1121 21:54:03.962632 12244 net.cpp:100] Creating Layer inception_5b/5x5_reduce_p
I1121 21:54:03.962641 12244 net.cpp:434] inception_5b/5x5_reduce_p <- inception_5a/output_p_inception_5a/output_p_0_split_2
I1121 21:54:03.962652 12244 net.cpp:408] inception_5b/5x5_reduce_p -> inception_5b/5x5_reduce_p
I1121 21:54:03.967051 12244 net.cpp:150] Setting up inception_5b/5x5_reduce_p
I1121 21:54:03.967092 12244 net.cpp:157] Top shape: 5 48 10 5 (12000)
I1121 21:54:03.967099 12244 net.cpp:165] Memory required for data: 153808060
I1121 21:54:03.967110 12244 net.cpp:493] Sharing parameters 'inception_5b/5x5_reduce_w' owned by layer 'inception_5b/5x5_reduce', param index 0
I1121 21:54:03.967119 12244 net.cpp:493] Sharing parameters 'inception_5b/5x5_reduce_b' owned by layer 'inception_5b/5x5_reduce', param index 1
I1121 21:54:03.967126 12244 layer_factory.hpp:77] Creating layer inception_5b/relu_5x5_reduce_p
I1121 21:54:03.967146 12244 net.cpp:100] Creating Layer inception_5b/relu_5x5_reduce_p
I1121 21:54:03.967161 12244 net.cpp:434] inception_5b/relu_5x5_reduce_p <- inception_5b/5x5_reduce_p
I1121 21:54:03.967171 12244 net.cpp:395] inception_5b/relu_5x5_reduce_p -> inception_5b/5x5_reduce_p (in-place)
I1121 21:54:03.968034 12244 net.cpp:150] Setting up inception_5b/relu_5x5_reduce_p
I1121 21:54:03.968047 12244 net.cpp:157] Top shape: 5 48 10 5 (12000)
I1121 21:54:03.968055 12244 net.cpp:165] Memory required for data: 153856060
I1121 21:54:03.968061 12244 layer_factory.hpp:77] Creating layer inception_5b/5x5_p
I1121 21:54:03.968077 12244 net.cpp:100] Creating Layer inception_5b/5x5_p
I1121 21:54:03.968085 12244 net.cpp:434] inception_5b/5x5_p <- inception_5b/5x5_reduce_p
I1121 21:54:03.968094 12244 net.cpp:408] inception_5b/5x5_p -> inception_5b/5x5_p
I1121 21:54:03.972399 12244 net.cpp:150] Setting up inception_5b/5x5_p
I1121 21:54:03.972420 12244 net.cpp:157] Top shape: 5 128 10 5 (32000)
I1121 21:54:03.972429 12244 net.cpp:165] Memory required for data: 153984060
I1121 21:54:03.972436 12244 net.cpp:493] Sharing parameters 'inception_5b/5x5_w' owned by layer 'inception_5b/5x5', param index 0
I1121 21:54:03.972445 12244 net.cpp:493] Sharing parameters 'inception_5b/5x5_b' owned by layer 'inception_5b/5x5', param index 1
I1121 21:54:03.972453 12244 layer_factory.hpp:77] Creating layer inception_5b/relu_5x5_p
I1121 21:54:03.972463 12244 net.cpp:100] Creating Layer inception_5b/relu_5x5_p
I1121 21:54:03.972472 12244 net.cpp:434] inception_5b/relu_5x5_p <- inception_5b/5x5_p
I1121 21:54:03.972481 12244 net.cpp:395] inception_5b/relu_5x5_p -> inception_5b/5x5_p (in-place)
I1121 21:54:03.973445 12244 net.cpp:150] Setting up inception_5b/relu_5x5_p
I1121 21:54:03.973470 12244 net.cpp:157] Top shape: 5 128 10 5 (32000)
I1121 21:54:03.973479 12244 net.cpp:165] Memory required for data: 154112060
I1121 21:54:03.973485 12244 layer_factory.hpp:77] Creating layer inception_5b/pool_p
I1121 21:54:03.973495 12244 net.cpp:100] Creating Layer inception_5b/pool_p
I1121 21:54:03.973503 12244 net.cpp:434] inception_5b/pool_p <- inception_5a/output_p_inception_5a/output_p_0_split_3
I1121 21:54:03.973515 12244 net.cpp:408] inception_5b/pool_p -> inception_5b/pool_p
I1121 21:54:03.973562 12244 net.cpp:150] Setting up inception_5b/pool_p
I1121 21:54:03.973575 12244 net.cpp:157] Top shape: 5 832 10 5 (208000)
I1121 21:54:03.973583 12244 net.cpp:165] Memory required for data: 154944060
I1121 21:54:03.973592 12244 layer_factory.hpp:77] Creating layer inception_5b/pool_proj_p
I1121 21:54:03.973603 12244 net.cpp:100] Creating Layer inception_5b/pool_proj_p
I1121 21:54:03.973610 12244 net.cpp:434] inception_5b/pool_proj_p <- inception_5b/pool_p
I1121 21:54:03.973620 12244 net.cpp:408] inception_5b/pool_proj_p -> inception_5b/pool_proj_p
I1121 21:54:03.975731 12244 net.cpp:150] Setting up inception_5b/pool_proj_p
I1121 21:54:03.975752 12244 net.cpp:157] Top shape: 5 128 10 5 (32000)
I1121 21:54:03.975761 12244 net.cpp:165] Memory required for data: 155072060
I1121 21:54:03.975771 12244 net.cpp:493] Sharing parameters 'inception_5b/pool_proj_w' owned by layer 'inception_5b/pool_proj', param index 0
I1121 21:54:03.975780 12244 net.cpp:493] Sharing parameters 'inception_5b/pool_proj_b' owned by layer 'inception_5b/pool_proj', param index 1
I1121 21:54:03.975786 12244 layer_factory.hpp:77] Creating layer inception_5b/relu_pool_proj_p
I1121 21:54:03.975795 12244 net.cpp:100] Creating Layer inception_5b/relu_pool_proj_p
I1121 21:54:03.975803 12244 net.cpp:434] inception_5b/relu_pool_proj_p <- inception_5b/pool_proj_p
I1121 21:54:03.975814 12244 net.cpp:395] inception_5b/relu_pool_proj_p -> inception_5b/pool_proj_p (in-place)
I1121 21:54:03.976161 12244 net.cpp:150] Setting up inception_5b/relu_pool_proj_p
I1121 21:54:03.976178 12244 net.cpp:157] Top shape: 5 128 10 5 (32000)
I1121 21:54:03.976186 12244 net.cpp:165] Memory required for data: 155200060
I1121 21:54:03.976192 12244 layer_factory.hpp:77] Creating layer inception_5b/output_p
I1121 21:54:03.976204 12244 net.cpp:100] Creating Layer inception_5b/output_p
I1121 21:54:03.976213 12244 net.cpp:434] inception_5b/output_p <- inception_5b/1x1_p
I1121 21:54:03.976227 12244 net.cpp:434] inception_5b/output_p <- inception_5b/3x3_p
I1121 21:54:03.976235 12244 net.cpp:434] inception_5b/output_p <- inception_5b/5x5_p
I1121 21:54:03.976243 12244 net.cpp:434] inception_5b/output_p <- inception_5b/pool_proj_p
I1121 21:54:03.976253 12244 net.cpp:408] inception_5b/output_p -> inception_5b/output_p
I1121 21:54:03.976285 12244 net.cpp:150] Setting up inception_5b/output_p
I1121 21:54:03.976297 12244 net.cpp:157] Top shape: 5 1024 10 5 (256000)
I1121 21:54:03.976303 12244 net.cpp:165] Memory required for data: 156224060
I1121 21:54:03.976310 12244 layer_factory.hpp:77] Creating layer conv2-all
I1121 21:54:03.976320 12244 net.cpp:100] Creating Layer conv2-all
I1121 21:54:03.976326 12244 net.cpp:434] conv2-all <- inception_5b/output
I1121 21:54:03.976335 12244 net.cpp:434] conv2-all <- inception_5b/output_p
I1121 21:54:03.976342 12244 net.cpp:408] conv2-all -> conv2-all
I1121 21:54:03.976371 12244 net.cpp:150] Setting up conv2-all
I1121 21:54:03.976382 12244 net.cpp:157] Top shape: 5 2048 10 5 (512000)
I1121 21:54:03.976388 12244 net.cpp:165] Memory required for data: 158272060
I1121 21:54:03.976394 12244 layer_factory.hpp:77] Creating layer conv3-sm
I1121 21:54:03.976409 12244 net.cpp:100] Creating Layer conv3-sm
I1121 21:54:03.976416 12244 net.cpp:434] conv3-sm <- conv2-all
I1121 21:54:03.976426 12244 net.cpp:408] conv3-sm -> conv3
I1121 21:54:04.466356 12244 net.cpp:150] Setting up conv3-sm
I1121 21:54:04.466408 12244 net.cpp:157] Top shape: 5 1024 10 5 (256000)
I1121 21:54:04.466418 12244 net.cpp:165] Memory required for data: 159296060
I1121 21:54:04.466445 12244 layer_factory.hpp:77] Creating layer relu3
I1121 21:54:04.466462 12244 net.cpp:100] Creating Layer relu3
I1121 21:54:04.466473 12244 net.cpp:434] relu3 <- conv3
I1121 21:54:04.466482 12244 net.cpp:395] relu3 -> conv3 (in-place)
I1121 21:54:04.466667 12244 net.cpp:150] Setting up relu3
I1121 21:54:04.466686 12244 net.cpp:157] Top shape: 5 1024 10 5 (256000)
I1121 21:54:04.466693 12244 net.cpp:165] Memory required for data: 160320060
I1121 21:54:04.466701 12244 layer_factory.hpp:77] Creating layer conv4-sm
I1121 21:54:04.466718 12244 net.cpp:100] Creating Layer conv4-sm
I1121 21:54:04.466727 12244 net.cpp:434] conv4-sm <- conv3
I1121 21:54:04.466737 12244 net.cpp:408] conv4-sm -> conv4
I1121 21:54:04.712398 12244 net.cpp:150] Setting up conv4-sm
I1121 21:54:04.712446 12244 net.cpp:157] Top shape: 5 1024 10 5 (256000)
I1121 21:54:04.712455 12244 net.cpp:165] Memory required for data: 161344060
I1121 21:54:04.712469 12244 layer_factory.hpp:77] Creating layer relu4
I1121 21:54:04.712482 12244 net.cpp:100] Creating Layer relu4
I1121 21:54:04.712491 12244 net.cpp:434] relu4 <- conv4
I1121 21:54:04.712502 12244 net.cpp:395] relu4 -> conv4 (in-place)
I1121 21:54:04.713413 12244 net.cpp:150] Setting up relu4
I1121 21:54:04.713428 12244 net.cpp:157] Top shape: 5 1024 10 5 (256000)
I1121 21:54:04.713435 12244 net.cpp:165] Memory required for data: 162368060
I1121 21:54:04.713441 12244 layer_factory.hpp:77] Creating layer pool5
I1121 21:54:04.713451 12244 net.cpp:100] Creating Layer pool5
I1121 21:54:04.713459 12244 net.cpp:434] pool5 <- conv4
I1121 21:54:04.713469 12244 net.cpp:408] pool5 -> pool5
I1121 21:54:04.713523 12244 net.cpp:150] Setting up pool5
I1121 21:54:04.713533 12244 net.cpp:157] Top shape: 5 1024 5 2 (51200)
I1121 21:54:04.713541 12244 net.cpp:165] Memory required for data: 162572860
I1121 21:54:04.713546 12244 layer_factory.hpp:77] Creating layer fc6-sm
I1121 21:54:04.713559 12244 net.cpp:100] Creating Layer fc6-sm
I1121 21:54:04.713567 12244 net.cpp:434] fc6-sm <- pool5
I1121 21:54:04.713577 12244 net.cpp:408] fc6-sm -> fc6
I1121 21:54:04.991466 12244 net.cpp:150] Setting up fc6-sm
I1121 21:54:04.991513 12244 net.cpp:157] Top shape: 5 1024 (5120)
I1121 21:54:04.991520 12244 net.cpp:165] Memory required for data: 162593340
I1121 21:54:04.991534 12244 layer_factory.hpp:77] Creating layer relu6
I1121 21:54:04.991547 12244 net.cpp:100] Creating Layer relu6
I1121 21:54:04.991555 12244 net.cpp:434] relu6 <- fc6
I1121 21:54:04.991572 12244 net.cpp:395] relu6 -> fc6 (in-place)
I1121 21:54:04.992125 12244 net.cpp:150] Setting up relu6
I1121 21:54:04.992141 12244 net.cpp:157] Top shape: 5 1024 (5120)
I1121 21:54:04.992148 12244 net.cpp:165] Memory required for data: 162613820
I1121 21:54:04.992154 12244 layer_factory.hpp:77] Creating layer drop6
I1121 21:54:04.992164 12244 net.cpp:100] Creating Layer drop6
I1121 21:54:04.992172 12244 net.cpp:434] drop6 <- fc6
I1121 21:54:04.992179 12244 net.cpp:395] drop6 -> fc6 (in-place)
I1121 21:54:04.992226 12244 net.cpp:150] Setting up drop6
I1121 21:54:04.992238 12244 net.cpp:157] Top shape: 5 1024 (5120)
I1121 21:54:04.992244 12244 net.cpp:165] Memory required for data: 162634300
I1121 21:54:04.992249 12244 layer_factory.hpp:77] Creating layer fc7-sm
I1121 21:54:04.992261 12244 net.cpp:100] Creating Layer fc7-sm
I1121 21:54:04.992267 12244 net.cpp:434] fc7-sm <- fc6
I1121 21:54:04.992275 12244 net.cpp:408] fc7-sm -> fc7
I1121 21:54:05.018538 12244 net.cpp:150] Setting up fc7-sm
I1121 21:54:05.018559 12244 net.cpp:157] Top shape: 5 1024 (5120)
I1121 21:54:05.018568 12244 net.cpp:165] Memory required for data: 162654780
I1121 21:54:05.018576 12244 layer_factory.hpp:77] Creating layer relu7
I1121 21:54:05.018589 12244 net.cpp:100] Creating Layer relu7
I1121 21:54:05.018595 12244 net.cpp:434] relu7 <- fc7
I1121 21:54:05.018602 12244 net.cpp:395] relu7 -> fc7 (in-place)
I1121 21:54:05.019045 12244 net.cpp:150] Setting up relu7
I1121 21:54:05.019062 12244 net.cpp:157] Top shape: 5 1024 (5120)
I1121 21:54:05.019068 12244 net.cpp:165] Memory required for data: 162675260
I1121 21:54:05.019086 12244 layer_factory.hpp:77] Creating layer drop7
I1121 21:54:05.019095 12244 net.cpp:100] Creating Layer drop7
I1121 21:54:05.019103 12244 net.cpp:434] drop7 <- fc7
I1121 21:54:05.019109 12244 net.cpp:395] drop7 -> fc7 (in-place)
I1121 21:54:05.019139 12244 net.cpp:150] Setting up drop7
I1121 21:54:05.019148 12244 net.cpp:157] Top shape: 5 1024 (5120)
I1121 21:54:05.019155 12244 net.cpp:165] Memory required for data: 162695740
I1121 21:54:05.019160 12244 layer_factory.hpp:77] Creating layer fc7-all
I1121 21:54:05.019170 12244 net.cpp:100] Creating Layer fc7-all
I1121 21:54:05.019176 12244 net.cpp:434] fc7-all <- fc7
I1121 21:54:05.019184 12244 net.cpp:408] fc7-all -> fc7-all
I1121 21:54:05.019363 12244 net.cpp:150] Setting up fc7-all
I1121 21:54:05.019377 12244 net.cpp:157] Top shape: 5 2 (10)
I1121 21:54:05.019384 12244 net.cpp:165] Memory required for data: 162695780
I1121 21:54:05.019392 12244 layer_factory.hpp:77] Creating layer fc7-all_fc7-all_0_split
I1121 21:54:05.019402 12244 net.cpp:100] Creating Layer fc7-all_fc7-all_0_split
I1121 21:54:05.019409 12244 net.cpp:434] fc7-all_fc7-all_0_split <- fc7-all
I1121 21:54:05.019418 12244 net.cpp:408] fc7-all_fc7-all_0_split -> fc7-all_fc7-all_0_split_0
I1121 21:54:05.019426 12244 net.cpp:408] fc7-all_fc7-all_0_split -> fc7-all_fc7-all_0_split_1
I1121 21:54:05.019464 12244 net.cpp:150] Setting up fc7-all_fc7-all_0_split
I1121 21:54:05.019476 12244 net.cpp:157] Top shape: 5 2 (10)
I1121 21:54:05.019484 12244 net.cpp:157] Top shape: 5 2 (10)
I1121 21:54:05.019490 12244 net.cpp:165] Memory required for data: 162695860
I1121 21:54:05.019495 12244 layer_factory.hpp:77] Creating layer accuracy
I1121 21:54:05.019505 12244 net.cpp:100] Creating Layer accuracy
I1121 21:54:05.019510 12244 net.cpp:434] accuracy <- fc7-all_fc7-all_0_split_0
I1121 21:54:05.019518 12244 net.cpp:434] accuracy <- label_data_2_split_0
I1121 21:54:05.019526 12244 net.cpp:408] accuracy -> accuracy
…
