…
I1130 20:14:21.769451 30472 solver.cpp:91] Creating training net from net file: experiments_py/exper_cuhk/cuhk03/singleNet/train_val.prototxt
I1130 20:14:21.812055 30472 net.cpp:322] The NetState phase (0) differed from the phase (1) specified by a rule in layer data
I1130 20:14:21.813554 30472 net.cpp:58] Initializing net from parameters: 
name: "AlexNet"
state {
  phase: TRAIN
  level: 0
  stage: ""
}
layer {
  name: "data"
  type: "Python"
  top: "data"
  top: "data_p"
  top: "label"
  include {
    phase: TRAIN
  }
  python_param {
    module: "cuhk03_SeqIn_layer"
    layer: "videoReadTrain"
  }
}
layer {
  name: "conv1/7x7_s2"
  type: "Convolution"
  bottom: "data"
  top: "conv1/7x7_s2"
  param {
    name: "conv1/7x7_s2_w"
    lr_mult: 1
    decay_mult: 1
  }
  param {
    name: "conv1/7x7_s2_b"
    lr_mult: 2
    decay_mult: 0
  }
  convolution_param {
    num_output: 64
    pad: 3
    kernel_size: 7
    stride: 2
    weight_filler {
      type: "xavier"
    }
    bias_filler {
      type: "constant"
      value: 0.2
    }
  }
}
layer {
  name: "conv1/relu_7x7"
  type: "ReLU"
  bottom: "conv1/7x7_s2"
  top: "conv1/7x7_s2"
}
layer {
  name: "pool1/3x3_s2"
  type: "Pooling"
  bottom: "conv1/7x7_s2"
  top: "pool1/3x3_s2"
  pooling_param {
    pool: MAX
    kernel_size: 3
    stride: 2
  }
}
layer {
  name: "pool1/norm1"
  type: "LRN"
  bottom: "pool1/3x3_s2"
  top: "pool1/norm1"
  lrn_param {
    local_size: 5
    alpha: 0.0001
    beta: 0.75
  }
}
layer {
  name: "conv2/3x3_reduce"
  type: "Convolution"
  bottom: "pool1/norm1"
  top: "conv2/3x3_reduce"
  param {
    name: "conv2/3x3_reduce_w"
    lr_mult: 1
    decay_mult: 1
  }
  param {
    name: "conv2/3x3_reduce_b"
    lr_mult: 2
    decay_mult: 0
  }
  convolution_param {
    num_output: 64
    kernel_size: 1
    weight_filler {
      type: "xavier"
    }
    bias_filler {
      type: "constant"
      value: 0.2
    }
  }
}
layer {
  name: "conv2/relu_3x3_reduce"
  type: "ReLU"
  bottom: "conv2/3x3_reduce"
  top: "conv2/3x3_reduce"
}
layer {
  name: "conv2/3x3"
  type: "Convolution"
  bottom: "conv2/3x3_reduce"
  top: "conv2/3x3"
  param {
    name: "conv2/3x3_w"
    lr_mult: 1
    decay_mult: 1
  }
  param {
    name: "conv2/3x3_b"
    lr_mult: 2
    decay_mult: 0
  }
  convolution_param {
    num_output: 192
    pad: 1
    kernel_size: 3
    weight_filler {
      type: "xavier"
    }
    bias_filler {
      type: "constant"
      value: 0.2
    }
  }
}
layer {
  name: "conv2/relu_3x3"
  type: "ReLU"
  bottom: "conv2/3x3"
  top: "conv2/3x3"
}
layer {
  name: "pool2/3x3_s2"
  type: "Pooling"
  bottom: "conv2/3x3"
  top: "pool2/3x3_s2"
  pooling_param {
    pool: MAX
    kernel_size: 3
    stride: 2
  }
}
layer {
  name: "inception_3a/1x1"
  type: "Convolution"
  bottom: "pool2/3x3_s2"
  top: "inception_3a/1x1"
  param {
    name: "inception_3a/1x1_w"
    lr_mult: 1
    decay_mult: 1
  }
  param {
    name: "inception_3a/1x1_b"
    lr_mult: 2
    decay_mult: 0
  }
  convolution_param {
    num_output: 64
    kernel_size: 1
    weight_filler {
      type: "xavier"
    }
    bias_filler {
      type: "constant"
      value: 0.2
    }
  }
}
layer {
  name: "inception_3a/relu_1x1"
  type: "ReLU"
  bottom: "inception_3a/1x1"
  top: "inception_3a/1x1"
}
layer {
  name: "inception_3a/3x3_reduce"
  type: "Convolution"
  bottom: "pool2/3x3_s2"
  top: "inception_3a/3x3_reduce"
  param {
    name: "inception_3a/3x3_reduce_w"
    lr_mult: 1
    decay_mult: 1
  }
  param {
    name: "inception_3a/3x3_reduce_b"
    lr_mult: 2
    decay_mult: 0
  }
  convolution_param {
    num_output: 96
    kernel_size: 1
    weight_filler {
      type: "xavier"
    }
    bias_filler {
      type: "constant"
      value: 0.2
    }
  }
}
layer {
  name: "inception_3a/relu_3x3_reduce"
  type: "ReLU"
  bottom: "inception_3a/3x3_reduce"
  top: "inception_3a/3x3_reduce"
}
layer {
  name: "inception_3a/3x3"
  type: "Convolution"
  bottom: "inception_3a/3x3_reduce"
  top: "inception_3a/3x3"
  param {
    name: "inception_3a/3x3_w"
    lr_mult: 1
    decay_mult: 1
  }
  param {
    name: "inception_3a/3x3_b"
    lr_mult: 2
    decay_mult: 0
  }
  convolution_param {
    num_output: 128
    pad: 1
    kernel_size: 3
    weight_filler {
      type: "xavier"
    }
    bias_filler {
      type: "constant"
      value: 0.2
    }
  }
}
layer {
  name: "inception_3a/relu_3x3"
  type: "ReLU"
  bottom: "inception_3a/3x3"
  top: "inception_3a/3x3"
}
layer {
  name: "inception_3a/5x5_reduce"
  type: "Convolution"
  bottom: "pool2/3x3_s2"
  top: "inception_3a/5x5_reduce"
  param {
    name: "inception_3a/5x5_reduce_w"
    lr_mult: 1
    decay_mult: 1
  }
  param {
    name: "inception_3a/5x5_reduce_b"
    lr_mult: 2
    decay_mult: 0
  }
  convolution_param {
    num_output: 16
    kernel_size: 1
    weight_filler {
      type: "xavier"
    }
    bias_filler {
      type: "constant"
      value: 0.2
    }
  }
}
layer {
  name: "inception_3a/relu_5x5_reduce"
  type: "ReLU"
  bottom: "inception_3a/5x5_reduce"
  top: "inception_3a/5x5_reduce"
}
layer {
  name: "inception_3a/5x5"
  type: "Convolution"
  bottom: "inception_3a/5x5_reduce"
  top: "inception_3a/5x5"
  param {
    name: "inception_3a/5x5_w"
    lr_mult: 1
    decay_mult: 1
  }
  param {
    name: "inception_3a/5x5_b"
    lr_mult: 2
    decay_mult: 0
  }
  convolution_param {
    num_output: 32
    pad: 2
    kernel_size: 5
    weight_filler {
      type: "xavier"
    }
    bias_filler {
      type: "constant"
      value: 0.2
    }
  }
}
layer {
  name: "inception_3a/relu_5x5"
  type: "ReLU"
  bottom: "inception_3a/5x5"
  top: "inception_3a/5x5"
}
layer {
  name: "inception_3a/pool"
  type: "Pooling"
  bottom: "pool2/3x3_s2"
  top: "inception_3a/pool"
  pooling_param {
    pool: MAX
    kernel_size: 3
    stride: 1
    pad: 1
  }
}
layer {
  name: "inception_3a/pool_proj"
  type: "Convolution"
  bottom: "inception_3a/pool"
  top: "inception_3a/pool_proj"
  param {
    name: "inception_3a/pool_proj_w"
    lr_mult: 1
    decay_mult: 1
  }
  param {
    name: "inception_3a/pool_proj_b"
    lr_mult: 2
    decay_mult: 0
  }
  convolution_param {
    num_output: 32
    kernel_size: 1
    weight_filler {
      type: "xavier"
    }
    bias_filler {
      type: "constant"
      value: 0.2
    }
  }
}
layer {
  name: "inception_3a/relu_pool_proj"
  type: "ReLU"
  bottom: "inception_3a/pool_proj"
  top: "inception_3a/pool_proj"
}
layer {
  name: "inception_3a/output"
  type: "Concat"
  bottom: "inception_3a/1x1"
  bottom: "inception_3a/3x3"
  bottom: "inception_3a/5x5"
  bottom: "inception_3a/pool_proj"
  top: "inception_3a/output"
}
layer {
  name: "inception_3b/1x1"
  type: "Convolution"
  bottom: "inception_3a/output"
  top: "inception_3b/1x1"
  param {
    name: "inception_3b/1x1_w"
    lr_mult: 1
    decay_mult: 1
  }
  param {
    name: "inception_3b/1x1_b"
    lr_mult: 2
    decay_mult: 0
  }
  convolution_param {
    num_output: 128
    kernel_size: 1
    weight_filler {
      type: "xavier"
    }
    bias_filler {
      type: "constant"
      value: 0.2
    }
  }
}
layer {
  name: "inception_3b/relu_1x1"
  type: "ReLU"
  bottom: "inception_3b/1x1"
  top: "inception_3b/1x1"
}
layer {
  name: "inception_3b/3x3_reduce"
  type: "Convolution"
  bottom: "inception_3a/output"
  top: "inception_3b/3x3_reduce"
  param {
    name: "inception_3b/3x3_reduce_w"
    lr_mult: 1
    decay_mult: 1
  }
  param {
    name: "inception_3b/3x3_reduce_b"
    lr_mult: 2
    decay_mult: 0
  }
  convolution_param {
    num_output: 128
    kernel_size: 1
    weight_filler {
      type: "xavier"
    }
    bias_filler {
      type: "constant"
      value: 0.2
    }
  }
}
layer {
  name: "inception_3b/relu_3x3_reduce"
  type: "ReLU"
  bottom: "inception_3b/3x3_reduce"
  top: "inception_3b/3x3_reduce"
}
layer {
  name: "inception_3b/3x3"
  type: "Convolution"
  bottom: "inception_3b/3x3_reduce"
  top: "inception_3b/3x3"
  param {
    name: "inception_3b/3x3_w"
    lr_mult: 1
    decay_mult: 1
  }
  param {
    name: "inception_3b/3x3_b"
    lr_mult: 2
    decay_mult: 0
  }
  convolution_param {
    num_output: 192
    pad: 1
    kernel_size: 3
    weight_filler {
      type: "xavier"
    }
    bias_filler {
      type: "constant"
      value: 0.2
    }
  }
}
layer {
  name: "inception_3b/relu_3x3"
  type: "ReLU"
  bottom: "inception_3b/3x3"
  top: "inception_3b/3x3"
}
layer {
  name: "inception_3b/5x5_reduce"
  type: "Convolution"
  bottom: "inception_3a/output"
  top: "inception_3b/5x5_reduce"
  param {
    name: "inception_3b/5x5_reduce_w"
    lr_mult: 1
    decay_mult: 1
  }
  param {
    name: "inception_3b/5x5_reduce_b"
    lr_mult: 2
    decay_mult: 0
  }
  convolution_param {
    num_output: 32
    kernel_size: 1
    weight_filler {
      type: "xavier"
    }
    bias_filler {
      type: "constant"
      value: 0.2
    }
  }
}
layer {
  name: "inception_3b/relu_5x5_reduce"
  type: "ReLU"
  bottom: "inception_3b/5x5_reduce"
  top: "inception_3b/5x5_reduce"
}
layer {
  name: "inception_3b/5x5"
  type: "Convolution"
  bottom: "inception_3b/5x5_reduce"
  top: "inception_3b/5x5"
  param {
    name: "inception_3b/5x5_w"
    lr_mult: 1
    decay_mult: 1
  }
  param {
    name: "inception_3b/5x5_b"
    lr_mult: 2
    decay_mult: 0
  }
  convolution_param {
    num_output: 96
    pad: 2
    kernel_size: 5
    weight_filler {
      type: "xavier"
    }
    bias_filler {
      type: "constant"
      value: 0.2
    }
  }
}
layer {
  name: "inception_3b/relu_5x5"
  type: "ReLU"
  bottom: "inception_3b/5x5"
  top: "inception_3b/5x5"
}
layer {
  name: "inception_3b/pool"
  type: "Pooling"
  bottom: "inception_3a/output"
  top: "inception_3b/pool"
  pooling_param {
    pool: MAX
    kernel_size: 3
    stride: 1
    pad: 1
  }
}
layer {
  name: "inception_3b/pool_proj"
  type: "Convolution"
  bottom: "inception_3b/pool"
  top: "inception_3b/pool_proj"
  param {
    name: "inception_3b/pool_proj_w"
    lr_mult: 1
    decay_mult: 1
  }
  param {
    name: "inception_3b/pool_proj_b"
    lr_mult: 2
    decay_mult: 0
  }
  convolution_param {
    num_output: 64
    kernel_size: 1
    weight_filler {
      type: "xavier"
    }
    bias_filler {
      type: "constant"
      value: 0.2
    }
  }
}
layer {
  name: "inception_3b/relu_pool_proj"
  type: "ReLU"
  bottom: "inception_3b/pool_proj"
  top: "inception_3b/pool_proj"
}
layer {
  name: "inception_3b/output"
  type: "Concat"
  bottom: "inception_3b/1x1"
  bottom: "inception_3b/3x3"
  bottom: "inception_3b/5x5"
  bottom: "inception_3b/pool_proj"
  top: "inception_3b/output"
}
layer {
  name: "pool3/3x3_s2"
  type: "Pooling"
  bottom: "inception_3b/output"
  top: "pool3/3x3_s2"
  pooling_param {
    pool: MAX
    kernel_size: 3
    stride: 2
  }
}
layer {
  name: "inception_4a/1x1"
  type: "Convolution"
  bottom: "pool3/3x3_s2"
  top: "inception_4a/1x1"
  param {
    name: "inception_4a/1x1_w"
    lr_mult: 1
    decay_mult: 1
  }
  param {
    name: "inception_4a/1x1_b"
    lr_mult: 2
    decay_mult: 0
  }
  convolution_param {
    num_output: 192
    kernel_size: 1
    weight_filler {
      type: "xavier"
    }
    bias_filler {
      type: "constant"
      value: 0.2
    }
  }
}
layer {
  name: "inception_4a/relu_1x1"
  type: "ReLU"
  bottom: "inception_4a/1x1"
  top: "inception_4a/1x1"
}
layer {
  name: "inception_4a/3x3_reduce"
  type: "Convolution"
  bottom: "pool3/3x3_s2"
  top: "inception_4a/3x3_reduce"
  param {
    name: "inception_4a/3x3_reduce_w"
    lr_mult: 1
    decay_mult: 1
  }
  param {
    name: "inception_4a/3x3_reduce_b"
    lr_mult: 2
    decay_mult: 0
  }
  convolution_param {
    num_output: 96
    kernel_size: 1
    weight_filler {
      type: "xavier"
    }
    bias_filler {
      type: "constant"
      value: 0.2
    }
  }
}
layer {
  name: "inception_4a/relu_3x3_reduce"
  type: "ReLU"
  bottom: "inception_4a/3x3_reduce"
  top: "inception_4a/3x3_reduce"
}
layer {
  name: "inception_4a/3x3"
  type: "Convolution"
  bottom: "inception_4a/3x3_reduce"
  top: "inception_4a/3x3"
  param {
    name: "inception_4a/3x3_w"
    lr_mult: 1
    decay_mult: 1
  }
  param {
    name: "inception_4a/3x3_b"
    lr_mult: 2
    decay_mult: 0
  }
  convolution_param {
    num_output: 208
    pad: 1
    kernel_size: 3
    weight_filler {
      type: "xavier"
    }
    bias_filler {
      type: "constant"
      value: 0.2
    }
  }
}
layer {
  name: "inception_4a/relu_3x3"
  type: "ReLU"
  bottom: "inception_4a/3x3"
  top: "inception_4a/3x3"
}
layer {
  name: "inception_4a/5x5_reduce"
  type: "Convolution"
  bottom: "pool3/3x3_s2"
  top: "inception_4a/5x5_reduce"
  param {
    name: "inception_4a/5x5_reduce_w"
    lr_mult: 1
    decay_mult: 1
  }
  param {
    name: "inception_4a/5x5_reduce_b"
    lr_mult: 2
    decay_mult: 0
  }
  convolution_param {
    num_output: 16
    kernel_size: 1
    weight_filler {
      type: "xavier"
    }
    bias_filler {
      type: "constant"
      value: 0.2
    }
  }
}
layer {
  name: "inception_4a/relu_5x5_reduce"
  type: "ReLU"
  bottom: "inception_4a/5x5_reduce"
  top: "inception_4a/5x5_reduce"
}
layer {
  name: "inception_4a/5x5"
  type: "Convolution"
  bottom: "inception_4a/5x5_reduce"
  top: "inception_4a/5x5"
  param {
    name: "inception_4a/5x5_w"
    lr_mult: 1
    decay_mult: 1
  }
  param {
    name: "inception_4a/5x5_b"
    lr_mult: 2
    decay_mult: 0
  }
  convolution_param {
    num_output: 48
    pad: 2
    kernel_size: 5
    weight_filler {
      type: "xavier"
    }
    bias_filler {
      type: "constant"
      value: 0.2
    }
  }
}
layer {
  name: "inception_4a/relu_5x5"
  type: "ReLU"
  bottom: "inception_4a/5x5"
  top: "inception_4a/5x5"
}
layer {
  name: "inception_4a/pool"
  type: "Pooling"
  bottom: "pool3/3x3_s2"
  top: "inception_4a/pool"
  pooling_param {
    pool: MAX
    kernel_size: 3
    stride: 1
    pad: 1
  }
}
layer {
  name: "inception_4a/pool_proj"
  type: "Convolution"
  bottom: "inception_4a/pool"
  top: "inception_4a/pool_proj"
  param {
    name: "inception_4a/pool_proj_w"
    lr_mult: 1
    decay_mult: 1
  }
  param {
    name: "inception_4a/pool_proj_b"
    lr_mult: 2
    decay_mult: 0
  }
  convolution_param {
    num_output: 64
    kernel_size: 1
    weight_filler {
      type: "xavier"
    }
    bias_filler {
      type: "constant"
      value: 0.2
    }
  }
}
layer {
  name: "inception_4a/relu_pool_proj"
  type: "ReLU"
  bottom: "inception_4a/pool_proj"
  top: "inception_4a/pool_proj"
}
layer {
  name: "inception_4a/output"
  type: "Concat"
  bottom: "inception_4a/1x1"
  bottom: "inception_4a/3x3"
  bottom: "inception_4a/5x5"
  bottom: "inception_4a/pool_proj"
  top: "inception_4a/output"
}
layer {
  name: "inception_4b/1x1"
  type: "Convolution"
  bottom: "inception_4a/output"
  top: "inception_4b/1x1"
  param {
    name: "inception_4b/1x1_w"
    lr_mult: 1
    decay_mult: 1
  }
  param {
    name: "inception_4b/1x1_b"
    lr_mult: 2
    decay_mult: 0
  }
  convolution_param {
    num_output: 160
    kernel_size: 1
    weight_filler {
      type: "xavier"
    }
    bias_filler {
      type: "constant"
      value: 0.2
    }
  }
}
layer {
  name: "inception_4b/relu_1x1"
  type: "ReLU"
  bottom: "inception_4b/1x1"
  top: "inception_4b/1x1"
}
layer {
  name: "inception_4b/3x3_reduce"
  type: "Convolution"
  bottom: "inception_4a/output"
  top: "inception_4b/3x3_reduce"
  param {
    name: "inception_4b/3x3_reduce_w"
    lr_mult: 1
    decay_mult: 1
  }
  param {
    name: "inception_4b/3x3_reduce_b"
    lr_mult: 2
    decay_mult: 0
  }
  convolution_param {
    num_output: 112
    kernel_size: 1
    weight_filler {
      type: "xavier"
    }
    bias_filler {
      type: "constant"
      value: 0.2
    }
  }
}
layer {
  name: "inception_4b/relu_3x3_reduce"
  type: "ReLU"
  bottom: "inception_4b/3x3_reduce"
  top: "inception_4b/3x3_reduce"
}
layer {
  name: "inception_4b/3x3"
  type: "Convolution"
  bottom: "inception_4b/3x3_reduce"
  top: "inception_4b/3x3"
  param {
    name: "inception_4b/3x3_w"
    lr_mult: 1
    decay_mult: 1
  }
  param {
    name: "inception_4b/3x3_b"
    lr_mult: 2
    decay_mult: 0
  }
  convolution_param {
    num_output: 224
    pad: 1
    kernel_size: 3
    weight_filler {
      type: "xavier"
    }
    bias_filler {
      type: "constant"
      value: 0.2
    }
  }
}
layer {
  name: "inception_4b/relu_3x3"
  type: "ReLU"
  bottom: "inception_4b/3x3"
  top: "inception_4b/3x3"
}
layer {
  name: "inception_4b/5x5_reduce"
  type: "Convolution"
  bottom: "inception_4a/output"
  top: "inception_4b/5x5_reduce"
  param {
    name: "inception_4b/5x5_reduce_w"
    lr_mult: 1
    decay_mult: 1
  }
  param {
    name: "inception_4b/5x5_reduce_b"
    lr_mult: 2
    decay_mult: 0
  }
  convolution_param {
    num_output: 24
    kernel_size: 1
    weight_filler {
      type: "xavier"
    }
    bias_filler {
      type: "constant"
      value: 0.2
    }
  }
}
layer {
  name: "inception_4b/relu_5x5_reduce"
  type: "ReLU"
  bottom: "inception_4b/5x5_reduce"
  top: "inception_4b/5x5_reduce"
}
layer {
  name: "inception_4b/5x5"
  type: "Convolution"
  bottom: "inception_4b/5x5_reduce"
  top: "inception_4b/5x5"
  param {
    name: "inception_4b/5x5_w"
    lr_mult: 1
    decay_mult: 1
  }
  param {
    name: "inception_4b/5x5_b"
    lr_mult: 2
    decay_mult: 0
  }
  convolution_param {
    num_output: 64
    pad: 2
    kernel_size: 5
    weight_filler {
      type: "xavier"
    }
    bias_filler {
      type: "constant"
      value: 0.2
    }
  }
}
layer {
  name: "inception_4b/relu_5x5"
  type: "ReLU"
  bottom: "inception_4b/5x5"
  top: "inception_4b/5x5"
}
layer {
  name: "inception_4b/pool"
  type: "Pooling"
  bottom: "inception_4a/output"
  top: "inception_4b/pool"
  pooling_param {
    pool: MAX
    kernel_size: 3
    stride: 1
    pad: 1
  }
}
layer {
  name: "inception_4b/pool_proj"
  type: "Convolution"
  bottom: "inception_4b/pool"
  top: "inception_4b/pool_proj"
  param {
    name: "inception_4b/pool_proj_w"
    lr_mult: 1
    decay_mult: 1
  }
  param {
    name: "inception_4b/pool_proj_b"
    lr_mult: 2
    decay_mult: 0
  }
  convolution_param {
    num_output: 64
    kernel_size: 1
    weight_filler {
      type: "xavier"
    }
    bias_filler {
      type: "constant"
      value: 0.2
    }
  }
}
layer {
  name: "inception_4b/relu_pool_proj"
  type: "ReLU"
  bottom: "inception_4b/pool_proj"
  top: "inception_4b/pool_proj"
}
layer {
  name: "inception_4b/output"
  type: "Concat"
  bottom: "inception_4b/1x1"
  bottom: "inception_4b/3x3"
  bottom: "inception_4b/5x5"
  bottom: "inception_4b/pool_proj"
  top: "inception_4b/output"
}
layer {
  name: "inception_4c/1x1"
  type: "Convolution"
  bottom: "inception_4b/output"
  top: "inception_4c/1x1"
  param {
    name: "inception_4c/1x1_w"
    lr_mult: 1
    decay_mult: 1
  }
  param {
    name: "inception_4c/1x1_b"
    lr_mult: 2
    decay_mult: 0
  }
  convolution_param {
    num_output: 128
    kernel_size: 1
    weight_filler {
      type: "xavier"
    }
    bias_filler {
      type: "constant"
      value: 0.2
    }
  }
}
layer {
  name: "inception_4c/relu_1x1"
  type: "ReLU"
  bottom: "inception_4c/1x1"
  top: "inception_4c/1x1"
}
layer {
  name: "inception_4c/3x3_reduce"
  type: "Convolution"
  bottom: "inception_4b/output"
  top: "inception_4c/3x3_reduce"
  param {
    name: "inception_4c/3x3_reduce_w"
    lr_mult: 1
    decay_mult: 1
  }
  param {
    name: "inception_4c/3x3_reduce_b"
    lr_mult: 2
    decay_mult: 0
  }
  convolution_param {
    num_output: 128
    kernel_size: 1
    weight_filler {
      type: "xavier"
    }
    bias_filler {
      type: "constant"
      value: 0.2
    }
  }
}
layer {
  name: "inception_4c/relu_3x3_reduce"
  type: "ReLU"
  bottom: "inception_4c/3x3_reduce"
  top: "inception_4c/3x3_reduce"
}
layer {
  name: "inception_4c/3x3"
  type: "Convolution"
  bottom: "inception_4c/3x3_reduce"
  top: "inception_4c/3x3"
  param {
    name: "inception_4c/3x3_w"
    lr_mult: 1
    decay_mult: 1
  }
  param {
    name: "inception_4c/3x3_b"
    lr_mult: 2
    decay_mult: 0
  }
  convolution_param {
    num_output: 256
    pad: 1
    kernel_size: 3
    weight_filler {
      type: "xavier"
    }
    bias_filler {
      type: "constant"
      value: 0.2
    }
  }
}
layer {
  name: "inception_4c/relu_3x3"
  type: "ReLU"
  bottom: "inception_4c/3x3"
  top: "inception_4c/3x3"
}
layer {
  name: "inception_4c/5x5_reduce"
  type: "Convolution"
  bottom: "inception_4b/output"
  top: "inception_4c/5x5_reduce"
  param {
    name: "inception_4c/5x5_reduce_w"
    lr_mult: 1
    decay_mult: 1
  }
  param {
    name: "inception_4c/5x5_reduce_b"
    lr_mult: 2
    decay_mult: 0
  }
  convolution_param {
    num_output: 24
    kernel_size: 1
    weight_filler {
      type: "xavier"
    }
    bias_filler {
      type: "constant"
      value: 0.2
    }
  }
}
layer {
  name: "inception_4c/relu_5x5_reduce"
  type: "ReLU"
  bottom: "inception_4c/5x5_reduce"
  top: "inception_4c/5x5_reduce"
}
layer {
  name: "inception_4c/5x5"
  type: "Convolution"
  bottom: "inception_4c/5x5_reduce"
  top: "inception_4c/5x5"
  param {
    name: "inception_4c/5x5_w"
    lr_mult: 1
    decay_mult: 1
  }
  param {
    name: "inception_4c/5x5_b"
    lr_mult: 2
    decay_mult: 0
  }
  convolution_param {
    num_output: 64
    pad: 2
    kernel_size: 5
    weight_filler {
      type: "xavier"
    }
    bias_filler {
      type: "constant"
      value: 0.2
    }
  }
}
layer {
  name: "inception_4c/relu_5x5"
  type: "ReLU"
  bottom: "inception_4c/5x5"
  top: "inception_4c/5x5"
}
layer {
  name: "inception_4c/pool"
  type: "Pooling"
  bottom: "inception_4b/output"
  top: "inception_4c/pool"
  pooling_param {
    pool: MAX
    kernel_size: 3
    stride: 1
    pad: 1
  }
}
layer {
  name: "inception_4c/pool_proj"
  type: "Convolution"
  bottom: "inception_4c/pool"
  top: "inception_4c/pool_proj"
  param {
    name: "inception_4c/pool_proj_w"
    lr_mult: 1
    decay_mult: 1
  }
  param {
    name: "inception_4c/pool_proj_b"
    lr_mult: 2
    decay_mult: 0
  }
  convolution_param {
    num_output: 64
    kernel_size: 1
    weight_filler {
      type: "xavier"
    }
    bias_filler {
      type: "constant"
      value: 0.2
    }
  }
}
layer {
  name: "inception_4c/relu_pool_proj"
  type: "ReLU"
  bottom: "inception_4c/pool_proj"
  top: "inception_4c/pool_proj"
}
layer {
  name: "inception_4c/output"
  type: "Concat"
  bottom: "inception_4c/1x1"
  bottom: "inception_4c/3x3"
  bottom: "inception_4c/5x5"
  bottom: "inception_4c/pool_proj"
  top: "inception_4c/output"
}
layer {
  name: "inception_4d/1x1"
  type: "Convolution"
  bottom: "inception_4c/output"
  top: "inception_4d/1x1"
  param {
    name: "inception_4d/1x1_w"
    lr_mult: 1
    decay_mult: 1
  }
  param {
    name: "inception_4d/1x1_b"
    lr_mult: 2
    decay_mult: 0
  }
  convolution_param {
    num_output: 112
    kernel_size: 1
    weight_filler {
      type: "xavier"
    }
    bias_filler {
      type: "constant"
      value: 0.2
    }
  }
}
layer {
  name: "inception_4d/relu_1x1"
  type: "ReLU"
  bottom: "inception_4d/1x1"
  top: "inception_4d/1x1"
}
layer {
  name: "inception_4d/3x3_reduce"
  type: "Convolution"
  bottom: "inception_4c/output"
  top: "inception_4d/3x3_reduce"
  param {
    name: "inception_4d/3x3_reduce_w"
    lr_mult: 1
    decay_mult: 1
  }
  param {
    name: "inception_4d/3x3_reduce_b"
    lr_mult: 2
    decay_mult: 0
  }
  convolution_param {
    num_output: 144
    kernel_size: 1
    weight_filler {
      type: "xavier"
    }
    bias_filler {
      type: "constant"
      value: 0.2
    }
  }
}
layer {
  name: "inception_4d/relu_3x3_reduce"
  type: "ReLU"
  bottom: "inception_4d/3x3_reduce"
  top: "inception_4d/3x3_reduce"
}
layer {
  name: "inception_4d/3x3"
  type: "Convolution"
  bottom: "inception_4d/3x3_reduce"
  top: "inception_4d/3x3"
  param {
    name: "inception_4d/3x3_w"
    lr_mult: 1
    decay_mult: 1
  }
  param {
    name: "inception_4d/3x3_b"
    lr_mult: 2
    decay_mult: 0
  }
  convolution_param {
    num_output: 288
    pad: 1
    kernel_size: 3
    weight_filler {
      type: "xavier"
    }
    bias_filler {
      type: "constant"
      value: 0.2
    }
  }
}
layer {
  name: "inception_4d/relu_3x3"
  type: "ReLU"
  bottom: "inception_4d/3x3"
  top: "inception_4d/3x3"
}
layer {
  name: "inception_4d/5x5_reduce"
  type: "Convolution"
  bottom: "inception_4c/output"
  top: "inception_4d/5x5_reduce"
  param {
    name: "inception_4d/5x5_reduce_w"
    lr_mult: 1
    decay_mult: 1
  }
  param {
    name: "inception_4d/5x5_reduce_b"
    lr_mult: 2
    decay_mult: 0
  }
  convolution_param {
    num_output: 32
    kernel_size: 1
    weight_filler {
      type: "xavier"
    }
    bias_filler {
      type: "constant"
      value: 0.2
    }
  }
}
layer {
  name: "inception_4d/relu_5x5_reduce"
  type: "ReLU"
  bottom: "inception_4d/5x5_reduce"
  top: "inception_4d/5x5_reduce"
}
layer {
  name: "inception_4d/5x5"
  type: "Convolution"
  bottom: "inception_4d/5x5_reduce"
  top: "inception_4d/5x5"
  param {
    name: "inception_4d/5x5_w"
    lr_mult: 1
    decay_mult: 1
  }
  param {
    name: "inception_4d/5x5_b"
    lr_mult: 2
    decay_mult: 0
  }
  convolution_param {
    num_output: 64
    pad: 2
    kernel_size: 5
    weight_filler {
      type: "xavier"
    }
    bias_filler {
      type: "constant"
      value: 0.2
    }
  }
}
layer {
  name: "inception_4d/relu_5x5"
  type: "ReLU"
  bottom: "inception_4d/5x5"
  top: "inception_4d/5x5"
}
layer {
  name: "inception_4d/pool"
  type: "Pooling"
  bottom: "inception_4c/output"
  top: "inception_4d/pool"
  pooling_param {
    pool: MAX
    kernel_size: 3
    stride: 1
    pad: 1
  }
}
layer {
  name: "inception_4d/pool_proj"
  type: "Convolution"
  bottom: "inception_4d/pool"
  top: "inception_4d/pool_proj"
  param {
    name: "inception_4d/pool_proj_w"
    lr_mult: 1
    decay_mult: 1
  }
  param {
    name: "inception_4d/pool_proj_b"
    lr_mult: 2
    decay_mult: 0
  }
  convolution_param {
    num_output: 64
    kernel_size: 1
    weight_filler {
      type: "xavier"
    }
    bias_filler {
      type: "constant"
      value: 0.2
    }
  }
}
layer {
  name: "inception_4d/relu_pool_proj"
  type: "ReLU"
  bottom: "inception_4d/pool_proj"
  top: "inception_4d/pool_proj"
}
layer {
  name: "inception_4d/output"
  type: "Concat"
  bottom: "inception_4d/1x1"
  bottom: "inception_4d/3x3"
  bottom: "inception_4d/5x5"
  bottom: "inception_4d/pool_proj"
  top: "inception_4d/output"
}
layer {
  name: "inception_4e/1x1"
  type: "Convolution"
  bottom: "inception_4d/output"
  top: "inception_4e/1x1"
  param {
    name: "inception_4e/1x1_w"
    lr_mult: 1
    decay_mult: 1
  }
  param {
    name: "inception_4e/1x1_b"
    lr_mult: 2
    decay_mult: 0
  }
  convolution_param {
    num_output: 256
    kernel_size: 1
    weight_filler {
      type: "xavier"
    }
    bias_filler {
      type: "constant"
      value: 0.2
    }
  }
}
layer {
  name: "inception_4e/relu_1x1"
  type: "ReLU"
  bottom: "inception_4e/1x1"
  top: "inception_4e/1x1"
}
layer {
  name: "inception_4e/3x3_reduce"
  type: "Convolution"
  bottom: "inception_4d/output"
  top: "inception_4e/3x3_reduce"
  param {
    name: "inception_4e/3x3_reduce_w"
    lr_mult: 1
    decay_mult: 1
  }
  param {
    name: "inception_4e/3x3_reduce_b"
    lr_mult: 2
    decay_mult: 0
  }
  convolution_param {
    num_output: 160
    kernel_size: 1
    weight_filler {
      type: "xavier"
    }
    bias_filler {
      type: "constant"
      value: 0.2
    }
  }
}
layer {
  name: "inception_4e/relu_3x3_reduce"
  type: "ReLU"
  bottom: "inception_4e/3x3_reduce"
  top: "inception_4e/3x3_reduce"
}
layer {
  name: "inception_4e/3x3"
  type: "Convolution"
  bottom: "inception_4e/3x3_reduce"
  top: "inception_4e/3x3"
  param {
    name: "inception_4e/3x3_w"
    lr_mult: 1
    decay_mult: 1
  }
  param {
    name: "inception_4e/3x3_b"
    lr_mult: 2
    decay_mult: 0
  }
  convolution_param {
    num_output: 320
    pad: 1
    kernel_size: 3
    weight_filler {
      type: "xavier"
    }
    bias_filler {
      type: "constant"
      value: 0.2
    }
  }
}
layer {
  name: "inception_4e/relu_3x3"
  type: "ReLU"
  bottom: "inception_4e/3x3"
  top: "inception_4e/3x3"
}
layer {
  name: "inception_4e/5x5_reduce"
  type: "Convolution"
  bottom: "inception_4d/output"
  top: "inception_4e/5x5_reduce"
  param {
    name: "inception_4e/5x5_reduce_w"
    lr_mult: 1
    decay_mult: 1
  }
  param {
    name: "inception_4e/5x5_reduce_b"
    lr_mult: 2
    decay_mult: 0
  }
  convolution_param {
    num_output: 32
    kernel_size: 1
    weight_filler {
      type: "xavier"
    }
    bias_filler {
      type: "constant"
      value: 0.2
    }
  }
}
layer {
  name: "inception_4e/relu_5x5_reduce"
  type: "ReLU"
  bottom: "inception_4e/5x5_reduce"
  top: "inception_4e/5x5_reduce"
}
layer {
  name: "inception_4e/5x5"
  type: "Convolution"
  bottom: "inception_4e/5x5_reduce"
  top: "inception_4e/5x5"
  param {
    name: "inception_4e/5x5_w"
    lr_mult: 1
    decay_mult: 1
  }
  param {
    name: "inception_4e/5x5_b"
    lr_mult: 2
    decay_mult: 0
  }
  convolution_param {
    num_output: 128
    pad: 2
    kernel_size: 5
    weight_filler {
      type: "xavier"
    }
    bias_filler {
      type: "constant"
      value: 0.2
    }
  }
}
layer {
  name: "inception_4e/relu_5x5"
  type: "ReLU"
  bottom: "inception_4e/5x5"
  top: "inception_4e/5x5"
}
layer {
  name: "inception_4e/pool"
  type: "Pooling"
  bottom: "inception_4d/output"
  top: "inception_4e/pool"
  pooling_param {
    pool: MAX
    kernel_size: 3
    stride: 1
    pad: 1
  }
}
layer {
  name: "inception_4e/pool_proj"
  type: "Convolution"
  bottom: "inception_4e/pool"
  top: "inception_4e/pool_proj"
  param {
    name: "inception_4e/pool_proj_w"
    lr_mult: 1
    decay_mult: 1
  }
  param {
    name: "inception_4e/pool_proj_b"
    lr_mult: 2
    decay_mult: 0
  }
  convolution_param {
    num_output: 128
    kernel_size: 1
    weight_filler {
      type: "xavier"
    }
    bias_filler {
      type: "constant"
      value: 0.2
    }
  }
}
layer {
  name: "inception_4e/relu_pool_proj"
  type: "ReLU"
  bottom: "inception_4e/pool_proj"
  top: "inception_4e/pool_proj"
}
layer {
  name: "inception_4e/output"
  type: "Concat"
  bottom: "inception_4e/1x1"
  bottom: "inception_4e
I1130 20:14:21.814719 30472 layer_factory.hpp:77] Creating layer data
I1130 20:14:22.920068 30472 net.cpp:100] Creating Layer data
I1130 20:14:22.920119 30472 net.cpp:408] data -> data
I1130 20:14:22.920156 30472 net.cpp:408] data -> data_p
I1130 20:14:22.920176 30472 net.cpp:408] data -> label
data list is loading:  1/100:->data list is loading:  2/100:#->data list is loading:  3/1
…
ata list is loading: 98/100:#################################################->data list is loading: 99/100:#################################################->data list is loading:100/100:##################################################->video_list:dataset/cuhk03/split/img_seq/set02_train_noval_pair.txt
list example:
{'frames': ['dataset/cuhk03/data/campair_1/01_0416_09.jpg'], 'reshape': (160, 80), 'frames_p': ['dataset/cuhk03/data/campair_2/02_0191_01.jpg'], 'crop': (160, 80), 'label': [0]}
I1130 20:14:43.633754 30472 net.cpp:150] Setting up data
I1130 20:14:43.633823 30472 net.cpp:157] Top shape: 100 3 160 80 (3840000)
I1130 20:14:43.633836 30472 net.cpp:157] Top shape: 100 3 160 80 (3840000)
I1130 20:14:43.633843 30472 net.cpp:157] Top shape: 100 (100)
I1130 20:14:43.633851 30472 net.cpp:165] Memory required for data: 30720400
I1130 20:14:43.633872 30472 layer_factory.hpp:77] Creating layer label_data_2_split
I1130 20:14:43.633904 30472 net.cpp:100] Creating Layer label_data_2_split
I1130 20:14:43.633920 30472 net.cpp:434] label_data_2_split <- label
I1130 20:14:43.633946 30472 net.cpp:408] label_data_2_split -> label_data_2_split_0
I1130 20:14:43.633976 30472 net.cpp:408] label_data_2_split -> label_data_2_split_1
I1130 20:14:43.634032 30472 net.cpp:150] Setting up label_data_2_split
I1130 20:14:43.634043 30472 net.cpp:157] Top shape: 100 (100)
I1130 20:14:43.634049 30472 net.cpp:157] Top shape: 100 (100)
I1130 20:14:43.634055 30472 net.cpp:165] Memory required for data: 30721200
I1130 20:14:43.634071 30472 layer_factory.hpp:77] Creating layer conv1/7x7_s2
I1130 20:14:43.634099 30472 net.cpp:100] Creating Layer conv1/7x7_s2
I1130 20:14:43.634105 30472 net.cpp:434] conv1/7x7_s2 <- data
I1130 20:14:43.634122 30472 net.cpp:408] conv1/7x7_s2 -> conv1/7x7_s2
I1130 20:14:44.104373 30472 net.cpp:150] Setting up conv1/7x7_s2
I1130 20:14:44.104434 30472 net.cpp:157] Top shape: 100 64 80 40 (20480000)
I1130 20:14:44.104442 30472 net.cpp:165] Memory required for data: 112641200
I1130 20:14:44.104473 30472 layer_factory.hpp:77] Creating layer conv1/relu_7x7
I1130 20:14:44.104490 30472 net.cpp:100] Creating Layer conv1/relu_7x7
I1130 20:14:44.104498 30472 net.cpp:434] conv1/relu_7x7 <- conv1/7x7_s2
I1130 20:14:44.104521 30472 net.cpp:395] conv1/relu_7x7 -> conv1/7x7_s2 (in-place)
I1130 20:14:44.105782 30472 net.cpp:150] Setting up conv1/relu_7x7
I1130 20:14:44.105818 30472 net.cpp:157] Top shape: 100 64 80 40 (20480000)
I1130 20:14:44.105824 30472 net.cpp:165] Memory required for data: 194561200
I1130 20:14:44.105830 30472 layer_factory.hpp:77] Creating layer pool1/3x3_s2
I1130 20:14:44.105844 30472 net.cpp:100] Creating Layer pool1/3x3_s2
I1130 20:14:44.105851 30472 net.cpp:434] pool1/3x3_s2 <- conv1/7x7_s2
I1130 20:14:44.105867 30472 net.cpp:408] pool1/3x3_s2 -> pool1/3x3_s2
I1130 20:14:44.105926 30472 net.cpp:150] Setting up pool1/3x3_s2
I1130 20:14:44.105937 30472 net.cpp:157] Top shape: 100 64 40 20 (5120000)
I1130 20:14:44.105942 30472 net.cpp:165] Memory required for data: 215041200
I1130 20:14:44.105948 30472 layer_factory.hpp:77] Creating layer pool1/norm1
I1130 20:14:44.105967 30472 net.cpp:100] Creating Layer pool1/norm1
I1130 20:14:44.105973 30472 net.cpp:434] pool1/norm1 <- pool1/3x3_s2
I1130 20:14:44.105983 30472 net.cpp:408] pool1/norm1 -> pool1/norm1
I1130 20:14:44.106143 30472 net.cpp:150] Setting up pool1/norm1
I1130 20:14:44.106163 30472 net.cpp:157] Top shape: 100 64 40 20 (5120000)
I1130 20:14:44.106169 30472 net.cpp:165] Memory required for data: 235521200
I1130 20:14:44.106176 30472 layer_factory.hpp:77] Creating layer conv2/3x3_reduce
I1130 20:14:44.106197 30472 net.cpp:100] Creating Layer conv2/3x3_reduce
I1130 20:14:44.106204 30472 net.cpp:434] conv2/3x3_reduce <- pool1/norm1
I1130 20:14:44.106212 30472 net.cpp:408] conv2/3x3_reduce -> conv2/3x3_reduce
I1130 20:14:44.107484 30472 net.cpp:150] Setting up conv2/3x3_reduce
I1130 20:14:44.107517 30472 net.cpp:157] Top shape: 100 64 40 20 (5120000)
I1130 20:14:44.107523 30472 net.cpp:165] Memory required for data: 256001200
I1130 20:14:44.107543 30472 layer_factory.hpp:77] Creating layer conv2/relu_3x3_reduce
I1130 20:14:44.107553 30472 net.cpp:100] Creating Layer conv2/relu_3x3_reduce
I1130 20:14:44.107559 30472 net.cpp:434] conv2/relu_3x3_reduce <- conv2/3x3_reduce
I1130 20:14:44.107570 30472 net.cpp:395] conv2/relu_3x3_reduce -> conv2/3x3_reduce (in-place)
I1130 20:14:44.107836 30472 net.cpp:150] Setting up conv2/relu_3x3_reduce
I1130 20:14:44.107866 30472 net.cpp:157] Top shape: 100 64 40 20 (5120000)
I1130 20:14:44.107872 30472 net.cpp:165] Memory required for data: 276481200
I1130 20:14:44.107879 30472 layer_factory.hpp:77] Creating layer conv2/3x3
I1130 20:14:44.107902 30472 net.cpp:100] Creating Layer conv2/3x3
I1130 20:14:44.107908 30472 net.cpp:434] conv2/3x3 <- conv2/3x3_reduce
I1130 20:14:44.107916 30472 net.cpp:408] conv2/3x3 -> conv2/3x3
I1130 20:14:44.109850 30472 net.cpp:150] Setting up conv2/3x3
I1130 20:14:44.109902 30472 net.cpp:157] Top shape: 100 192 40 20 (15360000)
I1130 20:14:44.109910 30472 net.cpp:165] Memory required for data: 337921200
I1130 20:14:44.109937 30472 layer_factory.hpp:77] Creating layer conv2/relu_3x3
I1130 20:14:44.109951 30472 net.cpp:100] Creating Layer conv2/relu_3x3
I1130 20:14:44.109959 30472 net.cpp:434] conv2/relu_3x3 <- conv2/3x3
I1130 20:14:44.109967 30472 net.cpp:395] conv2/relu_3x3 -> conv2/3x3 (in-place)
I1130 20:14:44.110232 30472 net.cpp:150] Setting up conv2/relu_3x3
I1130 20:14:44.110260 30472 net.cpp:157] Top shape: 100 192 40 20 (15360000)
I1130 20:14:44.110266 30472 net.cpp:165] Memory required for data: 399361200
I1130 20:14:44.110273 30472 layer_factory.hpp:77] Creating layer pool2/3x3_s2
I1130 20:14:44.110282 30472 net.cpp:100] Creating Layer pool2/3x3_s2
I1130 20:14:44.110288 30472 net.cpp:434] pool2/3x3_s2 <- conv2/3x3
I1130 20:14:44.110296 30472 net.cpp:408] pool2/3x3_s2 -> pool2/3x3_s2
I1130 20:14:44.110337 30472 net.cpp:150] Setting up pool2/3x3_s2
I1130 20:14:44.110347 30472 net.cpp:157] Top shape: 100 192 20 10 (3840000)
I1130 20:14:44.110353 30472 net.cpp:165] Memory required for data: 414721200
I1130 20:14:44.110358 30472 layer_factory.hpp:77] Creating layer pool2/3x3_s2_pool2/3x3_s2_0_split
I1130 20:14:44.110366 30472 net.cpp:100] Creating Layer pool2/3x3_s2_pool2/3x3_s2_0_split
I1130 20:14:44.110388 30472 net.cpp:434] pool2/3x3_s2_pool2/3x3_s2_0_split <- pool2/3x3_s2
I1130 20:14:44.110407 30472 net.cpp:408] pool2/3x3_s2_pool2/3x3_s2_0_split -> pool2/3x3_s2_pool2/3x3_s2_0_split_0
I1130 20:14:44.110416 30472 net.cpp:408] pool2/3x3_s2_pool2/3x3_s2_0_split -> pool2/3x3_s2_pool2/3x3_s2_0_split_1
I1130 20:14:44.110432 30472 net.cpp:408] pool2/3x3_s2_pool2/3x3_s2_0_split -> pool2/3x3_s2_pool2/3x3_s2_0_split_2
I1130 20:14:44.110440 30472 net.cpp:408] pool2/3x3_s2_pool2/3x3_s2_0_split -> pool2/3x3_s2_pool2/3x3_s2_0_split_3
I1130 20:14:44.110488 30472 net.cpp:150] Setting up pool2/3x3_s2_pool2/3x3_s2_0_split
I1130 20:14:44.110497 30472 net.cpp:157] Top shape: 100 192 20 10 (3840000)
I1130 20:14:44.110504 30472 net.cpp:157] Top shape: 100 192 20 10 (3840000)
I1130 20:14:44.110510 30472 net.cpp:157] Top shape: 100 192 20 10 (3840000)
I1130 20:14:44.110517 30472 net.cpp:157] Top shape: 100 192 20 10 (3840000)
I1130 20:14:44.110522 30472 net.cpp:165] Memory required for data: 476161200
I1130 20:14:44.110527 30472 layer_factory.hpp:77] Creating layer inception_3a/1x1
I1130 20:14:44.110548 30472 net.cpp:100] Creating Layer inception_3a/1x1
I1130 20:14:44.110555 30472 net.cpp:434] inception_3a/1x1 <- pool2/3x3_s2_pool2/3x3_s2_0_split_0
I1130 20:14:44.110565 30472 net.cpp:408] inception_3a/1x1 -> inception_3a/1x1
I1130 20:14:44.111599 30472 net.cpp:150] Setting up inception_3a/1x1
I1130 20:14:44.111629 30472 net.cpp:157] Top shape: 100 64 20 10 (1280000)
I1130 20:14:44.111636 30472 net.cpp:165] Memory required for data: 481281200
I1130 20:14:44.111654 30472 layer_factory.hpp:77] Creating layer inception_3a/relu_1x1
I1130 20:14:44.111666 30472 net.cpp:100] Creating Layer inception_3a/relu_1x1
I1130 20:14:44.111673 30472 net.cpp:434] inception_3a/relu_1x1 <- inception_3a/1x1
I1130 20:14:44.111680 30472 net.cpp:395] inception_3a/relu_1x1 -> inception_3a/1x1 (in-place)
I1130 20:14:44.111820 30472 net.cpp:150] Setting up inception_3a/relu_1x1
I1130 20:14:44.111837 30472 net.cpp:157] Top shape: 100 64 20 10 (1280000)
I1130 20:14:44.111845 30472 net.cpp:165] Memory required for data: 486401200
I1130 20:14:44.111860 30472 layer_factory.hpp:77] Creating layer inception_3a/3x3_reduce
I1130 20:14:44.111876 30472 net.cpp:100] Creating Layer inception_3a/3x3_reduce
I1130 20:14:44.111883 30472 net.cpp:434] inception_3a/3x3_reduce <- pool2/3x3_s2_pool2/3x3_s2_0_split_1
I1130 20:14:44.111891 30472 net.cpp:408] inception_3a/3x3_reduce -> inception_3a/3x3_reduce
I1130 20:14:44.113199 30472 net.cpp:150] Setting up inception_3a/3x3_reduce
I1130 20:14:44.113224 30472 net.cpp:157] Top shape: 100 96 20 10 (1920000)
I1130 20:14:44.113231 30472 net.cpp:165] Memory required for data: 494081200
I1130 20:14:44.113251 30472 layer_factory.hpp:77] Creating layer inception_3a/relu_3x3_reduce
I1130 20:14:44.113262 30472 net.cpp:100] Creating Layer inception_3a/relu_3x3_reduce
I1130 20:14:44.113268 30472 net.cpp:434] inception_3a/relu_3x3_reduce <- inception_3a/3x3_reduce
I1130 20:14:44.113278 30472 net.cpp:395] inception_3a/relu_3x3_reduce -> inception_3a/3x3_reduce (in-place)
I1130 20:14:44.113633 30472 net.cpp:150] Setting up inception_3a/relu_3x3_reduce
I1130 20:14:44.113662 30472 net.cpp:157] Top shape: 100 96 20 10 (1920000)
I1130 20:14:44.113669 30472 net.cpp:165] Memory required for data: 501761200
I1130 20:14:44.113678 30472 layer_factory.hpp:77] Creating layer inception_3a/3x3
I1130 20:14:44.113703 30472 net.cpp:100] Creating Layer inception_3a/3x3
I1130 20:14:44.113710 30472 net.cpp:434] inception_3a/3x3 <- inception_3a/3x3_reduce
I1130 20:14:44.113718 30472 net.cpp:408] inception_3a/3x3 -> inception_3a/3x3
I1130 20:14:44.115244 30472 net.cpp:150] Setting up inception_3a/3x3
I1130 20:14:44.115283 30472 net.cpp:157] Top shape: 100 128 20 10 (2560000)
I1130 20:14:44.115289 30472 net.cpp:165] Memory required for data: 512001200
I1130 20:14:44.115299 30472 layer_factory.hpp:77] Creating layer inception_3a/relu_3x3
I1130 20:14:44.115309 30472 net.cpp:100] Creating Layer inception_3a/relu_3x3
I1130 20:14:44.115332 30472 net.cpp:434] inception_3a/relu_3x3 <- inception_3a/3x3
I1130 20:14:44.115351 30472 net.cpp:395] inception_3a/relu_3x3 -> inception_3a/3x3 (in-place)
I1130 20:14:44.115633 30472 net.cpp:150] Setting up inception_3a/relu_3x3
I1130 20:14:44.115663 30472 net.cpp:157] Top shape: 100 128 20 10 (2560000)
I1130 20:14:44.115669 30472 net.cpp:165] Memory required for data: 522241200
I1130 20:14:44.115674 30472 layer_factory.hpp:77] Creating layer inception_3a/5x5_reduce
I1130 20:14:44.115690 30472 net.cpp:100] Creating Layer inception_3a/5x5_reduce
I1130 20:14:44.115697 30472 net.cpp:434] inception_3a/5x5_reduce <- pool2/3x3_s2_pool2/3x3_s2_0_split_2
I1130 20:14:44.115713 30472 net.cpp:408] inception_3a/5x5_reduce -> inception_3a/5x5_reduce
I1130 20:14:44.116612 30472 net.cpp:150] Setting up inception_3a/5x5_reduce
I1130 20:14:44.116631 30472 net.cpp:157] Top shape: 100 16 20 10 (320000)
I1130 20:14:44.116637 30472 net.cpp:165] Memory required for data: 523521200
I1130 20:14:44.116646 30472 layer_factory.hpp:77] Creating layer inception_3a/relu_5x5_reduce
I1130 20:14:44.116662 30472 net.cpp:100] Creating Layer inception_3a/relu_5x5_reduce
I1130 20:14:44.116667 30472 net.cpp:434] inception_3a/relu_5x5_reduce <- inception_3a/5x5_reduce
I1130 20:14:44.116674 30472 net.cpp:395] inception_3a/relu_5x5_reduce -> inception_3a/5x5_reduce (in-place)
I1130 20:14:44.116830 30472 net.cpp:150] Setting up inception_3a/relu_5x5_reduce
I1130 20:14:44.116849 30472 net.cpp:157] Top shape: 100 16 20 10 (320000)
I1130 20:14:44.116855 30472 net.cpp:165] Memory required for data: 524801200
I1130 20:14:44.116861 30472 layer_factory.hpp:77] Creating layer inception_3a/5x5
I1130 20:14:44.116873 30472 net.cpp:100] Creating Layer inception_3a/5x5
I1130 20:14:44.116880 30472 net.cpp:434] inception_3a/5x5 <- inception_3a/5x5_reduce
I1130 20:14:44.116889 30472 net.cpp:408] inception_3a/5x5 -> inception_3a/5x5
I1130 20:14:44.118026 30472 net.cpp:150] Setting up inception_3a/5x5
I1130 20:14:44.118046 30472 net.cpp:157] Top shape: 100 32 20 10 (640000)
I1130 20:14:44.118053 30472 net.cpp:165] Memory required for data: 527361200
I1130 20:14:44.118062 30472 layer_factory.hpp:77] Creating layer inception_3a/relu_5x5
I1130 20:14:44.118082 30472 net.cpp:100] Creating Layer inception_3a/relu_5x5
I1130 20:14:44.118088 30472 net.cpp:434] inception_3a/relu_5x5 <- inception_3a/5x5
I1130 20:14:44.118098 30472 net.cpp:395] inception_3a/relu_5x5 -> inception_3a/5x5 (in-place)
I1130 20:14:44.118377 30472 net.cpp:150] Setting up inception_3a/relu_5x5
I1130 20:14:44.118405 30472 net.cpp:157] Top shape: 100 32 20 10 (640000)
I1130 20:14:44.118412 30472 net.cpp:165] Memory required for data: 529921200
I1130 20:14:44.118418 30472 layer_factory.hpp:77] Creating layer inception_3a/pool
I1130 20:14:44.118429 30472 net.cpp:100] Creating Layer inception_3a/pool
I1130 20:14:44.118438 30472 net.cpp:434] inception_3a/pool <- pool2/3x3_s2_pool2/3x3_s2_0_split_3
I1130 20:14:44.118444 30472 net.cpp:408] inception_3a/pool -> inception_3a/pool
I1130 20:14:44.118489 30472 net.cpp:150] Setting up inception_3a/pool
I1130 20:14:44.118499 30472 net.cpp:157] Top shape: 100 192 20 10 (3840000)
I1130 20:14:44.118505 30472 net.cpp:165] Memory required for data: 545281200
I1130 20:14:44.118513 30472 layer_factory.hpp:77] Creating layer inception_3a/pool_proj
I1130 20:14:44.118525 30472 net.cpp:100] Creating Layer inception_3a/pool_proj
I1130 20:14:44.118532 30472 net.cpp:434] inception_3a/pool_proj <- inception_3a/pool
I1130 20:14:44.118549 30472 net.cpp:408] inception_3a/pool_proj -> inception_3a/pool_proj
I1130 20:14:44.119352 30472 net.cpp:150] Setting up inception_3a/pool_proj
I1130 20:14:44.119384 30472 net.cpp:157] Top shape: 100 32 20 10 (640000)
I1130 20:14:44.119390 30472 net.cpp:165] Memory required for data: 547841200
I1130 20:14:44.119407 30472 layer_factory.hpp:77] Creating layer inception_3a/relu_pool_proj
I1130 20:14:44.119421 30472 net.cpp:100] Creating Layer inception_3a/relu_pool_proj
I1130 20:14:44.119427 30472 net.cpp:434] inception_3a/relu_pool_proj <- inception_3a/pool_proj
I1130 20:14:44.119443 30472 net.cpp:395] inception_3a/relu_pool_proj -> inception_3a/pool_proj (in-place)
I1130 20:14:44.119721 30472 net.cpp:150] Setting up inception_3a/relu_pool_proj
I1130 20:14:44.119750 30472 net.cpp:157] Top shape: 100 32 20 10 (640000)
I1130 20:14:44.119756 30472 net.cpp:165] Memory required for data: 550401200
I1130 20:14:44.119762 30472 layer_factory.hpp:77] Creating layer inception_3a/output
I1130 20:14:44.119782 30472 net.cpp:100] Creating Layer inception_3a/output
I1130 20:14:44.119791 30472 net.cpp:434] inception_3a/output <- inception_3a/1x1
I1130 20:14:44.119799 30472 net.cpp:434] inception_3a/output <- inception_3a/3x3
I1130 20:14:44.119807 30472 net.cpp:434] inception_3a/output <- inception_3a/5x5
I1130 20:14:44.119812 30472 net.cpp:434] inception_3a/output <- inception_3a/pool_proj
I1130 20:14:44.119819 30472 net.cpp:408] inception_3a/output -> inception_3a/output
I1130 20:14:44.119861 30472 net.cpp:150] Setting up inception_3a/output
I1130 20:14:44.119871 30472 net.cpp:157] Top shape: 100 256 20 10 (5120000)
I1130 20:14:44.119877 30472 net.cpp:165] Memory required for data: 570881200
I1130 20:14:44.119884 30472 layer_factory.hpp:77] Creating layer inception_3a/output_inception_3a/output_0_split
I1130 20:14:44.119891 30472 net.cpp:100] Creating Layer inception_3a/output_inception_3a/output_0_split
I1130 20:14:44.119899 30472 net.cpp:434] inception_3a/output_inception_3a/output_0_split <- inception_3a/output
I1130 20:14:44.119906 30472 net.cpp:408] inception_3a/output_inception_3a/output_0_split -> inception_3a/output_inception_3a/output_0_split_0
I1130 20:14:44.119915 30472 net.cpp:408] inception_3a/output_inception_3a/output_0_split -> inception_3a/output_inception_3a/output_0_split_1
I1130 20:14:44.119923 30472 net.cpp:408] inception_3a/output_inception_3a/output_0_split -> inception_3a/output_inception_3a/output_0_split_2
I1130 20:14:44.119930 30472 net.cpp:408] inception_3a/output_inception_3a/output_0_split -> inception_3a/output_inception_3a/output_0_split_3
I1130 20:14:44.119989 30472 net.cpp:150] Setting up inception_3a/output_inception_3a/output_0_split
I1130 20:14:44.119999 30472 net.cpp:157] Top shape: 100 256 20 10 (5120000)
I1130 20:14:44.120018 30472 net.cpp:157] Top shape: 100 256 20 10 (5120000)
I1130 20:14:44.120025 30472 net.cpp:157] Top shape: 100 256 20 10 (5120000)
I1130 20:14:44.120031 30472 net.cpp:157] Top shape: 100 256 20 10 (5120000)
I1130 20:14:44.120036 30472 net.cpp:165] Memory required for data: 652801200
I1130 20:14:44.120041 30472 layer_factory.hpp:77] Creating layer inception_3b/1x1
I1130 20:14:44.120057 30472 net.cpp:100] Creating Layer inception_3b/1x1
I1130 20:14:44.120064 30472 net.cpp:434] inception_3b/1x1 <- inception_3a/output_inception_3a/output_0_split_0
I1130 20:14:44.120074 30472 net.cpp:408] inception_3b/1x1 -> inception_3b/1x1
I1130 20:14:44.121130 30472 net.cpp:150] Setting up inception_3b/1x1
I1130 20:14:44.121161 30472 net.cpp:157] Top shape: 100 128 20 10 (2560000)
I1130 20:14:44.121168 30472 net.cpp:165] Memory required for data: 663041200
I1130 20:14:44.121176 30472 layer_factory.hpp:77] Creating layer inception_3b/relu_1x1
I1130 20:14:44.121186 30472 net.cpp:100] Creating Layer inception_3b/relu_1x1
I1130 20:14:44.121192 30472 net.cpp:434] inception_3b/relu_1x1 <- inception_3b/1x1
I1130 20:14:44.121199 30472 net.cpp:395] inception_3b/relu_1x1 -> inception_3b/1x1 (in-place)
I1130 20:14:44.121378 30472 net.cpp:150] Setting up inception_3b/relu_1x1
I1130 20:14:44.121402 30472 net.cpp:157] Top shape: 100 128 20 10 (2560000)
I1130 20:14:44.121407 30472 net.cpp:165] Memory required for data: 673281200
I1130 20:14:44.121417 30472 layer_factory.hpp:77] Creating layer inception_3b/3x3_reduce
I1130 20:14:44.121428 30472 net.cpp:100] Creating Layer inception_3b/3x3_reduce
I1130 20:14:44.121435 30472 net.cpp:434] inception_3b/3x3_reduce <- inception_3a/output_inception_3a/output_0_split_1
I1130 20:14:44.121450 30472 net.cpp:408] inception_3b/3x3_reduce -> inception_3b/3x3_reduce
I1130 20:14:44.122499 30472 net.cpp:150] Setting up inception_3b/3x3_reduce
I1130 20:14:44.122539 30472 net.cpp:157] Top shape: 100 128 20 10 (2560000)
I1130 20:14:44.122546 30472 net.cpp:165] Memory required for data: 683521200
I1130 20:14:44.122565 30472 layer_factory.hpp:77] Creating layer inception_3b/relu_3x3_reduce
I1130 20:14:44.122573 30472 net.cpp:100] Creating Layer inception_3b/relu_3x3_reduce
I1130 20:14:44.122580 30472 net.cpp:434] inception_3b/relu_3x3_reduce <- inception_3b/3x3_reduce
I1130 20:14:44.122587 30472 net.cpp:395] inception_3b/relu_3x3_reduce -> inception_3b/3x3_reduce (in-place)
I1130 20:14:44.122876 30472 net.cpp:150] Setting up inception_3b/relu_3x3_reduce
I1130 20:14:44.122903 30472 net.cpp:157] Top shape: 100 128 20 10 (2560000)
I1130 20:14:44.122910 30472 net.cpp:165] Memory required for data: 693761200
I1130 20:14:44.122915 30472 layer_factory.hpp:77] Creating layer inception_3b/3x3
I1130 20:14:44.122938 30472 net.cpp:100] Creating Layer inception_3b/3x3
I1130 20:14:44.122946 30472 net.cpp:434] inception_3b/3x3 <- inception_3b/3x3_reduce
I1130 20:14:44.122956 30472 net.cpp:408] inception_3b/3x3 -> inception_3b/3x3
I1130 20:14:44.125473 30472 net.cpp:150] Setting up inception_3b/3x3
I1130 20:14:44.125519 30472 net.cpp:157] Top shape: 100 192 20 10 (3840000)
I1130 20:14:44.125526 30472 net.cpp:165] Memory required for data: 709121200
I1130 20:14:44.125537 30472 layer_factory.hpp:77] Creating layer inception_3b/relu_3x3
I1130 20:14:44.125561 30472 net.cpp:100] Creating Layer inception_3b/relu_3x3
I1130 20:14:44.125569 30472 net.cpp:434] inception_3b/relu_3x3 <- inception_3b/3x3
I1130 20:14:44.125577 30472 net.cpp:395] inception_3b/relu_3x3 -> inception_3b/3x3 (in-place)
I1130 20:14:44.125867 30472 net.cpp:150] Setting up inception_3b/relu_3x3
I1130 20:14:44.125892 30472 net.cpp:157] Top shape: 100 192 20 10 (3840000)
I1130 20:14:44.125900 30472 net.cpp:165] Memory required for data: 724481200
I1130 20:14:44.125906 30472 layer_factory.hpp:77] Creating layer inception_3b/5x5_reduce
I1130 20:14:44.125918 30472 net.cpp:100] Creating Layer inception_3b/5x5_reduce
I1130 20:14:44.125926 30472 net.cpp:434] inception_3b/5x5_reduce <- inception_3a/output_inception_3a/output_0_split_2
I1130 20:14:44.125946 30472 net.cpp:408] inception_3b/5x5_reduce -> inception_3b/5x5_reduce
I1130 20:14:44.126943 30472 net.cpp:150] Setting up inception_3b/5x5_reduce
I1130 20:14:44.126981 30472 net.cpp:157] Top shape: 100 32 20 10 (640000)
I1130 20:14:44.126987 30472 net.cpp:165] Memory required for data: 727041200
I1130 20:14:44.127005 30472 layer_factory.hpp:77] Creating layer inception_3b/relu_5x5_reduce
I1130 20:14:44.127019 30472 net.cpp:100] Creating Layer inception_3b/relu_5x5_reduce
I1130 20:14:44.127027 30472 net.cpp:434] inception_3b/relu_5x5_reduce <- inception_3b/5x5_reduce
I1130 20:14:44.127035 30472 net.cpp:395] inception_3b/relu_5x5_reduce -> inception_3b/5x5_reduce (in-place)
I1130 20:14:44.127210 30472 net.cpp:150] Setting up inception_3b/relu_5x5_reduce
I1130 20:14:44.127229 30472 net.cpp:157] Top shape: 100 32 20 10 (640000)
I1130 20:14:44.127238 30472 net.cpp:165] Memory required for data: 729601200
I1130 20:14:44.127243 30472 layer_factory.hpp:77] Creating layer inception_3b/5x5
I1130 20:14:44.127256 30472 net.cpp:100] Creating Layer inception_3b/5x5
I1130 20:14:44.127264 30472 net.cpp:434] inception_3b/5x5 <- inception_3b/5x5_reduce
I1130 20:14:44.127274 30472 net.cpp:408] inception_3b/5x5 -> inception_3b/5x5
I1130 20:14:44.129125 30472 net.cpp:150] Setting up inception_3b/5x5
I1130 20:14:44.129168 30472 net.cpp:157] Top shape: 100 96 20 10 (1920000)
I1130 20:14:44.129176 30472 net.cpp:165] Memory required for data: 737281200
I1130 20:14:44.129196 30472 layer_factory.hpp:77] Creating layer inception_3b/relu_5x5
I1130 20:14:44.129205 30472 net.cpp:100] Creating Layer inception_3b/relu_5x5
I1130 20:14:44.129216 30472 net.cpp:434] inception_3b/relu_5x5 <- inception_3b/5x5
I1130 20:14:44.129228 30472 net.cpp:395] inception_3b/relu_5x5 -> inception_3b/5x5 (in-place)
I1130 20:14:44.129668 30472 net.cpp:150] Setting up inception_3b/relu_5x5
I1130 20:14:44.129701 30472 net.cpp:157] Top shape: 100 96 20 10 (1920000)
I1130 20:14:44.129724 30472 net.cpp:165] Memory required for data: 744961200
I1130 20:14:44.129731 30472 layer_factory.hpp:77] Creating layer inception_3b/pool
I1130 20:14:44.129743 30472 net.cpp:100] Creating Layer inception_3b/pool
I1130 20:14:44.129750 30472 net.cpp:434] inception_3b/pool <- inception_3a/output_inception_3a/output_0_split_3
I1130 20:14:44.129767 30472 net.cpp:408] inception_3b/pool -> inception_3b/pool
I1130 20:14:44.129825 30472 net.cpp:150] Setting up inception_3b/pool
I1130 20:14:44.129837 30472 net.cpp:157] Top shape: 100 256 20 10 (5120000)
I1130 20:14:44.129842 30472 net.cpp:165] Memory required for data: 765441200
I1130 20:14:44.129848 30472 layer_factory.hpp:77] Creating layer inception_3b/pool_proj
I1130 20:14:44.129866 30472 net.cpp:100] Creating Layer inception_3b/pool_proj
I1130 20:14:44.129873 30472 net.cpp:434] inception_3b/pool_proj <- inception_3b/pool
I1130 20:14:44.129883 30472 net.cpp:408] inception_3b/pool_proj -> inception_3b/pool_proj
I1130 20:14:44.130825 30472 net.cpp:150] Setting up inception_3b/pool_proj
I1130 20:14:44.130859 30472 net.cpp:157] Top shape: 100 64 20 10 (1280000)
I1130 20:14:44.130867 30472 net.cpp:165] Memory required for data: 770561200
I1130 20:14:44.130878 30472 layer_factory.hpp:77] Creating layer inception_3b/relu_pool_proj
I1130 20:14:44.130887 30472 net.cpp:100] Creating Layer inception_3b/relu_pool_proj
I1130 20:14:44.130894 30472 net.cpp:434] inception_3b/relu_pool_proj <- inception_3b/pool_proj
I1130 20:14:44.130913 30472 net.cpp:395] inception_3b/relu_pool_proj -> inception_3b/pool_proj (in-place)
I1130 20:14:44.131219 30472 net.cpp:150] Setting up inception_3b/relu_pool_proj
I1130 20:14:44.131252 30472 net.cpp:157] Top shape: 100 64 20 10 (1280000)
I1130 20:14:44.131258 30472 net.cpp:165] Memory required for data: 775681200
I1130 20:14:44.131265 30472 layer_factory.hpp:77] Creating layer inception_3b/output
I1130 20:14:44.131285 30472 net.cpp:100] Creating Layer inception_3b/output
I1130 20:14:44.131292 30472 net.cpp:434] inception_3b/output <- inception_3b/1x1
I1130 20:14:44.131301 30472 net.cpp:434] inception_3b/output <- inception_3b/3x3
I1130 20:14:44.131319 30472 net.cpp:434] inception_3b/output <- inception_3b/5x5
I1130 20:14:44.131325 30472 net.cpp:434] inception_3b/output <- inception_3b/pool_proj
I1130 20:14:44.131335 30472 net.cpp:408] inception_3b/output -> inception_3b/output
I1130 20:14:44.131386 30472 net.cpp:150] Setting up inception_3b/output
I1130 20:14:44.131403 30472 net.cpp:157] Top shape: 100 480 20 10 (9600000)
I1130 20:14:44.131410 30472 net.cpp:165] Memory required for data: 814081200
I1130 20:14:44.131417 30472 layer_factory.hpp:77] Creating layer pool3/3x3_s2
I1130 20:14:44.131427 30472 net.cpp:100] Creating Layer pool3/3x3_s2
I1130 20:14:44.131443 30472 net.cpp:434] pool3/3x3_s2 <- inception_3b/output
I1130 20:14:44.131451 30472 net.cpp:408] pool3/3x3_s2 -> pool3/3x3_s2
I1130 20:14:44.131499 30472 net.cpp:150] Setting up pool3/3x3_s2
I1130 20:14:44.131511 30472 net.cpp:157] Top shape: 100 480 10 5 (2400000)
I1130 20:14:44.131517 30472 net.cpp:165] Memory required for data: 823681200
I1130 20:14:44.131523 30472 layer_factory.hpp:77] Creating layer pool3/3x3_s2_pool3/3x3_s2_0_split
I1130 20:14:44.131539 30472 net.cpp:100] Creating Layer pool3/3x3_s2_pool3/3x3_s2_0_split
I1130 20:14:44.131547 30472 net.cpp:434] pool3/3x3_s2_pool3/3x3_s2_0_split <- pool3/3x3_s2
I1130 20:14:44.131554 30472 net.cpp:408] pool3/3x3_s2_pool3/3x3_s2_0_split -> pool3/3x3_s2_pool3/3x3_s2_0_split_0
I1130 20:14:44.131563 30472 net.cpp:408] pool3/3x3_s2_pool3/3x3_s2_0_split -> pool3/3x3_s2_pool3/3x3_s2_0_split_1
I1130 20:14:44.131572 30472 net.cpp:408] pool3/3x3_s2_pool3/3x3_s2_0_split -> pool3/3x3_s2_pool3/3x3_s2_0_split_2
I1130 20:14:44.131580 30472 net.cpp:408] pool3/3x3_s2_pool3/3x3_s2_0_split -> pool3/3x3_s2_pool3/3x3_s2_0_split_3
I1130 20:14:44.131644 30472 net.cpp:150] Setting up pool3/3x3_s2_pool3/3x3_s2_0_split
I1130 20:14:44.131656 30472 net.cpp:157] Top shape: 100 480 10 5 (2400000)
I1130 20:14:44.131681 30472 net.cpp:157] Top shape: 100 480 10 5 (2400000)
I1130 20:14:44.131688 30472 net.cpp:157] Top shape: 100 480 10 5 (2400000)
I1130 20:14:44.131695 30472 net.cpp:157] Top shape: 100 480 10 5 (2400000)
I1130 20:14:44.131700 30472 net.cpp:165] Memory required for data: 862081200
I1130 20:14:44.131711 30472 layer_factory.hpp:77] Creating layer inception_4a/1x1
I1130 20:14:44.131723 30472 net.cpp:100] Creating Layer inception_4a/1x1
I1130 20:14:44.131737 30472 net.cpp:434] inception_4a/1x1 <- pool3/3x3_s2_pool3/3x3_s2_0_split_0
I1130 20:14:44.131758 30472 net.cpp:408] inception_4a/1x1 -> inception_4a/1x1
I1130 20:14:44.133679 30472 net.cpp:150] Setting up inception_4a/1x1
I1130 20:14:44.133736 30472 net.cpp:157] Top shape: 100 192 10 5 (960000)
I1130 20:14:44.133754 30472 net.cpp:165] Memory required for data: 865921200
I1130 20:14:44.133780 30472 layer_factory.hpp:77] Creating layer inception_4a/relu_1x1
I1130 20:14:44.133797 30472 net.cpp:100] Creating Layer inception_4a/relu_1x1
I1130 20:14:44.133810 30472 net.cpp:434] inception_4a/relu_1x1 <- inception_4a/1x1
I1130 20:14:44.133826 30472 net.cpp:395] inception_4a/relu_1x1 -> inception_4a/1x1 (in-place)
I1130 20:14:44.134040 30472 net.cpp:150] Setting up inception_4a/relu_1x1
I1130 20:14:44.134070 30472 net.cpp:157] Top shape: 100 192 10 5 (960000)
I1130 20:14:44.134078 30472 net.cpp:165] Memory required for data: 869761200
I1130 20:14:44.134094 30472 layer_factory.hpp:77] Creating layer inception_4a/3x3_reduce
I1130 20:14:44.134112 30472 net.cpp:100] Creating Layer inception_4a/3x3_reduce
I1130 20:14:44.134131 30472 net.cpp:434] inception_4a/3x3_reduce <- pool3/3x3_s2_pool3/3x3_s2_0_split_1
I1130 20:14:44.134146 30472 net.cpp:408] inception_4a/3x3_reduce -> inception_4a/3x3_reduce
I1130 20:14:44.135972 30472 net.cpp:150] Setting up inception_4a/3x3_reduce
I1130 20:14:44.136044 30472 net.cpp:157] Top shape: 100 96 10 5 (480000)
I1130 20:14:44.136056 30472 net.cpp:165] Memory required for data: 871681200
I1130 20:14:44.136086 30472 layer_factory.hpp:77] Creating layer inception_4a/relu_3x3_reduce
I1130 20:14:44.136121 30472 net.cpp:100] Creating Layer inception_4a/relu_3x3_reduce
I1130 20:14:44.136153 30472 net.cpp:434] inception_4a/relu_3x3_reduce <- inception_4a/3x3_reduce
I1130 20:14:44.136168 30472 net.cpp:395] inception_4a/relu_3x3_reduce -> inception_4a/3x3_reduce (in-place)
I1130 20:14:44.136566 30472 net.cpp:150] Setting up inception_4a/relu_3x3_reduce
I1130 20:14:44.136584 30472 net.cpp:157] Top shape: 100 96 10 5 (480000)
I1130 20:14:44.136591 30472 net.cpp:165] Memory required for data: 873601200
I1130 20:14:44.136598 30472 layer_factory.hpp:77] Creating layer inception_4a/3x3
I1130 20:14:44.136625 30472 net.cpp:100] Creating Layer inception_4a/3x3
I1130 20:14:44.136631 30472 net.cpp:434] inception_4a/3x3 <- inception_4a/3x3_reduce
I1130 20:14:44.136641 30472 net.cpp:408] inception_4a/3x3 -> inception_4a/3x3
I1130 20:14:44.139549 30472 net.cpp:150] Setting up inception_4a/3x3
I1130 20:14:44.139595 30472 net.cpp:157] Top shape: 100 208 10 5 (1040000)
I1130 20:14:44.139605 30472 net.cpp:165] Memory required for data: 877761200
I1130 20:14:44.139634 30472 layer_factory.hpp:77] Creating layer inception_4a/relu_3x3
I1130 20:14:44.139647 30472 net.cpp:100] Creating Layer inception_4a/relu_3x3
I1130 20:14:44.139654 30472 net.cpp:434] inception_4a/relu_3x3 <- inception_4a/3x3
I1130 20:14:44.139672 30472 net.cpp:395] inception_4a/relu_3x3 -> inception_4a/3x3 (in-place)
I1130 20:14:44.139992 30472 net.cpp:150] Setting up inception_4a/relu_3x3
I1130 20:14:44.140022 30472 net.cpp:157] Top shape: 100 208 10 5 (1040000)
I1130 20:14:44.140038 30472 net.cpp:165] Memory required for data: 881921200
I1130 20:14:44.140043 30472 layer_factory.hpp:77] Creating layer inception_4a/5x5_reduce
I1130 20:14:44.140064 30472 net.cpp:100] Creating Layer inception_4a/5x5_reduce
I1130 20:14:44.140071 30472 net.cpp:434] inception_4a/5x5_reduce <- pool3/3x3_s2_pool3/3x3_s2_0_split_2
I1130 20:14:44.140089 30472 net.cpp:408] inception_4a/5x5_reduce -> inception_4a/5x5_reduce
I1130 20:14:44.141126 30472 net.cpp:150] Setting up inception_4a/5x5_reduce
I1130 20:14:44.141165 30472 net.cpp:157] Top shape: 100 16 10 5 (80000)
I1130 20:14:44.141172 30472 net.cpp:165] Memory required for data: 882241200
I1130 20:14:44.141185 30472 layer_factory.hpp:77] Creating layer inception_4a/relu_5x5_reduce
I1130 20:14:44.141193 30472 net.cpp:100] Creating Layer inception_4a/relu_5x5_reduce
I1130 20:14:44.141201 30472 net.cpp:434] inception_4a/relu_5x5_reduce <- inception_4a/5x5_reduce
I1130 20:14:44.141208 30472 net.cpp:395] inception_4a/relu_5x5_reduce -> inception_4a/5x5_reduce (in-place)
I1130 20:14:44.141413 30472 net.cpp:150] Setting up inception_4a/relu_5x5_reduce
I1130 20:14:44.141443 30472 net.cpp:157] Top shape: 100 16 10 5 (80000)
I1130 20:14:44.141450 30472 net.cpp:165] Memory required for data: 882561200
I1130 20:14:44.141458 30472 layer_factory.hpp:77] Creating layer inception_4a/5x5
I1130 20:14:44.141477 30472 net.cpp:100] Creating Layer inception_4a/5x5
I1130 20:14:44.141485 30472 net.cpp:434] inception_4a/5x5 <- inception_4a/5x5_reduce
I1130 20:14:44.141505 30472 net.cpp:408] inception_4a/5x5 -> inception_4a/5x5
I1130 20:14:44.142613 30472 net.cpp:150] Setting up inception_4a/5x5
I1130 20:14:44.142644 30472 net.cpp:157] Top shape: 100 48 10 5 (240000)
I1130 20:14:44.142663 30472 net.cpp:165] Memory required for data: 883521200
I1130 20:14:44.142674 30472 layer_factory.hpp:77] Creating layer inception_4a/relu_5x5
I1130 20:14:44.142699 30472 net.cpp:100] Creating Layer inception_4a/relu_5x5
I1130 20:14:44.142709 30472 net.cpp:434] inception_4a/relu_5x5 <- inception_4a/5x5
I1130 20:14:44.142724 30472 net.cpp:395] inception_4a/relu_5x5 -> inception_4a/5x5 (in-place)
I1130 20:14:44.143081 30472 net.cpp:150] Setting up inception_4a/relu_5x5
I1130 20:14:44.143115 30472 net.cpp:157] Top shape: 100 48 10 5 (240000)
I1130 20:14:44.143131 30472 net.cpp:165] Memory required for data: 884481200
I1130 20:14:44.143139 30472 layer_factory.hpp:77] Creating layer inception_4a/pool
I1130 20:14:44.143156 30472 net.cpp:100] Creating Layer inception_4a/pool
I1130 20:14:44.143163 30472 net.cpp:434] inception_4a/pool <- pool3/3x3_s2_pool3/3x3_s2_0_split_3
I1130 20:14:44.143179 30472 net.cpp:408] inception_4a/pool -> inception_4a/pool
I1130 20:14:44.143241 30472 net.cpp:150] Setting up inception_4a/pool
I1130 20:14:44.143261 30472 net.cpp:157] Top shape: 100 480 10 5 (2400000)
I1130 20:14:44.143268 30472 net.cpp:165] Memory required for data: 894081200
I1130 20:14:44.143275 30472 layer_factory.hpp:77] Creating layer inception_4a/pool_proj
I1130 20:14:44.143295 30472 net.cpp:100] Creating Layer inception_4a/pool_proj
I1130 20:14:44.143302 30472 net.cpp:434] inception_4a/pool_proj <- inception_4a/pool
I1130 20:14:44.143311 30472 net.cpp:408] inception_4a/pool_proj -> inception_4a/pool_proj
I1130 20:14:44.144418 30472 net.cpp:150] Setting up inception_4a/pool_proj
I1130 20:14:44.144451 30472 net.cpp:157] Top shape: 100 64 10 5 (320000)
I1130 20:14:44.144469 30472 net.cpp:165] Memory required for data: 895361200
I1130 20:14:44.144477 30472 layer_factory.hpp:77] Creating layer inception_4a/relu_pool_proj
I1130 20:14:44.144495 30472 net.cpp:100] Creating Layer inception_4a/relu_pool_proj
I1130 20:14:44.144505 30472 net.cpp:434] inception_4a/relu_pool_proj <- inception_4a/pool_proj
I1130 20:14:44.144520 30472 net.cpp:395] inception_4a/relu_pool_proj -> inception_4a/pool_proj (in-place)
I1130 20:14:44.144915 30472 net.cpp:150] Setting up inception_4a/relu_pool_proj
I1130 20:14:44.144945 30472 net.cpp:157] Top shape: 100 64 10 5 (320000)
I1130 20:14:44.144953 30472 net.cpp:165] Memory required for data: 896641200
I1130 20:14:44.144969 30472 layer_factory.hpp:77] Creating layer inception_4a/output
I1130 20:14:44.144989 30472 net.cpp:100] Creating Layer inception_4a/output
I1130 20:14:44.144996 30472 net.cpp:434] inception_4a/output <- inception_4a/1x1
I1130 20:14:44.145004 30472 net.cpp:434] inception_4a/output <- inception_4a/3x3
I1130 20:14:44.145012 30472 net.cpp:434] inception_4a/output <- inception_4a/5x5
I1130 20:14:44.145018 30472 net.cpp:434] inception_4a/output <- inception_4a/pool_proj
I1130 20:14:44.145037 30472 net.cpp:408] inception_4a/output -> inception_4a/output
I1130 20:14:44.145078 30472 net.cpp:150] Setting up inception_4a/output
I1130 20:14:44.145090 30472 net.cpp:157] Top shape: 100 512 10 5 (2560000)
I1130 20:14:44.145098 30472 net.cpp:165] Memory required for data: 906881200
I1130 20:14:44.145104 30472 layer_factory.hpp:77] Creating layer inception_4a/output_inception_4a/output_0_split
I1130 20:14:44.145117 30472 net.cpp:100] Creating Layer inception_4a/output_inception_4a/output_0_split
I1130 20:14:44.145124 30472 net.cpp:434] inception_4a/output_inception_4a/output_0_split <- inception_4a/output
I1130 20:14:44.145138 30472 net.cpp:408] inception_4a/output_inception_4a/output_0_split -> inception_4a/output_inception_4a/output_0_split_0
I1130 20:14:44.145150 30472 net.cpp:408] inception_4a/output_inception_4a/output_0_split -> inception_4a/output_inception_4a/output_0_split_1
I1130 20:14:44.145169 30472 net.cpp:408] inception_4a/output_inception_4a/output_0_split -> inception_4a/output_inception_4a/output_0_split_2
I1130 20:14:44.145180 30472 net.cpp:408] inception_4a/output_inception_4a/output_0_split -> inception_4a/output_inception_4a/output_0_split_3
I1130 20:14:44.145263 30472 net.cpp:150] Setting up inception_4a/output_inception_4a/output_0_split
I1130 20:14:44.145282 30472 net.cpp:157] Top shape: 100 512 10 5 (2560000)
I1130 20:14:44.145293 30472 net.cpp:157] Top shape: 100 512 10 5 (2560000)
I1130 20:14:44.145299 30472 net.cpp:157] Top shape: 100 512 10 5 (2560000)
I1130 20:14:44.145323 30472 net.cpp:157] Top shape: 100 512 10 5 (2560000)
I1130 20:14:44.145331 30472 net.cpp:165] Memory required for data: 947841200
I1130 20:14:44.145347 30472 layer_factory.hpp:77] Creating layer inception_4b/1x1
I1130 20:14:44.145362 30472 net.cpp:100] Creating Layer inception_4b/1x1
I1130 20:14:44.145372 30472 net.cpp:434] inception_4b/1x1 <- inception_4a/output_inception_4a/output_0_split_0
I1130 20:14:44.145383 30472 net.cpp:408] inception_4b/1x1 -> inception_4b/1x1
I1130 20:14:44.147044 30472 net.cpp:150] Setting up inception_4b/1x1
I1130 20:14:44.147086 30472 net.cpp:157] Top shape: 100 160 10 5 (800000)
I1130 20:14:44.147099 30472 net.cpp:165] Memory required for data: 951041200
I1130 20:14:44.147112 30472 layer_factory.hpp:77] Creating layer inception_4b/relu_1x1
I1130 20:14:44.147132 30472 net.cpp:100] Creating Layer inception_4b/relu_1x1
I1130 20:14:44.147142 30472 net.cpp:434] inception_4b/relu_1x1 <- inception_4b/1x1
I1130 20:14:44.147153 30472 net.cpp:395] inception_4b/relu_1x1 -> inception_4b/1x1 (in-place)
I1130 20:14:44.147347 30472 net.cpp:150] Setting up inception_4b/relu_1x1
I1130 20:14:44.147380 30472 net.cpp:157] Top shape: 100 160 10 5 (800000)
I1130 20:14:44.147387 30472 net.cpp:165] Memory required for data: 954241200
I1130 20:14:44.147393 30472 layer_factory.hpp:77] Creating layer inception_4b/3x3_reduce
I1130 20:14:44.147413 30472 net.cpp:100] Creating Layer inception_4b/3x3_reduce
I1130 20:14:44.147421 30472 net.cpp:434] inception_4b/3x3_reduce <- inception_4a/output_inception_4a/output_0_split_1
I1130 20:14:44.147430 30472 net.cpp:408] inception_4b/3x3_reduce -> inception_4b/3x3_reduce
I1130 20:14:44.148830 30472 net.cpp:150] Setting up inception_4b/3x3_reduce
I1130 20:14:44.148864 30472 net.cpp:157] Top shape: 100 112 10 5 (560000)
I1130 20:14:44.148880 30472 net.cpp:165] Memory required for data: 956481200
I1130 20:14:44.148897 30472 layer_factory.hpp:77] Creating layer inception_4b/relu_3x3_reduce
I1130 20:14:44.148910 30472 net.cpp:100] Creating Layer inception_4b/relu_3x3_reduce
I1130 20:14:44.148918 30472 net.cpp:434] inception_4b/relu_3x3_reduce <- inception_4b/3x3_reduce
I1130 20:14:44.148928 30472 net.cpp:395] inception_4b/relu_3x3_reduce -> inception_4b/3x3_reduce (in-place)
I1130 20:14:44.149241 30472 net.cpp:150] Setting up inception_4b/relu_3x3_reduce
I1130 20:14:44.149261 30472 net.cpp:157] Top shape: 100 112 10 5 (560000)
I1130 20:14:44.149269 30472 net.cpp:165] Memory required for data: 958721200
I1130 20:14:44.149288 30472 layer_factory.hpp:77] Creating layer inception_4b/3x3
I1130 20:14:44.149323 30472 net.cpp:100] Creating Layer inception_4b/3x3
I1130 20:14:44.149341 30472 net.cpp:434] inception_4b/3x3 <- inception_4b/3x3_reduce
I1130 20:14:44.149359 30472 net.cpp:408] inception_4b/3x3 -> inception_4b/3x3
I1130 20:14:44.152112 30472 net.cpp:150] Setting up inception_4b/3x3
I1130 20:14:44.152148 30472 net.cpp:157] Top shape: 100 224 10 5 (1120000)
I1130 20:14:44.152156 30472 net.cpp:165] Memory required for data: 963201200
I1130 20:14:44.152176 30472 layer_factory.hpp:77] Creating layer inception_4b/relu_3x3
I1130 20:14:44.152189 30472 net.cpp:100] Creating Layer inception_4b/relu_3x3
I1130 20:14:44.152196 30472 net.cpp:434] inception_4b/relu_3x3 <- inception_4b/3x3
I1130 20:14:44.152204 30472 net.cpp:395] inception_4b/relu_3x3 -> inception_4b/3x3 (in-place)
I1130 20:14:44.152513 30472 net.cpp:150] Setting up inception_4b/relu_3x3
I1130 20:14:44.152542 30472 net.cpp:157] Top shape: 100 224 10 5 (1120000)
I1130 20:14:44.152549 30472 net.cpp:165] Memory required for data: 967681200
I1130 20:14:44.152565 30472 layer_factory.hpp:77] Creating layer inception_4b/5x5_reduce
I1130 20:14:44.152588 30472 net.cpp:100] Creating Layer inception_4b/5x5_reduce
I1130 20:14:44.152598 30472 net.cpp:434] inception_4b/5x5_reduce <- inception_4a/output_inception_4a/output_0_split_2
I1130 20:14:44.152608 30472 net.cpp:408] inception_4b/5x5_reduce -> inception_4b/5x5_reduce
I1130 20:14:44.153697 30472 net.cpp:150] Setting up inception_4b/5x5_reduce
I1130 20:14:44.153729 30472 net.cpp:157] Top shape: 100 24 10 5 (120000)
I1130 20:14:44.153736 30472 net.cpp:165] Memory required for data: 968161200
I1130 20:14:44.153755 30472 layer_factory.hpp:77] Creating layer inception_4b/relu_5x5_reduce
I1130 20:14:44.153764 30472 net.cpp:100] Creating Layer inception_4b/relu_5x5_reduce
I1130 20:14:44.153771 30472 net.cpp:434] inception_4b/relu_5x5_reduce <- inception_4b/5x5_reduce
I1130 20:14:44.153789 30472 net.cpp:395] inception_4b/relu_5x5_reduce -> inception_4b/5x5_reduce (in-place)
I1130 20:14:44.153951 30472 net.cpp:150] Setting up inception_4b/relu_5x5_reduce
I1130 20:14:44.153975 30472 net.cpp:157] Top shape: 100 24 10 5 (120000)
I1130 20:14:44.153981 30472 net.cpp:165] Memory required for data: 968641200
I1130 20:14:44.153987 30472 layer_factory.hpp:77] Creating layer inception_4b/5x5
I1130 20:14:44.154006 30472 net.cpp:100] Creating Layer inception_4b/5x5
I1130 20:14:44.154013 30472 net.cpp:434] inception_4b/5x5 <- inception_4b/5x5_reduce
I1130 20:14:44.154023 30472 net.cpp:408] inception_4b/5x5 -> inception_4b/5x5
I1130 20:14:44.155555 30472 net.cpp:150] Setting up inception_4b/5x5
I1130 20:14:44.155586 30472 net.cpp:157] Top shape: 100 64 10 5 (320000)
I1130 20:14:44.155592 30472 net.cpp:165] Memory required for data: 969921200
I1130 20:14:44.155611 30472 layer_factory.hpp:77] Creating layer inception_4b/relu_5x5
I1130 20:14:44.155622 30472 net.cpp:100] Creating Layer inception_4b/relu_5x5
I1130 20:14:44.155629 30472 net.cpp:434] inception_4b/relu_5x5 <- inception_4b/5x5
I1130 20:14:44.155637 30472 net.cpp:395] inception_4b/relu_5x5 -> inception_4b/5x5 (in-place)
I1130 20:14:44.155926 30472 net.cpp:150] Setting up inception_4b/relu_5x5
I1130 20:14:44.155954 30472 net.cpp:157] Top shape: 100 64 10 5 (320000)
I1130 20:14:44.155961 30472 net.cpp:165] Memory required for data: 971201200
I1130 20:14:44.155967 30472 layer_factory.hpp:77] Creating layer inception_4b/pool
I1130 20:14:44.155977 30472 net.cpp:100] Creating Layer inception_4b/pool
I1130 20:14:44.155984 30472 net.cpp:434] inception_4b/pool <- inception_4a/output_inception_4a/output_0_split_3
I1130 20:14:44.155992 30472 net.cpp:408] inception_4b/pool -> inception_4b/pool
I1130 20:14:44.156056 30472 net.cpp:150] Setting up inception_4b/pool
I1130 20:14:44.156067 30472 net.cpp:157] Top shape: 100 512 10 5 (2560000)
I1130 20:14:44.156075 30472 net.cpp:165] Memory required for data: 981441200
I1130 20:14:44.156082 30472 layer_factory.hpp:77] Creating layer inception_4b/pool_proj
I1130 20:14:44.156105 30472 net.cpp:100] Creating Layer inception_4b/pool_proj
I1130 20:14:44.156113 30472 net.cpp:434] inception_4b/pool_proj <- inception_4b/pool
I1130 20:14:44.156131 30472 net.cpp:408] inception_4b/pool_proj -> inception_4b/pool_proj
I1130 20:14:44.157191 30472 net.cpp:150] Setting up inception_4b/pool_proj
I1130 20:14:44.157220 30472 net.cpp:157] Top shape: 100 64 10 5 (320000)
I1130 20:14:44.157227 30472 net.cpp:165] Memory required for data: 982721200
I1130 20:14:44.157238 30472 layer_factory.hpp:77] Creating layer inception_4b/relu_pool_proj
I1130 20:14:44.157246 30472 net.cpp:100] Creating Layer inception_4b/relu_pool_proj
I1130 20:14:44.157253 30472 net.cpp:434] inception_4b/relu_pool_proj <- inception_4b/pool_proj
I1130 20:14:44.157263 30472 net.cpp:395] inception_4b/relu_pool_proj -> inception_4b/pool_proj (in-place)
I1130 20:14:44.157583 30472 net.cpp:150] Setting up inception_4b/relu_pool_proj
I1130 20:14:44.157614 30472 net.cpp:157] Top shape: 100 64 10 5 (320000)
I1130 20:14:44.157620 30472 net.cpp:165] Memory required for data: 984001200
I1130 20:14:44.157627 30472 layer_factory.hpp:77] Creating layer inception_4b/output
I1130 20:14:44.157639 30472 net.cpp:100] Creating Layer inception_4b/output
I1130 20:14:44.157645 30472 net.cpp:434] inception_4b/output <- inception_4b/1x1
I1130 20:14:44.157652 30472 net.cpp:434] inception_4b/output <- inception_4b/3x3
I1130 20:14:44.157658 30472 net.cpp:434] inception_4b/output <- inception_4b/5x5
I1130 20:14:44.157666 30472 net.cpp:434] inception_4b/output <- inception_4b/pool_proj
I1130 20:14:44.157673 30472 net.cpp:408] inception_4b/output -> inception_4b/output
I1130 20:14:44.157707 30472 net.cpp:150] Setting up inception_4b/output
I1130 20:14:44.157718 30472 net.cpp:157] Top shape: 100 512 10 5 (2560000)
I1130 20:14:44.157726 30472 net.cpp:165] Memory required for data: 994241200
I1130 20:14:44.157733 30472 layer_factory.hpp:77] Creating layer inception_4b/output_inception_4b/output_0_split
I1130 20:14:44.157742 30472 net.cpp:100] Creating Layer inception_4b/output_inception_4b/output_0_split
I1130 20:14:44.157748 30472 net.cpp:434] inception_4b/output_inception_4b/output_0_split <- inception_4b/output
I1130 20:14:44.157766 30472 net.cpp:408] inception_4b/output_inception_4b/output_0_split -> inception_4b/output_inception_4b/output_0_split_0
I1130 20:14:44.157775 30472 net.cpp:408] inception_4b/output_inception_4b/output_0_split -> inception_4b/output_inception_4b/output_0_split_1
I1130 20:14:44.157785 30472 net.cpp:408] inception_4b/output_inception_4b/output_0_split -> inception_4b/output_inception_4b/output_0_split_2
I1130 20:14:44.157793 30472 net.cpp:408] inception_4b/output_inception_4b/output_0_split -> inception_4b/output_inception_4b/output_0_split_3
I1130 20:14:44.157860 30472 net.cpp:150] Setting up inception_4b/output_inception_4b/output_0_split
I1130 20:14:44.157878 30472 net.cpp:157] Top shape: 100 512 10 5 (2560000)
I1130 20:14:44.157884 30472 net.cpp:157] Top shape: 100 512 10 5 (2560000)
I1130 20:14:44.157891 30472 net.cpp:157] Top shape: 100 512 10 5 (2560000)
I1130 20:14:44.157898 30472 net.cpp:157] Top shape: 100 512 10 5 (2560000)
I1130 20:14:44.157903 30472 net.cpp:165] Memory required for data: 1035201200
I1130 20:14:44.157909 30472 layer_factory.hpp:77] Creating layer inception_4c/1x1
I1130 20:14:44.157929 30472 net.cpp:100] Creating Layer inception_4c/1x1
I1130 20:14:44.157938 30472 net.cpp:434] inception_4c/1x1 <- inception_4b/output_inception_4b/output_0_split_0
I1130 20:14:44.157948 30472 net.cpp:408] inception_4c/1x1 -> inception_4c/1x1
I1130 20:14:44.159354 30472 net.cpp:150] Setting up inception_4c/1x1
I1130 20:14:44.159385 30472 net.cpp:157] Top shape: 100 128 10 5 (640000)
I1130 20:14:44.159392 30472 net.cpp:165] Memory required for data: 1037761200
I1130 20:14:44.159409 30472 layer_factory.hpp:77] Creating layer inception_4c/relu_1x1
I1130 20:14:44.159418 30472 net.cpp:100] Creating Layer inception_4c/relu_1x1
I1130 20:14:44.159433 30472 net.cpp:434] inception_4c/relu_1x1 <- inception_4c/1x1
I1130 20:14:44.159441 30472 net.cpp:395] inception_4c/relu_1x1 -> inception_4c/1x1 (in-place)
I1130 20:14:44.159613 30472 net.cpp:150] Setting up inception_4c/relu_1x1
I1130 20:14:44.159632 30472 net.cpp:157] Top shape: 100 128 10 5 (640000)
I1130 20:14:44.159639 30472 net.cpp:165] Memory required for data: 1040321200
I1130 20:14:44.159644 30472 layer_factory.hpp:77] Creating layer inception_4c/3x3_reduce
I1130 20:14:44.159665 30472 net.cpp:100] Creating Layer inception_4c/3x3_reduce
I1130 20:14:44.159672 30472 net.cpp:434] inception_4c/3x3_reduce <- inception_4b/output_inception_4b/output_0_split_1
I1130 20:14:44.159682 30472 net.cpp:408] inception_4c/3x3_reduce -> inception_4c/3x3_reduce
I1130 20:14:44.161108 30472 net.cpp:150] Setting up inception_4c/3x3_reduce
I1130 20:14:44.161134 30472 net.cpp:157] Top shape: 100 128 10 5 (640000)
I1130 20:14:44.161141 30472 net.cpp:165] Memory required for data: 1042881200
I1130 20:14:44.161155 30472 layer_factory.hpp:77] Creating layer inception_4c/relu_3x3_reduce
I1130 20:14:44.161169 30472 net.cpp:100] Creating Layer inception_4c/relu_3x3_reduce
I1130 20:14:44.161175 30472 net.cpp:434] inception_4c/relu_3x3_reduce <- inception_4c/3x3_reduce
I1130 20:14:44.161185 30472 net.cpp:395] inception_4c/relu_3x3_reduce -> inception_4c/3x3_reduce (in-place)
I1130 20:14:44.161551 30472 net.cpp:150] Setting up inception_4c/relu_3x3_reduce
I1130 20:14:44.161573 30472 net.cpp:157] Top shape: 100 128 10 5 (640000)
I1130 20:14:44.161581 30472 net.cpp:165] Memory required for data: 1045441200
I1130 20:14:44.161588 30472 layer_factory.hpp:77] Creating layer inception_4c/3x3
I1130 20:14:44.161614 30472 net.cpp:100] Creating Layer inception_4c/3x3
I1130 20:14:44.161622 30472 net.cpp:434] inception_4c/3x3 <- inception_4c/3x3_reduce
I1130 20:14:44.161640 30472 net.cpp:408] inception_4c/3x3 -> inception_4c/3x3
I1130 20:14:44.164886 30472 net.cpp:150] Setting up inception_4c/3x3
I1130 20:14:44.164932 30472 net.cpp:157] Top shape: 100 256 10 5 (1280000)
I1130 20:14:44.164939 30472 net.cpp:165] Memory required for data: 1050561200
I1130 20:14:44.164961 30472 layer_factory.hpp:77] Creating layer inception_4c/relu_3x3
I1130 20:14:44.164975 30472 net.cpp:100] Creating Layer inception_4c/relu_3x3
I1130 20:14:44.164991 30472 net.cpp:434] inception_4c/relu_3x3 <- inception_4c/3x3
I1130 20:14:44.165005 30472 net.cpp:395] inception_4c/relu_3x3 -> inception_4c/3x3 (in-place)
I1130 20:14:44.165493 30472 net.cpp:150] Setting up inception_4c/relu_3x3
I1130 20:14:44.165524 30472 net.cpp:157] Top shape: 100 256 10 5 (1280000)
I1130 20:14:44.165540 30472 net.cpp:165] Memory required for data: 1055681200
I1130 20:14:44.165549 30472 layer_factory.hpp:77] Creating layer inception_4c/5x5_reduce
I1130 20:14:44.165566 30472 net.cpp:100] Creating Layer inception_4c/5x5_reduce
I1130 20:14:44.165580 30472 net.cpp:434] inception_4c/5x5_reduce <- inception_4b/output_inception_4b/output_0_split_2
I1130 20:14:44.165598 30472 net.cpp:408] inception_4c/5x5_reduce -> inception_4c/5x5_reduce
I1130 20:14:44.166941 30472 net.cpp:150] Setting up inception_4c/5x5_reduce
I1130 20:14:44.166971 30472 net.cpp:157] Top shape: 100 24 10 5 (120000)
I1130 20:14:44.166980 30472 net.cpp:165] Memory required for data: 1056161200
I1130 20:14:44.166996 30472 layer_factory.hpp:77] Creating layer inception_4c/relu_5x5_reduce
I1130 20:14:44.167004 30472 net.cpp:100] Creating Layer inception_4c/relu_5x5_reduce
I1130 20:14:44.167021 30472 net.cpp:434] inception_4c/relu_5x5_reduce <- inception_4c/5x5_reduce
I1130 20:14:44.167039 30472 net.cpp:395] inception_4c/relu_5x5_reduce -> inception_4c/5x5_reduce (in-place)
I1130 20:14:44.167219 30472 net.cpp:150] Setting up inception_4c/relu_5x5_reduce
I1130 20:14:44.167245 30472 net.cpp:157] Top shape: 100 24 10 5 (120000)
I1130 20:14:44.167253 30472 net.cpp:165] Memory required for data: 1056641200
I1130 20:14:44.167259 30472 layer_factory.hpp:77] Creating layer inception_4c/5x5
I1130 20:14:44.167275 30472 net.cpp:100] Creating Layer inception_4c/5x5
I1130 20:14:44.167284 30472 net.cpp:434] inception_4c/5x5 <- inception_4c/5x5_reduce
I1130 20:14:44.167313 30472 net.cpp:408] inception_4c/5x5 -> inception_4c/5x5
I1130 20:14:44.168730 30472 net.cpp:150] Setting up inception_4c/5x5
I1130 20:14:44.168763 30472 net.cpp:157] Top shape: 100 64 10 5 (320000)
I1130 20:14:44.168771 30472 net.cpp:165] Memory required for data: 1057921200
I1130 20:14:44.168779 30472 layer_factory.hpp:77] Creating layer inception_4c/relu_5x5
I1130 20:14:44.168789 30472 net.cpp:100] Creating Layer inception_4c/relu_5x5
I1130 20:14:44.168798 30472 net.cpp:434] inception_4c/relu_5x5 <- inception_4c/5x5
I1130 20:14:44.168807 30472 net.cpp:395] inception_4c/relu_5x5 -> inception_4c/5x5 (in-place)
I1130 20:14:44.169128 30472 net.cpp:150] Setting up inception_4c/relu_5x5
I1130 20:14:44.169152 30472 net.cpp:157] Top shape: 100 64 10 5 (320000)
I1130 20:14:44.169158 30472 net.cpp:165] Memory required for data: 1059201200
I1130 20:14:44.169165 30472 layer_factory.hpp:77] Creating layer inception_4c/pool
I1130 20:14:44.169179 30472 net.cpp:100] Creating Layer inception_4c/pool
I1130 20:14:44.169188 30472 net.cpp:434] inception_4c/pool <- inception_4b/output_inception_4b/output_0_split_3
I1130 20:14:44.169196 30472 net.cpp:408] inception_4c/pool -> inception_4c/pool
I1130 20:14:44.169265 30472 net.cpp:150] Setting up inception_4c/pool
I1130 20:14:44.169277 30472 net.cpp:157] Top shape: 100 512 10 5 (2560000)
I1130 20:14:44.169284 30472 net.cpp:165] Memory required for data: 1069441200
I1130 20:14:44.169296 30472 layer_factory.hpp:77] Creating layer inception_4c/pool_proj
I1130 20:14:44.169345 30472 net.cpp:100] Creating Layer inception_4c/pool_proj
I1130 20:14:44.169356 30472 net.cpp:434] inception_4c/pool_proj <- inception_4c/pool
I1130 20:14:44.169381 30472 net.cpp:408] inception_4c/pool_proj -> inception_4c/pool_proj
I1130 20:14:44.171115 30472 net.cpp:150] Setting up inception_4c/pool_proj
I1130 20:14:44.171170 30472 net.cpp:157] Top shape: 100 64 10 5 (320000)
I1130 20:14:44.171190 30472 net.cpp:165] Memory required for data: 1070721200
I1130 20:14:44.171231 30472 layer_factory.hpp:77] Creating layer inception_4c/relu_pool_proj
I1130 20:14:44.171257 30472 net.cpp:100] Creating Layer inception_4c/relu_pool_proj
I1130 20:14:44.171285 30472 net.cpp:434] inception_4c/relu_pool_proj <- inception_4c/pool_proj
I1130 20:14:44.171295 30472 net.cpp:395] inception_4c/relu_pool_proj -> inception_4c/pool_proj (in-place)
I1130 20:14:44.171716 30472 net.cpp:150] Setting up inception_4c/relu_pool_proj
I1130 20:14:44.171751 30472 net.cpp:157] Top shape: 100 64 10 5 (320000)
I1130 20:14:44.171757 30472 net.cpp:165] Memory required for data: 1072001200
I1130 20:14:44.171766 30472 layer_factory.hpp:77] Creating layer inception_4c/output
I1130 20:14:44.171783 30472 net.cpp:100] Creating Layer inception_4c/output
I1130 20:14:44.171792 30472 net.cpp:434] inception_4c/output <- inception_4c/1x1
I1130 20:14:44.171799 30472 net.cpp:434] inception_4c/output <- inception_4c/3x3
I1130 20:14:44.171808 30472 net.cpp:434] inception_4c/output <- inception_4c/5x5
I1130 20:14:44.171814 30472 net.cpp:434] inception_4c/output <- inception_4c/pool_proj
I1130 20:14:44.171825 30472 net.cpp:408] inception_4c/output -> inception_4c/output
I1130 20:14:44.171870 30472 net.cpp:150] Setting up inception_4c/output
I1130 20:14:44.171882 30472 net.cpp:157] Top shape: 100 512 10 5 (2560000)
I1130 20:14:44.171890 30472 net.cpp:165] Memory required for data: 1082241200
I1130 20:14:44.171900 30472 layer_factory.hpp:77] Creating layer inception_4c/output_inception_4c/output_0_split
I1130 20:14:44.171914 30472 net.cpp:100] Creating Layer inception_4c/output_inception_4c/output_0_split
I1130 20:14:44.171921 30472 net.cpp:434] inception_4c/output_inception_4c/output_0_split <- inception_4c/output
I1130 20:14:44.171931 30472 net.cpp:408] inception_4c/output_inception_4c/output_0_split -> inception_4c/output_inception_4c/output_0_split_0
I1130 20:14:44.171947 30472 net.cpp:408] inception_4c/output_inception_4c/output_0_split -> inception_4c/output_inception_4c/output_0_split_1
I1130 20:14:44.171957 30472 net.cpp:408] inception_4c/output_inception_4c/output_0_split -> inception_4c/output_inception_4c/output_0_split_2
I1130 20:14:44.171977 30472 net.cpp:408] inception_4c/output_inception_4c/output_0_split -> inception_4c/output_inception_4c/output_0_split_3
I1130 20:14:44.172058 30472 net.cpp:150] Setting up inception_4c/output_inception_4c/output_0_split
I1130 20:14:44.172078 30472 net.cpp:157] Top shape: 100 512 10 5 (2560000)
I1130 20:14:44.172086 30472 net.cpp:157] Top shape: 100 512 10 5 (2560000)
I1130 20:14:44.172092 30472 net.cpp:157] Top shape: 100 512 10 5 (2560000)
I1130 20:14:44.172099 30472 net.cpp:157] Top shape: 100 512 10 5 (2560000)
I1130 20:14:44.172106 30472 net.cpp:165] Memory required for data: 1123201200
I1130 20:14:44.172111 30472 layer_factory.hpp:77] Creating layer inception_4d/1x1
I1130 20:14:44.172128 30472 net.cpp:100] Creating Layer inception_4d/1x1
I1130 20:14:44.172137 30472 net.cpp:434] inception_4d/1x1 <- inception_4c/output_inception_4c/output_0_split_0
I1130 20:14:44.172154 30472 net.cpp:408] inception_4d/1x1 -> inception_4d/1x1
I1130 20:14:44.173810 30472 net.cpp:150] Setting up inception_4d/1x1
I1130 20:14:44.173851 30472 net.cpp:157] Top shape: 100 112 10 5 (560000)
I1130 20:14:44.173859 30472 net.cpp:165] Memory required for data: 1125441200
I1130 20:14:44.173880 30472 layer_factory.hpp:77] Creating layer inception_4d/relu_1x1
I1130 20:14:44.173892 30472 net.cpp:100] Creating Layer inception_4d/relu_1x1
I1130 20:14:44.173899 30472 net.cpp:434] inception_4d/relu_1x1 <- inception_4d/1x1
I1130 20:14:44.173910 30472 net.cpp:395] inception_4d/relu_1x1 -> inception_4d/1x1 (in-place)
I1130 20:14:44.174103 30472 net.cpp:150] Setting up inception_4d/relu_1x1
I1130 20:14:44.174134 30472 net.cpp:157] Top shape: 100 112 10 5 (560000)
I1130 20:14:44.174139 30472 net.cpp:165] Memory required for data: 1127681200
I1130 20:14:44.174157 30472 layer_factory.hpp:77] Creating layer inception_4d/3x3_reduce
I1130 20:14:44.174172 30472 net.cpp:100] Creating Layer inception_4d/3x3_reduce
I1130 20:14:44.174180 30472 net.cpp:434] inception_4d/3x3_reduce <- inception_4c/output_inception_4c/output_0_split_1
I1130 20:14:44.174202 30472 net.cpp:408] inception_4d/3x3_reduce -> inception_4d/3x3_reduce
I1130 20:14:44.175961 30472 net.cpp:150] Setting up inception_4d/3x3_reduce
I1130 20:14:44.175997 30472 net.cpp:157] Top shape: 100 144 10 5 (720000)
I1130 20:14:44.176005 30472 net.cpp:165] Memory required for data: 1130561200
I1130 20:14:44.176018 30472 layer_factory.hpp:77] Creating layer inception_4d/relu_3x3_reduce
I1130 20:14:44.176031 30472 net.cpp:100] Creating Layer inception_4d/relu_3x3_reduce
I1130 20:14:44.176040 30472 net.cpp:434] inception_4d/relu_3x3_reduce <- inception_4d/3x3_reduce
I1130 20:14:44.176048 30472 net.cpp:395] inception_4d/relu_3x3_reduce -> inception_4d/3x3_reduce (in-place)
I1130 20:14:44.176394 30472 net.cpp:150] Setting up inception_4d/relu_3x3_reduce
I1130 20:14:44.176429 30472 net.cpp:157] Top shape: 100 144 10 5 (720000)
I1130 20:14:44.176440 30472 net.cpp:165] Memory required for data: 1133441200
I1130 20:14:44.176446 30472 layer_factory.hpp:77] Creating layer inception_4d/3x3
I1130 20:14:44.176463 30472 net.cpp:100] Creating Layer inception_4d/3x3
I1130 20:14:44.176482 30472 net.cpp:434] inception_4d/3x3 <- inception_4d/3x3_reduce
I1130 20:14:44.176492 30472 net.cpp:408] inception_4d/3x3 -> inception_4d/3x3
I1130 20:14:44.181129 30472 net.cpp:150] Setting up inception_4d/3x3
I1130 20:14:44.181186 30472 net.cpp:157] Top shape: 100 288 10 5 (1440000)
I1130 20:14:44.181195 30472 net.cpp:165] Memory required for data: 1139201200
I1130 20:14:44.181210 30472 layer_factory.hpp:77] Creating layer inception_4d/relu_3x3
I1130 20:14:44.181226 30472 net.cpp:100] Creating Layer inception_4d/relu_3x3
I1130 20:14:44.181241 30472 net.cpp:434] inception_4d/relu_3x3 <- inception_4d/3x3
I1130 20:14:44.181254 30472 net.cpp:395] inception_4d/relu_3x3 -> inception_4d/3x3 (in-place)
I1130 20:14:44.181740 30472 net.cpp:150] Setting up inception_4d/relu_3x3
I1130 20:14:44.181777 30472 net.cpp:157] Top shape: 100 288 10 5 (1440000)
I1130 20:14:44.181787 30472 net.cpp:165] Memory required for data: 1144961200
I1130 20:14:44.181839 30472 layer_factory.hpp:77] Creating layer inception_4d/5x5_reduce
I1130 20:14:44.181880 30472 net.cpp:100] Creating Layer inception_4d/5x5_reduce
I1130 20:14:44.181900 30472 net.cpp:434] inception_4d/5x5_reduce <- inception_4c/output_inception_4c/output_0_split_2
I1130 20:14:44.181931 30472 net.cpp:408] inception_4d/5x5_reduce -> inception_4d/5x5_reduce
I1130 20:14:44.183393 30472 net.cpp:150] Setting up inception_4d/5x5_reduce
I1130 20:14:44.183425 30472 net.cpp:157] Top shape: 100 32 10 5 (160000)
I1130 20:14:44.183432 30472 net.cpp:165] Memory required for data: 1145601200
I1130 20:14:44.183450 30472 layer_factory.hpp:77] Creating layer inception_4d/relu_5x5_reduce
I1130 20:14:44.183460 30472 net.cpp:100] Creating Layer inception_4d/relu_5x5_reduce
I1130 20:14:44.183468 30472 net.cpp:434] inception_4d/relu_5x5_reduce <- inception_4d/5x5_reduce
I1130 20:14:44.183477 30472 net.cpp:395] inception_4d/relu_5x5_reduce -> inception_4d/5x5_reduce (in-place)
I1130 20:14:44.183677 30472 net.cpp:150] Setting up inception_4d/relu_5x5_reduce
I1130 20:14:44.183709 30472 net.cpp:157] Top shape: 100 32 10 5 (160000)
I1130 20:14:44.183718 30472 net.cpp:165] Memory required for data: 1146241200
I1130 20:14:44.183727 30472 layer_factory.hpp:77] Creating layer inception_4d/5x5
I1130 20:14:44.183748 30472 net.cpp:100] Creating Layer inception_4d/5x5
I1130 20:14:44.183760 30472 net.cpp:434] inception_4d/5x5 <- inception_4d/5x5_reduce
I1130 20:14:44.183771 30472 net.cpp:408] inception_4d/5x5 -> inception_4d/5x5
I1130 20:14:44.185286 30472 net.cpp:150] Setting up inception_4d/5x5
I1130 20:14:44.185353 30472 net.cpp:157] Top shape: 100 64 10 5 (320000)
I1130 20:14:44.185376 30472 net.cpp:165] Memory required for data: 1147521200
I1130 20:14:44.185395 30472 layer_factory.hpp:77] Creating layer inception_4d/relu_5x5
I1130 20:14:44.185411 30472 net.cpp:100] Creating Layer inception_4d/relu_5x5
I1130 20:14:44.185438 30472 net.cpp:434] inception_4d/relu_5x5 <- inception_4d/5x5
I1130 20:14:44.185456 30472 net.cpp:395] inception_4d/relu_5x5 -> inception_4d/5x5 (in-place)
I1130 20:14:44.186120 30472 net.cpp:150] Setting up inception_4d/relu_5x5
I1130 20:14:44.186214 30472 net.cpp:157] Top shape: 100 64 10 5 (320000)
I1130 20:14:44.186264 30472 net.cpp:165] Memory required for data: 1148801200
I1130 20:14:44.186316 30472 layer_factory.hpp:77] Creating layer inception_4d/pool
I1130 20:14:44.186372 30472 net.cpp:100] Creating Layer inception_4d/pool
I1130 20:14:44.186399 30472 net.cpp:434] inception_4d/pool <- inception_4c/output_inception_4c/output_0_split_3
I1130 20:14:44.186432 30472 net.cpp:408] inception_4d/pool -> inception_4d/pool
I1130 20:14:44.186616 30472 net.cpp:150] Setting up inception_4d/pool
I1130 20:14:44.186671 30472 net.cpp:157] Top shape: 100 512 10 5 (2560000)
I1130 20:14:44.186699 30472 net.cpp:165] Memory required for data: 1159041200
I1130 20:14:44.186730 30472 layer_factory.hpp:77] Creating layer inception_4d/pool_proj
I1130 20:14:44.186780 30472 net.cpp:100] Creating Layer inception_4d/pool_proj
I1130 20:14:44.186807 30472 net.cpp:434] inception_4d/pool_proj <- inception_4d/pool
I1130 20:14:44.186856 30472 net.cpp:408] inception_4d/pool_proj -> inception_4d/pool_proj
I1130 20:14:44.189383 30472 net.cpp:150] Setting up inception_4d/pool_proj
I1130 20:14:44.189482 30472 net.cpp:157] Top shape: 100 64 10 5 (320000)
I1130 20:14:44.189515 30472 net.cpp:165] Memory required for data: 1160321200
I1130 20:14:44.189568 30472 layer_factory.hpp:77] Creating layer inception_4d/relu_pool_proj
I1130 20:14:44.189630 30472 net.cpp:100] Creating Layer inception_4d/relu_pool_proj
I1130 20:14:44.189678 30472 net.cpp:434] inception_4d/relu_pool_proj <- inception_4d/pool_proj
I1130 20:14:44.189719 30472 net.cpp:395] inception_4d/relu_pool_proj -> inception_4d/pool_proj (in-place)
I1130 20:14:44.190433 30472 net.cpp:150] Setting up inception_4d/relu_pool_proj
I1130 20:14:44.190469 30472 net.cpp:157] Top shape: 100 64 10 5 (320000)
I1130 20:14:44.190475 30472 net.cpp:165] Memory required for data: 1161601200
I1130 20:14:44.190505 30472 layer_factory.hpp:77] Creating layer inception_4d/output
I1130 20:14:44.190526 30472 net.cpp:100] Creating Layer inception_4d/output
I1130 20:14:44.190536 30472 net.cpp:434] inception_4d/output <- inception_4d/1x1
I1130 20:14:44.190546 30472 net.cpp:434] inception_4d/output <- inception_4d/3x3
I1130 20:14:44.190552 30472 net.cpp:434] inception_4d/output <- inception_4d/5x5
I1130 20:14:44.190558 30472 net.cpp:434] inception_4d/output <- inception_4d/pool_proj
I1130 20:14:44.190568 30472 net.cpp:408] inception_4d/output -> inception_4d/output
I1130 20:14:44.190618 30472 net.cpp:150] Setting up inception_4d/output
I1130 20:14:44.190630 30472 net.cpp:157] Top shape: 100 528 10 5 (2640000)
I1130 20:14:44.190637 30472 net.cpp:165] Memory required for data: 1172161200
I1130 20:14:44.190644 30472 layer_factory.hpp:77] Creating layer inception_4d/output_inception_4d/output_0_split
I1130 20:14:44.190663 30472 net.cpp:100] Creating Layer inception_4d/output_inception_4d/output_0_split
I1130 20:14:44.190671 30472 net.cpp:434] inception_4d/output_inception_4d/output_0_split <- inception_4d/output
I1130 20:14:44.190680 30472 net.cpp:408] inception_4d/output_inception_4d/output_0_split -> inception_4d/output_inception_4d/output_0_split_0
I1130 20:14:44.190688 30472 net.cpp:408] inception_4d/output_inception_4d/output_0_split -> inception_4d/output_inception_4d/output_0_split_1
I1130 20:14:44.190704 30472 net.cpp:408] inception_4d/output_inception_4d/output_0_split -> inception_4d/output_inception_4d/output_0_split_2
I1130 20:14:44.190726 30472 net.cpp:408] inception_4d/output_inception_4d/output_0_split -> inception_4d/output_inception_4d/output_0_split_3
I1130 20:14:44.190860 30472 net.cpp:150] Setting up inception_4d/output_inception_4d/output_0_split
I1130 20:14:44.190878 30472 net.cpp:157] Top shape: 100 528 10 5 (2640000)
I1130 20:14:44.190886 30472 net.cpp:157] Top shape: 100 528 10 5 (2640000)
I1130 20:14:44.190893 30472 net.cpp:157] Top shape: 100 528 10 5 (2640000)
I1130 20:14:44.190901 30472 net.cpp:157] Top shape: 100 528 10 5 (2640000)
I1130 20:14:44.190909 30472 net.cpp:165] Memory required for data: 1214401200
I1130 20:14:44.190920 30472 layer_factory.hpp:77] Creating layer inception_4e/1x1
I1130 20:14:44.190939 30472 net.cpp:100] Creating Layer inception_4e/1x1
I1130 20:14:44.190949 30472 net.cpp:434] inception_4e/1x1 <- inception_4d/output_inception_4d/output_0_split_0
I1130 20:14:44.190958 30472 net.cpp:408] inception_4e/1x1 -> inception_4e/1x1
I1130 20:14:44.193644 30472 net.cpp:150] Setting up inception_4e/1x1
I1130 20:14:44.193691 30472 net.cpp:157] Top shape: 100 256 10 5 (1280000)
I1130 20:14:44.193708 30472 net.cpp:165] Memory required for data: 1219521200
I1130 20:14:44.193722 30472 layer_factory.hpp:77] Creating layer inception_4e/relu_1x1
I1130 20:14:44.193733 30472 net.cpp:100] Creating Layer inception_4e/relu_1x1
I1130 20:14:44.193742 30472 net.cpp:434] inception_4e/relu_1x1 <- inception_4e/1x1
I1130 20:14:44.193749 30472 net.cpp:395] inception_4e/relu_1x1 -> inception_4e/1x1 (in-place)
I1130 20:14:44.193917 30472 net.cpp:150] Setting up inception_4e/relu_1x1
I1130 20:14:44.193949 30472 net.cpp:157] Top shape: 100 256 10 5 (1280000)
I1130 20:14:44.193956 30472 net.cpp:165] Memory required for data: 1224641200
I1130 20:14:44.193974 30472 layer_factory.hpp:77] Creating layer inception_4e/3x3_reduce
I1130 20:14:44.194000 30472 net.cpp:100] Creating Layer inception_4e/3x3_reduce
I1130 20:14:44.194008 30472 net.cpp:434] inception_4e/3x3_reduce <- inception_4d/output_inception_4d/output_0_split_1
I1130 20:14:44.194030 30472 net.cpp:408] inception_4e/3x3_reduce -> inception_4e/3x3_reduce
I1130 20:14:44.195628 30472 net.cpp:150] Setting up inception_4e/3x3_reduce
I1130 20:14:44.195667 30472 net.cpp:157] Top shape: 100 160 10 5 (800000)
I1130 20:14:44.195675 30472 net.cpp:165] Memory required for data: 1227841200
I1130 20:14:44.195686 30472 layer_factory.hpp:77] Creating layer inception_4e/relu_3x3_reduce
I1130 20:14:44.195714 30472 net.cpp:100] Creating Layer inception_4e/relu_3x3_reduce
I1130 20:14:44.195751 30472 net.cpp:434] inception_4e/relu_3x3_reduce <- inception_4e/3x3_reduce
I1130 20:14:44.195770 30472 net.cpp:395] inception_4e/relu_3x3_reduce -> inception_4e/3x3_reduce (in-place)
I1130 20:14:44.196069 30472 net.cpp:150] Setting up inception_4e/relu_3x3_reduce
I1130 20:14:44.196099 30472 net.cpp:157] Top shape: 100 160 10 5 (800000)
I1130 20:14:44.196105 30472 net.cpp:165] Memory required for data: 1231041200
I1130 20:14:44.196110 30472 layer_factory.hpp:77] Creating layer inception_4e/3x3
I1130 20:14:44.196131 30472 net.cpp:100] Creating Layer inception_4e/3x3
I1130 20:14:44.196138 30472 net.cpp:434] inception_4e/3x3 <- inception_4e/3x3_reduce
I1130 20:14:44.196156 30472 net.cpp:408] inception_4e/3x3 -> inception_4e/3x3
I1130 20:14:44.201119 30472 net.cpp:150] Setting up inception_4e/3x3
I1130 20:14:44.201172 30472 net.cpp:157] Top shape: 100 320 10 5 (1600000)
I1130 20:14:44.201179 30472 net.cpp:165] Memory required for data: 1237441200
I1130 20:14:44.201200 30472 layer_factory.hpp:77] Creating layer inception_4e/relu_3x3
I1130 20:14:44.201225 30472 net.cpp:100] Creating Layer inception_4e/relu_3x3
I1130 20:14:44.201237 30472 net.cpp:434] inception_4e/relu_3x3 <- inception_4e/3x3
I1130 20:14:44.201249 30472 net.cpp:395] inception_4e/relu_3x3 -> inception_4e/3x3 (in-place)
I1130 20:14:44.201620 30472 net.cpp:150] Setting up inception_4e/relu_3x3
I1130 20:14:44.201649 30472 net.cpp:157] Top shape: 100 320 10 5 (1600000)
I1130 20:14:44.201656 30472 net.cpp:165] Memory required for data: 1243841200
I1130 20:14:44.201664 30472 layer_factory.hpp:77] Creating layer inception_4e/5x5_reduce
I1130 20:14:44.201686 30472 net.cpp:100] Creating Layer inception_4e/5x5_reduce
I1130 20:14:44.201694 30472 net.cpp:434] inception_4e/5x5_reduce <- inception_4d/output_inception_4d/output_0_split_2
I1130 20:14:44.201709 30472 net.cpp:408] inception_4e/5x5_reduce -> inception_4e/5x5_reduce
I1130 20:14:44.202839 30472 net.cpp:150] Setting up inception_4e/5x5_reduce
I1130 20:14:44.202875 30472 net.cpp:157] Top shape: 100 32 10 5 (160000)
I1130 20:14:44.202883 30472 net.cpp:165] Memory required for data: 1244481200
I1130 20:14:44.202908 30472 layer_factory.hpp:77] Creating layer inception_4e/relu_5x5_reduce
I1130 20:14:44.202925 30472 net.cpp:100] Creating Layer inception_4e/relu_5x5_reduce
I1130 20:14:44.202931 30472 net.cpp:434] inception_4e/relu_5x5_reduce <- inception_4e/5x5_reduce
I1130 20:14:44.202946 30472 net.cpp:395] inception_4e/relu_5x5_reduce -> inception_4e/5x5_reduce (in-place)
I1130 20:14:44.203105 30472 net.cpp:150] Setting up inception_4e/relu_5x5_reduce
I1130 20:14:44.203127 30472 net.cpp:157] Top shape: 100 32 10 5 (160000)
I1130 20:14:44.203133 30472 net.cpp:165] Memory required for data: 1245121200
I1130 20:14:44.203140 30472 layer_factory.hpp:77] Creating layer inception_4e/5x5
I1130 20:14:44.203158 30472 net.cpp:100] Creating Layer inception_4e/5x5
I1130 20:14:44.203166 30472 net.cpp:434] inception_4e/5x5 <- inception_4e/5x5_reduce
I1130 20:14:44.203181 30472 net.cpp:408] inception_4e/5x5 -> inception_4e/5x5
I1130 20:14:44.205739 30472 net.cpp:150] Setting up inception_4e/5x5
I1130 20:14:44.205796 30472 net.cpp:157] Top shape: 100 128 10 5 (640000)
I1130 20:14:44.205811 30472 net.cpp:165] Memory required for data: 1247681200
I1130 20:14:44.205840 30472 layer_factory.hpp:77] Creating layer inception_4e/relu_5x5
I1130 20:14:44.205864 30472 net.cpp:100] Creating Layer inception_4e/relu_5x5
I1130 20:14:44.205871 30472 net.cpp:434] inception_4e/relu_5x5 <- inception_4e/5x5
I1130 20:14:44.205896 30472 net.cpp:395] inception_4e/relu_5x5 -> inception_4e/5x5 (in-place)
I1130 20:14:44.206225 30472 net.cpp:150] Setting up inception_4e/relu_5x5
I1130 20:14:44.206257 30472 net.cpp:157] Top shape: 100 128 10 5 (640000)
I1130 20:14:44.206274 30472 net.cpp:165] Memory required for data: 1250241200
I1130 20:14:44.206280 30472 layer_factory.hpp:77] Creating layer inception_4e/pool
I1130 20:14:44.206298 30472 net.cpp:100] Creating Layer inception_4e/pool
I1130 20:14:44.206315 30472 net.cpp:434] inception_4e/pool <- inception_4d/output_inception_4d/output_0_split_3
I1130 20:14:44.206353 30472 net.cpp:408] inception_4e/pool -> inception_4e/pool
I1130 20:14:44.206419 30472 net.cpp:150] Setting up inception_4e/pool
I1130 20:14:44.206439 30472 net.cpp:157] Top shape: 100 528 10 5 (2640000)
I1130 20:14:44.206444 30472 net.cpp:165] Memory required for data: 1260801200
I1130 20:14:44.206449 30472 layer_factory.hpp:77] Creating layer inception_4e/pool_proj
I1130 20:14:44.206471 30472 net.cpp:100] Creating Layer inception_4e/pool_proj
I1130 20:14:44.206478 30472 net.cpp:434] inception_4e/pool_proj <- inception_4e/pool
I1130 20:14:44.206496 30472 net.cpp:408] inception_4e/pool_proj -> inception_4e/pool_proj
I1130 20:14:44.207872 30472 net.cpp:150] Setting up inception_4e/pool_proj
I1130 20:14:44.207907 30472 net.cpp:157] Top shape: 100 128 10 5 (640000)
I1130 20:14:44.207914 30472 net.cpp:165] Memory required for data: 1263361200
I1130 20:14:44.207926 30472 layer_factory.hpp:77] Creating layer inception_4e/relu_pool_proj
I1130 20:14:44.207944 30472 net.cpp:100] Creating Layer inception_4e/relu_pool_proj
I1130 20:14:44.207952 30472 net.cpp:434] inception_4e/relu_pool_proj <- inception_4e/pool_proj
I1130 20:14:44.207962 30472 net.cpp:395] inception_4e/relu_pool_proj -> inception_4e/pool_proj (in-place)
I1130 20:14:44.208365 30472 net.cpp:150] Setting up inception_4e/relu_pool_proj
I1130 20:14:44.208397 30472 net.cpp:157] Top shape: 100 128 10 5 (640000)
I1130 20:14:44.208405 30472 net.cpp:165] Memory required for data: 1265921200
I1130 20:14:44.208421 30472 layer_factory.hpp:77] Creating layer inception_4e/output
I1130 20:14:44.208439 30472 net.cpp:100] Creating Layer inception_4e/output
I1130 20:14:44.208446 30472 net.cpp:434] inception_4e/output <- inception_4e/1x1
I1130 20:14:44.208454 30472 net.cpp:434] inception_4e/output <- inception_4e/3x3
I1130 20:14:44.208461 30472 net.cpp:434] inception_4e/output <- inception_4e/5x5
I1130 20:14:44.208477 30472 net.cpp:434] inception_4e/output <- inception_4e/pool_proj
I1130 20:14:44.208503 30472 net.cpp:408] inception_4e/output -> inception_4e/output
I1130 20:14:44.208547 30472 net.cpp:150] Setting up inception_4e/output
I1130 20:14:44.208571 30472 net.cpp:157] Top shape: 100 832 10 5 (4160000)
I1130 20:14:44.208577 30472 net.cpp:165] Memory required for data: 1282561200
I1130 20:14:44.208585 30472 layer_factory.hpp:77] Creating layer inception_4e/output_inception_4e/output_0_split
I1130 20:14:44.208603 30472 net.cpp:100] Creating Layer inception_4e/output_inception_4e/output_0_split
I1130 20:14:44.208611 30472 net.cpp:434] inception_4e/output_inception_4e/output_0_split <- inception_4e/output
I1130 20:14:44.208636 30472 net.cpp:408] inception_4e/output_inception_4e/output_0_split -> inception_4e/output_inception_4e/output_0_split_0
I1130 20:14:44.208655 30472 net.cpp:408] inception_4e/output_inception_4e/output_0_split -> inception_4e/output_inception_4e/output_0_split_1
I1130 20:14:44.208673 30472 net.cpp:408] inception_4e/output_inception_4e/output_0_split -> inception_4e/output_inception_4e/output_0_split_2
I1130 20:14:44.208689 30472 net.cpp:408] inception_4e/output_inception_4e/output_0_split -> inception_4e/output_inception_4e/output_0_split_3
I1130 20:14:44.208770 30472 net.cpp:150] Setting up inception_4e/output_inception_4e/output_0_split
I1130 20:14:44.208789 30472 net.cpp:157] Top shape: 100 832 10 5 (4160000)
I1130 20:14:44.208797 30472 net.cpp:157] Top shape: 100 832 10 5 (4160000)
I1130 20:14:44.208804 30472 net.cpp:157] Top shape: 100 832 10 5 (4160000)
I1130 20:14:44.208818 30472 net.cpp:157] Top shape: 100 832 10 5 (4160000)
I1130 20:14:44.208824 30472 net.cpp:165] Memory required for data: 1349121200
I1130 20:14:44.208832 30472 layer_factory.hpp:77] Creating layer inception_5a/1x1
I1130 20:14:44.208853 30472 net.cpp:100] Creating Layer inception_5a/1x1
I1130 20:14:44.208863 30472 net.cpp:434] inception_5a/1x1 <- inception_4e/output_inception_4e/output_0_split_0
I1130 20:14:44.208879 30472 net.cpp:408] inception_5a/1x1 -> inception_5a/1x1
I1130 20:14:44.211753 30472 net.cpp:150] Setting up inception_5a/1x1
I1130 20:14:44.211802 30472 net.cpp:157] Top shape: 100 256 10 5 (1280000)
I1130 20:14:44.211817 30472 net.cpp:165] Memory required for data: 1354241200
I1130 20:14:44.211836 30472 layer_factory.hpp:77] Creating layer inception_5a/relu_1x1
I1130 20:14:44.211854 30472 net.cpp:100] Creating Layer inception_5a/relu_1x1
I1130 20:14:44.211866 30472 net.cpp:434] inception_5a/relu_1x1 <- inception_5a/1x1
I1130 20:14:44.211889 30472 net.cpp:395] inception_5a/relu_1x1 -> inception_5a/1x1 (in-place)
I1130 20:14:44.212052 30472 net.cpp:150] Setting up inception_5a/relu_1x1
I1130 20:14:44.212080 30472 net.cpp:157] Top shape: 100 256 10 5 (1280000)
I1130 20:14:44.212086 30472 net.cpp:165] Memory required for data: 1359361200
I1130 20:14:44.212105 30472 layer_factory.hpp:77] Creating layer inception_5a/3x3_reduce
I1130 20:14:44.212127 30472 net.cpp:100] Creating Layer inception_5a/3x3_reduce
I1130 20:14:44.212134 30472 net.cpp:434] inception_5a/3x3_reduce <- inception_4e/output_inception_4e/output_0_split_1
I1130 20:14:44.212152 30472 net.cpp:408] inception_5a/3x3_reduce -> inception_5a/3x3_reduce
I1130 20:14:44.214956 30472 net.cpp:150] Setting up inception_5a/3x3_reduce
I1130 20:14:44.215014 30472 net.cpp:157] Top shape: 100 160 10 5 (800000)
I1130 20:14:44.215023 30472 net.cpp:165] Memory required for data: 1362561200
I1130 20:14:44.215054 30472 layer_factory.hpp:77] Creating layer inception_5a/relu_3x3_reduce
I1130 20:14:44.215075 30472 net.cpp:100] Creating Layer inception_5a/relu_3x3_reduce
I1130 20:14:44.215095 30472 net.cpp:434] inception_5a/relu_3x3_reduce <- inception_5a/3x3_reduce
I1130 20:14:44.215112 30472 net.cpp:395] inception_5a/relu_3x3_reduce -> inception_5a/3x3_reduce (in-place)
I1130 20:14:44.215468 30472 net.cpp:150] Setting up inception_5a/relu_3x3_reduce
I1130 20:14:44.215500 30472 net.cpp:157] Top shape: 100 160 10 5 (800000)
I1130 20:14:44.215507 30472 net.cpp:165] Memory required for data: 1365761200
I1130 20:14:44.215514 30472 layer_factory.hpp:77] Creating layer inception_5a/3x3
I1130 20:14:44.215538 30472 net.cpp:100] Creating Layer inception_5a/3x3
I1130 20:14:44.215564 30472 net.cpp:434] inception_5a/3x3 <- inception_5a/3x3_reduce
I1130 20:14:44.215584 30472 net.cpp:408] inception_5a/3x3 -> inception_5a/3x3
I1130 20:14:44.220942 30472 net.cpp:150] Setting up inception_5a/3x3
I1130 20:14:44.221025 30472 net.cpp:157] Top shape: 100 320 10 5 (1600000)
I1130 20:14:44.221040 30472 net.cpp:165] Memory required for data: 1372161200
I1130 20:14:44.221070 30472 layer_factory.hpp:77] Creating layer inception_5a/relu_3x3
I1130 20:14:44.221102 30472 net.cpp:100] Creating Layer inception_5a/relu_3x3
I1130 20:14:44.221132 30472 net.cpp:434] inception_5a/relu_3x3 <- inception_5a/3x3
I1130 20:14:44.221159 30472 net.cpp:395] inception_5a/relu_3x3 -> inception_5a/3x3 (in-place)
I1130 20:14:44.221624 30472 net.cpp:150] Setting up inception_5a/relu_3x3
I1130 20:14:44.221658 30472 net.cpp:157] Top shape: 100 320 10 5 (1600000)
I1130 20:14:44.221674 30472 net.cpp:165] Memory required for data: 1378561200
I1130 20:14:44.221686 30472 layer_factory.hpp:77] Creating layer inception_5a/5x5_reduce
I1130 20:14:44.221709 30472 net.cpp:100] Creating Layer inception_5a/5x5_reduce
I1130 20:14:44.221729 30472 net.cpp:434] inception_5a/5x5_reduce <- inception_4e/output_inception_4e/output_0_split_2
I1130 20:14:44.221741 30472 net.cpp:408] inception_5a/5x5_reduce -> inception_5a/5x5_reduce
I1130 20:14:44.223181 30472 net.cpp:150] Setting up inception_5a/5x5_reduce
I1130 20:14:44.223213 30472 net.cpp:157] Top shape: 100 32 10 5 (160000)
I1130 20:14:44.223220 30472 net.cpp:165] Memory required for data: 1379201200
I1130 20:14:44.223230 30472 layer_factory.hpp:77] Creating layer inception_5a/relu_5x5_reduce
I1130 20:14:44.223245 30472 net.cpp:100] Creating Layer inception_5a/relu_5x5_reduce
I1130 20:14:44.223255 30472 net.cpp:434] inception_5a/relu_5x5_reduce <- inception_5a/5x5_reduce
I1130 20:14:44.223265 30472 net.cpp:395] inception_5a/relu_5x5_reduce -> inception_5a/5x5_reduce (in-place)
I1130 20:14:44.223474 30472 net.cpp:150] Setting up inception_5a/relu_5x5_reduce
I1130 20:14:44.223505 30472 net.cpp:157] Top shape: 100 32 10 5 (160000)
I1130 20:14:44.223513 30472 net.cpp:165] Memory required for data: 1379841200
I1130 20:14:44.223521 30472 layer_factory.hpp:77] Creating layer inception_5a/5x5
I1130 20:14:44.223541 30472 net.cpp:100] Creating Layer inception_5a/5x5
I1130 20:14:44.223549 30472 net.cpp:434] inception_5a/5x5 <- inception_5a/5x5_reduce
I1130 20:14:44.223558 30472 net.cpp:408] inception_5a/5x5 -> inception_5a/5x5
I1130 20:14:44.225334 30472 net.cpp:150] Setting up inception_5a/5x5
I1130 20:14:44.225370 30472 net.cpp:157] Top shape: 100 128 10 5 (640000)
I1130 20:14:44.225386 30472 net.cpp:165] Memory required for data: 1382401200
I1130 20:14:44.225406 30472 layer_factory.hpp:77] Creating layer inception_5a/relu_5x5
I1130 20:14:44.225415 30472 net.cpp:100] Creating Layer inception_5a/relu_5x5
I1130 20:14:44.225424 30472 net.cpp:434] inception_5a/relu_5x5 <- inception_5a/5x5
I1130 20:14:44.225433 30472 net.cpp:395] inception_5a/relu_5x5 -> inception_5a/5x5 (in-place)
I1130 20:14:44.225796 30472 net.cpp:150] Setting up inception_5a/relu_5x5
I1130 20:14:44.225828 30472 net.cpp:157] Top shape: 100 128 10 5 (640000)
I1130 20:14:44.225837 30472 net.cpp:165] Memory required for data: 1384961200
I1130 20:14:44.225844 30472 layer_factory.hpp:77] Creating layer inception_5a/pool
I1130 20:14:44.225879 30472 net.cpp:100] Creating Layer inception_5a/pool
I1130 20:14:44.225901 30472 net.cpp:434] inception_5a/pool <- inception_4e/output_inception_4e/output_0_split_3
I1130 20:14:44.225913 30472 net.cpp:408] inception_5a/pool -> inception_5a/pool
I1130 20:14:44.225991 30472 net.cpp:150] Setting up inception_5a/pool
I1130 20:14:44.226018 30472 net.cpp:157] Top shape: 100 832 10 5 (4160000)
I1130 20:14:44.226027 30472 net.cpp:165] Memory required for data: 1401601200
I1130 20:14:44.226037 30472 layer_factory.hpp:77] Creating layer inception_5a/pool_proj
I1130 20:14:44.226055 30472 net.cpp:100] Creating Layer inception_5a/pool_proj
I1130 20:14:44.226065 30472 net.cpp:434] inception_5a/pool_proj <- inception_5a/pool
I1130 20:14:44.226084 30472 net.cpp:408] inception_5a/pool_proj -> inception_5a/pool_proj
I1130 20:14:44.228209 30472 net.cpp:150] Setting up inception_5a/pool_proj
I1130 20:14:44.228253 30472 net.cpp:157] Top shape: 100 128 10 5 (640000)
I1130 20:14:44.228260 30472 net.cpp:165] Memory required for data: 1404161200
I1130 20:14:44.228283 30472 layer_factory.hpp:77] Creating layer inception_5a/relu_pool_proj
I1130 20:14:44.228303 30472 net.cpp:100] Creating Layer inception_5a/relu_pool_proj
I1130 20:14:44.228324 30472 net.cpp:434] inception_5a/relu_pool_proj <- inception_5a/pool_proj
I1130 20:14:44.228338 30472 net.cpp:395] inception_5a/relu_pool_proj -> inception_5a/pool_proj (in-place)
I1130 20:14:44.228701 30472 net.cpp:150] Setting up inception_5a/relu_pool_proj
I1130 20:14:44.228730 30472 net.cpp:157] Top shape: 100 128 10 5 (640000)
I1130 20:14:44.228736 30472 net.cpp:165] Memory required for data: 1406721200
I1130 20:14:44.228742 30472 layer_factory.hpp:77] Creating layer inception_5a/output
I1130 20:14:44.228765 30472 net.cpp:100] Creating Layer inception_5a/output
I1130 20:14:44.228782 30472 net.cpp:434] inception_5a/output <- inception_5a/1x1
I1130 20:14:44.228799 30472 net.cpp:434] inception_5a/output <- inception_5a/3x3
I1130 20:14:44.228817 30472 net.cpp:434] inception_5a/output <- inception_5a/5x5
I1130 20:14:44.228826 30472 net.cpp:434] inception_5a/output <- inception_5a/pool_proj
I1130 20:14:44.228835 30472 net.cpp:408] inception_5a/output -> inception_5a/output
I1130 20:14:44.228900 30472 net.cpp:150] Setting up inception_5a/output
I1130 20:14:44.228929 30472 net.cpp:157] Top shape: 100 832 10 5 (4160000)
I1130 20:14:44.228946 30472 net.cpp:165] Memory required for data: 1423361200
I1130 20:14:44.228955 30472 layer_factory.hpp:77] Creating layer inception_5a/output_inception_5a/output_0_split
I1130 20:14:44.228973 30472 net.cpp:100] Creating Layer inception_5a/output_inception_5a/output_0_split
I1130 20:14:44.229012 30472 net.cpp:434] inception_5a/output_inception_5a/output_0_split <- inception_5a/output
I1130 20:14:44.229035 30472 net.cpp:408] inception_5a/output_inception_5a/output_0_split -> inception_5a/output_inception_5a/output_0_split_0
I1130 20:14:44.229055 30472 net.cpp:408] inception_5a/output_inception_5a/output_0_split -> inception_5a/output_inception_5a/output_0_split_1
I1130 20:14:44.229074 30472 net.cpp:408] inception_5a/output_inception_5a/output_0_split -> inception_5a/output_inception_5a/output_0_split_2
I1130 20:14:44.229096 30472 net.cpp:408] inception_5a/output_inception_5a/output_0_split -> inception_5a/output_inception_5a/output_0_split_3
I1130 20:14:44.229241 30472 net.cpp:150] Setting up inception_5a/output_inception_5a/output_0_split
I1130 20:14:44.229262 30472 net.cpp:157] Top shape: 100 832 10 5 (4160000)
I1130 20:14:44.229277 30472 net.cpp:157] Top shape: 100 832 10 5 (4160000)
I1130 20:14:44.229285 30472 net.cpp:157] Top shape: 100 832 10 5 (4160000)
I1130 20:14:44.229290 30472 net.cpp:157] Top shape: 100 832 10 5 (4160000)
I1130 20:14:44.229296 30472 net.cpp:165] Memory required for data: 1489921200
I1130 20:14:44.229321 30472 layer_factory.hpp:77] Creating layer inception_5b/1x1
I1130 20:14:44.229337 30472 net.cpp:100] Creating Layer inception_5b/1x1
I1130 20:14:44.229352 30472 net.cpp:434] inception_5b/1x1 <- inception_5a/output_inception_5a/output_0_split_0
I1130 20:14:44.229369 30472 net.cpp:408] inception_5b/1x1 -> inception_5b/1x1
I1130 20:14:44.233819 30472 net.cpp:150] Setting up inception_5b/1x1
I1130 20:14:44.233873 30472 net.cpp:157] Top shape: 100 384 10 5 (1920000)
I1130 20:14:44.233880 30472 net.cpp:165] Memory required for data: 1497601200
I1130 20:14:44.233901 30472 layer_factory.hpp:77] Creating layer inception_5b/relu_1x1
I1130 20:14:44.233912 30472 net.cpp:100] Creating Layer inception_5b/relu_1x1
I1130 20:14:44.233921 30472 net.cpp:434] inception_5b/relu_1x1 <- inception_5b/1x1
I1130 20:14:44.233938 30472 net.cpp:395] inception_5b/relu_1x1 -> inception_5b/1x1 (in-place)
I1130 20:14:44.234207 30472 net.cpp:150] Setting up inception_5b/relu_1x1
I1130 20:14:44.234254 30472 net.cpp:157] Top shape: 100 384 10 5 (1920000)
I1130 20:14:44.234272 30472 net.cpp:165] Memory required for data: 1505281200
I1130 20:14:44.234284 30472 layer_factory.hpp:77] Creating layer inception_5b/3x3_reduce
I1130 20:14:44.234310 30472 net.cpp:100] Creating Layer inception_5b/3x3_reduce
I1130 20:14:44.234328 30472 net.cpp:434] inception_5b/3x3_reduce <- inception_5a/output_inception_5a/output_0_split_1
I1130 20:14:44.234351 30472 net.cpp:408] inception_5b/3x3_reduce -> inception_5b/3x3_reduce
I1130 20:14:44.237790 30472 net.cpp:150] Setting up inception_5b/3x3_reduce
I1130 20:14:44.237867 30472 net.cpp:157] Top shape: 100 192 10 5 (960000)
I1130 20:14:44.237895 30472 net.cpp:165] Memory required for data: 1509121200
I1130 20:14:44.237934 30472 layer_factory.hpp:77] Creating layer inception_5b/relu_3x3_reduce
I1130 20:14:44.237972 30472 net.cpp:100] Creating Layer inception_5b/relu_3x3_reduce
I1130 20:14:44.237990 30472 net.cpp:434] inception_5b/relu_3x3_reduce <- inception_5b/3x3_reduce
I1130 20:14:44.238019 30472 net.cpp:395] inception_5b/relu_3x3_reduce -> inception_5b/3x3_reduce (in-place)
I1130 20:14:44.238371 30472 net.cpp:150] Setting up inception_5b/relu_3x3_reduce
I1130 20:14:44.238410 30472 net.cpp:157] Top shape: 100 192 10 5 (960000)
I1130 20:14:44.238431 30472 net.cpp:165] Memory required for data: 1512961200
I1130 20:14:44.238461 30472 layer_factory.hpp:77] Creating layer inception_5b/3x3
I1130 20:14:44.238497 30472 net.cpp:100] Creating Layer inception_5b/3x3
I1130 20:14:44.238525 30472 net.cpp:434] inception_5b/3x3 <- inception_5b/3x3_reduce
I1130 20:14:44.238545 30472 net.cpp:408] inception_5b/3x3 -> inception_5b/3x3
I1130 20:14:44.245326 30472 net.cpp:150] Setting up inception_5b/3x3
I1130 20:14:44.245389 30472 net.cpp:157] Top shape: 100 384 10 5 (1920000)
I1130 20:14:44.245398 30472 net.cpp:165] Memory required for data: 1520641200
I1130 20:14:44.245434 30472 layer_factory.hpp:77] Creating layer inception_5b/relu_3x3
I1130 20:14:44.245450 30472 net.cpp:100] Creating Layer inception_5b/relu_3x3
I1130 20:14:44.245466 30472 net.cpp:434] inception_5b/relu_3x3 <- inception_5b/3x3
I1130 20:14:44.245484 30472 net.cpp:395] inception_5b/relu_3x3 -> inception_5b/3x3 (in-place)
I1130 20:14:44.245823 30472 net.cpp:150] Setting up inception_5b/relu_3x3
I1130 20:14:44.245854 30472 net.cpp:157] Top shape: 100 384 10 5 (1920000)
I1130 20:14:44.245860 30472 net.cpp:165] Memory required for data: 1528321200
I1130 20:14:44.245867 30472 layer_factory.hpp:77] Creating layer inception_5b/5x5_reduce
I1130 20:14:44.245887 30472 net.cpp:100] Creating Layer inception_5b/5x5_reduce
I1130 20:14:44.245894 30472 net.cpp:434] inception_5b/5x5_reduce <- inception_5a/output_inception_5a/output_0_split_2
I1130 20:14:44.245913 30472 net.cpp:408] inception_5b/5x5_reduce -> inception_5b/5x5_reduce
I1130 20:14:44.247427 30472 net.cpp:150] Setting up inception_5b/5x5_reduce
I1130 20:14:44.247464 30472 net.cpp:157] Top shape: 100 48 10 5 (240000)
I1130 20:14:44.247472 30472 net.cpp:165] Memory required for data: 1529281200
I1130 20:14:44.247490 30472 layer_factory.hpp:77] Creating layer inception_5b/relu_5x5_reduce
I1130 20:14:44.247511 30472 net.cpp:100] Creating Layer inception_5b/relu_5x5_reduce
I1130 20:14:44.247529 30472 net.cpp:434] inception_5b/relu_5x5_reduce <- inception_5b/5x5_reduce
I1130 20:14:44.247545 30472 net.cpp:395] inception_5b/relu_5x5_reduce -> inception_5b/5x5_reduce (in-place)
I1130 20:14:44.247737 30472 net.cpp:150] Setting up inception_5b/relu_5x5_reduce
I1130 20:14:44.247757 30472 net.cpp:157] Top shape: 100 48 10 5 (240000)
I1130 20:14:44.247763 30472 net.cpp:165] Memory required for data: 1530241200
I1130 20:14:44.247768 30472 layer_factory.hpp:77] Creating layer inception_5b/5x5
I1130 20:14:44.247791 30472 net.cpp:100] Creating Layer inception_5b/5x5
I1130 20:14:44.247797 30472 net.cpp:434] inception_5b/5x5 <- inception_5b/5x5_reduce
I1130 20:14:44.247807 30472 net.cpp:408] inception_5b/5x5 -> inception_5b/5x5
I1130 20:14:44.250078 30472 net.cpp:150] Setting up inception_5b/5x5
I1130 20:14:44.250116 30472 net.cpp:157] Top shape: 100 128 10 5 (640000)
I1130 20:14:44.250123 30472 net.cpp:165] Memory required for data: 1532801200
I1130 20:14:44.250145 30472 layer_factory.hpp:77] Creating layer inception_5b/relu_5x5
I1130 20:14:44.250165 30472 net.cpp:100] Creating Layer inception_5b/relu_5x5
I1130 20:14:44.250183 30472 net.cpp:434] inception_5b/relu_5x5 <- inception_5b/5x5
I1130 20:14:44.250200 30472 net.cpp:395] inception_5b/relu_5x5 -> inception_5b/5x5 (in-place)
I1130 20:14:44.250527 30472 net.cpp:150] Setting up inception_5b/relu_5x5
I1130 20:14:44.250555 30472 net.cpp:157] Top shape: 100 128 10 5 (640000)
I1130 20:14:44.250563 30472 net.cpp:165] Memory required for data: 1535361200
I1130 20:14:44.250571 30472 layer_factory.hpp:77] Creating layer inception_5b/pool
I1130 20:14:44.250586 30472 net.cpp:100] Creating Layer inception_5b/pool
I1130 20:14:44.250596 30472 net.cpp:434] inception_5b/pool <- inception_5a/output_inception_5a/output_0_split_3
I1130 20:14:44.250605 30472 net.cpp:408] inception_5b/pool -> inception_5b/pool
I1130 20:14:44.250690 30472 net.cpp:150] Setting up inception_5b/pool
I1130 20:14:44.250710 30472 net.cpp:157] Top shape: 100 832 10 5 (4160000)
I1130 20:14:44.250718 30472 net.cpp:165] Memory required for data: 1552001200
I1130 20:14:44.250725 30472 layer_factory.hpp:77] Creating layer inception_5b/pool_proj
I1130 20:14:44.250751 30472 net.cpp:100] Creating Layer inception_5b/pool_proj
I1130 20:14:44.250778 30472 net.cpp:434] inception_5b/pool_proj <- inception_5b/pool
I1130 20:14:44.250797 30472 net.cpp:408] inception_5b/pool_proj -> inception_5b/pool_proj
I1130 20:14:44.252941 30472 net.cpp:150] Setting up inception_5b/pool_proj
I1130 20:14:44.252987 30472 net.cpp:157] Top shape: 100 128 10 5 (640000)
I1130 20:14:44.252993 30472 net.cpp:165] Memory required for data: 1554561200
I1130 20:14:44.253012 30472 layer_factory.hpp:77] Creating layer inception_5b/relu_pool_proj
I1130 20:14:44.253051 30472 net.cpp:100] Creating Layer inception_5b/relu_pool_proj
I1130 20:14:44.253065 30472 net.cpp:434] inception_5b/relu_pool_proj <- inception_5b/pool_proj
I1130 20:14:44.253073 30472 net.cpp:395] inception_5b/relu_pool_proj -> inception_5b/pool_proj (in-place)
I1130 20:14:44.253417 30472 net.cpp:150] Setting up inception_5b/relu_pool_proj
I1130 20:14:44.253448 30472 net.cpp:157] Top shape: 100 128 10 5 (640000)
I1130 20:14:44.253453 30472 net.cpp:165] Memory required for data: 1557121200
I1130 20:14:44.253459 30472 layer_factory.hpp:77] Creating layer inception_5b/output
I1130 20:14:44.253476 30472 net.cpp:100] Creating Layer inception_5b/output
I1130 20:14:44.253482 30472 net.cpp:434] inception_5b/output <- inception_5b/1x1
I1130 20:14:44.253497 30472 net.cpp:434] inception_5b/output <- inception_5b/3x3
I1130 20:14:44.253504 30472 net.cpp:434] inception_5b/output <- inception_5b/5x5
I1130 20:14:44.253510 30472 net.cpp:434] inception_5b/output <- inception_5b/pool_proj
I1130 20:14:44.253527 30472 net.cpp:408] inception_5b/output -> inception_5b/output
I1130 20:14:44.253587 30472 net.cpp:150] Setting up inception_5b/output
I1130 20:14:44.253607 30472 net.cpp:157] Top shape: 100 1024 10 5 (5120000)
I1130 20:14:44.253612 30472 net.cpp:165] Memory required for data: 1577601200
I1130 20:14:44.253618 30472 layer_factory.hpp:77] Creating layer conv1/7x7_s2_p
I1130 20:14:44.253638 30472 net.cpp:100] Creating Layer conv1/7x7_s2_p
I1130 20:14:44.253646 30472 net.cpp:434] conv1/7x7_s2_p <- data_p
I1130 20:14:44.253664 30472 net.cpp:408] conv1/7x7_s2_p -> conv1/7x7_s2_p
I1130 20:14:44.254909 30472 net.cpp:150] Setting up conv1/7x7_s2_p
I1130 20:14:44.254956 30472 net.cpp:157] Top shape: 100 64 80 40 (20480000)
I1130 20:14:44.254962 30472 net.cpp:165] Memory required for data: 1659521200
I1130 20:14:44.254979 30472 net.cpp:493] Sharing parameters 'conv1/7x7_s2_w' owned by layer 'conv1/7x7_s2', param index 0
I1130 20:14:44.254989 30472 net.cpp:493] Sharing parameters 'conv1/7x7_s2_b' owned by layer 'conv1/7x7_s2', param index 1
I1130 20:14:44.255003 30472 layer_factory.hpp:77] Creating layer conv1/relu_7x7_p
I1130 20:14:44.255034 30472 net.cpp:100] Creating Layer conv1/relu_7x7_p
I1130 20:14:44.255044 30472 net.cpp:434] conv1/relu_7x7_p <- conv1/7x7_s2_p
I1130 20:14:44.255061 30472 net.cpp:395] conv1/relu_7x7_p -> conv1/7x7_s2_p (in-place)
I1130 20:14:44.255300 30472 net.cpp:150] Setting up conv1/relu_7x7_p
I1130 20:14:44.255323 30472 net.cpp:157] Top shape: 100 64 80 40 (20480000)
I1130 20:14:44.255333 30472 net.cpp:165] Memory required for data: 1741441200
I1130 20:14:44.255348 30472 layer_factory.hpp:77] Creating layer pool1/3x3_s2_p
I1130 20:14:44.255365 30472 net.cpp:100] Creating Layer pool1/3x3_s2_p
I1130 20:14:44.255372 30472 net.cpp:434] pool1/3x3_s2_p <- conv1/7x7_s2_p
I1130 20:14:44.255388 30472 net.cpp:408] pool1/3x3_s2_p -> pool1/3x3_s2_p
I1130 20:14:44.255457 30472 net.cpp:150] Setting up pool1/3x3_s2_p
I1130 20:14:44.255467 30472 net.cpp:157] Top shape: 100 64 40 20 (5120000)
I1130 20:14:44.255472 30472 net.cpp:165] Memory required for data: 1761921200
I1130 20:14:44.255478 30472 layer_factory.hpp:77] Creating layer pool1/norm1_p
I1130 20:14:44.255487 30472 net.cpp:100] Creating Layer pool1/norm1_p
I1130 20:14:44.255494 30472 net.cpp:434] pool1/norm1_p <- pool1/3x3_s2_p
I1130 20:14:44.255501 30472 net.cpp:408] pool1/norm1_p -> pool1/norm1_p
I1130 20:14:44.255992 30472 net.cpp:150] Setting up pool1/norm1_p
I1130 20:14:44.256014 30472 net.cpp:157] Top shape: 100 64 40 20 (5120000)
I1130 20:14:44.256031 30472 net.cpp:165] Memory required for data: 1782401200
I1130 20:14:44.256037 30472 layer_factory.hpp:77] Creating layer conv2/3x3_reduce_p
I1130 20:14:44.256062 30472 net.cpp:100] Creating Layer conv2/3x3_reduce_p
I1130 20:14:44.256079 30472 net.cpp:434] conv2/3x3_reduce_p <- pool1/norm1_p
I1130 20:14:44.256098 30472 net.cpp:408] conv2/3x3_reduce_p -> conv2/3x3_reduce_p
I1130 20:14:44.257385 30472 net.cpp:150] Setting up conv2/3x3_reduce_p
I1130 20:14:44.257426 30472 net.cpp:157] Top shape: 100 64 40 20 (5120000)
I1130 20:14:44.257457 30472 net.cpp:165] Memory required for data: 1802881200
I1130 20:14:44.257482 30472 net.cpp:493] Sharing parameters 'conv2/3x3_reduce_w' owned by layer 'conv2/3x3_reduce', param index 0
I1130 20:14:44.257490 30472 net.cpp:493] Sharing parameters 'conv2/3x3_reduce_b' owned by layer 'conv2/3x3_reduce', param index 1
I1130 20:14:44.257504 30472 layer_factory.hpp:77] Creating layer conv2/relu_3x3_reduce_p
I1130 20:14:44.257521 30472 net.cpp:100] Creating Layer conv2/relu_3x3_reduce_p
I1130 20:14:44.257529 30472 net.cpp:434] conv2/relu_3x3_reduce_p <- conv2/3x3_reduce_p
I1130 20:14:44.257546 30472 net.cpp:395] conv2/relu_3x3_reduce_p -> conv2/3x3_reduce_p (in-place)
I1130 20:14:44.257737 30472 net.cpp:150] Setting up conv2/relu_3x3_reduce_p
I1130 20:14:44.257760 30472 net.cpp:157] Top shape: 100 64 40 20 (5120000)
I1130 20:14:44.257766 30472 net.cpp:165] Memory required for data: 1823361200
I1130 20:14:44.257781 30472 layer_factory.hpp:77] Creating layer conv2/3x3_p
I1130 20:14:44.257804 30472 net.cpp:100] Creating Layer conv2/3x3_p
I1130 20:14:44.257812 30472 net.cpp:434] conv2/3x3_p <- conv2/3x3_reduce_p
I1130 20:14:44.257829 30472 net.cpp:408] conv2/3x3_p -> conv2/3x3_p
I1130 20:14:44.259902 30472 net.cpp:150] Setting up conv2/3x3_p
I1130 20:14:44.259935 30472 net.cpp:157] Top shape: 100 192 40 20 (15360000)
I1130 20:14:44.259943 30472 net.cpp:165] Memory required for data: 1884801200
I1130 20:14:44.259951 30472 net.cpp:493] Sharing parameters 'conv2/3x3_w' owned by layer 'conv2/3x3', param index 0
I1130 20:14:44.259959 30472 net.cpp:493] Sharing parameters 'conv2/3x3_b' owned by layer 'conv2/3x3', param index 1
I1130 20:14:44.259965 30472 layer_factory.hpp:77] Creating layer conv2/relu_3x3_p
I1130 20:14:44.259984 30472 net.cpp:100] Creating Layer conv2/relu_3x3_p
I1130 20:14:44.259994 30472 net.cpp:434] conv2/relu_3x3_p <- conv2/3x3_p
I1130 20:14:44.260009 30472 net.cpp:395] conv2/relu_3x3_p -> conv2/3x3_p (in-place)
I1130 20:14:44.260196 30472 net.cpp:150] Setting up conv2/relu_3x3_p
I1130 20:14:44.260226 30472 net.cpp:157] Top shape: 100 192 40 20 (15360000)
I1130 20:14:44.260232 30472 net.cpp:165] Memory required for data: 1946241200
I1130 20:14:44.260253 30472 layer_factory.hpp:77] Creating layer pool2/3x3_s2_p
I1130 20:14:44.260273 30472 net.cpp:100] Creating Layer pool2/3x3_s2_p
I1130 20:14:44.260280 30472 net.cpp:434] pool2/3x3_s2_p <- conv2/3x3_p
I1130 20:14:44.260298 30472 net.cpp:408] pool2/3x3_s2_p -> pool2/3x3_s2_p
I1130 20:14:44.260365 30472 net.cpp:150] Setting up pool2/3x3_s2_p
I1130 20:14:44.260386 30472 net.cpp:157] Top shape: 100 192 20 10 (3840000)
I1130 20:14:44.260392 30472 net.cpp:165] Memory required for data: 1961601200
I1130 20:14:44.260409 30472 layer_factory.hpp:77] Creating layer pool2/3x3_s2_p_pool2/3x3_s2_p_0_split
I1130 20:14:44.260428 30472 net.cpp:100] Creating Layer pool2/3x3_s2_p_pool2/3x3_s2_p_0_split
I1130 20:14:44.260435 30472 net.cpp:434] pool2/3x3_s2_p_pool2/3x3_s2_p_0_split <- pool2/3x3_s2_p
I1130 20:14:44.260453 30472 net.cpp:408] pool2/3x3_s2_p_pool2/3x3_s2_p_0_split -> pool2/3x3_s2_p_pool2/3x3_s2_p_0_split_0
I1130 20:14:44.260473 30472 net.cpp:408] pool2/3x3_s2_p_pool2/3x3_s2_p_0_split -> pool2/3x3_s2_p_pool2/3x3_s2_p_0_split_1
I1130 20:14:44.260491 30472 net.cpp:408] pool2/3x3_s2_p_pool2/3x3_s2_p_0_split -> pool2/3x3_s2_p_pool2/3x3_s2_p_0_split_2
I1130 20:14:44.260525 30472 net.cpp:408] pool2/3x3_s2_p_pool2/3x3_s2_p_0_split -> pool2/3x3_s2_p_pool2/3x3_s2_p_0_split_3
I1130 20:14:44.260622 30472 net.cpp:150] Setting up pool2/3x3_s2_p_pool2/3x3_s2_p_0_split
I1130 20:14:44.260650 30472 net.cpp:157] Top shape: 100 192 20 10 (3840000)
I1130 20:14:44.260658 30472 net.cpp:157] Top shape: 100 192 20 10 (3840000)
I1130 20:14:44.260674 30472 net.cpp:157] Top shape: 100 192 20 10 (3840000)
I1130 20:14:44.260681 30472 net.cpp:157] Top shape: 100 192 20 10 (3840000)
I1130 20:14:44.260687 30472 net.cpp:165] Memory required for data: 2023041200
I1130 20:14:44.260694 30472 layer_factory.hpp:77] Creating layer inception_3a/1x1_p
I1130 20:14:44.260727 30472 net.cpp:100] Creating Layer inception_3a/1x1_p
I1130 20:14:44.260735 30472 net.cpp:434] inception_3a/1x1_p <- pool2/3x3_s2_p_pool2/3x3_s2_p_0_split_0
I1130 20:14:44.260745 30472 net.cpp:408] inception_3a/1x1_p -> inception_3a/1x1_p
I1130 20:14:44.262213 30472 net.cpp:150] Setting up inception_3a/1x1_p
I1130 20:14:44.262270 30472 net.cpp:157] Top shape: 100 64 20 10 (1280000)
I1130 20:14:44.262296 30472 net.cpp:165] Memory required for data: 2028161200
I1130 20:14:44.262316 30472 net.cpp:493] Sharing parameters 'inception_3a/1x1_w' owned by layer 'inception_3a/1x1', param index 0
I1130 20:14:44.262336 30472 net.cpp:493] Sharing parameters 'inception_3a/1x1_b' owned by layer 'inception_3a/1x1', param index 1
I1130 20:14:44.262343 30472 layer_factory.hpp:77] Creating layer inception_3a/relu_1x1_p
I1130 20:14:44.262365 30472 net.cpp:100] Creating Layer inception_3a/relu_1x1_p
I1130 20:14:44.262385 30472 net.cpp:434] inception_3a/relu_1x1_p <- inception_3a/1x1_p
I1130 20:14:44.262393 30472 net.cpp:395] inception_3a/relu_1x1_p -> inception_3a/1x1_p (in-place)
I1130 20:14:44.262773 30472 net.cpp:150] Setting up inception_3a/relu_1x1_p
I1130 20:14:44.262809 30472 net.cpp:157] Top shape: 100 64 20 10 (1280000)
I1130 20:14:44.262817 30472 net.cpp:165] Memory required for data: 2033281200
I1130 20:14:44.262825 30472 layer_factory.hpp:77] Creating layer inception_3a/3x3_reduce_p
I1130 20:14:44.262845 30472 net.cpp:100] Creating Layer inception_3a/3x3_reduce_p
I1130 20:14:44.262864 30472 net.cpp:434] inception_3a/3x3_reduce_p <- pool2/3x3_s2_p_pool2/3x3_s2_p_0_split_1
I1130 20:14:44.262874 30472 net.cpp:408] inception_3a/3x3_reduce_p -> inception_3a/3x3_reduce_p
I1130 20:14:44.264315 30472 net.cpp:150] Setting up inception_3a/3x3_reduce_p
I1130 20:14:44.264358 30472 net.cpp:157] Top shape: 100 96 20 10 (1920000)
I1130 20:14:44.264364 30472 net.cpp:165] Memory required for data: 2040961200
I1130 20:14:44.264381 30472 net.cpp:493] Sharing parameters 'inception_3a/3x3_reduce_w' owned by layer 'inception_3a/3x3_reduce', param index 0
I1130 20:14:44.264390 30472 net.cpp:493] Sharing parameters 'inception_3a/3x3_reduce_b' owned by layer 'inception_3a/3x3_reduce', param index 1
I1130 20:14:44.264410 30472 layer_factory.hpp:77] Creating layer inception_3a/relu_3x3_reduce_p
I1130 20:14:44.264428 30472 net.cpp:100] Creating Layer inception_3a/relu_3x3_reduce_p
I1130 20:14:44.264436 30472 net.cpp:434] inception_3a/relu_3x3_reduce_p <- inception_3a/3x3_reduce_p
I1130 20:14:44.264444 30472 net.cpp:395] inception_3a/relu_3x3_reduce_p -> inception_3a/3x3_reduce_p (in-place)
I1130 20:14:44.264617 30472 net.cpp:150] Setting up inception_3a/relu_3x3_reduce_p
I1130 20:14:44.264637 30472 net.cpp:157] Top shape: 100 96 20 10 (1920000)
I1130 20:14:44.264643 30472 net.cpp:165] Memory required for data: 2048641200
I1130 20:14:44.264652 30472 layer_factory.hpp:77] Creating layer inception_3a/3x3_p
I1130 20:14:44.264672 30472 net.cpp:100] Creating Layer inception_3a/3x3_p
I1130 20:14:44.264681 30472 net.cpp:434] inception_3a/3x3_p <- inception_3a/3x3_reduce_p
I1130 20:14:44.264700 30472 net.cpp:408] inception_3a/3x3_p -> inception_3a/3x3_p
I1130 20:14:44.267745 30472 net.cpp:150] Setting up inception_3a/3x3_p
I1130 20:14:44.267812 30472 net.cpp:157] Top shape: 100 128 20 10 (2560000)
I1130 20:14:44.267822 30472 net.cpp:165] Memory required for data: 2058881200
I1130 20:14:44.267843 30472 net.cpp:493] Sharing parameters 'inception_3a/3x3_w' owned by layer 'inception_3a/3x3', param index 0
I1130 20:14:44.267853 30472 net.cpp:493] Sharing parameters 'inception_3a/3x3_b' owned by layer 'inception_3a/3x3', param index 1
I1130 20:14:44.267865 30472 layer_factory.hpp:77] Creating layer inception_3a/relu_3x3_p
I1130 20:14:44.267881 30472 net.cpp:100] Creating Layer inception_3a/relu_3x3_p
I1130 20:14:44.267894 30472 net.cpp:434] inception_3a/relu_3x3_p <- inception_3a/3x3_p
I1130 20:14:44.267909 30472 net.cpp:395] inception_3a/relu_3x3_p -> inception_3a/3x3_p (in-place)
I1130 20:14:44.268363 30472 net.cpp:150] Setting up inception_3a/relu_3x3_p
I1130 20:14:44.268411 30472 net.cpp:157] Top shape: 100 128 20 10 (2560000)
I1130 20:14:44.268426 30472 net.cpp:165] Memory required for data: 2069121200
I1130 20:14:44.268440 30472 layer_factory.hpp:77] Creating layer inception_3a/5x5_reduce_p
I1130 20:14:44.268463 30472 net.cpp:100] Creating Layer inception_3a/5x5_reduce_p
I1130 20:14:44.268473 30472 net.cpp:434] inception_3a/5x5_reduce_p <- pool2/3x3_s2_p_pool2/3x3_s2_p_0_split_2
I1130 20:14:44.268491 30472 net.cpp:408] inception_3a/5x5_reduce_p -> inception_3a/5x5_reduce_p
I1130 20:14:44.269798 30472 net.cpp:150] Setting up inception_3a/5x5_reduce_p
I1130 20:14:44.269834 30472 net.cpp:157] Top shape: 100 16 20 10 (320000)
I1130 20:14:44.269845 30472 net.cpp:165] Memory required for data: 2070401200
I1130 20:14:44.269855 30472 net.cpp:493] Sharing parameters 'inception_3a/5x5_reduce_w' owned by layer 'inception_3a/5x5_reduce', param index 0
I1130 20:14:44.269862 30472 net.cpp:493] Sharing parameters 'inception_3a/5x5_reduce_b' owned by layer 'inception_3a/5x5_reduce', param index 1
I1130 20:14:44.269871 30472 layer_factory.hpp:77] Creating layer inception_3a/relu_5x5_reduce_p
I1130 20:14:44.269886 30472 net.cpp:100] Creating Layer inception_3a/relu_5x5_reduce_p
I1130 20:14:44.269894 30472 net.cpp:434] inception_3a/relu_5x5_reduce_p <- inception_3a/5x5_reduce_p
I1130 20:14:44.269904 30472 net.cpp:395] inception_3a/relu_5x5_reduce_p -> inception_3a/5x5_reduce_p (in-place)
I1130 20:14:44.270282 30472 net.cpp:150] Setting up inception_3a/relu_5x5_reduce_p
I1130 20:14:44.270315 30472 net.cpp:157] Top shape: 100 16 20 10 (320000)
I1130 20:14:44.270324 30472 net.cpp:165] Memory required for data: 2071681200
I1130 20:14:44.270331 30472 layer_factory.hpp:77] Creating layer inception_3a/5x5_p
I1130 20:14:44.270352 30472 net.cpp:100] Creating Layer inception_3a/5x5_p
I1130 20:14:44.270360 30472 net.cpp:434] inception_3a/5x5_p <- inception_3a/5x5_reduce_p
I1130 20:14:44.270378 30472 net.cpp:408] inception_3a/5x5_p -> inception_3a/5x5_p
I1130 20:14:44.271788 30472 net.cpp:150] Setting up inception_3a/5x5_p
I1130 20:14:44.271833 30472 net.cpp:157] Top shape: 100 32 20 10 (640000)
I1130 20:14:44.271849 30472 net.cpp:165] Memory required for data: 2074241200
I1130 20:14:44.271932 30472 net.cpp:493] Sharing parameters 'inception_3a/5x5_w' owned by layer 'inception_3a/5x5', param index 0
I1130 20:14:44.271971 30472 net.cpp:493] Sharing parameters 'inception_3a/5x5_b' owned by layer 'inception_3a/5x5', param index 1
I1130 20:14:44.272006 30472 layer_factory.hpp:77] Creating layer inception_3a/relu_5x5_p
I1130 20:14:44.272030 30472 net.cpp:100] Creating Layer inception_3a/relu_5x5_p
I1130 20:14:44.272043 30472 net.cpp:434] inception_3a/relu_5x5_p <- inception_3a/5x5_p
I1130 20:14:44.272058 30472 net.cpp:395] inception_3a/relu_5x5_p -> inception_3a/5x5_p (in-place)
I1130 20:14:44.272290 30472 net.cpp:150] Setting up inception_3a/relu_5x5_p
I1130 20:14:44.272326 30472 net.cpp:157] Top shape: 100 32 20 10 (640000)
I1130 20:14:44.272358 30472 net.cpp:165] Memory required for data: 2076801200
I1130 20:14:44.272382 30472 layer_factory.hpp:77] Creating layer inception_3a/pool_p
I1130 20:14:44.272397 30472 net.cpp:100] Creating Layer inception_3a/pool_p
I1130 20:14:44.272409 30472 net.cpp:434] inception_3a/pool_p <- pool2/3x3_s2_p_pool2/3x3_s2_p_0_split_3
I1130 20:14:44.272423 30472 net.cpp:408] inception_3a/pool_p -> inception_3a/pool_p
I1130 20:14:44.272526 30472 net.cpp:150] Setting up inception_3a/pool_p
I1130 20:14:44.272559 30472 net.cpp:157] Top shape: 100 192 20 10 (3840000)
I1130 20:14:44.272570 30472 net.cpp:165] Memory required for data: 2092161200
I1130 20:14:44.272589 30472 layer_factory.hpp:77] Creating layer inception_3a/pool_proj_p
I1130 20:14:44.272608 30472 net.cpp:100] Creating Layer inception_3a/pool_proj_p
I1130 20:14:44.272620 30472 net.cpp:434] inception_3a/pool_proj_p <- inception_3a/pool_p
I1130 20:14:44.272647 30472 net.cpp:408] inception_3a/pool_proj_p -> inception_3a/pool_proj_p
I1130 20:14:44.273999 30472 net.cpp:150] Setting up inception_3a/pool_proj_p
I1130 20:14:44.274020 30472 net.cpp:157] Top shape: 100 32 20 10 (640000)
I1130 20:14:44.274051 30472 net.cpp:165] Memory required for data: 2094721200
I1130 20:14:44.274062 30472 net.cpp:493] Sharing parameters 'inception_3a/pool_proj_w' owned by layer 'inception_3a/pool_proj', param index 0
I1130 20:14:44.274073 30472 net.cpp:493] Sharing parameters 'inception_3a/pool_proj_b' owned by layer 'inception_3a/pool_proj', param index 1
I1130 20:14:44.274083 30472 layer_factory.hpp:77] Creating layer inception_3a/relu_pool_proj_p
I1130 20:14:44.274098 30472 net.cpp:100] Creating Layer inception_3a/relu_pool_proj_p
I1130 20:14:44.274108 30472 net.cpp:434] inception_3a/relu_pool_proj_p <- inception_3a/pool_proj_p
I1130 20:14:44.274123 30472 net.cpp:395] inception_3a/relu_pool_proj_p -> inception_3a/pool_proj_p (in-place)
I1130 20:14:44.274338 30472 net.cpp:150] Setting up inception_3a/relu_pool_proj_p
I1130 20:14:44.274369 30472 net.cpp:157] Top shape: 100 32 20 10 (640000)
I1130 20:14:44.274379 30472 net.cpp:165] Memory required for data: 2097281200
I1130 20:14:44.274387 30472 layer_factory.hpp:77] Creating layer inception_3a/output_p
I1130 20:14:44.274401 30472 net.cpp:100] Creating Layer inception_3a/output_p
I1130 20:14:44.274411 30472 net.cpp:434] inception_3a/output_p <- inception_3a/1x1_p
I1130 20:14:44.274423 30472 net.cpp:434] inception_3a/output_p <- inception_3a/3x3_p
I1130 20:14:44.274432 30472 net.cpp:434] inception_3a/output_p <- inception_3a/5x5_p
I1130 20:14:44.274442 30472 net.cpp:434] inception_3a/output_p <- inception_3a/pool_proj_p
I1130 20:14:44.274453 30472 net.cpp:408] inception_3a/output_p -> inception_3a/output_p
I1130 20:14:44.274525 30472 net.cpp:150] Setting up inception_3a/output_p
I1130 20:14:44.274557 30472 net.cpp:157] Top shape: 100 256 20 10 (5120000)
I1130 20:14:44.274566 30472 net.cpp:165] Memory required for data: 2117761200
I1130 20:14:44.274579 30472 layer_factory.hpp:77] Creating layer inception_3a/output_p_inception_3a/output_p_0_split
I1130 20:14:44.274592 30472 net.cpp:100] Creating Layer inception_3a/output_p_inception_3a/output_p_0_split
I1130 20:14:44.274605 30472 net.cpp:434] inception_3a/output_p_inception_3a/output_p_0_split <- inception_3a/output_p
I1130 20:14:44.274628 30472 net.cpp:408] inception_3a/output_p_inception_3a/output_p_0_split -> inception_3a/output_p_inception_3a/output_p_0_split_0
I1130 20:14:44.274646 30472 net.cpp:408] inception_3a/output_p_inception_3a/output_p_0_split -> inception_3a/output_p_inception_3a/output_p_0_split_1
I1130 20:14:44.274660 30472 net.cpp:408] inception_3a/output_p_inception_3a/output_p_0_split -> inception_3a/output_p_inception_3a/output_p_0_split_2
I1130 20:14:44.274674 30472 net.cpp:408] inception_3a/output_p_inception_3a/output_p_0_split -> inception_3a/output_p_inception_3a/output_p_0_split_3
I1130 20:14:44.274806 30472 net.cpp:150] Setting up inception_3a/output_p_inception_3a/output_p_0_split
I1130 20:14:44.274830 30472 net.cpp:157] Top shape: 100 256 20 10 (5120000)
I1130 20:14:44.274842 30472 net.cpp:157] Top shape: 100 256 20 10 (5120000)
I1130 20:14:44.274863 30472 net.cpp:157] Top shape: 100 256 20 10 (5120000)
I1130 20:14:44.274875 30472 net.cpp:157] Top shape: 100 256 20 10 (5120000)
I1130 20:14:44.274883 30472 net.cpp:165] Memory required for data: 2199681200
I1130 20:14:44.274893 30472 layer_factory.hpp:77] Creating layer inception_3b/1x1_p
I1130 20:14:44.274919 30472 net.cpp:100] Creating Layer inception_3b/1x1_p
I1130 20:14:44.274931 30472 net.cpp:434] inception_3b/1x1_p <- inception_3a/output_p_inception_3a/output_p_0_split_0
I1130 20:14:44.274945 30472 net.cpp:408] inception_3b/1x1_p -> inception_3b/1x1_p
I1130 20:14:44.276959 30472 net.cpp:150] Setting up inception_3b/1x1_p
I1130 20:14:44.276991 30472 net.cpp:157] Top shape: 100 128 20 10 (2560000)
I1130 20:14:44.277011 30472 net.cpp:165] Memory required for data: 2209921200
I1130 20:14:44.277037 30472 net.cpp:493] Sharing parameters 'inception_3b/1x1_w' owned by layer 'inception_3b/1x1', param index 0
I1130 20:14:44.277053 30472 net.cpp:493] Sharing parameters 'inception_3b/1x1_b' owned by layer 'inception_3b/1x1', param index 1
I1130 20:14:44.277092 30472 layer_factory.hpp:77] Creating layer inception_3b/relu_1x1_p
I1130 20:14:44.277122 30472 net.cpp:100] Creating Layer inception_3b/relu_1x1_p
I1130 20:14:44.277133 30472 net.cpp:434] inception_3b/relu_1x1_p <- inception_3b/1x1_p
I1130 20:14:44.277146 30472 net.cpp:395] inception_3b/relu_1x1_p -> inception_3b/1x1_p (in-place)
I1130 20:14:44.277570 30472 net.cpp:150] Setting up inception_3b/relu_1x1_p
I1130 20:14:44.277608 30472 net.cpp:157] Top shape: 100 128 20 10 (2560000)
I1130 20:14:44.277628 30472 net.cpp:165] Memory required for data: 2220161200
I1130 20:14:44.277642 30472 layer_factory.hpp:77] Creating layer inception_3b/3x3_reduce_p
I1130 20:14:44.277673 30472 net.cpp:100] Creating Layer inception_3b/3x3_reduce_p
I1130 20:14:44.277689 30472 net.cpp:434] inception_3b/3x3_reduce_p <- inception_3a/output_p_inception_3a/output_p_0_split_1
I1130 20:14:44.277705 30472 net.cpp:408] inception_3b/3x3_reduce_p -> inception_3b/3x3_reduce_p
I1130 20:14:44.279217 30472 net.cpp:150] Setting up inception_3b/3x3_reduce_p
I1130 20:14:44.279261 30472 net.cpp:157] Top shape: 100 128 20 10 (2560000)
I1130 20:14:44.279273 30472 net.cpp:165] Memory required for data: 2230401200
I1130 20:14:44.279287 30472 net.cpp:493] Sharing parameters 'inception_3b/3x3_reduce_w' owned by layer 'inception_3b/3x3_reduce', param index 0
I1130 20:14:44.279300 30472 net.cpp:493] Sharing parameters 'inception_3b/3x3_reduce_b' owned by layer 'inception_3b/3x3_reduce', param index 1
I1130 20:14:44.279315 30472 layer_factory.hpp:77] Creating layer inception_3b/relu_3x3_reduce_p
I1130 20:14:44.279330 30472 net.cpp:100] Creating Layer inception_3b/relu_3x3_reduce_p
I1130 20:14:44.279342 30472 net.cpp:434] inception_3b/relu_3x3_reduce_p <- inception_3b/3x3_reduce_p
I1130 20:14:44.279362 30472 net.cpp:395] inception_3b/relu_3x3_reduce_p -> inception_3b/3x3_reduce_p (in-place)
I1130 20:14:44.279592 30472 net.cpp:150] Setting up inception_3b/relu_3x3_reduce_p
I1130 20:14:44.279629 30472 net.cpp:157] Top shape: 100 128 20 10 (2560000)
I1130 20:14:44.279649 30472 net.cpp:165] Memory required for data: 2240641200
I1130 20:14:44.279675 30472 layer_factory.hpp:77] Creating layer inception_3b/3x3_p
I1130 20:14:44.279716 30472 net.cpp:100] Creating Layer inception_3b/3x3_p
I1130 20:14:44.279742 30472 net.cpp:434] inception_3b/3x3_p <- inception_3b/3x3_reduce_p
I1130 20:14:44.279757 30472 net.cpp:408] inception_3b/3x3_p -> inception_3b/3x3_p
I1130 20:14:44.283151 30472 net.cpp:150] Setting up inception_3b/3x3_p
I1130 20:14:44.283210 30472 net.cpp:157] Top shape: 100 192 20 10 (3840000)
I1130 20:14:44.283229 30472 net.cpp:165] Memory required for data: 2256001200
I1130 20:14:44.283249 30472 net.cpp:493] Sharing parameters 'inception_3b/3x3_w' owned by layer 'inception_3b/3x3', param index 0
I1130 20:14:44.283270 30472 net.cpp:493] Sharing parameters 'inception_3b/3x3_b' owned by layer 'inception_3b/3x3', param index 1
I1130 20:14:44.283280 30472 layer_factory.hpp:77] Creating layer inception_3b/relu_3x3_p
I1130 20:14:44.283296 30472 net.cpp:100] Creating Layer inception_3b/relu_3x3_p
I1130 20:14:44.283310 30472 net.cpp:434] inception_3b/relu_3x3_p <- inception_3b/3x3_p
I1130 20:14:44.283324 30472 net.cpp:395] inception_3b/relu_3x3_p -> inception_3b/3x3_p (in-place)
I1130 20:14:44.283567 30472 net.cpp:150] Setting up inception_3b/relu_3x3_p
I1130 20:14:44.283602 30472 net.cpp:157] Top shape: 100 192 20 10 (3840000)
I1130 20:14:44.283613 30472 net.cpp:165] Memory required for data: 2271361200
I1130 20:14:44.283628 30472 layer_factory.hpp:77] Creating layer inception_3b/5x5_reduce_p
I1130 20:14:44.283655 30472 net.cpp:100] Creating Layer inception_3b/5x5_reduce_p
I1130 20:14:44.283666 30472 net.cpp:434] inception_3b/5x5_reduce_p <- inception_3a/output_p_inception_3a/output_p_0_split_2
I1130 20:14:44.283691 30472 net.cpp:408] inception_3b/5x5_reduce_p -> inception_3b/5x5_reduce_p
I1130 20:14:44.285019 30472 net.cpp:150] Setting up inception_3b/5x5_reduce_p
I1130 20:14:44.285061 30472 net.cpp:157] Top shape: 100 32 20 10 (640000)
I1130 20:14:44.285100 30472 net.cpp:165] Memory required for data: 2273921200
I1130 20:14:44.285115 30472 net.cpp:493] Sharing parameters 'inception_3b/5x5_reduce_w' owned by layer 'inception_3b/5x5_reduce', param index 0
I1130 20:14:44.285140 30472 net.cpp:493] Sharing parameters 'inception_3b/5x5_reduce_b' owned by layer 'inception_3b/5x5_reduce', param index 1
I1130 20:14:44.285161 30472 layer_factory.hpp:77] Creating layer inception_3b/relu_5x5_reduce_p
I1130 20:14:44.285176 30472 net.cpp:100] Creating Layer inception_3b/relu_5x5_reduce_p
I1130 20:14:44.285189 30472 net.cpp:434] inception_3b/relu_5x5_reduce_p <- inception_3b/5x5_reduce_p
I1130 20:14:44.285202 30472 net.cpp:395] inception_3b/relu_5x5_reduce_p -> inception_3b/5x5_reduce_p (in-place)
I1130 20:14:44.285639 30472 net.cpp:150] Setting up inception_3b/relu_5x5_reduce_p
I1130 20:14:44.285665 30472 net.cpp:157] Top shape: 100 32 20 10 (640000)
I1130 20:14:44.285675 30472 net.cpp:165] Memory required for data: 2276481200
I1130 20:14:44.285686 30472 layer_factory.hpp:77] Creating layer inception_3b/5x5_p
I1130 20:14:44.285717 30472 net.cpp:100] Creating Layer inception_3b/5x5_p
I1130 20:14:44.285727 30472 net.cpp:434] inception_3b/5x5_p <- inception_3b/5x5_reduce_p
I1130 20:14:44.285748 30472 net.cpp:408] inception_3b/5x5_p -> inception_3b/5x5_p
I1130 20:14:44.287376 30472 net.cpp:150] Setting up inception_3b/5x5_p
I1130 20:14:44.287397 30472 net.cpp:157] Top shape: 100 96 20 10 (1920000)
I1130 20:14:44.287416 30472 net.cpp:165] Memory required for data: 2284161200
I1130 20:14:44.287428 30472 net.cpp:493] Sharing parameters 'inception_3b/5x5_w' owned by layer 'inception_3b/5x5', param index 0
I1130 20:14:44.287441 30472 net.cpp:493] Sharing parameters 'inception_3b/5x5_b' owned by layer 'inception_3b/5x5', param index 1
I1130 20:14:44.287451 30472 layer_factory.hpp:77] Creating layer inception_3b/relu_5x5_p
I1130 20:14:44.287467 30472 net.cpp:100] Creating Layer inception_3b/relu_5x5_p
I1130 20:14:44.287478 30472 net.cpp:434] inception_3b/relu_5x5_p <- inception_3b/5x5_p
I1130 20:14:44.287504 30472 net.cpp:395] inception_3b/relu_5x5_p -> inception_3b/5x5_p (in-place)
I1130 20:14:44.287901 30472 net.cpp:150] Setting up inception_3b/relu_5x5_p
I1130 20:14:44.287940 30472 net.cpp:157] Top shape: 100 96 20 10 (1920000)
I1130 20:14:44.287961 30472 net.cpp:165] Memory required for data: 2291841200
…
I1130 20:14:52.700711 30472 net.cpp:165] Memory required for data: 267744120
I1130 20:14:52.700731 30472 net.cpp:493] Sharing parameters 'inception_4d/3x3_reduce_w' owned by layer 'inception_4d/3x3_reduce', param index 0
I1130 20:14:52.700744 30472 net.cpp:493] Sharing parameters 'inception_4d/3x3_reduce_b' owned by layer 'inception_4d/3x3_reduce', param index 1
I1130 20:14:52.700774 30472 layer_factory.hpp:77] Creating layer inception_4d/relu_3x3_reduce_p
I1130 20:14:52.700793 30472 net.cpp:100] Creating Layer inception_4d/relu_3x3_reduce_p
I1130 20:14:52.700803 30472 net.cpp:434] inception_4d/relu_3x3_reduce_p <- inception_4d/3x3_reduce_p
I1130 20:14:52.700816 30472 net.cpp:395] inception_4d/relu_3x3_reduce_p -> inception_4d/3x3_reduce_p (in-place)
I1130 20:14:52.701052 30472 net.cpp:150] Setting up inception_4d/relu_3x3_reduce_p
I1130 20:14:52.701074 30472 net.cpp:157] Top shape: 10 144 10 5 (72000)
I1130 20:14:52.701081 30472 net.cpp:165] Memory required for data: 268032120
I1130 20:14:52.701093 30472 layer_factory.hpp:77] Creating layer inception_4d/3x3_p
I1130 20:14:52.701110 30472 net.cpp:100] Creating Layer inception_4d/3x3_p
I1130 20:14:52.701122 30472 net.cpp:434] inception_4d/3x3_p <- inception_4d/3x3_reduce_p
I1130 20:14:52.701133 30472 net.cpp:408] inception_4d/3x3_p -> inception_4d/3x3_p
I1130 20:14:52.706400 30472 net.cpp:150] Setting up inception_4d/3x3_p
I1130 20:14:52.706454 30472 net.cpp:157] Top shape: 10 288 10 5 (144000)
I1130 20:14:52.706472 30472 net.cpp:165] Memory required for data: 268608120
I1130 20:14:52.706495 30472 net.cpp:493] Sharing parameters 'inception_4d/3x3_w' owned by layer 'inception_4d/3x3', param index 0
I1130 20:14:52.706506 30472 net.cpp:493] Sharing parameters 'inception_4d/3x3_b' owned by layer 'inception_4d/3x3', param index 1
I1130 20:14:52.706513 30472 layer_factory.hpp:77] Creating layer inception_4d/relu_3x3_p
I1130 20:14:52.706535 30472 net.cpp:100] Creating Layer inception_4d/relu_3x3_p
I1130 20:14:52.706553 30472 net.cpp:434] inception_4d/relu_3x3_p <- inception_4d/3x3_p
I1130 20:14:52.706565 30472 net.cpp:395] inception_4d/relu_3x3_p -> inception_4d/3x3_p (in-place)
I1130 20:14:52.707021 30472 net.cpp:150] Setting up inception_4d/relu_3x3_p
I1130 20:14:52.707053 30472 net.cpp:157] Top shape: 10 288 10 5 (144000)
I1130 20:14:52.707062 30472 net.cpp:165] Memory required for data: 269184120
I1130 20:14:52.707078 30472 layer_factory.hpp:77] Creating layer inception_4d/5x5_reduce_p
I1130 20:14:52.707098 30472 net.cpp:100] Creating Layer inception_4d/5x5_reduce_p
I1130 20:14:52.707108 30472 net.cpp:434] inception_4d/5x5_reduce_p <- inception_4c/output_p_inception_4c/output_p_0_split_2
I1130 20:14:52.707120 30472 net.cpp:408] inception_4d/5x5_reduce_p -> inception_4d/5x5_reduce_p
I1130 20:14:52.708993 30472 net.cpp:150] Setting up inception_4d/5x5_reduce_p
I1130 20:14:52.709036 30472 net.cpp:157] Top shape: 10 32 10 5 (16000)
I1130 20:14:52.709043 30472 net.cpp:165] Memory required for data: 269248120
I1130 20:14:52.709054 30472 net.cpp:493] Sharing parameters 'inception_4d/5x5_reduce_w' owned by layer 'inception_4d/5x5_reduce', param index 0
I1130 20:14:52.709064 30472 net.cpp:493] Sharing parameters 'inception_4d/5x5_reduce_b' owned by layer 'inception_4d/5x5_reduce', param index 1
I1130 20:14:52.709070 30472 layer_factory.hpp:77] Creating layer inception_4d/relu_5x5_reduce_p
I1130 20:14:52.709080 30472 net.cpp:100] Creating Layer inception_4d/relu_5x5_reduce_p
I1130 20:14:52.709087 30472 net.cpp:434] inception_4d/relu_5x5_reduce_p <- inception_4d/5x5_reduce_p
I1130 20:14:52.709096 30472 net.cpp:395] inception_4d/relu_5x5_reduce_p -> inception_4d/5x5_reduce_p (in-place)
I1130 20:14:52.709291 30472 net.cpp:150] Setting up inception_4d/relu_5x5_reduce_p
I1130 20:14:52.709341 30472 net.cpp:157] Top shape: 10 32 10 5 (16000)
I1130 20:14:52.709350 30472 net.cpp:165] Memory required for data: 269312120
I1130 20:14:52.709364 30472 layer_factory.hpp:77] Creating layer inception_4d/5x5_p
I1130 20:14:52.709383 30472 net.cpp:100] Creating Layer inception_4d/5x5_p
I1130 20:14:52.709394 30472 net.cpp:434] inception_4d/5x5_p <- inception_4d/5x5_reduce_p
I1130 20:14:52.709409 30472 net.cpp:408] inception_4d/5x5_p -> inception_4d/5x5_p
I1130 20:14:52.711915 30472 net.cpp:150] Setting up inception_4d/5x5_p
I1130 20:14:52.711968 30472 net.cpp:157] Top shape: 10 64 10 5 (32000)
I1130 20:14:52.711987 30472 net.cpp:165] Memory required for data: 269440120
I1130 20:14:52.712031 30472 net.cpp:493] Sharing parameters 'inception_4d/5x5_w' owned by layer 'inception_4d/5x5', param index 0
I1130 20:14:52.712054 30472 net.cpp:493] Sharing parameters 'inception_4d/5x5_b' owned by layer 'inception_4d/5x5', param index 1
I1130 20:14:52.712086 30472 layer_factory.hpp:77] Creating layer inception_4d/relu_5x5_p
I1130 20:14:52.712110 30472 net.cpp:100] Creating Layer inception_4d/relu_5x5_p
I1130 20:14:52.712129 30472 net.cpp:434] inception_4d/relu_5x5_p <- inception_4d/5x5_p
I1130 20:14:52.712162 30472 net.cpp:395] inception_4d/relu_5x5_p -> inception_4d/5x5_p (in-place)
I1130 20:14:52.712530 30472 net.cpp:150] Setting up inception_4d/relu_5x5_p
I1130 20:14:52.712576 30472 net.cpp:157] Top shape: 10 64 10 5 (32000)
I1130 20:14:52.712608 30472 net.cpp:165] Memory required for data: 269568120
I1130 20:14:52.712644 30472 layer_factory.hpp:77] Creating layer inception_4d/pool_p
I1130 20:14:52.712685 30472 net.cpp:100] Creating Layer inception_4d/pool_p
I1130 20:14:52.712723 30472 net.cpp:434] inception_4d/pool_p <- inception_4c/output_p_inception_4c/output_p_0_split_3
I1130 20:14:52.712759 30472 net.cpp:408] inception_4d/pool_p -> inception_4d/pool_p
I1130 20:14:52.712963 30472 net.cpp:150] Setting up inception_4d/pool_p
I1130 20:14:52.713009 30472 net.cpp:157] Top shape: 10 512 10 5 (256000)
I1130 20:14:52.713045 30472 net.cpp:165] Memory required for data: 270592120
I1130 20:14:52.713065 30472 layer_factory.hpp:77] Creating layer inception_4d/pool_proj_p
I1130 20:14:52.713116 30472 net.cpp:100] Creating Layer inception_4d/pool_proj_p
I1130 20:14:52.713165 30472 net.cpp:434] inception_4d/pool_proj_p <- inception_4d/pool_p
I1130 20:14:52.713199 30472 net.cpp:408] inception_4d/pool_proj_p -> inception_4d/pool_proj_p
I1130 20:14:52.718327 30472 net.cpp:150] Setting up inception_4d/pool_proj_p
I1130 20:14:52.718425 30472 net.cpp:157] Top shape: 10 64 10 5 (32000)
I1130 20:14:52.718461 30472 net.cpp:165] Memory required for data: 270720120
I1130 20:14:52.718493 30472 net.cpp:493] Sharing parameters 'inception_4d/pool_proj_w' owned by layer 'inception_4d/pool_proj', param index 0
I1130 20:14:52.718533 30472 net.cpp:493] Sharing parameters 'inception_4d/pool_proj_b' owned by layer 'inception_4d/pool_proj', param index 1
I1130 20:14:52.718560 30472 layer_factory.hpp:77] Creating layer inception_4d/relu_pool_proj_p
I1130 20:14:52.718586 30472 net.cpp:100] Creating Layer inception_4d/relu_pool_proj_p
I1130 20:14:52.718610 30472 net.cpp:434] inception_4d/relu_pool_proj_p <- inception_4d/pool_proj_p
I1130 20:14:52.718623 30472 net.cpp:395] inception_4d/relu_pool_proj_p -> inception_4d/pool_proj_p (in-place)
I1130 20:14:52.719903 30472 net.cpp:150] Setting up inception_4d/relu_pool_proj_p
I1130 20:14:52.719962 30472 net.cpp:157] Top shape: 10 64 10 5 (32000)
I1130 20:14:52.719983 30472 net.cpp:165] Memory required for data: 270848120
I1130 20:14:52.719998 30472 layer_factory.hpp:77] Creating layer inception_4d/output_p
I1130 20:14:52.720017 30472 net.cpp:100] Creating Layer inception_4d/output_p
I1130 20:14:52.720042 30472 net.cpp:434] inception_4d/output_p <- inception_4d/1x1_p
I1130 20:14:52.720069 30472 net.cpp:434] inception_4d/output_p <- inception_4d/3x3_p
I1130 20:14:52.720089 30472 net.cpp:434] inception_4d/output_p <- inception_4d/5x5_p
I1130 20:14:52.720118 30472 net.cpp:434] inception_4d/output_p <- inception_4d/pool_proj_p
I1130 20:14:52.720136 30472 net.cpp:408] inception_4d/output_p -> inception_4d/output_p
I1130 20:14:52.720288 30472 net.cpp:150] Setting up inception_4d/output_p
I1130 20:14:52.720320 30472 net.cpp:157] Top shape: 10 528 10 5 (264000)
I1130 20:14:52.720350 30472 net.cpp:165] Memory required for data: 271904120
I1130 20:14:52.720363 30472 layer_factory.hpp:77] Creating layer inception_4d/output_p_inception_4d/output_p_0_split
I1130 20:14:52.720383 30472 net.cpp:100] Creating Layer inception_4d/output_p_inception_4d/output_p_0_split
I1130 20:14:52.720396 30472 net.cpp:434] inception_4d/output_p_inception_4d/output_p_0_split <- inception_4d/output_p
I1130 20:14:52.720429 30472 net.cpp:408] inception_4d/output_p_inception_4d/output_p_0_split -> inception_4d/output_p_inception_4d/output_p_0_split_0
I1130 20:14:52.720448 30472 net.cpp:408] inception_4d/output_p_inception_4d/output_p_0_split -> inception_4d/output_p_inception_4d/output_p_0_split_1
I1130 20:14:52.720469 30472 net.cpp:408] inception_4d/output_p_inception_4d/output_p_0_split -> inception_4d/output_p_inception_4d/output_p_0_split_2
I1130 20:14:52.720484 30472 net.cpp:408] inception_4d/output_p_inception_4d/output_p_0_split -> inception_4d/output_p_inception_4d/output_p_0_split_3
I1130 20:14:52.720692 30472 net.cpp:150] Setting up inception_4d/output_p_inception_4d/output_p_0_split
I1130 20:14:52.720741 30472 net.cpp:157] Top shape: 10 528 10 5 (264000)
I1130 20:14:52.720758 30472 net.cpp:157] Top shape: 10 528 10 5 (264000)
I1130 20:14:52.720770 30472 net.cpp:157] Top shape: 10 528 10 5 (264000)
I1130 20:14:52.720782 30472 net.cpp:157] Top shape: 10 528 10 5 (264000)
I1130 20:14:52.720795 30472 net.cpp:165] Memory required for data: 276128120
I1130 20:14:52.720810 30472 layer_factory.hpp:77] Creating layer inception_4e/1x1_p
I1130 20:14:52.720837 30472 net.cpp:100] Creating Layer inception_4e/1x1_p
I1130 20:14:52.720854 30472 net.cpp:434] inception_4e/1x1_p <- inception_4d/output_p_inception_4d/output_p_0_split_0
I1130 20:14:52.720885 30472 net.cpp:408] inception_4e/1x1_p -> inception_4e/1x1_p
I1130 20:14:52.725661 30472 net.cpp:150] Setting up inception_4e/1x1_p
I1130 20:14:52.725711 30472 net.cpp:157] Top shape: 10 256 10 5 (128000)
I1130 20:14:52.725744 30472 net.cpp:165] Memory required for data: 276640120
I1130 20:14:52.725771 30472 net.cpp:493] Sharing parameters 'inception_4e/1x1_w' owned by layer 'inception_4e/1x1', param index 0
I1130 20:14:52.725798 30472 net.cpp:493] Sharing parameters 'inception_4e/1x1_b' owned by layer 'inception_4e/1x1', param index 1
I1130 20:14:52.725818 30472 layer_factory.hpp:77] Creating layer inception_4e/relu_1x1_p
I1130 20:14:52.725838 30472 net.cpp:100] Creating Layer inception_4e/relu_1x1_p
I1130 20:14:52.725859 30472 net.cpp:434] inception_4e/relu_1x1_p <- inception_4e/1x1_p
I1130 20:14:52.725883 30472 net.cpp:395] inception_4e/relu_1x1_p -> inception_4e/1x1_p (in-place)
I1130 20:14:52.726156 30472 net.cpp:150] Setting up inception_4e/relu_1x1_p
I1130 20:14:52.726196 30472 net.cpp:157] Top shape: 10 256 10 5 (128000)
I1130 20:14:52.726207 30472 net.cpp:165] Memory required for data: 277152120
I1130 20:14:52.726218 30472 layer_factory.hpp:77] Creating layer inception_4e/3x3_reduce_p
I1130 20:14:52.726244 30472 net.cpp:100] Creating Layer inception_4e/3x3_reduce_p
I1130 20:14:52.726265 30472 net.cpp:434] inception_4e/3x3_reduce_p <- inception_4d/output_p_inception_4d/output_p_0_split_1
I1130 20:14:52.726289 30472 net.cpp:408] inception_4e/3x3_reduce_p -> inception_4e/3x3_reduce_p
I1130 20:14:52.728971 30472 net.cpp:150] Setting up inception_4e/3x3_reduce_p
I1130 20:14:52.729001 30472 net.cpp:157] Top shape: 10 160 10 5 (80000)
I1130 20:14:52.729012 30472 net.cpp:165] Memory required for data: 277472120
I1130 20:14:52.729027 30472 net.cpp:493] Sharing parameters 'inception_4e/3x3_reduce_w' owned by layer 'inception_4e/3x3_reduce', param index 0
I1130 20:14:52.729039 30472 net.cpp:493] Sharing parameters 'inception_4e/3x3_reduce_b' owned by layer 'inception_4e/3x3_reduce', param index 1
I1130 20:14:52.729051 30472 layer_factory.hpp:77] Creating layer inception_4e/relu_3x3_reduce_p
I1130 20:14:52.729073 30472 net.cpp:100] Creating Layer inception_4e/relu_3x3_reduce_p
I1130 20:14:52.729086 30472 net.cpp:434] inception_4e/relu_3x3_reduce_p <- inception_4e/3x3_reduce_p
I1130 20:14:52.729099 30472 net.cpp:395] inception_4e/relu_3x3_reduce_p -> inception_4e/3x3_reduce_p (in-place)
I1130 20:14:52.729363 30472 net.cpp:150] Setting up inception_4e/relu_3x3_reduce_p
I1130 20:14:52.729384 30472 net.cpp:157] Top shape: 10 160 10 5 (80000)
I1130 20:14:52.729394 30472 net.cpp:165] Memory required for data: 277792120
I1130 20:14:52.729408 30472 layer_factory.hpp:77] Creating layer inception_4e/3x3_p
I1130 20:14:52.729440 30472 net.cpp:100] Creating Layer inception_4e/3x3_p
I1130 20:14:52.729450 30472 net.cpp:434] inception_4e/3x3_p <- inception_4e/3x3_reduce_p
I1130 20:14:52.729465 30472 net.cpp:408] inception_4e/3x3_p -> inception_4e/3x3_p
I1130 20:14:52.736053 30472 net.cpp:150] Setting up inception_4e/3x3_p
I1130 20:14:52.736112 30472 net.cpp:157] Top shape: 10 320 10 5 (160000)
I1130 20:14:52.736126 30472 net.cpp:165] Memory required for data: 278432120
I1130 20:14:52.736142 30472 net.cpp:493] Sharing parameters 'inception_4e/3x3_w' owned by layer 'inception_4e/3x3', param index 0
I1130 20:14:52.736157 30472 net.cpp:493] Sharing parameters 'inception_4e/3x3_b' owned by layer 'inception_4e/3x3', param index 1
I1130 20:14:52.736171 30472 layer_factory.hpp:77] Creating layer inception_4e/relu_3x3_p
I1130 20:14:52.736188 30472 net.cpp:100] Creating Layer inception_4e/relu_3x3_p
I1130 20:14:52.736204 30472 net.cpp:434] inception_4e/relu_3x3_p <- inception_4e/3x3_p
I1130 20:14:52.736222 30472 net.cpp:395] inception_4e/relu_3x3_p -> inception_4e/3x3_p (in-place)
I1130 20:14:52.736707 30472 net.cpp:150] Setting up inception_4e/relu_3x3_p
I1130 20:14:52.736729 30472 net.cpp:157] Top shape: 10 320 10 5 (160000)
I1130 20:14:52.736740 30472 net.cpp:165] Memory required for data: 279072120
I1130 20:14:52.736750 30472 layer_factory.hpp:77] Creating layer inception_4e/5x5_reduce_p
I1130 20:14:52.736771 30472 net.cpp:100] Creating Layer inception_4e/5x5_reduce_p
I1130 20:14:52.736783 30472 net.cpp:434] inception_4e/5x5_reduce_p <- inception_4d/output_p_inception_4d/output_p_0_split_2
I1130 20:14:52.736806 30472 net.cpp:408] inception_4e/5x5_reduce_p -> inception_4e/5x5_reduce_p
I1130 20:14:52.738836 30472 net.cpp:150] Setting up inception_4e/5x5_reduce_p
I1130 20:14:52.738873 30472 net.cpp:157] Top shape: 10 32 10 5 (16000)
I1130 20:14:52.738885 30472 net.cpp:165] Memory required for data: 279136120
I1130 20:14:52.738901 30472 net.cpp:493] Sharing parameters 'inception_4e/5x5_reduce_w' owned by layer 'inception_4e/5x5_reduce', param index 0
I1130 20:14:52.738917 30472 net.cpp:493] Sharing parameters 'inception_4e/5x5_reduce_b' owned by layer 'inception_4e/5x5_reduce', param index 1
I1130 20:14:52.738934 30472 layer_factory.hpp:77] Creating layer inception_4e/relu_5x5_reduce_p
I1130 20:14:52.738951 30472 net.cpp:100] Creating Layer inception_4e/relu_5x5_reduce_p
I1130 20:14:52.738962 30472 net.cpp:434] inception_4e/relu_5x5_reduce_p <- inception_4e/5x5_reduce_p
I1130 20:14:52.738981 30472 net.cpp:395] inception_4e/relu_5x5_reduce_p -> inception_4e/5x5_reduce_p (in-place)
I1130 20:14:52.739282 30472 net.cpp:150] Setting up inception_4e/relu_5x5_reduce_p
I1130 20:14:52.739306 30472 net.cpp:157] Top shape: 10 32 10 5 (16000)
I1130 20:14:52.739323 30472 net.cpp:165] Memory required for data: 279200120
I1130 20:14:52.739339 30472 layer_factory.hpp:77] Creating layer inception_4e/5x5_p
I1130 20:14:52.739392 30472 net.cpp:100] Creating Layer inception_4e/5x5_p
I1130 20:14:52.739408 30472 net.cpp:434] inception_4e/5x5_p <- inception_4e/5x5_reduce_p
I1130 20:14:52.739421 30472 net.cpp:408] inception_4e/5x5_p -> inception_4e/5x5_p
I1130 20:14:52.742450 30472 net.cpp:150] Setting up inception_4e/5x5_p
I1130 20:14:52.742478 30472 net.cpp:157] Top shape: 10 128 10 5 (64000)
I1130 20:14:52.742491 30472 net.cpp:165] Memory required for data: 279456120
I1130 20:14:52.742502 30472 net.cpp:493] Sharing parameters 'inception_4e/5x5_w' owned by layer 'inception_4e/5x5', param index 0
I1130 20:14:52.742516 30472 net.cpp:493] Sharing parameters 'inception_4e/5x5_b' owned by layer 'inception_4e/5x5', param index 1
I1130 20:14:52.742525 30472 layer_factory.hpp:77] Creating layer inception_4e/relu_5x5_p
I1130 20:14:52.742538 30472 net.cpp:100] Creating Layer inception_4e/relu_5x5_p
I1130 20:14:52.742548 30472 net.cpp:434] inception_4e/relu_5x5_p <- inception_4e/5x5_p
I1130 20:14:52.742561 30472 net.cpp:395] inception_4e/relu_5x5_p -> inception_4e/5x5_p (in-place)
I1130 20:14:52.742799 30472 net.cpp:150] Setting up inception_4e/relu_5x5_p
I1130 20:14:52.742830 30472 net.cpp:157] Top shape: 10 128 10 5 (64000)
I1130 20:14:52.742838 30472 net.cpp:165] Memory required for data: 279712120
I1130 20:14:52.742847 30472 layer_factory.hpp:77] Creating layer inception_4e/pool_p
I1130 20:14:52.742863 30472 net.cpp:100] Creating Layer inception_4e/pool_p
I1130 20:14:52.742873 30472 net.cpp:434] inception_4e/pool_p <- inception_4d/output_p_inception_4d/output_p_0_split_3
I1130 20:14:52.742885 30472 net.cpp:408] inception_4e/pool_p -> inception_4e/pool_p
I1130 20:14:52.742980 30472 net.cpp:150] Setting up inception_4e/pool_p
I1130 20:14:52.742997 30472 net.cpp:157] Top shape: 10 528 10 5 (264000)
I1130 20:14:52.743006 30472 net.cpp:165] Memory required for data: 280768120
I1130 20:14:52.743021 30472 layer_factory.hpp:77] Creating layer inception_4e/pool_proj_p
I1130 20:14:52.743036 30472 net.cpp:100] Creating Layer inception_4e/pool_proj_p
I1130 20:14:52.743046 30472 net.cpp:434] inception_4e/pool_proj_p <- inception_4e/pool_p
I1130 20:14:52.743060 30472 net.cpp:408] inception_4e/pool_proj_p -> inception_4e/pool_proj_p
I1130 20:14:52.745414 30472 net.cpp:150] Setting up inception_4e/pool_proj_p
I1130 20:14:52.745441 30472 net.cpp:157] Top shape: 10 128 10 5 (64000)
I1130 20:14:52.745452 30472 net.cpp:165] Memory required for data: 281024120
I1130 20:14:52.745463 30472 net.cpp:493] Sharing parameters 'inception_4e/pool_proj_w' owned by layer 'inception_4e/pool_proj', param index 0
I1130 20:14:52.745476 30472 net.cpp:493] Sharing parameters 'inception_4e/pool_proj_b' owned by layer 'inception_4e/pool_proj', param index 1
I1130 20:14:52.745492 30472 layer_factory.hpp:77] Creating layer inception_4e/relu_pool_proj_p
I1130 20:14:52.745508 30472 net.cpp:100] Creating Layer inception_4e/relu_pool_proj_p
I1130 20:14:52.745518 30472 net.cpp:434] inception_4e/relu_pool_proj_p <- inception_4e/pool_proj_p
I1130 20:14:52.745532 30472 net.cpp:395] inception_4e/relu_pool_proj_p -> inception_4e/pool_proj_p (in-place)
I1130 20:14:52.746026 30472 net.cpp:150] Setting up inception_4e/relu_pool_proj_p
I1130 20:14:52.746054 30472 net.cpp:157] Top shape: 10 128 10 5 (64000)
I1130 20:14:52.746070 30472 net.cpp:165] Memory required for data: 281280120
I1130 20:14:52.746083 30472 layer_factory.hpp:77] Creating layer inception_4e/output_p
I1130 20:14:52.746103 30472 net.cpp:100] Creating Layer inception_4e/output_p
I1130 20:14:52.746119 30472 net.cpp:434] inception_4e/output_p <- inception_4e/1x1_p
I1130 20:14:52.746136 30472 net.cpp:434] inception_4e/output_p <- inception_4e/3x3_p
I1130 20:14:52.746150 30472 net.cpp:434] inception_4e/output_p <- inception_4e/5x5_p
I1130 20:14:52.746162 30472 net.cpp:434] inception_4e/output_p <- inception_4e/pool_proj_p
I1130 20:14:52.746175 30472 net.cpp:408] inception_4e/output_p -> inception_4e/output_p
I1130 20:14:52.746245 30472 net.cpp:150] Setting up inception_4e/output_p
I1130 20:14:52.746265 30472 net.cpp:157] Top shape: 10 832 10 5 (416000)
I1130 20:14:52.746278 30472 net.cpp:165] Memory required for data: 282944120
I1130 20:14:52.746287 30472 layer_factory.hpp:77] Creating layer inception_4e/output_p_inception_4e/output_p_0_split
I1130 20:14:52.746304 30472 net.cpp:100] Creating Layer inception_4e/output_p_inception_4e/output_p_0_split
I1130 20:14:52.746316 30472 net.cpp:434] inception_4e/output_p_inception_4e/output_p_0_split <- inception_4e/output_p
I1130 20:14:52.746331 30472 net.cpp:408] inception_4e/output_p_inception_4e/output_p_0_split -> inception_4e/output_p_inception_4e/output_p_0_split_0
I1130 20:14:52.746346 30472 net.cpp:408] inception_4e/output_p_inception_4e/output_p_0_split -> inception_4e/output_p_inception_4e/output_p_0_split_1
I1130 20:14:52.746359 30472 net.cpp:408] inception_4e/output_p_inception_4e/output_p_0_split -> inception_4e/output_p_inception_4e/output_p_0_split_2
I1130 20:14:52.746374 30472 net.cpp:408] inception_4e/output_p_inception_4e/output_p_0_split -> inception_4e/output_p_inception_4e/output_p_0_split_3
I1130 20:14:52.746543 30472 net.cpp:150] Setting up inception_4e/output_p_inception_4e/output_p_0_split
I1130 20:14:52.746575 30472 net.cpp:157] Top shape: 10 832 10 5 (416000)
I1130 20:14:52.746589 30472 net.cpp:157] Top shape: 10 832 10 5 (416000)
I1130 20:14:52.746599 30472 net.cpp:157] Top shape: 10 832 10 5 (416000)
I1130 20:14:52.746609 30472 net.cpp:157] Top shape: 10 832 10 5 (416000)
I1130 20:14:52.746618 30472 net.cpp:165] Memory required for data: 289600120
I1130 20:14:52.746630 30472 layer_factory.hpp:77] Creating layer inception_5a/1x1_p
I1130 20:14:52.746652 30472 net.cpp:100] Creating Layer inception_5a/1x1_p
I1130 20:14:52.746665 30472 net.cpp:434] inception_5a/1x1_p <- inception_4e/output_p_inception_4e/output_p_0_split_0
I1130 20:14:52.746680 30472 net.cpp:408] inception_5a/1x1_p -> inception_5a/1x1_p
I1130 20:14:52.752424 30472 net.cpp:150] Setting up inception_5a/1x1_p
I1130 20:14:52.752460 30472 net.cpp:157] Top shape: 10 256 10 5 (128000)
I1130 20:14:52.752470 30472 net.cpp:165] Memory required for data: 290112120
I1130 20:14:52.752487 30472 net.cpp:493] Sharing parameters 'inception_5a/1x1_w' owned by layer 'inception_5a/1x1', param index 0
I1130 20:14:52.752503 30472 net.cpp:493] Sharing parameters 'inception_5a/1x1_b' owned by layer 'inception_5a/1x1', param index 1
I1130 20:14:52.752516 30472 layer_factory.hpp:77] Creating layer inception_5a/relu_1x1_p
I1130 20:14:52.752531 30472 net.cpp:100] Creating Layer inception_5a/relu_1x1_p
I1130 20:14:52.752542 30472 net.cpp:434] inception_5a/relu_1x1_p <- inception_5a/1x1_p
I1130 20:14:52.752557 30472 net.cpp:395] inception_5a/relu_1x1_p -> inception_5a/1x1_p (in-place)
I1130 20:14:52.752817 30472 net.cpp:150] Setting up inception_5a/relu_1x1_p
I1130 20:14:52.752845 30472 net.cpp:157] Top shape: 10 256 10 5 (128000)
I1130 20:14:52.752854 30472 net.cpp:165] Memory required for data: 290624120
I1130 20:14:52.752866 30472 layer_factory.hpp:77] Creating layer inception_5a/3x3_reduce_p
I1130 20:14:52.752883 30472 net.cpp:100] Creating Layer inception_5a/3x3_reduce_p
I1130 20:14:52.752899 30472 net.cpp:434] inception_5a/3x3_reduce_p <- inception_4e/output_p_inception_4e/output_p_0_split_1
I1130 20:14:52.752918 30472 net.cpp:408] inception_5a/3x3_reduce_p -> inception_5a/3x3_reduce_p
I1130 20:14:52.757663 30472 net.cpp:150] Setting up inception_5a/3x3_reduce_p
I1130 20:14:52.757707 30472 net.cpp:157] Top shape: 10 160 10 5 (80000)
I1130 20:14:52.757719 30472 net.cpp:165] Memory required for data: 290944120
I1130 20:14:52.757732 30472 net.cpp:493] Sharing parameters 'inception_5a/3x3_reduce_w' owned by layer 'inception_5a/3x3_reduce', param index 0
I1130 20:14:52.757747 30472 net.cpp:493] Sharing parameters 'inception_5a/3x3_reduce_b' owned by layer 'inception_5a/3x3_reduce', param index 1
I1130 20:14:52.757761 30472 layer_factory.hpp:77] Creating layer inception_5a/relu_3x3_reduce_p
I1130 20:14:52.757782 30472 net.cpp:100] Creating Layer inception_5a/relu_3x3_reduce_p
I1130 20:14:52.757797 30472 net.cpp:434] inception_5a/relu_3x3_reduce_p <- inception_5a/3x3_reduce_p
I1130 20:14:52.757812 30472 net.cpp:395] inception_5a/relu_3x3_reduce_p -> inception_5a/3x3_reduce_p (in-place)
I1130 20:14:52.758378 30472 net.cpp:150] Setting up inception_5a/relu_3x3_reduce_p
I1130 20:14:52.758405 30472 net.cpp:157] Top shape: 10 160 10 5 (80000)
I1130 20:14:52.758416 30472 net.cpp:165] Memory required for data: 291264120
I1130 20:14:52.758429 30472 layer_factory.hpp:77] Creating layer inception_5a/3x3_p
I1130 20:14:52.758451 30472 net.cpp:100] Creating Layer inception_5a/3x3_p
I1130 20:14:52.758467 30472 net.cpp:434] inception_5a/3x3_p <- inception_5a/3x3_reduce_p
I1130 20:14:52.758487 30472 net.cpp:408] inception_5a/3x3_p -> inception_5a/3x3_p
I1130 20:14:52.765936 30472 net.cpp:150] Setting up inception_5a/3x3_p
I1130 20:14:52.765969 30472 net.cpp:157] Top shape: 10 320 10 5 (160000)
I1130 20:14:52.765980 30472 net.cpp:165] Memory required for data: 291904120
I1130 20:14:52.765991 30472 net.cpp:493] Sharing parameters 'inception_5a/3x3_w' owned by layer 'inception_5a/3x3', param index 0
I1130 20:14:52.766002 30472 net.cpp:493] Sharing parameters 'inception_5a/3x3_b' owned by layer 'inception_5a/3x3', param index 1
I1130 20:14:52.766041 30472 layer_factory.hpp:77] Creating layer inception_5a/relu_3x3_p
I1130 20:14:52.766055 30472 net.cpp:100] Creating Layer inception_5a/relu_3x3_p
I1130 20:14:52.766067 30472 net.cpp:434] inception_5a/relu_3x3_p <- inception_5a/3x3_p
I1130 20:14:52.766083 30472 net.cpp:395] inception_5a/relu_3x3_p -> inception_5a/3x3_p (in-place)
I1130 20:14:52.766517 30472 net.cpp:150] Setting up inception_5a/relu_3x3_p
I1130 20:14:52.766538 30472 net.cpp:157] Top shape: 10 320 10 5 (160000)
I1130 20:14:52.766548 30472 net.cpp:165] Memory required for data: 292544120
I1130 20:14:52.766556 30472 layer_factory.hpp:77] Creating layer inception_5a/5x5_reduce_p
I1130 20:14:52.766576 30472 net.cpp:100] Creating Layer inception_5a/5x5_reduce_p
I1130 20:14:52.766587 30472 net.cpp:434] inception_5a/5x5_reduce_p <- inception_4e/output_p_inception_4e/output_p_0_split_2
I1130 20:14:52.766602 30472 net.cpp:408] inception_5a/5x5_reduce_p -> inception_5a/5x5_reduce_p
I1130 20:14:52.769703 30472 net.cpp:150] Setting up inception_5a/5x5_reduce_p
I1130 20:14:52.769753 30472 net.cpp:157] Top shape: 10 32 10 5 (16000)
I1130 20:14:52.769776 30472 net.cpp:165] Memory required for data: 292608120
I1130 20:14:52.769800 30472 net.cpp:493] Sharing parameters 'inception_5a/5x5_reduce_w' owned by layer 'inception_5a/5x5_reduce', param index 0
I1130 20:14:52.769820 30472 net.cpp:493] Sharing parameters 'inception_5a/5x5_reduce_b' owned by layer 'inception_5a/5x5_reduce', param index 1
I1130 20:14:52.769848 30472 layer_factory.hpp:77] Creating layer inception_5a/relu_5x5_reduce_p
I1130 20:14:52.769886 30472 net.cpp:100] Creating Layer inception_5a/relu_5x5_reduce_p
I1130 20:14:52.769914 30472 net.cpp:434] inception_5a/relu_5x5_reduce_p <- inception_5a/5x5_reduce_p
I1130 20:14:52.769942 30472 net.cpp:395] inception_5a/relu_5x5_reduce_p -> inception_5a/5x5_reduce_p (in-place)
I1130 20:14:52.770269 30472 net.cpp:150] Setting up inception_5a/relu_5x5_reduce_p
I1130 20:14:52.770313 30472 net.cpp:157] Top shape: 10 32 10 5 (16000)
I1130 20:14:52.770334 30472 net.cpp:165] Memory required for data: 292672120
I1130 20:14:52.770344 30472 layer_factory.hpp:77] Creating layer inception_5a/5x5_p
I1130 20:14:52.770372 30472 net.cpp:100] Creating Layer inception_5a/5x5_p
I1130 20:14:52.770393 30472 net.cpp:434] inception_5a/5x5_p <- inception_5a/5x5_reduce_p
I1130 20:14:52.770414 30472 net.cpp:408] inception_5a/5x5_p -> inception_5a/5x5_p
I1130 20:14:52.774713 30472 net.cpp:150] Setting up inception_5a/5x5_p
I1130 20:14:52.774754 30472 net.cpp:157] Top shape: 10 128 10 5 (64000)
I1130 20:14:52.774765 30472 net.cpp:165] Memory required for data: 292928120
I1130 20:14:52.774777 30472 net.cpp:493] Sharing parameters 'inception_5a/5x5_w' owned by layer 'inception_5a/5x5', param index 0
I1130 20:14:52.774796 30472 net.cpp:493] Sharing parameters 'inception_5a/5x5_b' owned by layer 'inception_5a/5x5', param index 1
I1130 20:14:52.774819 30472 layer_factory.hpp:77] Creating layer inception_5a/relu_5x5_p
I1130 20:14:52.774845 30472 net.cpp:100] Creating Layer inception_5a/relu_5x5_p
I1130 20:14:52.774864 30472 net.cpp:434] inception_5a/relu_5x5_p <- inception_5a/5x5_p
I1130 20:14:52.774883 30472 net.cpp:395] inception_5a/relu_5x5_p -> inception_5a/5x5_p (in-place)
I1130 20:14:52.775284 30472 net.cpp:150] Setting up inception_5a/relu_5x5_p
I1130 20:14:52.775311 30472 net.cpp:157] Top shape: 10 128 10 5 (64000)
I1130 20:14:52.775328 30472 net.cpp:165] Memory required for data: 293184120
I1130 20:14:52.775344 30472 layer_factory.hpp:77] Creating layer inception_5a/pool_p
I1130 20:14:52.775364 30472 net.cpp:100] Creating Layer inception_5a/pool_p
I1130 20:14:52.775388 30472 net.cpp:434] inception_5a/pool_p <- inception_4e/output_p_inception_4e/output_p_0_split_3
I1130 20:14:52.775413 30472 net.cpp:408] inception_5a/pool_p -> inception_5a/pool_p
I1130 20:14:52.775527 30472 net.cpp:150] Setting up inception_5a/pool_p
I1130 20:14:52.775555 30472 net.cpp:157] Top shape: 10 832 10 5 (416000)
I1130 20:14:52.775576 30472 net.cpp:165] Memory required for data: 294848120
I1130 20:14:52.775617 30472 layer_factory.hpp:77] Creating layer inception_5a/pool_proj_p
I1130 20:14:52.775645 30472 net.cpp:100] Creating Layer inception_5a/pool_proj_p
I1130 20:14:52.775660 30472 net.cpp:434] inception_5a/pool_proj_p <- inception_5a/pool_p
I1130 20:14:52.775686 30472 net.cpp:408] inception_5a/pool_proj_p -> inception_5a/pool_proj_p
I1130 20:14:52.779709 30472 net.cpp:150] Setting up inception_5a/pool_proj_p
I1130 20:14:52.779744 30472 net.cpp:157] Top shape: 10 128 10 5 (64000)
I1130 20:14:52.779758 30472 net.cpp:165] Memory required for data: 295104120
I1130 20:14:52.779774 30472 net.cpp:493] Sharing parameters 'inception_5a/pool_proj_w' owned by layer 'inception_5a/pool_proj', param index 0
I1130 20:14:52.779788 30472 net.cpp:493] Sharing parameters 'inception_5a/pool_proj_b' owned by layer 'inception_5a/pool_proj', param index 1
I1130 20:14:52.779801 30472 layer_factory.hpp:77] Creating layer inception_5a/relu_pool_proj_p
I1130 20:14:52.779814 30472 net.cpp:100] Creating Layer inception_5a/relu_pool_proj_p
I1130 20:14:52.779826 30472 net.cpp:434] inception_5a/relu_pool_proj_p <- inception_5a/pool_proj_p
I1130 20:14:52.779844 30472 net.cpp:395] inception_5a/relu_pool_proj_p -> inception_5a/pool_proj_p (in-place)
I1130 20:14:52.780445 30472 net.cpp:150] Setting up inception_5a/relu_pool_proj_p
I1130 20:14:52.780480 30472 net.cpp:157] Top shape: 10 128 10 5 (64000)
I1130 20:14:52.780498 30472 net.cpp:165] Memory required for data: 295360120
I1130 20:14:52.780519 30472 layer_factory.hpp:77] Creating layer inception_5a/output_p
I1130 20:14:52.780560 30472 net.cpp:100] Creating Layer inception_5a/output_p
I1130 20:14:52.780585 30472 net.cpp:434] inception_5a/output_p <- inception_5a/1x1_p
I1130 20:14:52.780608 30472 net.cpp:434] inception_5a/output_p <- inception_5a/3x3_p
I1130 20:14:52.780624 30472 net.cpp:434] inception_5a/output_p <- inception_5a/5x5_p
I1130 20:14:52.780637 30472 net.cpp:434] inception_5a/output_p <- inception_5a/pool_proj_p
I1130 20:14:52.780652 30472 net.cpp:408] inception_5a/output_p -> inception_5a/output_p
I1130 20:14:52.780699 30472 net.cpp:150] Setting up inception_5a/output_p
I1130 20:14:52.780717 30472 net.cpp:157] Top shape: 10 832 10 5 (416000)
I1130 20:14:52.780730 30472 net.cpp:165] Memory required for data: 297024120
I1130 20:14:52.780742 30472 layer_factory.hpp:77] Creating layer inception_5a/output_p_inception_5a/output_p_0_split
I1130 20:14:52.780761 30472 net.cpp:100] Creating Layer inception_5a/output_p_inception_5a/output_p_0_split
I1130 20:14:52.780771 30472 net.cpp:434] inception_5a/output_p_inception_5a/output_p_0_split <- inception_5a/output_p
I1130 20:14:52.780782 30472 net.cpp:408] inception_5a/output_p_inception_5a/output_p_0_split -> inception_5a/output_p_inception_5a/output_p_0_split_0
I1130 20:14:52.780798 30472 net.cpp:408] inception_5a/output_p_inception_5a/output_p_0_split -> inception_5a/output_p_inception_5a/output_p_0_split_1
I1130 20:14:52.780809 30472 net.cpp:408] inception_5a/output_p_inception_5a/output_p_0_split -> inception_5a/output_p_inception_5a/output_p_0_split_2
I1130 20:14:52.780822 30472 net.cpp:408] inception_5a/output_p_inception_5a/output_p_0_split -> inception_5a/output_p_inception_5a/output_p_0_split_3
I1130 20:14:52.780897 30472 net.cpp:150] Setting up inception_5a/output_p_inception_5a/output_p_0_split
I1130 20:14:52.780916 30472 net.cpp:157] Top shape: 10 832 10 5 (416000)
I1130 20:14:52.780926 30472 net.cpp:157] Top shape: 10 832 10 5 (416000)
I1130 20:14:52.780936 30472 net.cpp:157] Top shape: 10 832 10 5 (416000)
I1130 20:14:52.780946 30472 net.cpp:157] Top shape: 10 832 10 5 (416000)
I1130 20:14:52.780954 30472 net.cpp:165] Memory required for data: 303680120
I1130 20:14:52.780963 30472 layer_factory.hpp:77] Creating layer inception_5b/1x1_p
I1130 20:14:52.780979 30472 net.cpp:100] Creating Layer inception_5b/1x1_p
I1130 20:14:52.780993 30472 net.cpp:434] inception_5b/1x1_p <- inception_5a/output_p_inception_5a/output_p_0_split_0
I1130 20:14:52.781007 30472 net.cpp:408] inception_5b/1x1_p -> inception_5b/1x1_p
I1130 20:14:52.785684 30472 net.cpp:150] Setting up inception_5b/1x1_p
I1130 20:14:52.785709 30472 net.cpp:157] Top shape: 10 384 10 5 (192000)
I1130 20:14:52.785719 30472 net.cpp:165] Memory required for data: 304448120
I1130 20:14:52.785732 30472 net.cpp:493] Sharing parameters 'inception_5b/1x1_w' owned by layer 'inception_5b/1x1', param index 0
I1130 20:14:52.785742 30472 net.cpp:493] Sharing parameters 'inception_5b/1x1_b' owned by layer 'inception_5b/1x1', param index 1
I1130 20:14:52.785750 30472 layer_factory.hpp:77] Creating layer inception_5b/relu_1x1_p
I1130 20:14:52.785761 30472 net.cpp:100] Creating Layer inception_5b/relu_1x1_p
I1130 20:14:52.785771 30472 net.cpp:434] inception_5b/relu_1x1_p <- inception_5b/1x1_p
I1130 20:14:52.785785 30472 net.cpp:395] inception_5b/relu_1x1_p -> inception_5b/1x1_p (in-place)
I1130 20:14:52.786029 30472 net.cpp:150] Setting up inception_5b/relu_1x1_p
I1130 20:14:52.786056 30472 net.cpp:157] Top shape: 10 384 10 5 (192000)
I1130 20:14:52.786067 30472 net.cpp:165] Memory required for data: 305216120
I1130 20:14:52.786075 30472 layer_factory.hpp:77] Creating layer inception_5b/3x3_reduce_p
I1130 20:14:52.786093 30472 net.cpp:100] Creating Layer inception_5b/3x3_reduce_p
I1130 20:14:52.786108 30472 net.cpp:434] inception_5b/3x3_reduce_p <- inception_5a/output_p_inception_5a/output_p_0_split_1
I1130 20:14:52.786120 30472 net.cpp:408] inception_5b/3x3_reduce_p -> inception_5b/3x3_reduce_p
I1130 20:14:52.789485 30472 net.cpp:150] Setting up inception_5b/3x3_reduce_p
I1130 20:14:52.789516 30472 net.cpp:157] Top shape: 10 192 10 5 (96000)
I1130 20:14:52.789536 30472 net.cpp:165] Memory required for data: 305600120
I1130 20:14:52.789552 30472 net.cpp:493] Sharing parameters 'inception_5b/3x3_reduce_w' owned by layer 'inception_5b/3x3_reduce', param index 0
I1130 20:14:52.789566 30472 net.cpp:493] Sharing parameters 'inception_5b/3x3_reduce_b' owned by layer 'inception_5b/3x3_reduce', param index 1
I1130 20:14:52.789582 30472 layer_factory.hpp:77] Creating layer inception_5b/relu_3x3_reduce_p
I1130 20:14:52.789597 30472 net.cpp:100] Creating Layer inception_5b/relu_3x3_reduce_p
I1130 20:14:52.789611 30472 net.cpp:434] inception_5b/relu_3x3_reduce_p <- inception_5b/3x3_reduce_p
I1130 20:14:52.789625 30472 net.cpp:395] inception_5b/relu_3x3_reduce_p -> inception_5b/3x3_reduce_p (in-place)
I1130 20:14:52.789945 30472 net.cpp:150] Setting up inception_5b/relu_3x3_reduce_p
I1130 20:14:52.789971 30472 net.cpp:157] Top shape: 10 192 10 5 (96000)
I1130 20:14:52.789983 30472 net.cpp:165] Memory required for data: 305984120
I1130 20:14:52.789994 30472 layer_factory.hpp:77] Creating layer inception_5b/3x3_p
I1130 20:14:52.790014 30472 net.cpp:100] Creating Layer inception_5b/3x3_p
I1130 20:14:52.790024 30472 net.cpp:434] inception_5b/3x3_p <- inception_5b/3x3_reduce_p
I1130 20:14:52.790041 30472 net.cpp:408] inception_5b/3x3_p -> inception_5b/3x3_p
I1130 20:14:52.806864 30472 net.cpp:150] Setting up inception_5b/3x3_p
I1130 20:14:52.806916 30472 net.cpp:157] Top shape: 10 384 10 5 (192000)
I1130 20:14:52.806927 30472 net.cpp:165] Memory required for data: 306752120
I1130 20:14:52.806938 30472 net.cpp:493] Sharing parameters 'inception_5b/3x3_w' owned by layer 'inception_5b/3x3', param index 0
I1130 20:14:52.806951 30472 net.cpp:493] Sharing parameters 'inception_5b/3x3_b' owned by layer 'inception_5b/3x3', param index 1
I1130 20:14:52.806958 30472 layer_factory.hpp:77] Creating layer inception_5b/relu_3x3_p
I1130 20:14:52.806972 30472 net.cpp:100] Creating Layer inception_5b/relu_3x3_p
I1130 20:14:52.806983 30472 net.cpp:434] inception_5b/relu_3x3_p <- inception_5b/3x3_p
I1130 20:14:52.806995 30472 net.cpp:395] inception_5b/relu_3x3_p -> inception_5b/3x3_p (in-place)
I1130 20:14:52.807461 30472 net.cpp:150] Setting up inception_5b/relu_3x3_p
I1130 20:14:52.807482 30472 net.cpp:157] Top shape: 10 384 10 5 (192000)
I1130 20:14:52.807490 30472 net.cpp:165] Memory required for data: 307520120
I1130 20:14:52.807497 30472 layer_factory.hpp:77] Creating layer inception_5b/5x5_reduce_p
I1130 20:14:52.807528 30472 net.cpp:100] Creating Layer inception_5b/5x5_reduce_p
I1130 20:14:52.807536 30472 net.cpp:434] inception_5b/5x5_reduce_p <- inception_5a/output_p_inception_5a/output_p_0_split_2
I1130 20:14:52.807549 30472 net.cpp:408] inception_5b/5x5_reduce_p -> inception_5b/5x5_reduce_p
I1130 20:14:52.809070 30472 net.cpp:150] Setting up inception_5b/5x5_reduce_p
I1130 20:14:52.809092 30472 net.cpp:157] Top shape: 10 48 10 5 (24000)
I1130 20:14:52.809101 30472 net.cpp:165] Memory required for data: 307616120
I1130 20:14:52.809111 30472 net.cpp:493] Sharing parameters 'inception_5b/5x5_reduce_w' owned by layer 'inception_5b/5x5_reduce', param index 0
I1130 20:14:52.809121 30472 net.cpp:493] Sharing parameters 'inception_5b/5x5_reduce_b' owned by layer 'inception_5b/5x5_reduce', param index 1
I1130 20:14:52.809128 30472 layer_factory.hpp:77] Creating layer inception_5b/relu_5x5_reduce_p
I1130 20:14:52.809139 30472 net.cpp:100] Creating Layer inception_5b/relu_5x5_reduce_p
I1130 20:14:52.809146 30472 net.cpp:434] inception_5b/relu_5x5_reduce_p <- inception_5b/5x5_reduce_p
I1130 20:14:52.809156 30472 net.cpp:395] inception_5b/relu_5x5_reduce_p -> inception_5b/5x5_reduce_p (in-place)
I1130 20:14:52.809541 30472 net.cpp:150] Setting up inception_5b/relu_5x5_reduce_p
I1130 20:14:52.809567 30472 net.cpp:157] Top shape: 10 48 10 5 (24000)
I1130 20:14:52.809573 30472 net.cpp:165] Memory required for data: 307712120
I1130 20:14:52.809581 30472 layer_factory.hpp:77] Creating layer inception_5b/5x5_p
I1130 20:14:52.809602 30472 net.cpp:100] Creating Layer inception_5b/5x5_p
I1130 20:14:52.809628 30472 net.cpp:434] inception_5b/5x5_p <- inception_5b/5x5_reduce_p
I1130 20:14:52.809643 30472 net.cpp:408] inception_5b/5x5_p -> inception_5b/5x5_p
I1130 20:14:52.811795 30472 net.cpp:150] Setting up inception_5b/5x5_p
I1130 20:14:52.811813 30472 net.cpp:157] Top shape: 10 128 10 5 (64000)
I1130 20:14:52.811820 30472 net.cpp:165] Memory required for data: 307968120
I1130 20:14:52.811828 30472 net.cpp:493] Sharing parameters 'inception_5b/5x5_w' owned by layer 'inception_5b/5x5', param index 0
I1130 20:14:52.811836 30472 net.cpp:493] Sharing parameters 'inception_5b/5x5_b' owned by layer 'inception_5b/5x5', param index 1
I1130 20:14:52.811841 30472 layer_factory.hpp:77] Creating layer inception_5b/relu_5x5_p
I1130 20:14:52.811849 30472 net.cpp:100] Creating Layer inception_5b/relu_5x5_p
I1130 20:14:52.811856 30472 net.cpp:434] inception_5b/relu_5x5_p <- inception_5b/5x5_p
I1130 20:14:52.811866 30472 net.cpp:395] inception_5b/relu_5x5_p -> inception_5b/5x5_p (in-place)
I1130 20:14:52.812096 30472 net.cpp:150] Setting up inception_5b/relu_5x5_p
I1130 20:14:52.812116 30472 net.cpp:157] Top shape: 10 128 10 5 (64000)
I1130 20:14:52.812124 30472 net.cpp:165] Memory required for data: 308224120
I1130 20:14:52.812134 30472 layer_factory.hpp:77] Creating layer inception_5b/pool_p
I1130 20:14:52.812149 30472 net.cpp:100] Creating Layer inception_5b/pool_p
I1130 20:14:52.812156 30472 net.cpp:434] inception_5b/pool_p <- inception_5a/output_p_inception_5a/output_p_0_split_3
I1130 20:14:52.812168 30472 net.cpp:408] inception_5b/pool_p -> inception_5b/pool_p
I1130 20:14:52.812227 30472 net.cpp:150] Setting up inception_5b/pool_p
I1130 20:14:52.812240 30472 net.cpp:157] Top shape: 10 832 10 5 (416000)
I1130 20:14:52.812245 30472 net.cpp:165] Memory required for data: 309888120
I1130 20:14:52.812252 30472 layer_factory.hpp:77] Creating layer inception_5b/pool_proj_p
I1130 20:14:52.812265 30472 net.cpp:100] Creating Layer inception_5b/pool_proj_p
I1130 20:14:52.812273 30472 net.cpp:434] inception_5b/pool_proj_p <- inception_5b/pool_p
I1130 20:14:52.812285 30472 net.cpp:408] inception_5b/pool_proj_p -> inception_5b/pool_proj_p
I1130 20:14:52.814990 30472 net.cpp:150] Setting up inception_5b/pool_proj_p
I1130 20:14:52.815024 30472 net.cpp:157] Top shape: 10 128 10 5 (64000)
I1130 20:14:52.815032 30472 net.cpp:165] Memory required for data: 310144120
I1130 20:14:52.815044 30472 net.cpp:493] Sharing parameters 'inception_5b/pool_proj_w' owned by layer 'inception_5b/pool_proj', param index 0
I1130 20:14:52.815065 30472 net.cpp:493] Sharing parameters 'inception_5b/pool_proj_b' owned by layer 'inception_5b/pool_proj', param index 1
I1130 20:14:52.815075 30472 layer_factory.hpp:77] Creating layer inception_5b/relu_pool_proj_p
I1130 20:14:52.815085 30472 net.cpp:100] Creating Layer inception_5b/relu_pool_proj_p
I1130 20:14:52.815095 30472 net.cpp:434] inception_5b/relu_pool_proj_p <- inception_5b/pool_proj_p
I1130 20:14:52.815106 30472 net.cpp:395] inception_5b/relu_pool_proj_p -> inception_5b/pool_proj_p (in-place)
I1130 20:14:52.815521 30472 net.cpp:150] Setting up inception_5b/relu_pool_proj_p
I1130 20:14:52.815539 30472 net.cpp:157] Top shape: 10 128 10 5 (64000)
I1130 20:14:52.815547 30472 net.cpp:165] Memory required for data: 310400120
I1130 20:14:52.815552 30472 layer_factory.hpp:77] Creating layer inception_5b/output_p
I1130 20:14:52.815567 30472 net.cpp:100] Creating Layer inception_5b/output_p
I1130 20:14:52.815577 30472 net.cpp:434] inception_5b/output_p <- inception_5b/1x1_p
I1130 20:14:52.815587 30472 net.cpp:434] inception_5b/output_p <- inception_5b/3x3_p
I1130 20:14:52.815596 30472 net.cpp:434] inception_5b/output_p <- inception_5b/5x5_p
I1130 20:14:52.815604 30472 net.cpp:434] inception_5b/output_p <- inception_5b/pool_proj_p
I1130 20:14:52.815611 30472 net.cpp:408] inception_5b/output_p -> inception_5b/output_p
I1130 20:14:52.815662 30472 net.cpp:150] Setting up inception_5b/output_p
I1130 20:14:52.815673 30472 net.cpp:157] Top shape: 10 1024 10 5 (512000)
I1130 20:14:52.815680 30472 net.cpp:165] Memory required for data: 312448120
I1130 20:14:52.815692 30472 layer_factory.hpp:77] Creating layer conv2-all
I1130 20:14:52.815701 30472 net.cpp:100] Creating Layer conv2-all
I1130 20:14:52.815711 30472 net.cpp:434] conv2-all <- inception_5b/output
I1130 20:14:52.815721 30472 net.cpp:434] conv2-all <- inception_5b/output_p
I1130 20:14:52.815731 30472 net.cpp:408] conv2-all -> conv2-all
I1130 20:14:52.815765 30472 net.cpp:150] Setting up conv2-all
I1130 20:14:52.815774 30472 net.cpp:157] Top shape: 10 2048 10 5 (1024000)
I1130 20:14:52.815781 30472 net.cpp:165] Memory required for data: 316544120
I1130 20:14:52.815788 30472 layer_factory.hpp:77] Creating layer conv3-sm
I1130 20:14:52.815804 30472 net.cpp:100] Creating Layer conv3-sm
I1130 20:14:52.815811 30472 net.cpp:434] conv3-sm <- conv2-all
I1130 20:14:52.815825 30472 net.cpp:408] conv3-sm -> conv3
I1130 20:14:53.367722 30472 net.cpp:150] Setting up conv3-sm
I1130 20:14:53.367774 30472 net.cpp:157] Top shape: 10 1024 10 5 (512000)
I1130 20:14:53.367785 30472 net.cpp:165] Memory required for data: 318592120
I1130 20:14:53.367806 30472 layer_factory.hpp:77] Creating layer relu3
I1130 20:14:53.367827 30472 net.cpp:100] Creating Layer relu3
I1130 20:14:53.367841 30472 net.cpp:434] relu3 <- conv3
I1130 20:14:53.367859 30472 net.cpp:395] relu3 -> conv3 (in-place)
I1130 20:14:53.368111 30472 net.cpp:150] Setting up relu3
I1130 20:14:53.368136 30472 net.cpp:157] Top shape: 10 1024 10 5 (512000)
I1130 20:14:53.368147 30472 net.cpp:165] Memory required for data: 320640120
I1130 20:14:53.368157 30472 layer_factory.hpp:77] Creating layer conv4-sm
I1130 20:14:53.368175 30472 net.cpp:100] Creating Layer conv4-sm
I1130 20:14:53.368185 30472 net.cpp:434] conv4-sm <- conv3
I1130 20:14:53.368196 30472 net.cpp:408] conv4-sm -> conv4
I1130 20:14:53.608793 30472 net.cpp:150] Setting up conv4-sm
I1130 20:14:53.608880 30472 net.cpp:157] Top shape: 10 1024 10 5 (512000)
I1130 20:14:53.608889 30472 net.cpp:165] Memory required for data: 322688120
I1130 20:14:53.608916 30472 layer_factory.hpp:77] Creating layer relu4
I1130 20:14:53.608933 30472 net.cpp:100] Creating Layer relu4
I1130 20:14:53.608948 30472 net.cpp:434] relu4 <- conv4
I1130 20:14:53.608960 30472 net.cpp:395] relu4 -> conv4 (in-place)
I1130 20:14:53.609194 30472 net.cpp:150] Setting up relu4
I1130 20:14:53.609227 30472 net.cpp:157] Top shape: 10 1024 10 5 (512000)
I1130 20:14:53.609236 30472 net.cpp:165] Memory required for data: 324736120
I1130 20:14:53.609251 30472 layer_factory.hpp:77] Creating layer pool5
I1130 20:14:53.609326 30472 net.cpp:100] Creating Layer pool5
I1130 20:14:53.609354 30472 net.cpp:434] pool5 <- conv4
I1130 20:14:53.609376 30472 net.cpp:408] pool5 -> pool5
I1130 20:14:53.609459 30472 net.cpp:150] Setting up pool5
I1130 20:14:53.609489 30472 net.cpp:157] Top shape: 10 1024 5 2 (102400)
I1130 20:14:53.609495 30472 net.cpp:165] Memory required for data: 325145720
I1130 20:14:53.609501 30472 layer_factory.hpp:77] Creating layer fc6-sm
I1130 20:14:53.609519 30472 net.cpp:100] Creating Layer fc6-sm
I1130 20:14:53.609535 30472 net.cpp:434] fc6-sm <- pool5
I1130 20:14:53.609555 30472 net.cpp:408] fc6-sm -> fc6
I1130 20:14:53.936945 30472 net.cpp:150] Setting up fc6-sm
I1130 20:14:53.937005 30472 net.cpp:157] Top shape: 10 1024 (10240)
I1130 20:14:53.937021 30472 net.cpp:165] Memory required for data: 325186680
I1130 20:14:53.937039 30472 layer_factory.hpp:77] Creating layer relu6
I1130 20:14:53.937054 30472 net.cpp:100] Creating Layer relu6
I1130 20:14:53.937072 30472 net.cpp:434] relu6 <- fc6
I1130 20:14:53.937083 30472 net.cpp:395] relu6 -> fc6 (in-place)
I1130 20:14:53.937942 30472 net.cpp:150] Setting up relu6
I1130 20:14:53.937981 30472 net.cpp:157] Top shape: 10 1024 (10240)
I1130 20:14:53.937999 30472 net.cpp:165] Memory required for data: 325227640
I1130 20:14:53.938009 30472 layer_factory.hpp:77] Creating layer drop6
I1130 20:14:53.938025 30472 net.cpp:100] Creating Layer drop6
I1130 20:14:53.938036 30472 net.cpp:434] drop6 <- fc6
I1130 20:14:53.938047 30472 net.cpp:395] drop6 -> fc6 (in-place)
I1130 20:14:53.938107 30472 net.cpp:150] Setting up drop6
I1130 20:14:53.938127 30472 net.cpp:157] Top shape: 10 1024 (10240)
I1130 20:14:53.938133 30472 net.cpp:165] Memory required for data: 325268600
I1130 20:14:53.938139 30472 layer_factory.hpp:77] Creating layer fc7-sm
I1130 20:14:53.938156 30472 net.cpp:100] Creating Layer fc7-sm
I1130 20:14:53.938165 30472 net.cpp:434] fc7-sm <- fc6
I1130 20:14:53.938175 30472 net.cpp:408] fc7-sm -> fc7
I1130 20:14:53.976863 30472 net.cpp:150] Setting up fc7-sm
I1130 20:14:53.976940 30472 net.cpp:157] Top shape: 10 1024 (10240)
I1130 20:14:53.976953 30472 net.cpp:165] Memory required for data: 325309560
I1130 20:14:53.976972 30472 layer_factory.hpp:77] Creating layer relu7
I1130 20:14:53.976997 30472 net.cpp:100] Creating Layer relu7
I1130 20:14:53.977020 30472 net.cpp:434] relu7 <- fc7
I1130 20:14:53.977041 30472 net.cpp:395] relu7 -> fc7 (in-place)
I1130 20:14:53.977845 30472 net.cpp:150] Setting up relu7
I1130 20:14:53.977891 30472 net.cpp:157] Top shape: 10 1024 (10240)
I1130 20:14:53.977910 30472 net.cpp:165] Memory required for data: 325350520
I1130 20:14:53.977927 30472 layer_factory.hpp:77] Creating layer drop7
I1130 20:14:53.977949 30472 net.cpp:100] Creating Layer drop7
I1130 20:14:53.977967 30472 net.cpp:434] drop7 <- fc7
I1130 20:14:53.977985 30472 net.cpp:395] drop7 -> fc7 (in-place)
I1130 20:14:53.978060 30472 net.cpp:150] Setting up drop7
I1130 20:14:53.978091 30472 net.cpp:157] Top shape: 10 1024 (10240)
I1130 20:14:53.978098 30472 net.cpp:165] Memory required for data: 325391480
I1130 20:14:53.978126 30472 layer_factory.hpp:77] Creating layer fc7-all
I1130 20:14:53.978147 30472 net.cpp:100] Creating Layer fc7-all
I1130 20:14:53.978168 30472 net.cpp:434] fc7-all <- fc7
I1130 20:14:53.978179 30472 net.cpp:408] fc7-all -> fc7-all
I1130 20:14:53.978694 30472 net.cpp:150] Setting up fc7-all
I1130 20:14:53.978731 30472 net.cpp:157] Top shape: 10 2 (20)
I1130 20:14:53.978761 30472 net.cpp:165] Memory required for data: 325391560
I1130 20:14:53.978786 30472 layer_factory.hpp:77] Creating layer fc7-all_fc7-all_0_split
I1130 20:14:53.978807 30472 net.cpp:100] Creating Layer fc7-all_fc7-all_0_split
I1130 20:14:53.978817 30472 net.cpp:434] fc7-all_fc7-all_0_split <- fc7-all
I1130 20:14:53.978840 30472 net.cpp:408] fc7-all_fc7-all_0_split -> fc7-all_fc7-all_0_split_0
I1130 20:14:53.978873 30472 net.cpp:408] fc7-all_fc7-all_0_split -> fc7-all_fc7-all_0_split_1
I1130 20:14:53.978951 30472 net.cpp:150] Setting up fc7-all_fc7-all_0_split
I1130 20:14:53.979004 30472 net.cpp:157] Top shape: 10 2 (20)
I1130 20:14:53.979023 30472 net.cpp:157] Top shape: 10 2 (20)
I1130 20:14:53.979039 30472 net.cpp:165] Memory required for data: 325391720
I1130 20:14:53.979058 30472 layer_factory.hpp:77] Creating layer accuracy
I1130 20:14:53.979090 30472 net.cpp:100] Creating Layer accuracy
I1130 20:14:53.979107 30472 net.cpp:434] accuracy <- fc7-all_fc7-all_0_split_0
I1130 20:14:53.979126 30472 net.cpp:434] accuracy <- label_data_2_split_0
I1130 20:14:53.979151 30472 net.cpp:408] accuracy -> accuracy
…
