…
I1206 21:19:57.364032  8588 net.cpp:322] The NetState phase (0) differed from the phase (1) specified by a rule in layer data
I1206 21:19:57.365540  8588 net.cpp:58] Initializing net from parameters: 
name: "AlexNet"
state {
  phase: TRAIN
  level: 0
  stage: ""
}
layer {
  name: "data"
  type: "Python"
  top: "data"
  top: "data_p"
  top: "label"
  top: "label_ID"
  top: "label_pID"
  include {
    phase: TRAIN
  }
  python_param {
    module: "cuhk01_SeqIn_layer"
    layer: "videoReadTrain"
    param_str: "{\'Train_batch_size\':\'100\',\'Train_frames_l\':\'1\',\'multylabel\':\'True\',\'balance\':\'True\'}"
  }
}
layer {
  name: "conv1/7x7_s2"
  type: "Convolution"
  bottom: "data"
  top: "conv1/7x7_s2"
  param {
    name: "conv1/7x7_s2_w"
    lr_mult: 1
    decay_mult: 1
  }
  param {
    name: "conv1/7x7_s2_b"
    lr_mult: 2
    decay_mult: 0
  }
  convolution_param {
    num_output: 64
    pad: 3
    kernel_size: 7
    stride: 2
    weight_filler {
      type: "xavier"
    }
    bias_filler {
      type: "constant"
      value: 0.2
    }
  }
}
layer {
  name: "conv1/relu_7x7"
  type: "ReLU"
  bottom: "conv1/7x7_s2"
  top: "conv1/7x7_s2"
}
layer {
  name: "pool1/3x3_s2"
  type: "Pooling"
  bottom: "conv1/7x7_s2"
  top: "pool1/3x3_s2"
  pooling_param {
    pool: MAX
    kernel_size: 3
    stride: 2
  }
}
layer {
  name: "pool1/norm1"
  type: "LRN"
  bottom: "pool1/3x3_s2"
  top: "pool1/norm1"
  lrn_param {
    local_size: 5
    alpha: 0.0001
    beta: 0.75
  }
}
layer {
  name: "conv2/3x3_reduce"
  type: "Convolution"
  bottom: "pool1/norm1"
  top: "conv2/3x3_reduce"
  param {
    name: "conv2/3x3_reduce_w"
    lr_mult: 1
    decay_mult: 1
  }
  param {
    name: "conv2/3x3_reduce_b"
    lr_mult: 2
    decay_mult: 0
  }
  convolution_param {
    num_output: 64
    kernel_size: 1
    weight_filler {
      type: "xavier"
    }
    bias_filler {
      type: "constant"
      value: 0.2
    }
  }
}
layer {
  name: "conv2/relu_3x3_reduce"
  type: "ReLU"
  bottom: "conv2/3x3_reduce"
  top: "conv2/3x3_reduce"
}
layer {
  name: "conv2/3x3"
  type: "Convolution"
  bottom: "conv2/3x3_reduce"
  top: "conv2/3x3"
  param {
    name: "conv2/3x3_w"
    lr_mult: 1
    decay_mult: 1
  }
  param {
    name: "conv2/3x3_b"
    lr_mult: 2
    decay_mult: 0
  }
  convolution_param {
    num_output: 192
    pad: 1
    kernel_size: 3
    weight_filler {
      type: "xavier"
    }
    bias_filler {
      type: "constant"
      value: 0.2
    }
  }
}
layer {
  name: "conv2/relu_3x3"
  type: "ReLU"
  bottom: "conv2/3x3"
  top: "conv2/3x3"
}
layer {
  name: "pool2/3x3_s2"
  type: "Pooling"
  bottom: "conv2/3x3"
  top: "pool2/3x3_s2"
  pooling_param {
    pool: MAX
    kernel_size: 3
    stride: 2
  }
}
layer {
  name: "inception_3a/1x1"
  type: "Convolution"
  bottom: "pool2/3x3_s2"
  top: "inception_3a/1x1"
  param {
    name: "inception_3a/1x1_w"
    lr_mult: 1
    decay_mult: 1
  }
  param {
    name: "inception_3a/1x1_b"
    lr_mult: 2
    decay_mult: 0
  }
  convolution_param {
    num_output: 64
    kernel_size: 1
    weight_filler {
      type: "xavier"
    }
    bias_filler {
      type: "constant"
      value: 0.2
    }
  }
}
layer {
  name: "inception_3a/relu_1x1"
  type: "ReLU"
  bottom: "inception_3a/1x1"
  top: "inception_3a/1x1"
}
layer {
  name: "inception_3a/3x3_reduce"
  type: "Convolution"
  bottom: "pool2/3x3_s2"
  top: "inception_3a/3x3_reduce"
  param {
    name: "inception_3a/3x3_reduce_w"
    lr_mult: 1
    decay_mult: 1
  }
  param {
    name: "inception_3a/3x3_reduce_b"
    lr_mult: 2
    decay_mult: 0
  }
  convolution_param {
    num_output: 96
    kernel_size: 1
    weight_filler {
      type: "xavier"
    }
    bias_filler {
      type: "constant"
      value: 0.2
    }
  }
}
layer {
  name: "inception_3a/relu_3x3_reduce"
  type: "ReLU"
  bottom: "inception_3a/3x3_reduce"
  top: "inception_3a/3x3_reduce"
}
layer {
  name: "inception_3a/3x3"
  type: "Convolution"
  bottom: "inception_3a/3x3_reduce"
  top: "inception_3a/3x3"
  param {
    name: "inception_3a/3x3_w"
    lr_mult: 1
    decay_mult: 1
  }
  param {
    name: "inception_3a/3x3_b"
    lr_mult: 2
    decay_mult: 0
  }
  convolution_param {
    num_output: 128
    pad: 1
    kernel_size: 3
    weight_filler {
      type: "xavier"
    }
    bias_filler {
      type: "constant"
      value: 0.2
    }
  }
}
layer {
  name: "inception_3a/relu_3x3"
  type: "ReLU"
  bottom: "inception_3a/3x3"
  top: "inception_3a/3x3"
}
layer {
  name: "inception_3a/5x5_reduce"
  type: "Convolution"
  bottom: "pool2/3x3_s2"
  top: "inception_3a/5x5_reduce"
  param {
    name: "inception_3a/5x5_reduce_w"
    lr_mult: 1
    decay_mult: 1
  }
  param {
    name: "inception_3a/5x5_reduce_b"
    lr_mult: 2
    decay_mult: 0
  }
  convolution_param {
    num_output: 16
    kernel_size: 1
    weight_filler {
      type: "xavier"
    }
    bias_filler {
      type: "constant"
      value: 0.2
    }
  }
}
layer {
  name: "inception_3a/relu_5x5_reduce"
  type: "ReLU"
  bottom: "inception_3a/5x5_reduce"
  top: "inception_3a/5x5_reduce"
}
layer {
  name: "inception_3a/5x5"
  type: "Convolution"
  bottom: "inception_3a/5x5_reduce"
  top: "inception_3a/5x5"
  param {
    name: "inception_3a/5x5_w"
    lr_mult: 1
    decay_mult: 1
  }
  param {
    name: "inception_3a/5x5_b"
    lr_mult: 2
    decay_mult: 0
  }
  convolution_param {
    num_output: 32
    pad: 2
    kernel_size: 5
    weight_filler {
      type: "xavier"
    }
    bias_filler {
      type: "constant"
      value: 0.2
    }
  }
}
layer {
  name: "inception_3a/relu_5x5"
  type: "ReLU"
  bottom: "inception_3a/5x5"
  top: "inception_3a/5x5"
}
layer {
  name: "inception_3a/pool"
  type: "Pooling"
  bottom: "pool2/3x3_s2"
  top: "inception_3a/pool"
  pooling_param {
    pool: MAX
    kernel_size: 3
    stride: 1
    pad: 1
  }
}
layer {
  name: "inception_3a/pool_proj"
  type: "Convolution"
  bottom: "inception_3a/pool"
  top: "inception_3a/pool_proj"
  param {
    name: "inception_3a/pool_proj_w"
    lr_mult: 1
    decay_mult: 1
  }
  param {
    name: "inception_3a/pool_proj_b"
    lr_mult: 2
    decay_mult: 0
  }
  convolution_param {
    num_output: 32
    kernel_size: 1
    weight_filler {
      type: "xavier"
    }
    bias_filler {
      type: "constant"
      value: 0.2
    }
  }
}
layer {
  name: "inception_3a/relu_pool_proj"
  type: "ReLU"
  bottom: "inception_3a/pool_proj"
  top: "inception_3a/pool_proj"
}
layer {
  name: "inception_3a/output"
  type: "Concat"
  bottom: "inception_3a/1x1"
  bottom: "inception_3a/3x3"
  bottom: "inception_3a/5x5"
  bottom: "inception_3a/pool_proj"
  top: "inception_3a/output"
}
layer {
  name: "inception_3b/1x1"
  type: "Convolution"
  bottom: "inception_3a/output"
  top: "inception_3b/1x1"
  param {
    name: "inception_3b/1x1_w"
    lr_mult: 1
    decay_mult: 1
  }
  param {
    name: "inception_3b/1x1_b"
    lr_mult: 2
    decay_mult: 0
  }
  convolution_param {
    num_output: 128
    kernel_size: 1
    weight_filler {
      type: "xavier"
    }
    bias_filler {
      type: "constant"
      value: 0.2
    }
  }
}
layer {
  name: "inception_3b/relu_1x1"
  type: "ReLU"
  bottom: "inception_3b/1x1"
  top: "inception_3b/1x1"
}
layer {
  name: "inception_3b/3x3_reduce"
  type: "Convolution"
  bottom: "inception_3a/output"
  top: "inception_3b/3x3_reduce"
  param {
    name: "inception_3b/3x3_reduce_w"
    lr_mult: 1
    decay_mult: 1
  }
  param {
    name: "inception_3b/3x3_reduce_b"
    lr_mult: 2
    decay_mult: 0
  }
  convolution_param {
    num_output: 128
    kernel_size: 1
    weight_filler {
      type: "xavier"
    }
    bias_filler {
      type: "constant"
      value: 0.2
    }
  }
}
layer {
  name: "inception_3b/relu_3x3_reduce"
  type: "ReLU"
  bottom: "inception_3b/3x3_reduce"
  top: "inception_3b/3x3_reduce"
}
layer {
  name: "inception_3b/3x3"
  type: "Convolution"
  bottom: "inception_3b/3x3_reduce"
  top: "inception_3b/3x3"
  param {
    name: "inception_3b/3x3_w"
    lr_mult: 1
    decay_mult: 1
  }
  param {
    name: "inception_3b/3x3_b"
    lr_mult: 2
    decay_mult: 0
  }
  convolution_param {
    num_output: 192
    pad: 1
    kernel_size: 3
    weight_filler {
      type: "xavier"
    }
    bias_filler {
      type: "constant"
      value: 0.2
    }
  }
}
layer {
  name: "inception_3b/relu_3x3"
  type: "ReLU"
  bottom: "inception_3b/3x3"
  top: "inception_3b/3x3"
}
layer {
  name: "inception_3b/5x5_reduce"
  type: "Convolution"
  bottom: "inception_3a/output"
  top: "inception_3b/5x5_reduce"
  param {
    name: "inception_3b/5x5_reduce_w"
    lr_mult: 1
    decay_mult: 1
  }
  param {
    name: "inception_3b/5x5_reduce_b"
    lr_mult: 2
    decay_mult: 0
  }
  convolution_param {
    num_output: 32
    kernel_size: 1
    weight_filler {
      type: "xavier"
    }
    bias_filler {
      type: "constant"
      value: 0.2
    }
  }
}
layer {
  name: "inception_3b/relu_5x5_reduce"
  type: "ReLU"
  bottom: "inception_3b/5x5_reduce"
  top: "inception_3b/5x5_reduce"
}
layer {
  name: "inception_3b/5x5"
  type: "Convolution"
  bottom: "inception_3b/5x5_reduce"
  top: "inception_3b/5x5"
  param {
    name: "inception_3b/5x5_w"
    lr_mult: 1
    decay_mult: 1
  }
  param {
    name: "inception_3b/5x5_b"
    lr_mult: 2
    decay_mult: 0
  }
  convolution_param {
    num_output: 96
    pad: 2
    kernel_size: 5
    weight_filler {
      type: "xavier"
    }
    bias_filler {
      type: "constant"
      value: 0.2
    }
  }
}
layer {
  name: "inception_3b/relu_5x5"
  type: "ReLU"
  bottom: "inception_3b/5x5"
  top: "inception_3b/5x5"
}
layer {
  name: "inception_3b/pool"
  type: "Pooling"
  bottom: "inception_3a/output"
  top: "inception_3b/pool"
  pooling_param {
    pool: MAX
    kernel_size: 3
    stride: 1
    pad: 1
  }
}
layer {
  name: "inception_3b/pool_proj"
  type: "Convolution"
  bottom: "inception_3b/pool"
  top: "inception_3b/pool_proj"
  param {
    name: "inception_3b/pool_proj_w"
    lr_mult: 1
    decay_mult: 1
  }
  param {
    name: "inception_3b/pool_proj_b"
    lr_mult: 2
    decay_mult: 0
  }
  convolution_param {
    num_output: 64
    kernel_size: 1
    weight_filler {
      type: "xavier"
    }
    bias_filler {
      type: "constant"
      value: 0.2
    }
  }
}
layer {
  name: "inception_3b/relu_pool_proj"
  type: "ReLU"
  bottom: "inception_3b/pool_proj"
  top: "inception_3b/pool_proj"
}
layer {
  name: "inception_3b/output"
  type: "Concat"
  bottom: "inception_3b/1x1"
  bottom: "inception_3b/3x3"
  bottom: "inception_3b/5x5"
  bottom: "inception_3b/pool_proj"
  top: "inception_3b/output"
}
layer {
  name: "pool3/3x3_s2"
  type: "Pooling"
  bottom: "inception_3b/output"
  top: "pool3/3x3_s2"
  pooling_param {
    pool: MAX
    kernel_size: 3
    stride: 2
  }
}
layer {
  name: "inception_4a/1x1"
  type: "Convolution"
  bottom: "pool3/3x3_s2"
  top: "inception_4a/1x1"
  param {
    name: "inception_4a/1x1_w"
    lr_mult: 1
    decay_mult: 1
  }
  param {
    name: "inception_4a/1x1_b"
    lr_mult: 2
    decay_mult: 0
  }
  convolution_param {
    num_output: 192
    kernel_size: 1
    weight_filler {
      type: "xavier"
    }
    bias_filler {
      type: "constant"
      value: 0.2
    }
  }
}
layer {
  name: "inception_4a/relu_1x1"
  type: "ReLU"
  bottom: "inception_4a/1x1"
  top: "inception_4a/1x1"
}
layer {
  name: "inception_4a/3x3_reduce"
  type: "Convolution"
  bottom: "pool3/3x3_s2"
  top: "inception_4a/3x3_reduce"
  param {
    name: "inception_4a/3x3_reduce_w"
    lr_mult: 1
    decay_mult: 1
  }
  param {
    name: "inception_4a/3x3_reduce_b"
    lr_mult: 2
    decay_mult: 0
  }
  convolution_param {
    num_output: 96
    kernel_size: 1
    weight_filler {
      type: "xavier"
    }
    bias_filler {
      type: "constant"
      value: 0.2
    }
  }
}
layer {
  name: "inception_4a/relu_3x3_reduce"
  type: "ReLU"
  bottom: "inception_4a/3x3_reduce"
  top: "inception_4a/3x3_reduce"
}
layer {
  name: "inception_4a/3x3"
  type: "Convolution"
  bottom: "inception_4a/3x3_reduce"
  top: "inception_4a/3x3"
  param {
    name: "inception_4a/3x3_w"
    lr_mult: 1
    decay_mult: 1
  }
  param {
    name: "inception_4a/3x3_b"
    lr_mult: 2
    decay_mult: 0
  }
  convolution_param {
    num_output: 208
    pad: 1
    kernel_size: 3
    weight_filler {
      type: "xavier"
    }
    bias_filler {
      type: "constant"
      value: 0.2
    }
  }
}
layer {
  name: "inception_4a/relu_3x3"
  type: "ReLU"
  bottom: "inception_4a/3x3"
  top: "inception_4a/3x3"
}
layer {
  name: "inception_4a/5x5_reduce"
  type: "Convolution"
  bottom: "pool3/3x3_s2"
  top: "inception_4a/5x5_reduce"
  param {
    name: "inception_4a/5x5_reduce_w"
    lr_mult: 1
    decay_mult: 1
  }
  param {
    name: "inception_4a/5x5_reduce_b"
    lr_mult: 2
    decay_mult: 0
  }
  convolution_param {
    num_output: 16
    kernel_size: 1
    weight_filler {
      type: "xavier"
    }
    bias_filler {
      type: "constant"
      value: 0.2
    }
  }
}
layer {
  name: "inception_4a/relu_5x5_reduce"
  type: "ReLU"
  bottom: "inception_4a/5x5_reduce"
  top: "inception_4a/5x5_reduce"
}
layer {
  name: "inception_4a/5x5"
  type: "Convolution"
  bottom: "inception_4a/5x5_reduce"
  top: "inception_4a/5x5"
  param {
    name: "inception_4a/5x5_w"
    lr_mult: 1
    decay_mult: 1
  }
  param {
    name: "inception_4a/5x5_b"
    lr_mult: 2
    decay_mult: 0
  }
  convolution_param {
    num_output: 48
    pad: 2
    kernel_size: 5
    weight_filler {
      type: "xavier"
    }
    bias_filler {
      type: "constant"
      value: 0.2
    }
  }
}
layer {
  name: "inception_4a/relu_5x5"
  type: "ReLU"
  bottom: "inception_4a/5x5"
  top: "inception_4a/5x5"
}
layer {
  name: "inception_4a/pool"
  type: "Pooling"
  bottom: "pool3/3x3_s2"
  top: "inception_4a/pool"
  pooling_param {
    pool: MAX
    kernel_size: 3
    stride: 1
    pad: 1
  }
}
layer {
  name: "inception_4a/pool_proj"
  type: "Convolution"
  bottom: "inception_4a/pool"
  top: "inception_4a/pool_proj"
  param {
    name: "inception_4a/pool_proj_w"
    lr_mult: 1
    decay_mult: 1
  }
  param {
    name: "inception_4a/pool_proj_b"
    lr_mult: 2
    decay_mult: 0
  }
  convolution_param {
    num_output: 64
    kernel_size: 1
    weight_filler {
      type: "xavier"
    }
    bias_filler {
      type: "constant"
      value: 0.2
    }
  }
}
layer {
  name: "inception_4a/relu_pool_proj"
  type: "ReLU"
  bottom: "inception_4a/pool_proj"
  top: "inception_4a/pool_proj"
}
layer {
  name: "inception_4a/output"
  type: "Concat"
  bottom: "inception_4a/1x1"
  bottom: "inception_4a/3x3"
  bottom: "inception_4a/5x5"
  bottom: "inception_4a/pool_proj"
  top: "inception_4a/output"
}
layer {
  name: "inception_4b/1x1"
  type: "Convolution"
  bottom: "inception_4a/output"
  top: "inception_4b/1x1"
  param {
    name: "inception_4b/1x1_w"
    lr_mult: 1
    decay_mult: 1
  }
  param {
    name: "inception_4b/1x1_b"
    lr_mult: 2
    decay_mult: 0
  }
  convolution_param {
    num_output: 160
    kernel_size: 1
    weight_filler {
      type: "xavier"
    }
    bias_filler {
      type: "constant"
      value: 0.2
    }
  }
}
layer {
  name: "inception_4b/relu_1x1"
  type: "ReLU"
  bottom: "inception_4b/1x1"
  top: "inception_4b/1x1"
}
layer {
  name: "inception_4b/3x3_reduce"
  type: "Convolution"
  bottom: "inception_4a/output"
  top: "inception_4b/3x3_reduce"
  param {
    name: "inception_4b/3x3_reduce_w"
    lr_mult: 1
    decay_mult: 1
  }
  param {
    name: "inception_4b/3x3_reduce_b"
    lr_mult: 2
    decay_mult: 0
  }
  convolution_param {
    num_output: 112
    kernel_size: 1
    weight_filler {
      type: "xavier"
    }
    bias_filler {
      type: "constant"
      value: 0.2
    }
  }
}
layer {
  name: "inception_4b/relu_3x3_reduce"
  type: "ReLU"
  bottom: "inception_4b/3x3_reduce"
  top: "inception_4b/3x3_reduce"
}
layer {
  name: "inception_4b/3x3"
  type: "Convolution"
  bottom: "inception_4b/3x3_reduce"
  top: "inception_4b/3x3"
  param {
    name: "inception_4b/3x3_w"
    lr_mult: 1
    decay_mult: 1
  }
  param {
    name: "inception_4b/3x3_b"
    lr_mult: 2
    decay_mult: 0
  }
  convolution_param {
    num_output: 224
    pad: 1
    kernel_size: 3
    weight_filler {
      type: "xavier"
    }
    bias_filler {
      type: "constant"
      value: 0.2
    }
  }
}
layer {
  name: "inception_4b/relu_3x3"
  type: "ReLU"
  bottom: "inception_4b/3x3"
  top: "inception_4b/3x3"
}
layer {
  name: "inception_4b/5x5_reduce"
  type: "Convolution"
  bottom: "inception_4a/output"
  top: "inception_4b/5x5_reduce"
  param {
    name: "inception_4b/5x5_reduce_w"
    lr_mult: 1
    decay_mult: 1
  }
  param {
    name: "inception_4b/5x5_reduce_b"
    lr_mult: 2
    decay_mult: 0
  }
  convolution_param {
    num_output: 24
    kernel_size: 1
    weight_filler {
      type: "xavier"
    }
    bias_filler {
      type: "constant"
      value: 0.2
    }
  }
}
layer {
  name: "inception_4b/relu_5x5_reduce"
  type: "ReLU"
  bottom: "inception_4b/5x5_reduce"
  top: "inception_4b/5x5_reduce"
}
layer {
  name: "inception_4b/5x5"
  type: "Convolution"
  bottom: "inception_4b/5x5_reduce"
  top: "inception_4b/5x5"
  param {
    name: "inception_4b/5x5_w"
    lr_mult: 1
    decay_mult: 1
  }
  param {
    name: "inception_4b/5x5_b"
    lr_mult: 2
    decay_mult: 0
  }
  convolution_param {
    num_output: 64
    pad: 2
    kernel_size: 5
    weight_filler {
      type: "xavier"
    }
    bias_filler {
      type: "constant"
      value: 0.2
    }
  }
}
layer {
  name: "inception_4b/relu_5x5"
  type: "ReLU"
  bottom: "inception_4b/5x5"
  top: "inception_4b/5x5"
}
layer {
  name: "inception_4b/pool"
  type: "Pooling"
  bottom: "inception_4a/output"
  top: "inception_4b/pool"
  pooling_param {
    pool: MAX
    kernel_size: 3
    stride: 1
    pad: 1
  }
}
layer {
  name: "inception_4b/pool_proj"
  type: "Convolution"
  bottom: "inception_4b/pool"
  top: "inception_4b/pool_proj"
  param {
    name: "inception_4b/pool_proj_w"
    lr_mult: 1
    decay_mult: 1
  }
  param {
    name: "inception_4b/pool_proj_b"
    lr_mult: 2
    decay_mult: 0
  }
  convolution_param {
    num_output: 64
    kernel_size: 1
    weight_filler {
      type: "xavier"
    }
    bias_filler {
      type: "constant"
      value: 0.2
    }
  }
}
layer {
  name: "inception_4b/relu_pool_proj"
  type: "ReLU"
  bottom: "inception_4b/pool_proj"
  top: "inception_4b/pool_proj"
}
layer {
  name: "inception_4b/output"
  type: "Concat"
  bottom: "inception_4b/1x1"
  bottom: "inception_4b/3x3"
  bottom: "inception_4b/5x5"
  bottom: "inception_4b/pool_proj"
  top: "inception_4b/output"
}
layer {
  name: "inception_4c/1x1"
  type: "Convolution"
  bottom: "inception_4b/output"
  top: "inception_4c/1x1"
  param {
    name: "inception_4c/1x1_w"
    lr_mult: 1
    decay_mult: 1
  }
  param {
    name: "inception_4c/1x1_b"
    lr_mult: 2
    decay_mult: 0
  }
  convolution_param {
    num_output: 128
    kernel_size: 1
    weight_filler {
      type: "xavier"
    }
    bias_filler {
      type: "constant"
      value: 0.2
    }
  }
}
layer {
  name: "inception_4c/relu_1x1"
  type: "ReLU"
  bottom: "inception_4c/1x1"
  top: "inception_4c/1x1"
}
layer {
  name: "inception_4c/3x3_reduce"
  type: "Convolution"
  bottom: "inception_4b/output"
  top: "inception_4c/3x3_reduce"
  param {
    name: "inception_4c/3x3_reduce_w"
    lr_mult: 1
    decay_mult: 1
  }
  param {
    name: "inception_4c/3x3_reduce_b"
    lr_mult: 2
    decay_mult: 0
  }
  convolution_param {
    num_output: 128
    kernel_size: 1
    weight_filler {
      type: "xavier"
    }
    bias_filler {
      type: "constant"
      value: 0.2
    }
  }
}
layer {
  name: "inception_4c/relu_3x3_reduce"
  type: "ReLU"
  bottom: "inception_4c/3x3_reduce"
  top: "inception_4c/3x3_reduce"
}
layer {
  name: "inception_4c/3x3"
  type: "Convolution"
  bottom: "inception_4c/3x3_reduce"
  top: "inception_4c/3x3"
  param {
    name: "inception_4c/3x3_w"
    lr_mult: 1
    decay_mult: 1
  }
  param {
    name: "inception_4c/3x3_b"
    lr_mult: 2
    decay_mult: 0
  }
  convolution_param {
    num_output: 256
    pad: 1
    kernel_size: 3
    weight_filler {
      type: "xavier"
    }
    bias_filler {
      type: "constant"
      value: 0.2
    }
  }
}
layer {
  name: "inception_4c/relu_3x3"
  type: "ReLU"
  bottom: "inception_4c/3x3"
  top: "inception_4c/3x3"
}
layer {
  name: "inception_4c/5x5_reduce"
  type: "Convolution"
  bottom: "inception_4b/output"
  top: "inception_4c/5x5_reduce"
  param {
    name: "inception_4c/5x5_reduce_w"
    lr_mult: 1
    decay_mult: 1
  }
  param {
    name: "inception_4c/5x5_reduce_b"
    lr_mult: 2
    decay_mult: 0
  }
  convolution_param {
    num_output: 24
    kernel_size: 1
    weight_filler {
      type: "xavier"
    }
    bias_filler {
      type: "constant"
      value: 0.2
    }
  }
}
layer {
  name: "inception_4c/relu_5x5_reduce"
  type: "ReLU"
  bottom: "inception_4c/5x5_reduce"
  top: "inception_4c/5x5_reduce"
}
layer {
  name: "inception_4c/5x5"
  type: "Convolution"
  bottom: "inception_4c/5x5_reduce"
  top: "inception_4c/5x5"
  param {
    name: "inception_4c/5x5_w"
    lr_mult: 1
    decay_mult: 1
  }
  param {
    name: "inception_4c/5x5_b"
    lr_mult: 2
    decay_mult: 0
  }
  convolution_param {
    num_output: 64
    pad: 2
    kernel_size: 5
    weight_filler {
      type: "xavier"
    }
    bias_filler {
      type: "constant"
      value: 0.2
    }
  }
}
layer {
  name: "inception_4c/relu_5x5"
  type: "ReLU"
  bottom: "inception_4c/5x5"
  top: "inception_4c/5x5"
}
layer {
  name: "inception_4c/pool"
  type: "Pooling"
  bottom: "inception_4b/output"
  top: "inception_4c/pool"
  pooling_param {
    pool: MAX
    kernel_size: 3
    stride: 1
    pad: 1
  }
}
layer {
  name: "inception_4c/pool_proj"
  type: "Convolution"
  bottom: "inception_4c/pool"
  top: "inception_4c/pool_proj"
  param {
    name: "inception_4c/pool_proj_w"
    lr_mult: 1
    decay_mult: 1
  }
  param {
    name: "inception_4c/pool_proj_b"
    lr_mult: 2
    decay_mult: 0
  }
  convolution_param {
    num_output: 64
    kernel_size: 1
    weight_filler {
      type: "xavier"
    }
    bias_filler {
      type: "constant"
      value: 0.2
    }
  }
}
layer {
  name: "inception_4c/relu_pool_proj"
  type: "ReLU"
  bottom: "inception_4c/pool_proj"
  top: "inception_4c/pool_proj"
}
layer {
  name: "inception_4c/output"
  type: "Concat"
  bottom: "inception_4c/1x1"
  bottom: "inception_4c/3x3"
  bottom: "inception_4c/5x5"
  bottom: "inception_4c/pool_proj"
  top: "inception_4c/output"
}
layer {
  name: "inception_4d/1x1"
  type: "Convolution"
  bottom: "inception_4c/output"
  top: "inception_4d/1x1"
  param {
    name: "inception_4d/1x1_w"
    lr_mult: 1
    decay_mult: 1
  }
  param {
    name: "inception_4d/1x1_b"
    lr_mult: 2
    decay_mult: 0
  }
  convolution_param {
    num_output: 112
    kernel_size: 1
    weight_filler {
      type: "xavier"
    }
    bias_filler {
      type: "constant"
      value: 0.2
    }
  }
}
layer {
  name: "inception_4d/relu_1x1"
  type: "ReLU"
  bottom: "inception_4d/1x1"
  top: "inception_4d/1x1"
}
layer {
  name: "inception_4d/3x3_reduce"
  type: "Convolution"
  bottom: "inception_4c/output"
  top: "inception_4d/3x3_reduce"
  param {
    name: "inception_4d/3x3_reduce_w"
    lr_mult: 1
    decay_mult: 1
  }
  param {
    name: "inception_4d/3x3_reduce_b"
    lr_mult: 2
    decay_mult: 0
  }
  convolution_param {
    num_output: 144
    kernel_size: 1
    weight_filler {
      type: "xavier"
    }
    bias_filler {
      type: "constant"
      value: 0.2
    }
  }
}
layer {
  name: "inception_4d/relu_3x3_reduce"
  type: "ReLU"
  bottom: "inception_4d/3x3_reduce"
  top: "inception_4d/3x3_reduce"
}
layer {
  name: "inception_4d/3x3"
  type: "Convolution"
  bottom: "inception_4d/3x3_reduce"
  top: "inception_4d/3x3"
  param {
    name: "inception_4d/3x3_w"
    lr_mult: 1
    decay_mult: 1
  }
  param {
    name: "inception_4d/3x3_b"
    lr_mult: 2
    decay_mult: 0
  }
  convolution_param {
    num_output: 288
    pad: 1
    kernel_size: 3
    weight_filler {
      type: "xavier"
    }
    bias_filler {
      type: "constant"
      value: 0.2
    }
  }
}
layer {
  name: "inception_4d/relu_3x3"
  type: "ReLU"
  bottom: "inception_4d/3x3"
  top: "inception_4d/3x3"
}
layer {
  name: "inception_4d/5x5_reduce"
  type: "Convolution"
  bottom: "inception_4c/output"
  top: "inception_4d/5x5_reduce"
  param {
    name: "inception_4d/5x5_reduce_w"
    lr_mult: 1
    decay_mult: 1
  }
  param {
    name: "inception_4d/5x5_reduce_b"
    lr_mult: 2
    decay_mult: 0
  }
  convolution_param {
    num_output: 32
    kernel_size: 1
    weight_filler {
      type: "xavier"
    }
    bias_filler {
      type: "constant"
      value: 0.2
    }
  }
}
layer {
  name: "inception_4d/relu_5x5_reduce"
  type: "ReLU"
  bottom: "inception_4d/5x5_reduce"
  top: "inception_4d/5x5_reduce"
}
layer {
  name: "inception_4d/5x5"
  type: "Convolution"
  bottom: "inception_4d/5x5_reduce"
  top: "inception_4d/5x5"
  param {
    name: "inception_4d/5x5_w"
    lr_mult: 1
    decay_mult: 1
  }
  param {
    name: "inception_4d/5x5_b"
    lr_mult: 2
    decay_mult: 0
  }
  convolution_param {
    num_output: 64
    pad: 2
    kernel_size: 5
    weight_filler {
      type: "xavier"
    }
    bias_filler {
      type: "constant"
      value: 0.2
    }
  }
}
layer {
  name: "inception_4d/relu_5x5"
  type: "ReLU"
  bottom: "inception_4d/5x5"
  top: "inception_4d/5x5"
}
layer {
  name: "inception_4d/pool"
  type: "Pooling"
  bottom: "inception_4c/output"
  top: "inception_4d/pool"
  pooling_param {
    pool: MAX
    kernel_size: 3
    stride: 1
    pad: 1
  }
}
layer {
  name: "inception_4d/pool_proj"
  type: "Convolution"
  bottom: "inception_4d/pool"
  top: "inception_4d/pool_proj"
  param {
    name: "inception_4d/pool_proj_w"
    lr_mult: 1
    decay_mult: 1
  }
  param {
    name: "inception_4d/pool_proj_b"
    lr_mult: 2
    decay_mult: 0
  }
  convolution_param {
    num_output: 64
    kernel_size: 1
    weight_filler {
      type: "xavier"
    }
    bias_filler {
      type: "constant"
      value: 0.2
    }
  }
}
layer {
  name: "inception_4d/relu_pool_proj"
  type: "ReLU"
  bottom: "inception_4d/pool_proj"
  top: "inception_4d/pool_proj"
}
layer {
  name: "inception_4d/output"
  type: "Concat"
  bottom: "inception_4d/1x1"
  bottom: "inception_4d/3x3"
  bottom: "inception_4d/5x5"
  bottom: "inception_4d/pool_proj"
  top: "inception_4d/output"
}
layer {
  name: "inception_4e/1x1"
  type: "Convolution"
  bottom: "inception_4d/output"
  top: "inception_4e/1x1"
  param {
    name: "inception_4e/1x1_w"
    lr_mult: 1
    decay_mult: 1
  }
  param {
    name: "inception_4e/1x1_b"
    lr_mult: 2
    decay_mult: 0
  }
  convolution_param {
    num_output: 256
    kernel_size: 1
    weight_filler {
      type: "xavier"
    }
    bias_filler {
      type: "constant"
      value: 0.2
    }
  }
}
layer {
  name: "inception_4e/relu_1x1"
  type: "ReLU"
  bottom: "inception_4e/1x1"
  top: "inception_4e/1x1"
}
layer {
  name: "inception_4e/3x3_reduce"
  type: "Convolution"
  bottom: "inception_4d/output"
  top: "inception_4e/3x3_reduce"
  param {
    name: "inception_4e/3x3_reduce_w"
    lr_mult: 1
    decay_mult: 1
  }
  param {
    name: "inception_4e/3x3_reduce_b"
    lr_mult: 2
    decay_mult: 0
  }
  convolution_param {
    num_output: 160
    kernel_size: 1
    weight_filler {
      type: "xavier"
    }
    bias_filler {
      type: "constant"
      value: 0.2
    }
  }
}
layer {
  name: "inception_4e/relu_3x3_reduce"
  type: "ReLU"
  bottom: "inception_4e/3x3_reduce"
  top: "inception_4e/3x3_reduce"
}
layer {
  name: "inception_4e/3x3"
  type: "Convolution"
  bottom: "inception_4e/3x3_reduce"
  top: "inception_4e/3x3"
  param {
    name: "inception_4e/3x3_w"
    lr_mult: 1
    decay_mult: 1
  }
  param {
    name: "inception_4e/3x3_b"
    lr_mult: 2
    decay_mult: 0
  }
  convolution_param {
    num_output: 320
    pad: 1
    kernel_size: 3
    weight_filler {
      type: "xavier"
    }
    bias_filler {
      type: "constant"
      value: 0.2
    }
  }
}
layer {
  name: "inception_4e/relu_3x3"
  type: "ReLU"
  bottom: "inception_4e/3x3"
  top: "inception_4e/3x3"
}
layer {
  name: "inception_4e/5x5_reduce"
  type: "Convolution"
  bottom: "inception_4d/output"
  top: "inception_4e/5x5_reduce"
  param {
    name: "inception_4e/5x5_reduce_w"
    lr_mult: 1
    decay_mult: 1
  }
  param {
    name: "inception_4e/5x5_reduce_b"
    lr_mult: 2
    decay_mult: 0
  }
  convolution_param {
    num_output: 32
    kernel_size: 1
    weight_filler {
      type: "xavier"
    }
    bias_filler {
      type: "constant"
      value: 0.2
    }
  }
}
layer {
  name: "inception_4e/relu_5x5_reduce"
  type: "ReLU"
  bottom: "inception_4e/5x5_reduce"
  top: "inception_4e/5x5_reduce"
}
layer {
  name: "inception_4e/5x5"
  type: "Convolution"
  bottom: "inception_4e/5x5_reduce"
  top: "inception_4e/5x5"
  param {
    name: "inception_4e/5x5_w"
    lr_mult: 1
    decay_mult: 1
  }
  param {
    name: "inception_4e/5x5_b"
    lr_mult: 2
    decay_mult: 0
  }
  convolution_param {
    num_output: 128
    pad: 2
    kernel_size: 5
    weight_filler {
      type: "xavier"
    }
    bias_filler {
      type: "constant"
      value: 0.2
    }
  }
}
layer {
  name: "inception_4e/relu_5x5"
  type: "ReLU"
  bottom: "inception_4e/5x5"
  top: "inception_4e/5x5"
}
layer {
  name: "inception_4e/pool"
  type: "Pooling"
  bottom: "inception_4d/output"
  top: "inception_4e/pool"
  pooling_param {
    pool: MAX
    kernel_size: 3
    stride: 1
    pad: 1
  }
}
layer {
  name: "inception_4e/pool_proj"
  type: "Convolution"
  bottom: "inception_4e/pool"
  top: "inception_4e/pool_proj"
  param {
    name: "inception_4e/pool_proj_w"
    lr_mult: 1
    decay_mult: 1
  }
  param {
    name: "inception_4e/pool_proj_b"
    lr_mult: 2
    decay_mult: 0
  }
  convolution_param {
    num_output: 128
    kernel_size: 1
    weight_filler {
      type: "xavier"
    }
    bias_filler {
      type: "constant"
      value: 0.2
    }
  }
}
layer {
  name: "inception_4e/relu_pool_proj"
  type: "ReLU"
  bottom: "inception_
I1206 21:19:57.366749  8588 layer_factory.hpp:77] Creating layer data
I1206 21:19:59.175101  8588 net.cpp:100] Creating Layer data
I1206 21:19:59.175171  8588 net.cpp:408] data -> data
I1206 21:19:59.175213  8588 net.cpp:408] data -> data_p
I1206 21:19:59.175233  8588 net.cpp:408] data -> label
I1206 21:19:59.175252  8588 net.cpp:408] data -> label_ID
I1206 21:19:59.175269  8588 net.cpp:408] data -> label_pID
…
###->data list is loading: 98/100:#################################################->data list is loading: 99/100:#################################################->data list is loading:100/100:##################################################->video_list:dataset/cuhk01/split/img_seq/testid486_set02_train_pair.txt
list eaxample:
{'frames': ['dataset/cuhk01/cuhk01/0600003.png'], 'reshape': (160, 80), 'label': [0, 600, 237], 'crop': (160, 80), 'frames_p': ['dataset/cuhk01/cuhk01/0237001.png']}
I1206 21:20:05.335676  8588 net.cpp:150] Setting up data
I1206 21:20:05.335755  8588 net.cpp:157] Top shape: 100 3 160 80 (3840000)
I1206 21:20:05.335767  8588 net.cpp:157] Top shape: 100 3 160 80 (3840000)
I1206 21:20:05.335773  8588 net.cpp:157] Top shape: 100 (100)
I1206 21:20:05.335779  8588 net.cpp:157] Top shape: 100 (100)
I1206 21:20:05.335785  8588 net.cpp:157] Top shape: 100 (100)
I1206 21:20:05.335790  8588 net.cpp:165] Memory required for data: 30721200
I1206 21:20:05.335805  8588 layer_factory.hpp:77] Creating layer label_data_2_split
I1206 21:20:05.335839  8588 net.cpp:100] Creating Layer label_data_2_split
I1206 21:20:05.335849  8588 net.cpp:434] label_data_2_split <- label
I1206 21:20:05.335877  8588 net.cpp:408] label_data_2_split -> label_data_2_split_0
I1206 21:20:05.335916  8588 net.cpp:408] label_data_2_split -> label_data_2_split_1
I1206 21:20:05.335963  8588 net.cpp:150] Setting up label_data_2_split
I1206 21:20:05.335973  8588 net.cpp:157] Top shape: 100 (100)
I1206 21:20:05.335979  8588 net.cpp:157] Top shape: 100 (100)
I1206 21:20:05.335985  8588 net.cpp:165] Memory required for data: 30722000
I1206 21:20:05.335991  8588 layer_factory.hpp:77] Creating layer label_ID_data_3_split
I1206 21:20:05.336007  8588 net.cpp:100] Creating Layer label_ID_data_3_split
I1206 21:20:05.336014  8588 net.cpp:434] label_ID_data_3_split <- label_ID
I1206 21:20:05.336022  8588 net.cpp:408] label_ID_data_3_split -> label_ID_data_3_split_0
I1206 21:20:05.336031  8588 net.cpp:408] label_ID_data_3_split -> label_ID_data_3_split_1
I1206 21:20:05.336061  8588 net.cpp:150] Setting up label_ID_data_3_split
I1206 21:20:05.336094  8588 net.cpp:157] Top shape: 100 (100)
I1206 21:20:05.336102  8588 net.cpp:157] Top shape: 100 (100)
I1206 21:20:05.336108  8588 net.cpp:165] Memory required for data: 30722800
I1206 21:20:05.336117  8588 layer_factory.hpp:77] Creating layer label_pID_data_4_split
I1206 21:20:05.336125  8588 net.cpp:100] Creating Layer label_pID_data_4_split
I1206 21:20:05.336132  8588 net.cpp:434] label_pID_data_4_split <- label_pID
I1206 21:20:05.336139  8588 net.cpp:408] label_pID_data_4_split -> label_pID_data_4_split_0
I1206 21:20:05.336148  8588 net.cpp:408] label_pID_data_4_split -> label_pID_data_4_split_1
I1206 21:20:05.336174  8588 net.cpp:150] Setting up label_pID_data_4_split
I1206 21:20:05.336191  8588 net.cpp:157] Top shape: 100 (100)
I1206 21:20:05.336197  8588 net.cpp:157] Top shape: 100 (100)
I1206 21:20:05.336204  8588 net.cpp:165] Memory required for data: 30723600
I1206 21:20:05.336210  8588 layer_factory.hpp:77] Creating layer conv1/7x7_s2
I1206 21:20:05.336236  8588 net.cpp:100] Creating Layer conv1/7x7_s2
I1206 21:20:05.336246  8588 net.cpp:434] conv1/7x7_s2 <- data
I1206 21:20:05.336256  8588 net.cpp:408] conv1/7x7_s2 -> conv1/7x7_s2
I1206 21:20:05.516647  8588 net.cpp:150] Setting up conv1/7x7_s2
I1206 21:20:05.516716  8588 net.cpp:157] Top shape: 100 64 80 40 (20480000)
I1206 21:20:05.516726  8588 net.cpp:165] Memory required for data: 112643600
I1206 21:20:05.516748  8588 layer_factory.hpp:77] Creating layer conv1/relu_7x7
I1206 21:20:05.516768  8588 net.cpp:100] Creating Layer conv1/relu_7x7
I1206 21:20:05.516777  8588 net.cpp:434] conv1/relu_7x7 <- conv1/7x7_s2
I1206 21:20:05.516787  8588 net.cpp:395] conv1/relu_7x7 -> conv1/7x7_s2 (in-place)
I1206 21:20:05.517068  8588 net.cpp:150] Setting up conv1/relu_7x7
I1206 21:20:05.517094  8588 net.cpp:157] Top shape: 100 64 80 40 (20480000)
I1206 21:20:05.517102  8588 net.cpp:165] Memory required for data: 194563600
I1206 21:20:05.517117  8588 layer_factory.hpp:77] Creating layer pool1/3x3_s2
I1206 21:20:05.517130  8588 net.cpp:100] Creating Layer pool1/3x3_s2
I1206 21:20:05.517138  8588 net.cpp:434] pool1/3x3_s2 <- conv1/7x7_s2
I1206 21:20:05.517158  8588 net.cpp:408] pool1/3x3_s2 -> pool1/3x3_s2
I1206 21:20:05.517210  8588 net.cpp:150] Setting up pool1/3x3_s2
I1206 21:20:05.517220  8588 net.cpp:157] Top shape: 100 64 40 20 (5120000)
I1206 21:20:05.517225  8588 net.cpp:165] Memory required for data: 215043600
I1206 21:20:05.517231  8588 layer_factory.hpp:77] Creating layer pool1/norm1
I1206 21:20:05.517249  8588 net.cpp:100] Creating Layer pool1/norm1
I1206 21:20:05.517256  8588 net.cpp:434] pool1/norm1 <- pool1/3x3_s2
I1206 21:20:05.517274  8588 net.cpp:408] pool1/norm1 -> pool1/norm1
I1206 21:20:05.517447  8588 net.cpp:150] Setting up pool1/norm1
I1206 21:20:05.517470  8588 net.cpp:157] Top shape: 100 64 40 20 (5120000)
I1206 21:20:05.517477  8588 net.cpp:165] Memory required for data: 235523600
I1206 21:20:05.517483  8588 layer_factory.hpp:77] Creating layer conv2/3x3_reduce
I1206 21:20:05.517510  8588 net.cpp:100] Creating Layer conv2/3x3_reduce
I1206 21:20:05.517518  8588 net.cpp:434] conv2/3x3_reduce <- pool1/norm1
I1206 21:20:05.517526  8588 net.cpp:408] conv2/3x3_reduce -> conv2/3x3_reduce
I1206 21:20:05.518766  8588 net.cpp:150] Setting up conv2/3x3_reduce
I1206 21:20:05.518798  8588 net.cpp:157] Top shape: 100 64 40 20 (5120000)
I1206 21:20:05.518805  8588 net.cpp:165] Memory required for data: 256003600
I1206 21:20:05.518824  8588 layer_factory.hpp:77] Creating layer conv2/relu_3x3_reduce
I1206 21:20:05.518841  8588 net.cpp:100] Creating Layer conv2/relu_3x3_reduce
I1206 21:20:05.518847  8588 net.cpp:434] conv2/relu_3x3_reduce <- conv2/3x3_reduce
I1206 21:20:05.518867  8588 net.cpp:395] conv2/relu_3x3_reduce -> conv2/3x3_reduce (in-place)
I1206 21:20:05.519141  8588 net.cpp:150] Setting up conv2/relu_3x3_reduce
I1206 21:20:05.519163  8588 net.cpp:157] Top shape: 100 64 40 20 (5120000)
I1206 21:20:05.519170  8588 net.cpp:165] Memory required for data: 276483600
I1206 21:20:05.519197  8588 layer_factory.hpp:77] Creating layer conv2/3x3
I1206 21:20:05.519212  8588 net.cpp:100] Creating Layer conv2/3x3
I1206 21:20:05.519219  8588 net.cpp:434] conv2/3x3 <- conv2/3x3_reduce
I1206 21:20:05.519237  8588 net.cpp:408] conv2/3x3 -> conv2/3x3
I1206 21:20:05.521005  8588 net.cpp:150] Setting up conv2/3x3
I1206 21:20:05.521042  8588 net.cpp:157] Top shape: 100 192 40 20 (15360000)
I1206 21:20:05.521050  8588 net.cpp:165] Memory required for data: 337923600
I1206 21:20:05.521070  8588 layer_factory.hpp:77] Creating layer conv2/relu_3x3
I1206 21:20:05.521087  8588 net.cpp:100] Creating Layer conv2/relu_3x3
I1206 21:20:05.521095  8588 net.cpp:434] conv2/relu_3x3 <- conv2/3x3
I1206 21:20:05.521101  8588 net.cpp:395] conv2/relu_3x3 -> conv2/3x3 (in-place)
I1206 21:20:05.521373  8588 net.cpp:150] Setting up conv2/relu_3x3
I1206 21:20:05.521402  8588 net.cpp:157] Top shape: 100 192 40 20 (15360000)
I1206 21:20:05.521409  8588 net.cpp:165] Memory required for data: 399363600
I1206 21:20:05.521415  8588 layer_factory.hpp:77] Creating layer pool2/3x3_s2
I1206 21:20:05.521431  8588 net.cpp:100] Creating Layer pool2/3x3_s2
I1206 21:20:05.521438  8588 net.cpp:434] pool2/3x3_s2 <- conv2/3x3
I1206 21:20:05.521455  8588 net.cpp:408] pool2/3x3_s2 -> pool2/3x3_s2
I1206 21:20:05.521497  8588 net.cpp:150] Setting up pool2/3x3_s2
I1206 21:20:05.521515  8588 net.cpp:157] Top shape: 100 192 20 10 (3840000)
I1206 21:20:05.521520  8588 net.cpp:165] Memory required for data: 414723600
I1206 21:20:05.521528  8588 layer_factory.hpp:77] Creating layer pool2/3x3_s2_pool2/3x3_s2_0_split
I1206 21:20:05.521548  8588 net.cpp:100] Creating Layer pool2/3x3_s2_pool2/3x3_s2_0_split
I1206 21:20:05.521564  8588 net.cpp:434] pool2/3x3_s2_pool2/3x3_s2_0_split <- pool2/3x3_s2
I1206 21:20:05.521571  8588 net.cpp:408] pool2/3x3_s2_pool2/3x3_s2_0_split -> pool2/3x3_s2_pool2/3x3_s2_0_split_0
I1206 21:20:05.521580  8588 net.cpp:408] pool2/3x3_s2_pool2/3x3_s2_0_split -> pool2/3x3_s2_pool2/3x3_s2_0_split_1
I1206 21:20:05.521596  8588 net.cpp:408] pool2/3x3_s2_pool2/3x3_s2_0_split -> pool2/3x3_s2_pool2/3x3_s2_0_split_2
I1206 21:20:05.521605  8588 net.cpp:408] pool2/3x3_s2_pool2/3x3_s2_0_split -> pool2/3x3_s2_pool2/3x3_s2_0_split_3
I1206 21:20:05.521653  8588 net.cpp:150] Setting up pool2/3x3_s2_pool2/3x3_s2_0_split
I1206 21:20:05.521662  8588 net.cpp:157] Top shape: 100 192 20 10 (3840000)
I1206 21:20:05.521668  8588 net.cpp:157] Top shape: 100 192 20 10 (3840000)
I1206 21:20:05.521674  8588 net.cpp:157] Top shape: 100 192 20 10 (3840000)
I1206 21:20:05.521680  8588 net.cpp:157] Top shape: 100 192 20 10 (3840000)
I1206 21:20:05.521687  8588 net.cpp:165] Memory required for data: 476163600
I1206 21:20:05.521692  8588 layer_factory.hpp:77] Creating layer inception_3a/1x1
I1206 21:20:05.521710  8588 net.cpp:100] Creating Layer inception_3a/1x1
I1206 21:20:05.521718  8588 net.cpp:434] inception_3a/1x1 <- pool2/3x3_s2_pool2/3x3_s2_0_split_0
I1206 21:20:05.521733  8588 net.cpp:408] inception_3a/1x1 -> inception_3a/1x1
I1206 21:20:05.522716  8588 net.cpp:150] Setting up inception_3a/1x1
I1206 21:20:05.522755  8588 net.cpp:157] Top shape: 100 64 20 10 (1280000)
I1206 21:20:05.522763  8588 net.cpp:165] Memory required for data: 481283600
I1206 21:20:05.522771  8588 layer_factory.hpp:77] Creating layer inception_3a/relu_1x1
I1206 21:20:05.522789  8588 net.cpp:100] Creating Layer inception_3a/relu_1x1
I1206 21:20:05.522795  8588 net.cpp:434] inception_3a/relu_1x1 <- inception_3a/1x1
I1206 21:20:05.522802  8588 net.cpp:395] inception_3a/relu_1x1 -> inception_3a/1x1 (in-place)
I1206 21:20:05.522939  8588 net.cpp:150] Setting up inception_3a/relu_1x1
I1206 21:20:05.522955  8588 net.cpp:157] Top shape: 100 64 20 10 (1280000)
I1206 21:20:05.522961  8588 net.cpp:165] Memory required for data: 486403600
I1206 21:20:05.522979  8588 layer_factory.hpp:77] Creating layer inception_3a/3x3_reduce
I1206 21:20:05.523005  8588 net.cpp:100] Creating Layer inception_3a/3x3_reduce
I1206 21:20:05.523012  8588 net.cpp:434] inception_3a/3x3_reduce <- pool2/3x3_s2_pool2/3x3_s2_0_split_1
I1206 21:20:05.523039  8588 net.cpp:408] inception_3a/3x3_reduce -> inception_3a/3x3_reduce
I1206 21:20:05.524351  8588 net.cpp:150] Setting up inception_3a/3x3_reduce
I1206 21:20:05.524386  8588 net.cpp:157] Top shape: 100 96 20 10 (1920000)
I1206 21:20:05.524394  8588 net.cpp:165] Memory required for data: 494083600
I1206 21:20:05.524415  8588 layer_factory.hpp:77] Creating layer inception_3a/relu_3x3_reduce
I1206 21:20:05.524431  8588 net.cpp:100] Creating Layer inception_3a/relu_3x3_reduce
I1206 21:20:05.524438  8588 net.cpp:434] inception_3a/relu_3x3_reduce <- inception_3a/3x3_reduce
I1206 21:20:05.524446  8588 net.cpp:395] inception_3a/relu_3x3_reduce -> inception_3a/3x3_reduce (in-place)
I1206 21:20:05.524773  8588 net.cpp:150] Setting up inception_3a/relu_3x3_reduce
I1206 21:20:05.524801  8588 net.cpp:157] Top shape: 100 96 20 10 (1920000)
I1206 21:20:05.524807  8588 net.cpp:165] Memory required for data: 501763600
I1206 21:20:05.524813  8588 layer_factory.hpp:77] Creating layer inception_3a/3x3
I1206 21:20:05.524833  8588 net.cpp:100] Creating Layer inception_3a/3x3
I1206 21:20:05.524842  8588 net.cpp:434] inception_3a/3x3 <- inception_3a/3x3_reduce
I1206 21:20:05.524852  8588 net.cpp:408] inception_3a/3x3 -> inception_3a/3x3
I1206 21:20:05.526832  8588 net.cpp:150] Setting up inception_3a/3x3
I1206 21:20:05.526896  8588 net.cpp:157] Top shape: 100 128 20 10 (2560000)
I1206 21:20:05.526904  8588 net.cpp:165] Memory required for data: 512003600
I1206 21:20:05.526924  8588 layer_factory.hpp:77] Creating layer inception_3a/relu_3x3
I1206 21:20:05.526948  8588 net.cpp:100] Creating Layer inception_3a/relu_3x3
I1206 21:20:05.526957  8588 net.cpp:434] inception_3a/relu_3x3 <- inception_3a/3x3
I1206 21:20:05.526980  8588 net.cpp:395] inception_3a/relu_3x3 -> inception_3a/3x3 (in-place)
I1206 21:20:05.527304  8588 net.cpp:150] Setting up inception_3a/relu_3x3
I1206 21:20:05.527359  8588 net.cpp:157] Top shape: 100 128 20 10 (2560000)
I1206 21:20:05.527372  8588 net.cpp:165] Memory required for data: 522243600
I1206 21:20:05.527381  8588 layer_factory.hpp:77] Creating layer inception_3a/5x5_reduce
I1206 21:20:05.527410  8588 net.cpp:100] Creating Layer inception_3a/5x5_reduce
I1206 21:20:05.527431  8588 net.cpp:434] inception_3a/5x5_reduce <- pool2/3x3_s2_pool2/3x3_s2_0_split_2
I1206 21:20:05.527451  8588 net.cpp:408] inception_3a/5x5_reduce -> inception_3a/5x5_reduce
I1206 21:20:05.528777  8588 net.cpp:150] Setting up inception_3a/5x5_reduce
I1206 21:20:05.528815  8588 net.cpp:157] Top shape: 100 16 20 10 (320000)
I1206 21:20:05.528822  8588 net.cpp:165] Memory required for data: 523523600
I1206 21:20:05.528841  8588 layer_factory.hpp:77] Creating layer inception_3a/relu_5x5_reduce
I1206 21:20:05.528859  8588 net.cpp:100] Creating Layer inception_3a/relu_5x5_reduce
I1206 21:20:05.528867  8588 net.cpp:434] inception_3a/relu_5x5_reduce <- inception_3a/5x5_reduce
I1206 21:20:05.528888  8588 net.cpp:395] inception_3a/relu_5x5_reduce -> inception_3a/5x5_reduce (in-place)
I1206 21:20:05.529052  8588 net.cpp:150] Setting up inception_3a/relu_5x5_reduce
I1206 21:20:05.529078  8588 net.cpp:157] Top shape: 100 16 20 10 (320000)
I1206 21:20:05.529085  8588 net.cpp:165] Memory required for data: 524803600
I1206 21:20:05.529090  8588 layer_factory.hpp:77] Creating layer inception_3a/5x5
I1206 21:20:05.529112  8588 net.cpp:100] Creating Layer inception_3a/5x5
I1206 21:20:05.529120  8588 net.cpp:434] inception_3a/5x5 <- inception_3a/5x5_reduce
I1206 21:20:05.529129  8588 net.cpp:408] inception_3a/5x5 -> inception_3a/5x5
I1206 21:20:05.530230  8588 net.cpp:150] Setting up inception_3a/5x5
I1206 21:20:05.530261  8588 net.cpp:157] Top shape: 100 32 20 10 (640000)
I1206 21:20:05.530268  8588 net.cpp:165] Memory required for data: 527363600
I1206 21:20:05.530282  8588 layer_factory.hpp:77] Creating layer inception_3a/relu_5x5
I1206 21:20:05.530298  8588 net.cpp:100] Creating Layer inception_3a/relu_5x5
I1206 21:20:05.530305  8588 net.cpp:434] inception_3a/relu_5x5 <- inception_3a/5x5
I1206 21:20:05.530316  8588 net.cpp:395] inception_3a/relu_5x5 -> inception_3a/5x5 (in-place)
I1206 21:20:05.530599  8588 net.cpp:150] Setting up inception_3a/relu_5x5
I1206 21:20:05.530624  8588 net.cpp:157] Top shape: 100 32 20 10 (640000)
I1206 21:20:05.530632  8588 net.cpp:165] Memory required for data: 529923600
I1206 21:20:05.530637  8588 layer_factory.hpp:77] Creating layer inception_3a/pool
I1206 21:20:05.530656  8588 net.cpp:100] Creating Layer inception_3a/pool
I1206 21:20:05.530663  8588 net.cpp:434] inception_3a/pool <- pool2/3x3_s2_pool2/3x3_s2_0_split_3
I1206 21:20:05.530671  8588 net.cpp:408] inception_3a/pool -> inception_3a/pool
I1206 21:20:05.530717  8588 net.cpp:150] Setting up inception_3a/pool
I1206 21:20:05.530726  8588 net.cpp:157] Top shape: 100 192 20 10 (3840000)
I1206 21:20:05.530732  8588 net.cpp:165] Memory required for data: 545283600
I1206 21:20:05.530737  8588 layer_factory.hpp:77] Creating layer inception_3a/pool_proj
I1206 21:20:05.530761  8588 net.cpp:100] Creating Layer inception_3a/pool_proj
I1206 21:20:05.530768  8588 net.cpp:434] inception_3a/pool_proj <- inception_3a/pool
I1206 21:20:05.530788  8588 net.cpp:408] inception_3a/pool_proj -> inception_3a/pool_proj
I1206 21:20:05.531558  8588 net.cpp:150] Setting up inception_3a/pool_proj
I1206 21:20:05.531589  8588 net.cpp:157] Top shape: 100 32 20 10 (640000)
I1206 21:20:05.531597  8588 net.cpp:165] Memory required for data: 547843600
I1206 21:20:05.531620  8588 layer_factory.hpp:77] Creating layer inception_3a/relu_pool_proj
I1206 21:20:05.531639  8588 net.cpp:100] Creating Layer inception_3a/relu_pool_proj
I1206 21:20:05.531647  8588 net.cpp:434] inception_3a/relu_pool_proj <- inception_3a/pool_proj
I1206 21:20:05.531662  8588 net.cpp:395] inception_3a/relu_pool_proj -> inception_3a/pool_proj (in-place)
I1206 21:20:05.531939  8588 net.cpp:150] Setting up inception_3a/relu_pool_proj
I1206 21:20:05.531968  8588 net.cpp:157] Top shape: 100 32 20 10 (640000)
I1206 21:20:05.531975  8588 net.cpp:165] Memory required for data: 550403600
I1206 21:20:05.531981  8588 layer_factory.hpp:77] Creating layer inception_3a/output
I1206 21:20:05.532004  8588 net.cpp:100] Creating Layer inception_3a/output
I1206 21:20:05.532019  8588 net.cpp:434] inception_3a/output <- inception_3a/1x1
I1206 21:20:05.532029  8588 net.cpp:434] inception_3a/output <- inception_3a/3x3
I1206 21:20:05.532037  8588 net.cpp:434] inception_3a/output <- inception_3a/5x5
I1206 21:20:05.532042  8588 net.cpp:434] inception_3a/output <- inception_3a/pool_proj
I1206 21:20:05.532049  8588 net.cpp:408] inception_3a/output -> inception_3a/output
I1206 21:20:05.532085  8588 net.cpp:150] Setting up inception_3a/output
I1206 21:20:05.532101  8588 net.cpp:157] Top shape: 100 256 20 10 (5120000)
I1206 21:20:05.532107  8588 net.cpp:165] Memory required for data: 570883600
I1206 21:20:05.532114  8588 layer_factory.hpp:77] Creating layer inception_3a/output_inception_3a/output_0_split
I1206 21:20:05.532129  8588 net.cpp:100] Creating Layer inception_3a/output_inception_3a/output_0_split
I1206 21:20:05.532135  8588 net.cpp:434] inception_3a/output_inception_3a/output_0_split <- inception_3a/output
I1206 21:20:05.532143  8588 net.cpp:408] inception_3a/output_inception_3a/output_0_split -> inception_3a/output_inception_3a/output_0_split_0
I1206 21:20:05.532152  8588 net.cpp:408] inception_3a/output_inception_3a/output_0_split -> inception_3a/output_inception_3a/output_0_split_1
I1206 21:20:05.532160  8588 net.cpp:408] inception_3a/output_inception_3a/output_0_split -> inception_3a/output_inception_3a/output_0_split_2
I1206 21:20:05.532176  8588 net.cpp:408] inception_3a/output_inception_3a/output_0_split -> inception_3a/output_inception_3a/output_0_split_3
I1206 21:20:05.532233  8588 net.cpp:150] Setting up inception_3a/output_inception_3a/output_0_split
I1206 21:20:05.532246  8588 net.cpp:157] Top shape: 100 256 20 10 (5120000)
I1206 21:20:05.532253  8588 net.cpp:157] Top shape: 100 256 20 10 (5120000)
I1206 21:20:05.532258  8588 net.cpp:157] Top shape: 100 256 20 10 (5120000)
I1206 21:20:05.532265  8588 net.cpp:157] Top shape: 100 256 20 10 (5120000)
I1206 21:20:05.532286  8588 net.cpp:165] Memory required for data: 652803600
I1206 21:20:05.532292  8588 layer_factory.hpp:77] Creating layer inception_3b/1x1
I1206 21:20:05.532311  8588 net.cpp:100] Creating Layer inception_3b/1x1
I1206 21:20:05.532326  8588 net.cpp:434] inception_3b/1x1 <- inception_3a/output_inception_3a/output_0_split_0
I1206 21:20:05.532335  8588 net.cpp:408] inception_3b/1x1 -> inception_3b/1x1
I1206 21:20:05.533396  8588 net.cpp:150] Setting up inception_3b/1x1
I1206 21:20:05.533421  8588 net.cpp:157] Top shape: 100 128 20 10 (2560000)
I1206 21:20:05.533428  8588 net.cpp:165] Memory required for data: 663043600
I1206 21:20:05.533447  8588 layer_factory.hpp:77] Creating layer inception_3b/relu_1x1
I1206 21:20:05.533464  8588 net.cpp:100] Creating Layer inception_3b/relu_1x1
I1206 21:20:05.533471  8588 net.cpp:434] inception_3b/relu_1x1 <- inception_3b/1x1
I1206 21:20:05.533480  8588 net.cpp:395] inception_3b/relu_1x1 -> inception_3b/1x1 (in-place)
I1206 21:20:05.533637  8588 net.cpp:150] Setting up inception_3b/relu_1x1
I1206 21:20:05.533655  8588 net.cpp:157] Top shape: 100 128 20 10 (2560000)
I1206 21:20:05.533661  8588 net.cpp:165] Memory required for data: 673283600
I1206 21:20:05.533668  8588 layer_factory.hpp:77] Creating layer inception_3b/3x3_reduce
I1206 21:20:05.533686  8588 net.cpp:100] Creating Layer inception_3b/3x3_reduce
I1206 21:20:05.533694  8588 net.cpp:434] inception_3b/3x3_reduce <- inception_3a/output_inception_3a/output_0_split_1
I1206 21:20:05.533704  8588 net.cpp:408] inception_3b/3x3_reduce -> inception_3b/3x3_reduce
I1206 21:20:05.534772  8588 net.cpp:150] Setting up inception_3b/3x3_reduce
I1206 21:20:05.534811  8588 net.cpp:157] Top shape: 100 128 20 10 (2560000)
I1206 21:20:05.534817  8588 net.cpp:165] Memory required for data: 683523600
I1206 21:20:05.534834  8588 layer_factory.hpp:77] Creating layer inception_3b/relu_3x3_reduce
I1206 21:20:05.534855  8588 net.cpp:100] Creating Layer inception_3b/relu_3x3_reduce
I1206 21:20:05.534863  8588 net.cpp:434] inception_3b/relu_3x3_reduce <- inception_3b/3x3_reduce
I1206 21:20:05.534871  8588 net.cpp:395] inception_3b/relu_3x3_reduce -> inception_3b/3x3_reduce (in-place)
I1206 21:20:05.535151  8588 net.cpp:150] Setting up inception_3b/relu_3x3_reduce
I1206 21:20:05.535181  8588 net.cpp:157] Top shape: 100 128 20 10 (2560000)
I1206 21:20:05.535187  8588 net.cpp:165] Memory required for data: 693763600
I1206 21:20:05.535192  8588 layer_factory.hpp:77] Creating layer inception_3b/3x3
I1206 21:20:05.535213  8588 net.cpp:100] Creating Layer inception_3b/3x3
I1206 21:20:05.535220  8588 net.cpp:434] inception_3b/3x3 <- inception_3b/3x3_reduce
I1206 21:20:05.535241  8588 net.cpp:408] inception_3b/3x3 -> inception_3b/3x3
I1206 21:20:05.537822  8588 net.cpp:150] Setting up inception_3b/3x3
I1206 21:20:05.537875  8588 net.cpp:157] Top shape: 100 192 20 10 (3840000)
I1206 21:20:05.537883  8588 net.cpp:165] Memory required for data: 709123600
I1206 21:20:05.537899  8588 layer_factory.hpp:77] Creating layer inception_3b/relu_3x3
I1206 21:20:05.537915  8588 net.cpp:100] Creating Layer inception_3b/relu_3x3
I1206 21:20:05.537924  8588 net.cpp:434] inception_3b/relu_3x3 <- inception_3b/3x3
I1206 21:20:05.537930  8588 net.cpp:395] inception_3b/relu_3x3 -> inception_3b/3x3 (in-place)
I1206 21:20:05.538197  8588 net.cpp:150] Setting up inception_3b/relu_3x3
I1206 21:20:05.538218  8588 net.cpp:157] Top shape: 100 192 20 10 (3840000)
I1206 21:20:05.538225  8588 net.cpp:165] Memory required for data: 724483600
I1206 21:20:05.538231  8588 layer_factory.hpp:77] Creating layer inception_3b/5x5_reduce
I1206 21:20:05.538244  8588 net.cpp:100] Creating Layer inception_3b/5x5_reduce
I1206 21:20:05.538251  8588 net.cpp:434] inception_3b/5x5_reduce <- inception_3a/output_inception_3a/output_0_split_2
I1206 21:20:05.538262  8588 net.cpp:408] inception_3b/5x5_reduce -> inception_3b/5x5_reduce
I1206 21:20:05.539209  8588 net.cpp:150] Setting up inception_3b/5x5_reduce
I1206 21:20:05.539245  8588 net.cpp:157] Top shape: 100 32 20 10 (640000)
I1206 21:20:05.539252  8588 net.cpp:165] Memory required for data: 727043600
I1206 21:20:05.539293  8588 layer_factory.hpp:77] Creating layer inception_3b/relu_5x5_reduce
I1206 21:20:05.539304  8588 net.cpp:100] Creating Layer inception_3b/relu_5x5_reduce
I1206 21:20:05.539320  8588 net.cpp:434] inception_3b/relu_5x5_reduce <- inception_3b/5x5_reduce
I1206 21:20:05.539330  8588 net.cpp:395] inception_3b/relu_5x5_reduce -> inception_3b/5x5_reduce (in-place)
I1206 21:20:05.539487  8588 net.cpp:150] Setting up inception_3b/relu_5x5_reduce
I1206 21:20:05.539505  8588 net.cpp:157] Top shape: 100 32 20 10 (640000)
I1206 21:20:05.539512  8588 net.cpp:165] Memory required for data: 729603600
I1206 21:20:05.539530  8588 layer_factory.hpp:77] Creating layer inception_3b/5x5
I1206 21:20:05.539548  8588 net.cpp:100] Creating Layer inception_3b/5x5
I1206 21:20:05.539556  8588 net.cpp:434] inception_3b/5x5 <- inception_3b/5x5_reduce
I1206 21:20:05.539577  8588 net.cpp:408] inception_3b/5x5 -> inception_3b/5x5
I1206 21:20:05.541734  8588 net.cpp:150] Setting up inception_3b/5x5
I1206 21:20:05.541790  8588 net.cpp:157] Top shape: 100 96 20 10 (1920000)
I1206 21:20:05.541803  8588 net.cpp:165] Memory required for data: 737283600
I1206 21:20:05.541826  8588 layer_factory.hpp:77] Creating layer inception_3b/relu_5x5
I1206 21:20:05.541848  8588 net.cpp:100] Creating Layer inception_3b/relu_5x5
I1206 21:20:05.541867  8588 net.cpp:434] inception_3b/relu_5x5 <- inception_3b/5x5
I1206 21:20:05.541887  8588 net.cpp:395] inception_3b/relu_5x5 -> inception_3b/5x5 (in-place)
I1206 21:20:05.542270  8588 net.cpp:150] Setting up inception_3b/relu_5x5
I1206 21:20:05.542321  8588 net.cpp:157] Top shape: 100 96 20 10 (1920000)
I1206 21:20:05.542342  8588 net.cpp:165] Memory required for data: 744963600
I1206 21:20:05.542363  8588 layer_factory.hpp:77] Creating layer inception_3b/pool
I1206 21:20:05.542388  8588 net.cpp:100] Creating Layer inception_3b/pool
I1206 21:20:05.542402  8588 net.cpp:434] inception_3b/pool <- inception_3a/output_inception_3a/output_0_split_3
I1206 21:20:05.542423  8588 net.cpp:408] inception_3b/pool -> inception_3b/pool
I1206 21:20:05.542507  8588 net.cpp:150] Setting up inception_3b/pool
I1206 21:20:05.542536  8588 net.cpp:157] Top shape: 100 256 20 10 (5120000)
I1206 21:20:05.542546  8588 net.cpp:165] Memory required for data: 765443600
I1206 21:20:05.542562  8588 layer_factory.hpp:77] Creating layer inception_3b/pool_proj
I1206 21:20:05.542588  8588 net.cpp:100] Creating Layer inception_3b/pool_proj
I1206 21:20:05.542608  8588 net.cpp:434] inception_3b/pool_proj <- inception_3b/pool
I1206 21:20:05.542630  8588 net.cpp:408] inception_3b/pool_proj -> inception_3b/pool_proj
I1206 21:20:05.543879  8588 net.cpp:150] Setting up inception_3b/pool_proj
I1206 21:20:05.543917  8588 net.cpp:157] Top shape: 100 64 20 10 (1280000)
I1206 21:20:05.543925  8588 net.cpp:165] Memory required for data: 770563600
I1206 21:20:05.543942  8588 layer_factory.hpp:77] Creating layer inception_3b/relu_pool_proj
I1206 21:20:05.543952  8588 net.cpp:100] Creating Layer inception_3b/relu_pool_proj
I1206 21:20:05.543968  8588 net.cpp:434] inception_3b/relu_pool_proj <- inception_3b/pool_proj
I1206 21:20:05.543978  8588 net.cpp:395] inception_3b/relu_pool_proj -> inception_3b/pool_proj (in-place)
I1206 21:20:05.544291  8588 net.cpp:150] Setting up inception_3b/relu_pool_proj
I1206 21:20:05.544320  8588 net.cpp:157] Top shape: 100 64 20 10 (1280000)
I1206 21:20:05.544327  8588 net.cpp:165] Memory required for data: 775683600
I1206 21:20:05.544333  8588 layer_factory.hpp:77] Creating layer inception_3b/output
I1206 21:20:05.544353  8588 net.cpp:100] Creating Layer inception_3b/output
I1206 21:20:05.544361  8588 net.cpp:434] inception_3b/output <- inception_3b/1x1
I1206 21:20:05.544379  8588 net.cpp:434] inception_3b/output <- inception_3b/3x3
I1206 21:20:05.544386  8588 net.cpp:434] inception_3b/output <- inception_3b/5x5
I1206 21:20:05.544394  8588 net.cpp:434] inception_3b/output <- inception_3b/pool_proj
I1206 21:20:05.544409  8588 net.cpp:408] inception_3b/output -> inception_3b/output
I1206 21:20:05.544464  8588 net.cpp:150] Setting up inception_3b/output
I1206 21:20:05.544474  8588 net.cpp:157] Top shape: 100 480 20 10 (9600000)
I1206 21:20:05.544481  8588 net.cpp:165] Memory required for data: 814083600
I1206 21:20:05.544488  8588 layer_factory.hpp:77] Creating layer pool3/3x3_s2
I1206 21:20:05.544498  8588 net.cpp:100] Creating Layer pool3/3x3_s2
I1206 21:20:05.544504  8588 net.cpp:434] pool3/3x3_s2 <- inception_3b/output
I1206 21:20:05.544523  8588 net.cpp:408] pool3/3x3_s2 -> pool3/3x3_s2
I1206 21:20:05.544569  8588 net.cpp:150] Setting up pool3/3x3_s2
I1206 21:20:05.544579  8588 net.cpp:157] Top shape: 100 480 10 5 (2400000)
I1206 21:20:05.544584  8588 net.cpp:165] Memory required for data: 823683600
I1206 21:20:05.544589  8588 layer_factory.hpp:77] Creating layer pool3/3x3_s2_pool3/3x3_s2_0_split
I1206 21:20:05.544607  8588 net.cpp:100] Creating Layer pool3/3x3_s2_pool3/3x3_s2_0_split
I1206 21:20:05.544615  8588 net.cpp:434] pool3/3x3_s2_pool3/3x3_s2_0_split <- pool3/3x3_s2
I1206 21:20:05.544621  8588 net.cpp:408] pool3/3x3_s2_pool3/3x3_s2_0_split -> pool3/3x3_s2_pool3/3x3_s2_0_split_0
I1206 21:20:05.544638  8588 net.cpp:408] pool3/3x3_s2_pool3/3x3_s2_0_split -> pool3/3x3_s2_pool3/3x3_s2_0_split_1
I1206 21:20:05.544651  8588 net.cpp:408] pool3/3x3_s2_pool3/3x3_s2_0_split -> pool3/3x3_s2_pool3/3x3_s2_0_split_2
I1206 21:20:05.544667  8588 net.cpp:408] pool3/3x3_s2_pool3/3x3_s2_0_split -> pool3/3x3_s2_pool3/3x3_s2_0_split_3
I1206 21:20:05.544724  8588 net.cpp:150] Setting up pool3/3x3_s2_pool3/3x3_s2_0_split
I1206 21:20:05.544734  8588 net.cpp:157] Top shape: 100 480 10 5 (2400000)
I1206 21:20:05.544740  8588 net.cpp:157] Top shape: 100 480 10 5 (2400000)
I1206 21:20:05.544746  8588 net.cpp:157] Top shape: 100 480 10 5 (2400000)
I1206 21:20:05.544752  8588 net.cpp:157] Top shape: 100 480 10 5 (2400000)
I1206 21:20:05.544759  8588 net.cpp:165] Memory required for data: 862083600
I1206 21:20:05.544764  8588 layer_factory.hpp:77] Creating layer inception_4a/1x1
I1206 21:20:05.544785  8588 net.cpp:100] Creating Layer inception_4a/1x1
I1206 21:20:05.544791  8588 net.cpp:434] inception_4a/1x1 <- pool3/3x3_s2_pool3/3x3_s2_0_split_0
I1206 21:20:05.544814  8588 net.cpp:408] inception_4a/1x1 -> inception_4a/1x1
I1206 21:20:05.546386  8588 net.cpp:150] Setting up inception_4a/1x1
I1206 21:20:05.546423  8588 net.cpp:157] Top shape: 100 192 10 5 (960000)
I1206 21:20:05.546430  8588 net.cpp:165] Memory required for data: 865923600
I1206 21:20:05.546452  8588 layer_factory.hpp:77] Creating layer inception_4a/relu_1x1
I1206 21:20:05.546464  8588 net.cpp:100] Creating Layer inception_4a/relu_1x1
I1206 21:20:05.546473  8588 net.cpp:434] inception_4a/relu_1x1 <- inception_4a/1x1
I1206 21:20:05.546499  8588 net.cpp:395] inception_4a/relu_1x1 -> inception_4a/1x1 (in-place)
I1206 21:20:05.546648  8588 net.cpp:150] Setting up inception_4a/relu_1x1
I1206 21:20:05.546666  8588 net.cpp:157] Top shape: 100 192 10 5 (960000)
I1206 21:20:05.546672  8588 net.cpp:165] Memory required for data: 869763600
I1206 21:20:05.546679  8588 layer_factory.hpp:77] Creating layer inception_4a/3x3_reduce
I1206 21:20:05.546699  8588 net.cpp:100] Creating Layer inception_4a/3x3_reduce
I1206 21:20:05.546706  8588 net.cpp:434] inception_4a/3x3_reduce <- pool3/3x3_s2_pool3/3x3_s2_0_split_1
I1206 21:20:05.546725  8588 net.cpp:408] inception_4a/3x3_reduce -> inception_4a/3x3_reduce
I1206 21:20:05.547888  8588 net.cpp:150] Setting up inception_4a/3x3_reduce
I1206 21:20:05.547926  8588 net.cpp:157] Top shape: 100 96 10 5 (480000)
I1206 21:20:05.547933  8588 net.cpp:165] Memory required for data: 871683600
I1206 21:20:05.547960  8588 layer_factory.hpp:77] Creating layer inception_4a/relu_3x3_reduce
I1206 21:20:05.547978  8588 net.cpp:100] Creating Layer inception_4a/relu_3x3_reduce
I1206 21:20:05.547986  8588 net.cpp:434] inception_4a/relu_3x3_reduce <- inception_4a/3x3_reduce
I1206 21:20:05.548002  8588 net.cpp:395] inception_4a/relu_3x3_reduce -> inception_4a/3x3_reduce (in-place)
I1206 21:20:05.548274  8588 net.cpp:150] Setting up inception_4a/relu_3x3_reduce
I1206 21:20:05.548312  8588 net.cpp:157] Top shape: 100 96 10 5 (480000)
I1206 21:20:05.548319  8588 net.cpp:165] Memory required for data: 873603600
I1206 21:20:05.548326  8588 layer_factory.hpp:77] Creating layer inception_4a/3x3
I1206 21:20:05.548342  8588 net.cpp:100] Creating Layer inception_4a/3x3
I1206 21:20:05.548351  8588 net.cpp:434] inception_4a/3x3 <- inception_4a/3x3_reduce
I1206 21:20:05.548370  8588 net.cpp:408] inception_4a/3x3 -> inception_4a/3x3
I1206 21:20:05.550700  8588 net.cpp:150] Setting up inception_4a/3x3
I1206 21:20:05.550740  8588 net.cpp:157] Top shape: 100 208 10 5 (1040000)
I1206 21:20:05.550747  8588 net.cpp:165] Memory required for data: 877763600
I1206 21:20:05.550767  8588 layer_factory.hpp:77] Creating layer inception_4a/relu_3x3
I1206 21:20:05.550786  8588 net.cpp:100] Creating Layer inception_4a/relu_3x3
I1206 21:20:05.550794  8588 net.cpp:434] inception_4a/relu_3x3 <- inception_4a/3x3
I1206 21:20:05.550802  8588 net.cpp:395] inception_4a/relu_3x3 -> inception_4a/3x3 (in-place)
I1206 21:20:05.551074  8588 net.cpp:150] Setting up inception_4a/relu_3x3
I1206 21:20:05.551102  8588 net.cpp:157] Top shape: 100 208 10 5 (1040000)
I1206 21:20:05.551110  8588 net.cpp:165] Memory required for data: 881923600
I1206 21:20:05.551115  8588 layer_factory.hpp:77] Creating layer inception_4a/5x5_reduce
I1206 21:20:05.551133  8588 net.cpp:100] Creating Layer inception_4a/5x5_reduce
I1206 21:20:05.551146  8588 net.cpp:434] inception_4a/5x5_reduce <- pool3/3x3_s2_pool3/3x3_s2_0_split_2
I1206 21:20:05.551163  8588 net.cpp:408] inception_4a/5x5_reduce -> inception_4a/5x5_reduce
I1206 21:20:05.552137  8588 net.cpp:150] Setting up inception_4a/5x5_reduce
I1206 21:20:05.552175  8588 net.cpp:157] Top shape: 100 16 10 5 (80000)
I1206 21:20:05.552181  8588 net.cpp:165] Memory required for data: 882243600
I1206 21:20:05.552199  8588 layer_factory.hpp:77] Creating layer inception_4a/relu_5x5_reduce
I1206 21:20:05.552217  8588 net.cpp:100] Creating Layer inception_4a/relu_5x5_reduce
I1206 21:20:05.552223  8588 net.cpp:434] inception_4a/relu_5x5_reduce <- inception_4a/5x5_reduce
I1206 21:20:05.552244  8588 net.cpp:395] inception_4a/relu_5x5_reduce -> inception_4a/5x5_reduce (in-place)
I1206 21:20:05.552395  8588 net.cpp:150] Setting up inception_4a/relu_5x5_reduce
I1206 21:20:05.552414  8588 net.cpp:157] Top shape: 100 16 10 5 (80000)
I1206 21:20:05.552420  8588 net.cpp:165] Memory required for data: 882563600
I1206 21:20:05.552426  8588 layer_factory.hpp:77] Creating layer inception_4a/5x5
I1206 21:20:05.552446  8588 net.cpp:100] Creating Layer inception_4a/5x5
I1206 21:20:05.552455  8588 net.cpp:434] inception_4a/5x5 <- inception_4a/5x5_reduce
I1206 21:20:05.552475  8588 net.cpp:408] inception_4a/5x5 -> inception_4a/5x5
I1206 21:20:05.553505  8588 net.cpp:150] Setting up inception_4a/5x5
I1206 21:20:05.553536  8588 net.cpp:157] Top shape: 100 48 10 5 (240000)
I1206 21:20:05.553544  8588 net.cpp:165] Memory required for data: 883523600
I1206 21:20:05.553561  8588 layer_factory.hpp:77] Creating layer inception_4a/relu_5x5
I1206 21:20:05.553575  8588 net.cpp:100] Creating Layer inception_4a/relu_5x5
I1206 21:20:05.553581  8588 net.cpp:434] inception_4a/relu_5x5 <- inception_4a/5x5
I1206 21:20:05.553592  8588 net.cpp:395] inception_4a/relu_5x5 -> inception_4a/5x5 (in-place)
I1206 21:20:05.553869  8588 net.cpp:150] Setting up inception_4a/relu_5x5
I1206 21:20:05.553899  8588 net.cpp:157] Top shape: 100 48 10 5 (240000)
I1206 21:20:05.553905  8588 net.cpp:165] Memory required for data: 884483600
I1206 21:20:05.553910  8588 layer_factory.hpp:77] Creating layer inception_4a/pool
I1206 21:20:05.553920  8588 net.cpp:100] Creating Layer inception_4a/pool
I1206 21:20:05.553936  8588 net.cpp:434] inception_4a/pool <- pool3/3x3_s2_pool3/3x3_s2_0_split_3
I1206 21:20:05.553946  8588 net.cpp:408] inception_4a/pool -> inception_4a/pool
I1206 21:20:05.553999  8588 net.cpp:150] Setting up inception_4a/pool
I1206 21:20:05.554018  8588 net.cpp:157] Top shape: 100 480 10 5 (2400000)
I1206 21:20:05.554024  8588 net.cpp:165] Memory required for data: 894083600
I1206 21:20:05.554049  8588 layer_factory.hpp:77] Creating layer inception_4a/pool_proj
I1206 21:20:05.554065  8588 net.cpp:100] Creating Layer inception_4a/pool_proj
I1206 21:20:05.554074  8588 net.cpp:434] inception_4a/pool_proj <- inception_4a/pool
I1206 21:20:05.554090  8588 net.cpp:408] inception_4a/pool_proj -> inception_4a/pool_proj
I1206 21:20:05.555054  8588 net.cpp:150] Setting up inception_4a/pool_proj
I1206 21:20:05.555094  8588 net.cpp:157] Top shape: 100 64 10 5 (320000)
I1206 21:20:05.555100  8588 net.cpp:165] Memory required for data: 895363600
I1206 21:20:05.555121  8588 layer_factory.hpp:77] Creating layer inception_4a/relu_pool_proj
I1206 21:20:05.555140  8588 net.cpp:100] Creating Layer inception_4a/relu_pool_proj
I1206 21:20:05.555147  8588 net.cpp:434] inception_4a/relu_pool_proj <- inception_4a/pool_proj
I1206 21:20:05.555166  8588 net.cpp:395] inception_4a/relu_pool_proj -> inception_4a/pool_proj (in-place)
I1206 21:20:05.555454  8588 net.cpp:150] Setting up inception_4a/relu_pool_proj
I1206 21:20:05.555483  8588 net.cpp:157] Top shape: 100 64 10 5 (320000)
I1206 21:20:05.555490  8588 net.cpp:165] Memory required for data: 896643600
I1206 21:20:05.555495  8588 layer_factory.hpp:77] Creating layer inception_4a/output
I1206 21:20:05.555505  8588 net.cpp:100] Creating Layer inception_4a/output
I1206 21:20:05.555511  8588 net.cpp:434] inception_4a/output <- inception_4a/1x1
I1206 21:20:05.555526  8588 net.cpp:434] inception_4a/output <- inception_4a/3x3
I1206 21:20:05.555533  8588 net.cpp:434] inception_4a/output <- inception_4a/5x5
I1206 21:20:05.555539  8588 net.cpp:434] inception_4a/output <- inception_4a/pool_proj
I1206 21:20:05.555549  8588 net.cpp:408] inception_4a/output -> inception_4a/output
I1206 21:20:05.555589  8588 net.cpp:150] Setting up inception_4a/output
I1206 21:20:05.555600  8588 net.cpp:157] Top shape: 100 512 10 5 (2560000)
I1206 21:20:05.555606  8588 net.cpp:165] Memory required for data: 906883600
I1206 21:20:05.555613  8588 layer_factory.hpp:77] Creating layer inception_4a/output_inception_4a/output_0_split
I1206 21:20:05.555624  8588 net.cpp:100] Creating Layer inception_4a/output_inception_4a/output_0_split
I1206 21:20:05.555644  8588 net.cpp:434] inception_4a/output_inception_4a/output_0_split <- inception_4a/output
I1206 21:20:05.555654  8588 net.cpp:408] inception_4a/output_inception_4a/output_0_split -> inception_4a/output_inception_4a/output_0_split_0
I1206 21:20:05.555662  8588 net.cpp:408] inception_4a/output_inception_4a/output_0_split -> inception_4a/output_inception_4a/output_0_split_1
I1206 21:20:05.555672  8588 net.cpp:408] inception_4a/output_inception_4a/output_0_split -> inception_4a/output_inception_4a/output_0_split_2
I1206 21:20:05.555687  8588 net.cpp:408] inception_4a/output_inception_4a/output_0_split -> inception_4a/output_inception_4a/output_0_split_3
I1206 21:20:05.555745  8588 net.cpp:150] Setting up inception_4a/output_inception_4a/output_0_split
I1206 21:20:05.555757  8588 net.cpp:157] Top shape: 100 512 10 5 (2560000)
I1206 21:20:05.555763  8588 net.cpp:157] Top shape: 100 512 10 5 (2560000)
I1206 21:20:05.555769  8588 net.cpp:157] Top shape: 100 512 10 5 (2560000)
I1206 21:20:05.555775  8588 net.cpp:157] Top shape: 100 512 10 5 (2560000)
I1206 21:20:05.555781  8588 net.cpp:165] Memory required for data: 947843600
I1206 21:20:05.555788  8588 layer_factory.hpp:77] Creating layer inception_4b/1x1
I1206 21:20:05.555807  8588 net.cpp:100] Creating Layer inception_4b/1x1
I1206 21:20:05.555815  8588 net.cpp:434] inception_4b/1x1 <- inception_4a/output_inception_4a/output_0_split_0
I1206 21:20:05.555824  8588 net.cpp:408] inception_4b/1x1 -> inception_4b/1x1
I1206 21:20:05.557180  8588 net.cpp:150] Setting up inception_4b/1x1
I1206 21:20:05.557216  8588 net.cpp:157] Top shape: 100 160 10 5 (800000)
I1206 21:20:05.557224  8588 net.cpp:165] Memory required for data: 951043600
I1206 21:20:05.557234  8588 layer_factory.hpp:77] Creating layer inception_4b/relu_1x1
I1206 21:20:05.557255  8588 net.cpp:100] Creating Layer inception_4b/relu_1x1
I1206 21:20:05.557281  8588 net.cpp:434] inception_4b/relu_1x1 <- inception_4b/1x1
I1206 21:20:05.557291  8588 net.cpp:395] inception_4b/relu_1x1 -> inception_4b/1x1 (in-place)
I1206 21:20:05.557466  8588 net.cpp:150] Setting up inception_4b/relu_1x1
I1206 21:20:05.557487  8588 net.cpp:157] Top shape: 100 160 10 5 (800000)
I1206 21:20:05.557493  8588 net.cpp:165] Memory required for data: 954243600
I1206 21:20:05.557499  8588 layer_factory.hpp:77] Creating layer inception_4b/3x3_reduce
I1206 21:20:05.557520  8588 net.cpp:100] Creating Layer inception_4b/3x3_reduce
I1206 21:20:05.557528  8588 net.cpp:434] inception_4b/3x3_reduce <- inception_4a/output_inception_4a/output_0_split_1
I1206 21:20:05.557545  8588 net.cpp:408] inception_4b/3x3_reduce -> inception_4b/3x3_reduce
I1206 21:20:05.558784  8588 net.cpp:150] Setting up inception_4b/3x3_reduce
I1206 21:20:05.558815  8588 net.cpp:157] Top shape: 100 112 10 5 (560000)
I1206 21:20:05.558822  8588 net.cpp:165] Memory required for data: 956483600
I1206 21:20:05.558840  8588 layer_factory.hpp:77] Creating layer inception_4b/relu_3x3_reduce
I1206 21:20:05.558852  8588 net.cpp:100] Creating Layer inception_4b/relu_3x3_reduce
I1206 21:20:05.558861  8588 net.cpp:434] inception_4b/relu_3x3_reduce <- inception_4b/3x3_reduce
I1206 21:20:05.558867  8588 net.cpp:395] inception_4b/relu_3x3_reduce -> inception_4b/3x3_reduce (in-place)
I1206 21:20:05.559154  8588 net.cpp:150] Setting up inception_4b/relu_3x3_reduce
I1206 21:20:05.559180  8588 net.cpp:157] Top shape: 100 112 10 5 (560000)
I1206 21:20:05.559186  8588 net.cpp:165] Memory required for data: 958723600
I1206 21:20:05.559195  8588 layer_factory.hpp:77] Creating layer inception_4b/3x3
I1206 21:20:05.559219  8588 net.cpp:100] Creating Layer inception_4b/3x3
I1206 21:20:05.559236  8588 net.cpp:434] inception_4b/3x3 <- inception_4b/3x3_reduce
I1206 21:20:05.559252  8588 net.cpp:408] inception_4b/3x3 -> inception_4b/3x3
I1206 21:20:05.561976  8588 net.cpp:150] Setting up inception_4b/3x3
I1206 21:20:05.562017  8588 net.cpp:157] Top shape: 100 224 10 5 (1120000)
I1206 21:20:05.562026  8588 net.cpp:165] Memory required for data: 963203600
I1206 21:20:05.562053  8588 layer_factory.hpp:77] Creating layer inception_4b/relu_3x3
I1206 21:20:05.562074  8588 net.cpp:100] Creating Layer inception_4b/relu_3x3
I1206 21:20:05.562083  8588 net.cpp:434] inception_4b/relu_3x3 <- inception_4b/3x3
I1206 21:20:05.562090  8588 net.cpp:395] inception_4b/relu_3x3 -> inception_4b/3x3 (in-place)
I1206 21:20:05.562394  8588 net.cpp:150] Setting up inception_4b/relu_3x3
I1206 21:20:05.562424  8588 net.cpp:157] Top shape: 100 224 10 5 (1120000)
I1206 21:20:05.562432  8588 net.cpp:165] Memory required for data: 967683600
I1206 21:20:05.562438  8588 layer_factory.hpp:77] Creating layer inception_4b/5x5_reduce
I1206 21:20:05.562461  8588 net.cpp:100] Creating Layer inception_4b/5x5_reduce
I1206 21:20:05.562470  8588 net.cpp:434] inception_4b/5x5_reduce <- inception_4a/output_inception_4a/output_0_split_2
I1206 21:20:05.562486  8588 net.cpp:408] inception_4b/5x5_reduce -> inception_4b/5x5_reduce
I1206 21:20:05.563506  8588 net.cpp:150] Setting up inception_4b/5x5_reduce
I1206 21:20:05.563534  8588 net.cpp:157] Top shape: 100 24 10 5 (120000)
I1206 21:20:05.563541  8588 net.cpp:165] Memory required for data: 968163600
I1206 21:20:05.563550  8588 layer_factory.hpp:77] Creating layer inception_4b/relu_5x5_reduce
I1206 21:20:05.563567  8588 net.cpp:100] Creating Layer inception_4b/relu_5x5_reduce
I1206 21:20:05.563575  8588 net.cpp:434] inception_4b/relu_5x5_reduce <- inception_4b/5x5_reduce
I1206 21:20:05.563582  8588 net.cpp:395] inception_4b/relu_5x5_reduce -> inception_4b/5x5_reduce (in-place)
I1206 21:20:05.563736  8588 net.cpp:150] Setting up inception_4b/relu_5x5_reduce
I1206 21:20:05.563755  8588 net.cpp:157] Top shape: 100 24 10 5 (120000)
I1206 21:20:05.563762  8588 net.cpp:165] Memory required for data: 968643600
I1206 21:20:05.563768  8588 layer_factory.hpp:77] Creating layer inception_4b/5x5
I1206 21:20:05.563786  8588 net.cpp:100] Creating Layer inception_4b/5x5
I1206 21:20:05.563812  8588 net.cpp:434] inception_4b/5x5 <- inception_4b/5x5_reduce
I1206 21:20:05.563822  8588 net.cpp:408] inception_4b/5x5 -> inception_4b/5x5
I1206 21:20:05.565441  8588 net.cpp:150] Setting up inception_4b/5x5
I1206 21:20:05.565480  8588 net.cpp:157] Top shape: 100 64 10 5 (320000)
I1206 21:20:05.565487  8588 net.cpp:165] Memory required for data: 969923600
I1206 21:20:05.565505  8588 layer_factory.hpp:77] Creating layer inception_4b/relu_5x5
I1206 21:20:05.565521  8588 net.cpp:100] Creating Layer inception_4b/relu_5x5
I1206 21:20:05.565528  8588 net.cpp:434] inception_4b/relu_5x5 <- inception_4b/5x5
I1206 21:20:05.565544  8588 net.cpp:395] inception_4b/relu_5x5 -> inception_4b/5x5 (in-place)
I1206 21:20:05.565830  8588 net.cpp:150] Setting up inception_4b/relu_5x5
I1206 21:20:05.565860  8588 net.cpp:157] Top shape: 100 64 10 5 (320000)
I1206 21:20:05.565867  8588 net.cpp:165] Memory required for data: 971203600
I1206 21:20:05.565883  8588 layer_factory.hpp:77] Creating layer inception_4b/pool
I1206 21:20:05.565904  8588 net.cpp:100] Creating Layer inception_4b/pool
I1206 21:20:05.565912  8588 net.cpp:434] inception_4b/pool <- inception_4a/output_inception_4a/output_0_split_3
I1206 21:20:05.565929  8588 net.cpp:408] inception_4b/pool -> inception_4b/pool
I1206 21:20:05.565976  8588 net.cpp:150] Setting up inception_4b/pool
I1206 21:20:05.565994  8588 net.cpp:157] Top shape: 100 512 10 5 (2560000)
I1206 21:20:05.565999  8588 net.cpp:165] Memory required for data: 981443600
I1206 21:20:05.566006  8588 layer_factory.hpp:77] Creating layer inception_4b/pool_proj
I1206 21:20:05.566025  8588 net.cpp:100] Creating Layer inception_4b/pool_proj
I1206 21:20:05.566031  8588 net.cpp:434] inception_4b/pool_proj <- inception_4b/pool
I1206 21:20:05.566049  8588 net.cpp:408] inception_4b/pool_proj -> inception_4b/pool_proj
I1206 21:20:05.567039  8588 net.cpp:150] Setting up inception_4b/pool_proj
I1206 21:20:05.567075  8588 net.cpp:157] Top shape: 100 64 10 5 (320000)
I1206 21:20:05.567081  8588 net.cpp:165] Memory required for data: 982723600
I1206 21:20:05.567097  8588 layer_factory.hpp:77] Creating layer inception_4b/relu_pool_proj
I1206 21:20:05.567123  8588 net.cpp:100] Creating Layer inception_4b/relu_pool_proj
I1206 21:20:05.567131  8588 net.cpp:434] inception_4b/relu_pool_proj <- inception_4b/pool_proj
I1206 21:20:05.567139  8588 net.cpp:395] inception_4b/relu_pool_proj -> inception_4b/pool_proj (in-place)
I1206 21:20:05.567428  8588 net.cpp:150] Setting up inception_4b/relu_pool_proj
I1206 21:20:05.567451  8588 net.cpp:157] Top shape: 100 64 10 5 (320000)
I1206 21:20:05.567457  8588 net.cpp:165] Memory required for data: 984003600
I1206 21:20:05.567463  8588 layer_factory.hpp:77] Creating layer inception_4b/output
I1206 21:20:05.567473  8588 net.cpp:100] Creating Layer inception_4b/output
I1206 21:20:05.567481  8588 net.cpp:434] inception_4b/output <- inception_4b/1x1
I1206 21:20:05.567488  8588 net.cpp:434] inception_4b/output <- inception_4b/3x3
I1206 21:20:05.567494  8588 net.cpp:434] inception_4b/output <- inception_4b/5x5
I1206 21:20:05.567502  8588 net.cpp:434] inception_4b/output <- inception_4b/pool_proj
I1206 21:20:05.567508  8588 net.cpp:408] inception_4b/output -> inception_4b/output
I1206 21:20:05.567551  8588 net.cpp:150] Setting up inception_4b/output
I1206 21:20:05.567569  8588 net.cpp:157] Top shape: 100 512 10 5 (2560000)
I1206 21:20:05.567575  8588 net.cpp:165] Memory required for data: 994243600
I1206 21:20:05.567581  8588 layer_factory.hpp:77] Creating layer inception_4b/output_inception_4b/output_0_split
I1206 21:20:05.567597  8588 net.cpp:100] Creating Layer inception_4b/output_inception_4b/output_0_split
I1206 21:20:05.567603  8588 net.cpp:434] inception_4b/output_inception_4b/output_0_split <- inception_4b/output
I1206 21:20:05.567621  8588 net.cpp:408] inception_4b/output_inception_4b/output_0_split -> inception_4b/output_inception_4b/output_0_split_0
I1206 21:20:05.567631  8588 net.cpp:408] inception_4b/output_inception_4b/output_0_split -> inception_4b/output_inception_4b/output_0_split_1
I1206 21:20:05.567657  8588 net.cpp:408] inception_4b/output_inception_4b/output_0_split -> inception_4b/output_inception_4b/output_0_split_2
I1206 21:20:05.567665  8588 net.cpp:408] inception_4b/output_inception_4b/output_0_split -> inception_4b/output_inception_4b/output_0_split_3
I1206 21:20:05.567728  8588 net.cpp:150] Setting up inception_4b/output_inception_4b/output_0_split
I1206 21:20:05.567745  8588 net.cpp:157] Top shape: 100 512 10 5 (2560000)
I1206 21:20:05.567751  8588 net.cpp:157] Top shape: 100 512 10 5 (2560000)
I1206 21:20:05.567757  8588 net.cpp:157] Top shape: 100 512 10 5 (2560000)
I1206 21:20:05.567764  8588 net.cpp:157] Top shape: 100 512 10 5 (2560000)
I1206 21:20:05.567770  8588 net.cpp:165] Memory required for data: 1035203600
I1206 21:20:05.567775  8588 layer_factory.hpp:77] Creating layer inception_4c/1x1
I1206 21:20:05.567793  8588 net.cpp:100] Creating Layer inception_4c/1x1
I1206 21:20:05.567801  8588 net.cpp:434] inception_4c/1x1 <- inception_4b/output_inception_4b/output_0_split_0
I1206 21:20:05.567811  8588 net.cpp:408] inception_4c/1x1 -> inception_4c/1x1
I1206 21:20:05.569098  8588 net.cpp:150] Setting up inception_4c/1x1
I1206 21:20:05.569125  8588 net.cpp:157] Top shape: 100 128 10 5 (640000)
I1206 21:20:05.569133  8588 net.cpp:165] Memory required for data: 1037763600
I1206 21:20:05.569150  8588 layer_factory.hpp:77] Creating layer inception_4c/relu_1x1
I1206 21:20:05.569159  8588 net.cpp:100] Creating Layer inception_4c/relu_1x1
I1206 21:20:05.569167  8588 net.cpp:434] inception_4c/relu_1x1 <- inception_4c/1x1
I1206 21:20:05.569175  8588 net.cpp:395] inception_4c/relu_1x1 -> inception_4c/1x1 (in-place)
I1206 21:20:05.569352  8588 net.cpp:150] Setting up inception_4c/relu_1x1
I1206 21:20:05.569366  8588 net.cpp:157] Top shape: 100 128 10 5 (640000)
I1206 21:20:05.569372  8588 net.cpp:165] Memory required for data: 1040323600
I1206 21:20:05.569380  8588 layer_factory.hpp:77] Creating layer inception_4c/3x3_reduce
I1206 21:20:05.569394  8588 net.cpp:100] Creating Layer inception_4c/3x3_reduce
I1206 21:20:05.569401  8588 net.cpp:434] inception_4c/3x3_reduce <- inception_4b/output_inception_4b/output_0_split_1
I1206 21:20:05.569425  8588 net.cpp:408] inception_4c/3x3_reduce -> inception_4c/3x3_reduce
I1206 21:20:05.570775  8588 net.cpp:150] Setting up inception_4c/3x3_reduce
I1206 21:20:05.570813  8588 net.cpp:157] Top shape: 100 128 10 5 (640000)
I1206 21:20:05.570819  8588 net.cpp:165] Memory required for data: 1042883600
I1206 21:20:05.570837  8588 layer_factory.hpp:77] Creating layer inception_4c/relu_3x3_reduce
I1206 21:20:05.570860  8588 net.cpp:100] Creating Layer inception_4c/relu_3x3_reduce
I1206 21:20:05.570868  8588 net.cpp:434] inception_4c/relu_3x3_reduce <- inception_4c/3x3_reduce
I1206 21:20:05.570875  8588 net.cpp:395] inception_4c/relu_3x3_reduce -> inception_4c/3x3_reduce (in-place)
I1206 21:20:05.571188  8588 net.cpp:150] Setting up inception_4c/relu_3x3_reduce
I1206 21:20:05.571218  8588 net.cpp:157] Top shape: 100 128 10 5 (640000)
I1206 21:20:05.571224  8588 net.cpp:165] Memory required for data: 1045443600
I1206 21:20:05.571230  8588 layer_factory.hpp:77] Creating layer inception_4c/3x3
I1206 21:20:05.571249  8588 net.cpp:100] Creating Layer inception_4c/3x3
I1206 21:20:05.571257  8588 net.cpp:434] inception_4c/3x3 <- inception_4c/3x3_reduce
I1206 21:20:05.571274  8588 net.cpp:408] inception_4c/3x3 -> inception_4c/3x3
I1206 21:20:05.574416  8588 net.cpp:150] Setting up inception_4c/3x3
I1206 21:20:05.574458  8588 net.cpp:157] Top shape: 100 256 10 5 (1280000)
I1206 21:20:05.574465  8588 net.cpp:165] Memory required for data: 1050563600
I1206 21:20:05.574482  8588 layer_factory.hpp:77] Creating layer inception_4c/relu_3x3
I1206 21:20:05.574493  8588 net.cpp:100] Creating Layer inception_4c/relu_3x3
I1206 21:20:05.574501  8588 net.cpp:434] inception_4c/relu_3x3 <- inception_4c/3x3
I1206 21:20:05.574512  8588 net.cpp:395] inception_4c/relu_3x3 -> inception_4c/3x3 (in-place)
I1206 21:20:05.574801  8588 net.cpp:150] Setting up inception_4c/relu_3x3
I1206 21:20:05.574839  8588 net.cpp:157] Top shape: 100 256 10 5 (1280000)
I1206 21:20:05.574846  8588 net.cpp:165] Memory required for data: 1055683600
I1206 21:20:05.574854  8588 layer_factory.hpp:77] Creating layer inception_4c/5x5_reduce
I1206 21:20:05.574872  8588 net.cpp:100] Creating Layer inception_4c/5x5_reduce
I1206 21:20:05.574882  8588 net.cpp:434] inception_4c/5x5_reduce <- inception_4b/output_inception_4b/output_0_split_2
I1206 21:20:05.574892  8588 net.cpp:408] inception_4c/5x5_reduce -> inception_4c/5x5_reduce
I1206 21:20:05.575913  8588 net.cpp:150] Setting up inception_4c/5x5_reduce
I1206 21:20:05.575949  8588 net.cpp:157] Top shape: 100 24 10 5 (120000)
I1206 21:20:05.575956  8588 net.cpp:165] Memory required for data: 1056163600
I1206 21:20:05.575974  8588 layer_factory.hpp:77] Creating layer inception_4c/relu_5x5_reduce
I1206 21:20:05.575992  8588 net.cpp:100] Creating Layer inception_4c/relu_5x5_reduce
I1206 21:20:05.576000  8588 net.cpp:434] inception_4c/relu_5x5_reduce <- inception_4c/5x5_reduce
I1206 21:20:05.576009  8588 net.cpp:395] inception_4c/relu_5x5_reduce -> inception_4c/5x5_reduce (in-place)
I1206 21:20:05.576164  8588 net.cpp:150] Setting up inception_4c/relu_5x5_reduce
I1206 21:20:05.576186  8588 net.cpp:157] Top shape: 100 24 10 5 (120000)
I1206 21:20:05.576192  8588 net.cpp:165] Memory required for data: 1056643600
I1206 21:20:05.576200  8588 layer_factory.hpp:77] Creating layer inception_4c/5x5
I1206 21:20:05.576212  8588 net.cpp:100] Creating Layer inception_4c/5x5
I1206 21:20:05.576220  8588 net.cpp:434] inception_4c/5x5 <- inception_4c/5x5_reduce
I1206 21:20:05.576230  8588 net.cpp:408] inception_4c/5x5 -> inception_4c/5x5
I1206 21:20:05.577524  8588 net.cpp:150] Setting up inception_4c/5x5
I1206 21:20:05.577556  8588 net.cpp:157] Top shape: 100 64 10 5 (320000)
I1206 21:20:05.577564  8588 net.cpp:165] Memory required for data: 1057923600
I1206 21:20:05.577577  8588 layer_factory.hpp:77] Creating layer inception_4c/relu_5x5
I1206 21:20:05.577590  8588 net.cpp:100] Creating Layer inception_4c/relu_5x5
I1206 21:20:05.577599  8588 net.cpp:434] inception_4c/relu_5x5 <- inception_4c/5x5
I1206 21:20:05.577611  8588 net.cpp:395] inception_4c/relu_5x5 -> inception_4c/5x5 (in-place)
I1206 21:20:05.577893  8588 net.cpp:150] Setting up inception_4c/relu_5x5
I1206 21:20:05.577916  8588 net.cpp:157] Top shape: 100 64 10 5 (320000)
I1206 21:20:05.577922  8588 net.cpp:165] Memory required for data: 1059203600
I1206 21:20:05.577929  8588 layer_factory.hpp:77] Creating layer inception_4c/pool
I1206 21:20:05.577947  8588 net.cpp:100] Creating Layer inception_4c/pool
I1206 21:20:05.577955  8588 net.cpp:434] inception_4c/pool <- inception_4b/output_inception_4b/output_0_split_3
I1206 21:20:05.577965  8588 net.cpp:408] inception_4c/pool -> inception_4c/pool
I1206 21:20:05.578013  8588 net.cpp:150] Setting up inception_4c/pool
I1206 21:20:05.578024  8588 net.cpp:157] Top shape: 100 512 10 5 (2560000)
I1206 21:20:05.578030  8588 net.cpp:165] Memory required for data: 1069443600
I1206 21:20:05.578037  8588 layer_factory.hpp:77] Creating layer inception_4c/pool_proj
I1206 21:20:05.578050  8588 net.cpp:100] Creating Layer inception_4c/pool_proj
I1206 21:20:05.578058  8588 net.cpp:434] inception_4c/pool_proj <- inception_4c/pool
I1206 21:20:05.578068  8588 net.cpp:408] inception_4c/pool_proj -> inception_4c/pool_proj
I1206 21:20:05.579502  8588 net.cpp:150] Setting up inception_4c/pool_proj
I1206 21:20:05.579548  8588 net.cpp:157] Top shape: 100 64 10 5 (320000)
I1206 21:20:05.579556  8588 net.cpp:165] Memory required for data: 1070723600
I1206 21:20:05.579587  8588 layer_factory.hpp:77] Creating layer inception_4c/relu_pool_proj
I1206 21:20:05.579599  8588 net.cpp:100] Creating Layer inception_4c/relu_pool_proj
I1206 21:20:05.579607  8588 net.cpp:434] inception_4c/relu_pool_proj <- inception_4c/pool_proj
I1206 21:20:05.579622  8588 net.cpp:395] inception_4c/relu_pool_proj -> inception_4c/pool_proj (in-place)
I1206 21:20:05.579923  8588 net.cpp:150] Setting up inception_4c/relu_pool_proj
I1206 21:20:05.579962  8588 net.cpp:157] Top shape: 100 64 10 5 (320000)
I1206 21:20:05.579969  8588 net.cpp:165] Memory required for data: 1072003600
I1206 21:20:05.579977  8588 layer_factory.hpp:77] Creating layer inception_4c/output
I1206 21:20:05.579988  8588 net.cpp:100] Creating Layer inception_4c/output
I1206 21:20:05.579994  8588 net.cpp:434] inception_4c/output <- inception_4c/1x1
I1206 21:20:05.580001  8588 net.cpp:434] inception_4c/output <- inception_4c/3x3
I1206 21:20:05.580008  8588 net.cpp:434] inception_4c/output <- inception_4c/5x5
I1206 21:20:05.580015  8588 net.cpp:434] inception_4c/output <- inception_4c/pool_proj
I1206 21:20:05.580023  8588 net.cpp:408] inception_4c/output -> inception_4c/output
I1206 21:20:05.580061  8588 net.cpp:150] Setting up inception_4c/output
I1206 21:20:05.580075  8588 net.cpp:157] Top shape: 100 512 10 5 (2560000)
I1206 21:20:05.580080  8588 net.cpp:165] Memory required for data: 1082243600
I1206 21:20:05.580086  8588 layer_factory.hpp:77] Creating layer inception_4c/output_inception_4c/output_0_split
I1206 21:20:05.580099  8588 net.cpp:100] Creating Layer inception_4c/output_inception_4c/output_0_split
I1206 21:20:05.580106  8588 net.cpp:434] inception_4c/output_inception_4c/output_0_split <- inception_4c/output
I1206 21:20:05.580114  8588 net.cpp:408] inception_4c/output_inception_4c/output_0_split -> inception_4c/output_inception_4c/output_0_split_0
I1206 21:20:05.580123  8588 net.cpp:408] inception_4c/output_inception_4c/output_0_split -> inception_4c/output_inception_4c/output_0_split_1
I1206 21:20:05.580132  8588 net.cpp:408] inception_4c/output_inception_4c/output_0_split -> inception_4c/output_inception_4c/output_0_split_2
I1206 21:20:05.580140  8588 net.cpp:408] inception_4c/output_inception_4c/output_0_split -> inception_4c/output_inception_4c/output_0_split_3
I1206 21:20:05.580210  8588 net.cpp:150] Setting up inception_4c/output_inception_4c/output_0_split
I1206 21:20:05.580221  8588 net.cpp:157] Top shape: 100 512 10 5 (2560000)
I1206 21:20:05.580229  8588 net.cpp:157] Top shape: 100 512 10 5 (2560000)
I1206 21:20:05.580235  8588 net.cpp:157] Top shape: 100 512 10 5 (2560000)
I1206 21:20:05.580246  8588 net.cpp:157] Top shape: 100 512 10 5 (2560000)
I1206 21:20:05.580252  8588 net.cpp:165] Memory required for data: 1123203600
I1206 21:20:05.580260  8588 layer_factory.hpp:77] Creating layer inception_4d/1x1
I1206 21:20:05.580274  8588 net.cpp:100] Creating Layer inception_4d/1x1
I1206 21:20:05.580282  8588 net.cpp:434] inception_4d/1x1 <- inception_4c/output_inception_4c/output_0_split_0
I1206 21:20:05.580291  8588 net.cpp:408] inception_4d/1x1 -> inception_4d/1x1
I1206 21:20:05.581612  8588 net.cpp:150] Setting up inception_4d/1x1
I1206 21:20:05.581648  8588 net.cpp:157] Top shape: 100 112 10 5 (560000)
I1206 21:20:05.581655  8588 net.cpp:165] Memory required for data: 1125443600
I1206 21:20:05.581674  8588 layer_factory.hpp:77] Creating layer inception_4d/relu_1x1
I1206 21:20:05.581691  8588 net.cpp:100] Creating Layer inception_4d/relu_1x1
I1206 21:20:05.581698  8588 net.cpp:434] inception_4d/relu_1x1 <- inception_4d/1x1
I1206 21:20:05.581707  8588 net.cpp:395] inception_4d/relu_1x1 -> inception_4d/1x1 (in-place)
I1206 21:20:05.581866  8588 net.cpp:150] Setting up inception_4d/relu_1x1
I1206 21:20:05.581887  8588 net.cpp:157] Top shape: 100 112 10 5 (560000)
I1206 21:20:05.581892  8588 net.cpp:165] Memory required for data: 1127683600
I1206 21:20:05.581898  8588 layer_factory.hpp:77] Creating layer inception_4d/3x3_reduce
I1206 21:20:05.581919  8588 net.cpp:100] Creating Layer inception_4d/3x3_reduce
I1206 21:20:05.581926  8588 net.cpp:434] inception_4d/3x3_reduce <- inception_4c/output_inception_4c/output_0_split_1
I1206 21:20:05.581935  8588 net.cpp:408] inception_4d/3x3_reduce -> inception_4d/3x3_reduce
I1206 21:20:05.583310  8588 net.cpp:150] Setting up inception_4d/3x3_reduce
I1206 21:20:05.583348  8588 net.cpp:157] Top shape: 100 144 10 5 (720000)
I1206 21:20:05.583353  8588 net.cpp:165] Memory required for data: 1130563600
I1206 21:20:05.583371  8588 layer_factory.hpp:77] Creating layer inception_4d/relu_3x3_reduce
I1206 21:20:05.583402  8588 net.cpp:100] Creating Layer inception_4d/relu_3x3_reduce
I1206 21:20:05.583410  8588 net.cpp:434] inception_4d/relu_3x3_reduce <- inception_4d/3x3_reduce
I1206 21:20:05.583418  8588 net.cpp:395] inception_4d/relu_3x3_reduce -> inception_4d/3x3_reduce (in-place)
I1206 21:20:05.583711  8588 net.cpp:150] Setting up inception_4d/relu_3x3_reduce
I1206 21:20:05.583739  8588 net.cpp:157] Top shape: 100 144 10 5 (720000)
I1206 21:20:05.583745  8588 net.cpp:165] Memory required for data: 1133443600
I1206 21:20:05.583750  8588 layer_factory.hpp:77] Creating layer inception_4d/3x3
I1206 21:20:05.583771  8588 net.cpp:100] Creating Layer inception_4d/3x3
I1206 21:20:05.583778  8588 net.cpp:434] inception_4d/3x3 <- inception_4d/3x3_reduce
I1206 21:20:05.583788  8588 net.cpp:408] inception_4d/3x3 -> inception_4d/3x3
I1206 21:20:05.587425  8588 net.cpp:150] Setting up inception_4d/3x3
I1206 21:20:05.587486  8588 net.cpp:157] Top shape: 100 288 10 5 (1440000)
I1206 21:20:05.587492  8588 net.cpp:165] Memory required for data: 1139203600
I1206 21:20:05.587513  8588 layer_factory.hpp:77] Creating layer inception_4d/relu_3x3
I1206 21:20:05.587533  8588 net.cpp:100] Creating Layer inception_4d/relu_3x3
I1206 21:20:05.587541  8588 net.cpp:434] inception_4d/relu_3x3 <- inception_4d/3x3
I1206 21:20:05.587551  8588 net.cpp:395] inception_4d/relu_3x3 -> inception_4d/3x3 (in-place)
I1206 21:20:05.587851  8588 net.cpp:150] Setting up inception_4d/relu_3x3
I1206 21:20:05.587883  8588 net.cpp:157] Top shape: 100 288 10 5 (1440000)
I1206 21:20:05.587890  8588 net.cpp:165] Memory required for data: 1144963600
I1206 21:20:05.587896  8588 layer_factory.hpp:77] Creating layer inception_4d/5x5_reduce
I1206 21:20:05.587915  8588 net.cpp:100] Creating Layer inception_4d/5x5_reduce
I1206 21:20:05.587924  8588 net.cpp:434] inception_4d/5x5_reduce <- inception_4c/output_inception_4c/output_0_split_2
I1206 21:20:05.587934  8588 net.cpp:408] inception_4d/5x5_reduce -> inception_4d/5x5_reduce
I1206 21:20:05.589015  8588 net.cpp:150] Setting up inception_4d/5x5_reduce
I1206 21:20:05.589052  8588 net.cpp:157] Top shape: 100 32 10 5 (160000)
I1206 21:20:05.589059  8588 net.cpp:165] Memory required for data: 1145603600
I1206 21:20:05.589079  8588 layer_factory.hpp:77] Creating layer inception_4d/relu_5x5_reduce
I1206 21:20:05.589089  8588 net.cpp:100] Creating Layer inception_4d/relu_5x5_reduce
I1206 21:20:05.589097  8588 net.cpp:434] inception_4d/relu_5x5_reduce <- inception_4d/5x5_reduce
I1206 21:20:05.589105  8588 net.cpp:395] inception_4d/relu_5x5_reduce -> inception_4d/5x5_reduce (in-place)
I1206 21:20:05.589267  8588 net.cpp:150] Setting up inception_4d/relu_5x5_reduce
I1206 21:20:05.589284  8588 net.cpp:157] Top shape: 100 32 10 5 (160000)
I1206 21:20:05.589290  8588 net.cpp:165] Memory required for data: 1146243600
I1206 21:20:05.589298  8588 layer_factory.hpp:77] Creating layer inception_4d/5x5
I1206 21:20:05.589337  8588 net.cpp:100] Creating Layer inception_4d/5x5
I1206 21:20:05.589345  8588 net.cpp:434] inception_4d/5x5 <- inception_4d/5x5_reduce
I1206 21:20:05.589354  8588 net.cpp:408] inception_4d/5x5 -> inception_4d/5x5
I1206 21:20:05.590633  8588 net.cpp:150] Setting up inception_4d/5x5
I1206 21:20:05.590674  8588 net.cpp:157] Top shape: 100 64 10 5 (320000)
I1206 21:20:05.590682  8588 net.cpp:165] Memory required for data: 1147523600
I1206 21:20:05.590699  8588 layer_factory.hpp:77] Creating layer inception_4d/relu_5x5
I1206 21:20:05.590718  8588 net.cpp:100] Creating Layer inception_4d/relu_5x5
I1206 21:20:05.590724  8588 net.cpp:434] inception_4d/relu_5x5 <- inception_4d/5x5
I1206 21:20:05.590731  8588 net.cpp:395] inception_4d/relu_5x5 -> inception_4d/5x5 (in-place)
I1206 21:20:05.591007  8588 net.cpp:150] Setting up inception_4d/relu_5x5
I1206 21:20:05.591037  8588 net.cpp:157] Top shape: 100 64 10 5 (320000)
I1206 21:20:05.591043  8588 net.cpp:165] Memory required for data: 1148803600
I1206 21:20:05.591050  8588 layer_factory.hpp:77] Creating layer inception_4d/pool
I1206 21:20:05.591084  8588 net.cpp:100] Creating Layer inception_4d/pool
I1206 21:20:05.591091  8588 net.cpp:434] inception_4d/pool <- inception_4c/output_inception_4c/output_0_split_3
I1206 21:20:05.591112  8588 net.cpp:408] inception_4d/pool -> inception_4d/pool
I1206 21:20:05.591176  8588 net.cpp:150] Setting up inception_4d/pool
I1206 21:20:05.591187  8588 net.cpp:157] Top shape: 100 512 10 5 (2560000)
I1206 21:20:05.591192  8588 net.cpp:165] Memory required for data: 1159043600
I1206 21:20:05.591197  8588 layer_factory.hpp:77] Creating layer inception_4d/pool_proj
I1206 21:20:05.591219  8588 net.cpp:100] Creating Layer inception_4d/pool_proj
I1206 21:20:05.591228  8588 net.cpp:434] inception_4d/pool_proj <- inception_4d/pool
I1206 21:20:05.591245  8588 net.cpp:408] inception_4d/pool_proj -> inception_4d/pool_proj
I1206 21:20:05.592255  8588 net.cpp:150] Setting up inception_4d/pool_proj
I1206 21:20:05.592283  8588 net.cpp:157] Top shape: 100 64 10 5 (320000)
I1206 21:20:05.592290  8588 net.cpp:165] Memory required for data: 1160323600
I1206 21:20:05.592303  8588 layer_factory.hpp:77] Creating layer inception_4d/relu_pool_proj
I1206 21:20:05.592319  8588 net.cpp:100] Creating Layer inception_4d/relu_pool_proj
I1206 21:20:05.592327  8588 net.cpp:434] inception_4d/relu_pool_proj <- inception_4d/pool_proj
I1206 21:20:05.592334  8588 net.cpp:395] inception_4d/relu_pool_proj -> inception_4d/pool_proj (in-place)
I1206 21:20:05.592638  8588 net.cpp:150] Setting up inception_4d/relu_pool_proj
I1206 21:20:05.592666  8588 net.cpp:157] Top shape: 100 64 10 5 (320000)
I1206 21:20:05.592672  8588 net.cpp:165] Memory required for data: 1161603600
I1206 21:20:05.592679  8588 layer_factory.hpp:77] Creating layer inception_4d/output
I1206 21:20:05.592695  8588 net.cpp:100] Creating Layer inception_4d/output
I1206 21:20:05.592702  8588 net.cpp:434] inception_4d/output <- inception_4d/1x1
I1206 21:20:05.592718  8588 net.cpp:434] inception_4d/output <- inception_4d/3x3
I1206 21:20:05.592725  8588 net.cpp:434] inception_4d/output <- inception_4d/5x5
I1206 21:20:05.592731  8588 net.cpp:434] inception_4d/output <- inception_4d/pool_proj
I1206 21:20:05.592751  8588 net.cpp:408] inception_4d/output -> inception_4d/output
I1206 21:20:05.592797  8588 net.cpp:150] Setting up inception_4d/output
I1206 21:20:05.592814  8588 net.cpp:157] Top shape: 100 528 10 5 (2640000)
I1206 21:20:05.592819  8588 net.cpp:165] Memory required for data: 1172163600
I1206 21:20:05.592825  8588 layer_factory.hpp:77] Creating layer inception_4d/output_inception_4d/output_0_split
I1206 21:20:05.592841  8588 net.cpp:100] Creating Layer inception_4d/output_inception_4d/output_0_split
I1206 21:20:05.592847  8588 net.cpp:434] inception_4d/output_inception_4d/output_0_split <- inception_4d/output
I1206 21:20:05.592864  8588 net.cpp:408] inception_4d/output_inception_4d/output_0_split -> inception_4d/output_inception_4d/output_0_split_0
I1206 21:20:05.592872  8588 net.cpp:408] inception_4d/output_inception_4d/output_0_split -> inception_4d/output_inception_4d/output_0_split_1
I1206 21:20:05.592880  8588 net.cpp:408] inception_4d/output_inception_4d/output_0_split -> inception_4d/output_inception_4d/output_0_split_2
I1206 21:20:05.592897  8588 net.cpp:408] inception_4d/output_inception_4d/output_0_split -> inception_4d/output_inception_4d/output_0_split_3
I1206 21:20:05.592960  8588 net.cpp:150] Setting up inception_4d/output_inception_4d/output_0_split
I1206 21:20:05.592972  8588 net.cpp:157] Top shape: 100 528 10 5 (2640000)
I1206 21:20:05.592978  8588 net.cpp:157] Top shape: 100 528 10 5 (2640000)
I1206 21:20:05.592991  8588 net.cpp:157] Top shape: 100 528 10 5 (2640000)
I1206 21:20:05.592998  8588 net.cpp:157] Top shape: 100 528 10 5 (2640000)
I1206 21:20:05.593003  8588 net.cpp:165] Memory required for data: 1214403600
I1206 21:20:05.593009  8588 layer_factory.hpp:77] Creating layer inception_4e/1x1
I1206 21:20:05.593030  8588 net.cpp:100] Creating Layer inception_4e/1x1
I1206 21:20:05.593039  8588 net.cpp:434] inception_4e/1x1 <- inception_4d/output_inception_4d/output_0_split_0
I1206 21:20:05.593066  8588 net.cpp:408] inception_4e/1x1 -> inception_4e/1x1
I1206 21:20:05.595398  8588 net.cpp:150] Setting up inception_4e/1x1
I1206 21:20:05.595458  8588 net.cpp:157] Top shape: 100 256 10 5 (1280000)
I1206 21:20:05.595464  8588 net.cpp:165] Memory required for data: 1219523600
I1206 21:20:05.595489  8588 layer_factory.hpp:77] Creating layer inception_4e/relu_1x1
I1206 21:20:05.595508  8588 net.cpp:100] Creating Layer inception_4e/relu_1x1
I1206 21:20:05.595516  8588 net.cpp:434] inception_4e/relu_1x1 <- inception_4e/1x1
I1206 21:20:05.595532  8588 net.cpp:395] inception_4e/relu_1x1 -> inception_4e/1x1 (in-place)
I1206 21:20:05.595686  8588 net.cpp:150] Setting up inception_4e/relu_1x1
I1206 21:20:05.595706  8588 net.cpp:157] Top shape: 100 256 10 5 (1280000)
I1206 21:20:05.595712  8588 net.cpp:165] Memory required for data: 1224643600
I1206 21:20:05.595718  8588 layer_factory.hpp:77] Creating layer inception_4e/3x3_reduce
I1206 21:20:05.595736  8588 net.cpp:100] Creating Layer inception_4e/3x3_reduce
I1206 21:20:05.595743  8588 net.cpp:434] inception_4e/3x3_reduce <- inception_4d/output_inception_4d/output_0_split_1
I1206 21:20:05.595762  8588 net.cpp:408] inception_4e/3x3_reduce -> inception_4e/3x3_reduce
I1206 21:20:05.597221  8588 net.cpp:150] Setting up inception_4e/3x3_reduce
I1206 21:20:05.597259  8588 net.cpp:157] Top shape: 100 160 10 5 (800000)
I1206 21:20:05.597265  8588 net.cpp:165] Memory required for data: 1227843600
I1206 21:20:05.597275  8588 layer_factory.hpp:77] Creating layer inception_4e/relu_3x3_reduce
I1206 21:20:05.597295  8588 net.cpp:100] Creating Layer inception_4e/relu_3x3_reduce
I1206 21:20:05.597326  8588 net.cpp:434] inception_4e/relu_3x3_reduce <- inception_4e/3x3_reduce
I1206 21:20:05.597342  8588 net.cpp:395] inception_4e/relu_3x3_reduce -> inception_4e/3x3_reduce (in-place)
I1206 21:20:05.597625  8588 net.cpp:150] Setting up inception_4e/relu_3x3_reduce
I1206 21:20:05.597646  8588 net.cpp:157] Top shape: 100 160 10 5 (800000)
I1206 21:20:05.597653  8588 net.cpp:165] Memory required for data: 1231043600
I1206 21:20:05.597659  8588 layer_factory.hpp:77] Creating layer inception_4e/3x3
I1206 21:20:05.597687  8588 net.cpp:100] Creating Layer inception_4e/3x3
I1206 21:20:05.597694  8588 net.cpp:434] inception_4e/3x3 <- inception_4e/3x3_reduce
I1206 21:20:05.597713  8588 net.cpp:408] inception_4e/3x3 -> inception_4e/3x3
I1206 21:20:05.601956  8588 net.cpp:150] Setting up inception_4e/3x3
I1206 21:20:05.602017  8588 net.cpp:157] Top shape: 100 320 10 5 (1600000)
I1206 21:20:05.602025  8588 net.cpp:165] Memory required for data: 1237443600
I1206 21:20:05.602049  8588 layer_factory.hpp:77] Creating layer inception_4e/relu_3x3
I1206 21:20:05.602061  8588 net.cpp:100] Creating Layer inception_4e/relu_3x3
I1206 21:20:05.602069  8588 net.cpp:434] inception_4e/relu_3x3 <- inception_4e/3x3
I1206 21:20:05.602078  8588 net.cpp:395] inception_4e/relu_3x3 -> inception_4e/3x3 (in-place)
I1206 21:20:05.602372  8588 net.cpp:150] Setting up inception_4e/relu_3x3
I1206 21:20:05.602402  8588 net.cpp:157] Top shape: 100 320 10 5 (1600000)
I1206 21:20:05.602409  8588 net.cpp:165] Memory required for data: 1243843600
I1206 21:20:05.602416  8588 layer_factory.hpp:77] Creating layer inception_4e/5x5_reduce
I1206 21:20:05.602433  8588 net.cpp:100] Creating Layer inception_4e/5x5_reduce
I1206 21:20:05.602452  8588 net.cpp:434] inception_4e/5x5_reduce <- inception_4d/output_inception_4d/output_0_split_2
I1206 21:20:05.602463  8588 net.cpp:408] inception_4e/5x5_reduce -> inception_4e/5x5_reduce
I1206 21:20:05.603551  8588 net.cpp:150] Setting up inception_4e/5x5_reduce
I1206 21:20:05.603586  8588 net.cpp:157] Top shape: 100 32 10 5 (160000)
I1206 21:20:05.603593  8588 net.cpp:165] Memory required for data: 1244483600
I1206 21:20:05.603602  8588 layer_factory.hpp:77] Creating layer inception_4e/relu_5x5_reduce
I1206 21:20:05.603619  8588 net.cpp:100] Creating Layer inception_4e/relu_5x5_reduce
I1206 21:20:05.603626  8588 net.cpp:434] inception_4e/relu_5x5_reduce <- inception_4e/5x5_reduce
I1206 21:20:05.603654  8588 net.cpp:395] inception_4e/relu_5x5_reduce -> inception_4e/5x5_reduce (in-place)
I1206 21:20:05.603814  8588 net.cpp:150] Setting up inception_4e/relu_5x5_reduce
I1206 21:20:05.603833  8588 net.cpp:157] Top shape: 100 32 10 5 (160000)
I1206 21:20:05.603840  8588 net.cpp:165] Memory required for data: 1245123600
I1206 21:20:05.603847  8588 layer_factory.hpp:77] Creating layer inception_4e/5x5
I1206 21:20:05.603868  8588 net.cpp:100] Creating Layer inception_4e/5x5
I1206 21:20:05.603874  8588 net.cpp:434] inception_4e/5x5 <- inception_4e/5x5_reduce
I1206 21:20:05.603884  8588 net.cpp:408] inception_4e/5x5 -> inception_4e/5x5
I1206 21:20:05.605896  8588 net.cpp:150] Setting up inception_4e/5x5
I1206 21:20:05.605954  8588 net.cpp:157] Top shape: 100 128 10 5 (640000)
I1206 21:20:05.605962  8588 net.cpp:165] Memory required for data: 1247683600
I1206 21:20:05.605985  8588 layer_factory.hpp:77] Creating layer inception_4e/relu_5x5
I1206 21:20:05.606006  8588 net.cpp:100] Creating Layer inception_4e/relu_5x5
I1206 21:20:05.606024  8588 net.cpp:434] inception_4e/relu_5x5 <- inception_4e/5x5
I1206 21:20:05.606031  8588 net.cpp:395] inception_4e/relu_5x5 -> inception_4e/5x5 (in-place)
I1206 21:20:05.606331  8588 net.cpp:150] Setting up inception_4e/relu_5x5
I1206 21:20:05.606360  8588 net.cpp:157] Top shape: 100 128 10 5 (640000)
I1206 21:20:05.606367  8588 net.cpp:165] Memory required for data: 1250243600
I1206 21:20:05.606374  8588 layer_factory.hpp:77] Creating layer inception_4e/pool
I1206 21:20:05.606389  8588 net.cpp:100] Creating Layer inception_4e/pool
I1206 21:20:05.606395  8588 net.cpp:434] inception_4e/pool <- inception_4d/output_inception_4d/output_0_split_3
I1206 21:20:05.606411  8588 net.cpp:408] inception_4e/pool -> inception_4e/pool
I1206 21:20:05.606475  8588 net.cpp:150] Setting up inception_4e/pool
I1206 21:20:05.606493  8588 net.cpp:157] Top shape: 100 528 10 5 (2640000)
I1206 21:20:05.606499  8588 net.cpp:165] Memory required for data: 1260803600
I1206 21:20:05.606505  8588 layer_factory.hpp:77] Creating layer inception_4e/pool_proj
I1206 21:20:05.606528  8588 net.cpp:100] Creating Layer inception_4e/pool_proj
I1206 21:20:05.606549  8588 net.cpp:434] inception_4e/pool_proj <- inception_4e/pool
I1206 21:20:05.606569  8588 net.cpp:408] inception_4e/pool_proj -> inception_4e/pool_proj
I1206 21:20:05.607800  8588 net.cpp:150] Setting up inception_4e/pool_proj
I1206 21:20:05.607836  8588 net.cpp:157] Top shape: 100 128 10 5 (640000)
I1206 21:20:05.607843  8588 net.cpp:165] Memory required for data: 1263363600
I1206 21:20:05.607863  8588 layer_factory.hpp:77] Creating layer inception_4e/relu_pool_proj
I1206 21:20:05.607880  8588 net.cpp:100] Creating Layer inception_4e/relu_pool_proj
I1206 21:20:05.607887  8588 net.cpp:434] inception_4e/relu_pool_proj <- inception_4e/pool_proj
I1206 21:20:05.607904  8588 net.cpp:395] inception_4e/relu_pool_proj -> inception_4e/pool_proj (in-place)
I1206 21:20:05.608211  8588 net.cpp:150] Setting up inception_4e/relu_pool_proj
I1206 21:20:05.608239  8588 net.cpp:157] Top shape: 100 128 10 5 (640000)
I1206 21:20:05.608247  8588 net.cpp:165] Memory required for data: 1265923600
I1206 21:20:05.608253  8588 layer_factory.hpp:77] Creating layer inception_4e/output
I1206 21:20:05.608260  8588 net.cpp:100] Creating Layer inception_4e/output
I1206 21:20:05.608276  8588 net.cpp:434] inception_4e/output <- inception_4e/1x1
I1206 21:20:05.608285  8588 net.cpp:434] inception_4e/output <- inception_4e/3x3
I1206 21:20:05.608292  8588 net.cpp:434] inception_4e/output <- inception_4e/5x5
I1206 21:20:05.608299  8588 net.cpp:434] inception_4e/output <- inception_4e/pool_proj
I1206 21:20:05.608306  8588 net.cpp:408] inception_4e/output -> inception_4e/output
I1206 21:20:05.608346  8588 net.cpp:150] Setting up inception_4e/output
I1206 21:20:05.608364  8588 net.cpp:157] Top shape: 100 832 10 5 (4160000)
I1206 21:20:05.608371  8588 net.cpp:165] Memory required for data: 1282563600
I1206 21:20:05.608376  8588 layer_factory.hpp:77] Creating layer inception_4e/output_inception_4e/output_0_split
I1206 21:20:05.608410  8588 net.cpp:100] Creating Layer inception_4e/output_inception_4e/output_0_split
I1206 21:20:05.608417  8588 net.cpp:434] inception_4e/output_inception_4e/output_0_split <- inception_4e/output
I1206 21:20:05.608427  8588 net.cpp:408] inception_4e/output_inception_4e/output_0_split -> inception_4e/output_inception_4e/output_0_split_0
I1206 21:20:05.608444  8588 net.cpp:408] inception_4e/output_inception_4e/output_0_split -> inception_4e/output_inception_4e/output_0_split_1
I1206 21:20:05.608453  8588 net.cpp:408] inception_4e/output_inception_4e/output_0_split -> inception_4e/output_inception_4e/output_0_split_2
I1206 21:20:05.608460  8588 net.cpp:408] inception_4e/output_inception_4e/output_0_split -> inception_4e/output_inception_4e/output_0_split_3
I1206 21:20:05.608536  8588 net.cpp:150] Setting up inception_4e/output_inception_4e/output_0_split
I1206 21:20:05.608544  8588 net.cpp:157] Top shape: 100 832 10 5 (4160000)
I1206 21:20:05.608551  8588 net.cpp:157] Top shape: 100 832 10 5 (4160000)
I1206 21:20:05.608556  8588 net.cpp:157] Top shape: 100 832 10 5 (4160000)
I1206 21:20:05.608562  8588 net.cpp:157] Top shape: 100 832 10 5 (4160000)
I1206 21:20:05.608568  8588 net.cpp:165] Memory required for data: 1349123600
I1206 21:20:05.608573  8588 layer_factory.hpp:77] Creating layer inception_5a/1x1
I1206 21:20:05.608593  8588 net.cpp:100] Creating Layer inception_5a/1x1
I1206 21:20:05.608600  8588 net.cpp:434] inception_5a/1x1 <- inception_4e/output_inception_4e/output_0_split_0
I1206 21:20:05.608616  8588 net.cpp:408] inception_5a/1x1 -> inception_5a/1x1
I1206 21:20:05.611239  8588 net.cpp:150] Setting up inception_5a/1x1
I1206 21:20:05.611291  8588 net.cpp:157] Top shape: 100 256 10 5 (1280000)
I1206 21:20:05.611299  8588 net.cpp:165] Memory required for data: 1354243600
I1206 21:20:05.611320  8588 layer_factory.hpp:77] Creating layer inception_5a/relu_1x1
I1206 21:20:05.611340  8588 net.cpp:100] Creating Layer inception_5a/relu_1x1
I1206 21:20:05.611346  8588 net.cpp:434] inception_5a/relu_1x1 <- inception_5a/1x1
I1206 21:20:05.611363  8588 net.cpp:395] inception_5a/relu_1x1 -> inception_5a/1x1 (in-place)
I1206 21:20:05.611531  8588 net.cpp:150] Setting up inception_5a/relu_1x1
I1206 21:20:05.611559  8588 net.cpp:157] Top shape: 100 256 10 5 (1280000)
I1206 21:20:05.611565  8588 net.cpp:165] Memory required for data: 1359363600
I1206 21:20:05.611572  8588 layer_factory.hpp:77] Creating layer inception_5a/3x3_reduce
I1206 21:20:05.611591  8588 net.cpp:100] Creating Layer inception_5a/3x3_reduce
I1206 21:20:05.611599  8588 net.cpp:434] inception_5a/3x3_reduce <- inception_4e/output_inception_4e/output_0_split_1
I1206 21:20:05.611608  8588 net.cpp:408] inception_5a/3x3_reduce -> inception_5a/3x3_reduce
I1206 21:20:05.613843  8588 net.cpp:150] Setting up inception_5a/3x3_reduce
I1206 21:20:05.613893  8588 net.cpp:157] Top shape: 100 160 10 5 (800000)
I1206 21:20:05.613901  8588 net.cpp:165] Memory required for data: 1362563600
I1206 21:20:05.613920  8588 layer_factory.hpp:77] Creating layer inception_5a/relu_3x3_reduce
I1206 21:20:05.613934  8588 net.cpp:100] Creating Layer inception_5a/relu_3x3_reduce
I1206 21:20:05.613945  8588 net.cpp:434] inception_5a/relu_3x3_reduce <- inception_5a/3x3_reduce
I1206 21:20:05.613953  8588 net.cpp:395] inception_5a/relu_3x3_reduce -> inception_5a/3x3_reduce (in-place)
I1206 21:20:05.614241  8588 net.cpp:150] Setting up inception_5a/relu_3x3_reduce
I1206 21:20:05.614270  8588 net.cpp:157] Top shape: 100 160 10 5 (800000)
I1206 21:20:05.614277  8588 net.cpp:165] Memory required for data: 1365763600
I1206 21:20:05.614294  8588 layer_factory.hpp:77] Creating layer inception_5a/3x3
I1206 21:20:05.614313  8588 net.cpp:100] Creating Layer inception_5a/3x3
I1206 21:20:05.614321  8588 net.cpp:434] inception_5a/3x3 <- inception_5a/3x3_reduce
I1206 21:20:05.614331  8588 net.cpp:408] inception_5a/3x3 -> inception_5a/3x3
I1206 21:20:05.618767  8588 net.cpp:150] Setting up inception_5a/3x3
I1206 21:20:05.618823  8588 net.cpp:157] Top shape: 100 320 10 5 (1600000)
I1206 21:20:05.618850  8588 net.cpp:165] Memory required for data: 1372163600
I1206 21:20:05.618880  8588 layer_factory.hpp:77] Creating layer inception_5a/relu_3x3
I1206 21:20:05.618902  8588 net.cpp:100] Creating Layer inception_5a/relu_3x3
I1206 21:20:05.618911  8588 net.cpp:434] inception_5a/relu_3x3 <- inception_5a/3x3
I1206 21:20:05.618919  8588 net.cpp:395] inception_5a/relu_3x3 -> inception_5a/3x3 (in-place)
I1206 21:20:05.619223  8588 net.cpp:150] Setting up inception_5a/relu_3x3
I1206 21:20:05.619252  8588 net.cpp:157] Top shape: 100 320 10 5 (1600000)
I1206 21:20:05.619259  8588 net.cpp:165] Memory required for data: 1378563600
I1206 21:20:05.619266  8588 layer_factory.hpp:77] Creating layer inception_5a/5x5_reduce
I1206 21:20:05.619287  8588 net.cpp:100] Creating Layer inception_5a/5x5_reduce
I1206 21:20:05.619294  8588 net.cpp:434] inception_5a/5x5_reduce <- inception_4e/output_inception_4e/output_0_split_2
I1206 21:20:05.619312  8588 net.cpp:408] inception_5a/5x5_reduce -> inception_5a/5x5_reduce
I1206 21:20:05.620507  8588 net.cpp:150] Setting up inception_5a/5x5_reduce
I1206 21:20:05.620546  8588 net.cpp:157] Top shape: 100 32 10 5 (160000)
I1206 21:20:05.620553  8588 net.cpp:165] Memory required for data: 1379203600
I1206 21:20:05.620563  8588 layer_factory.hpp:77] Creating layer inception_5a/relu_5x5_reduce
I1206 21:20:05.620580  8588 net.cpp:100] Creating Layer inception_5a/relu_5x5_reduce
I1206 21:20:05.620589  8588 net.cpp:434] inception_5a/relu_5x5_reduce <- inception_5a/5x5_reduce
I1206 21:20:05.620612  8588 net.cpp:395] inception_5a/relu_5x5_reduce -> inception_5a/5x5_reduce (in-place)
I1206 21:20:05.620774  8588 net.cpp:150] Setting up inception_5a/relu_5x5_reduce
I1206 21:20:05.620792  8588 net.cpp:157] Top shape: 100 32 10 5 (160000)
I1206 21:20:05.620800  8588 net.cpp:165] Memory required for data: 1379843600
I1206 21:20:05.620816  8588 layer_factory.hpp:77] Creating layer inception_5a/5x5
I1206 21:20:05.620843  8588 net.cpp:100] Creating Layer inception_5a/5x5
I1206 21:20:05.620851  8588 net.cpp:434] inception_5a/5x5 <- inception_5a/5x5_reduce
I1206 21:20:05.620867  8588 net.cpp:408] inception_5a/5x5 -> inception_5a/5x5
I1206 21:20:05.622469  8588 net.cpp:150] Setting up inception_5a/5x5
I1206 21:20:05.622509  8588 net.cpp:157] Top shape: 100 128 10 5 (640000)
I1206 21:20:05.622515  8588 net.cpp:165] Memory required for data: 1382403600
I1206 21:20:05.622526  8588 layer_factory.hpp:77] Creating layer inception_5a/relu_5x5
I1206 21:20:05.622550  8588 net.cpp:100] Creating Layer inception_5a/relu_5x5
I1206 21:20:05.622557  8588 net.cpp:434] inception_5a/relu_5x5 <- inception_5a/5x5
I1206 21:20:05.622565  8588 net.cpp:395] inception_5a/relu_5x5 -> inception_5a/5x5 (in-place)
I1206 21:20:05.622867  8588 net.cpp:150] Setting up inception_5a/relu_5x5
I1206 21:20:05.622897  8588 net.cpp:157] Top shape: 100 128 10 5 (640000)
I1206 21:20:05.622905  8588 net.cpp:165] Memory required for data: 1384963600
I1206 21:20:05.622910  8588 layer_factory.hpp:77] Creating layer inception_5a/pool
I1206 21:20:05.622920  8588 net.cpp:100] Creating Layer inception_5a/pool
I1206 21:20:05.622936  8588 net.cpp:434] inception_5a/pool <- inception_4e/output_inception_4e/output_0_split_3
I1206 21:20:05.622954  8588 net.cpp:408] inception_5a/pool -> inception_5a/pool
I1206 21:20:05.623014  8588 net.cpp:150] Setting up inception_5a/pool
I1206 21:20:05.623033  8588 net.cpp:157] Top shape: 100 832 10 5 (4160000)
I1206 21:20:05.623039  8588 net.cpp:165] Memory required for data: 1401603600
I1206 21:20:05.623044  8588 layer_factory.hpp:77] Creating layer inception_5a/pool_proj
I1206 21:20:05.623067  8588 net.cpp:100] Creating Layer inception_5a/pool_proj
I1206 21:20:05.623085  8588 net.cpp:434] inception_5a/pool_proj <- inception_5a/pool
I1206 21:20:05.623093  8588 net.cpp:408] inception_5a/pool_proj -> inception_5a/pool_proj
I1206 21:20:05.625025  8588 net.cpp:150] Setting up inception_5a/pool_proj
I1206 21:20:05.625067  8588 net.cpp:157] Top shape: 100 128 10 5 (640000)
I1206 21:20:05.625074  8588 net.cpp:165] Memory required for data: 1404163600
I1206 21:20:05.625108  8588 layer_factory.hpp:77] Creating layer inception_5a/relu_pool_proj
I1206 21:20:05.625118  8588 net.cpp:100] Creating Layer inception_5a/relu_pool_proj
I1206 21:20:05.625126  8588 net.cpp:434] inception_5a/relu_pool_proj <- inception_5a/pool_proj
I1206 21:20:05.625141  8588 net.cpp:395] inception_5a/relu_pool_proj -> inception_5a/pool_proj (in-place)
I1206 21:20:05.625448  8588 net.cpp:150] Setting up inception_5a/relu_pool_proj
I1206 21:20:05.625478  8588 net.cpp:157] Top shape: 100 128 10 5 (640000)
I1206 21:20:05.625484  8588 net.cpp:165] Memory required for data: 1406723600
I1206 21:20:05.625491  8588 layer_factory.hpp:77] Creating layer inception_5a/output
I1206 21:20:05.625499  8588 net.cpp:100] Creating Layer inception_5a/output
I1206 21:20:05.625506  8588 net.cpp:434] inception_5a/output <- inception_5a/1x1
I1206 21:20:05.625522  8588 net.cpp:434] inception_5a/output <- inception_5a/3x3
I1206 21:20:05.625530  8588 net.cpp:434] inception_5a/output <- inception_5a/5x5
I1206 21:20:05.625536  8588 net.cpp:434] inception_5a/output <- inception_5a/pool_proj
I1206 21:20:05.625551  8588 net.cpp:408] inception_5a/output -> inception_5a/output
I1206 21:20:05.625594  8588 net.cpp:150] Setting up inception_5a/output
I1206 21:20:05.625612  8588 net.cpp:157] Top shape: 100 832 10 5 (4160000)
I1206 21:20:05.625618  8588 net.cpp:165] Memory required for data: 1423363600
I1206 21:20:05.625624  8588 layer_factory.hpp:77] Creating layer inception_5a/output_inception_5a/output_0_split
I1206 21:20:05.625641  8588 net.cpp:100] Creating Layer inception_5a/output_inception_5a/output_0_split
I1206 21:20:05.625648  8588 net.cpp:434] inception_5a/output_inception_5a/output_0_split <- inception_5a/output
I1206 21:20:05.625663  8588 net.cpp:408] inception_5a/output_inception_5a/output_0_split -> inception_5a/output_inception_5a/output_0_split_0
I1206 21:20:05.625672  8588 net.cpp:408] inception_5a/output_inception_5a/output_0_split -> inception_5a/output_inception_5a/output_0_split_1
I1206 21:20:05.625680  8588 net.cpp:408] inception_5a/output_inception_5a/output_0_split -> inception_5a/output_inception_5a/output_0_split_2
I1206 21:20:05.625699  8588 net.cpp:408] inception_5a/output_inception_5a/output_0_split -> inception_5a/output_inception_5a/output_0_split_3
I1206 21:20:05.625774  8588 net.cpp:150] Setting up inception_5a/output_inception_5a/output_0_split
I1206 21:20:05.625787  8588 net.cpp:157] Top shape: 100 832 10 5 (4160000)
I1206 21:20:05.625794  8588 net.cpp:157] Top shape: 100 832 10 5 (4160000)
I1206 21:20:05.625800  8588 net.cpp:157] Top shape: 100 832 10 5 (4160000)
I1206 21:20:05.625808  8588 net.cpp:157] Top shape: 100 832 10 5 (4160000)
I1206 21:20:05.625820  8588 net.cpp:165] Memory required for data: 1489923600
I1206 21:20:05.625828  8588 layer_factory.hpp:77] Creating layer inception_5b/1x1
I1206 21:20:05.625850  8588 net.cpp:100] Creating Layer inception_5b/1x1
I1206 21:20:05.625857  8588 net.cpp:434] inception_5b/1x1 <- inception_5a/output_inception_5a/output_0_split_0
I1206 21:20:05.625875  8588 net.cpp:408] inception_5b/1x1 -> inception_5b/1x1
I1206 21:20:05.629168  8588 net.cpp:150] Setting up inception_5b/1x1
I1206 21:20:05.629221  8588 net.cpp:157] Top shape: 100 384 10 5 (1920000)
I1206 21:20:05.629230  8588 net.cpp:165] Memory required for data: 1497603600
I1206 21:20:05.629241  8588 layer_factory.hpp:77] Creating layer inception_5b/relu_1x1
I1206 21:20:05.629261  8588 net.cpp:100] Creating Layer inception_5b/relu_1x1
I1206 21:20:05.629269  8588 net.cpp:434] inception_5b/relu_1x1 <- inception_5b/1x1
I1206 21:20:05.629286  8588 net.cpp:395] inception_5b/relu_1x1 -> inception_5b/1x1 (in-place)
I1206 21:20:05.629474  8588 net.cpp:150] Setting up inception_5b/relu_1x1
I1206 21:20:05.629503  8588 net.cpp:157] Top shape: 100 384 10 5 (1920000)
I1206 21:20:05.629508  8588 net.cpp:165] Memory required for data: 1505283600
I1206 21:20:05.629514  8588 layer_factory.hpp:77] Creating layer inception_5b/3x3_reduce
I1206 21:20:05.629537  8588 net.cpp:100] Creating Layer inception_5b/3x3_reduce
I1206 21:20:05.629557  8588 net.cpp:434] inception_5b/3x3_reduce <- inception_5a/output_inception_5a/output_0_split_1
I1206 21:20:05.629570  8588 net.cpp:408] inception_5b/3x3_reduce -> inception_5b/3x3_reduce
I1206 21:20:05.631944  8588 net.cpp:150] Setting up inception_5b/3x3_reduce
I1206 21:20:05.631988  8588 net.cpp:157] Top shape: 100 192 10 5 (960000)
I1206 21:20:05.631994  8588 net.cpp:165] Memory required for data: 1509123600
I1206 21:20:05.632014  8588 layer_factory.hpp:77] Creating layer inception_5b/relu_3x3_reduce
I1206 21:20:05.632032  8588 net.cpp:100] Creating Layer inception_5b/relu_3x3_reduce
I1206 21:20:05.632050  8588 net.cpp:434] inception_5b/relu_3x3_reduce <- inception_5b/3x3_reduce
I1206 21:20:05.632068  8588 net.cpp:395] inception_5b/relu_3x3_reduce -> inception_5b/3x3_reduce (in-place)
I1206 21:20:05.632376  8588 net.cpp:150] Setting up inception_5b/relu_3x3_reduce
I1206 21:20:05.632405  8588 net.cpp:157] Top shape: 100 192 10 5 (960000)
I1206 21:20:05.632412  8588 net.cpp:165] Memory required for data: 1512963600
I1206 21:20:05.632421  8588 layer_factory.hpp:77] Creating layer inception_5b/3x3
I1206 21:20:05.632442  8588 net.cpp:100] Creating Layer inception_5b/3x3
I1206 21:20:05.632449  8588 net.cpp:434] inception_5b/3x3 <- inception_5b/3x3_reduce
I1206 21:20:05.632459  8588 net.cpp:408] inception_5b/3x3 -> inception_5b/3x3
I1206 21:20:05.638068  8588 net.cpp:150] Setting up inception_5b/3x3
I1206 21:20:05.638129  8588 net.cpp:157] Top shape: 100 384 10 5 (1920000)
I1206 21:20:05.638137  8588 net.cpp:165] Memory required for data: 1520643600
I1206 21:20:05.638157  8588 layer_factory.hpp:77] Creating layer inception_5b/relu_3x3
I1206 21:20:05.638177  8588 net.cpp:100] Creating Layer inception_5b/relu_3x3
I1206 21:20:05.638186  8588 net.cpp:434] inception_5b/relu_3x3 <- inception_5b/3x3
I1206 21:20:05.638195  8588 net.cpp:395] inception_5b/relu_3x3 -> inception_5b/3x3 (in-place)
I1206 21:20:05.638484  8588 net.cpp:150] Setting up inception_5b/relu_3x3
I1206 21:20:05.638506  8588 net.cpp:157] Top shape: 100 384 10 5 (1920000)
I1206 21:20:05.638512  8588 net.cpp:165] Memory required for data: 1528323600
I1206 21:20:05.638533  8588 layer_factory.hpp:77] Creating layer inception_5b/5x5_reduce
I1206 21:20:05.638556  8588 net.cpp:100] Creating Layer inception_5b/5x5_reduce
I1206 21:20:05.638564  8588 net.cpp:434] inception_5b/5x5_reduce <- inception_5a/output_inception_5a/output_0_split_2
I1206 21:20:05.638581  8588 net.cpp:408] inception_5b/5x5_reduce -> inception_5b/5x5_reduce
I1206 21:20:05.639858  8588 net.cpp:150] Setting up inception_5b/5x5_reduce
I1206 21:20:05.639878  8588 net.cpp:157] Top shape: 100 48 10 5 (240000)
I1206 21:20:05.639885  8588 net.cpp:165] Memory required for data: 1529283600
I1206 21:20:05.639902  8588 layer_factory.hpp:77] Creating layer inception_5b/relu_5x5_reduce
I1206 21:20:05.639914  8588 net.cpp:100] Creating Layer inception_5b/relu_5x5_reduce
I1206 21:20:05.639924  8588 net.cpp:434] inception_5b/relu_5x5_reduce <- inception_5b/5x5_reduce
I1206 21:20:05.639945  8588 net.cpp:395] inception_5b/relu_5x5_reduce -> inception_5b/5x5_reduce (in-place)
I1206 21:20:05.640182  8588 net.cpp:150] Setting up inception_5b/relu_5x5_reduce
I1206 21:20:05.640215  8588 net.cpp:157] Top shape: 100 48 10 5 (240000)
I1206 21:20:05.640233  8588 net.cpp:165] Memory required for data: 1530243600
I1206 21:20:05.640250  8588 layer_factory.hpp:77] Creating layer inception_5b/5x5
I1206 21:20:05.640275  8588 net.cpp:100] Creating Layer inception_5b/5x5
I1206 21:20:05.640295  8588 net.cpp:434] inception_5b/5x5 <- inception_5b/5x5_reduce
I1206 21:20:05.640314  8588 net.cpp:408] inception_5b/5x5 -> inception_5b/5x5
I1206 21:20:05.642855  8588 net.cpp:150] Setting up inception_5b/5x5
I1206 21:20:05.642904  8588 net.cpp:157] Top shape: 100 128 10 5 (640000)
I1206 21:20:05.642911  8588 net.cpp:165] Memory required for data: 1532803600
I1206 21:20:05.642932  8588 layer_factory.hpp:77] Creating layer inception_5b/relu_5x5
I1206 21:20:05.642943  8588 net.cpp:100] Creating Layer inception_5b/relu_5x5
I1206 21:20:05.642979  8588 net.cpp:434] inception_5b/relu_5x5 <- inception_5b/5x5
I1206 21:20:05.642989  8588 net.cpp:395] inception_5b/relu_5x5 -> inception_5b/5x5 (in-place)
I1206 21:20:05.643301  8588 net.cpp:150] Setting up inception_5b/relu_5x5
I1206 21:20:05.643335  8588 net.cpp:157] Top shape: 100 128 10 5 (640000)
I1206 21:20:05.643342  8588 net.cpp:165] Memory required for data: 1535363600
I1206 21:20:05.643348  8588 layer_factory.hpp:77] Creating layer inception_5b/pool
I1206 21:20:05.643367  8588 net.cpp:100] Creating Layer inception_5b/pool
I1206 21:20:05.643374  8588 net.cpp:434] inception_5b/pool <- inception_5a/output_inception_5a/output_0_split_3
I1206 21:20:05.643393  8588 net.cpp:408] inception_5b/pool -> inception_5b/pool
I1206 21:20:05.643452  8588 net.cpp:150] Setting up inception_5b/pool
I1206 21:20:05.643463  8588 net.cpp:157] Top shape: 100 832 10 5 (4160000)
I1206 21:20:05.643468  8588 net.cpp:165] Memory required for data: 1552003600
I1206 21:20:05.643474  8588 layer_factory.hpp:77] Creating layer inception_5b/pool_proj
I1206 21:20:05.643498  8588 net.cpp:100] Creating Layer inception_5b/pool_proj
I1206 21:20:05.643507  8588 net.cpp:434] inception_5b/pool_proj <- inception_5b/pool
I1206 21:20:05.643515  8588 net.cpp:408] inception_5b/pool_proj -> inception_5b/pool_proj
I1206 21:20:05.645488  8588 net.cpp:150] Setting up inception_5b/pool_proj
I1206 21:20:05.645529  8588 net.cpp:157] Top shape: 100 128 10 5 (640000)
I1206 21:20:05.645537  8588 net.cpp:165] Memory required for data: 1554563600
I1206 21:20:05.645560  8588 layer_factory.hpp:77] Creating layer inception_5b/relu_pool_proj
I1206 21:20:05.645570  8588 net.cpp:100] Creating Layer inception_5b/relu_pool_proj
I1206 21:20:05.645586  8588 net.cpp:434] inception_5b/relu_pool_proj <- inception_5b/pool_proj
I1206 21:20:05.645602  8588 net.cpp:395] inception_5b/relu_pool_proj -> inception_5b/pool_proj (in-place)
I1206 21:20:05.645920  8588 net.cpp:150] Setting up inception_5b/relu_pool_proj
I1206 21:20:05.645952  8588 net.cpp:157] Top shape: 100 128 10 5 (640000)
I1206 21:20:05.645959  8588 net.cpp:165] Memory required for data: 1557123600
I1206 21:20:05.645979  8588 layer_factory.hpp:77] Creating layer inception_5b/output
I1206 21:20:05.645998  8588 net.cpp:100] Creating Layer inception_5b/output
I1206 21:20:05.646008  8588 net.cpp:434] inception_5b/output <- inception_5b/1x1
I1206 21:20:05.646015  8588 net.cpp:434] inception_5b/output <- inception_5b/3x3
I1206 21:20:05.646023  8588 net.cpp:434] inception_5b/output <- inception_5b/5x5
I1206 21:20:05.646029  8588 net.cpp:434] inception_5b/output <- inception_5b/pool_proj
I1206 21:20:05.646036  8588 net.cpp:408] inception_5b/output -> inception_5b/output
I1206 21:20:05.646086  8588 net.cpp:150] Setting up inception_5b/output
I1206 21:20:05.646097  8588 net.cpp:157] Top shape: 100 1024 10 5 (5120000)
I1206 21:20:05.646103  8588 net.cpp:165] Memory required for data: 1577603600
I1206 21:20:05.646108  8588 layer_factory.hpp:77] Creating layer inception_5b/output_inception_5b/output_0_split
I1206 21:20:05.646126  8588 net.cpp:100] Creating Layer inception_5b/output_inception_5b/output_0_split
I1206 21:20:05.646132  8588 net.cpp:434] inception_5b/output_inception_5b/output_0_split <- inception_5b/output
I1206 21:20:05.646139  8588 net.cpp:408] inception_5b/output_inception_5b/output_0_split -> inception_5b/output_inception_5b/output_0_split_0
I1206 21:20:05.646157  8588 net.cpp:408] inception_5b/output_inception_5b/output_0_split -> inception_5b/output_inception_5b/output_0_split_1
I1206 21:20:05.646203  8588 net.cpp:150] Setting up inception_5b/output_inception_5b/output_0_split
I1206 21:20:05.646220  8588 net.cpp:157] Top shape: 100 1024 10 5 (5120000)
I1206 21:20:05.646226  8588 net.cpp:157] Top shape: 100 1024 10 5 (5120000)
I1206 21:20:05.646232  8588 net.cpp:165] Memory required for data: 1618563600
I1206 21:20:05.646248  8588 layer_factory.hpp:77] Creating layer conv1/7x7_s2_p
I1206 21:20:05.646268  8588 net.cpp:100] Creating Layer conv1/7x7_s2_p
I1206 21:20:05.646275  8588 net.cpp:434] conv1/7x7_s2_p <- data_p
I1206 21:20:05.646302  8588 net.cpp:408] conv1/7x7_s2_p -> conv1/7x7_s2_p
I1206 21:20:05.647424  8588 net.cpp:150] Setting up conv1/7x7_s2_p
I1206 21:20:05.647465  8588 net.cpp:157] Top shape: 100 64 80 40 (20480000)
I1206 21:20:05.647474  8588 net.cpp:165] Memory required for data: 1700483600
I1206 21:20:05.647488  8588 net.cpp:493] Sharing parameters 'conv1/7x7_s2_w' owned by layer 'conv1/7x7_s2', param index 0
I1206 21:20:05.647496  8588 net.cpp:493] Sharing parameters 'conv1/7x7_s2_b' owned by layer 'conv1/7x7_s2', param index 1
I1206 21:20:05.647511  8588 layer_factory.hpp:77] Creating layer conv1/relu_7x7_p
I1206 21:20:05.647526  8588 net.cpp:100] Creating Layer conv1/relu_7x7_p
I1206 21:20:05.647533  8588 net.cpp:434] conv1/relu_7x7_p <- conv1/7x7_s2_p
I1206 21:20:05.647541  8588 net.cpp:395] conv1/relu_7x7_p -> conv1/7x7_s2_p (in-place)
I1206 21:20:05.647712  8588 net.cpp:150] Setting up conv1/relu_7x7_p
I1206 21:20:05.647732  8588 net.cpp:157] Top shape: 100 64 80 40 (20480000)
I1206 21:20:05.647737  8588 net.cpp:165] Memory required for data: 1782403600
I1206 21:20:05.647743  8588 layer_factory.hpp:77] Creating layer pool1/3x3_s2_p
I1206 21:20:05.647756  8588 net.cpp:100] Creating Layer pool1/3x3_s2_p
I1206 21:20:05.647770  8588 net.cpp:434] pool1/3x3_s2_p <- conv1/7x7_s2_p
I1206 21:20:05.647779  8588 net.cpp:408] pool1/3x3_s2_p -> pool1/3x3_s2_p
I1206 21:20:05.647836  8588 net.cpp:150] Setting up pool1/3x3_s2_p
I1206 21:20:05.647847  8588 net.cpp:157] Top shape: 100 64 40 20 (5120000)
I1206 21:20:05.647853  8588 net.cpp:165] Memory required for data: 1802883600
I1206 21:20:05.647860  8588 layer_factory.hpp:77] Creating layer pool1/norm1_p
I1206 21:20:05.647876  8588 net.cpp:100] Creating Layer pool1/norm1_p
I1206 21:20:05.647883  8588 net.cpp:434] pool1/norm1_p <- pool1/3x3_s2_p
I1206 21:20:05.647891  8588 net.cpp:408] pool1/norm1_p -> pool1/norm1_p
I1206 21:20:05.648280  8588 net.cpp:150] Setting up pool1/norm1_p
I1206 21:20:05.648313  8588 net.cpp:157] Top shape: 100 64 40 20 (5120000)
I1206 21:20:05.648319  8588 net.cpp:165] Memory required for data: 1823363600
I1206 21:20:05.648339  8588 layer_factory.hpp:77] Creating layer conv2/3x3_reduce_p
I1206 21:20:05.648351  8588 net.cpp:100] Creating Layer conv2/3x3_reduce_p
I1206 21:20:05.648358  8588 net.cpp:434] conv2/3x3_reduce_p <- pool1/norm1_p
I1206 21:20:05.648367  8588 net.cpp:408] conv2/3x3_reduce_p -> conv2/3x3_reduce_p
I1206 21:20:05.649428  8588 net.cpp:150] Setting up conv2/3x3_reduce_p
I1206 21:20:05.649466  8588 net.cpp:157] Top shape: 100 64 40 20 (5120000)
I1206 21:20:05.649473  8588 net.cpp:165] Memory required for data: 1843843600
I1206 21:20:05.649489  8588 net.cpp:493] Sharing parameters 'conv2/3x3_reduce_w' owned by layer 'conv2/3x3_reduce', param index 0
I1206 21:20:05.649497  8588 net.cpp:493] Sharing parameters 'conv2/3x3_reduce_b' owned by layer 'conv2/3x3_reduce', param index 1
I1206 21:20:05.649503  8588 layer_factory.hpp:77] Creating layer conv2/relu_3x3_reduce_p
I1206 21:20:05.649515  8588 net.cpp:100] Creating Layer conv2/relu_3x3_reduce_p
I1206 21:20:05.649523  8588 net.cpp:434] conv2/relu_3x3_reduce_p <- conv2/3x3_reduce_p
I1206 21:20:05.649530  8588 net.cpp:395] conv2/relu_3x3_reduce_p -> conv2/3x3_reduce_p (in-place)
I1206 21:20:05.649695  8588 net.cpp:150] Setting up conv2/relu_3x3_reduce_p
I1206 21:20:05.649710  8588 net.cpp:157] Top shape: 100 64 40 20 (5120000)
I1206 21:20:05.649718  8588 net.cpp:165] Memory required for data: 1864323600
I1206 21:20:05.649722  8588 layer_factory.hpp:77] Creating layer conv2/3x3_p
I1206 21:20:05.649744  8588 net.cpp:100] Creating Layer conv2/3x3_p
I1206 21:20:05.649750  8588 net.cpp:434] conv2/3x3_p <- conv2/3x3_reduce_p
I1206 21:20:05.649766  8588 net.cpp:408] conv2/3x3_p -> conv2/3x3_p
I1206 21:20:05.651624  8588 net.cpp:150] Setting up conv2/3x3_p
I1206 21:20:05.651669  8588 net.cpp:157] Top shape: 100 192 40 20 (15360000)
I1206 21:20:05.651677  8588 net.cpp:165] Memory required for data: 1925763600
I1206 21:20:05.651692  8588 net.cpp:493] Sharing parameters 'conv2/3x3_w' owned by layer 'conv2/3x3', param index 0
I1206 21:20:05.651715  8588 net.cpp:493] Sharing parameters 'conv2/3x3_b' owned by layer 'conv2/3x3', param index 1
I1206 21:20:05.651731  8588 layer_factory.hpp:77] Creating layer conv2/relu_3x3_p
I1206 21:20:05.651739  8588 net.cpp:100] Creating Layer conv2/relu_3x3_p
I1206 21:20:05.651746  8588 net.cpp:434] conv2/relu_3x3_p <- conv2/3x3_p
I1206 21:20:05.651762  8588 net.cpp:395] conv2/relu_3x3_p -> conv2/3x3_p (in-place)
I1206 21:20:05.651959  8588 net.cpp:150] Setting up conv2/relu_3x3_p
I1206 21:20:05.651988  8588 net.cpp:157] Top shape: 100 192 40 20 (15360000)
I1206 21:20:05.651993  8588 net.cpp:165] Memory required for data: 1987203600
I1206 21:20:05.652009  8588 layer_factory.hpp:77] Creating layer pool2/3x3_s2_p
I1206 21:20:05.652029  8588 net.cpp:100] Creating Layer pool2/3x3_s2_p
I1206 21:20:05.652036  8588 net.cpp:434] pool2/3x3_s2_p <- conv2/3x3_p
I1206 21:20:05.652046  8588 net.cpp:408] pool2/3x3_s2_p -> pool2/3x3_s2_p
I1206 21:20:05.652113  8588 net.cpp:150] Setting up pool2/3x3_s2_p
I1206 21:20:05.652124  8588 net.cpp:157] Top shape: 100 192 20 10 (3840000)
I1206 21:20:05.652130  8588 net.cpp:165] Memory required for data: 2002563600
I1206 21:20:05.652137  8588 layer_factory.hpp:77] Creating layer pool2/3x3_s2_p_pool2/3x3_s2_p_0_split
I1206 21:20:05.652144  8588 net.cpp:100] Creating Layer pool2/3x3_s2_p_pool2/3x3_s2_p_0_split
I1206 21:20:05.652150  8588 net.cpp:434] pool2/3x3_s2_p_pool2/3x3_s2_p_0_split <- pool2/3x3_s2_p
I1206 21:20:05.652158  8588 net.cpp:408] pool2/3x3_s2_p_pool2/3x3_s2_p_0_split -> pool2/3x3_s2_p_pool2/3x3_s2_p_0_split_0
I1206 21:20:05.652168  8588 net.cpp:408] pool2/3x3_s2_p_pool2/3x3_s2_p_0_split -> pool2/3x3_s2_p_pool2/3x3_s2_p_0_split_1
I1206 21:20:05.652184  8588 net.cpp:408] pool2/3x3_s2_p_pool2/3x3_s2_p_0_split -> pool2/3x3_s2_p_pool2/3x3_s2_p_0_split_2
I1206 21:20:05.652202  8588 net.cpp:408] pool2/3x3_s2_p_pool2/3x3_s2_p_0_split -> pool2/3x3_s2_p_pool2/3x3_s2_p_0_split_3
I1206 21:20:05.652276  8588 net.cpp:150] Setting up pool2/3x3_s2_p_pool2/3x3_s2_p_0_split
I1206 21:20:05.652288  8588 net.cpp:157] Top shape: 100 192 20 10 (3840000)
I1206 21:20:05.652307  8588 net.cpp:157] Top shape: 100 192 20 10 (3840000)
I1206 21:20:05.652314  8588 net.cpp:157] Top shape: 100 192 20 10 (3840000)
I1206 21:20:05.652320  8588 net.cpp:157] Top shape: 100 192 20 10 (3840000)
I1206 21:20:05.652325  8588 net.cpp:165] Memory required for data: 2064003600
I1206 21:20:05.652331  8588 layer_factory.hpp:77] Creating layer inception_3a/1x1_p
I1206 21:20:05.652353  8588 net.cpp:100] Creating Layer inception_3a/1x1_p
I1206 21:20:05.652360  8588 net.cpp:434] inception_3a/1x1_p <- pool2/3x3_s2_p_pool2/3x3_s2_p_0_split_0
I1206 21:20:05.652369  8588 net.cpp:408] inception_3a/1x1_p -> inception_3a/1x1_p
I1206 21:20:05.653565  8588 net.cpp:150] Setting up inception_3a/1x1_p
I1206 21:20:05.653599  8588 net.cpp:157] Top shape: 100 64 20 10 (1280000)
I1206 21:20:05.653607  8588 net.cpp:165] Memory required for data: 2069123600
I1206 21:20:05.653623  8588 net.cpp:493] Sharing parameters 'inception_3a/1x1_w' owned by layer 'inception_3a/1x1', param index 0
I1206 21:20:05.653631  8588 net.cpp:493] Sharing parameters 'inception_3a/1x1_b' owned by layer 'inception_3a/1x1', param index 1
I1206 21:20:05.653647  8588 layer_factory.hpp:77] Creating layer inception_3a/relu_1x1_p
I1206 21:20:05.653658  8588 net.cpp:100] Creating Layer inception_3a/relu_1x1_p
I1206 21:20:05.653664  8588 net.cpp:434] inception_3a/relu_1x1_p <- inception_3a/1x1_p
I1206 21:20:05.653679  8588 net.cpp:395] inception_3a/relu_1x1_p -> inception_3a/1x1_p (in-place)
I1206 21:20:05.653986  8588 net.cpp:150] Setting up inception_3a/relu_1x1_p
I1206 21:20:05.654007  8588 net.cpp:157] Top shape: 100 64 20 10 (1280000)
I1206 21:20:05.654016  8588 net.cpp:165] Memory required for data: 2074243600
I1206 21:20:05.654022  8588 layer_factory.hpp:77] Creating layer inception_3a/3x3_reduce_p
I1206 21:20:05.654042  8588 net.cpp:100] Creating Layer inception_3a/3x3_reduce_p
I1206 21:20:05.654050  8588 net.cpp:434] inception_3a/3x3_reduce_p <- pool2/3x3_s2_p_pool2/3x3_s2_p_0_split_1
I1206 21:20:05.654083  8588 net.cpp:408] inception_3a/3x3_reduce_p -> inception_3a/3x3_reduce_p
I1206 21:20:05.655251  8588 net.cpp:150] Setting up inception_3a/3x3_reduce_p
I1206 21:20:05.655287  8588 net.cpp:157] Top shape: 100 96 20 10 (1920000)
I1206 21:20:05.655293  8588 net.cpp:165] Memory required for data: 2081923600
I1206 21:20:05.655300  8588 net.cpp:493] Sharing parameters 'inception_3a/3x3_reduce_w' owned by layer 'inception_3a/3x3_reduce', param index 0
I1206 21:20:05.655308  8588 net.cpp:493] Sharing parameters 'inception_3a/3x3_reduce_b' owned by layer 'inception_3a/3x3_reduce', param index 1
I1206 21:20:05.655321  8588 layer_factory.hpp:77] Creating layer inception_3a/relu_3x3_reduce_p
I1206 21:20:05.655331  8588 net.cpp:100] Creating Layer inception_3a/relu_3x3_reduce_p
I1206 21:20:05.655339  8588 net.cpp:434] inception_3a/relu_3x3_reduce_p <- inception_3a/3x3_reduce_p
I1206 21:20:05.655354  8588 net.cpp:395] inception_3a/relu_3x3_reduce_p -> inception_3a/3x3_reduce_p (in-place)
I1206 21:20:05.655522  8588 net.cpp:150] Setting up inception_3a/relu_3x3_reduce_p
I1206 21:20:05.655542  8588 net.cpp:157] Top shape: 100 96 20 10 (1920000)
I1206 21:20:05.655549  8588 net.cpp:165] Memory required for data: 2089603600
I1206 21:20:05.655555  8588 layer_factory.hpp:77] Creating layer inception_3a/3x3_p
I1206 21:20:05.655571  8588 net.cpp:100] Creating Layer inception_3a/3x3_p
I1206 21:20:05.655580  8588 net.cpp:434] inception_3a/3x3_p <- inception_3a/3x3_reduce_p
I1206 21:20:05.655597  8588 net.cpp:408] inception_3a/3x3_p -> inception_3a/3x3_p
I1206 21:20:05.657848  8588 net.cpp:150] Setting up inception_3a/3x3_p
I1206 21:20:05.657899  8588 net.cpp:157] Top shape: 100 128 20 10 (2560000)
I1206 21:20:05.657907  8588 net.cpp:165] Memory required for data: 2099843600
I1206 21:20:05.657923  8588 net.cpp:493] Sharing parameters 'inception_3a/3x3_w' owned by layer 'inception_3a/3x3', param index 0
I1206 21:20:05.657932  8588 net.cpp:493] Sharing parameters 'inception_3a/3x3_b' owned by layer 'inception_3a/3x3', param index 1
I1206 21:20:05.657958  8588 layer_factory.hpp:77] Creating layer inception_3a/relu_3x3_p
I1206 21:20:05.657968  8588 net.cpp:100] Creating Layer inception_3a/relu_3x3_p
I1206 21:20:05.657976  8588 net.cpp:434] inception_3a/relu_3x3_p <- inception_3a/3x3_p
I1206 21:20:05.657991  8588 net.cpp:395] inception_3a/relu_3x3_p -> inception_3a/3x3_p (in-place)
I1206 21:20:05.658306  8588 net.cpp:150] Setting up inception_3a/relu_3x3_p
I1206 21:20:05.658335  8588 net.cpp:157] Top shape: 100 128 20 10 (2560000)
I1206 21:20:05.658342  8588 net.cpp:165] Memory required for data: 2110083600
I1206 21:20:05.658349  8588 layer_factory.hpp:77] Creating layer inception_3a/5x5_reduce_p
I1206 21:20:05.658360  8588 net.cpp:100] Creating Layer inception_3a/5x5_reduce_p
I1206 21:20:05.658377  8588 net.cpp:434] inception_3a/5x5_reduce_p <- pool2/3x3_s2_p_pool2/3x3_s2_p_0_split_2
I1206 21:20:05.658396  8588 net.cpp:408] inception_3a/5x5_reduce_p -> inception_3a/5x5_reduce_p
I1206 21:20:05.659494  8588 net.cpp:150] Setting up inception_3a/5x5_reduce_p
I1206 21:20:05.659533  8588 net.cpp:157] Top shape: 100 16 20 10 (320000)
I1206 21:20:05.659539  8588 net.cpp:165] Memory required for data: 2111363600
I1206 21:20:05.659548  8588 net.cpp:493] Sharing parameters 'inception_3a/5x5_reduce_w' owned by layer 'inception_3a/5x5_reduce', param index 0
I1206 21:20:05.659554  8588 net.cpp:493] Sharing parameters 'inception_3a/5x5_reduce_b' owned by layer 'inception_3a/5x5_reduce', param index 1
I1206 21:20:05.659560  8588 layer_factory.hpp:77] Creating layer inception_3a/relu_5x5_reduce_p
I1206 21:20:05.659579  8588 net.cpp:100] Creating Layer inception_3a/relu_5x5_reduce_p
I1206 21:20:05.659585  8588 net.cpp:434] inception_3a/relu_5x5_reduce_p <- inception_3a/5x5_reduce_p
I1206 21:20:05.659593  8588 net.cpp:395] inception_3a/relu_5x5_reduce_p -> inception_3a/5x5_reduce_p (in-place)
I1206 21:20:05.659909  8588 net.cpp:150] Setting up inception_3a/relu_5x5_reduce_p
I1206 21:20:05.659947  8588 net.cpp:157] Top shape: 100 16 20 10 (320000)
I1206 21:20:05.659953  8588 net.cpp:165] Memory required for data: 2112643600
I1206 21:20:05.659962  8588 layer_factory.hpp:77] Creating layer inception_3a/5x5_p
I1206 21:20:05.659976  8588 net.cpp:100] Creating Layer inception_3a/5x5_p
I1206 21:20:05.659983  8588 net.cpp:434] inception_3a/5x5_p <- inception_3a/5x5_reduce_p
I1206 21:20:05.659992  8588 net.cpp:408] inception_3a/5x5_p -> inception_3a/5x5_p
I1206 21:20:05.661159  8588 net.cpp:150] Setting up inception_3a/5x5_p
I1206 21:20:05.661201  8588 net.cpp:157] Top shape: 100 32 20 10 (640000)
I1206 21:20:05.661208  8588 net.cpp:165] Memory required for data: 2115203600
I1206 21:20:05.661239  8588 net.cpp:493] Sharing parameters 'inception_3a/5x5_w' owned by layer 'inception_3a/5x5', param index 0
I1206 21:20:05.661249  8588 net.cpp:493] Sharing parameters 'inception_3a/5x5_b' owned by layer 'inception_3a/5x5', param index 1
I1206 21:20:05.661267  8588 layer_factory.hpp:77] Creating layer inception_3a/relu_5x5_p
I1206 21:20:05.661274  8588 net.cpp:100] Creating Layer inception_3a/relu_5x5_p
I1206 21:20:05.661281  8588 net.cpp:434] inception_3a/relu_5x5_p <- inception_3a/5x5_p
I1206 21:20:05.661289  8588 net.cpp:395] inception_3a/relu_5x5_p -> inception_3a/5x5_p (in-place)
I1206 21:20:05.661487  8588 net.cpp:150] Setting up inception_3a/relu_5x5_p
I1206 21:20:05.661507  8588 net.cpp:157] Top shape: 100 32 20 10 (640000)
I1206 21:20:05.661514  8588 net.cpp:165] Memory required for data: 2117763600
I1206 21:20:05.661520  8588 layer_factory.hpp:77] Creating layer inception_3a/pool_p
I1206 21:20:05.661533  8588 net.cpp:100] Creating Layer inception_3a/pool_p
I1206 21:20:05.661550  8588 net.cpp:434] inception_3a/pool_p <- pool2/3x3_s2_p_pool2/3x3_s2_p_0_split_3
I1206 21:20:05.661558  8588 net.cpp:408] inception_3a/pool_p -> inception_3a/pool_p
I1206 21:20:05.661620  8588 net.cpp:150] Setting up inception_3a/pool_p
I1206 21:20:05.661639  8588 net.cpp:157] Top shape: 100 192 20 10 (3840000)
I1206 21:20:05.661645  8588 net.cpp:165] Memory required for data: 2133123600
I1206 21:20:05.661664  8588 layer_factory.hpp:77] Creating layer inception_3a/pool_proj_p
I1206 21:20:05.661682  8588 net.cpp:100] Creating Layer inception_3a/pool_proj_p
I1206 21:20:05.661698  8588 net.cpp:434] inception_3a/pool_proj_p <- inception_3a/pool_p
I1206 21:20:05.661717  8588 net.cpp:408] inception_3a/pool_proj_p -> inception_3a/pool_proj_p
I1206 21:20:05.662814  8588 net.cpp:150] Setting up inception_3a/pool_proj_p
I1206 21:20:05.662843  8588 net.cpp:157] Top shape: 100 32 20 10 (640000)
I1206 21:20:05.662850  8588 net.cpp:165] Memory required for data: 2135683600
I1206 21:20:05.662858  8588 net.cpp:493] Sharing parameters 'inception_3a/pool_proj_w' owned by layer 'inception_3a/pool_proj', param index 0
I1206 21:20:05.662865  8588 net.cpp:493] Sharing parameters 'inception_3a/pool_proj_b' owned by layer 'inception_3a/pool_proj', param index 1
I1206 21:20:05.662881  8588 layer_factory.hpp:77] Creating layer inception_3a/relu_pool_proj_p
I1206 21:20:05.662891  8588 net.cpp:100] Creating Layer inception_3a/relu_pool_proj_p
I1206 21:20:05.662907  8588 net.cpp:434] inception_3a/relu_pool_proj_p <- inception_3a/pool_proj_p
I1206 21:20:05.662916  8588 net.cpp:395] inception_3a/relu_pool_proj_p -> inception_3a/pool_proj_p (in-place)
I1206 21:20:05.663084  8588 net.cpp:150] Setting up inception_3a/relu_pool_proj_p
I1206 21:20:05.663105  8588 net.cpp:157] Top shape: 100 32 20 10 (640000)
I1206 21:20:05.663110  8588 net.cpp:165] Memory required for data: 2138243600
I1206 21:20:05.663116  8588 layer_factory.hpp:77] Creating layer inception_3a/output_p
I1206 21:20:05.663133  8588 net.cpp:100] Creating Layer inception_3a/output_p
I1206 21:20:05.663141  8588 net.cpp:434] inception_3a/output_p <- inception_3a/1x1_p
I1206 21:20:05.663156  8588 net.cpp:434] inception_3a/output_p <- inception_3a/3x3_p
I1206 21:20:05.663163  8588 net.cpp:434] inception_3a/output_p <- inception_3a/5x5_p
I1206 21:20:05.663179  8588 net.cpp:434] inception_3a/output_p <- inception_3a/pool_proj_p
I1206 21:20:05.663218  8588 net.cpp:408] inception_3a/output_p -> inception_3a/output_p
I1206 21:20:05.663265  8588 net.cpp:150] Setting up inception_3a/output_p
I1206 21:20:05.663283  8588 net.cpp:157] Top shape: 100 256 20 10 (5120000)
I1206 21:20:05.663290  8588 net.cpp:165] Memory required for data: 2158723600
I1206 21:20:05.663295  8588 layer_factory.hpp:77] Creating layer inception_3a/output_p_inception_3a/output_p_0_split
I1206 21:20:05.663303  8588 net.cpp:100] Creating Layer inception_3a/output_p_inception_3a/output_p_0_split
I1206 21:20:05.663311  8588 net.cpp:434] inception_3a/output_p_inception_3a/output_p_0_split <- inception_3a/output_p
I1206 21:20:05.663326  8588 net.cpp:408] inception_3a/output_p_inception_3a/output_p_0_split -> inception_3a/output_p_inception_3a/output_p_0_split_0
I1206 21:20:05.663336  8588 net.cpp:408] inception_3a/output_p_inception_3a/output_p_0_split -> inception_3a/output_p_inception_3a/output_p_0_split_1
I1206 21:20:05.663346  8588 net.cpp:408] inception_3a/output_p_inception_3a/output_p_0_split -> inception_3a/output_p_inception_3a/output_p_0_split_2
I1206 21:20:05.663362  8588 net.cpp:408] inception_3a/output_p_inception_3a/output_p_0_split -> inception_3a/output_p_inception_3a/output_p_0_split_3
I1206 21:20:05.663435  8588 net.cpp:150] Setting up inception_3a/output_p_inception_3a/output_p_0_split
I1206 21:20:05.663453  8588 net.cpp:157] Top shape: 100 256 20 10 (5120000)
I1206 21:20:05.663460  8588 net.cpp:157] Top shape: 100 256 20 10 (5120000)
I1206 21:20:05.663467  8588 net.cpp:157] Top shape: 100 256 20 10 (5120000)
I1206 21:20:05.663472  8588 net.cpp:157] Top shape: 100 256 20 10 (5120000)
I1206 21:20:05.663478  8588 net.cpp:165] Memory required for data: 2240643600
I1206 21:20:05.663485  8588 layer_factory.hpp:77] Creating layer inception_3b/1x1_p
I1206 21:20:05.663502  8588 net.cpp:100] Creating Layer inception_3b/1x1_p
I1206 21:20:05.663518  8588 net.cpp:434] inception_3b/1x1_p <- inception_3a/output_p_inception_3a/output_p_0_split_0
I1206 21:20:05.663527  8588 net.cpp:408] inception_3b/1x1_p -> inception_3b/1x1_p
I1206 21:20:05.665319  8588 net.cpp:150] Setting up inception_3b/1x1_p
I1206 21:20:05.665365  8588 net.cpp:157] Top shape: 100 128 20 10 (2560000)
I1206 21:20:05.665372  8588 net.cpp:165] Memory required for data: 2250883600
I1206 21:20:05.665388  8588 net.cpp:493] Sharing parameters 'inception_3b/1x1_w' owned by layer 'inception_3b/1x1', param index 0
I1206 21:20:05.665405  8588 net.cpp:493] Sharing parameters 'inception_3b/1x1_b' owned by layer 'inception_3b/1x1', param index 1
I1206 21:20:05.665422  8588 layer_factory.hpp:77] Creating layer inception_3b/relu_1x1_p
I1206 21:20:05.665444  8588 net.cpp:100] Creating Layer inception_3b/relu_1x1_p
I1206 21:20:05.665453  8588 net.cpp:434] inception_3b/relu_1x1_p <- inception_3b/1x1_p
I1206 21:20:05.665472  8588 net.cpp:395] inception_3b/relu_1x1_p -> inception_3b/1x1_p (in-place)
I1206 21:20:05.665774  8588 net.cpp:150] Setting up inception_3b/relu_1x1_p
I1206 21:20:05.665804  8588 net.cpp:157] Top shape: 100 128 20 10 (2560000)
I1206 21:20:05.665812  8588 net.cpp:165] Memory required for data: 2261123600
I1206 21:20:05.665817  8588 layer_factory.hpp:77] Creating layer inception_3b/3x3_reduce_p
I1206 21:20:05.665834  8588 net.cpp:100] Creating Layer inception_3b/3x3_reduce_p
I1206 21:20:05.665841  8588 net.cpp:434] inception_3b/3x3_reduce_p <- inception_3a/output_p_inception_3a/output_p_0_split_1
I1206 21:20:05.665860  8588 net.cpp:408] inception_3b/3x3_reduce_p -> inception_3b/3x3_reduce_p
I1206 21:20:05.667110  8588 net.cpp:150] Setting up inception_3b/3x3_reduce_p
I1206 21:20:05.667146  8588 net.cpp:157] Top shape: 100 128 20 10 (2560000)
I1206 21:20:05.667152  8588 net.cpp:165] Memory required for data: 2271363600
I1206 21:20:05.667160  8588 net.cpp:493] Sharing parameters 'inception_3b/3x3_reduce_w' owned by layer 'inception_3b/3x3_reduce', param index 0
I1206 21:20:05.667174  8588 net.cpp:493] Sharing parameters 'inception_3b/3x3_reduce_b' owned by layer 'inception_3b/3x3_reduce', param index 1
I1206 21:20:05.667201  8588 layer_factory.hpp:77] Creating layer inception_3b/relu_3x3_reduce_p
I1206 21:20:05.667210  8588 net.cpp:100] Creating Layer inception_3b/relu_3x3_reduce_p
I1206 21:20:05.667217  8588 net.cpp:434] inception_3b/relu_3x3_reduce_p <- inception_3b/3x3_reduce_p
I1206 21:20:05.667225  8588 net.cpp:395] inception_3b/relu_3x3_reduce_p -> inception_3b/3x3_reduce_p (in-place)
I1206 21:20:05.667397  8588 net.cpp:150] Setting up inception_3b/relu_3x3_reduce_p
I1206 21:20:05.667424  8588 net.cpp:157] Top shape: 100 128 20 10 (2560000)
I1206 21:20:05.667431  8588 net.cpp:165] Memory required for data: 2281603600
I1206 21:20:05.667438  8588 layer_factory.hpp:77] Creating layer inception_3b/3x3_p
I1206 21:20:05.667454  8588 net.cpp:100] Creating Layer inception_3b/3x3_p
I1206 21:20:05.667460  8588 net.cpp:434] inception_3b/3x3_p <- inception_3b/3x3_reduce_p
I1206 21:20:05.667479  8588 net.cpp:408] inception_3b/3x3_p -> inception_3b/3x3_p
I1206 21:20:05.670258  8588 net.cpp:150] Setting up inception_3b/3x3_p
I1206 21:20:05.670286  8588 net.cpp:157] Top shape: 100 192 20 10 (3840000)
I1206 21:20:05.670295  8588 net.cpp:165] Memory required for data: 2296963600
I1206 21:20:05.670301  8588 net.cpp:493] Sharing parameters 'inception_3b/3x3_w' owned by layer 'inception_3b/3x3', param index 0
I1206 21:20:05.670310  8588 net.cpp:493] Sharing parameters 'inception_3b/3x3_b' owned by layer 'inception_3b/3x3', param index 1
I1206 21:20:05.670318  8588 layer_factory.hpp:77] Creating layer inception_3b/relu_3x3_p
I1206 21:20:05.670328  8588 net.cpp:100] Creating Layer inception_3b/relu_3x3_p
I1206 21:20:05.670334  8588 net.cpp:434] inception_3b/relu_3x3_p <- inception_3b/3x3_p
I1206 21:20:05.670351  8588 net.cpp:395] inception_3b/relu_3x3_p -> inception_3b/3x3_p (in-place)
I1206 21:20:05.670539  8588 net.cpp:150] Setting up inception_3b/relu_3x3_p
I1206 21:20:05.670555  8588 net.cpp:157] Top shape: 100 192 20 10 (3840000)
I1206 21:20:05.670562  8588 net.cpp:165] Memory required for data: 2312323600
I1206 21:20:05.670567  8588 layer_factory.hpp:77] Creating layer inception_3b/5x5_reduce_p
I1206 21:20:05.670591  8588 net.cpp:100] Creating Layer inception_3b/5x5_reduce_p
I1206 21:20:05.670599  8588 net.cpp:434] inception_3b/5x5_reduce_p <- inception_3a/output_p_inception_3a/output_p_0_split_2
I1206 21:20:05.670609  8588 net.cpp:408] inception_3b/5x5_reduce_p -> inception_3b/5x5_reduce_p
I1206 21:20:05.671721  8588 net.cpp:150] Setting up inception_3b/5x5_reduce_p
I1206 21:20:05.671748  8588 net.cpp:157] Top shape: 100 32 20 10 (640000)
I1206 21:20:05.671756  8588 net.cpp:165] Memory required for data: 2314883600
…
I1206 21:20:05.748893  8588 net.cpp:408] inception_4e/pool_proj_p -> inception_4e/pool_proj_p
I1206 21:20:05.750615  8588 net.cpp:150] Setting up inception_4e/pool_proj_p
I1206 21:20:05.750658  8588 net.cpp:157] Top shape: 100 128 10 5 (640000)
I1206 21:20:05.750665  8588 net.cpp:165] Memory required for data: 2851203600
I1206 21:20:05.750681  8588 net.cpp:493] Sharing parameters 'inception_4e/pool_proj_w' owned by layer 'inception_4e/pool_proj', param index 0
I1206 21:20:05.750689  8588 net.cpp:493] Sharing parameters 'inception_4e/pool_proj_b' owned by layer 'inception_4e/pool_proj', param index 1
I1206 21:20:05.750700  8588 layer_factory.hpp:77] Creating layer inception_4e/relu_pool_proj_p
I1206 21:20:05.750710  8588 net.cpp:100] Creating Layer inception_4e/relu_pool_proj_p
I1206 21:20:05.750727  8588 net.cpp:434] inception_4e/relu_pool_proj_p <- inception_4e/pool_proj_p
I1206 21:20:05.750737  8588 net.cpp:395] inception_4e/relu_pool_proj_p -> inception_4e/pool_proj_p (in-place)
I1206 21:20:05.750926  8588 net.cpp:150] Setting up inception_4e/relu_pool_proj_p
I1206 21:20:05.750946  8588 net.cpp:157] Top shape: 100 128 10 5 (640000)
I1206 21:20:05.750952  8588 net.cpp:165] Memory required for data: 2853763600
I1206 21:20:05.750957  8588 layer_factory.hpp:77] Creating layer inception_4e/output_p
I1206 21:20:05.750979  8588 net.cpp:100] Creating Layer inception_4e/output_p
I1206 21:20:05.750988  8588 net.cpp:434] inception_4e/output_p <- inception_4e/1x1_p
I1206 21:20:05.751003  8588 net.cpp:434] inception_4e/output_p <- inception_4e/3x3_p
I1206 21:20:05.751010  8588 net.cpp:434] inception_4e/output_p <- inception_4e/5x5_p
I1206 21:20:05.751018  8588 net.cpp:434] inception_4e/output_p <- inception_4e/pool_proj_p
I1206 21:20:05.751032  8588 net.cpp:408] inception_4e/output_p -> inception_4e/output_p
I1206 21:20:05.751090  8588 net.cpp:150] Setting up inception_4e/output_p
I1206 21:20:05.751099  8588 net.cpp:157] Top shape: 100 832 10 5 (4160000)
I1206 21:20:05.751106  8588 net.cpp:165] Memory required for data: 2870403600
I1206 21:20:05.751111  8588 layer_factory.hpp:77] Creating layer inception_4e/output_p_inception_4e/output_p_0_split
I1206 21:20:05.751119  8588 net.cpp:100] Creating Layer inception_4e/output_p_inception_4e/output_p_0_split
I1206 21:20:05.751126  8588 net.cpp:434] inception_4e/output_p_inception_4e/output_p_0_split <- inception_4e/output_p
I1206 21:20:05.751142  8588 net.cpp:408] inception_4e/output_p_inception_4e/output_p_0_split -> inception_4e/output_p_inception_4e/output_p_0_split_0
I1206 21:20:05.751159  8588 net.cpp:408] inception_4e/output_p_inception_4e/output_p_0_split -> inception_4e/output_p_inception_4e/output_p_0_split_1
I1206 21:20:05.751168  8588 net.cpp:408] inception_4e/output_p_inception_4e/output_p_0_split -> inception_4e/output_p_inception_4e/output_p_0_split_2
I1206 21:20:05.751183  8588 net.cpp:408] inception_4e/output_p_inception_4e/output_p_0_split -> inception_4e/output_p_inception_4e/output_p_0_split_3
I1206 21:20:05.751277  8588 net.cpp:150] Setting up inception_4e/output_p_inception_4e/output_p_0_split
I1206 21:20:05.751296  8588 net.cpp:157] Top shape: 100 832 10 5 (4160000)
I1206 21:20:05.751303  8588 net.cpp:157] Top shape: 100 832 10 5 (4160000)
I1206 21:20:05.751309  8588 net.cpp:157] Top shape: 100 832 10 5 (4160000)
I1206 21:20:05.751315  8588 net.cpp:157] Top shape: 100 832 10 5 (4160000)
I1206 21:20:05.751324  8588 net.cpp:165] Memory required for data: 2936963600
I1206 21:20:05.751333  8588 layer_factory.hpp:77] Creating layer inception_5a/1x1_p
I1206 21:20:05.751353  8588 net.cpp:100] Creating Layer inception_5a/1x1_p
I1206 21:20:05.751360  8588 net.cpp:434] inception_5a/1x1_p <- inception_4e/output_p_inception_4e/output_p_0_split_0
I1206 21:20:05.751368  8588 net.cpp:408] inception_5a/1x1_p -> inception_5a/1x1_p
I1206 21:20:05.754405  8588 net.cpp:150] Setting up inception_5a/1x1_p
I1206 21:20:05.754487  8588 net.cpp:157] Top shape: 100 256 10 5 (1280000)
I1206 21:20:05.754498  8588 net.cpp:165] Memory required for data: 2942083600
I1206 21:20:05.754511  8588 net.cpp:493] Sharing parameters 'inception_5a/1x1_w' owned by layer 'inception_5a/1x1', param index 0
I1206 21:20:05.754532  8588 net.cpp:493] Sharing parameters 'inception_5a/1x1_b' owned by layer 'inception_5a/1x1', param index 1
I1206 21:20:05.754542  8588 layer_factory.hpp:77] Creating layer inception_5a/relu_1x1_p
I1206 21:20:05.754554  8588 net.cpp:100] Creating Layer inception_5a/relu_1x1_p
I1206 21:20:05.754564  8588 net.cpp:434] inception_5a/relu_1x1_p <- inception_5a/1x1_p
I1206 21:20:05.754578  8588 net.cpp:395] inception_5a/relu_1x1_p -> inception_5a/1x1_p (in-place)
I1206 21:20:05.755096  8588 net.cpp:150] Setting up inception_5a/relu_1x1_p
I1206 21:20:05.755123  8588 net.cpp:157] Top shape: 100 256 10 5 (1280000)
I1206 21:20:05.755129  8588 net.cpp:165] Memory required for data: 2947203600
I1206 21:20:05.755136  8588 layer_factory.hpp:77] Creating layer inception_5a/3x3_reduce_p
I1206 21:20:05.755157  8588 net.cpp:100] Creating Layer inception_5a/3x3_reduce_p
I1206 21:20:05.755167  8588 net.cpp:434] inception_5a/3x3_reduce_p <- inception_4e/output_p_inception_4e/output_p_0_split_1
I1206 21:20:05.755175  8588 net.cpp:408] inception_5a/3x3_reduce_p -> inception_5a/3x3_reduce_p
I1206 21:20:05.757771  8588 net.cpp:150] Setting up inception_5a/3x3_reduce_p
I1206 21:20:05.757853  8588 net.cpp:157] Top shape: 100 160 10 5 (800000)
I1206 21:20:05.757860  8588 net.cpp:165] Memory required for data: 2950403600
I1206 21:20:05.757879  8588 net.cpp:493] Sharing parameters 'inception_5a/3x3_reduce_w' owned by layer 'inception_5a/3x3_reduce', param index 0
I1206 21:20:05.757889  8588 net.cpp:493] Sharing parameters 'inception_5a/3x3_reduce_b' owned by layer 'inception_5a/3x3_reduce', param index 1
I1206 21:20:05.757896  8588 layer_factory.hpp:77] Creating layer inception_5a/relu_3x3_reduce_p
I1206 21:20:05.757910  8588 net.cpp:100] Creating Layer inception_5a/relu_3x3_reduce_p
I1206 21:20:05.757928  8588 net.cpp:434] inception_5a/relu_3x3_reduce_p <- inception_5a/3x3_reduce_p
I1206 21:20:05.757936  8588 net.cpp:395] inception_5a/relu_3x3_reduce_p -> inception_5a/3x3_reduce_p (in-place)
I1206 21:20:05.758136  8588 net.cpp:150] Setting up inception_5a/relu_3x3_reduce_p
I1206 21:20:05.758158  8588 net.cpp:157] Top shape: 100 160 10 5 (800000)
I1206 21:20:05.758165  8588 net.cpp:165] Memory required for data: 2953603600
I1206 21:20:05.758183  8588 layer_factory.hpp:77] Creating layer inception_5a/3x3_p
I1206 21:20:05.758203  8588 net.cpp:100] Creating Layer inception_5a/3x3_p
I1206 21:20:05.758209  8588 net.cpp:434] inception_5a/3x3_p <- inception_5a/3x3_reduce_p
I1206 21:20:05.758227  8588 net.cpp:408] inception_5a/3x3_p -> inception_5a/3x3_p
I1206 21:20:05.763070  8588 net.cpp:150] Setting up inception_5a/3x3_p
I1206 21:20:05.763125  8588 net.cpp:157] Top shape: 100 320 10 5 (1600000)
I1206 21:20:05.763134  8588 net.cpp:165] Memory required for data: 2960003600
I1206 21:20:05.763152  8588 net.cpp:493] Sharing parameters 'inception_5a/3x3_w' owned by layer 'inception_5a/3x3', param index 0
I1206 21:20:05.763160  8588 net.cpp:493] Sharing parameters 'inception_5a/3x3_b' owned by layer 'inception_5a/3x3', param index 1
I1206 21:20:05.763167  8588 layer_factory.hpp:77] Creating layer inception_5a/relu_3x3_p
I1206 21:20:05.763182  8588 net.cpp:100] Creating Layer inception_5a/relu_3x3_p
I1206 21:20:05.763198  8588 net.cpp:434] inception_5a/relu_3x3_p <- inception_5a/3x3_p
I1206 21:20:05.763226  8588 net.cpp:395] inception_5a/relu_3x3_p -> inception_5a/3x3_p (in-place)
I1206 21:20:05.763434  8588 net.cpp:150] Setting up inception_5a/relu_3x3_p
I1206 21:20:05.763454  8588 net.cpp:157] Top shape: 100 320 10 5 (1600000)
I1206 21:20:05.763461  8588 net.cpp:165] Memory required for data: 2966403600
I1206 21:20:05.763468  8588 layer_factory.hpp:77] Creating layer inception_5a/5x5_reduce_p
I1206 21:20:05.763489  8588 net.cpp:100] Creating Layer inception_5a/5x5_reduce_p
I1206 21:20:05.763496  8588 net.cpp:434] inception_5a/5x5_reduce_p <- inception_4e/output_p_inception_4e/output_p_0_split_2
I1206 21:20:05.763514  8588 net.cpp:408] inception_5a/5x5_reduce_p -> inception_5a/5x5_reduce_p
I1206 21:20:05.765012  8588 net.cpp:150] Setting up inception_5a/5x5_reduce_p
I1206 21:20:05.765049  8588 net.cpp:157] Top shape: 100 32 10 5 (160000)
I1206 21:20:05.765056  8588 net.cpp:165] Memory required for data: 2967043600
I1206 21:20:05.765064  8588 net.cpp:493] Sharing parameters 'inception_5a/5x5_reduce_w' owned by layer 'inception_5a/5x5_reduce', param index 0
I1206 21:20:05.765072  8588 net.cpp:493] Sharing parameters 'inception_5a/5x5_reduce_b' owned by layer 'inception_5a/5x5_reduce', param index 1
I1206 21:20:05.765079  8588 layer_factory.hpp:77] Creating layer inception_5a/relu_5x5_reduce_p
I1206 21:20:05.765087  8588 net.cpp:100] Creating Layer inception_5a/relu_5x5_reduce_p
I1206 21:20:05.765094  8588 net.cpp:434] inception_5a/relu_5x5_reduce_p <- inception_5a/5x5_reduce_p
I1206 21:20:05.765110  8588 net.cpp:395] inception_5a/relu_5x5_reduce_p -> inception_5a/5x5_reduce_p (in-place)
I1206 21:20:05.765460  8588 net.cpp:150] Setting up inception_5a/relu_5x5_reduce_p
I1206 21:20:05.765480  8588 net.cpp:157] Top shape: 100 32 10 5 (160000)
I1206 21:20:05.765486  8588 net.cpp:165] Memory required for data: 2967683600
I1206 21:20:05.765502  8588 layer_factory.hpp:77] Creating layer inception_5a/5x5_p
I1206 21:20:05.765542  8588 net.cpp:100] Creating Layer inception_5a/5x5_p
I1206 21:20:05.765557  8588 net.cpp:434] inception_5a/5x5_p <- inception_5a/5x5_reduce_p
I1206 21:20:05.765565  8588 net.cpp:408] inception_5a/5x5_p -> inception_5a/5x5_p
I1206 21:20:05.767592  8588 net.cpp:150] Setting up inception_5a/5x5_p
I1206 21:20:05.767649  8588 net.cpp:157] Top shape: 100 128 10 5 (640000)
I1206 21:20:05.767657  8588 net.cpp:165] Memory required for data: 2970243600
I1206 21:20:05.767674  8588 net.cpp:493] Sharing parameters 'inception_5a/5x5_w' owned by layer 'inception_5a/5x5', param index 0
I1206 21:20:05.767691  8588 net.cpp:493] Sharing parameters 'inception_5a/5x5_b' owned by layer 'inception_5a/5x5', param index 1
I1206 21:20:05.767699  8588 layer_factory.hpp:77] Creating layer inception_5a/relu_5x5_p
I1206 21:20:05.767717  8588 net.cpp:100] Creating Layer inception_5a/relu_5x5_p
I1206 21:20:05.767735  8588 net.cpp:434] inception_5a/relu_5x5_p <- inception_5a/5x5_p
I1206 21:20:05.767752  8588 net.cpp:395] inception_5a/relu_5x5_p -> inception_5a/5x5_p (in-place)
I1206 21:20:05.767948  8588 net.cpp:150] Setting up inception_5a/relu_5x5_p
I1206 21:20:05.767967  8588 net.cpp:157] Top shape: 100 128 10 5 (640000)
I1206 21:20:05.767973  8588 net.cpp:165] Memory required for data: 2972803600
I1206 21:20:05.767979  8588 layer_factory.hpp:77] Creating layer inception_5a/pool_p
I1206 21:20:05.767990  8588 net.cpp:100] Creating Layer inception_5a/pool_p
I1206 21:20:05.767999  8588 net.cpp:434] inception_5a/pool_p <- inception_4e/output_p_inception_4e/output_p_0_split_3
I1206 21:20:05.768008  8588 net.cpp:408] inception_5a/pool_p -> inception_5a/pool_p
I1206 21:20:05.768087  8588 net.cpp:150] Setting up inception_5a/pool_p
I1206 21:20:05.768100  8588 net.cpp:157] Top shape: 100 832 10 5 (4160000)
I1206 21:20:05.768105  8588 net.cpp:165] Memory required for data: 2989443600
I1206 21:20:05.768115  8588 layer_factory.hpp:77] Creating layer inception_5a/pool_proj_p
I1206 21:20:05.768136  8588 net.cpp:100] Creating Layer inception_5a/pool_proj_p
I1206 21:20:05.768143  8588 net.cpp:434] inception_5a/pool_proj_p <- inception_5a/pool_p
I1206 21:20:05.768163  8588 net.cpp:408] inception_5a/pool_proj_p -> inception_5a/pool_proj_p
I1206 21:20:05.770638  8588 net.cpp:150] Setting up inception_5a/pool_proj_p
I1206 21:20:05.770696  8588 net.cpp:157] Top shape: 100 128 10 5 (640000)
I1206 21:20:05.770704  8588 net.cpp:165] Memory required for data: 2992003600
I1206 21:20:05.770722  8588 net.cpp:493] Sharing parameters 'inception_5a/pool_proj_w' owned by layer 'inception_5a/pool_proj', param index 0
I1206 21:20:05.770738  8588 net.cpp:493] Sharing parameters 'inception_5a/pool_proj_b' owned by layer 'inception_5a/pool_proj', param index 1
I1206 21:20:05.770745  8588 layer_factory.hpp:77] Creating layer inception_5a/relu_pool_proj_p
I1206 21:20:05.770763  8588 net.cpp:100] Creating Layer inception_5a/relu_pool_proj_p
I1206 21:20:05.770781  8588 net.cpp:434] inception_5a/relu_pool_proj_p <- inception_5a/pool_proj_p
I1206 21:20:05.770792  8588 net.cpp:395] inception_5a/relu_pool_proj_p -> inception_5a/pool_proj_p (in-place)
I1206 21:20:05.770985  8588 net.cpp:150] Setting up inception_5a/relu_pool_proj_p
I1206 21:20:05.771013  8588 net.cpp:157] Top shape: 100 128 10 5 (640000)
I1206 21:20:05.771020  8588 net.cpp:165] Memory required for data: 2994563600
I1206 21:20:05.771026  8588 layer_factory.hpp:77] Creating layer inception_5a/output_p
I1206 21:20:05.771034  8588 net.cpp:100] Creating Layer inception_5a/output_p
I1206 21:20:05.771042  8588 net.cpp:434] inception_5a/output_p <- inception_5a/1x1_p
I1206 21:20:05.771051  8588 net.cpp:434] inception_5a/output_p <- inception_5a/3x3_p
I1206 21:20:05.771059  8588 net.cpp:434] inception_5a/output_p <- inception_5a/5x5_p
I1206 21:20:05.771064  8588 net.cpp:434] inception_5a/output_p <- inception_5a/pool_proj_p
I1206 21:20:05.771072  8588 net.cpp:408] inception_5a/output_p -> inception_5a/output_p
I1206 21:20:05.771127  8588 net.cpp:150] Setting up inception_5a/output_p
I1206 21:20:05.771139  8588 net.cpp:157] Top shape: 100 832 10 5 (4160000)
I1206 21:20:05.771168  8588 net.cpp:165] Memory required for data: 3011203600
I1206 21:20:05.771174  8588 layer_factory.hpp:77] Creating layer inception_5a/output_p_inception_5a/output_p_0_split
I1206 21:20:05.771193  8588 net.cpp:100] Creating Layer inception_5a/output_p_inception_5a/output_p_0_split
I1206 21:20:05.771199  8588 net.cpp:434] inception_5a/output_p_inception_5a/output_p_0_split <- inception_5a/output_p
I1206 21:20:05.771208  8588 net.cpp:408] inception_5a/output_p_inception_5a/output_p_0_split -> inception_5a/output_p_inception_5a/output_p_0_split_0
I1206 21:20:05.771216  8588 net.cpp:408] inception_5a/output_p_inception_5a/output_p_0_split -> inception_5a/output_p_inception_5a/output_p_0_split_1
I1206 21:20:05.771225  8588 net.cpp:408] inception_5a/output_p_inception_5a/output_p_0_split -> inception_5a/output_p_inception_5a/output_p_0_split_2
I1206 21:20:05.771234  8588 net.cpp:408] inception_5a/output_p_inception_5a/output_p_0_split -> inception_5a/output_p_inception_5a/output_p_0_split_3
I1206 21:20:05.771342  8588 net.cpp:150] Setting up inception_5a/output_p_inception_5a/output_p_0_split
I1206 21:20:05.771358  8588 net.cpp:157] Top shape: 100 832 10 5 (4160000)
I1206 21:20:05.771364  8588 net.cpp:157] Top shape: 100 832 10 5 (4160000)
I1206 21:20:05.771370  8588 net.cpp:157] Top shape: 100 832 10 5 (4160000)
I1206 21:20:05.771378  8588 net.cpp:157] Top shape: 100 832 10 5 (4160000)
I1206 21:20:05.771383  8588 net.cpp:165] Memory required for data: 3077763600
I1206 21:20:05.771390  8588 layer_factory.hpp:77] Creating layer inception_5b/1x1_p
I1206 21:20:05.771406  8588 net.cpp:100] Creating Layer inception_5b/1x1_p
I1206 21:20:05.771414  8588 net.cpp:434] inception_5b/1x1_p <- inception_5a/output_p_inception_5a/output_p_0_split_0
I1206 21:20:05.771423  8588 net.cpp:408] inception_5b/1x1_p -> inception_5b/1x1_p
I1206 21:20:05.775406  8588 net.cpp:150] Setting up inception_5b/1x1_p
I1206 21:20:05.775461  8588 net.cpp:157] Top shape: 100 384 10 5 (1920000)
I1206 21:20:05.775470  8588 net.cpp:165] Memory required for data: 3085443600
I1206 21:20:05.775497  8588 net.cpp:493] Sharing parameters 'inception_5b/1x1_w' owned by layer 'inception_5b/1x1', param index 0
I1206 21:20:05.775506  8588 net.cpp:493] Sharing parameters 'inception_5b/1x1_b' owned by layer 'inception_5b/1x1', param index 1
I1206 21:20:05.775512  8588 layer_factory.hpp:77] Creating layer inception_5b/relu_1x1_p
I1206 21:20:05.775537  8588 net.cpp:100] Creating Layer inception_5b/relu_1x1_p
I1206 21:20:05.775554  8588 net.cpp:434] inception_5b/relu_1x1_p <- inception_5b/1x1_p
I1206 21:20:05.775563  8588 net.cpp:395] inception_5b/relu_1x1_p -> inception_5b/1x1_p (in-place)
I1206 21:20:05.775980  8588 net.cpp:150] Setting up inception_5b/relu_1x1_p
I1206 21:20:05.776010  8588 net.cpp:157] Top shape: 100 384 10 5 (1920000)
I1206 21:20:05.776016  8588 net.cpp:165] Memory required for data: 3093123600
I1206 21:20:05.776023  8588 layer_factory.hpp:77] Creating layer inception_5b/3x3_reduce_p
I1206 21:20:05.776043  8588 net.cpp:100] Creating Layer inception_5b/3x3_reduce_p
I1206 21:20:05.776052  8588 net.cpp:434] inception_5b/3x3_reduce_p <- inception_5a/output_p_inception_5a/output_p_0_split_1
I1206 21:20:05.776069  8588 net.cpp:408] inception_5b/3x3_reduce_p -> inception_5b/3x3_reduce_p
I1206 21:20:05.779312  8588 net.cpp:150] Setting up inception_5b/3x3_reduce_p
I1206 21:20:05.779371  8588 net.cpp:157] Top shape: 100 192 10 5 (960000)
I1206 21:20:05.779378  8588 net.cpp:165] Memory required for data: 3096963600
I1206 21:20:05.779398  8588 net.cpp:493] Sharing parameters 'inception_5b/3x3_reduce_w' owned by layer 'inception_5b/3x3_reduce', param index 0
I1206 21:20:05.779407  8588 net.cpp:493] Sharing parameters 'inception_5b/3x3_reduce_b' owned by layer 'inception_5b/3x3_reduce', param index 1
I1206 21:20:05.779414  8588 layer_factory.hpp:77] Creating layer inception_5b/relu_3x3_reduce_p
I1206 21:20:05.779435  8588 net.cpp:100] Creating Layer inception_5b/relu_3x3_reduce_p
I1206 21:20:05.779446  8588 net.cpp:434] inception_5b/relu_3x3_reduce_p <- inception_5b/3x3_reduce_p
I1206 21:20:05.779474  8588 net.cpp:395] inception_5b/relu_3x3_reduce_p -> inception_5b/3x3_reduce_p (in-place)
I1206 21:20:05.779685  8588 net.cpp:150] Setting up inception_5b/relu_3x3_reduce_p
I1206 21:20:05.779705  8588 net.cpp:157] Top shape: 100 192 10 5 (960000)
I1206 21:20:05.779711  8588 net.cpp:165] Memory required for data: 3100803600
I1206 21:20:05.779729  8588 layer_factory.hpp:77] Creating layer inception_5b/3x3_p
I1206 21:20:05.779744  8588 net.cpp:100] Creating Layer inception_5b/3x3_p
I1206 21:20:05.779752  8588 net.cpp:434] inception_5b/3x3_p <- inception_5b/3x3_reduce_p
I1206 21:20:05.779762  8588 net.cpp:408] inception_5b/3x3_p -> inception_5b/3x3_p
I1206 21:20:05.785859  8588 net.cpp:150] Setting up inception_5b/3x3_p
I1206 21:20:05.785915  8588 net.cpp:157] Top shape: 100 384 10 5 (1920000)
I1206 21:20:05.785923  8588 net.cpp:165] Memory required for data: 3108483600
I1206 21:20:05.785933  8588 net.cpp:493] Sharing parameters 'inception_5b/3x3_w' owned by layer 'inception_5b/3x3', param index 0
I1206 21:20:05.785949  8588 net.cpp:493] Sharing parameters 'inception_5b/3x3_b' owned by layer 'inception_5b/3x3', param index 1
I1206 21:20:05.785956  8588 layer_factory.hpp:77] Creating layer inception_5b/relu_3x3_p
I1206 21:20:05.785977  8588 net.cpp:100] Creating Layer inception_5b/relu_3x3_p
I1206 21:20:05.785985  8588 net.cpp:434] inception_5b/relu_3x3_p <- inception_5b/3x3_p
I1206 21:20:05.786002  8588 net.cpp:395] inception_5b/relu_3x3_p -> inception_5b/3x3_p (in-place)
I1206 21:20:05.786346  8588 net.cpp:150] Setting up inception_5b/relu_3x3_p
I1206 21:20:05.786375  8588 net.cpp:157] Top shape: 100 384 10 5 (1920000)
I1206 21:20:05.786381  8588 net.cpp:165] Memory required for data: 3116163600
I1206 21:20:05.786387  8588 layer_factory.hpp:77] Creating layer inception_5b/5x5_reduce_p
I1206 21:20:05.786408  8588 net.cpp:100] Creating Layer inception_5b/5x5_reduce_p
I1206 21:20:05.786418  8588 net.cpp:434] inception_5b/5x5_reduce_p <- inception_5a/output_p_inception_5a/output_p_0_split_2
I1206 21:20:05.786435  8588 net.cpp:408] inception_5b/5x5_reduce_p -> inception_5b/5x5_reduce_p
I1206 21:20:05.787827  8588 net.cpp:150] Setting up inception_5b/5x5_reduce_p
I1206 21:20:05.787866  8588 net.cpp:157] Top shape: 100 48 10 5 (240000)
I1206 21:20:05.787873  8588 net.cpp:165] Memory required for data: 3117123600
I1206 21:20:05.787890  8588 net.cpp:493] Sharing parameters 'inception_5b/5x5_reduce_w' owned by layer 'inception_5b/5x5_reduce', param index 0
I1206 21:20:05.787899  8588 net.cpp:493] Sharing parameters 'inception_5b/5x5_reduce_b' owned by layer 'inception_5b/5x5_reduce', param index 1
I1206 21:20:05.787904  8588 layer_factory.hpp:77] Creating layer inception_5b/relu_5x5_reduce_p
I1206 21:20:05.787914  8588 net.cpp:100] Creating Layer inception_5b/relu_5x5_reduce_p
I1206 21:20:05.787922  8588 net.cpp:434] inception_5b/relu_5x5_reduce_p <- inception_5b/5x5_reduce_p
I1206 21:20:05.787940  8588 net.cpp:395] inception_5b/relu_5x5_reduce_p -> inception_5b/5x5_reduce_p (in-place)
I1206 21:20:05.788287  8588 net.cpp:150] Setting up inception_5b/relu_5x5_reduce_p
I1206 21:20:05.788317  8588 net.cpp:157] Top shape: 100 48 10 5 (240000)
I1206 21:20:05.788323  8588 net.cpp:165] Memory required for data: 3118083600
I1206 21:20:05.788341  8588 layer_factory.hpp:77] Creating layer inception_5b/5x5_p
I1206 21:20:05.788357  8588 net.cpp:100] Creating Layer inception_5b/5x5_p
I1206 21:20:05.788365  8588 net.cpp:434] inception_5b/5x5_p <- inception_5b/5x5_reduce_p
I1206 21:20:05.788375  8588 net.cpp:408] inception_5b/5x5_p -> inception_5b/5x5_p
I1206 21:20:05.790594  8588 net.cpp:150] Setting up inception_5b/5x5_p
I1206 21:20:05.790650  8588 net.cpp:157] Top shape: 100 128 10 5 (640000)
I1206 21:20:05.790657  8588 net.cpp:165] Memory required for data: 3120643600
I1206 21:20:05.790675  8588 net.cpp:493] Sharing parameters 'inception_5b/5x5_w' owned by layer 'inception_5b/5x5', param index 0
I1206 21:20:05.790693  8588 net.cpp:493] Sharing parameters 'inception_5b/5x5_b' owned by layer 'inception_5b/5x5', param index 1
I1206 21:20:05.790714  8588 layer_factory.hpp:77] Creating layer inception_5b/relu_5x5_p
I1206 21:20:05.790737  8588 net.cpp:100] Creating Layer inception_5b/relu_5x5_p
I1206 21:20:05.790746  8588 net.cpp:434] inception_5b/relu_5x5_p <- inception_5b/5x5_p
I1206 21:20:05.790763  8588 net.cpp:395] inception_5b/relu_5x5_p -> inception_5b/5x5_p (in-place)
I1206 21:20:05.790964  8588 net.cpp:150] Setting up inception_5b/relu_5x5_p
I1206 21:20:05.790992  8588 net.cpp:157] Top shape: 100 128 10 5 (640000)
I1206 21:20:05.790997  8588 net.cpp:165] Memory required for data: 3123203600
I1206 21:20:05.791004  8588 layer_factory.hpp:77] Creating layer inception_5b/pool_p
I1206 21:20:05.791013  8588 net.cpp:100] Creating Layer inception_5b/pool_p
I1206 21:20:05.791021  8588 net.cpp:434] inception_5b/pool_p <- inception_5a/output_p_inception_5a/output_p_0_split_3
I1206 21:20:05.791031  8588 net.cpp:408] inception_5b/pool_p -> inception_5b/pool_p
I1206 21:20:05.791080  8588 net.cpp:150] Setting up inception_5b/pool_p
I1206 21:20:05.791091  8588 net.cpp:157] Top shape: 100 832 10 5 (4160000)
I1206 21:20:05.791097  8588 net.cpp:165] Memory required for data: 3139843600
I1206 21:20:05.791103  8588 layer_factory.hpp:77] Creating layer inception_5b/pool_proj_p
I1206 21:20:05.791124  8588 net.cpp:100] Creating Layer inception_5b/pool_proj_p
I1206 21:20:05.791131  8588 net.cpp:434] inception_5b/pool_proj_p <- inception_5b/pool_p
I1206 21:20:05.791139  8588 net.cpp:408] inception_5b/pool_proj_p -> inception_5b/pool_proj_p
I1206 21:20:05.793480  8588 net.cpp:150] Setting up inception_5b/pool_proj_p
I1206 21:20:05.793531  8588 net.cpp:157] Top shape: 100 128 10 5 (640000)
I1206 21:20:05.793540  8588 net.cpp:165] Memory required for data: 3142403600
I1206 21:20:05.793558  8588 net.cpp:493] Sharing parameters 'inception_5b/pool_proj_w' owned by layer 'inception_5b/pool_proj', param index 0
I1206 21:20:05.793568  8588 net.cpp:493] Sharing parameters 'inception_5b/pool_proj_b' owned by layer 'inception_5b/pool_proj', param index 1
I1206 21:20:05.793578  8588 layer_factory.hpp:77] Creating layer inception_5b/relu_pool_proj_p
I1206 21:20:05.793601  8588 net.cpp:100] Creating Layer inception_5b/relu_pool_proj_p
I1206 21:20:05.793611  8588 net.cpp:434] inception_5b/relu_pool_proj_p <- inception_5b/pool_proj_p
I1206 21:20:05.793619  8588 net.cpp:395] inception_5b/relu_pool_proj_p -> inception_5b/pool_proj_p (in-place)
I1206 21:20:05.793817  8588 net.cpp:150] Setting up inception_5b/relu_pool_proj_p
I1206 21:20:05.793835  8588 net.cpp:157] Top shape: 100 128 10 5 (640000)
I1206 21:20:05.793841  8588 net.cpp:165] Memory required for data: 3144963600
I1206 21:20:05.793848  8588 layer_factory.hpp:77] Creating layer inception_5b/output_p
I1206 21:20:05.793855  8588 net.cpp:100] Creating Layer inception_5b/output_p
I1206 21:20:05.793862  8588 net.cpp:434] inception_5b/output_p <- inception_5b/1x1_p
I1206 21:20:05.793870  8588 net.cpp:434] inception_5b/output_p <- inception_5b/3x3_p
I1206 21:20:05.793877  8588 net.cpp:434] inception_5b/output_p <- inception_5b/5x5_p
I1206 21:20:05.793884  8588 net.cpp:434] inception_5b/output_p <- inception_5b/pool_proj_p
I1206 21:20:05.793891  8588 net.cpp:408] inception_5b/output_p -> inception_5b/output_p
I1206 21:20:05.793934  8588 net.cpp:150] Setting up inception_5b/output_p
I1206 21:20:05.793946  8588 net.cpp:157] Top shape: 100 1024 10 5 (5120000)
I1206 21:20:05.793951  8588 net.cpp:165] Memory required for data: 3165443600
I1206 21:20:05.793956  8588 layer_factory.hpp:77] Creating layer inception_5b/output_p_inception_5b/output_p_0_split
I1206 21:20:05.793967  8588 net.cpp:100] Creating Layer inception_5b/output_p_inception_5b/output_p_0_split
I1206 21:20:05.793972  8588 net.cpp:434] inception_5b/output_p_inception_5b/output_p_0_split <- inception_5b/output_p
I1206 21:20:05.793980  8588 net.cpp:408] inception_5b/output_p_inception_5b/output_p_0_split -> inception_5b/output_p_inception_5b/output_p_0_split_0
I1206 21:20:05.793988  8588 net.cpp:408] inception_5b/output_p_inception_5b/output_p_0_split -> inception_5b/output_p_inception_5b/output_p_0_split_1
I1206 21:20:05.794036  8588 net.cpp:150] Setting up inception_5b/output_p_inception_5b/output_p_0_split
I1206 21:20:05.794045  8588 net.cpp:157] Top shape: 100 1024 10 5 (5120000)
I1206 21:20:05.794051  8588 net.cpp:157] Top shape: 100 1024 10 5 (5120000)
I1206 21:20:05.794057  8588 net.cpp:165] Memory required for data: 3206403600
I1206 21:20:05.794064  8588 layer_factory.hpp:77] Creating layer conv3_fea
I1206 21:20:05.794081  8588 net.cpp:100] Creating Layer conv3_fea
I1206 21:20:05.794090  8588 net.cpp:434] conv3_fea <- inception_5b/output_inception_5b/output_0_split_0
I1206 21:20:05.794107  8588 net.cpp:408] conv3_fea -> conv3_fea
I1206 21:20:06.032891  8588 net.cpp:150] Setting up conv3_fea
I1206 21:20:06.032956  8588 net.cpp:157] Top shape: 100 1024 10 5 (5120000)
I1206 21:20:06.032964  8588 net.cpp:165] Memory required for data: 3226883600
I1206 21:20:06.032989  8588 layer_factory.hpp:77] Creating layer relu3_fea
I1206 21:20:06.033002  8588 net.cpp:100] Creating Layer relu3_fea
I1206 21:20:06.033011  8588 net.cpp:434] relu3_fea <- conv3_fea
I1206 21:20:06.033020  8588 net.cpp:395] relu3_fea -> conv3_fea (in-place)
I1206 21:20:06.033377  8588 net.cpp:150] Setting up relu3_fea
I1206 21:20:06.033408  8588 net.cpp:157] Top shape: 100 1024 10 5 (5120000)
I1206 21:20:06.033414  8588 net.cpp:165] Memory required for data: 3247363600
I1206 21:20:06.033421  8588 layer_factory.hpp:77] Creating layer conv4_fea
I1206 21:20:06.033437  8588 net.cpp:100] Creating Layer conv4_fea
I1206 21:20:06.033445  8588 net.cpp:434] conv4_fea <- conv3_fea
I1206 21:20:06.033455  8588 net.cpp:408] conv4_fea -> conv4_fea
I1206 21:20:06.272888  8588 net.cpp:150] Setting up conv4_fea
I1206 21:20:06.272956  8588 net.cpp:157] Top shape: 100 1024 10 5 (5120000)
I1206 21:20:06.272964  8588 net.cpp:165] Memory required for data: 3267843600
I1206 21:20:06.272987  8588 layer_factory.hpp:77] Creating layer relu4_fea
I1206 21:20:06.273010  8588 net.cpp:100] Creating Layer relu4_fea
I1206 21:20:06.273017  8588 net.cpp:434] relu4_fea <- conv4_fea
I1206 21:20:06.273033  8588 net.cpp:395] relu4_fea -> conv4_fea (in-place)
I1206 21:20:06.273238  8588 net.cpp:150] Setting up relu4_fea
I1206 21:20:06.273258  8588 net.cpp:157] Top shape: 100 1024 10 5 (5120000)
I1206 21:20:06.273264  8588 net.cpp:165] Memory required for data: 3288323600
I1206 21:20:06.273270  8588 layer_factory.hpp:77] Creating layer pool5_fea
I1206 21:20:06.273293  8588 net.cpp:100] Creating Layer pool5_fea
I1206 21:20:06.273300  8588 net.cpp:434] pool5_fea <- conv4_fea
I1206 21:20:06.273327  8588 net.cpp:408] pool5_fea -> pool5_fea
I1206 21:20:06.273391  8588 net.cpp:150] Setting up pool5_fea
I1206 21:20:06.273408  8588 net.cpp:157] Top shape: 100 1024 5 2 (1024000)
I1206 21:20:06.273414  8588 net.cpp:165] Memory required for data: 3292419600
I1206 21:20:06.273422  8588 layer_factory.hpp:77] Creating layer fc6_Infea
I1206 21:20:06.273440  8588 net.cpp:100] Creating Layer fc6_Infea
I1206 21:20:06.273447  8588 net.cpp:434] fc6_Infea <- pool5_fea
I1206 21:20:06.273465  8588 net.cpp:408] fc6_Infea -> fc6_fea
I1206 21:20:06.542006  8588 net.cpp:150] Setting up fc6_Infea
I1206 21:20:06.542074  8588 net.cpp:157] Top shape: 100 1024 (102400)
I1206 21:20:06.542582  8588 net.cpp:165] Memory required for data: 3292829200
I1206 21:20:06.542650  8588 layer_factory.hpp:77] Creating layer relu6_fea
I1206 21:20:06.542690  8588 net.cpp:100] Creating Layer relu6_fea
I1206 21:20:06.542716  8588 net.cpp:434] relu6_fea <- fc6_fea
I1206 21:20:06.542743  8588 net.cpp:395] relu6_fea -> fc6_fea (in-place)
I1206 21:20:06.543834  8588 net.cpp:150] Setting up relu6_fea
I1206 21:20:06.543906  8588 net.cpp:157] Top shape: 100 1024 (102400)
I1206 21:20:06.543948  8588 net.cpp:165] Memory required for data: 3293238800
I1206 21:20:06.543972  8588 layer_factory.hpp:77] Creating layer drop6_fea
I1206 21:20:06.544050  8588 net.cpp:100] Creating Layer drop6_fea
I1206 21:20:06.544081  8588 net.cpp:434] drop6_fea <- fc6_fea
I1206 21:20:06.544131  8588 net.cpp:395] drop6_fea -> fc6_fea (in-place)
I1206 21:20:06.544227  8588 net.cpp:150] Setting up drop6_fea
I1206 21:20:06.544255  8588 net.cpp:157] Top shape: 100 1024 (102400)
I1206 21:20:06.544278  8588 net.cpp:165] Memory required for data: 3293648400
I1206 21:20:06.544306  8588 layer_factory.hpp:77] Creating layer fc7_Infea
I1206 21:20:06.544332  8588 net.cpp:100] Creating Layer fc7_Infea
I1206 21:20:06.544355  8588 net.cpp:434] fc7_Infea <- fc6_fea
I1206 21:20:06.544380  8588 net.cpp:408] fc7_Infea -> fc7_fea
I1206 21:20:06.573768  8588 net.cpp:150] Setting up fc7_Infea
I1206 21:20:06.573840  8588 net.cpp:157] Top shape: 100 1024 (102400)
I1206 21:20:06.573853  8588 net.cpp:165] Memory required for data: 3294058000
I1206 21:20:06.573882  8588 layer_factory.hpp:77] Creating layer relu7_fea
I1206 21:20:06.573897  8588 net.cpp:100] Creating Layer relu7_fea
I1206 21:20:06.573906  8588 net.cpp:434] relu7_fea <- fc7_fea
I1206 21:20:06.573916  8588 net.cpp:395] relu7_fea -> fc7_fea (in-place)
I1206 21:20:06.574321  8588 net.cpp:150] Setting up relu7_fea
I1206 21:20:06.574347  8588 net.cpp:157] Top shape: 100 1024 (102400)
I1206 21:20:06.574352  8588 net.cpp:165] Memory required for data: 3294467600
I1206 21:20:06.574359  8588 layer_factory.hpp:77] Creating layer drop7_fea
I1206 21:20:06.574376  8588 net.cpp:100] Creating Layer drop7_fea
I1206 21:20:06.574383  8588 net.cpp:434] drop7_fea <- fc7_fea
I1206 21:20:06.574391  8588 net.cpp:395] drop7_fea -> fc7_fea (in-place)
I1206 21:20:06.574419  8588 net.cpp:150] Setting up drop7_fea
I1206 21:20:06.574429  8588 net.cpp:157] Top shape: 100 1024 (102400)
I1206 21:20:06.574435  8588 net.cpp:165] Memory required for data: 3294877200
I1206 21:20:06.574441  8588 layer_factory.hpp:77] Creating layer fc7_fea_drop7_fea_0_split
I1206 21:20:06.574450  8588 net.cpp:100] Creating Layer fc7_fea_drop7_fea_0_split
I1206 21:20:06.574456  8588 net.cpp:434] fc7_fea_drop7_fea_0_split <- fc7_fea
I1206 21:20:06.574463  8588 net.cpp:408] fc7_fea_drop7_fea_0_split -> fc7_fea_drop7_fea_0_split_0
I1206 21:20:06.574473  8588 net.cpp:408] fc7_fea_drop7_fea_0_split -> fc7_fea_drop7_fea_0_split_1
I1206 21:20:06.574514  8588 net.cpp:150] Setting up fc7_fea_drop7_fea_0_split
I1206 21:20:06.574527  8588 net.cpp:157] Top shape: 100 1024 (102400)
I1206 21:20:06.574533  8588 net.cpp:157] Top shape: 100 1024 (102400)
I1206 21:20:06.574539  8588 net.cpp:165] Memory required for data: 3295696400
I1206 21:20:06.574548  8588 layer_factory.hpp:77] Creating layer fc8_Infea
I1206 21:20:06.574558  8588 net.cpp:100] Creating Layer fc8_Infea
I1206 21:20:06.574565  8588 net.cpp:434] fc8_Infea <- fc7_fea_drop7_fea_0_split_0
I1206 21:20:06.574573  8588 net.cpp:408] fc8_Infea -> fc8_fea
I1206 21:20:06.601934  8588 net.cpp:150] Setting up fc8_Infea
I1206 21:20:06.602006  8588 net.cpp:157] Top shape: 100 1000 (100000)
I1206 21:20:06.602020  8588 net.cpp:165] Memory required for data: 3296096400
I1206 21:20:06.602049  8588 layer_factory.hpp:77] Creating layer fc8_fea_fc8_Infea_0_split
I1206 21:20:06.602068  8588 net.cpp:100] Creating Layer fc8_fea_fc8_Infea_0_split
I1206 21:20:06.602077  8588 net.cpp:434] fc8_fea_fc8_Infea_0_split <- fc8_fea
I1206 21:20:06.602087  8588 net.cpp:408] fc8_fea_fc8_Infea_0_split -> fc8_fea_fc8_Infea_0_split_0
I1206 21:20:06.602104  8588 net.cpp:408] fc8_fea_fc8_Infea_0_split -> fc8_fea_fc8_Infea_0_split_1
I1206 21:20:06.602145  8588 net.cpp:150] Setting up fc8_fea_fc8_Infea_0_split
I1206 21:20:06.602167  8588 net.cpp:157] Top shape: 100 1000 (100000)
I1206 21:20:06.602174  8588 net.cpp:157] Top shape: 100 1000 (100000)
I1206 21:20:06.602180  8588 net.cpp:165] Memory required for data: 3296896400
I1206 21:20:06.602186  8588 layer_factory.hpp:77] Creating layer loss_ID
I1206 21:20:06.602201  8588 net.cpp:100] Creating Layer loss_ID
I1206 21:20:06.602208  8588 net.cpp:434] loss_ID <- fc8_fea_fc8_Infea_0_split_0
I1206 21:20:06.602217  8588 net.cpp:434] loss_ID <- label_ID_data_3_split_0
I1206 21:20:06.602226  8588 net.cpp:408] loss_ID -> loss_ID
…
I1206 21:20:06.603114  8588 net.cpp:150] Setting up accuracy_ID
I1206 21:20:06.603132  8588 net.cpp:157] Top shape: (1)
I1206 21:20:06.603137  8588 net.cpp:165] Memory required for data: 3296896408
I1206 21:20:06.603144  8588 layer_factory.hpp:77] Creating layer conv3_pfea
I1206 21:20:06.603157  8588 net.cpp:100] Creating Layer conv3_pfea
I1206 21:20:06.603163  8588 net.cpp:434] conv3_pfea <- inception_5b/output_p_inception_5b/output_p_0_split_0
I1206 21:20:06.603179  8588 net.cpp:408] conv3_pfea -> conv3_pfea
I1206 21:20:06.851783  8588 net.cpp:150] Setting up conv3_pfea
I1206 21:20:06.851857  8588 net.cpp:157] Top shape: 100 1024 10 5 (5120000)
I1206 21:20:06.851878  8588 net.cpp:165] Memory required for data: 3317376408
I1206 21:20:06.851904  8588 layer_factory.hpp:77] Creating layer relu3_pfea
I1206 21:20:06.851927  8588 net.cpp:100] Creating Layer relu3_pfea
I1206 21:20:06.851935  8588 net.cpp:434] relu3_pfea <- conv3_pfea
I1206 21:20:06.851953  8588 net.cpp:395] relu3_pfea -> conv3_pfea (in-place)
I1206 21:20:06.852370  8588 net.cpp:150] Setting up relu3_pfea
I1206 21:20:06.852398  8588 net.cpp:157] Top shape: 100 1024 10 5 (5120000)
I1206 21:20:06.852407  8588 net.cpp:165] Memory required for data: 3337856408
I1206 21:20:06.852421  8588 layer_factory.hpp:77] Creating layer conv4_pfea
I1206 21:20:06.852444  8588 net.cpp:100] Creating Layer conv4_pfea
I1206 21:20:06.852452  8588 net.cpp:434] conv4_pfea <- conv3_pfea
I1206 21:20:06.852470  8588 net.cpp:408] conv4_pfea -> conv4_pfea
I1206 21:20:07.097082  8588 net.cpp:150] Setting up conv4_pfea
I1206 21:20:07.097153  8588 net.cpp:157] Top shape: 100 1024 10 5 (5120000)
I1206 21:20:07.097165  8588 net.cpp:165] Memory required for data: 3358336408
I1206 21:20:07.097193  8588 layer_factory.hpp:77] Creating layer relu4_pfea
I1206 21:20:07.097216  8588 net.cpp:100] Creating Layer relu4_pfea
I1206 21:20:07.097226  8588 net.cpp:434] relu4_pfea <- conv4_pfea
I1206 21:20:07.097242  8588 net.cpp:395] relu4_pfea -> conv4_pfea (in-place)
I1206 21:20:07.097470  8588 net.cpp:150] Setting up relu4_pfea
I1206 21:20:07.097498  8588 net.cpp:157] Top shape: 100 1024 10 5 (5120000)
I1206 21:20:07.097504  8588 net.cpp:165] Memory required for data: 3378816408
I1206 21:20:07.097512  8588 layer_factory.hpp:77] Creating layer pool5_pfea
I1206 21:20:07.097522  8588 net.cpp:100] Creating Layer pool5_pfea
I1206 21:20:07.097528  8588 net.cpp:434] pool5_pfea <- conv4_pfea
I1206 21:20:07.097537  8588 net.cpp:408] pool5_pfea -> pool5_pfea
I1206 21:20:07.097587  8588 net.cpp:150] Setting up pool5_pfea
I1206 21:20:07.097599  8588 net.cpp:157] Top shape: 100 1024 5 2 (1024000)
I1206 21:20:07.097604  8588 net.cpp:165] Memory required for data: 3382912408
I1206 21:20:07.097610  8588 layer_factory.hpp:77] Creating layer fc6_Inpfea
I1206 21:20:07.097630  8588 net.cpp:100] Creating Layer fc6_Inpfea
I1206 21:20:07.097637  8588 net.cpp:434] fc6_Inpfea <- pool5_pfea
I1206 21:20:07.097646  8588 net.cpp:408] fc6_Inpfea -> fc6_pfea
I1206 21:20:07.362618  8588 net.cpp:150] Setting up fc6_Inpfea
I1206 21:20:07.362690  8588 net.cpp:157] Top shape: 100 1024 (102400)
I1206 21:20:07.362701  8588 net.cpp:165] Memory required for data: 3383322008
I1206 21:20:07.362727  8588 layer_factory.hpp:77] Creating layer relu6_pfea
I1206 21:20:07.362742  8588 net.cpp:100] Creating Layer relu6_pfea
I1206 21:20:07.362751  8588 net.cpp:434] relu6_pfea <- fc6_pfea
I1206 21:20:07.362782  8588 net.cpp:395] relu6_pfea -> fc6_pfea (in-place)
I1206 21:20:07.363430  8588 net.cpp:150] Setting up relu6_pfea
I1206 21:20:07.363457  8588 net.cpp:157] Top shape: 100 1024 (102400)
I1206 21:20:07.363464  8588 net.cpp:165] Memory required for data: 3383731608
I1206 21:20:07.363471  8588 layer_factory.hpp:77] Creating layer drop6_pfea
I1206 21:20:07.363488  8588 net.cpp:100] Creating Layer drop6_pfea
I1206 21:20:07.363495  8588 net.cpp:434] drop6_pfea <- fc6_pfea
I1206 21:20:07.363504  8588 net.cpp:395] drop6_pfea -> fc6_pfea (in-place)
I1206 21:20:07.363543  8588 net.cpp:150] Setting up drop6_pfea
I1206 21:20:07.363551  8588 net.cpp:157] Top shape: 100 1024 (102400)
I1206 21:20:07.363557  8588 net.cpp:165] Memory required for data: 3384141208
I1206 21:20:07.363564  8588 layer_factory.hpp:77] Creating layer fc7_Inpfea
I1206 21:20:07.363576  8588 net.cpp:100] Creating Layer fc7_Inpfea
I1206 21:20:07.363584  8588 net.cpp:434] fc7_Inpfea <- fc6_pfea
I1206 21:20:07.363592  8588 net.cpp:408] fc7_Inpfea -> fc7_pfea
I1206 21:20:07.390127  8588 net.cpp:150] Setting up fc7_Inpfea
I1206 21:20:07.390197  8588 net.cpp:157] Top shape: 100 1024 (102400)
I1206 21:20:07.390208  8588 net.cpp:165] Memory required for data: 3384550808
I1206 21:20:07.390225  8588 layer_factory.hpp:77] Creating layer relu7_pfea
I1206 21:20:07.390246  8588 net.cpp:100] Creating Layer relu7_pfea
I1206 21:20:07.390254  8588 net.cpp:434] relu7_pfea <- fc7_pfea
I1206 21:20:07.390264  8588 net.cpp:395] relu7_pfea -> fc7_pfea (in-place)
I1206 21:20:07.390525  8588 net.cpp:150] Setting up relu7_pfea
I1206 21:20:07.390544  8588 net.cpp:157] Top shape: 100 1024 (102400)
I1206 21:20:07.390552  8588 net.cpp:165] Memory required for data: 3384960408
I1206 21:20:07.390558  8588 layer_factory.hpp:77] Creating layer drop7_pfea
I1206 21:20:07.390568  8588 net.cpp:100] Creating Layer drop7_pfea
I1206 21:20:07.390574  8588 net.cpp:434] drop7_pfea <- fc7_pfea
I1206 21:20:07.390581  8588 net.cpp:395] drop7_pfea -> fc7_pfea (in-place)
I1206 21:20:07.390617  8588 net.cpp:150] Setting up drop7_pfea
I1206 21:20:07.390627  8588 net.cpp:157] Top shape: 100 1024 (102400)
I1206 21:20:07.390640  8588 net.cpp:165] Memory required for data: 3385370008
I1206 21:20:07.390646  8588 layer_factory.hpp:77] Creating layer fc7_pfea_drop7_pfea_0_split
I1206 21:20:07.390655  8588 net.cpp:100] Creating Layer fc7_pfea_drop7_pfea_0_split
I1206 21:20:07.390661  8588 net.cpp:434] fc7_pfea_drop7_pfea_0_split <- fc7_pfea
I1206 21:20:07.390679  8588 net.cpp:408] fc7_pfea_drop7_pfea_0_split -> fc7_pfea_drop7_pfea_0_split_0
I1206 21:20:07.390688  8588 net.cpp:408] fc7_pfea_drop7_pfea_0_split -> fc7_pfea_drop7_pfea_0_split_1
I1206 21:20:07.390723  8588 net.cpp:150] Setting up fc7_pfea_drop7_pfea_0_split
I1206 21:20:07.390733  8588 net.cpp:157] Top shape: 100 1024 (102400)
I1206 21:20:07.390739  8588 net.cpp:157] Top shape: 100 1024 (102400)
I1206 21:20:07.390744  8588 net.cpp:165] Memory required for data: 3386189208
I1206 21:20:07.390750  8588 layer_factory.hpp:77] Creating layer fc8_Inpfea
I1206 21:20:07.390761  8588 net.cpp:100] Creating Layer fc8_Inpfea
I1206 21:20:07.390775  8588 net.cpp:434] fc8_Inpfea <- fc7_pfea_drop7_pfea_0_split_0
I1206 21:20:07.390784  8588 net.cpp:408] fc8_Inpfea -> fc8_pfea
I1206 21:20:07.416847  8588 net.cpp:150] Setting up fc8_Inpfea
I1206 21:20:07.416923  8588 net.cpp:157] Top shape: 100 1000 (100000)
I1206 21:20:07.416934  8588 net.cpp:165] Memory required for data: 3386589208
I1206 21:20:07.416961  8588 layer_factory.hpp:77] Creating layer fc8_pfea_fc8_Inpfea_0_split
I1206 21:20:07.416977  8588 net.cpp:100] Creating Layer fc8_pfea_fc8_Inpfea_0_split
I1206 21:20:07.416986  8588 net.cpp:434] fc8_pfea_fc8_Inpfea_0_split <- fc8_pfea
I1206 21:20:07.416997  8588 net.cpp:408] fc8_pfea_fc8_Inpfea_0_split -> fc8_pfea_fc8_Inpfea_0_split_0
I1206 21:20:07.417009  8588 net.cpp:408] fc8_pfea_fc8_Inpfea_0_split -> fc8_pfea_fc8_Inpfea_0_split_1
I1206 21:20:07.417053  8588 net.cpp:150] Setting up fc8_pfea_fc8_Inpfea_0_split
I1206 21:20:07.417062  8588 net.cpp:157] Top shape: 100 1000 (100000)
I1206 21:20:07.417089  8588 net.cpp:157] Top shape: 100 1000 (100000)
I1206 21:20:07.417095  8588 net.cpp:165] Memory required for data: 3387389208
I1206 21:20:07.417101  8588 layer_factory.hpp:77] Creating layer loss_pID
I1206 21:20:07.417114  8588 net.cpp:100] Creating Layer loss_pID
I1206 21:20:07.417121  8588 net.cpp:434] loss_pID <- fc8_pfea_fc8_Inpfea_0_split_0
I1206 21:20:07.417129  8588 net.cpp:434] loss_pID <- label_pID_data_4_split_0
I1206 21:20:07.417137  8588 net.cpp:408] loss_pID -> loss_pID
…
I1206 21:20:07.418035  8588 net.cpp:157] Top shape: (1)
I1206 21:20:07.418040  8588 net.cpp:165] Memory required for data: 3387389216
I1206 21:20:07.418045  8588 layer_factory.hpp:77] Creating layer conv2-all
I1206 21:20:07.418063  8588 net.cpp:100] Creating Layer conv2-all
I1206 21:20:07.418071  8588 net.cpp:434] conv2-all <- inception_5b/output_inception_5b/output_0_split_1
I1206 21:20:07.418078  8588 net.cpp:434] conv2-all <- inception_5b/output_p_inception_5b/output_p_0_split_1
I1206 21:20:07.418094  8588 net.cpp:408] conv2-all -> conv2-all
I1206 21:20:07.418133  8588 net.cpp:150] Setting up conv2-all
I1206 21:20:07.418141  8588 net.cpp:157] Top shape: 100 2048 10 5 (10240000)
I1206 21:20:07.418155  8588 net.cpp:165] Memory required for data: 3428349216
I1206 21:20:07.418161  8588 layer_factory.hpp:77] Creating layer conv3-sm
I1206 21:20:07.418185  8588 net.cpp:100] Creating Layer conv3-sm
I1206 21:20:07.418193  8588 net.cpp:434] conv3-sm <- conv2-all
I1206 21:20:07.418220  8588 net.cpp:408] conv3-sm -> conv3
I1206 21:20:07.897279  8588 net.cpp:150] Setting up conv3-sm
I1206 21:20:07.897367  8588 net.cpp:157] Top shape: 100 1024 10 5 (5120000)
I1206 21:20:07.897379  8588 net.cpp:165] Memory required for data: 3448829216
I1206 21:20:07.897402  8588 layer_factory.hpp:77] Creating layer relu3
I1206 21:20:07.897426  8588 net.cpp:100] Creating Layer relu3
I1206 21:20:07.897436  8588 net.cpp:434] relu3 <- conv3
I1206 21:20:07.897454  8588 net.cpp:395] relu3 -> conv3 (in-place)
I1206 21:20:07.897663  8588 net.cpp:150] Setting up relu3
I1206 21:20:07.897687  8588 net.cpp:157] Top shape: 100 1024 10 5 (5120000)
I1206 21:20:07.897693  8588 net.cpp:165] Memory required for data: 3469309216
I1206 21:20:07.897701  8588 layer_factory.hpp:77] Creating layer conv4-sm
I1206 21:20:07.897716  8588 net.cpp:100] Creating Layer conv4-sm
I1206 21:20:07.897722  8588 net.cpp:434] conv4-sm <- conv3
I1206 21:20:07.897732  8588 net.cpp:408] conv4-sm -> conv4
I1206 21:20:08.141973  8588 net.cpp:150] Setting up conv4-sm
I1206 21:20:08.142048  8588 net.cpp:157] Top shape: 100 1024 10 5 (5120000)
I1206 21:20:08.142068  8588 net.cpp:165] Memory required for data: 3489789216
I1206 21:20:08.142098  8588 layer_factory.hpp:77] Creating layer relu4
I1206 21:20:08.142124  8588 net.cpp:100] Creating Layer relu4
I1206 21:20:08.142133  8588 net.cpp:434] relu4 <- conv4
I1206 21:20:08.142151  8588 net.cpp:395] relu4 -> conv4 (in-place)
I1206 21:20:08.142513  8588 net.cpp:150] Setting up relu4
I1206 21:20:08.142542  8588 net.cpp:157] Top shape: 100 1024 10 5 (5120000)
I1206 21:20:08.142550  8588 net.cpp:165] Memory required for data: 3510269216
I1206 21:20:08.142560  8588 layer_factory.hpp:77] Creating layer pool5
I1206 21:20:08.142570  8588 net.cpp:100] Creating Layer pool5
I1206 21:20:08.142594  8588 net.cpp:434] pool5 <- conv4
I1206 21:20:08.142612  8588 net.cpp:408] pool5 -> pool5
I1206 21:20:08.142673  8588 net.cpp:150] Setting up pool5
I1206 21:20:08.142689  8588 net.cpp:157] Top shape: 100 1024 5 2 (1024000)
I1206 21:20:08.142695  8588 net.cpp:165] Memory required for data: 3514365216
I1206 21:20:08.142701  8588 layer_factory.hpp:77] Creating layer fc6-sm
I1206 21:20:08.142719  8588 net.cpp:100] Creating Layer fc6-sm
I1206 21:20:08.142725  8588 net.cpp:434] fc6-sm <- pool5
I1206 21:20:08.142742  8588 net.cpp:408] fc6-sm -> fc6
I1206 21:20:08.407889  8588 net.cpp:150] Setting up fc6-sm
I1206 21:20:08.407965  8588 net.cpp:157] Top shape: 100 1024 (102400)
I1206 21:20:08.407977  8588 net.cpp:165] Memory required for data: 3514774816
I1206 21:20:08.408004  8588 layer_factory.hpp:77] Creating layer relu6
I1206 21:20:08.408030  8588 net.cpp:100] Creating Layer relu6
I1206 21:20:08.408040  8588 net.cpp:434] relu6 <- fc6
I1206 21:20:08.408057  8588 net.cpp:395] relu6 -> fc6 (in-place)
I1206 21:20:08.408375  8588 net.cpp:150] Setting up relu6
I1206 21:20:08.408408  8588 net.cpp:157] Top shape: 100 1024 (102400)
I1206 21:20:08.408426  8588 net.cpp:165] Memory required for data: 3515184416
I1206 21:20:08.408443  8588 layer_factory.hpp:77] Creating layer drop6
I1206 21:20:08.408464  8588 net.cpp:100] Creating Layer drop6
I1206 21:20:08.408484  8588 net.cpp:434] drop6 <- fc6
I1206 21:20:08.408505  8588 net.cpp:395] drop6 -> fc6 (in-place)
I1206 21:20:08.408545  8588 net.cpp:150] Setting up drop6
I1206 21:20:08.408562  8588 net.cpp:157] Top shape: 100 1024 (102400)
I1206 21:20:08.408568  8588 net.cpp:165] Memory required for data: 3515594016
I1206 21:20:08.408574  8588 layer_factory.hpp:77] Creating layer fc7
I1206 21:20:08.408593  8588 net.cpp:100] Creating Layer fc7
I1206 21:20:08.408601  8588 net.cpp:434] fc7 <- fc6
I1206 21:20:08.408608  8588 net.cpp:408] fc7 -> fc7
I1206 21:20:08.435361  8588 net.cpp:150] Setting up fc7
I1206 21:20:08.435438  8588 net.cpp:157] Top shape: 100 1024 (102400)
I1206 21:20:08.435451  8588 net.cpp:165] Memory required for data: 3516003616
I1206 21:20:08.435484  8588 layer_factory.hpp:77] Creating layer relu7
I1206 21:20:08.435506  8588 net.cpp:100] Creating Layer relu7
I1206 21:20:08.435515  8588 net.cpp:434] relu7 <- fc7
I1206 21:20:08.435523  8588 net.cpp:395] relu7 -> fc7 (in-place)
I1206 21:20:08.436064  8588 net.cpp:150] Setting up relu7
I1206 21:20:08.436098  8588 net.cpp:157] Top shape: 100 1024 (102400)
I1206 21:20:08.436105  8588 net.cpp:165] Memory required for data: 3516413216
I1206 21:20:08.436111  8588 layer_factory.hpp:77] Creating layer drop7
I1206 21:20:08.436120  8588 net.cpp:100] Creating Layer drop7
I1206 21:20:08.436134  8588 net.cpp:434] drop7 <- fc7
I1206 21:20:08.436141  8588 net.cpp:395] drop7 -> fc7 (in-place)
I1206 21:20:08.436175  8588 net.cpp:150] Setting up drop7
I1206 21:20:08.436192  8588 net.cpp:157] Top shape: 100 1024 (102400)
I1206 21:20:08.436197  8588 net.cpp:165] Memory required for data: 3516822816
I1206 21:20:08.436203  8588 layer_factory.hpp:77] Creating layer fc7-all
I1206 21:20:08.436218  8588 net.cpp:100] Creating Layer fc7-all
I1206 21:20:08.436224  8588 net.cpp:434] fc7-all <- fc7_fea_drop7_fea_0_split_1
I1206 21:20:08.436241  8588 net.cpp:434] fc7-all <- fc7_pfea_drop7_pfea_0_split_1
I1206 21:20:08.436249  8588 net.cpp:434] fc7-all <- fc7
I1206 21:20:08.436256  8588 net.cpp:408] fc7-all -> fc7-all
I1206 21:20:08.436282  8588 net.cpp:150] Setting up fc7-all
I1206 21:20:08.436291  8588 net.cpp:157] Top shape: 100 3072 (307200)
I1206 21:20:08.436297  8588 net.cpp:165] Memory required for data: 3518051616
I1206 21:20:08.436305  8588 layer_factory.hpp:77] Creating layer fc7-sm
I1206 21:20:08.436319  8588 net.cpp:100] Creating Layer fc7-sm
I1206 21:20:08.436326  8588 net.cpp:434] fc7-sm <- fc7-all
I1206 21:20:08.436342  8588 net.cpp:408] fc7-sm -> fc7-sm
I1206 21:20:08.436619  8588 net.cpp:150] Setting up fc7-sm
I1206 21:20:08.436636  8588 net.cpp:157] Top shape: 100 2 (200)
I1206 21:20:08.436643  8588 net.cpp:165] Memory required for data: 3518052416
I1206 21:20:08.436691  8588 layer_factory.hpp:77] Creating layer fc7-sm_fc7-sm_0_split
I1206 21:20:08.436702  8588 net.cpp:100] Creating Layer fc7-sm_fc7-sm_0_split
I1206 21:20:08.436709  8588 net.cpp:434] fc7-sm_fc7-sm_0_split <- fc7-sm
I1206 21:20:08.436717  8588 net.cpp:408] fc7-sm_fc7-sm_0_split -> fc7-sm_fc7-sm_0_split_0
I1206 21:20:08.436734  8588 net.cpp:408] fc7-sm_fc7-sm_0_split -> fc7-sm_fc7-sm_0_split_1
I1206 21:20:08.436779  8588 net.cpp:150] Setting up fc7-sm_fc7-sm_0_split
I1206 21:20:08.436789  8588 net.cpp:157] Top shape: 100 2 (200)
I1206 21:20:08.436794  8588 net.cpp:157] Top shape: 100 2 (200)
I1206 21:20:08.436800  8588 net.cpp:165] Memory required for data: 3518054016
I1206 21:20:08.436805  8588 layer_factory.hpp:77] Creating layer accuracy
I1206 21:20:08.436820  8588 net.cpp:100] Creating Layer accuracy
I1206 21:20:08.436826  8588 net.cpp:434] accuracy <- fc7-sm_fc7-sm_0_split_0
I1206 21:20:08.436841  8588 net.cpp:434] accuracy <- label_data_2_split_0
I1206 21:20:08.436848  8588 net.cpp:408] accuracy -> accuracy
…
