
name: "AlexNet"
layer {
  name: "data"
  type: "Python"
  top: "data"
  top: "data_p"
  top: "label"
  top: "label_ID"
  top: "label_pID"
  #top: "clip_markers"
  python_param {
    module: "cuhk01_SeqIn_layer"
    layer: "videoReadTrain"
    param_str:"{\'Train_batch_size\':\'100\',\'Train_frames_l\':\'1\',\'multylabel\':\'False\',\'balance\':\'True\'}"
  }
  include: { phase: TRAIN }
}

layer {
  name: "data"
  type: "Python"
  top: "data"
  top: "data_p"
  top: "label"
  top: "label_ID"
  top: "label_pID"
  #top: "clip_markers"
  python_param {
    module: "cuhk01_SeqIn_layer"
    layer: "videoReadTest"
    param_str:"{\'Test_batch_size\':\'100\',\'Test_frames_l\':\'1\',\'multylabel\':\'False\',\'balance\':\'True\'}"
  }
  include: { phase: TEST  }
}


####################################################################
######################### Image1 Conv layers #######################
####################################################################

layer {
  name: "conv1/7x7_s2"
  type: "Convolution"
  bottom: "data"
  top: "conv1/7x7_s2"
  param {
    name: "conv1/7x7_s2_w"
    lr_mult: 1
    decay_mult: 1
  }
  param {
    name: "conv1/7x7_s2_b"
    lr_mult: 2
    decay_mult: 0
  }
  convolution_param {
    num_output: 64
    pad: 3
    kernel_size: 7
    stride: 2
    weight_filler {
      type: "xavier"
    }
    bias_filler {
      type: "constant"
      value: 0.2
    }
  }
}
layer {
  name: "conv1/relu_7x7"
  type: "ReLU"
  bottom: "conv1/7x7_s2"
  top: "conv1/7x7_s2"
}
layer {
  name: "pool1/3x3_s2"
  type: "Pooling"
  bottom: "conv1/7x7_s2"
  top: "pool1/3x3_s2"
  pooling_param {
    pool: MAX
    kernel_size: 3
    stride: 2
  }
}
layer {
  name: "pool1/norm1"
  type: "LRN"
  bottom: "pool1/3x3_s2"
  top: "pool1/norm1"
  lrn_param {
    local_size: 5
    alpha: 0.0001
    beta: 0.75
  }
}
layer {
  name: "conv2/3x3_reduce"
  type: "Convolution"
  bottom: "pool1/norm1"
  top: "conv2/3x3_reduce"
  param {
    name: "conv2/3x3_reduce_w"
    lr_mult: 1
    decay_mult: 1
  }
  param {
    name: "conv2/3x3_reduce_b"
    lr_mult: 2
    decay_mult: 0
  }
  convolution_param {
    num_output: 64
    kernel_size: 1
    weight_filler {
      type: "xavier"
    }
    bias_filler {
      type: "constant"
      value: 0.2
    }
  }
}
layer {
  name: "conv2/relu_3x3_reduce"
  type: "ReLU"
  bottom: "conv2/3x3_reduce"
  top: "conv2/3x3_reduce"
}
layer {
  name: "conv2/3x3"
  type: "Convolution"
  bottom: "conv2/3x3_reduce"
  top: "conv2/3x3"
  param {
    name: "conv2/3x3_w"
    lr_mult: 1
    decay_mult: 1
  }
  param {
    name: "conv2/3x3_b"
    lr_mult: 2
    decay_mult: 0
  }
  convolution_param {
    num_output: 192
    pad: 1
    kernel_size: 3
    weight_filler {
      type: "xavier"
    }
    bias_filler {
      type: "constant"
      value: 0.2
    }
  }
}
layer {
  name: "conv2/relu_3x3"
  type: "ReLU"
  bottom: "conv2/3x3"
  top: "conv2/3x3"
}

layer {
  name: "pool2/3x3_s2"
  type: "Pooling"
  bottom: "conv2/3x3"
  top: "pool2/3x3_s2"
  pooling_param {
    pool: MAX
    kernel_size: 3
    stride: 2
  }
}
layer {
  name: "inception_3a/1x1"
  type: "Convolution"
  bottom: "pool2/3x3_s2"
  top: "inception_3a/1x1"
  param {
    name: "inception_3a/1x1_w"
    lr_mult: 1
    decay_mult: 1
  }
  param {
    name: "inception_3a/1x1_b"
    lr_mult: 2
    decay_mult: 0
  }
  convolution_param {
    num_output: 64
    kernel_size: 1
    weight_filler {
      type: "xavier"
    }
    bias_filler {
      type: "constant"
      value: 0.2
    }
  }
}
layer {
  name: "inception_3a/relu_1x1"
  type: "ReLU"
  bottom: "inception_3a/1x1"
  top: "inception_3a/1x1"
}
layer {
  name: "inception_3a/3x3_reduce"
  type: "Convolution"
  bottom: "pool2/3x3_s2"
  top: "inception_3a/3x3_reduce"
  param {
    name: "inception_3a/3x3_reduce_w"
    lr_mult: 1
    decay_mult: 1
  }
  param {
    name: "inception_3a/3x3_reduce_b"
    lr_mult: 2
    decay_mult: 0
  }
  convolution_param {
    num_output: 96
    kernel_size: 1
    weight_filler {
      type: "xavier"
    }
    bias_filler {
      type: "constant"
      value: 0.2
    }
  }
}
layer {
  name: "inception_3a/relu_3x3_reduce"
  type: "ReLU"
  bottom: "inception_3a/3x3_reduce"
  top: "inception_3a/3x3_reduce"
}
layer {
  name: "inception_3a/3x3"
  type: "Convolution"
  bottom: "inception_3a/3x3_reduce"
  top: "inception_3a/3x3"
  param {
    name: "inception_3a/3x3_w"
    lr_mult: 1
    decay_mult: 1
  }
  param {
    name: "inception_3a/3x3_b"
    lr_mult: 2
    decay_mult: 0
  }
  convolution_param {
    num_output: 128
    pad: 1
    kernel_size: 3
    weight_filler {
      type: "xavier"
    }
    bias_filler {
      type: "constant"
      value: 0.2
    }
  }
}
layer {
  name: "inception_3a/relu_3x3"
  type: "ReLU"
  bottom: "inception_3a/3x3"
  top: "inception_3a/3x3"
}
layer {
  name: "inception_3a/5x5_reduce"
  type: "Convolution"
  bottom: "pool2/3x3_s2"
  top: "inception_3a/5x5_reduce"
  param {
    name: "inception_3a/5x5_reduce_w"
    lr_mult: 1
    decay_mult: 1
  }
  param {
    name: "inception_3a/5x5_reduce_b"
    lr_mult: 2
    decay_mult: 0
  }
  convolution_param {
    num_output: 16
    kernel_size: 1
    weight_filler {
      type: "xavier"
    }
    bias_filler {
      type: "constant"
      value: 0.2
    }
  }
}
layer {
  name: "inception_3a/relu_5x5_reduce"
  type: "ReLU"
  bottom: "inception_3a/5x5_reduce"
  top: "inception_3a/5x5_reduce"
}
layer {
  name: "inception_3a/5x5"
  type: "Convolution"
  bottom: "inception_3a/5x5_reduce"
  top: "inception_3a/5x5"
  param {
    name: "inception_3a/5x5_w"
    lr_mult: 1
    decay_mult: 1
  }
  param {
    name: "inception_3a/5x5_b"
    lr_mult: 2
    decay_mult: 0
  }
  convolution_param {
    num_output: 32
    pad: 2
    kernel_size: 5
    weight_filler {
      type: "xavier"
    }
    bias_filler {
      type: "constant"
      value: 0.2
    }
  }
}
layer {
  name: "inception_3a/relu_5x5"
  type: "ReLU"
  bottom: "inception_3a/5x5"
  top: "inception_3a/5x5"
}
layer {
  name: "inception_3a/pool"
  type: "Pooling"
  bottom: "pool2/3x3_s2"
  top: "inception_3a/pool"
  pooling_param {
    pool: MAX
    kernel_size: 3
    stride: 1
    pad: 1
  }
}
layer {
  name: "inception_3a/pool_proj"
  type: "Convolution"
  bottom: "inception_3a/pool"
  top: "inception_3a/pool_proj"
  param {
    name: "inception_3a/pool_proj_w"
    lr_mult: 1
    decay_mult: 1
  }
  param {
    name: "inception_3a/pool_proj_b"
    lr_mult: 2
    decay_mult: 0
  }
  convolution_param {
    num_output: 32
    kernel_size: 1
    weight_filler {
      type: "xavier"
    }
    bias_filler {
      type: "constant"
      value: 0.2
    }
  }
}
layer {
  name: "inception_3a/relu_pool_proj"
  type: "ReLU"
  bottom: "inception_3a/pool_proj"
  top: "inception_3a/pool_proj"
}
layer {
  name: "inception_3a/output"
  type: "Concat"
  bottom: "inception_3a/1x1"
  bottom: "inception_3a/3x3"
  bottom: "inception_3a/5x5"
  bottom: "inception_3a/pool_proj"
  top: "inception_3a/output"
}
layer {
  name: "inception_3b/1x1"
  type: "Convolution"
  bottom: "inception_3a/output"
  top: "inception_3b/1x1"
  param {
    name: "inception_3b/1x1_w"
    lr_mult: 1
    decay_mult: 1
  }
  param {
    name: "inception_3b/1x1_b"
    lr_mult: 2
    decay_mult: 0
  }
  convolution_param {
    num_output: 128
    kernel_size: 1
    weight_filler {
      type: "xavier"
    }
    bias_filler {
      type: "constant"
      value: 0.2
    }
  }
}
layer {
  name: "inception_3b/relu_1x1"
  type: "ReLU"
  bottom: "inception_3b/1x1"
  top: "inception_3b/1x1"
}
layer {
  name: "inception_3b/3x3_reduce"
  type: "Convolution"
  bottom: "inception_3a/output"
  top: "inception_3b/3x3_reduce"
  param {
    name: "inception_3b/3x3_reduce_w"
    lr_mult: 1
    decay_mult: 1
  }
  param {
    name: "inception_3b/3x3_reduce_b"
    lr_mult: 2
    decay_mult: 0
  }
  convolution_param {
    num_output: 128
    kernel_size: 1
    weight_filler {
      type: "xavier"
    }
    bias_filler {
      type: "constant"
      value: 0.2
    }
  }
}
layer {
  name: "inception_3b/relu_3x3_reduce"
  type: "ReLU"
  bottom: "inception_3b/3x3_reduce"
  top: "inception_3b/3x3_reduce"
}
layer {
  name: "inception_3b/3x3"
  type: "Convolution"
  bottom: "inception_3b/3x3_reduce"
  top: "inception_3b/3x3"
  param {
    name: "inception_3b/3x3_w"
    lr_mult: 1
    decay_mult: 1
  }
  param {
    name: "inception_3b/3x3_b"
    lr_mult: 2
    decay_mult: 0
  }
  convolution_param {
    num_output: 192
    pad: 1
    kernel_size: 3
    weight_filler {
      type: "xavier"
    }
    bias_filler {
      type: "constant"
      value: 0.2
    }
  }
}
layer {
  name: "inception_3b/relu_3x3"
  type: "ReLU"
  bottom: "inception_3b/3x3"
  top: "inception_3b/3x3"
}
layer {
  name: "inception_3b/5x5_reduce"
  type: "Convolution"
  bottom: "inception_3a/output"
  top: "inception_3b/5x5_reduce"
  param {
    name: "inception_3b/5x5_reduce_w"
    lr_mult: 1
    decay_mult: 1
  }
  param {
    name: "inception_3b/5x5_reduce_b"
    lr_mult: 2
    decay_mult: 0
  }
  convolution_param {
    num_output: 32
    kernel_size: 1
    weight_filler {
      type: "xavier"
    }
    bias_filler {
      type: "constant"
      value: 0.2
    }
  }
}
layer {
  name: "inception_3b/relu_5x5_reduce"
  type: "ReLU"
  bottom: "inception_3b/5x5_reduce"
  top: "inception_3b/5x5_reduce"
}
layer {
  name: "inception_3b/5x5"
  type: "Convolution"
  bottom: "inception_3b/5x5_reduce"
  top: "inception_3b/5x5"
  param {
    name: "inception_3b/5x5_w"
    lr_mult: 1
    decay_mult: 1
  }
  param {
    name: "inception_3b/5x5_b"
    lr_mult: 2
    decay_mult: 0
  }
  convolution_param {
    num_output: 96
    pad: 2
    kernel_size: 5
    weight_filler {
      type: "xavier"
    }
    bias_filler {
      type: "constant"
      value: 0.2
    }
  }
}
layer {
  name: "inception_3b/relu_5x5"
  type: "ReLU"
  bottom: "inception_3b/5x5"
  top: "inception_3b/5x5"
}
layer {
  name: "inception_3b/pool"
  type: "Pooling"
  bottom: "inception_3a/output"
  top: "inception_3b/pool"
  pooling_param {
    pool: MAX
    kernel_size: 3
    stride: 1
    pad: 1
  }
}
layer {
  name: "inception_3b/pool_proj"
  type: "Convolution"
  bottom: "inception_3b/pool"
  top: "inception_3b/pool_proj"
  param {
    name: "inception_3b/pool_proj_w"
    lr_mult: 1
    decay_mult: 1
  }
  param {
    name: "inception_3b/pool_proj_b"
    lr_mult: 2
    decay_mult: 0
  }
  convolution_param {
    num_output: 64
    kernel_size: 1
    weight_filler {
      type: "xavier"
    }
    bias_filler {
      type: "constant"
      value: 0.2
    }
  }
}
layer {
  name: "inception_3b/relu_pool_proj"
  type: "ReLU"
  bottom: "inception_3b/pool_proj"
  top: "inception_3b/pool_proj"
}
layer {
  name: "inception_3b/output"
  type: "Concat"
  bottom: "inception_3b/1x1"
  bottom: "inception_3b/3x3"
  bottom: "inception_3b/5x5"
  bottom: "inception_3b/pool_proj"
  top: "inception_3b/output"
}
layer {
  name: "pool3/3x3_s2"
  type: "Pooling"
  bottom: "inception_3b/output"
  top: "pool3/3x3_s2"
  pooling_param {
    pool: MAX
    kernel_size: 3
    stride: 2
  }
}
layer {
  name: "inception_4a/1x1"
  type: "Convolution"
  bottom: "pool3/3x3_s2"
  top: "inception_4a/1x1"
  param {
    name: "inception_4a/1x1_w"
    lr_mult: 1
    decay_mult: 1
  }
  param {
    name: "inception_4a/1x1_b"
    lr_mult: 2
    decay_mult: 0
  }
  convolution_param {
    num_output: 192
    kernel_size: 1
    weight_filler {
      type: "xavier"
    }
    bias_filler {
      type: "constant"
      value: 0.2
    }
  }
}
layer {
  name: "inception_4a/relu_1x1"
  type: "ReLU"
  bottom: "inception_4a/1x1"
  top: "inception_4a/1x1"
}
layer {
  name: "inception_4a/3x3_reduce"
  type: "Convolution"
  bottom: "pool3/3x3_s2"
  top: "inception_4a/3x3_reduce"
  param {
    name: "inception_4a/3x3_reduce_w"
    lr_mult: 1
    decay_mult: 1
  }
  param {
    name: "inception_4a/3x3_reduce_b"
    lr_mult: 2
    decay_mult: 0
  }
  convolution_param {
    num_output: 96
    kernel_size: 1
    weight_filler {
      type: "xavier"
    }
    bias_filler {
      type: "constant"
      value: 0.2
    }
  }
}
layer {
  name: "inception_4a/relu_3x3_reduce"
  type: "ReLU"
  bottom: "inception_4a/3x3_reduce"
  top: "inception_4a/3x3_reduce"
}
layer {
  name: "inception_4a/3x3"
  type: "Convolution"
  bottom: "inception_4a/3x3_reduce"
  top: "inception_4a/3x3"
  param {
    name: "inception_4a/3x3_w"
    lr_mult: 1
    decay_mult: 1
  }
  param {
    name: "inception_4a/3x3_b"
    lr_mult: 2
    decay_mult: 0
  }
  convolution_param {
    num_output: 208
    pad: 1
    kernel_size: 3
    weight_filler {
      type: "xavier"
    }
    bias_filler {
      type: "constant"
      value: 0.2
    }
  }
}
layer {
  name: "inception_4a/relu_3x3"
  type: "ReLU"
  bottom: "inception_4a/3x3"
  top: "inception_4a/3x3"
}
layer {
  name: "inception_4a/5x5_reduce"
  type: "Convolution"
  bottom: "pool3/3x3_s2"
  top: "inception_4a/5x5_reduce"
  param {
    name: "inception_4a/5x5_reduce_w"
    lr_mult: 1
    decay_mult: 1
  }
  param {
    name: "inception_4a/5x5_reduce_b"
    lr_mult: 2
    decay_mult: 0
  }
  convolution_param {
    num_output: 16
    kernel_size: 1
    weight_filler {
      type: "xavier"
    }
    bias_filler {
      type: "constant"
      value: 0.2
    }
  }
}
layer {
  name: "inception_4a/relu_5x5_reduce"
  type: "ReLU"
  bottom: "inception_4a/5x5_reduce"
  top: "inception_4a/5x5_reduce"
}
layer {
  name: "inception_4a/5x5"
  type: "Convolution"
  bottom: "inception_4a/5x5_reduce"
  top: "inception_4a/5x5"
  param {
    name: "inception_4a/5x5_w"
    lr_mult: 1
    decay_mult: 1
  }
  param {
    name: "inception_4a/5x5_b"
    lr_mult: 2
    decay_mult: 0
  }
  convolution_param {
    num_output: 48
    pad: 2
    kernel_size: 5
    weight_filler {
      type: "xavier"
    }
    bias_filler {
      type: "constant"
      value: 0.2
    }
  }
}
layer {
  name: "inception_4a/relu_5x5"
  type: "ReLU"
  bottom: "inception_4a/5x5"
  top: "inception_4a/5x5"
}
layer {
  name: "inception_4a/pool"
  type: "Pooling"
  bottom: "pool3/3x3_s2"
  top: "inception_4a/pool"
  pooling_param {
    pool: MAX
    kernel_size: 3
    stride: 1
    pad: 1
  }
}
layer {
  name: "inception_4a/pool_proj"
  type: "Convolution"
  bottom: "inception_4a/pool"
  top: "inception_4a/pool_proj"
  param {
    name: "inception_4a/pool_proj_w"
    lr_mult: 1
    decay_mult: 1
  }
  param {
    name: "inception_4a/pool_proj_b"
    lr_mult: 2
    decay_mult: 0
  }
  convolution_param {
    num_output: 64
    kernel_size: 1
    weight_filler {
      type: "xavier"
    }
    bias_filler {
      type: "constant"
      value: 0.2
    }
  }
}
layer {
  name: "inception_4a/relu_pool_proj"
  type: "ReLU"
  bottom: "inception_4a/pool_proj"
  top: "inception_4a/pool_proj"
}
layer {
  name: "inception_4a/output"
  type: "Concat"
  bottom: "inception_4a/1x1"
  bottom: "inception_4a/3x3"
  bottom: "inception_4a/5x5"
  bottom: "inception_4a/pool_proj"
  top: "inception_4a/output"
}


layer {
  name: "inception_4b/1x1"
  type: "Convolution"
  bottom: "inception_4a/output"
  top: "inception_4b/1x1"
  param {
    name: "inception_4b/1x1_w"
    lr_mult: 1
    decay_mult: 1
  }
  param {
    name: "inception_4b/1x1_b"
    lr_mult: 2
    decay_mult: 0
  }
  convolution_param {
    num_output: 160
    kernel_size: 1
    weight_filler {
      type: "xavier"
    }
    bias_filler {
      type: "constant"
      value: 0.2
    }
  }
}
layer {
  name: "inception_4b/relu_1x1"
  type: "ReLU"
  bottom: "inception_4b/1x1"
  top: "inception_4b/1x1"
}
layer {
  name: "inception_4b/3x3_reduce"
  type: "Convolution"
  bottom: "inception_4a/output"
  top: "inception_4b/3x3_reduce"
  param {
    name: "inception_4b/3x3_reduce_w"
    lr_mult: 1
    decay_mult: 1
  }
  param {
    name: "inception_4b/3x3_reduce_b"
    lr_mult: 2
    decay_mult: 0
  }
  convolution_param {
    num_output: 112
    kernel_size: 1
    weight_filler {
      type: "xavier"
    }
    bias_filler {
      type: "constant"
      value: 0.2
    }
  }
}
layer {
  name: "inception_4b/relu_3x3_reduce"
  type: "ReLU"
  bottom: "inception_4b/3x3_reduce"
  top: "inception_4b/3x3_reduce"
}
layer {
  name: "inception_4b/3x3"
  type: "Convolution"
  bottom: "inception_4b/3x3_reduce"
  top: "inception_4b/3x3"
  param {
    name: "inception_4b/3x3_w"
    lr_mult: 1
    decay_mult: 1
  }
  param {
    name: "inception_4b/3x3_b"
    lr_mult: 2
    decay_mult: 0
  }
  convolution_param {
    num_output: 224
    pad: 1
    kernel_size: 3
    weight_filler {
      type: "xavier"
    }
    bias_filler {
      type: "constant"
      value: 0.2
    }
  }
}
layer {
  name: "inception_4b/relu_3x3"
  type: "ReLU"
  bottom: "inception_4b/3x3"
  top: "inception_4b/3x3"
}
layer {
  name: "inception_4b/5x5_reduce"
  type: "Convolution"
  bottom: "inception_4a/output"
  top: "inception_4b/5x5_reduce"
  param {
    name: "inception_4b/5x5_reduce_w"
    lr_mult: 1
    decay_mult: 1
  }
  param {
    name: "inception_4b/5x5_reduce_b"
    lr_mult: 2
    decay_mult: 0
  }
  convolution_param {
    num_output: 24
    kernel_size: 1
    weight_filler {
      type: "xavier"
    }
    bias_filler {
      type: "constant"
      value: 0.2
    }
  }
}
layer {
  name: "inception_4b/relu_5x5_reduce"
  type: "ReLU"
  bottom: "inception_4b/5x5_reduce"
  top: "inception_4b/5x5_reduce"
}
layer {
  name: "inception_4b/5x5"
  type: "Convolution"
  bottom: "inception_4b/5x5_reduce"
  top: "inception_4b/5x5"
  param {
    name: "inception_4b/5x5_w"
    lr_mult: 1
    decay_mult: 1
  }
  param {
    name: "inception_4b/5x5_b"
    lr_mult: 2
    decay_mult: 0
  }
  convolution_param {
    num_output: 64
    pad: 2
    kernel_size: 5
    weight_filler {
      type: "xavier"
    }
    bias_filler {
      type: "constant"
      value: 0.2
    }
  }
}
layer {
  name: "inception_4b/relu_5x5"
  type: "ReLU"
  bottom: "inception_4b/5x5"
  top: "inception_4b/5x5"
}
layer {
  name: "inception_4b/pool"
  type: "Pooling"
  bottom: "inception_4a/output"
  top: "inception_4b/pool"
  pooling_param {
    pool: MAX
    kernel_size: 3
    stride: 1
    pad: 1
  }
}
layer {
  name: "inception_4b/pool_proj"
  type: "Convolution"
  bottom: "inception_4b/pool"
  top: "inception_4b/pool_proj"
  param {
    name: "inception_4b/pool_proj_w"
    lr_mult: 1
    decay_mult: 1
  }
  param {
    name: "inception_4b/pool_proj_b"
    lr_mult: 2
    decay_mult: 0
  }
  convolution_param {
    num_output: 64
    kernel_size: 1
    weight_filler {
      type: "xavier"
    }
    bias_filler {
      type: "constant"
      value: 0.2
    }
  }
}
layer {
  name: "inception_4b/relu_pool_proj"
  type: "ReLU"
  bottom: "inception_4b/pool_proj"
  top: "inception_4b/pool_proj"
}
layer {
  name: "inception_4b/output"
  type: "Concat"
  bottom: "inception_4b/1x1"
  bottom: "inception_4b/3x3"
  bottom: "inception_4b/5x5"
  bottom: "inception_4b/pool_proj"
  top: "inception_4b/output"
}
layer {
  name: "inception_4c/1x1"
  type: "Convolution"
  bottom: "inception_4b/output"
  top: "inception_4c/1x1"
  param {
    name: "inception_4c/1x1_w"
    lr_mult: 1
    decay_mult: 1
  }
  param {
    name: "inception_4c/1x1_b"
    lr_mult: 2
    decay_mult: 0
  }
  convolution_param {
    num_output: 128
    kernel_size: 1
    weight_filler {
      type: "xavier"
    }
    bias_filler {
      type: "constant"
      value: 0.2
    }
  }
}
layer {
  name: "inception_4c/relu_1x1"
  type: "ReLU"
  bottom: "inception_4c/1x1"
  top: "inception_4c/1x1"
}
layer {
  name: "inception_4c/3x3_reduce"
  type: "Convolution"
  bottom: "inception_4b/output"
  top: "inception_4c/3x3_reduce"
  param {
    name: "inception_4c/3x3_reduce_w"
    lr_mult: 1
    decay_mult: 1
  }
  param {
    name: "inception_4c/3x3_reduce_b"
    lr_mult: 2
    decay_mult: 0
  }
  convolution_param {
    num_output: 128
    kernel_size: 1
    weight_filler {
      type: "xavier"
    }
    bias_filler {
      type: "constant"
      value: 0.2
    }
  }
}
layer {
  name: "inception_4c/relu_3x3_reduce"
  type: "ReLU"
  bottom: "inception_4c/3x3_reduce"
  top: "inception_4c/3x3_reduce"
}
layer {
  name: "inception_4c/3x3"
  type: "Convolution"
  bottom: "inception_4c/3x3_reduce"
  top: "inception_4c/3x3"
  param {
    name: "inception_4c/3x3_w"
    lr_mult: 1
    decay_mult: 1
  }
  param {
    name: "inception_4c/3x3_b"
    lr_mult: 2
    decay_mult: 0
  }
  convolution_param {
    num_output: 256
    pad: 1
    kernel_size: 3
    weight_filler {
      type: "xavier"
    }
    bias_filler {
      type: "constant"
      value: 0.2
    }
  }
}
layer {
  name: "inception_4c/relu_3x3"
  type: "ReLU"
  bottom: "inception_4c/3x3"
  top: "inception_4c/3x3"
}
layer {
  name: "inception_4c/5x5_reduce"
  type: "Convolution"
  bottom: "inception_4b/output"
  top: "inception_4c/5x5_reduce"
  param {
    name: "inception_4c/5x5_reduce_w"
    lr_mult: 1
    decay_mult: 1
  }
  param {
    name: "inception_4c/5x5_reduce_b"
    lr_mult: 2
    decay_mult: 0
  }
  convolution_param {
    num_output: 24
    kernel_size: 1
    weight_filler {
      type: "xavier"
    }
    bias_filler {
      type: "constant"
      value: 0.2
    }
  }
}
layer {
  name: "inception_4c/relu_5x5_reduce"
  type: "ReLU"
  bottom: "inception_4c/5x5_reduce"
  top: "inception_4c/5x5_reduce"
}
layer {
  name: "inception_4c/5x5"
  type: "Convolution"
  bottom: "inception_4c/5x5_reduce"
  top: "inception_4c/5x5"
  param {
    name: "inception_4c/5x5_w"
    lr_mult: 1
    decay_mult: 1
  }
  param {
    name: "inception_4c/5x5_b"
    lr_mult: 2
    decay_mult: 0
  }
  convolution_param {
    num_output: 64
    pad: 2
    kernel_size: 5
    weight_filler {
      type: "xavier"
    }
    bias_filler {
      type: "constant"
      value: 0.2
    }
  }
}
layer {
  name: "inception_4c/relu_5x5"
  type: "ReLU"
  bottom: "inception_4c/5x5"
  top: "inception_4c/5x5"
}
layer {
  name: "inception_4c/pool"
  type: "Pooling"
  bottom: "inception_4b/output"
  top: "inception_4c/pool"
  pooling_param {
    pool: MAX
    kernel_size: 3
    stride: 1
    pad: 1
  }
}
layer {
  name: "inception_4c/pool_proj"
  type: "Convolution"
  bottom: "inception_4c/pool"
  top: "inception_4c/pool_proj"
  param {
    name: "inception_4c/pool_proj_w"
    lr_mult: 1
    decay_mult: 1
  }
  param {
    name: "inception_4c/pool_proj_b"
    lr_mult: 2
    decay_mult: 0
  }
  convolution_param {
    num_output: 64
    kernel_size: 1
    weight_filler {
      type: "xavier"
    }
    bias_filler {
      type: "constant"
      value: 0.2
    }
  }
}
layer {
  name: "inception_4c/relu_pool_proj"
  type: "ReLU"
  bottom: "inception_4c/pool_proj"
  top: "inception_4c/pool_proj"
}
layer {
  name: "inception_4c/output"
  type: "Concat"
  bottom: "inception_4c/1x1"
  bottom: "inception_4c/3x3"
  bottom: "inception_4c/5x5"
  bottom: "inception_4c/pool_proj"
  top: "inception_4c/output"
}
layer {
  name: "inception_4d/1x1"
  type: "Convolution"
  bottom: "inception_4c/output"
  top: "inception_4d/1x1"
  param {
    name: "inception_4d/1x1_w"
    lr_mult: 1
    decay_mult: 1
  }
  param {
    name: "inception_4d/1x1_b"
    lr_mult: 2
    decay_mult: 0
  }
  convolution_param {
    num_output: 112
    kernel_size: 1
    weight_filler {
      type: "xavier"
    }
    bias_filler {
      type: "constant"
      value: 0.2
    }
  }
}
layer {
  name: "inception_4d/relu_1x1"
  type: "ReLU"
  bottom: "inception_4d/1x1"
  top: "inception_4d/1x1"
}
layer {
  name: "inception_4d/3x3_reduce"
  type: "Convolution"
  bottom: "inception_4c/output"
  top: "inception_4d/3x3_reduce"
  param {
    name: "inception_4d/3x3_reduce_w"
    lr_mult: 1
    decay_mult: 1
  }
  param {
    name: "inception_4d/3x3_reduce_b"
    lr_mult: 2
    decay_mult: 0
  }
  convolution_param {
    num_output: 144
    kernel_size: 1
    weight_filler {
      type: "xavier"
    }
    bias_filler {
      type: "constant"
      value: 0.2
    }
  }
}
layer {
  name: "inception_4d/relu_3x3_reduce"
  type: "ReLU"
  bottom: "inception_4d/3x3_reduce"
  top: "inception_4d/3x3_reduce"
}
layer {
  name: "inception_4d/3x3"
  type: "Convolution"
  bottom: "inception_4d/3x3_reduce"
  top: "inception_4d/3x3"
  param {
    name: "inception_4d/3x3_w"
    lr_mult: 1
    decay_mult: 1
  }
  param {
    name: "inception_4d/3x3_b"
    lr_mult: 2
    decay_mult: 0
  }
  convolution_param {
    num_output: 288
    pad: 1
    kernel_size: 3
    weight_filler {
      type: "xavier"
    }
    bias_filler {
      type: "constant"
      value: 0.2
    }
  }
}
layer {
  name: "inception_4d/relu_3x3"
  type: "ReLU"
  bottom: "inception_4d/3x3"
  top: "inception_4d/3x3"
}
layer {
  name: "inception_4d/5x5_reduce"
  type: "Convolution"
  bottom: "inception_4c/output"
  top: "inception_4d/5x5_reduce"
  param {
    name: "inception_4d/5x5_reduce_w"
    lr_mult: 1
    decay_mult: 1
  }
  param {
    name: "inception_4d/5x5_reduce_b"
    lr_mult: 2
    decay_mult: 0
  }
  convolution_param {
    num_output: 32
    kernel_size: 1
    weight_filler {
      type: "xavier"
    }
    bias_filler {
      type: "constant"
      value: 0.2
    }
  }
}
layer {
  name: "inception_4d/relu_5x5_reduce"
  type: "ReLU"
  bottom: "inception_4d/5x5_reduce"
  top: "inception_4d/5x5_reduce"
}
layer {
  name: "inception_4d/5x5"
  type: "Convolution"
  bottom: "inception_4d/5x5_reduce"
  top: "inception_4d/5x5"
  param {
    name: "inception_4d/5x5_w"
    lr_mult: 1
    decay_mult: 1
  }
  param {
    name: "inception_4d/5x5_b"
    lr_mult: 2
    decay_mult: 0
  }
  convolution_param {
    num_output: 64
    pad: 2
    kernel_size: 5
    weight_filler {
      type: "xavier"
    }
    bias_filler {
      type: "constant"
      value: 0.2
    }
  }
}
layer {
  name: "inception_4d/relu_5x5"
  type: "ReLU"
  bottom: "inception_4d/5x5"
  top: "inception_4d/5x5"
}
layer {
  name: "inception_4d/pool"
  type: "Pooling"
  bottom: "inception_4c/output"
  top: "inception_4d/pool"
  pooling_param {
    pool: MAX
    kernel_size: 3
    stride: 1
    pad: 1
  }
}
layer {
  name: "inception_4d/pool_proj"
  type: "Convolution"
  bottom: "inception_4d/pool"
  top: "inception_4d/pool_proj"
  param {
    name: "inception_4d/pool_proj_w"
    lr_mult: 1
    decay_mult: 1
  }
  param {
    name: "inception_4d/pool_proj_b"
    lr_mult: 2
    decay_mult: 0
  }
  convolution_param {
    num_output: 64
    kernel_size: 1
    weight_filler {
      type: "xavier"
    }
    bias_filler {
      type: "constant"
      value: 0.2
    }
  }
}
layer {
  name: "inception_4d/relu_pool_proj"
  type: "ReLU"
  bottom: "inception_4d/pool_proj"
  top: "inception_4d/pool_proj"
}
layer {
  name: "inception_4d/output"
  type: "Concat"
  bottom: "inception_4d/1x1"
  bottom: "inception_4d/3x3"
  bottom: "inception_4d/5x5"
  bottom: "inception_4d/pool_proj"
  top: "inception_4d/output"
}



layer {
  name: "inception_4e/1x1"
  type: "Convolution"
  bottom: "inception_4d/output"
  top: "inception_4e/1x1"
  param {
    name: "inception_4e/1x1_w"
    lr_mult: 1
    decay_mult: 1
  }
  param {
    name: "inception_4e/1x1_b"
    lr_mult: 2
    decay_mult: 0
  }
  convolution_param {
    num_output: 256
    kernel_size: 1
    weight_filler {
      type: "xavier"
    }
    bias_filler {
      type: "constant"
      value: 0.2
    }
  }
}
layer {
  name: "inception_4e/relu_1x1"
  type: "ReLU"
  bottom: "inception_4e/1x1"
  top: "inception_4e/1x1"
}
layer {
  name: "inception_4e/3x3_reduce"
  type: "Convolution"
  bottom: "inception_4d/output"
  top: "inception_4e/3x3_reduce"
  param {
    name: "inception_4e/3x3_reduce_w"
    lr_mult: 1
    decay_mult: 1
  }
  param {
    name: "inception_4e/3x3_reduce_b"
    lr_mult: 2
    decay_mult: 0
  }
  convolution_param {
    num_output: 160
    kernel_size: 1
    weight_filler {
      type: "xavier"
    }
    bias_filler {
      type: "constant"
      value: 0.2
    }
  }
}
layer {
  name: "inception_4e/relu_3x3_reduce"
  type: "ReLU"
  bottom: "inception_4e/3x3_reduce"
  top: "inception_4e/3x3_reduce"
}
layer {
  name: "inception_4e/3x3"
  type: "Convolution"
  bottom: "inception_4e/3x3_reduce"
  top: "inception_4e/3x3"
  param {
    name: "inception_4e/3x3_w"
    lr_mult: 1
    decay_mult: 1
  }
  param {
    name: "inception_4e/3x3_b"
    lr_mult: 2
    decay_mult: 0
  }
  convolution_param {
    num_output: 320
    pad: 1
    kernel_size: 3
    weight_filler {
      type: "xavier"
    }
    bias_filler {
      type: "constant"
      value: 0.2
    }
  }
}
layer {
  name: "inception_4e/relu_3x3"
  type: "ReLU"
  bottom: "inception_4e/3x3"
  top: "inception_4e/3x3"
}
layer {
  name: "inception_4e/5x5_reduce"
  type: "Convolution"
  bottom: "inception_4d/output"
  top: "inception_4e/5x5_reduce"
  param {
    name: "inception_4e/5x5_reduce_w"
    lr_mult: 1
    decay_mult: 1
  }
  param {
    name: "inception_4e/5x5_reduce_b"
    lr_mult: 2
    decay_mult: 0
  }
  convolution_param {
    num_output: 32
    kernel_size: 1
    weight_filler {
      type: "xavier"
    }
    bias_filler {
      type: "constant"
      value: 0.2
    }
  }
}
layer {
  name: "inception_4e/relu_5x5_reduce"
  type: "ReLU"
  bottom: "inception_4e/5x5_reduce"
  top: "inception_4e/5x5_reduce"
}
layer {
  name: "inception_4e/5x5"
  type: "Convolution"
  bottom: "inception_4e/5x5_reduce"
  top: "inception_4e/5x5"
  param {
    name: "inception_4e/5x5_w"
    lr_mult: 1
    decay_mult: 1
  }
  param {
    name: "inception_4e/5x5_b"
    lr_mult: 2
    decay_mult: 0
  }
  convolution_param {
    num_output: 128
    pad: 2
    kernel_size: 5
    weight_filler {
      type: "xavier"
    }
    bias_filler {
      type: "constant"
      value: 0.2
    }
  }
}
layer {
  name: "inception_4e/relu_5x5"
  type: "ReLU"
  bottom: "inception_4e/5x5"
  top: "inception_4e/5x5"
}
layer {
  name: "inception_4e/pool"
  type: "Pooling"
  bottom: "inception_4d/output"
  top: "inception_4e/pool"
  pooling_param {
    pool: MAX
    kernel_size: 3
    stride: 1
    pad: 1
  }
}
layer {
  name: "inception_4e/pool_proj"
  type: "Convolution"
  bottom: "inception_4e/pool"
  top: "inception_4e/pool_proj"
  param {
    name: "inception_4e/pool_proj_w"
    lr_mult: 1
    decay_mult: 1
  }
  param {
    name: "inception_4e/pool_proj_b"
    lr_mult: 2
    decay_mult: 0
  }
  convolution_param {
    num_output: 128
    kernel_size: 1
    weight_filler {
      type: "xavier"
    }
    bias_filler {
      type: "constant"
      value: 0.2
    }
  }
}
layer {
  name: "inception_4e/relu_pool_proj"
  type: "ReLU"
  bottom: "inception_4e/pool_proj"
  top: "inception_4e/pool_proj"
}
layer {
  name: "inception_4e/output"
  type: "Concat"
  bottom: "inception_4e/1x1"
  bottom: "inception_4e/3x3"
  bottom: "inception_4e/5x5"
  bottom: "inception_4e/pool_proj"
  top: "inception_4e/output"
}
# layer {
#   name: "pool4/3x3_s2"
#   type: "Pooling"
#   bottom: "inception_4e/output"
#   top: "pool4/3x3_s2"
#   pooling_param {
#     pool: MAX
#     kernel_size: 3
#     stride: 2
#   }
# }
layer {
  name: "inception_5a/1x1"
  type: "Convolution"
  bottom: "inception_4e/output"
  top: "inception_5a/1x1"
  param {
    name: "inception_5a/1x1_w"
    lr_mult: 1
    decay_mult: 1
  }
  param {
    name: "inception_5a/1x1_b"
    lr_mult: 2
    decay_mult: 0
  }
  convolution_param {
    num_output: 256
    kernel_size: 1
    weight_filler {
      type: "xavier"
    }
    bias_filler {
      type: "constant"
      value: 0.2
    }
  }
}
layer {
  name: "inception_5a/relu_1x1"
  type: "ReLU"
  bottom: "inception_5a/1x1"
  top: "inception_5a/1x1"
}
layer {
  name: "inception_5a/3x3_reduce"
  type: "Convolution"
  bottom: "inception_4e/output"
  top: "inception_5a/3x3_reduce"
  param {
    name: "inception_5a/3x3_reduce_w"
    lr_mult: 1
    decay_mult: 1
  }
  param {
    name: "inception_5a/3x3_reduce_b"
    lr_mult: 2
    decay_mult: 0
  }
  convolution_param {
    num_output: 160
    kernel_size: 1
    weight_filler {
      type: "xavier"
    }
    bias_filler {
      type: "constant"
      value: 0.2
    }
  }
}
layer {
  name: "inception_5a/relu_3x3_reduce"
  type: "ReLU"
  bottom: "inception_5a/3x3_reduce"
  top: "inception_5a/3x3_reduce"
}
layer {
  name: "inception_5a/3x3"
  type: "Convolution"
  bottom: "inception_5a/3x3_reduce"
  top: "inception_5a/3x3"
  param {
    name: "inception_5a/3x3_w"
    lr_mult: 1
    decay_mult: 1
  }
  param {
    name: "inception_5a/3x3_b"
    lr_mult: 2
    decay_mult: 0
  }
  convolution_param {
    num_output: 320
    pad: 1
    kernel_size: 3
    weight_filler {
      type: "xavier"
    }
    bias_filler {
      type: "constant"
      value: 0.2
    }
  }
}
layer {
  name: "inception_5a/relu_3x3"
  type: "ReLU"
  bottom: "inception_5a/3x3"
  top: "inception_5a/3x3"
}
layer {
  name: "inception_5a/5x5_reduce"
  type: "Convolution"
  bottom: "inception_4e/output"
  top: "inception_5a/5x5_reduce"
  param {
    name: "inception_5a/5x5_reduce_w"
    lr_mult: 1
    decay_mult: 1
  }
  param {
    name: "inception_5a/5x5_reduce_b"
    lr_mult: 2
    decay_mult: 0
  }
  convolution_param {
    num_output: 32
    kernel_size: 1
    weight_filler {
      type: "xavier"
    }
    bias_filler {
      type: "constant"
      value: 0.2
    }
  }
}
layer {
  name: "inception_5a/relu_5x5_reduce"
  type: "ReLU"
  bottom: "inception_5a/5x5_reduce"
  top: "inception_5a/5x5_reduce"
}
layer {
  name: "inception_5a/5x5"
  type: "Convolution"
  bottom: "inception_5a/5x5_reduce"
  top: "inception_5a/5x5"
  param {
    name: "inception_5a/5x5_w"
    lr_mult: 1
    decay_mult: 1
  }
  param {
    name: "inception_5a/5x5_b"
    lr_mult: 2
    decay_mult: 0
  }
  convolution_param {
    num_output: 128
    pad: 2
    kernel_size: 5
    weight_filler {
      type: "xavier"
    }
    bias_filler {
      type: "constant"
      value: 0.2
    }
  }
}
layer {
  name: "inception_5a/relu_5x5"
  type: "ReLU"
  bottom: "inception_5a/5x5"
  top: "inception_5a/5x5"
}
layer {
  name: "inception_5a/pool"
  type: "Pooling"
  bottom: "inception_4e/output"
  top: "inception_5a/pool"
  pooling_param {
    pool: MAX
    kernel_size: 3
    stride: 1
    pad: 1
  }
}
layer {
  name: "inception_5a/pool_proj"
  type: "Convolution"
  bottom: "inception_5a/pool"
  top: "inception_5a/pool_proj"
  param {
    name: "inception_5a/pool_proj_w"
    lr_mult: 1
    decay_mult: 1
  }
  param {
    name: "inception_5a/pool_proj_b"
    lr_mult: 2
    decay_mult: 0
  }
  convolution_param {
    num_output: 128
    kernel_size: 1
    weight_filler {
      type: "xavier"
    }
    bias_filler {
      type: "constant"
      value: 0.2
    }
  }
}
layer {
  name: "inception_5a/relu_pool_proj"
  type: "ReLU"
  bottom: "inception_5a/pool_proj"
  top: "inception_5a/pool_proj"
}
layer {
  name: "inception_5a/output"
  type: "Concat"
  bottom: "inception_5a/1x1"
  bottom: "inception_5a/3x3"
  bottom: "inception_5a/5x5"
  bottom: "inception_5a/pool_proj"
  top: "inception_5a/output"
}
layer {
  name: "inception_5b/1x1"
  type: "Convolution"
  bottom: "inception_5a/output"
  top: "inception_5b/1x1"
  param {
    name: "inception_5b/1x1_w"
    lr_mult: 1
    decay_mult: 1
  }
  param {
    name: "inception_5b/1x1_b"
    lr_mult: 2
    decay_mult: 0
  }
  convolution_param {
    num_output: 384
    kernel_size: 1
    weight_filler {
      type: "xavier"
    }
    bias_filler {
      type: "constant"
      value: 0.2
    }
  }
}
layer {
  name: "inception_5b/relu_1x1"
  type: "ReLU"
  bottom: "inception_5b/1x1"
  top: "inception_5b/1x1"
}
layer {
  name: "inception_5b/3x3_reduce"
  type: "Convolution"
  bottom: "inception_5a/output"
  top: "inception_5b/3x3_reduce"
  param {
    name: "inception_5b/3x3_reduce_w"
    lr_mult: 1
    decay_mult: 1
  }
  param {
    name: "inception_5b/3x3_reduce_b"
    lr_mult: 2
    decay_mult: 0
  }
  convolution_param {
    num_output: 192
    kernel_size: 1
    weight_filler {
      type: "xavier"
    }
    bias_filler {
      type: "constant"
      value: 0.2
    }
  }
}
layer {
  name: "inception_5b/relu_3x3_reduce"
  type: "ReLU"
  bottom: "inception_5b/3x3_reduce"
  top: "inception_5b/3x3_reduce"
}
layer {
  name: "inception_5b/3x3"
  type: "Convolution"
  bottom: "inception_5b/3x3_reduce"
  top: "inception_5b/3x3"
  param {
    name: "inception_5b/3x3_w"
    lr_mult: 1
    decay_mult: 1
  }
  param {
    name: "inception_5b/3x3_b"
    lr_mult: 2
    decay_mult: 0
  }
  convolution_param {
    num_output: 384
    pad: 1
    kernel_size: 3
    weight_filler {
      type: "xavier"
    }
    bias_filler {
      type: "constant"
      value: 0.2
    }
  }
}
layer {
  name: "inception_5b/relu_3x3"
  type: "ReLU"
  bottom: "inception_5b/3x3"
  top: "inception_5b/3x3"
}
layer {
  name: "inception_5b/5x5_reduce"
  type: "Convolution"
  bottom: "inception_5a/output"
  top: "inception_5b/5x5_reduce"
  param {
    name: "inception_5b/5x5_reduce_w"
    lr_mult: 1
    decay_mult: 1
  }
  param {
    name: "inception_5b/5x5_reduce_b"
    lr_mult: 2
    decay_mult: 0
  }
  convolution_param {
    num_output: 48
    kernel_size: 1
    weight_filler {
      type: "xavier"
    }
    bias_filler {
      type: "constant"
      value: 0.2
    }
  }
}
layer {
  name: "inception_5b/relu_5x5_reduce"
  type: "ReLU"
  bottom: "inception_5b/5x5_reduce"
  top: "inception_5b/5x5_reduce"
}
layer {
  name: "inception_5b/5x5"
  type: "Convolution"
  bottom: "inception_5b/5x5_reduce"
  top: "inception_5b/5x5"
  param {
    name: "inception_5b/5x5_w"
    lr_mult: 1
    decay_mult: 1
  }
  param {
    name: "inception_5b/5x5_b"
    lr_mult: 2
    decay_mult: 0
  }
  convolution_param {
    num_output: 128
    pad: 2
    kernel_size: 5
    weight_filler {
      type: "xavier"
    }
    bias_filler {
      type: "constant"
      value: 0.2
    }
  }
}
layer {
  name: "inception_5b/relu_5x5"
  type: "ReLU"
  bottom: "inception_5b/5x5"
  top: "inception_5b/5x5"
}
layer {
  name: "inception_5b/pool"
  type: "Pooling"
  bottom: "inception_5a/output"
  top: "inception_5b/pool"
  pooling_param {
    pool: MAX
    kernel_size: 3
    stride: 1
    pad: 1
  }
}
layer {
  name: "inception_5b/pool_proj"
  type: "Convolution"
  bottom: "inception_5b/pool"
  top: "inception_5b/pool_proj"
  param {
    name: "inception_5b/pool_proj_w"
    lr_mult: 1
    decay_mult: 1
  }
  param {
    name: "inception_5b/pool_proj_b"
    lr_mult: 2
    decay_mult: 0
  }
  convolution_param {
    num_output: 128
    kernel_size: 1
    weight_filler {
      type: "xavier"
    }
    bias_filler {
      type: "constant"
      value: 0.2
    }
  }
}
layer {
  name: "inception_5b/relu_pool_proj"
  type: "ReLU"
  bottom: "inception_5b/pool_proj"
  top: "inception_5b/pool_proj"
}
layer {
  name: "inception_5b/output"
  type: "Concat"
  bottom: "inception_5b/1x1"
  bottom: "inception_5b/3x3"
  bottom: "inception_5b/5x5"
  bottom: "inception_5b/pool_proj"
  top: "inception_5b/output"
}


####################################################################
######################### Image2 Conv layers #######################
####################################################################

layer {
  name: "conv1/7x7_s2_p"
  type: "Convolution"
  bottom: "data_p"
  top: "conv1/7x7_s2_p"
  param {
    name: "conv1/7x7_s2_w"
    lr_mult: 1
    decay_mult: 1
  }
  param {
    name: "conv1/7x7_s2_b"
    lr_mult: 2
    decay_mult: 0
  }
  convolution_param {
    num_output: 64
    pad: 3
    kernel_size: 7
    stride: 2
    weight_filler {
      type: "xavier"
    }
    bias_filler {
      type: "constant"
      value: 0.2
    }
  }
}
layer {
  name: "conv1/relu_7x7_p"
  type: "ReLU"
  bottom: "conv1/7x7_s2_p"
  top: "conv1/7x7_s2_p"
}
layer {
  name: "pool1/3x3_s2_p"
  type: "Pooling"
  bottom: "conv1/7x7_s2_p"
  top: "pool1/3x3_s2_p"
  pooling_param {
    pool: MAX
    kernel_size: 3
    stride: 2
  }
}
layer {
  name: "pool1/norm1_p"
  type: "LRN"
  bottom: "pool1/3x3_s2_p"
  top: "pool1/norm1_p"
  lrn_param {
    local_size: 5
    alpha: 0.0001
    beta: 0.75
  }
}
layer {
  name: "conv2/3x3_reduce_p"
  type: "Convolution"
  bottom: "pool1/norm1_p"
  top: "conv2/3x3_reduce_p"
  param {
    name: "conv2/3x3_reduce_w"
    lr_mult: 1
    decay_mult: 1
  }
  param {
    name: "conv2/3x3_reduce_b"
    lr_mult: 2
    decay_mult: 0
  }
  convolution_param {
    num_output: 64
    kernel_size: 1
    weight_filler {
      type: "xavier"
    }
    bias_filler {
      type: "constant"
      value: 0.2
    }
  }
}
layer {
  name: "conv2/relu_3x3_reduce_p"
  type: "ReLU"
  bottom: "conv2/3x3_reduce_p"
  top: "conv2/3x3_reduce_p"
}
layer {
  name: "conv2/3x3_p"
  type: "Convolution"
  bottom: "conv2/3x3_reduce_p"
  top: "conv2/3x3_p"
  param {
    name: "conv2/3x3_w"
    lr_mult: 1
    decay_mult: 1
  }
  param {
    name: "conv2/3x3_b"
    lr_mult: 2
    decay_mult: 0
  }
  convolution_param {
    num_output: 192
    pad: 1
    kernel_size: 3
    weight_filler {
      type: "xavier"
    }
    bias_filler {
      type: "constant"
      value: 0.2
    }
  }
}
layer {
  name: "conv2/relu_3x3_p"
  type: "ReLU"
  bottom: "conv2/3x3_p"
  top: "conv2/3x3_p"
}

layer {
  name: "pool2/3x3_s2_p"
  type: "Pooling"
  bottom: "conv2/3x3_p"
  top: "pool2/3x3_s2_p"
  pooling_param {
    pool: MAX
    kernel_size: 3
    stride: 2
  }
}
layer {
  name: "inception_3a/1x1_p"
  type: "Convolution"
  bottom: "pool2/3x3_s2_p"
  top: "inception_3a/1x1_p"
  param {
    name: "inception_3a/1x1_w"
    lr_mult: 1
    decay_mult: 1
  }
  param {
    name: "inception_3a/1x1_b"
    lr_mult: 2
    decay_mult: 0
  }
  convolution_param {
    num_output: 64
    kernel_size: 1
    weight_filler {
      type: "xavier"
    }
    bias_filler {
      type: "constant"
      value: 0.2
    }
  }
}
layer {
  name: "inception_3a/relu_1x1_p"
  type: "ReLU"
  bottom: "inception_3a/1x1_p"
  top: "inception_3a/1x1_p"
}
layer {
  name: "inception_3a/3x3_reduce_p"
  type: "Convolution"
  bottom: "pool2/3x3_s2_p"
  top: "inception_3a/3x3_reduce_p"
  param {
    name: "inception_3a/3x3_reduce_w"
    lr_mult: 1
    decay_mult: 1
  }
  param {
    name: "inception_3a/3x3_reduce_b"
    lr_mult: 2
    decay_mult: 0
  }
  convolution_param {
    num_output: 96
    kernel_size: 1
    weight_filler {
      type: "xavier"
    }
    bias_filler {
      type: "constant"
      value: 0.2
    }
  }
}
layer {
  name: "inception_3a/relu_3x3_reduce_p"
  type: "ReLU"
  bottom: "inception_3a/3x3_reduce_p"
  top: "inception_3a/3x3_reduce_p"
}
layer {
  name: "inception_3a/3x3_p"
  type: "Convolution"
  bottom: "inception_3a/3x3_reduce_p"
  top: "inception_3a/3x3_p"
  param {
    name: "inception_3a/3x3_w"
    lr_mult: 1
    decay_mult: 1
  }
  param {
    name: "inception_3a/3x3_b"
    lr_mult: 2
    decay_mult: 0
  }
  convolution_param {
    num_output: 128
    pad: 1
    kernel_size: 3
    weight_filler {
      type: "xavier"
    }
    bias_filler {
      type: "constant"
      value: 0.2
    }
  }
}
layer {
  name: "inception_3a/relu_3x3_p"
  type: "ReLU"
  bottom: "inception_3a/3x3_p"
  top: "inception_3a/3x3_p"
}
layer {
  name: "inception_3a/5x5_reduce_p"
  type: "Convolution"
  bottom: "pool2/3x3_s2_p"
  top: "inception_3a/5x5_reduce_p"
  param {
    name: "inception_3a/5x5_reduce_w"
    lr_mult: 1
    decay_mult: 1
  }
  param {
    name: "inception_3a/5x5_reduce_b"
    lr_mult: 2
    decay_mult: 0
  }
  convolution_param {
    num_output: 16
    kernel_size: 1
    weight_filler {
      type: "xavier"
    }
    bias_filler {
      type: "constant"
      value: 0.2
    }
  }
}
layer {
  name: "inception_3a/relu_5x5_reduce_p"
  type: "ReLU"
  bottom: "inception_3a/5x5_reduce_p"
  top: "inception_3a/5x5_reduce_p"
}
layer {
  name: "inception_3a/5x5_p"
  type: "Convolution"
  bottom: "inception_3a/5x5_reduce_p"
  top: "inception_3a/5x5_p"
  param {
    name: "inception_3a/5x5_w"
    lr_mult: 1
    decay_mult: 1
  }
  param {
    name: "inception_3a/5x5_b"
    lr_mult: 2
    decay_mult: 0
  }
  convolution_param {
    num_output: 32
    pad: 2
    kernel_size: 5
    weight_filler {
      type: "xavier"
    }
    bias_filler {
      type: "constant"
      value: 0.2
    }
  }
}
layer {
  name: "inception_3a/relu_5x5_p"
  type: "ReLU"
  bottom: "inception_3a/5x5_p"
  top: "inception_3a/5x5_p"
}
layer {
  name: "inception_3a/pool_p"
  type: "Pooling"
  bottom: "pool2/3x3_s2_p"
  top: "inception_3a/pool_p"
  pooling_param {
    pool: MAX
    kernel_size: 3
    stride: 1
    pad: 1
  }
}
layer {
  name: "inception_3a/pool_proj_p"
  type: "Convolution"
  bottom: "inception_3a/pool_p"
  top: "inception_3a/pool_proj_p"
  param {
    name: "inception_3a/pool_proj_w"
    lr_mult: 1
    decay_mult: 1
  }
  param {
    name: "inception_3a/pool_proj_b"
    lr_mult: 2
    decay_mult: 0
  }
  convolution_param {
    num_output: 32
    kernel_size: 1
    weight_filler {
      type: "xavier"
    }
    bias_filler {
      type: "constant"
      value: 0.2
    }
  }
}
layer {
  name: "inception_3a/relu_pool_proj_p"
  type: "ReLU"
  bottom: "inception_3a/pool_proj_p"
  top: "inception_3a/pool_proj_p"
}
layer {
  name: "inception_3a/output_p"
  type: "Concat"
  bottom: "inception_3a/1x1_p"
  bottom: "inception_3a/3x3_p"
  bottom: "inception_3a/5x5_p"
  bottom: "inception_3a/pool_proj_p"
  top: "inception_3a/output_p"
}
layer {
  name: "inception_3b/1x1_p"
  type: "Convolution"
  bottom: "inception_3a/output_p"
  top: "inception_3b/1x1_p"
  param {
    name: "inception_3b/1x1_w"
    lr_mult: 1
    decay_mult: 1
  }
  param {
    name: "inception_3b/1x1_b"
    lr_mult: 2
    decay_mult: 0
  }
  convolution_param {
    num_output: 128
    kernel_size: 1
    weight_filler {
      type: "xavier"
    }
    bias_filler {
      type: "constant"
      value: 0.2
    }
  }
}
layer {
  name: "inception_3b/relu_1x1_p"
  type: "ReLU"
  bottom: "inception_3b/1x1_p"
  top: "inception_3b/1x1_p"
}
layer {
  name: "inception_3b/3x3_reduce_p"
  type: "Convolution"
  bottom: "inception_3a/output_p"
  top: "inception_3b/3x3_reduce_p"
  param {
    name: "inception_3b/3x3_reduce_w"
    lr_mult: 1
    decay_mult: 1
  }
  param {
    name: "inception_3b/3x3_reduce_b"
    lr_mult: 2
    decay_mult: 0
  }
  convolution_param {
    num_output: 128
    kernel_size: 1
    weight_filler {
      type: "xavier"
    }
    bias_filler {
      type: "constant"
      value: 0.2
    }
  }
}
layer {
  name: "inception_3b/relu_3x3_reduce_p"
  type: "ReLU"
  bottom: "inception_3b/3x3_reduce_p"
  top: "inception_3b/3x3_reduce_p"
}
layer {
  name: "inception_3b/3x3_p"
  type: "Convolution"
  bottom: "inception_3b/3x3_reduce_p"
  top: "inception_3b/3x3_p"
  param {
    name: "inception_3b/3x3_w"
    lr_mult: 1
    decay_mult: 1
  }
  param {
    name: "inception_3b/3x3_b"
    lr_mult: 2
    decay_mult: 0
  }
  convolution_param {
    num_output: 192
    pad: 1
    kernel_size: 3
    weight_filler {
      type: "xavier"
    }
    bias_filler {
      type: "constant"
      value: 0.2
    }
  }
}
layer {
  name: "inception_3b/relu_3x3_p"
  type: "ReLU"
  bottom: "inception_3b/3x3_p"
  top: "inception_3b/3x3_p"
}
layer {
  name: "inception_3b/5x5_reduce_p"
  type: "Convolution"
  bottom: "inception_3a/output_p"
  top: "inception_3b/5x5_reduce_p"
  param {
    name: "inception_3b/5x5_reduce_w"
    lr_mult: 1
    decay_mult: 1
  }
  param {
    name: "inception_3b/5x5_reduce_b"
    lr_mult: 2
    decay_mult: 0
  }
  convolution_param {
    num_output: 32
    kernel_size: 1
    weight_filler {
      type: "xavier"
    }
    bias_filler {
      type: "constant"
      value: 0.2
    }
  }
}
layer {
  name: "inception_3b/relu_5x5_reduce_p"
  type: "ReLU"
  bottom: "inception_3b/5x5_reduce_p"
  top: "inception_3b/5x5_reduce_p"
}
layer {
  name: "inception_3b/5x5_p"
  type: "Convolution"
  bottom: "inception_3b/5x5_reduce_p"
  top: "inception_3b/5x5_p"
  param {
    name: "inception_3b/5x5_w"
    lr_mult: 1
    decay_mult: 1
  }
  param {
    name: "inception_3b/5x5_b"
    lr_mult: 2
    decay_mult: 0
  }
  convolution_param {
    num_output: 96
    pad: 2
    kernel_size: 5
    weight_filler {
      type: "xavier"
    }
    bias_filler {
      type: "constant"
      value: 0.2
    }
  }
}
layer {
  name: "inception_3b/relu_5x5_p"
  type: "ReLU"
  bottom: "inception_3b/5x5_p"
  top: "inception_3b/5x5_p"
}
layer {
  name: "inception_3b/pool_p"
  type: "Pooling"
  bottom: "inception_3a/output_p"
  top: "inception_3b/pool_p"
  pooling_param {
    pool: MAX
    kernel_size: 3
    stride: 1
    pad: 1
  }
}
layer {
  name: "inception_3b/pool_proj_p"
  type: "Convolution"
  bottom: "inception_3b/pool_p"
  top: "inception_3b/pool_proj_p"
  param {
    name: "inception_3b/pool_proj_w"
    lr_mult: 1
    decay_mult: 1
  }
  param {
    name: "inception_3b/pool_proj_b"
    lr_mult: 2
    decay_mult: 0
  }
  convolution_param {
    num_output: 64
    kernel_size: 1
    weight_filler {
      type: "xavier"
    }
    bias_filler {
      type: "constant"
      value: 0.2
    }
  }
}
layer {
  name: "inception_3b/relu_pool_proj_p"
  type: "ReLU"
  bottom: "inception_3b/pool_proj_p"
  top: "inception_3b/pool_proj_p"
}
layer {
  name: "inception_3b/output_p"
  type: "Concat"
  bottom: "inception_3b/1x1_p"
  bottom: "inception_3b/3x3_p"
  bottom: "inception_3b/5x5_p"
  bottom: "inception_3b/pool_proj_p"
  top: "inception_3b/output_p"
}
layer {
  name: "pool3/3x3_s2_p"
  type: "Pooling"
  bottom: "inception_3b/output_p"
  top: "pool3/3x3_s2_p"
  pooling_param {
    pool: MAX
    kernel_size: 3
    stride: 2
  }
}
layer {
  name: "inception_4a/1x1_p"
  type: "Convolution"
  bottom: "pool3/3x3_s2_p"
  top: "inception_4a/1x1_p"
  param {
    name: "inception_4a/1x1_w"
    lr_mult: 1
    decay_mult: 1
  }
  param {
    name: "inception_4a/1x1_b"
    lr_mult: 2
    decay_mult: 0
  }
  convolution_param {
    num_output: 192
    kernel_size: 1
    weight_filler {
      type: "xavier"
    }
    bias_filler {
      type: "constant"
      value: 0.2
    }
  }
}
layer {
  name: "inception_4a/relu_1x1_p"
  type: "ReLU"
  bottom: "inception_4a/1x1_p"
  top: "inception_4a/1x1_p"
}
layer {
  name: "inception_4a/3x3_reduce_p"
  type: "Convolution"
  bottom: "pool3/3x3_s2_p"
  top: "inception_4a/3x3_reduce_p"
  param {
    name: "inception_4a/3x3_reduce_w"
    lr_mult: 1
    decay_mult: 1
  }
  param {
    name: "inception_4a/3x3_reduce_b"
    lr_mult: 2
    decay_mult: 0
  }
  convolution_param {
    num_output: 96
    kernel_size: 1
    weight_filler {
      type: "xavier"
    }
    bias_filler {
      type: "constant"
      value: 0.2
    }
  }
}
layer {
  name: "inception_4a/relu_3x3_reduce_p"
  type: "ReLU"
  bottom: "inception_4a/3x3_reduce_p"
  top: "inception_4a/3x3_reduce_p"
}
layer {
  name: "inception_4a/3x3_p"
  type: "Convolution"
  bottom: "inception_4a/3x3_reduce_p"
  top: "inception_4a/3x3_p"
  param {
    name: "inception_4a/3x3_w"
    lr_mult: 1
    decay_mult: 1
  }
  param {
    name: "inception_4a/3x3_b"
    lr_mult: 2
    decay_mult: 0
  }
  convolution_param {
    num_output: 208
    pad: 1
    kernel_size: 3
    weight_filler {
      type: "xavier"
    }
    bias_filler {
      type: "constant"
      value: 0.2
    }
  }
}
layer {
  name: "inception_4a/relu_3x3_p"
  type: "ReLU"
  bottom: "inception_4a/3x3_p"
  top: "inception_4a/3x3_p"
}
layer {
  name: "inception_4a/5x5_reduce_p"
  type: "Convolution"
  bottom: "pool3/3x3_s2_p"
  top: "inception_4a/5x5_reduce_p"
  param {
    name: "inception_4a/5x5_reduce_w"
    lr_mult: 1
    decay_mult: 1
  }
  param {
    name: "inception_4a/5x5_reduce_b"
    lr_mult: 2
    decay_mult: 0
  }
  convolution_param {
    num_output: 16
    kernel_size: 1
    weight_filler {
      type: "xavier"
    }
    bias_filler {
      type: "constant"
      value: 0.2
    }
  }
}
layer {
  name: "inception_4a/relu_5x5_reduce_p"
  type: "ReLU"
  bottom: "inception_4a/5x5_reduce_p"
  top: "inception_4a/5x5_reduce_p"
}
layer {
  name: "inception_4a/5x5_p"
  type: "Convolution"
  bottom: "inception_4a/5x5_reduce_p"
  top: "inception_4a/5x5_p"
  param {
    name: "inception_4a/5x5_w"
    lr_mult: 1
    decay_mult: 1
  }
  param {
    name: "inception_4a/5x5_b"
    lr_mult: 2
    decay_mult: 0
  }
  convolution_param {
    num_output: 48
    pad: 2
    kernel_size: 5
    weight_filler {
      type: "xavier"
    }
    bias_filler {
      type: "constant"
      value: 0.2
    }
  }
}
layer {
  name: "inception_4a/relu_5x5_p"
  type: "ReLU"
  bottom: "inception_4a/5x5_p"
  top: "inception_4a/5x5_p"
}
layer {
  name: "inception_4a/pool_p"
  type: "Pooling"
  bottom: "pool3/3x3_s2_p"
  top: "inception_4a/pool_p"
  pooling_param {
    pool: MAX
    kernel_size: 3
    stride: 1
    pad: 1
  }
}
layer {
  name: "inception_4a/pool_proj_p"
  type: "Convolution"
  bottom: "inception_4a/pool_p"
  top: "inception_4a/pool_proj_p"
  param {
    name: "inception_4a/pool_proj_w"
    lr_mult: 1
    decay_mult: 1
  }
  param {
    name: "inception_4a/pool_proj_b"
    lr_mult: 2
    decay_mult: 0
  }
  convolution_param {
    num_output: 64
    kernel_size: 1
    weight_filler {
      type: "xavier"
    }
    bias_filler {
      type: "constant"
      value: 0.2
    }
  }
}
layer {
  name: "inception_4a/relu_pool_proj_p"
  type: "ReLU"
  bottom: "inception_4a/pool_proj_p"
  top: "inception_4a/pool_proj_p"
}
layer {
  name: "inception_4a/output_p"
  type: "Concat"
  bottom: "inception_4a/1x1_p"
  bottom: "inception_4a/3x3_p"
  bottom: "inception_4a/5x5_p"
  bottom: "inception_4a/pool_proj_p"
  top: "inception_4a/output_p"
}

layer {
  name: "inception_4b/1x1_p"
  type: "Convolution"
  bottom: "inception_4a/output_p"
  top: "inception_4b/1x1_p"
  param {
    name: "inception_4b/1x1_w"
    lr_mult: 1
    decay_mult: 1
  }
  param {
    name: "inception_4b/1x1_b"
    lr_mult: 2
    decay_mult: 0
  }
  convolution_param {
    num_output: 160
    kernel_size: 1
    weight_filler {
      type: "xavier"
    }
    bias_filler {
      type: "constant"
      value: 0.2
    }
  }
}
layer {
  name: "inception_4b/relu_1x1_p"
  type: "ReLU"
  bottom: "inception_4b/1x1_p"
  top: "inception_4b/1x1_p"
}
layer {
  name: "inception_4b/3x3_reduce_p"
  type: "Convolution"
  bottom: "inception_4a/output_p"
  top: "inception_4b/3x3_reduce_p"
  param {
    name: "inception_4b/3x3_reduce_w"
    lr_mult: 1
    decay_mult: 1
  }
  param {
    name: "inception_4b/3x3_reduce_b"
    lr_mult: 2
    decay_mult: 0
  }
  convolution_param {
    num_output: 112
    kernel_size: 1
    weight_filler {
      type: "xavier"
    }
    bias_filler {
      type: "constant"
      value: 0.2
    }
  }
}
layer {
  name: "inception_4b/relu_3x3_reduce_p"
  type: "ReLU"
  bottom: "inception_4b/3x3_reduce_p"
  top: "inception_4b/3x3_reduce_p"
}
layer {
  name: "inception_4b/3x3_p"
  type: "Convolution"
  bottom: "inception_4b/3x3_reduce_p"
  top: "inception_4b/3x3_p"
  param {
    name: "inception_4b/3x3_w"
    lr_mult: 1
    decay_mult: 1
  }
  param {
    name: "inception_4b/3x3_b"
    lr_mult: 2
    decay_mult: 0
  }
  convolution_param {
    num_output: 224
    pad: 1
    kernel_size: 3
    weight_filler {
      type: "xavier"
    }
    bias_filler {
      type: "constant"
      value: 0.2
    }
  }
}
layer {
  name: "inception_4b/relu_3x3_p"
  type: "ReLU"
  bottom: "inception_4b/3x3_p"
  top: "inception_4b/3x3_p"
}
layer {
  name: "inception_4b/5x5_reduce_p"
  type: "Convolution"
  bottom: "inception_4a/output_p"
  top: "inception_4b/5x5_reduce_p"
  param {
    name: "inception_4b/5x5_reduce_w"
    lr_mult: 1
    decay_mult: 1
  }
  param {
    name: "inception_4b/5x5_reduce_b"
    lr_mult: 2
    decay_mult: 0
  }
  convolution_param {
    num_output: 24
    kernel_size: 1
    weight_filler {
      type: "xavier"
    }
    bias_filler {
      type: "constant"
      value: 0.2
    }
  }
}
layer {
  name: "inception_4b/relu_5x5_reduce_p"
  type: "ReLU"
  bottom: "inception_4b/5x5_reduce_p"
  top: "inception_4b/5x5_reduce_p"
}
layer {
  name: "inception_4b/5x5_p"
  type: "Convolution"
  bottom: "inception_4b/5x5_reduce_p"
  top: "inception_4b/5x5_p"
  param {
    name: "inception_4b/5x5_w"
    lr_mult: 1
    decay_mult: 1
  }
  param {
    name: "inception_4b/5x5_b"
    lr_mult: 2
    decay_mult: 0
  }
  convolution_param {
    num_output: 64
    pad: 2
    kernel_size: 5
    weight_filler {
      type: "xavier"
    }
    bias_filler {
      type: "constant"
      value: 0.2
    }
  }
}
layer {
  name: "inception_4b/relu_5x5_p"
  type: "ReLU"
  bottom: "inception_4b/5x5_p"
  top: "inception_4b/5x5_p"
}
layer {
  name: "inception_4b/pool_p"
  type: "Pooling"
  bottom: "inception_4a/output_p"
  top: "inception_4b/pool_p"
  pooling_param {
    pool: MAX
    kernel_size: 3
    stride: 1
    pad: 1
  }
}
layer {
  name: "inception_4b/pool_proj_p"
  type: "Convolution"
  bottom: "inception_4b/pool_p"
  top: "inception_4b/pool_proj_p"
  param {
    name: "inception_4b/pool_proj_w"
    lr_mult: 1
    decay_mult: 1
  }
  param {
    name: "inception_4b/pool_proj_b"
    lr_mult: 2
    decay_mult: 0
  }
  convolution_param {
    num_output: 64
    kernel_size: 1
    weight_filler {
      type: "xavier"
    }
    bias_filler {
      type: "constant"
      value: 0.2
    }
  }
}
layer {
  name: "inception_4b/relu_pool_proj_p"
  type: "ReLU"
  bottom: "inception_4b/pool_proj_p"
  top: "inception_4b/pool_proj_p"
}
layer {
  name: "inception_4b/output_p"
  type: "Concat"
  bottom: "inception_4b/1x1_p"
  bottom: "inception_4b/3x3_p"
  bottom: "inception_4b/5x5_p"
  bottom: "inception_4b/pool_proj_p"
  top: "inception_4b/output_p"
}
layer {
  name: "inception_4c/1x1_p"
  type: "Convolution"
  bottom: "inception_4b/output_p"
  top: "inception_4c/1x1_p"
  param {
    name: "inception_4c/1x1_w"
    lr_mult: 1
    decay_mult: 1
  }
  param {
    name: "inception_4c/1x1_b"
    lr_mult: 2
    decay_mult: 0
  }
  convolution_param {
    num_output: 128
    kernel_size: 1
    weight_filler {
      type: "xavier"
    }
    bias_filler {
      type: "constant"
      value: 0.2
    }
  }
}
layer {
  name: "inception_4c/relu_1x1_p"
  type: "ReLU"
  bottom: "inception_4c/1x1_p"
  top: "inception_4c/1x1_p"
}
layer {
  name: "inception_4c/3x3_reduce_p"
  type: "Convolution"
  bottom: "inception_4b/output_p"
  top: "inception_4c/3x3_reduce_p"
  param {
    name: "inception_4c/3x3_reduce_w"
    lr_mult: 1
    decay_mult: 1
  }
  param {
    name: "inception_4c/3x3_reduce_b"
    lr_mult: 2
    decay_mult: 0
  }
  convolution_param {
    num_output: 128
    kernel_size: 1
    weight_filler {
      type: "xavier"
    }
    bias_filler {
      type: "constant"
      value: 0.2
    }
  }
}
layer {
  name: "inception_4c/relu_3x3_reduce_p"
  type: "ReLU"
  bottom: "inception_4c/3x3_reduce_p"
  top: "inception_4c/3x3_reduce_p"
}
layer {
  name: "inception_4c/3x3_p"
  type: "Convolution"
  bottom: "inception_4c/3x3_reduce_p"
  top: "inception_4c/3x3_p"
  param {
    name: "inception_4c/3x3_w"
    lr_mult: 1
    decay_mult: 1
  }
  param {
    name: "inception_4c/3x3_b"
    lr_mult: 2
    decay_mult: 0
  }
  convolution_param {
    num_output: 256
    pad: 1
    kernel_size: 3
    weight_filler {
      type: "xavier"
    }
    bias_filler {
      type: "constant"
      value: 0.2
    }
  }
}
layer {
  name: "inception_4c/relu_3x3_p"
  type: "ReLU"
  bottom: "inception_4c/3x3_p"
  top: "inception_4c/3x3_p"
}
layer {
  name: "inception_4c/5x5_reduce_p"
  type: "Convolution"
  bottom: "inception_4b/output_p"
  top: "inception_4c/5x5_reduce_p"
  param {
    name: "inception_4c/5x5_reduce_w"
    lr_mult: 1
    decay_mult: 1
  }
  param {
    name: "inception_4c/5x5_reduce_b"
    lr_mult: 2
    decay_mult: 0
  }
  convolution_param {
    num_output: 24
    kernel_size: 1
    weight_filler {
      type: "xavier"
    }
    bias_filler {
      type: "constant"
      value: 0.2
    }
  }
}
layer {
  name: "inception_4c/relu_5x5_reduce_p"
  type: "ReLU"
  bottom: "inception_4c/5x5_reduce_p"
  top: "inception_4c/5x5_reduce_p"
}
layer {
  name: "inception_4c/5x5_p"
  type: "Convolution"
  bottom: "inception_4c/5x5_reduce_p"
  top: "inception_4c/5x5_p"
  param {
    name: "inception_4c/5x5_w"
    lr_mult: 1
    decay_mult: 1
  }
  param {
    name: "inception_4c/5x5_b"
    lr_mult: 2
    decay_mult: 0
  }
  convolution_param {
    num_output: 64
    pad: 2
    kernel_size: 5
    weight_filler {
      type: "xavier"
    }
    bias_filler {
      type: "constant"
      value: 0.2
    }
  }
}
layer {
  name: "inception_4c/relu_5x5_p"
  type: "ReLU"
  bottom: "inception_4c/5x5_p"
  top: "inception_4c/5x5_p"
}
layer {
  name: "inception_4c/pool_p"
  type: "Pooling"
  bottom: "inception_4b/output_p"
  top: "inception_4c/pool_p"
  pooling_param {
    pool: MAX
    kernel_size: 3
    stride: 1
    pad: 1
  }
}
layer {
  name: "inception_4c/pool_proj_p"
  type: "Convolution"
  bottom: "inception_4c/pool_p"
  top: "inception_4c/pool_proj_p"
  param {
    name: "inception_4c/pool_proj_w"
    lr_mult: 1
    decay_mult: 1
  }
  param {
    name: "inception_4c/pool_proj_b"
    lr_mult: 2
    decay_mult: 0
  }
  convolution_param {
    num_output: 64
    kernel_size: 1
    weight_filler {
      type: "xavier"
    }
    bias_filler {
      type: "constant"
      value: 0.2
    }
  }
}
layer {
  name: "inception_4c/relu_pool_proj_p"
  type: "ReLU"
  bottom: "inception_4c/pool_proj_p"
  top: "inception_4c/pool_proj_p"
}
layer {
  name: "inception_4c/output_p"
  type: "Concat"
  bottom: "inception_4c/1x1_p"
  bottom: "inception_4c/3x3_p"
  bottom: "inception_4c/5x5_p"
  bottom: "inception_4c/pool_proj_p"
  top: "inception_4c/output_p"
}
layer {
  name: "inception_4d/1x1_p"
  type: "Convolution"
  bottom: "inception_4c/output_p"
  top: "inception_4d/1x1_p"
  param {
    name: "inception_4d/1x1_w"
    lr_mult: 1
    decay_mult: 1
  }
  param {
    name: "inception_4d/1x1_b"
    lr_mult: 2
    decay_mult: 0
  }
  convolution_param {
    num_output: 112
    kernel_size: 1
    weight_filler {
      type: "xavier"
    }
    bias_filler {
      type: "constant"
      value: 0.2
    }
  }
}
layer {
  name: "inception_4d/relu_1x1_p"
  type: "ReLU"
  bottom: "inception_4d/1x1_p"
  top: "inception_4d/1x1_p"
}
layer {
  name: "inception_4d/3x3_reduce_p"
  type: "Convolution"
  bottom: "inception_4c/output_p"
  top: "inception_4d/3x3_reduce_p"
  param {
    name: "inception_4d/3x3_reduce_w"
    lr_mult: 1
    decay_mult: 1
  }
  param {
    name: "inception_4d/3x3_reduce_b"
    lr_mult: 2
    decay_mult: 0
  }
  convolution_param {
    num_output: 144
    kernel_size: 1
    weight_filler {
      type: "xavier"
    }
    bias_filler {
      type: "constant"
      value: 0.2
    }
  }
}
layer {
  name: "inception_4d/relu_3x3_reduce_p"
  type: "ReLU"
  bottom: "inception_4d/3x3_reduce_p"
  top: "inception_4d/3x3_reduce_p"
}
layer {
  name: "inception_4d/3x3_p"
  type: "Convolution"
  bottom: "inception_4d/3x3_reduce_p"
  top: "inception_4d/3x3_p"
  param {
    name: "inception_4d/3x3_w"
    lr_mult: 1
    decay_mult: 1
  }
  param {
    name: "inception_4d/3x3_b"
    lr_mult: 2
    decay_mult: 0
  }
  convolution_param {
    num_output: 288
    pad: 1
    kernel_size: 3
    weight_filler {
      type: "xavier"
    }
    bias_filler {
      type: "constant"
      value: 0.2
    }
  }
}
layer {
  name: "inception_4d/relu_3x3_p"
  type: "ReLU"
  bottom: "inception_4d/3x3_p"
  top: "inception_4d/3x3_p"
}
layer {
  name: "inception_4d/5x5_reduce_p"
  type: "Convolution"
  bottom: "inception_4c/output_p"
  top: "inception_4d/5x5_reduce_p"
  param {
    name: "inception_4d/5x5_reduce_w"
    lr_mult: 1
    decay_mult: 1
  }
  param {
    name: "inception_4d/5x5_reduce_b"
    lr_mult: 2
    decay_mult: 0
  }
  convolution_param {
    num_output: 32
    kernel_size: 1
    weight_filler {
      type: "xavier"
    }
    bias_filler {
      type: "constant"
      value: 0.2
    }
  }
}
layer {
  name: "inception_4d/relu_5x5_reduce_p"
  type: "ReLU"
  bottom: "inception_4d/5x5_reduce_p"
  top: "inception_4d/5x5_reduce_p"
}
layer {
  name: "inception_4d/5x5_p"
  type: "Convolution"
  bottom: "inception_4d/5x5_reduce_p"
  top: "inception_4d/5x5_p"
  param {
    name: "inception_4d/5x5_w"
    lr_mult: 1
    decay_mult: 1
  }
  param {
    name: "inception_4d/5x5_b"
    lr_mult: 2
    decay_mult: 0
  }
  convolution_param {
    num_output: 64
    pad: 2
    kernel_size: 5
    weight_filler {
      type: "xavier"
    }
    bias_filler {
      type: "constant"
      value: 0.2
    }
  }
}
layer {
  name: "inception_4d/relu_5x5_p"
  type: "ReLU"
  bottom: "inception_4d/5x5_p"
  top: "inception_4d/5x5_p"
}
layer {
  name: "inception_4d/pool_p"
  type: "Pooling"
  bottom: "inception_4c/output_p"
  top: "inception_4d/pool_p"
  pooling_param {
    pool: MAX
    kernel_size: 3
    stride: 1
    pad: 1
  }
}
layer {
  name: "inception_4d/pool_proj_p"
  type: "Convolution"
  bottom: "inception_4d/pool_p"
  top: "inception_4d/pool_proj_p"
  param {
    name: "inception_4d/pool_proj_w"
    lr_mult: 1
    decay_mult: 1
  }
  param {
    name: "inception_4d/pool_proj_b"
    lr_mult: 2
    decay_mult: 0
  }
  convolution_param {
    num_output: 64
    kernel_size: 1
    weight_filler {
      type: "xavier"
    }
    bias_filler {
      type: "constant"
      value: 0.2
    }
  }
}
layer {
  name: "inception_4d/relu_pool_proj_p"
  type: "ReLU"
  bottom: "inception_4d/pool_proj_p"
  top: "inception_4d/pool_proj_p"
}
layer {
  name: "inception_4d/output_p"
  type: "Concat"
  bottom: "inception_4d/1x1_p"
  bottom: "inception_4d/3x3_p"
  bottom: "inception_4d/5x5_p"
  bottom: "inception_4d/pool_proj_p"
  top: "inception_4d/output_p"
}

layer {
  name: "inception_4e/1x1_p"
  type: "Convolution"
  bottom: "inception_4d/output_p"
  top: "inception_4e/1x1_p"
  param {
    name: "inception_4e/1x1_w"
    lr_mult: 1
    decay_mult: 1
  }
  param {
    name: "inception_4e/1x1_b"
    lr_mult: 2
    decay_mult: 0
  }
  convolution_param {
    num_output: 256
    kernel_size: 1
    weight_filler {
      type: "xavier"
    }
    bias_filler {
      type: "constant"
      value: 0.2
    }
  }
}
layer {
  name: "inception_4e/relu_1x1_p"
  type: "ReLU"
  bottom: "inception_4e/1x1_p"
  top: "inception_4e/1x1_p"
}
layer {
  name: "inception_4e/3x3_reduce_p"
  type: "Convolution"
  bottom: "inception_4d/output_p"
  top: "inception_4e/3x3_reduce_p"
  param {
    name: "inception_4e/3x3_reduce_w"
    lr_mult: 1
    decay_mult: 1
  }
  param {
    name: "inception_4e/3x3_reduce_b"
    lr_mult: 2
    decay_mult: 0
  }
  convolution_param {
    num_output: 160
    kernel_size: 1
    weight_filler {
      type: "xavier"
    }
    bias_filler {
      type: "constant"
      value: 0.2
    }
  }
}
layer {
  name: "inception_4e/relu_3x3_reduce_p"
  type: "ReLU"
  bottom: "inception_4e/3x3_reduce_p"
  top: "inception_4e/3x3_reduce_p"
}
layer {
  name: "inception_4e/3x3_p"
  type: "Convolution"
  bottom: "inception_4e/3x3_reduce_p"
  top: "inception_4e/3x3_p"
  param {
    name: "inception_4e/3x3_w"
    lr_mult: 1
    decay_mult: 1
  }
  param {
    name: "inception_4e/3x3_b"
    lr_mult: 2
    decay_mult: 0
  }
  convolution_param {
    num_output: 320
    pad: 1
    kernel_size: 3
    weight_filler {
      type: "xavier"
    }
    bias_filler {
      type: "constant"
      value: 0.2
    }
  }
}
layer {
  name: "inception_4e/relu_3x3_p"
  type: "ReLU"
  bottom: "inception_4e/3x3_p"
  top: "inception_4e/3x3_p"
}
layer {
  name: "inception_4e/5x5_reduce_p"
  type: "Convolution"
  bottom: "inception_4d/output_p"
  top: "inception_4e/5x5_reduce_p"
  param {
    name: "inception_4e/5x5_reduce_w"
    lr_mult: 1
    decay_mult: 1
  }
  param {
    name: "inception_4e/5x5_reduce_b"
    lr_mult: 2
    decay_mult: 0
  }
  convolution_param {
    num_output: 32
    kernel_size: 1
    weight_filler {
      type: "xavier"
    }
    bias_filler {
      type: "constant"
      value: 0.2
    }
  }
}
layer {
  name: "inception_4e/relu_5x5_reduce_p"
  type: "ReLU"
  bottom: "inception_4e/5x5_reduce_p"
  top: "inception_4e/5x5_reduce_p"
}
layer {
  name: "inception_4e/5x5_p"
  type: "Convolution"
  bottom: "inception_4e/5x5_reduce_p"
  top: "inception_4e/5x5_p"
  param {
    name: "inception_4e/5x5_w"
    lr_mult: 1
    decay_mult: 1
  }
  param {
    name: "inception_4e/5x5_b"
    lr_mult: 2
    decay_mult: 0
  }
  convolution_param {
    num_output: 128
    pad: 2
    kernel_size: 5
    weight_filler {
      type: "xavier"
    }
    bias_filler {
      type: "constant"
      value: 0.2
    }
  }
}
layer {
  name: "inception_4e/relu_5x5_p"
  type: "ReLU"
  bottom: "inception_4e/5x5_p"
  top: "inception_4e/5x5_p"
}
layer {
  name: "inception_4e/pool_p"
  type: "Pooling"
  bottom: "inception_4d/output_p"
  top: "inception_4e/pool_p"
  pooling_param {
    pool: MAX
    kernel_size: 3
    stride: 1
    pad: 1
  }
}
layer {
  name: "inception_4e/pool_proj_p"
  type: "Convolution"
  bottom: "inception_4e/pool_p"
  top: "inception_4e/pool_proj_p"
  param {
    name: "inception_4e/pool_proj_w"
    lr_mult: 1
    decay_mult: 1
  }
  param {
    name: "inception_4e/pool_proj_b"
    lr_mult: 2
    decay_mult: 0
  }
  convolution_param {
    num_output: 128
    kernel_size: 1
    weight_filler {
      type: "xavier"
    }
    bias_filler {
      type: "constant"
      value: 0.2
    }
  }
}
layer {
  name: "inception_4e/relu_pool_proj_p"
  type: "ReLU"
  bottom: "inception_4e/pool_proj_p"
  top: "inception_4e/pool_proj_p"
}
layer {
  name: "inception_4e/output_p"
  type: "Concat"
  bottom: "inception_4e/1x1_p"
  bottom: "inception_4e/3x3_p"
  bottom: "inception_4e/5x5_p"
  bottom: "inception_4e/pool_proj_p"
  top: "inception_4e/output_p"
}
# layer {
#   name: "pool4/3x3_s2_p"
#   type: "Pooling"
#   bottom: "inception_4e/output_p"
#   top: "pool4/3x3_s2_p"
#   pooling_param {
#     pool: MAX
#     kernel_size: 3
#     stride: 2
#   }
# }
layer {
  name: "inception_5a/1x1_p"
  type: "Convolution"
  bottom: "inception_4e/output_p"
  top: "inception_5a/1x1_p"
  param {
    name: "inception_5a/1x1_w"
    lr_mult: 1
    decay_mult: 1
  }
  param {
    name: "inception_5a/1x1_b"
    lr_mult: 2
    decay_mult: 0
  }
  convolution_param {
    num_output: 256
    kernel_size: 1
    weight_filler {
      type: "xavier"
    }
    bias_filler {
      type: "constant"
      value: 0.2
    }
  }
}
layer {
  name: "inception_5a/relu_1x1_p"
  type: "ReLU"
  bottom: "inception_5a/1x1_p"
  top: "inception_5a/1x1_p"
}
layer {
  name: "inception_5a/3x3_reduce_p"
  type: "Convolution"
  bottom: "inception_4e/output_p"
  top: "inception_5a/3x3_reduce_p"
  param {
    name: "inception_5a/3x3_reduce_w"
    lr_mult: 1
    decay_mult: 1
  }
  param {
    name: "inception_5a/3x3_reduce_b"
    lr_mult: 2
    decay_mult: 0
  }
  convolution_param {
    num_output: 160
    kernel_size: 1
    weight_filler {
      type: "xavier"
    }
    bias_filler {
      type: "constant"
      value: 0.2
    }
  }
}
layer {
  name: "inception_5a/relu_3x3_reduce_p"
  type: "ReLU"
  bottom: "inception_5a/3x3_reduce_p"
  top: "inception_5a/3x3_reduce_p"
}
layer {
  name: "inception_5a/3x3_p"
  type: "Convolution"
  bottom: "inception_5a/3x3_reduce_p"
  top: "inception_5a/3x3_p"
  param {
    name: "inception_5a/3x3_w"
    lr_mult: 1
    decay_mult: 1
  }
  param {
    name: "inception_5a/3x3_b"
    lr_mult: 2
    decay_mult: 0
  }
  convolution_param {
    num_output: 320
    pad: 1
    kernel_size: 3
    weight_filler {
      type: "xavier"
    }
    bias_filler {
      type: "constant"
      value: 0.2
    }
  }
}
layer {
  name: "inception_5a/relu_3x3_p"
  type: "ReLU"
  bottom: "inception_5a/3x3_p"
  top: "inception_5a/3x3_p"
}
layer {
  name: "inception_5a/5x5_reduce_p"
  type: "Convolution"
  bottom: "inception_4e/output_p"
  top: "inception_5a/5x5_reduce_p"
  param {
    name: "inception_5a/5x5_reduce_w"
    lr_mult: 1
    decay_mult: 1
  }
  param {
    name: "inception_5a/5x5_reduce_b"
    lr_mult: 2
    decay_mult: 0
  }
  convolution_param {
    num_output: 32
    kernel_size: 1
    weight_filler {
      type: "xavier"
    }
    bias_filler {
      type: "constant"
      value: 0.2
    }
  }
}
layer {
  name: "inception_5a/relu_5x5_reduce_p"
  type: "ReLU"
  bottom: "inception_5a/5x5_reduce_p"
  top: "inception_5a/5x5_reduce_p"
}
layer {
  name: "inception_5a/5x5_p"
  type: "Convolution"
  bottom: "inception_5a/5x5_reduce_p"
  top: "inception_5a/5x5_p"
  param {
    name: "inception_5a/5x5_w"
    lr_mult: 1
    decay_mult: 1
  }
  param {
    name: "inception_5a/5x5_b"
    lr_mult: 2
    decay_mult: 0
  }
  convolution_param {
    num_output: 128
    pad: 2
    kernel_size: 5
    weight_filler {
      type: "xavier"
    }
    bias_filler {
      type: "constant"
      value: 0.2
    }
  }
}
layer {
  name: "inception_5a/relu_5x5_p"
  type: "ReLU"
  bottom: "inception_5a/5x5_p"
  top: "inception_5a/5x5_p"
}
layer {
  name: "inception_5a/pool_p"
  type: "Pooling"
  bottom: "inception_4e/output_p"
  top: "inception_5a/pool_p"
  pooling_param {
    pool: MAX
    kernel_size: 3
    stride: 1
    pad: 1
  }
}
layer {
  name: "inception_5a/pool_proj_p"
  type: "Convolution"
  bottom: "inception_5a/pool_p"
  top: "inception_5a/pool_proj_p"
  param {
    name: "inception_5a/pool_proj_w"
    lr_mult: 1
    decay_mult: 1
  }
  param {
    name: "inception_5a/pool_proj_b"
    lr_mult: 2
    decay_mult: 0
  }
  convolution_param {
    num_output: 128
    kernel_size: 1
    weight_filler {
      type: "xavier"
    }
    bias_filler {
      type: "constant"
      value: 0.2
    }
  }
}
layer {
  name: "inception_5a/relu_pool_proj_p"
  type: "ReLU"
  bottom: "inception_5a/pool_proj_p"
  top: "inception_5a/pool_proj_p"
}
layer {
  name: "inception_5a/output_p"
  type: "Concat"
  bottom: "inception_5a/1x1_p"
  bottom: "inception_5a/3x3_p"
  bottom: "inception_5a/5x5_p"
  bottom: "inception_5a/pool_proj_p"
  top: "inception_5a/output_p"
}
layer {
  name: "inception_5b/1x1_p"
  type: "Convolution"
  bottom: "inception_5a/output_p"
  top: "inception_5b/1x1_p"
  param {
    name: "inception_5b/1x1_w"
    lr_mult: 1
    decay_mult: 1
  }
  param {
    name: "inception_5b/1x1_b"
    lr_mult: 2
    decay_mult: 0
  }
  convolution_param {
    num_output: 384
    kernel_size: 1
    weight_filler {
      type: "xavier"
    }
    bias_filler {
      type: "constant"
      value: 0.2
    }
  }
}
layer {
  name: "inception_5b/relu_1x1_p"
  type: "ReLU"
  bottom: "inception_5b/1x1_p"
  top: "inception_5b/1x1_p"
}
layer {
  name: "inception_5b/3x3_reduce_p"
  type: "Convolution"
  bottom: "inception_5a/output_p"
  top: "inception_5b/3x3_reduce_p"
  param {
    name: "inception_5b/3x3_reduce_w"
    lr_mult: 1
    decay_mult: 1
  }
  param {
    name: "inception_5b/3x3_reduce_b"
    lr_mult: 2
    decay_mult: 0
  }
  convolution_param {
    num_output: 192
    kernel_size: 1
    weight_filler {
      type: "xavier"
    }
    bias_filler {
      type: "constant"
      value: 0.2
    }
  }
}
layer {
  name: "inception_5b/relu_3x3_reduce_p"
  type: "ReLU"
  bottom: "inception_5b/3x3_reduce_p"
  top: "inception_5b/3x3_reduce_p"
}
layer {
  name: "inception_5b/3x3_p"
  type: "Convolution"
  bottom: "inception_5b/3x3_reduce_p"
  top: "inception_5b/3x3_p"
  param {
    name: "inception_5b/3x3_w"
    lr_mult: 1
    decay_mult: 1
  }
  param {
    name: "inception_5b/3x3_b"
    lr_mult: 2
    decay_mult: 0
  }
  convolution_param {
    num_output: 384
    pad: 1
    kernel_size: 3
    weight_filler {
      type: "xavier"
    }
    bias_filler {
      type: "constant"
      value: 0.2
    }
  }
}
layer {
  name: "inception_5b/relu_3x3_p"
  type: "ReLU"
  bottom: "inception_5b/3x3_p"
  top: "inception_5b/3x3_p"
}
layer {
  name: "inception_5b/5x5_reduce_p"
  type: "Convolution"
  bottom: "inception_5a/output_p"
  top: "inception_5b/5x5_reduce_p"
  param {
    name: "inception_5b/5x5_reduce_w"
    lr_mult: 1
    decay_mult: 1
  }
  param {
    name: "inception_5b/5x5_reduce_b"
    lr_mult: 2
    decay_mult: 0
  }
  convolution_param {
    num_output: 48
    kernel_size: 1
    weight_filler {
      type: "xavier"
    }
    bias_filler {
      type: "constant"
      value: 0.2
    }
  }
}
layer {
  name: "inception_5b/relu_5x5_reduce_p"
  type: "ReLU"
  bottom: "inception_5b/5x5_reduce_p"
  top: "inception_5b/5x5_reduce_p"
}
layer {
  name: "inception_5b/5x5_p"
  type: "Convolution"
  bottom: "inception_5b/5x5_reduce_p"
  top: "inception_5b/5x5_p"
  param {
    name: "inception_5b/5x5_w"
    lr_mult: 1
    decay_mult: 1
  }
  param {
    name: "inception_5b/5x5_b"
    lr_mult: 2
    decay_mult: 0
  }
  convolution_param {
    num_output: 128
    pad: 2
    kernel_size: 5
    weight_filler {
      type: "xavier"
    }
    bias_filler {
      type: "constant"
      value: 0.2
    }
  }
}
layer {
  name: "inception_5b/relu_5x5_p"
  type: "ReLU"
  bottom: "inception_5b/5x5_p"
  top: "inception_5b/5x5_p"
}
layer {
  name: "inception_5b/pool_p"
  type: "Pooling"
  bottom: "inception_5a/output_p"
  top: "inception_5b/pool_p"
  pooling_param {
    pool: MAX
    kernel_size: 3
    stride: 1
    pad: 1
  }
}
layer {
  name: "inception_5b/pool_proj_p"
  type: "Convolution"
  bottom: "inception_5b/pool_p"
  top: "inception_5b/pool_proj_p"
  param {
    name: "inception_5b/pool_proj_w"
    lr_mult: 1
    decay_mult: 1
  }
  param {
    name: "inception_5b/pool_proj_b"
    lr_mult: 2
    decay_mult: 0
  }
  convolution_param {
    num_output: 128
    kernel_size: 1
    weight_filler {
      type: "xavier"
    }
    bias_filler {
      type: "constant"
      value: 0.2
    }
  }
}
layer {
  name: "inception_5b/relu_pool_proj_p"
  type: "ReLU"
  bottom: "inception_5b/pool_proj_p"
  top: "inception_5b/pool_proj_p"
}
layer {
  name: "inception_5b/output_p"
  type: "Concat"
  bottom: "inception_5b/1x1_p"
  bottom: "inception_5b/3x3_p"
  bottom: "inception_5b/5x5_p"
  bottom: "inception_5b/pool_proj_p"
  top: "inception_5b/output_p"
}



###########################################################################################
########################################Identify layer input###############################
###########################################################################################
layer {
  name: "conv3_fea"
  type: "Convolution"
  bottom: "inception_5b/output"
  top: "conv3_fea"
  param {
    name: "conv3_feaw"
    lr_mult: 1
    decay_mult: 1
  }
  param {
    name: "conv3_feab"
    lr_mult: 2
    decay_mult: 0
  }
  convolution_param {
    num_output: 1024
    pad: 1
    kernel_size: 3
    weight_filler {
      type: "gaussian"
      std: 0.01
    }
    bias_filler {
      type: "constant"
      value: 0
    }
  }
}
layer {
  name: "relu3_fea"
  type: "ReLU"
  bottom: "conv3_fea"
  top: "conv3_fea"
}
layer {
  name: "conv4_fea"
  type: "Convolution"
  bottom: "conv3_fea"
  top: "conv4_fea"
  param {
    name: "conv4_feaw"
    lr_mult: 1
    decay_mult: 1
  }
  param {
    name: "conv4_feab"
    lr_mult: 2
    decay_mult: 0
  }
  convolution_param {
    num_output: 1024
    pad: 1
    kernel_size: 3
    weight_filler {
      type: "gaussian"
      std: 0.01
    }
    bias_filler {
      type: "constant"
      value: 0.1
    }
  }
}
layer {
  name: "relu4_fea"
  type: "ReLU"
  bottom: "conv4_fea"
  top: "conv4_fea"
}

layer {
  name: "pool5_fea"
  type: "Pooling"
  bottom: "conv4_fea"
  top: "pool5_fea"
  pooling_param {
    pool: MAX
    kernel_size: 3
    stride: 2
  }
}
layer {
  name: "fc6_Infea"
  type: "InnerProduct"
  bottom: "pool5_fea"
  top: "fc6_fea"
  param {
    name:"fc6_feaw"
    lr_mult: 1
    decay_mult: 1
  }
  param {
    name:"fc6_feab"
    lr_mult: 2
    decay_mult: 0
  }
  inner_product_param {
    num_output: 1024
    weight_filler {
      type: "gaussian"
      std: 0.005
    }
    bias_filler {
      type: "constant"
      value: 0.1
    }
  }
}
layer {
  name: "relu6_fea"
  type: "ReLU"
  bottom: "fc6_fea"
  top: "fc6_fea"
}
layer {
  name: "drop6_fea"
  type: "Dropout"
  bottom: "fc6_fea"
  top: "fc6_fea"
  dropout_param {
    dropout_ratio: 0.4
  }
}
layer {
  name: "fc7_Infea"
  type: "InnerProduct"
  bottom: "fc6_fea"
  top: "fc7_fea"
  param {
    name:"fc7_feaw"
    lr_mult: 1
    decay_mult: 1
  }
  param {
    name:"fc7_feab"
    lr_mult: 2
    decay_mult: 0
  }
  inner_product_param {
    num_output: 1024
    weight_filler {
      type: "gaussian"
      std: 0.005
    }
    bias_filler {
      type: "constant"
      value: 0.1
    }
  }
}
layer {
  name: "relu7_fea"
  type: "ReLU"
  bottom: "fc7_fea"
  top: "fc7_fea"
}
layer {
  name: "drop7_fea"
  type: "Dropout"
  bottom: "fc7_fea"
  top: "fc7_fea"
  dropout_param {
    dropout_ratio: 0.2
  }
}
layer {
  name: "fc8_Infea"
  type: "InnerProduct"
  bottom: "fc7_fea"
  top: "fc8_fea"
  param {
    lr_mult: 10
    decay_mult: 1
  }
  param {
    lr_mult: 20
    decay_mult: 0
  }
  inner_product_param {
    num_output: 1000
    #the num of identify
    weight_filler {
      type: "gaussian"
      std: 0.01
    }
    bias_filler {
      type: "constant"
      value: 0
    }
  }
}
layer {
  name: "loss_ID"
  type: "SoftmaxWithLoss"
  bottom: "fc8_fea"
  bottom: "label_ID"
  top: "loss_ID"
 
}
layer {
  name: "accuracy_ID"
  type: "Accuracy"
  bottom: "fc8_fea"
  bottom: "label_ID"
  top: "accuracy_ID"
}


###########################################################################################
################################identify_p classifier layer input##########################
###########################################################################################
layer {
  name: "conv3_pfea"
  type: "Convolution"
  bottom: "inception_5b/output_p"
  top: "conv3_pfea"
  param {
    name: "conv3_pfeaw"
    lr_mult: 1
    decay_mult: 1
  }
  param {
    name: "conv3_pfeab"
    lr_mult: 2
    decay_mult: 0
  }
  convolution_param {
    num_output: 1024
    pad: 1
    kernel_size: 3
    weight_filler {
      type: "gaussian"
      std: 0.01
    }
    bias_filler {
      type: "constant"
      value: 0
    }
  }
}
layer {
  name: "relu3_pfea"
  type: "ReLU"
  bottom: "conv3_pfea"
  top: "conv3_pfea"
}
layer {
  name: "conv4_pfea"
  type: "Convolution"
  bottom: "conv3_pfea"
  top: "conv4_pfea"
  param {
    name: "conv4_pfeaw"
    lr_mult: 1
    decay_mult: 1
  }
  param {
    name: "conv4_pfeab"
    lr_mult: 2
    decay_mult: 0
  }
  convolution_param {
    num_output: 1024
    pad: 1
    kernel_size: 3
    weight_filler {
      type: "gaussian"
      std: 0.01
    }
    bias_filler {
      type: "constant"
      value: 0.1
    }
  }
}
layer {
  name: "relu4_pfea"
  type: "ReLU"
  bottom: "conv4_pfea"
  top: "conv4_pfea"
}

layer {
  name: "pool5_pfea"
  type: "Pooling"
  bottom: "conv4_pfea"
  top: "pool5_pfea"
  pooling_param {
    pool: MAX
    kernel_size: 3
    stride: 2
  }
}
layer {
  name: "fc6_Inpfea"
  type: "InnerProduct"
  bottom: "pool5_pfea"
  top: "fc6_pfea"
  param {
    name:"fc6_pfeaw"
    lr_mult: 1
    decay_mult: 1
  }
  param {
    name:"fc6_pfeab"
    lr_mult: 2
    decay_mult: 0
  }
  inner_product_param {
    num_output: 1024
    weight_filler {
      type: "gaussian"
      std: 0.005
    }
    bias_filler {
      type: "constant"
      value: 0.1
    }
  }
}
layer {
  name: "relu6_pfea"
  type: "ReLU"
  bottom: "fc6_pfea"
  top: "fc6_pfea"
}
layer {
  name: "drop6_pfea"
  type: "Dropout"
  bottom: "fc6_pfea"
  top: "fc6_pfea"
  dropout_param {
    dropout_ratio: 0.4
  }
}
layer {
  name: "fc7_Inpfea"
  type: "InnerProduct"
  bottom: "fc6_pfea"
  top: "fc7_pfea"
  param {
    name:"fc7_pfeaw"
    lr_mult: 1
    decay_mult: 1
  }
  param {
    name:"fc7_pfeab"
    lr_mult: 2
    decay_mult: 0
  }
  inner_product_param {
    num_output: 1024
    weight_filler {
      type: "gaussian"
      std: 0.005
    }
    bias_filler {
      type: "constant"
      value: 0.1
    }
  }
}
layer {
  name: "relu7_pfea"
  type: "ReLU"
  bottom: "fc7_pfea"
  top: "fc7_pfea"
}
layer {
  name: "drop7_pfea"
  type: "Dropout"
  bottom: "fc7_pfea"
  top: "fc7_pfea"
  dropout_param {
    dropout_ratio: 0.2
  }
}

layer {
  name: "fc8_Inpfea"
  type: "InnerProduct"
  bottom: "fc7_pfea"
  top: "fc8_pfea"
  param {
    lr_mult: 10
    decay_mult: 1
  }
  param {
    lr_mult: 20
    decay_mult: 0
  }
  inner_product_param {
    num_output: 1000
    #the num of identify
    weight_filler {
      type: "gaussian"
      std: 0.01
    }
    bias_filler {
      type: "constant"
      value: 0
    }
  }
}
layer {
  name: "loss_pID"
  type: "SoftmaxWithLoss"
  bottom: "fc8_pfea"
  bottom: "label_pID"
  top: "loss_pID"
  
}
layer {
  name: "accuracy_pID"
  type: "Accuracy"
  bottom: "fc8_pfea"
  bottom: "label_pID"
  top: "accuracy_pID"
}


###########################################################################################
########################################similiarity layer input############################
###########################################################################################
layer {
  name: "conv2-all"
  type: "Concat"
  bottom: "inception_5b/output"
  bottom: "inception_5b/output_p"
  top: "conv2-all"
}

layer {
  name: "conv3-sm"
  type: "Convolution"
  bottom: "conv2-all"
  top: "conv3"
  param {
    name: "conv3_w"
    lr_mult: 1
    decay_mult: 1
  }
  param {
    name: "conv3_b"
    lr_mult: 2
    decay_mult: 0
  }
  convolution_param {
    num_output: 1024
    pad: 1
    kernel_size: 3
    weight_filler {
      type: "gaussian"
      std: 0.01
    }
    bias_filler {
      type: "constant"
      value: 0
    }
  }
}
layer {
  name: "relu3"
  type: "ReLU"
  bottom: "conv3"
  top: "conv3"
}
layer {
  name: "conv4-sm"
  type: "Convolution"
  bottom: "conv3"
  top: "conv4"
  param {
    name: "conv4_w"
    lr_mult: 1
    decay_mult: 1
  }
  param {
    name: "conv4_b"
    lr_mult: 2
    decay_mult: 0
  }
  convolution_param {
    num_output: 1024
    pad: 1
    kernel_size: 3
    weight_filler {
      type: "gaussian"
      std: 0.01
    }
    bias_filler {
      type: "constant"
      value: 0.1
    }
  }
}
layer {
  name: "relu4"
  type: "ReLU"
  bottom: "conv4"
  top: "conv4"
}

layer {
  name: "pool5"
  type: "Pooling"
  bottom: "conv4"
  top: "pool5"
  pooling_param {
    pool: MAX
    kernel_size: 3
    stride: 2
  }
}
layer {
  name: "fc6-sm"
  type: "InnerProduct"
  bottom: "pool5"
  top: "fc6"
  param {
    name:"fc6_w"
    lr_mult: 1
    decay_mult: 1
  }
  param {
    name:"fc6_b"
    lr_mult: 2
    decay_mult: 0
  }
  inner_product_param {
    num_output: 1024
    weight_filler {
      type: "gaussian"
      std: 0.005
    }
    bias_filler {
      type: "constant"
      value: 0.1
    }
  }
}
layer {
  name: "relu6"
  type: "ReLU"
  bottom: "fc6"
  top: "fc6"
}
layer {
  name: "drop6"
  type: "Dropout"
  bottom: "fc6"
  top: "fc6"
  dropout_param {
    dropout_ratio: 0.4
  }
}
layer {
  name: "fc7"
  type: "InnerProduct"
  bottom: "fc6"
  top: "fc7"
  param {
    name:"fc7_w"
    lr_mult: 1
    decay_mult: 1
  }
  param {
    name:"fc7_b"
    lr_mult: 2
    decay_mult: 0
  }
  inner_product_param {
    num_output: 1024
    weight_filler {
      type: "gaussian"
      std: 0.005
    }
    bias_filler {
      type: "constant"
      value: 0.1
    }
  }
}
layer {
  name: "relu7"
  type: "ReLU"
  bottom: "fc7"
  top: "fc7"
}
layer {
  name: "drop7"
  type: "Dropout"
  bottom: "fc7"
  top: "fc7"
  dropout_param {
    dropout_ratio: 0.4
  }
}


layer {
  name: "fc7-all"
  type: "Concat"
  bottom: "fc7_fea"
  bottom: "fc7_pfea"
  bottom: "fc7"
  top: "fc7-all"
}

layer {
  name: "fc7-sm"
  type: "InnerProduct"
  bottom: "fc7-all"
  top: "fc7-sm"
  param {
    lr_mult: 1
    decay_mult: 1
  }
  param {
    lr_mult: 2
    decay_mult: 0
  }
  inner_product_param {
    num_output: 2
    weight_filler {
      type: "gaussian"
      std: 0.005
    }
    bias_filler {
      type: "constant"
      value: 0.1
    }
  }
}

layer {
  name: "accuracy"
  type: "Accuracy"
  bottom: "fc7-sm"
  bottom: "label"
  top: "accuracy"
}
layer {
  name: "loss"
  type: "SoftmaxWithLoss"
  bottom: "fc7-sm"
  bottom: "label"
  top: "loss"
}